artifacts/poses_to_location/20250818180115/best_model.pt (torch, 376885 bytes, 48 tensors)

embedding.embeddings.bex_20230623_denoised.poses.weight f4 [64, 63]
00000000: 0922 06be 0708 c23c c81b ee3d f3bb acbc
00000010: 7d62 acba 8323 053c bf9a 3e3d 62d7 063d
00000020: 0aed a0bc 4624 debd 59e8 30bd f410 f6bc
00000030: 0c24 1dbe f52c 903c 01cc 5a3d 5fc9 8ebd
00000040: 40d7 db3d f18e 0abd d8b1 9ebd ebd8 0ebd
00000050: c816 de3d 1d47 4339 dcab 103c ae39 e5bb
00000060: 0bf8 3c3d 601d 0e3d a0f7 46bd 6cb0 88bc
00000070: 57ac 4abc cafe b83d 9b1e b7bd be0f 03bd
00000080: d69d 583c d33e c9bd debd c43c 07dd 173e
00000090: c26a b23b 4848 5d3d ae1f 5e3d db9f 823c
000000a0: 365e abbd 42ca 8d3d 2352 02bd 4d17 463d
000000b0: 42ba f33b 82ab 24bd d988 a2bc 7725 003d
000000c0: 2ed4 0e3d 4ff5 7033 0664 2d33 84c7 8abd
000000d0: ee6f a4b0 f0ed c82c 3afb d73d 1724 32be
000000e0: f47a 98bd ec9f 843c c70e 30be a87c 91bd
000000f0: f14b 933c 657c 0fbd f480 2831 5859 04be
00000100: 6e30 9d3d d79e 50bd 7ddc 53be 17af 34be
00000110: a772 4b3d b0a8 d8bd a1de 8f3d bb32 5abe
00000120: 0155 0fbd bf21 98bd b804 e7bc cb4d 51be
00000130: 4fc6 633e 2aef eabd de8e 38be 596f 303e
00000140: f232 3bbe e95a 1abc 85e4 27bd 1836 20bd
00000150: bd82 97bc b52f 603e 8e18 b23d d2e3 223e
00000160: c2de 743d 15d2 31be f115 79b8 c189 d63c
00000170: 2469 51bd 20bf 10bd d3f9 c63d b0b9 0ebe
00000180: ac0a 0abe 08ca 2dbb 8614 013e b44d 57bc
00000190: f7c1 963d 51d2 7e3d c9c8 263d 0304 88bd
000001a0: 5da6 d23c 9f4a 26be d398 ec3d e321 d23b
000001b0: cabf a4bd c022 4dbc b3ce 313d fa3c d43b
000001c0: 3ffa 8d33 2e69 33b3 efeb 203c d236 08b1
000001d0: 0e29 acb0 5c50 973d 0411 bbbc d812 af3d
000001e0: 3385 b83d e434 27bd f768 18bc 9bc4 173e
000001f0: 2223 7a3c fb1f f231 724d 93bd 6a10 7e3d
00000200: ba89 f83b 9e15 b2bd ddd0 ddbd b002 2c3d
00000210: 1a88 9abd 9cb8 01bd 5e28 3d3c a3d9 1abd
00000220: b3dd 2e3d bb7f c43a 4739 c0bd c4d7 293e
00000230: 4fbf 803b 723c 323e dcbc 2cbe 7d25 853e
00000240: 85e6 a8bd 3f93 03be c44d 443d 51a5 5b3c
00000250: fbb7 fe3d 90c6 e53d 2a89 03be 8dec b93d
00000260: f0af b2bd 30a4 4ebd 8645 2bbd 5ef5 53bd
00000270: 9ac5 9cbd a791 5a3d 2ea3 513d a183 2e3e
00000280: 3a81 6a3d 82b1 e5bd 95c6 6f3d 43bf 36bd
00000290: 3c2e e8bd bc76 d4bc 3214 a43d 270b 813d
000002a0: 165a 02bd 4aa5 1f3e e6af 6a3c dab5 d43d
000002b0: c456 413e 9585 55be 59a8 e1bc f280 b7b3
000002c0: ba72 3cb4 b438 063d b4ea 3031 7261 9330
000002d0: b5a8 82bd b0bf bcbc bd43 cbbd 50cc a23d
000002e0: d03e 713c 3422 30be 86d0 c53d 89cd 7dbc
000002f0: de41 16b2 d56d 1e3d 9394 7bbd 9822 dfbc
00000300: 641b ab3c d75a a23d 8470 f3bc 2144 a6bd
00000310: f25a 293d 5617 93bd 7a3d 1b3d 26d0 8f3c
00000320: d417 fdbd 360b b93d ecde babd 758e 1e3d
00000330: e9a1 07be 1aea 453e 78e2 9abe 46b7 463d
00000340: c91d bf3d 7f76 813d c28d ffbc f9e8 fdbd
00000350: e547 02be bea3 7d3d c5fd 05be 785c 94bd
00000360: c866 00bc 97b6 66bd 1d80 8b3c 42b9 163d
00000370: 1ad0 813d 991c 49bc 2e8c f7bd 1657 c03c
00000380: 7607 083e 331d 1bbd 2ca0 40bd f624 5cbd
00000390: e1d8 9b3c 627a 38be 729a 09be 9c9d e1bc
000003a0: c4f9 00be ddc9 aabc 198a ebbd b98b 33be
000003b0: ea4b 4e3e 2bd2 73bd e48e dcb3 9fed e033
000003c0: b34c 7f3c d3bb 28b1 8454 c3b0 9e8e 4a3c
000003d0: 19c4 043e 4544 d33d ab01 c0bd 2788 8b3d
000003e0: 5fe3 343e 3d97 98bd 08eb 7b3d 5786 0632
000003f0: 384c 173d a4a4 243b 126d dd3d 0df7 0b3d
-0.13098921 0.023685468 0.116263926 -0.021085715 -0.001315191 0.008126142 0.046534296 0.03292025
-0.019644279 -0.10846762 -0.043190334 -0.03003738 -0.15345782 0.017599562 0.05341721 -0.06972002
0.10734415 -0.033827726 -0.07748765 -0.034874838 0.10844189 0.00018623141 0.008830037 -0.0069954013
0.04613499 0.034695983 -0.048575997 -0.016685687 -0.012370191 0.09032972 -0.089413844 -0.031997435
0.013221225 -0.09826436 0.024016317 0.14830409 0.0054448554 0.05402401 0.05422943 0.015945366
-0.08367579 0.06923343 -0.031816613 0.048362065 0.007437975 -0.040202625 -0.019840645 0.03128573
0.03487032 5.610246e-08 4.0370672e-08 -0.06776336 -1.1964383e-09 5.7107583e-12 0.105459645 -0.1739658
-0.074453264 0.016189538 -0.17193137 -0.071038544 0.017980548 -0.03503074 2.452052e-09 -0.12924707
0.07675253 -0.05093273 -0.20689578 -0.17644916 0.049669888 -0.105790496 0.07024885 -0.21308415
-0.034993175 -0.074283116 -0.028200492 -0.20439832 0.22243617 -0.11471398 -0.1802325 0.17229976
-0.18281153 -0.009421089 -0.040989418 -0.039114088 -0.018494958 0.21893199 0.0869609 0.15907219
0.05978275 -0.17365296 -5.938666e-05 0.026188733 -0.05112566 -0.03533852 0.09715619 -0.13938022
-0.13480633 -0.0026518125 0.12605485 -0.013141084 0.073612146 0.062212292 0.040718827 -0.0664139
0.025714094 -0.16239403 0.115525864 0.006412731 -0.08044393 -0.012520492 0.043410014 0.0064769955
6.611344e-08 -4.1772346e-08 0.009821876 -1.9821766e-09 -1.2526316e-09 0.07388374 -0.022835262 0.08548516
0.09009781 -0.040821925 -0.009302369 0.14821093 0.015267165 7.0467627e-09 -0.07192506 0.062027372
0.0075847777 -0.086955294 -0.10830853 0.04199475 -0.075454906 -0.031670198 0.011545269 -0.03780521
0.042691898 0.001499168 -0.09385925 0.16586214 0.0039290558 0.1740587 -0.16868919 0.26005164
-0.08247093 -0.12849139 0.047925726 0.013406114 0.12437435 0.112195134 -0.12845293 0.090783216
-0.08724964 -0.05044955 -0.04181435 -0.051747672 -0.07654877 0.05336156 0.05118101 0.170424
0.057252146 -0.112154976 0.058538992 -0.044615995 -0.113369435 -0.025935523 0.080116645 0.06300955
-0.031824194 0.15590397 0.014324164 0.10386248 0.18880755 -0.20851739 -0.027546095 -8.5450566e-08
-1.7550602e-07 0.03276892 2.5744784e-09 1.0723353e-09 -0.063798346 -0.023040622 -0.099250294 0.07949126
0.014724448 -0.17200547 0.09658913 -0.015490898 -8.746126e-09 0.038678963 -0.06142099 -0.027238175
0.020887084 0.079274826 -0.029716738 -0.08118463 0.041346498 -0.07182185 0.037900425 0.017555308
-0.123580605 0.090353414 -0.0912455 0.038710076 -0.13245358 0.19327584 -0.30250907 0.048514627
0.09331853 0.063214295 -0.031195525 -0.12397952 -0.12722738 0.061923735 -0.13085087 -0.072441995
-0.007837005 -0.056326475 0.017028863 0.03679777 0.0633852 -0.012274885 -0.12087284 0.023479026
0.13284096 -0.037869643 -0.04702775 -0.053746186 0.019024314 -0.18015435 -0.13437822 -0.027540974
-0.12595278 -0.020848209 -0.115009494 -0.17533769 0.20146146 -0.059526604 -1.027054e-07 1.0474036e-07
0.015582251 -2.4553983e-09 -1.4212138e-09 0.012363104 0.1296543 0.10315756 -0.09375318 0.068130784
0.1766486 -0.074507214 0.06150344 7.830372e-09 0.036937922 0.0025122548 0.10811819 0.034171153

embedding.embeddings.bex_20230623_denoised.poses.bias f4 [64]
00000000: da2e 3fbe 2a4f fcbc 43f6 0d3d 29bd 7e3b
00000010: 9b64 c9bc 9d20 fcbd f361 81bd 5acf 6b3e
00000020: f0b0 81bd 8069 f2bd 7388 113d 04e6 183c
00000030: b984 f5bd 4db8 8cbd 36d9 91bd 3ed4 993c
00000040: e550 40be dc53 c83d 8a0d eb3c 8081 39bd
00000050: fe65 e53d 996d 233e 6176 07be df52 a93e
00000060: c4d3 b23d 846a 32bd 2602 813e 7df5 f13d
00000070: 49f2 d93d 4ac5 06be aad0 a7bd 5171 22be
00000080: 9e38 2cbe f59e 9a3d 272c 6ebd 3288 833e
00000090: 3fa9 8a3d de21 20be 5963 e9bd bebd a2bd
000000a0: 77d2 a4bd 4c2d 983c ffe6 b13d 9e9c 44bd
000000b0: 9b17 c43c 317f 0fbe d7ef 713c ef9c dcbd
000000c0: df24 033c 102c 113e 3411 2b3e 9ead 1fbe
000000d0: bbbc 85bd 6b6a 06be 3951 1c3e 57ce c53d
000000e0: 29a5 7abc 1bf0 0bbe e000 523c 7c94 2ebe
000000f0: 212f 1e3e f036 a13d 52fa cebd c51b be3d
-0.18670216 -0.030799467 0.03465868 0.0038870072 -0.024584105 -0.12310908 -0.063175105 0.23028317
-0.06332576 -0.11836529 0.03553052 0.009332184 -0.119882055 -0.0687109 -0.07121508 0.018777963
-0.18780859 0.0978162 0.02869298 -0.045289516 0.11201094 0.15959777 -0.13228752 0.33071038
0.08731797 -0.043558612 0.25196952 0.11814401 0.10641915 -0.13161197 -0.081940964 -0.1586354
-0.16818473 0.0754985 -0.058147576 0.25689846 0.067705624 -0.1563792 -0.11395902 -0.07946347
-0.080479555 0.018576287 0.08686637 -0.048000924 0.023937037 -0.14013363 0.014766655 -0.1077212
0.008004396 0.14176965 0.16705781 -0.15593573 -0.06530138 -0.13126533 0.15265359 0.09658497
-0.015298166 -0.13665812 0.012817591 -0.1704883 0.15447666 0.078718066 -0.101063386 0.0928264

embedding.embeddings.ken_20230614_denoised.poses.weight f4 [64, 63]
00000000: 490a a23c f49a 233c e442 613d f3c0 5d3d
00000010: 4136 8c3d 7968 363d 33c6 253d 7465 dfbc
00000020: e9d5 70ba b8d9 a33c bfc8 d4bc adf3 8abc
00000030: 8d4a 03bc da7a 9bbc 5e5e a63d 2887 b2bd
00000040: aa0c 083d a4a7 343d bc39 943a dc51 d83d
00000050: 40a7 d2bc c53f 13bb 55bf ba3d 2ff6 3e3c
00000060: ef95 c63c ec45 8a3d 13ae 40bd 5f43 0cbd
00000070: dc4f 783d e944 53bd bf42 c03b 0571 2e3b
00000080: 6aa0 0fbd 2907 69bc 236c 023b a86a 2abd
00000090: d8f7 323b 21a5 ab3d d46c 7bbb 03cd 0d3b
000000a0: a919 933c eafa 56bd 6a15 083c 44e6 0c3d
000000b0: 04f4 14bd b1b5 263d 16c9 2d3d 597a 6bbd
000000c0: 2c27 393d 269c d134 3ab5 0cb2 b919 29bd
000000d0: 6ad2 6e30 8061 53ac 1dad 8d3d d798 03bd
000000e0: ac37 34be dd8a 8abd be04 d7bd a066 11be
000000f0: bc5a 59bd 068a 3dbd 79c8 1cb2 b097 2abd
00000100: 8f8f c0bb d06a 7e3d fe34 7f3d 9025 1b3e
00000110: f72e abbd 6b98 b63c cf62 a8bd 8818 88bd
00000120: 311c 22bb bc73 c83d 6e83 c6bd 41bc b9ba
00000130: aed8 08be a147 c63d ed8f 84bd 399c 933d
00000140: 5c21 df3d a0ef 503c 7b57 fc3c c7b2 2b3d
00000150: dddd 5fbc fc40 3b3d 024c 12be d6c0 38bd
00000160: 18a2 09bd 0f63 2fbd 6bdc 9cbb de9b b93b
00000170: c7a2 083d 0d7d 6e3d 0941 5dbd 2451 2abb
00000180: 1136 883b fae0 843c 93a8 dbbb c18b c4bc
00000190: 2fe6 9b3c 4da2 8fbc a9cf 24bc 832d 753c
000001a0: a95b 2cbd af03 80bc 013f 1e3d ef50 403c
000001b0: c612 1d3e 6581 163c 84be c0bd b14e 45bc
000001c0: 3856 17b4 c644 c5b3 6f58 843c c13f dab0
000001d0: 7292 dfaf 8015 a93c 6fdb 133c 095f 92bd
000001e0: 4bef 223d f104 78be d5f5 4c3e 9a15 813b
000001f0: ec31 ab3c af59 1ab2 8803 f93c eced 2d3d
00000200: 3091 0dbd 37b6 ffbb b45e b0bd 209a d43d
00000210: 4782 6e3d 152e d9bd 8590 a83d f7f7 e5bb
00000220: f909 af3c 3257 6d3d 1405 d2bc 2bbc b3bc
00000230: 15cc b8bc 3040 1f3e 7c81 c0bd c426 653d
00000240: 378a 37bd 1753 183d 7b57 4ebc c06d 2ebd
00000250: 7528 193d 376c b2bd 7b87 9abd 323b a2bd
00000260: f75b da3c 0637 813c b495 3ebd dee7 bfbd
00000270: 5f4f 68bd df5a 163d 0fbc 2c3d 8466 0b3c
00000280: f125 ed3d 10d3 d13c 42bb 0d3e 2b17 a53c
00000290: 3841 953d 6150 50bc da5c a63d e7a2 e83b
000002a0: 69f1 cb3d f09c e5bd 963a 8c3e 4693 113e
000002b0: d6fd 34be 1899 e6bc 286a d5bc 01d9 fa33
000002c0: 7c1b 2633 c3af 233d 20c7 972f 34d7 f130
000002d0: 9da4 db3c 8d2e 4f3d 03e1 9dbd acf4 10bd
000002e0: fa22 da3c 680e 0dbe 8a6c 8bbd 6796 6dbc
000002f0: 1957 0e32 cf2e adbd 6a08 2dbd 3017 d7bd
00000300: b712 023c 2094 da3d 55f9 a9bd 9782 41bd
00000310: 32e4 c93d bfef 7ebd 0c50 33bc 9b12 b23c
00000320: 49d4 3fbd 21fc b23c 64c3 a7ba 56c7 b3bd
00000330: 72ce 27be 2cc2 cc3d 7fcb 26bd 9be7 163c
00000340: fb80 acbd 451a c8bd 4ebd 953c e84c 15bd
00000350: d945 9d3d 7710 183d bc28 1abd e1e7 24be
00000360: 33e9 78bc 676a 453d e396 72bd 1e06 963d
00000370: d085 40bd 193e c33d 8269 4d3a e80d 08be
00000380: 34a2 c13d 4c9e 2ebe cd28 c5bc 47fd 393d
00000390: 3c33 19bb 2de0 163b 6aee 943c 8af9 d5bd
000003a0: 9744 e23d 73de 82be 813a cdbd b66b 1d3e
000003b0: 9fc7 af3c b446 b3bc 4812 a7b5 e0ee 35b3
000003c0: 5af5 6d3c 1cbd b22e 2e0f 41b1 6e26 64bd
000003d0: 849e 28bd 527e d73d 5924 993d 60bb aebd
000003e0: df3e 3b3e c631 c83d 9597 343d 7c03 56b3
000003f0: c526 913c 2b0e 22bd f5bd 613d decf 7bbc
0.019780295 0.009985674 0.054995432 0.05413909 0.068462856 0.044533227 0.04047222 -0.027270056
-0.00091871485 0.020001277 -0.02597463 -0.016961897 -0.00801338 -0.018979479 0.08123468 -0.08717185
0.033215202 0.044105187 0.001130871 0.105624884 -0.025714517 -0.002246843 0.09118525 0.011655374
0.024241416 0.06751618 -0.04704101 -0.034243938 0.060623035 -0.05157939 0.0058673318 0.0026617658
-0.035065092 -0.0142228985 0.001990088 -0.04160562 0.002730837 0.08381105 -0.0038364427 0.002163709
0.017956572 -0.052485384 0.008305887 0.034399286 -0.036365524 0.04070062 0.0424281 -0.057489727
0.045203373 3.9042897e-07 -8.190279e-09 -0.041284297 8.688291e-10 -3.0039027e-12 0.06917784 -0.03212818
-0.17599362 -0.06764767 -0.104989514 -0.14199305 -0.053065047 -0.046274208 -9.125977e-09 -0.041648567
-0.0058764885 0.062113583 0.062306397 0.15151048 -0.08358567 0.022289475 -0.08221971 -0.06645304
-0.0024736042 0.097876996 -0.09693037 -0.0014170484 -0.13363907 0.09681631 -0.06472764 0.072075315
0.10895035 0.012752444 0.030803433 0.041918542 -0.013663736 0.04571627 -0.14286807 -0.045105778
-0.03360185 -0.04281908 -0.004787018 0.005664333 0.03335836 0.058224726 -0.0540171 -0.0025988305
0.004156836 0.016220558 -0.006703445 -0.023992421 0.019030659 -0.017533446 -0.010059276 0.014964464
-0.0420796 -0.015626756 0.038634304 0.011738046 0.15339193 0.0091861235 -0.09411338 -0.012042687
-1.4094337e-07 -9.186037e-08 0.01615545 -1.5879708e-09 -4.066752e-10 0.020640135 0.009024485 -0.07147033
0.03977899 -0.24220635 0.20015652 0.0039393427 0.020897828 -8.9843715e-09 0.030397192 0.042463228
-0.03456229 -0.007803704 -0.08611813 0.103809595 0.05822971 -0.106044926 0.0823069 -0.007018085
0.02136706 0.057944484 -0.025637187 -0.021940311 -0.022558251 0.1555183 -0.09399697 0.055945173
-0.044809546 0.037188616 -0.012594099 -0.042585135 0.0373921 -0.087120466 -0.07545372 -0.07921447
0.02665518 0.015773308 -0.046529487 -0.09370397 -0.05671632 0.036707755 0.042171534 0.008508328
0.115795024 0.025613338 0.13840964 0.020152649 0.0728783 -0.012714476 0.08123179 0.0070994976
0.09958155 -0.11211574 0.27388448 0.14216337 -0.17674956 -0.028149173 -0.026051596 1.1681005e-07
3.8674884e-08 0.03996254 2.7608227e-10 1.7596222e-09 0.026811892 0.050581504 -0.07708933 -0.035389587
0.026628006 -0.13775027 -0.068078116 -0.014501191 8.285292e-09 -0.08456194 -0.042244352 -0.105024695
0.007939032 0.10672784 -0.082995094 -0.04724368 0.09857978 -0.06224036 -0.010944378 0.021737387
-0.04683331 0.02184874 -0.001279932 -0.08778255 -0.16387346 0.09997973 -0.040721413 0.0092104925
-0.084230386 -0.097706355 0.018278744 -0.036450297 0.07679338 0.037125077 -0.037636504 -0.1610408
-0.015192318 0.048197176 -0.059225928 0.073253855 -0.047002614 0.095333286 0.0007835851 -0.13286555
0.09454766 -0.17052573 -0.024067307 0.04540756 -0.0023376485 0.0023021803 0.018180091 -0.104479864
0.11048239 -0.2556034 -0.10020924 0.1537312 0.021457491 -0.0218843 -1.244779e-06 -4.2359602e-08
0.014523828 8.1280954e-11 -2.8093825e-09 -0.055700712 -0.041166797 0.105221406 0.07477636 -0.08531833
0.18285702 0.097751185 0.044089872 -4.9828927e-08 0.017718682 -0.039564293 0.055112798 -0.015369384

embedding.embeddings.ken_20230614_denoised.poses.bias f4 [64]
00000000: d57b 33be 56e9 85bd 4c9e 023e 3fea 0abd
00000010: 88e8 9f3d 6a20 54bd d517 bc3d 62b9 803d
00000020: 2a60 fdbc f759 34be 264a cabb 46cc f6bd
00000030: 31eb 103e b73b 7c3d ddb6 26be 91dd 53bc
00000040: e8d4 d5bc 8a21 953d 0027 763d 05da 0dbe
00000050: 320d 3fbd 1275 643d 30e1 a5bd 650a 853e
00000060: b5ca f33d bcdc bf3c 39da a23e 70de 9e3c
00000070: c9e8 44bd c312 05be a714 0b3d bfca 1cbd
00000080: 92a4 f6bd 076c 72bd a0a3 d2bd 70b0 06bc
00000090: c6e6 a3bd 6587 f6bd 2871 01bd 89fe 60be
000000a0: 07da 7c3d f8fa 493d 6c21 923d 1d31 0fbd
000000b0: b15c fe3c 9347 98bb 28aa a6bd 7504 d8bb
000000c0: 4388 8f3d c363 113e 764d 123c 1530 5cbe
000000d0: 6557 b33d 227f 75bd b017 3e3e 8aa6 a43d
000000e0: 4628 2f3c 645c 3cbd ef74 edba 0bd1 983c
000000f0: 342a 003d 750c 44bd 9269 463c 2e90 b23d
-0.17527707 -0.06538646 0.12755698 -0.0339148 0.07808024 -0.051788725 0.09184233 0.06285359
-0.030929644 -0.17612444 -0.00617339 -0.12050681 0.14152218 0.061580386 -0.16280694 -0.0129312435
-0.026102498 0.07281788 0.060095787 -0.13852699 -0.046643443 0.05577571 -0.08099592 0.25984493
0.11903898 0.023420684 0.31807116 0.019393176 -0.048073564 -0.12995438 0.033955242 -0.03827929
-0.12043108 -0.059185054 -0.10285115 -0.008220777 -0.08003001 -0.12037543 -0.031602055 -0.21972097
0.061731365 0.049311608 0.07135281 -0.034958947 0.031050058 -0.004647204 -0.081379235 -0.006592328
0.07008412 0.14198212 0.008929601 -0.21502717 0.087569036 -0.059935696 0.18563724 0.08039577
0.010690754 -0.045986548 -0.0018116514 0.018654367 0.031290248 -0.047863442 0.012110131 0.08718906

embedding.embeddings.ken_20230618_denoised.poses.weight f4 [64, 63]
00000000: 9cb0 403d 8eb4 28bd 6982 773d 4219 63bd
00000010: a2f3 dbbc 2c9a 0f3d 1531 6b3b 2a6d aabb
00000020: bf43 4cbc 016a 91bb e98c 61bd a405 843c
00000030: 4cf9 123d 19bb 4ebc 8c8d 3f3c 8381 a93c
00000040: 957a 19ba 3058 4ab9 2054 17bd 7b1d 8a3d
00000050: cab9 bb3c c00d 20bd b334 b13d 24a3 0b3d
00000060: 5958 6cbd 4045 b03d c43e e0bd e1a8 86bd
00000070: b625 3a3d cbed ebbb 23ae c3bc b2f9 483d
00000080: cb35 183d 813a 663c bf0a 663d 9a70 52bd
00000090: 7316 3e3b 8591 e03d c312 41bd 91cc 7abc
000000a0: 3e2e b13d 9ac9 8ebd ecce f03c 4def afb9
000000b0: 2dcc 40bc 2d1c 863b fab8 123d dbbf aa3c
000000c0: bb66 023d b52f 3a33 178e 6233 d83e 05bd
000000d0: 5ede 22af 14c6 1930 5e28 803d 2389 5ebd
000000e0: 5e16 2abe 6ed0 b8bd b63d 27bb 26dc 59be
000000f0: 6094 033c 185e 05bd 6c76 eab0 7589 8f3d
00000100: f9d1 c63c 3d60 1cbb 6482 d5bd 4469 8cbd
00000110: 2853 9a3d 6a19 8fbd 50ea 543d 0ae1 6b3d
00000120: b2eb 033d fe00 fdbd b296 3d3c a051 123b
00000130: 6b24 133e 8a4e b8bc 7f59 0c3d 126b c2bd
00000140: 6105 b0bd dc2c 863c 4b3a c13c 5ca1 bbbc
00000150: adbb 413c 2b68 193c b058 f13a f11d 2abd
00000160: 8bfc cb3c e871 91bd 9153 533d edc2 4e3d
00000170: 1a5c 91bd 4d33 88bb a0a1 923d a991 58bd
00000180: cdf7 843b aa67 363d a771 e9bc 1c35 42bd
00000190: 6319 3d3d c777 f83c 81c6 67bd 6a1c d03d
000001a0: ae3a 1cbd d74d 7dbd d9f1 b23c 930f 3ebd
000001b0: 8847 2abe 7863 0c3d ccc5 e43d b9ef f939
000001c0: 7891 22b4 524a bab3 fb4d b9bb e3b0 b5b0
000001d0: 96c1 442f 1e5a 743d 8f40 aebd 1a4a 2e3c
000001e0: c182 5fbd b0d7 5e3e c54d 9bbe ea89 c63d
000001f0: 14fa 88bb 5c5a cd31 0f27 dd3c 2531 643c
00000200: 9ca7 31bd b2a0 dabd e830 e0bd e2a6 0f3e
00000210: e2c1 b63c 0157 d0bd fe11 e83d b4b2 4bbc
00000220: 9a6c 3ebd 59cb d53d f5b3 6e3d 7fb2 e83c
00000230: c30a 18bd 44d0 633e 76d5 2cbe 8e04 dbbb
00000240: 3b0d f0bc ae84 f63c fb90 35bd cf0c 64bd
00000250: 65d8 8bbd 355b 5d3a 47bb 63bc 94fa a63d
00000260: c1a6 f83d c8ad 043d 9267 923d de00 b9bc
00000270: b745 a6bd 9cbb 4a3d 3b1b 9cbd 273c 65bd
00000280: edcd ee3d ced4 65bc f74e e43d 1aff 97bd
00000290: e62c 83bd 8c0f ec3c fee2 593d 5b91 d53a
000002a0: 953a b83d 6baf f3bd 6d08 503e 5adb 843d
000002b0: 4e73 41be ea36 cabd 6793 b4bc f1e0 b4b4
000002c0: 4816 f7b4 f543 253d 26a3 dfb1 20f1 3d31
000002d0: 4e52 243d 009c d33c 9ccc a4bd fba6 85bd
000002e0: 6bfe d23d 6045 0abe 44f4 a1bc fe1b 27bb
000002f0: 94e7 e531 a3b7 b2bd 096a 053d 4760 d33b
00000300: 23be 323d f98f 973d 253a 23be 6ffa a7bd
00000310: 34dd ed3d b5b9 7dbd 68f6 d73c 6c41 083c
00000320: 1e2f 4ebd c472 32bd 3ece 7f3d 2068 b6bd
00000330: a95e 4abe b502 0b3e 540a 77bd b862 a83c
00000340: fcf1 56bd 21db 7f39 0f46 583d afbd fbbc
00000350: f771 abbb a250 6eba 89b4 a7bc 9bb5 d8bd
00000360: 0db5 55bc 7990 f6bc 2c69 5c3d d1d0 753d
00000370: 7dd0 d1bb 8a88 39bc 1314 843d 9cf4 f0bd
00000380: 1992 dc3c 05e9 19be 987b ccbc 9cbf ecbd
00000390: 8603 16bd f75e 5cbb 54fd 033d aa2d debd
000003a0: bb82 fc3d 68a9 52be 0007 f0bd 60fc 373e
000003b0: 593e b43d ebbf 8039 4043 b334 b112 9234
000003c0: 8b25 fd3b a19c 7ab0 626a 902f a8b5 31be
000003d0: 261d 62bd a79c 333e 4a3e cf3d 6697 593b
000003e0: fb6a b23d 6791 a03d 8e98 e13c 2c86 87b1
000003f0: d7b4 273d 0bbb 29bd 6576 693c 4488 e33c
0.047043428 -0.041187815 0.060427103 -0.05544401 -0.026849572 0.03505914 0.003588741 -0.0052010017
-0.012467324 -0.0044376855 -0.055066023 0.01611597 0.03588228 -0.01261785 0.011691462 0.020691639
-0.0005854753 -0.00019297074 -0.036945462 0.06743904 0.02291574 -0.039075613 0.0865263 0.03409113
-0.057701442 0.086069584 -0.109494716 -0.0657518 0.04544612 -0.007199978 -0.023886746 0.049066253
0.037160676 0.014052034 0.056162592 -0.051376916 0.002900508 0.10965256 -0.047137033 -0.0153075615
0.08651398 -0.06972046 0.029395543 -0.00033556894 -0.011767429 0.0040927143 0.03582094 0.020843437
0.031836253 4.334989e-08 5.2748955e-08 -0.032530636 -1.4812815e-10 5.594256e-10 0.062576994 -0.054330003
-0.16610095 -0.0902413 -0.002551896 -0.21275386 0.008030981 -0.032560438 -1.7059398e-09 0.0700864
0.024270045 -0.0023861073 -0.10425261 -0.06856015 0.07535392 -0.06987269 0.05198127 0.05758766
0.0322072 -0.12353705 0.011571573 0.0022326484 0.14369361 -0.022498388 0.034265038 -0.09493078
-0.08594776 0.016378812 0.023587367 -0.02290409 0.011824531 0.0093632145 0.0018413272 -0.04153246
0.024900695 -0.07101804 0.051593367 0.050478864 -0.07097645 -0.004156506 0.07159734 -0.052873287
0.0040578605 0.044532456 -0.028496576 -0.04741393 0.04616679 0.030330552 -0.056585792 0.101616696
-0.0381419 -0.061841812 0.021843838 -0.04640157 -0.1662885 0.03427455 0.11170539 0.00047671588
-1.5140347e-07 -8.674819e-08 -0.005655048 -1.3219758e-09 1.7894872e-10 0.059656255 -0.08508407 0.010637784
-0.054568056 0.21761966 -0.3033277 0.09694274 -0.0041802023 5.976558e-09 0.026996164 0.013927733
-0.043372735 -0.106751814 -0.10946828 0.14028504 0.022309247 -0.10172845 0.11331557 -0.012432743
-0.04649029 0.10439176 0.05827709 0.028405426 -0.03711964 0.22247416 -0.16878304 -0.0066838926
-0.029303184 0.030092563 -0.044327717 -0.055676278 -0.06828383 0.0008444072 -0.013899631 0.08153263
0.12141181 0.032392293 0.07148661 -0.022583421 -0.08118766 0.049495324 -0.07622381 -0.05596557
0.11660371 -0.014027787 0.11147874 -0.07421704 -0.06405048 0.028816007 0.053194992 0.001629393
0.08995549 -0.11898693 0.20315714 0.064871505 -0.18891641 -0.09873755 -0.022042943 -3.369128e-07
-4.6023547e-07 0.040348012 -6.508702e-09 2.7640183e-09 0.040117554 0.025831223 -0.08046839 -0.065259896
0.103024326 -0.13503027 -0.019769795 -0.0025498862 6.6911046e-09 -0.08726432 0.032571826 0.006450686
0.04363836 0.074005075 -0.15940149 -0.08202063 0.11614457 -0.061944682 0.026362613 0.008316379
-0.050337903 -0.04356648 0.062452547 -0.08906579 -0.19762672 0.13575251 -0.060312584 0.020554885
-0.052476868 0.00024400327 0.052801188 -0.030730097 -0.0052320915 -0.0009090995 -0.020471828 -0.105815135
-0.013043654 -0.030098187 0.053811237 0.060013596 -0.0064030276 -0.011324057 0.06449141 -0.117654055
0.026925134 -0.15030296 -0.024961278 -0.11559984 -0.036624454 -0.003362594 0.032224014 -0.108485535
0.12329622 -0.20572436 -0.11720085 0.17967367 0.08800954 0.00024557053 3.339028e-07 2.720822e-07
0.0077254227 -9.1172053e-10 2.6269037e-10 -0.17354453 -0.05520358 0.17540227 0.101193026 0.0033201813
0.08711811 0.07840233 0.027538564 -3.9442707e-09 0.040943947 -0.041438144 0.014249419 0.027774937

embedding.embeddings.ken_20230618_denoised.poses.bias f4 [64]
00000000: 96a1 c9bd f915 483c 84de a63d 396b 523c
00000010: 590c ccbd 4d19 10be 95c1 0c3d 9af3 333d
00000020: 1800 1abc 9a81 08be c082 cbbd 3996 04be
00000030: cd32 1d3e d216 463d 1c94 16be 7f51 65bc
00000040: 9f56 a0bd 6b44 c5bc bc30 de3d 61d4 13be
00000050: f7a1 363d 0853 b43d 9f05 68bd 9778 6f3e
00000060: b359 bf3d 41a7 453d cb9f 333e ea15 a43d
00000070: 4420 e5bd e091 2fbd bac7 24bd 69c7 82bd
00000080: c81e 29be 4a41 9f3d 5eba 39be 6e1e d83d
00000090: 6626 11be 2a06 6cbd 70a3 eebc 3755 68be
000000a0: dd17 193e b7ce 5d3c b002 8abd 4913 833d
000000b0: c8a6 cd3d a227 f1bd df75 9ebd d0e3 e2bd
000000c0: d266 2d3e 31e1 d93d 6227 fd3d 0117 62be
000000d0: a535 1a3e bcdb d4bd 1d79 803e 3586 a93c
000000e0: aa44 d33d 7f16 e3bd 509b f63c d696 313c
000000f0: 0a82 65bd 2a66 b33d 927a 5b3c 0264 d3bc
-0.09845273 0.01221227 0.0814791 0.012842947 -0.09963293 -0.14072151 0.0343643 0.04393349
-0.009399436 -0.13330689 -0.09937048 -0.1294793 0.1535141 0.048361607 -0.14704937 -0.013996481
-0.07829022 -0.024080476 0.10849139 -0.14436485 0.044588055 0.088048995 -0.056645986 0.23385845
0.09343281 0.04825521 0.17541425 0.08011992 -0.11187795 -0.042863727 -0.040229537 -0.06385691
-0.16515648 0.07776125 -0.181375 0.10552679 -0.14174804 -0.057623066 -0.029130667 -0.22688757
0.1495051 0.013538054 -0.06738794 0.06400163 0.100415766 -0.117751375 -0.07737326 -0.11078608
0.16933754 0.10638655 0.12361027 -0.22079088 0.15059526 -0.103934735 0.25092402 0.020693878
0.10315831 -0.11088275 0.030103356 0.010839185 -0.056032218 0.087597206 0.013395922 -0.025804523

core.core.fc.0.0.weight f4 [128, 64]
00000000: 1d3c 65bd b817 5cbc 2350 863c 85a0 84bb
00000010: 4ff6 483c a810 9abc 4c96 cabb 4412 0e3d
00000020: 3767 ca3b 8eba 24bd 0712 173b c400 70bc
00000030: a071 2e3c 2915 c33c 30b7 8ebc 8c7f 30bc
00000040: 08be 48bc 08f2 a1bb a3f2 883b 9ead 72bc
00000050: f049 b73c a150 493d 8320 f0bc d1c7 8a3d
00000060: 571e d33c 7aba a5bc df21 b83c 9ce1 3d3d
00000070: 7e89 90ba 36af afbc 8695 1bbb fdfb b239
00000080: 3d35 01bd 5f47 893c 0cdb d4bc 1ffb ec3c
00000090: a05e 09bb 80c0 32bd 2398 9bbb 6d89 15bd
000000a0: c2be ffba b8dd 6a3c bec5 763b 41f6 c53b
000000b0: 05b7 91b9 51e4 83bc a8a3 ddbb 6d16 d6bc
000000c0: ffe9 143d a3b9 f23c 9e93 db3c 5939 15bd
000000d0: 363b d43c f9b1 01bd c571 4e3d ae67 80bb
000000e0: 2431 1e3c ec7b 91bc 95dc 61bc 31a5 86bc
000000f0: 2a16 783c da96 18bb 4e06 9fbc 66c3 a43c
00000100: c73f 7731 326b 06b1 e0e8 80b1 398f 5db1
00000110: 5c60 5b2f 4492 3831 768a 5831 afa7 a1b1
00000120: 764c 0231 0df9 8731 c475 b730 6636 e130
00000130: 762d 9faf 463e aeb0 44a9 7fb0 314c 32b1
00000140: 2233 2931 56f0 80b0 04ac b5b0 fe76 b830
00000150: ac1d cfb0 532d 90b1 e0e3 1d31 9e66 61b1
00000160: 2040 0ab1 f2da 2b31 aac6 29b0 7b04 acb1
00000170: 73e7 5131 88a7 f630 21e7 2831 70cb 5031
00000180: f186 3ab0 cdf9 df30 a91b bb30 5c77 a5b1
00000190: be54 e2b0 c7ec 0e31 4a1f ca2f 8e0d f6af
000001a0: 8068 692e bdcf 85b0 0559 f0af abe7 91b0
000001b0: 3f53 ceb0 9284 2331 aa74 56b1 c222 d430
000001c0: 172e e7b0 d879 4cb1 73c1 8bb1 9a61 9830
000001d0: 8d54 1fb1 8fe6 9031 7a0e c6b0 7168 beaf
000001e0: 9ea9 eeb0 ecbc 2231 3259 1631 10cc 6231
000001f0: 4958 34b1 8a20 08b1 6795 c130 a76c 6db0
00000200: 4bd7 edb1 4fbb 8ab1 a1df 0eb2 c567 0b32
00000210: 9343 8832 739b f531 4fb2 c2b2 709b c232
00000220: e094 a6ae 42bd 5332 d0b4 4232 ca82 af32
00000230: c0b9 93b2 274f 33b2 6a7b 0232 4d7b 00b2
00000240: 8b02 91b1 7ab1 47b2 aac8 8eb1 3b10 9132
00000250: 7387 f230 e888 6c32 616d 4231 4752 2e32
00000260: 7610 19b2 d9d3 86b2 7691 97b2 78af af31
00000270: bed9 8e32 0a20 f131 1a87 e030 86bf 1430
00000280: a4d2 0d31 3bd5 4331 a1d5 3f32 ee18 9f32
00000290: 8d91 b832 f6cc a3af 4c30 4230 604e fb32
000002a0: 85b4 5cb2 425b f631 1467 9ab1 7995 a6b1
000002b0: 4162 45b2 efba 5f32 2939 3b32 9423 2630
000002c0: 2e13 0ab2 e9c3 0c31 8f05 bcb0 33f5 5632
000002d0: 3ae5 97b2 f462 9531 95f2 84b2 d1ba 6fb2
000002e0: 892f 07b1 78f3 4632 2b81 7131 6873 82b1
000002f0: add6 ca31 cdc7 2932 90bf c5b2 6e33 34b1
00000300: 79f0 6bb1 6a07 c630 53f6 cdb0 ce6f f930
00000310: 7c0d a631 778c 0131 9e39 eeb1 0282 1232
00000320: 42e3 9db1 b94b 0531 c1e8 ac31 aac4 ef31
00000330: 9e9b b5b1 e0f7 84b1 2b0a abb1 3e97 84b1
00000340: b860 bbb0 2311 3a31 7adb 4731 5641 bd31
00000350: 681f edb0 57a8 bc31 584e 2a31 cd47 c931
00000360: fb9a 6fb1 c914 13b2 c63a f9b1 0932 6931
00000370: 1949 aa31 689f 3f31 aa5b b4b0 9ee4 d6af
00000380: 24d1 4b31 60af ac30 4e65 8031 382a d531
00000390: 9a88 3132 2478 b0b0 fe5c a730 e2a0 2c32
000003a0: ea37 a4b1 c5c7 dc30 04c6 9eb0 bad0 f82f
000003b0: 7804 58b1 2e63 8231 ba14 ab31 4058 2d2f
000003c0: bcc5 22b1 09b2 b530 944e 7230 030f 7d31
000003d0: b6f4 e2b1 b3e9 02b0 4270 94b1 8487 aab1
000003e0: bb1e 7f31 9513 a531 dd95 2b30 33ff b4b0
000003f0: c04e 1f30 6ab0 ed31 43c3 ddb1 d260 23b1
-0.05596553 -0.013433389 0.016395634 -0.0040474557 0.012265756 -0.01880677 -0.0061824676 0.03468539
0.006176855 -0.040216975 0.0023051517 -0.01464862 0.0106472075 0.0238138 -0.017421335 -0.010772597
-0.012252338 -0.0049421825 0.004179315 -0.014811901 0.022374123 0.04914916 -0.029312378 0.06776393
0.025771303 -0.02023052 0.022477088 0.046357736 -0.0011027304 -0.021445852 -0.0023740246 0.00034138552
-0.031544913 0.016757665 -0.025983356 0.028928338 -0.0020960942 -0.043640614 -0.0047483607 -0.036508013
-0.0019511806 0.014335088 0.0037654485 0.0060413186 -0.00027792915 -0.01610008 -0.006763894 -0.02613374
0.03635597 0.029629534 0.026803788 -0.036431644 0.02590714 -0.03166387 0.050401468 -0.0039186096
0.009655271 -0.017759286 -0.013785501 -0.016436191 0.015142003 -0.0023283274 -0.019412186 0.020112704
3.5979484e-09 -1.95605e-09 -3.751765e-09 -3.2241145e-09 1.9952168e-10 2.6858666e-09 3.1510843e-09 -4.70478e-09
1.8960953e-09 3.957331e-09 1.3348473e-09 1.6386366e-09 -2.8954233e-10 -1.2677865e-09 -9.3009e-10 -2.594572e-09
2.4621802e-09 -9.381533e-10 -1.3218373e-09 1.3421582e-09 -1.5069666e-09 -4.1961044e-09 2.2976039e-09 -3.280014e-09
-2.0118094e-09 2.500823e-09 -6.176416e-10 -5.006368e-09 3.0545066e-09 1.7946471e-09 2.45786e-09 3.0383625e-09
-6.785817e-10 1.6296383e-09 1.3613902e-09 -4.8157016e-09 -1.6467749e-09 2.0798312e-09 3.6765818e-10 -4.475677e-10
5.307088e-11 -9.736066e-10 -4.3718998e-10 -1.0615983e-09 -1.5012133e-09 2.379498e-09 -3.1207414e-09 1.5434909e-09
-1.6820562e-09 -2.9755167e-09 -4.067425e-09 1.1087196e-09 -2.3185607e-09 4.217163e-09 -1.4410511e-09 -3.463501e-10
-1.7364987e-09 2.3681492e-09 2.1878575e-09 3.3003325e-09 -2.6243632e-09 -1.98091e-09 1.4085061e-09 -8.63745e-10
-6.922084e-09 -4.037623e-09 -8.316335e-09 8.114459e-09 1.5863213e-08 7.148111e-09 -2.2665658e-08 2.2655257e-08
-7.5752515e-11 1.2324849e-08 1.1333398e-08 2.0432157e-08 -1.7197522e-08 -1.04371685e-08 7.595057e-09 -7.478616e-09
-4.2203445e-09 -1.1623678e-08 -4.155557e-09 1.6887602e-08 1.7646314e-09 1.3768137e-08 2.829289e-09 1.0146841e-08
-8.909515e-09 -1.569599e-08 -1.7644862e-08 5.113119e-09 1.6629993e-08 7.0176656e-09 1.6336543e-09 5.411426e-10
2.0637936e-09 2.8497442e-09 1.1166237e-08 1.8521373e-08 2.1486608e-08 -2.979516e-10 7.0645423e-10 2.9255887e-08
-1.2846731e-08 7.169917e-09 -4.4937085e-09 -4.848229e-09 -1.14892496e-08 1.3022812e-08 1.0897829e-08 6.044101e-10
-8.037018e-09 2.0484043e-09 -1.368038e-09 1.2512191e-08 -1.7682954e-08 4.3477204e-09 -1.5477136e-08 -1.3954108e-08
-1.9672106e-09 1.1580475e-08 3.514354e-09 -3.796618e-09 5.9033796e-09 9.882524e-09 -2.3020931e-08 -2.6222682e-09
-3.4333694e-09 1.4408503e-09 -1.4985723e-09 1.8148911e-09 4.832769e-09 1.8851816e-09 -6.933262e-09 8.527879e-09
-4.5951376e-09 1.939709e-09 5.03232e-09 6.9781736e-09 -5.285485e-09 -3.8698857e-09 -4.977911e-09 -3.8589e-09
-1.363353e-09 2.7076303e-09 2.908307e-09 5.508052e-09 -1.7252946e-09 5.490658e-09 2.478279e-09 5.8580327e-09
-3.4867174e-09 -8.561252e-09 -7.2535355e-09 3.3934404e-09 4.9559614e-09 2.788477e-09 -1.3122776e-09 -3.9088816e-10
2.965927e-09 1.2564492e-09 3.7368073e-09 6.2039156e-09 1.0333816e-08 -1.2839831e-09 1.2177279e-09 1.0048298e-08
-4.779385e-09 1.6063885e-09 -1.1552292e-09 4.5259246e-10 -3.1434677e-09 3.7947734e-09 4.9791113e-09 1.5765611e-10
-2.3686502e-09 1.3220084e-09 8.8150753e-10 3.6824879e-09 -6.605286e-09 -4.762583e-10 -4.320129e-09 -4.9630575e-09
3.7124852e-09 4.8043582e-09 6.2422406e-10 -1.3169256e-09 5.7955774e-10 6.9176638e-09 -6.454145e-09 -2.3774658e-09

core.core.fc.0.0.bias f4 [128]
00000000: e9fe ed3d 4ad0 54b1 1aac c4b2 b925 15b2
00000010: 469f 74b9 6451 9232 8365 313e d43f cf22
00000020: 76bc 9db3 df46 35ac c500 49ae 02ae b225
00000030: b9a4 1933 ec47 012c 1ab6 b7ad 0806 0927
00000040: 4cf5 86b3 d5e6 bd33 6a24 14ad b4cb bbae
00000050: 9c33 fdb4 fe46 463e da6c ff30 8414 0535
00000060: 70a1 093e 2888 852b b239 55af 7ab8 9132
00000070: 0e95 2bba bbc4 433e 9281 653e 371a 203e
00000080: 464a 713e 31c4 2d3e 98a3 873e b629 94ba
00000090: 2366 53ab 56fc 013e fc39 66ac 1331 1a3d
000000a0: 4828 143e d867 e3b5 f3f4 f039 e809 5f29
000000b0: 0fbe eb2e 74a0 4930 02be b1ad 0cc0 9631
000000c0: 0c5a 783e ee30 6322 e320 0539 2a09 0339
000000d0: 8aa2 bf2b 8a57 393e 8e35 9fa9 6302 5331
000000e0: b57a 8532 058f ffb8 6596 6d3e ee4d 9a32
000000f0: 5414 8a2c 3e06 bd2e 6814 96ae 93b5 2530
00000100: 8749 8a3e e5c0 ef3b e2c0 9533 8bbc fd29
00000110: e91c e2b8 afdf da3c 3c17 5f3e 7597 4b3e
00000120: 3008 7cab c38c 58b8 6f96 1e1f 47e2 8e33
00000130: 26bf 4c2a f43b 4033 3761 9038 b9ec fab6
00000140: 5a79 152b c3f6 b0b3 584a ae2d 325d 4e3e
00000150: bd91 aab0 fc8c 80a7 f09f a3a8 0f34 172c
00000160: 7efb 5230 df35 e238 cd3c 3aaf 73c1 cc27
00000170: 0825 0132 e630 30ae 9880 3c3e d74a c1ae
00000180: b9df 763e 83b7 5f3d 00b2 aa38 ceb4 8431
00000190: 73d6 07b9 335d 812a 3ced 92b4 9371 3c35
000001a0: b5c9 473e 07b9 0435 594e 3138 0a7d 13ba
000001b0: 973b 08b8 29a5 383e 83c8 65b8 51fa 043e
000001c0: 9616 beb2 b123 4db2 ed6a 9835 fed5 db2c
000001d0: 36f6 82b3 e998 0e3e 0633 043e 947f a631
000001e0: 6a96 a033 1402 9138 b6e2 c43c 0578 f8af
000001f0: a06c 48b9 3475 8536 b8a4 03b3 7e50 53ac
0.11620886 -3.096846e-09 -2.2895666e-08 -8.681519e-09 -0.00023328987 1.703365e-08 0.1732388 5.6175043e-18
-7.345163e-08 -2.5760988e-12 -4.5702792e-11 3.099599e-16 3.5772903e-08 1.8371927e-12 -2.088556e-11 1.9015839e-15
-6.2844805e-08 8.8429864e-08 -8.4209115e-12 -8.5399604e-11 -4.7162473e-07 0.19363019 1.8584629e-09 4.9576215e-07
0.1344049 9.488009e-13 -1.9392735e-10 1.6964112e-08 -0.0006545343 0.19118015 0.22412708 0.15635
0.2356349 0.16969372 0.26492 -0.0011303935 -7.5104e-13 0.12693915 -3.2717154e-12 0.037644457
0.14468491 -1.694304e-06 0.0004595887 4.952454e-14 1.0720324e-10 7.335139e-10 -2.020695e-11 4.3874078e-09
0.242531 3.079014e-18 0.0001269612 0.00012496547 1.361648e-12 0.180998 -7.070309e-14 3.0705898e-09
1.5539039e-08 -0.00012185987 0.23201902 1.7963398e-08 3.9244528e-12 8.595834e-11 -6.824835e-11 6.0284683e-10
0.27009222 0.007316696 6.9734384e-08 1.1268164e-13 -0.00010781905 0.026717989 0.21786207 0.19881995
-8.9539747e-13 -5.1629508e-05 3.3582237e-20 6.65355e-08 1.8185158e-13 4.475801e-08 6.884563e-05 -7.4781387e-06
5.3103843e-13 -8.240524e-08 1.9814525e-11 0.20152739 -1.2410549e-09 -3.5679992e-15 -1.8165997e-14 2.148729e-12
7.6754947e-10 0.00010786554 -1.6938202e-10 5.6831112e-15 7.517208e-09 -4.0061197e-11 0.1840843 -8.789918e-11
0.24108781 0.05461837 8.139387e-05 3.8622607e-09 -0.00012954492 2.2979673e-13 -2.736723e-07 7.020073e-07
0.19510539 4.944308e-07 4.2273055e-05 -0.0005626237 -3.2480424e-05 0.18031754 -5.4784596e-05 0.12986113
-2.2129182e-08 -1.1940686e-08 1.1356002e-06 6.2481123e-12 -6.098382e-08 0.13925518 0.12910089 4.84574e-09
7.477941e-08 6.914526e-05 0.024033885 -4.5196216e-10 -0.00019113952 3.977353e-06 -3.0650625e-08 -3.0029586e-12

core.core.fc.1.0.weight f4 [64, 128]
00000000: 1a1d cb38 c2e8 a5b0 cff4 3cb1 18b1 ebb0
00000010: 1304 5bb9 f260 10b2 b322 40ba 31b5 7ba1
00000020: 2021 0133 94dd 432c 1278 312d edd1 d224
00000030: ec4a aa30 5663 3aab 66af 2f2d 5f08 6b24
00000040: cc47 0eb0 f56a eb30 9e30 19ac a404 3bae
00000050: 3698 5434 dfe8 853c e1ac 232d d8fb e432
00000060: e6fd f0ba 6b4b 272a 5470 a32e fe85 b2b0
00000070: eeb4 2e38 6d96 1fb9 7379 2ebb b9d9 bcba
00000080: d1e7 53bc ce5e 4fbb 605f 76bc 241c 42b9
00000090: f9f8 542a 27b7 08bc 435c 1e2c 9247 cc3b
000000a0: cf65 08ba 2f64 8535 2a42 8637 42a9 ae29
000000b0: eb56 e1ad 052b 1faf dd13 052d 2805 d632
000000c0: c39a 56bc d761 00a1 d630 b0b7 c55b a0b7
000000d0: 4cb4 942a 61cd 453d 0a49 dfa7 943e 0530
000000e0: fdcf 8930 a276 e338 3e60 b4bb 507c ee2f
000000f0: cd2f aaab aced 0e2b 5e02 1bae f28f 802c
00000100: 8beb babb 8c32 0c37 ce1e 02b3 1d32 bf26
00000110: 9edf 5b37 0018 a3b8 90f5 31b9 56e3 20bb
00000120: 10d0 4caa 3f24 b337 8fe3 389f 3b0b 6331
00000130: a840 c4a9 31c6 5e32 2e2c aeb8 2447 8cb4
00000140: 870a cb27 d427 0db1 a53f 0fad 5e13 dbbb
00000150: 00a7 7fb0 396b b724 dd99 8628 c80e 96ac
00000160: 5881 862c b305 0d35 37ee 2b2f 7e04 e9a5
00000170: d36e d230 4916 1a2e 7950 0ebb c982 e3ad
00000180: 0836 1abc 7f55 e6b9 d805 c0b6 7854 3431
00000190: 78b8 9b38 1a60 f02b 6419 2734 703a a431
000001a0: b8fb 3abb 5796 94b4 7a2c cf34 f157 c5b8
000001b0: bd78 05b6 ae97 aeb9 2a75 98b6 dd28 863b
000001c0: d682 ce31 36cb d531 c5f7 14b4 d6a7 6cab
000001d0: 570e b532 a443 08ba 9239 17ba d329 1231
000001e0: 4afb e7b0 a446 2938 6182 b638 b27f 252d
000001f0: 40d8 12b6 6e60 0833 c05d 1333 5750 452d
00000200: 69a0 383b 3312 9430 f45f c030 b544 c330
00000210: 3a30 f238 9f5b 7832 771f b33b 0f13 4aa1
00000220: c48b cd33 d3cd 95ac 7659 01ad 1ff6 23a5
00000230: c8fc 1eb2 e39a 87ab b279 212c 3438 95a3
00000240: c798 58b0 2151 6c30 7893 4b2d 2fa0 38ae
00000250: bbc6 89b2 b848 98bb 01a2 df2c 067d 48b4
00000260: 0bc5 9f3b 7b78 cdaa 13fe 5e2e afc8 cfb1
00000270: 7236 a2b8 2b1b 9b3b 4846 303c 4444 cd3b
00000280: 9cb9 4d3c 23f1 023c 34df 77bc 8753 c039
00000290: b3ec c92b 5a29 35bb dd4d 942a d23b 31bc
000002a0: 4b08 9a3b 7100 3cb5 d7be 0739 c848 6c29
000002b0: 4c26 072f 5b11 8b2e 7fed da2c 4fb9 c232
000002c0: 8e35 543c 0c7e 05a1 96df 3137 5d92 6b37
000002d0: dba1 2fac c6c5 f2bc 741d 0c2a c2bf ffb0
000002e0: 7c27 6b30 9274 e138 ee85 123c 8ac5 b530
000002f0: aa4e 112c b4ea 7c2a 50d6 19ae 7ff0 1bac
00000300: 1301 7d3c 88a3 3f38 56c5 b831 4c51 eea4
00000310: 85d0 18b7 795c 9739 6934 f03b 975b 0a3c
00000320: f2b5 122b aaff 45b8 01c4 511e 44fc d4b2
00000330: 0cf7 6aa7 8153 b831 a4d4 2038 2327 6236
00000340: a86b 9f28 5e95 a931 844f 1aad 61fb 5f39
00000350: 6e17 8631 7ba8 b227 22c8 82a8 fc31 09ad
00000360: f357 202c 5abb 2734 f3f1 2e2e fefc cf26
00000370: 9503 ef30 7ac9 ab2e 9f98 f53b 978a 2cae
00000380: 0a0e 3c3c 8ec1 4b3a cdac f2b7 915a 76b2
00000390: 5490 9c36 79e5 292c 51ef 40b4 0213 2d31
000003a0: db9f 0f3c bea7 db34 789a 0d34 b81d e4b8
000003b0: 4f20 cab7 6aec b83b 98f3 10b6 42a7 4ebc
000003c0: 72dd a432 c5ae 1cb1 87d6 2ab5 609f a32c
000003d0: bb14 c233 bf41 8b3b 306b e63a 801c 4bb1
000003e0: 839b 1831 d0dd 9e38 e86a 8339 1cfd ad2d
000003f0: 634f c138 e2a4 7432 42da 92b2 bcad c3ad
9.685215e-05 -1.2071484e-09 -2.7496758e-09 -1.7148833e-09 -0.00020886985 -8.403946e-09 -0.00073293893 -8.5281913e-19
3.006528e-08 2.7834167e-12 1.0087946e-11 9.142861e-17 1.2390422e-09 -6.621833e-13 9.986545e-12 5.0964593e-17
-5.176133e-10 1.7128899e-09 -2.1769596e-12 -4.2523e-11 1.9799413e-07 0.016346393 9.303864e-12 2.6657219e-08
-0.0018386215 1.4858745e-13 7.432335e-11 -1.2989287e-09 4.1653337e-05 -0.0001521946 -0.0026622682 -0.0014408148
-0.012933687 -0.0031642201 -0.015037388 -0.00018511765 1.8915762e-13 -0.008344448 2.2504366e-12 0.006234118
-0.0005203159 9.93843e-07 1.6004855e-05 7.756514e-14 -2.5618138e-11 -1.447625e-10 7.564585e-12 2.4915224e-08
-0.0130984215 -4.3497577e-19 -2.1003576e-05 -1.911622e-05 2.6415187e-13 0.048291568 -6.1974123e-15 4.8474047e-10
1.0027176e-09 0.000108463006 -0.005504637 4.3380277e-10 -1.2092494e-12 5.077837e-13 -3.5245022e-11 3.65396e-12
-0.0057043484 8.356419e-06 -3.0296e-08 1.3266871e-15 1.3105482e-05 -7.776916e-05 -0.00016971515 -0.0024549565
-1.8191026e-13 2.1355341e-05 -3.9151748e-20 3.3039231e-09 -8.7153646e-14 1.2967164e-08 -8.305196e-05 -2.6128794e-07
5.6355232e-15 -2.054084e-09 -8.142741e-12 -0.0066856584 -9.300578e-10 7.954524e-17 1.4943716e-14 -4.2648975e-12
3.822869e-12 5.2534887e-07 1.563699e-10 -4.04221e-16 1.5311009e-09 3.503534e-11 -0.0021715446 -2.5864992e-11
-0.009412296 -0.00043932718 -5.722726e-06 2.6241462e-09 7.425336e-05 1.7079699e-12 1.5562324e-07 4.7796718e-09
-0.0028531384 -2.7676535e-07 3.8589116e-07 -9.4100724e-05 -1.9888823e-06 -0.00033300876 -4.5435927e-06 0.0040942268
6.0102634e-09 6.2222183e-09 -1.3873712e-07 -8.407696e-13 2.1077694e-08 -0.00051980675 -0.00057687715 2.126957e-09
-1.6878883e-09 4.035853e-05 8.702721e-05 9.407518e-12 -2.188157e-06 3.175267e-08 3.431137e-08 1.12159925e-11
0.0028171784 1.077359e-09 1.399711e-09 1.4207645e-09 0.00011548442 1.4456332e-08 0.0054663974 -6.8465486e-19
9.5714796e-08 -4.257686e-12 -7.352665e-12 -1.4221385e-16 -9.254286e-09 -9.635317e-13 2.294703e-12 -1.6178415e-17
-7.879745e-10 8.597159e-10 1.1571959e-11 -4.1979028e-11 -1.6039271e-08 -0.0046473406 6.3560272e-12 -1.8671935e-07
0.0048757843 -3.6498915e-13 5.070262e-11 -6.047308e-09 -7.734903e-05 0.0047334633 0.010758944 0.0062642414
0.01255646 0.007992062 -0.015128899 0.00036683326 1.4347606e-12 -0.0027643056 2.634411e-13 -0.010817485
0.0047006956 -7.00361e-07 0.00012945697 5.2465654e-14 1.2291784e-10 6.324071e-11 6.2223e-12 2.2668841e-08
0.012952222 -4.5228974e-19 1.060208e-05 1.4041169e-05 -2.4958844e-12 -0.029635321 1.2444716e-13 -1.8608193e-09
8.554861e-10 0.00010750549 0.008943064 1.3225627e-09 2.0649407e-12 2.2463525e-13 -3.497852e-11 -2.2160327e-12
0.015442151 4.569025e-05 5.3775393e-09 -1.0335377e-16 -9.108456e-06 0.00028869862 0.0073304665 0.008444688
5.212212e-13 -4.7206566e-05 1.11049005e-20 -2.4794765e-08 -3.2607948e-15 5.364598e-09 3.834501e-05 3.3699405e-06
1.7699235e-14 4.9355284e-09 -8.7715425e-12 0.00021360583 3.902577e-09 4.958759e-15 -1.4519693e-14 -7.798647e-12
2.278619e-12 1.5621245e-07 3.9777914e-11 1.4432084e-15 1.7390557e-09 7.811969e-11 0.0074950005 -3.9231365e-11
0.011477957 0.00077726773 -2.8929115e-05 -1.4339677e-08 4.6659643e-06 2.4143727e-12 -1.7968456e-07 2.5185618e-09
0.00876614 4.0913977e-07 1.3187844e-07 -0.00010877423 -2.4095321e-05 0.005643417 -2.1599462e-06 -0.01261312
1.9192814e-08 -2.2800333e-09 -6.3642113e-07 4.650433e-12 9.0376e-08 0.004249781 0.0017579552 -2.9556588e-09
2.220731e-09 7.575343e-05 0.00025065918 1.9780226e-11 9.217744e-05 1.4240159e-08 -1.709589e-08 -2.2246087e-11

core.core.fc.1.0.bias f4 [64]
00000000: 9c56 ce3b 9d8f 8c3c 81cd 7cbc e511 73bc
00000010: 44a3 883d 3f09 a3bc db17 6dbc 4341 a6bc
00000020: 457a d13d fff7 58bc 12a4 bebc b88d c33d
00000030: daa6 883c 46ce 5c3a 06b1 4d3d 1d75 dabb
00000040: be8e f33c 9b77 99bc a2c1 423d 1960 e53d
00000050: a8d8 1cbc 6948 df3d ede8 9f3d 77d2 bcbc
00000060: 9b99 eebc 4ca5 83bc 2a20 5ebb 36ce d73d
00000070: f18b 89bc ac30 81bc 969d ec3d 5c20 bd3d
00000080: 55e3 e3bc 993a 253c 7fdc c8bc 7fd3 13bb
00000090: c9c6 e13d 3e6f 1b3e 7978 cebc 947e 9fbb
000000a0: 8ca1 03bb cff3 773d 7184 1dbc 1edc 9dbc
000000b0: 29a2 893d 144a 813c e149 36bc 0a6d 873d
000000c0: 1e0d b3bc 8b52 cf3d 11a9 feba d6de 1abc
000000d0: 6a77 9b3c 6e80 b9bc 418e 663d 9348 3c3d
000000e0: 18d2 b9ba d60d e7bc 2ff4 1ebb 90de cdbc
000000f0: 080f a13d 9fdf b43d 154f 453d 3fab f33c
0.0062969457 0.017158324 -0.015429855 -0.014835809 0.066717654 -0.01990187 -0.01447102 -0.020294791
0.10228399 -0.013242721 -0.023271594 0.09548515 0.016681124 0.0008423071 0.05021765 -0.006666793
0.02973115 -0.01873379 0.047547944 0.1119997 -0.009573139 0.10902483 0.07808099 -0.023049576
-0.02912598 -0.01607003 -0.0033893683 0.105373785 -0.016790362 -0.015770279 0.11553495 0.09234688
-0.027818361 0.010084772 -0.024519203 -0.0022556481 0.110242434 0.15179154 -0.02520393 -0.004867384
-0.0020085303 0.06053525 -0.009614096 -0.01927 0.06720383 0.015782394 -0.011126013 0.066125944
-0.02185684 0.10123166 -0.0019429048 -0.009452542 0.01897784 -0.022644248 0.056288008 0.04596765
-0.0014176993 -0.02820484 -0.0024254431 -0.02513054 0.07864195 0.08831715 0.04817112 0.029744742

readout.readouts.bex_20230623_denoised.location.weight f4 [2, 64]
00000000: 501c ac3d 7a96 ccbc d920 a0bd 1065 8ebd
00000010: 782a 97bd 7e95 6cbd 86f7 58bd e3dc 89bd
00000020: 8e64 e3be 62c8 8dbc 9e9e 9fbd ba1e 533d
00000030: 0fad 1d3d 7815 3fbb d1ca a23d b857 1b3d
00000040: 8083 4b3e f46d a2bd e5d8 6cbe 836c a83e
00000050: 99f4 1fbd 4879 b03e 1df3 923e 365f cdbd
00000060: ee73 b9bd ede4 f4bd 0b32 97bb 342d 453e
00000070: 3485 e3bc 35c6 d7bd bcd6 d73d 8110 723d
00000080: df1f b7bd 8873 963d e58a ebbd 1c08 afbb
00000090: bd6e c13d 5bee 153f 22ac b3bd 2403 aa3d
000000a0: 8107 223d b311 243d ba30 87bd e44b 7cbd
000000b0: 55cd f53d 9714 913c 96fe 653d a9f4 273d
000000c0: ba87 21bd c47c 0e3e 1a3e 8a3e b48f 84bf
000000d0: f733 e13d df61 f8bd fbc1 95bc 3537 923e
000000e0: 0d61 453d 0d47 debd f25a d2bc c102 e0bd
000000f0: 6851 9ebc 45c6 163b 917b 053e 698c af3d
00000100: 83ad 99bd 1ca9 c93c 679d bfbc 8899 f0bc
00000110: 22af 2a3e c17b c0bd 2744 3ebd c7ef a0bd
00000120: ccac 1e3e a039 7cbd d163 e3bd 37bb 313e
00000130: e354 d63d c58e 0abd e650 9a3e d8fa 7abd
00000140: d0bb 3fbd 694f bbbd 5b65 b73d 23de 993e
00000150: 716b 82bc 12e6 ebbd b185 84bd 6e7c f2bd
00000160: 35ec 14be a6c7 edbd 0c90 aabb 0a67 e73e
00000170: 6f19 3fbd 07be 85bd ebfb 093f 22c3 5a3e
00000180: aa70 edbd ca82 41bd 799a a1bd 7394 e63a
00000190: 04fa 623e 0736 c7bb b42d 09be ae5b d3bd
000001a0: 57a2 59bd 077d 893d a009 033c 67f7 f0bd
000001b0: 39f6 473e cd3d 893d 7e85 06be 2edb e53e
000001c0: c048 09be c87a 343e c489 8cbe ac0c e83e
000001d0: faa6 023d 4a1f d6bd 8a5b 183f 5d57 f9bc
000001e0: 3219 59bc b74f f1bd e475 b8bb 397a a0bd
000001f0: 4445 1c3e e7ec ea3e ee13 653d 8c8e c03c
0.08403838 -0.024974097 -0.07818765 -0.0695287 -0.07381147 -0.057759754 -0.05297043 -0.06731584
-0.44412655 -0.017307464 -0.07793926 0.051542975 0.03849512 -0.0029157083 0.079488404 0.037925452
0.19874382 -0.07931128 -0.23129614 0.32895288 -0.039051626 0.3446753 0.28701106 -0.10027926
-0.09055315 -0.11957727 -0.00461412 0.19255525 -0.027773477 -0.10535852 0.10539004 0.05909777
-0.08941626 0.073462546 -0.115011014 -0.005341543 0.0944495 0.58566827 -0.08773066 0.0830138
0.039557938 0.04005594 -0.06601091 -0.061595812 0.120020546 0.017710013 0.056150995 0.04100481
-0.03943608 0.13914782 0.27000505 -1.0356355 0.1099624 -0.121280424 -0.018280974 0.28557745
0.048188258 -0.108533956 -0.025678132 -0.10938025 -0.019325927 0.0023006361 0.13035418 0.08571703
-0.07503798 0.02461677 -0.023390485 -0.029370084 0.1666837 -0.09398604 -0.046451714 -0.07858234
0.15495604 -0.061578393 -0.11103023 0.17356573 0.104654096 -0.033827562 0.30139846 -0.06127438
-0.04680997 -0.09146006 0.08954879 0.3005229 -0.015920373 -0.11518492 -0.06470812 -0.11840139
-0.14543231 -0.116103455 -0.00520516 0.451958 -0.046655115 -0.065303855 0.5390002 0.213635
-0.115937546 -0.04724387 -0.078907914 0.0017591849 0.22165686 -0.0060794386 -0.1339634 -0.10320221
-0.053133335 0.067133 0.0079979 -0.11765938 0.1952752 0.06701241 -0.1313686 0.44893783
-0.13406658 0.17624962 -0.27448857 0.45322168 0.031897523 -0.10455187 0.5951468 -0.030437166
-0.013250636 -0.117827825 -0.005629288 -0.07835812 0.15260798 0.45883867 0.05592721 0.023505472

readout.readouts.bex_20230623_denoised.location.bias f4 [2]
00000000: 31ee 973d e24e 333e
0.07418478 0.1751056

readout.readouts.ken_20230614_denoised.location.weight f4 [2, 64]
00000000: 07b5 f33c 3db7 043d ce76 8ebc 1ec6 54bd
00000010: e0e9 193e 4b80 6bbd c973 c7bc 2326 1dbd
00000020: 1fd1 ad3e 3229 0fbd 21c3 18bd afc3 103d
00000030: 91d5 bfbd 9d0c 803b c684 663e 818d 6fbc
00000040: ce80 f8bd d3f7 babc c540 cb3c 12a6 81bc
00000050: 0b2a b4ba 724f 1fbf f4c9 49be 19ef ddbc
00000060: a7b8 9abd 6edb fdbb a15b 843c c1fb 363e
00000070: db83 43bd 9421 bfbc 96d3 1f3d 852a 9c3c
00000080: 90da 93bd 3fcf 693d 8f18 32bd 172f 0dbb
00000090: 0e49 133e 47ed 80bf 86cd 57bd 366b 1fbd
000000a0: e3dd 603c 33d7 ee3d 36f4 5bbc 98a5 b7bc
000000b0: cbaa 323e 29d3 d83c 3d1d 5fbc 87f7 443e
000000c0: 741b 55bd 2b2a 0f3e 00f9 1ebe 180c b2be
000000d0: 56d8 a93b 1ea6 613a 8ce1 813e ba81 c23e
000000e0: b92e 80bd da52 48bd 5502 743b 6810 29bd
000000f0: ee52 413e 9cf2 1a3e 4d75 713d ae62 2a3e
00000100: 5f49 ffbb 031a 893d 65e9 70bd cb12 93bd
00000110: 83e8 b83d 91b3 13bd c34a 62bc c93e 2dbd
00000120: d2a1 c03d a6c4 633d 5aca 2bbc c40d 8c3e
00000130: be79 97bc 7ecc c1bc 4cb4 673e e92f cd3b
00000140: 5c5e e9bc 61d9 a0bc 03d5 203e 9408 0c3f
00000150: 0c40 87bc 9e88 003e 84b4 693e a322 57bd
00000160: 65a4 81bd bb26 e9bc 15e4 8f3d 719c bb3e
00000170: 6a68 f73b f495 c0bc 1ada f13e 62b4 bd3e
00000180: 46f2 30bd 6c7b 853d 47f0 86bd 9ce6 87bc
00000190: 0d3a 013e 38a8 6d3e 7dec 30bd 613a 8d3d
000001a0: d62d 3bbd d6eb fe3d b4c6 52bd 71cc 3fbc
000001b0: 1a59 cf3d 9be0 fd3c 8523 ecb9 2057 513e
000001c0: ed8d 6abc 082b 293e 2de3 9b3c cb89 443e
000001d0: 051c 2abc dc6a e3bc 05d5 9d3e a46b 27be
000001e0: 4346 ba3d 94f7 a1bd 67af ddbc 1368 8abd
000001f0: a406 5b3d aa32 ab3e 17f4 92bd d3c9 a43d
0.029749407 0.032401312 -0.017390635 -0.05194675 0.15030622 -0.057495397 -0.024347203 -0.038366448
0.3394861 -0.034951396 -0.037295464 0.03534287 -0.093669064 0.0039077536 0.22511587 -0.0146211395
-0.121339425 -0.02282325 0.024811158 -0.015826259 -0.001374544 -0.622306 -0.19705945 -0.02709155
-0.07554751 -0.0077471053 0.016156973 0.17869474 -0.04773317 -0.023331441 0.039020143 0.019063244
-0.07219422 0.05708241 -0.043480452 -0.002154296 0.14383337 -1.0072411 -0.052686237 -0.038920604
0.013724777 0.1166214 -0.013424924 -0.022417828 0.17447965 0.026467877 -0.013617811 0.19235049
-0.052028134 0.1398093 -0.15524673 -0.34774852 0.00518326 0.0008607822 0.2536739 0.379896
-0.06258912 -0.04890714 0.0037232835 -0.04127541 0.18879291 0.1513161 0.058949757 0.16639206
-0.007790729 0.066944145 -0.058816332 -0.07181319 0.09028723 -0.03605992 -0.01381177 -0.042296205
0.09405865 0.05560746 -0.010485256 0.27354252 -0.018490668 -0.02365708 0.22627372 0.006261815
-0.028487377 -0.019634904 0.15706258 0.5470059 -0.016510032 0.12552115 0.22822767 -0.052523267
-0.06330184 -0.028460851 0.07025925 0.36642793 0.007550289 -0.023509003 0.4723671 0.37051684
-0.0431998 0.065176815 -0.06588798 -0.016589455 0.12619801 0.23208702 -0.043194283 0.068959005
-0.04569801 0.12447326 -0.05145903 -0.0117064575 0.10124417 0.03099089 -0.00045039892 0.20443392
-0.014316064 0.16520321 0.019029224 0.19193189 -0.010382657 -0.027760915 0.30826584 -0.16349655
0.090954326 -0.0790855 -0.027061177 -0.06758132 0.05347313 0.3343709 -0.07175463 0.080463074

readout.readouts.ken_20230614_denoised.location.bias f4 [2]
00000000: ce76 fe3d 6808 84bd
0.12425004 -0.06446916
