artifacts/poses_to_location/20250817213713/best_model.pt (torch, 20213 bytes, 18 tensors)

linear.bex_20230623_denoised.location.weight f4 [3, 63]
0	0xbf23b3d6	-0.6394628
1	0x3e868cba	0.2627924
2	0x3b0b2664	0.00212326
3	0xbf307ae6	-0.6893753
4	0xbe00ada5	-0.1256624
5	0xbc1ae713	-0.009454506
6	0xbf02b056	-0.5105032
7	0x3e91286b	0.2835115
8	0xbdbd204a	-0.09234674
9	0xbe8ec255	-0.2788264
10	0x3e495c33	0.19664077
11	0xbd6d2d8d	-0.05790477
12	0x3ce716a5	0.02820904
13	0x3f2c33eb	0.6726672
14	0xbd904ab5	-0.07045499
15	0x3ef04732	0.46929318
16	0xbb215512	-0.0024617356
17	0xbdfb4a56	-0.12270038
18	0xbefe8924	-0.49714005
19	0xbe90864d	-0.28227463
20	0xbda0e2eb	-0.07855781
21	0xbf1499b8	-0.58047056
22	0x3c6a747e	0.01431
23	0x3d0f56e2	0.034994967
24	0xbeac31bc	-0.33631694
25	0xbe0dc043	-0.13842873
26	0xbdfdd41d	-0.12393973
27	0xbf1f3316	-0.62187326
28	0x3dbff35b	0.09372588
29	0xbdddbf2d	-0.108274795
30	0x3e793cf3	0.24339657
31	0xbca2650e	-0.019823577
32	0xbdee29c5	-0.11629061
33	0x3f5b8b05	0.85759
34	0xbe2c1dc7	-0.16808234
35	0xbdf99e38	-0.12188381
36	0xbe893d32	-0.268045
37	0x3c90e5e9	0.017687755
38	0x3cb34ec2	0.02188814
39	0x3e7e9215	0.24860413
40	0xbd58ba57	-0.052912083
41	0xbbaa4390	-0.0051960424
42	0xbec1e84a	-0.37872535
43	0x3e9dbad6	0.30806607
44	0x3d8908d2	0.066911355
45	0x3ec88c07	0.39169332
46	0x3f9408b7	1.156516
47	0x3d4916fb	0.04909418
48	0xbedd5039	-0.43225268
49	0xbde62a3b	-0.112385236
50	0xbd16dbc3	-0.036830675
51	0x3ed11ffe	0.4084472
52	0xbd21a197	-0.039460745
53	0x3cd10e3b	0.02551948
54	0x3dd097f2	0.10185231
55	0x3f317a79	0.69327503
56	0xbde3c97f	-0.11122417
57	0x3f10e9fa	0.5660702
58	0x3eed739d	0.46377268
59	0xbf79bb5b	-0.97551507
60	0x3f73f14c	0.95290065
61	0x3ecddc8e	0.40207332
62	0xbdbd240d	-0.09235392
63	0xbf366265	-0.7124389
64	0x3dc58d47	0.09646087
65	0x3d9280d4	0.07153478
66	0xbf4bf490	-0.7967005
67	0x3e239f2d	0.1597869
68	0x3e48e751	0.1961949
69	0xbf2477d1	-0.64245325
70	0x3d10430f	0.035220202
71	0x3f0066a8	0.5015664
72	0x3e8fc6c6	0.2808134
73	0x3ec8e32f	0.39235827
74	0x3d495ed6	0.04916271
75	0x3f0b0dc6	0.5431789
76	0x3f321f7b	0.69579285
77	0xbc9e4c87	-0.0193236
78	0x3f587db9	0.8456684
79	0xbe34a1a1	-0.17639782
80	0x3e6c4b7a	0.23075667
81	0xbf55675e	-0.8336085
82	0x3d9a979a	0.07548447
83	0xbccb5687	-0.024821533
84	0xbf375468	-0.7161317
85	0x3e036196	0.12830195
86	0x3db082fb	0.086187325
87	0xbf3a4663	-0.7276365
88	0xbc40a721	-0.011758597
89	0x3cf2ce34	0.029639341
90	0x3e8e5d02	0.27805334
91	0x3d4602fe	0.048342697
92	0xbcb3338f	-0.021875171
93	0x3f241fea	0.64111197
94	0x3dab7cbd	0.08373401
95	0xbdeb8b58	-0.11501187
96	0x3f78b99c	0.9715822
97	0xbe0f05d8	-0.13967073
98	0xbe69c549	-0.22829165
99	0x3f3478d6	0.7049688
100	0xbda7d1a9	-0.081942864
101	0xbdcd2152	-0.10016121
102	0x3f4ce1b4	0.80031896
103	0xbc9e54a8	-0.019327477
104	0xbe3b191a	-0.18271294
105	0x3f9a39f0	1.2048931
106	0xbd4955ff	-0.049154278
107	0x3e918514	0.28421843
108	0x3f496311	0.7866679
109	0x3faca551	1.348795
110	0xbcdf91ba	-0.027291168
111	0xbf370576	-0.7149271
112	0x3d20e84b	0.03928403
113	0x3c82dc36	0.015974145
114	0x3f4542fc	0.77055335
115	0x3d84f6f6	0.064924166
116	0x3c443d40	0.011977494
117	0xbf237a1e	-0.6385821
118	0x3f2fca34	0.6866791
119	0xbf82013a	-1.0156624
120	0x3f2c7180	0.6736069
121	0x3f2cfeca	0.6757628
122	0xbf72bca3	-0.94819087
123	0x3e8a0072	0.26953465
124	0x3f0daf86	0.5534595
125	0xbd8561ed	-0.065128185
126	0x3dbe1e87	0.092831664
127	0xbb180c00	-0.0023200512
128	0x3d4804e0	0.048832774
129	0xbddbdd15	-0.107355274
130	0xbde01ab2	-0.10942592
131	0xbd5b43b0	-0.05353135
132	0x3da6770c	0.08128175
133	0xbc9872d9	-0.018609451
134	0xbcd56275	-0.026047925
135	0x3ceb4bfc	0.028722756
136	0x3d4dec14	0.05027397
137	0x3d0ed9b7	0.034875598
138	0xbdd2a125	-0.10284642
139	0x3d3d4e12	0.04621703
140	0xbd139b2a	-0.036036648
141	0x3dbbdb9b	0.09172746
142	0xbdffb748	-0.1248613
143	0xbcd34ec2	-0.02579439
144	0xbd737a77	-0.059442963
145	0xbcb1eae6	-0.021718454
146	0x3cafc64c	0.02145686
147	0xbd3c780c	-0.046012923
148	0xbd4817e8	-0.048850924
149	0x3d7422ef	0.059603628
150	0xbde3141f	-0.11087822
151	0xbcf62300	-0.030045986
152	0xbd230253	-0.03979714
153	0xbe01b349	-0.12666048
154	0xbc30cabb	-0.010790522
155	0xbc503992	-0.012709038
156	0x3d951bdf	0.072807066
157	0x3df6897e	0.12037943
158	0xbd2b2ca0	-0.041790605
159	0x3dc42d79	0.09578986
160	0xbd887648	-0.06663185
161	0xbce0c503	-0.027437693
162	0x3dd5e00b	0.104431234
163	0x3d2e497a	0.04255054
164	0xbd4d68d5	-0.050148804
165	0x3d18f92b	0.037347
166	0x3c291683	0.010320309
167	0x3d00956a	0.031392492
168	0x3ec2b5fd	0.3802947
169	0xbd887461	-0.066628225
170	0x3e4a9b9d	0.19785924
171	0x3dd50644	0.10401586
172	0x3ee16f0d	0.44030038
173	0xbdeede66	-0.11663513
174	0x3dace041	0.084412105
175	0xbdcf0da5	-0.10110024
176	0xbde66df8	-0.112514436
177	0xbd89d761	-0.067305334
178	0xbc437449	-0.01192958
179	0x3d832d96	0.06405179
180	0xbded3f39	-0.115843244
181	0x3db4fc0a	0.08837135
182	0xbcb95b6f	-0.022626607
183	0x3d8547a4	0.06507805
184	0xbc84bd01	-0.016203405
185	0xbde52ed7	-0.111905746
186	0x3d053aef	0.032526907
187	0xbdc7c253	-0.09753861
188	0x3d7dc9d5	0.06196006

linear.bex_20230623_denoised.location.bias f4 [3]
0	0x3eb9beaa	0.36278278
1	0x3f2cc5a6	0.6748909
2	0x3d67c59b	0.056584936

linear.ken_20230614_denoised.location.weight f4 [3, 63]
0	0xbeb9e2c7	-0.3630583
1	0x3dd060be	0.10174702
2	0x3c9dfb90	0.019284993
3	0xbf0ef41a	-0.5584122
4	0x3ba4b9cc	0.0050270315
5	0x3ce0591a	0.027386237
6	0xbeacc1da	-0.33741647
7	0x3ec01df1	0.37522843
8	0x3d7d92a0	0.06190741
9	0x3ef31b4d	0.47481766
10	0x3e28e6b6	0.16494259
11	0x3d285a0e	0.041101508
12	0x3ea4fda2	0.32224756
13	0x3e67263a	0.22573176
14	0xbd5840d4	-0.0527962
15	0x3edd5c7a	0.43234617
16	0xbc821800	-0.015880585
17	0xbe843ca6	-0.2582752
18	0xbec13861	-0.37738326
19	0xbd18f776	-0.037345372
20	0xbe2d30c7	-0.16913138
21	0xbefa85cb	-0.489302
22	0xbe08c4e8	-0.13356364
23	0xbe0207a0	-0.12698221
24	0xbeb3d401	-0.35122684
25	0x3d10d233	0.03535671
26	0x3d500a02	0.050790794
27	0x3ef0fb34	0.47066653
28	0x3d8e424a	0.069462374
29	0xbdc8dd62	-0.098078504
30	0x3ef48393	0.47756633
31	0x3d44a7b4	0.048011497
32	0xbb24249f	-0.0025046242
33	0x3eb44a3d	0.3521289
34	0x3ce41c8b	0.027845642
35	0xbd0a983c	-0.03383659
36	0xbe8987e3	-0.26861486
37	0x3d710d5e	0.05885064
38	0xbdfa3409	-0.12216956
39	0xbe29199c	-0.16513675
40	0x3d1c38ae	0.03813999
41	0xbd22ccd7	-0.03974613
42	0x3ed8a846	0.42315882
43	0xbd210867	-0.039314654
44	0xbdffeff8	-0.12496942
45	0xbf81523c	-1.0103221
46	0xbe4d06ee	-0.20022175
47	0x3ca8e0af	0.02061495
48	0xbe8aba63	-0.27095327
49	0xbde72b4c	-0.11287555
50	0x3d208c4a	0.03919629
51	0x3efacd5e	0.48984808
52	0xbd33a031	-0.043853942
53	0x3d878dd9	0.06618852
54	0xbf488336	-0.7832521
55	0x3f35ba27	0.7098717
56	0x3f0c31d1	0.54763514
57	0xbf213cc0	-0.6298332
58	0x3f309559	0.68977886
59	0xbf25e7fb	-0.648071
60	0xbf4b4c79	-0.79413563
61	0x3eda0aa1	0.42586234
62	0xbdb66193	-0.089053296
63	0xbf4c897f	-0.798973
64	0x3ddee2f9	0.10883135
65	0xbc4c6074	-0.012474168
66	0xbf2ec4ad	-0.68268853
67	0x3de430d1	0.111421235
68	0x3e585509	0.21126188
69	0xbf1a8013	-0.60351676
70	0xbe2de57c	-0.16982073
71	0x3e8d7a60	0.27632427
72	0x3f280bcc	0.65643
73	0x3f12faed	0.5741413
74	0x3dbbde17	0.0917322
75	0x3f481d85	0.78170043
76	0x3f029b84	0.5101855
77	0x3e837cd3	0.2568117
78	0x3f24dea2	0.6440221
79	0x3e440a3e	0.19144532
80	0x3e0778ce	0.13229677
81	0xbf73d654	-0.95248914
82	0x3ec58dbb	0.38584694
83	0xbe169201	-0.14704134
84	0xbf5e6877	-0.8687815
85	0x3cacc1f2	0.021088574
86	0xbdbe5c93	-0.09295001
87	0x3d330254	0.043703392
88	0xbe6058f3	-0.21908931
89	0xbd6a02e1	-0.05713165
90	0x3f27711d	0.6540697
91	0x3d73c58a	0.05951456
92	0xbdc34c07	-0.095359854
93	0x3f2f41cb	0.6845977
94	0xbdc30c64	-0.09523848
95	0xbe367ed4	-0.17821819
96	0x3f463033	0.77417296
97	0x3debd273	0.115147494
98	0xbe57d5be	-0.2107763
99	0x3f5747db	0.8409402
100	0x3d0c9dd0	0.03433019
101	0xbdc7cfb8	-0.09756416
102	0x3f6dd3a0	0.9290104
103	0xbd3a2cce	-0.045452885
104	0xbe223a66	-0.1584259
105	0x3f8a7c3b	1.0819162
106	0x3e168618	0.1469959
107	0x3ed6097a	0.41804105
108	0xbf1e7619	-0.6189895
109	0xbf1debca	-0.6168791
110	0xbe3f3ab5	-0.18674739
111	0xbf2db350	-0.67851734
112	0x3dc3d05e	0.09561227
113	0xbc401c21	-0.011725456
114	0x3f213021	0.62964064
115	0xbc9a0b10	-0.018804103
116	0x3de10671	0.10987557
117	0x3f4436dd	0.76646215
118	0x3f450239	0.76956517
119	0xbf266658	-0.64999914
120	0xbf925e70	-1.143507
121	0x3f4c8b12	0.79899704
122	0xbf4f5077	-0.80982155
123	0xbf74cd2b	-0.9562556
124	0x3f4a3163	0.7898161
125	0xbc045272	-0.008076297
126	0xbc2cce70	-0.010547265
127	0x3dee1894	0.11625782
128	0xbc3a3f0c	-0.011367571
129	0x3d1ec63d	0.038763274
130	0xbd93a5fd	-0.07209394
131	0xbd100b31	-0.035166923
132	0x3d254168	0.04034558
133	0xbe1de557	-0.15419517
134	0xbc424e51	-0.011859492
135	0x3d88868e	0.06666289
136	0xbc267d81	-0.010161758
137	0xbd41b54f	-0.04729205
138	0xbcd1a043	-0.025589114
139	0x3dd1ab07	0.10237699
140	0x3da5c9a3	0.080951
141	0x3da984d1	0.08277286
142	0xbd682384	-0.056674495
143	0x3dc2dc29	0.095146485
144	0xbe4647d4	-0.19363338
145	0x3c9ba4dd	0.018999511
146	0xbc8f7f51	-0.017516764
147	0xbcec59b0	-0.02885136
148	0xbd71afc5	-0.059005518
149	0xbd8cba2b	-0.06871446
150	0xbdeb1cbd	-0.11480091
151	0xbb860bce	-0.0040907627
152	0x3d07bf36	0.033141337
153	0xbe115d02	-0.14195636
154	0xbdf35a40	-0.11882448
155	0x3d58277e	0.052772038
156	0x3c4752f2	0.012165772
157	0xbde2b603	-0.11069872
158	0x3d5e4457	0.054264393
159	0x3e08ac9f	0.133471
160	0x3dc45dc9	0.095882006
161	0xbde2b0bc	-0.11068866
162	0x3e5a2edc	0.21306938
163	0x3ccf3386	0.025293123
164	0x3d88d436	0.06681101
165	0x3c03e351	0.008049802
166	0x3d56f717	0.052481737
167	0xbd895092	-0.06704821
168	0x3edb45fa	0.42826825
169	0xbe36b2f2	-0.178417
170	0x3c3a907f	0.01138699
171	0xbe36e73d	-0.17861648
172	0x3d929851	0.07157958
173	0xbde3eb43	-0.11128857
174	0xbdd07545	-0.101786174
175	0x3d46af99	0.048507307
176	0x3bc40abf	0.0059827263
177	0x3d26f292	0.040758677
178	0x3dede445	0.116158046
179	0xbd983955	-0.0743281
180	0xbcf2b7d0	-0.029628664
181	0x3cb087f5	0.021549204
182	0xbbadabf4	-0.0053000394
183	0xbc3552f2	-0.011067139
184	0xba9a1b28	-0.0011757361
185	0xbd77ea3e	-0.060526125
186	0xbbab70d2	-0.005231955
187	0xbd9e3db8	-0.07726616
188	0x3d889e6e	0.06670843

linear.ken_20230614_denoised.location.bias f4 [3]
0	0x3eb6414d	0.35596696
1	0x3f21c8b7	0.6319689
2	0x3ce715e1	0.028208675

linear.ken_20230618_denoised.location.weight f4 [3, 63]
0	0xbf35868f	-0.70908445
1	0xbcd3fe21	-0.025878014
2	0xbdb14f40	-0.08657694
3	0xbf2f7595	-0.6853879
4	0xbe231b02	-0.15928271
5	0x3e0ffb61	0.14060737
6	0xbed4e024	-0.41577256
7	0x3e5cf1f7	0.21576677
8	0x3e119d84	0.14220244
9	0x3f27cd2f	0.6554746
10	0x3e709410	0.23493981
11	0xbd26de7e	-0.04073953
12	0x3eff34bd	0.49844924
13	0x3f033588	0.5125356
14	0x3d015bb4	0.031581596
15	0x3f000cc5	0.50019485
16	0xbebef0d6	-0.37293118
17	0x3d124b45	0.035716314
18	0xbef03c9c	-0.4692124
19	0x3d91a10b	0.07110795
20	0xbc1b1a54	-0.009466726
21	0xbf04d3ed	-0.51885873
22	0xbdc13718	-0.094343364
23	0xbdf8f0a5	-0.12155274
24	0xbebe7e91	-0.37205938
25	0x3d7896fc	0.060690865
26	0x3d9d402c	0.076782554
27	0x3effab77	0.49935505
28	0x3e196ab2	0.14982107
29	0x3c08fb3c	0.00836068
30	0x3ec71af8	0.38887763
31	0xbc6ad1f2	-0.014332281
32	0xbda6ffb5	-0.08154241
33	0x3ed4db46	0.41573542
34	0x3dbbd11d	0.091707446
35	0xbd759ade	-0.059962146
36	0xbe125688	-0.14290822
37	0x3d97e2a6	0.07416277
38	0xbdd9c02f	-0.10632359
39	0x3e8ef711	0.27922872
40	0x3ccc4d7a	0.024939287
41	0xbdc79791	-0.09745706
42	0x3e09c0f3	0.1345251
43	0x3d91887e	0.07106112
44	0x3e55fbe7	0.20896874
45	0xbf8d0791	-1.1017934
46	0x3e2ebada	0.17063466
47	0x3d639348	0.05556038
48	0xbeed2cfd	-0.46323386
49	0x3d00204a	0.031280793
50	0xbdeea59a	-0.1165268
51	0x3ee79a31	0.45234826
52	0x3d69eb42	0.057109125
53	0xbd180e50	-0.037123024
54	0xbf862bf5	-1.0482165
55	0x3ed5f27f	0.41786572
56	0x3f13e57a	0.5777203
57	0xbf322459	-0.6958671
58	0x3f1cd107	0.6125645
59	0xbf3f0635	-0.74618846
60	0x3fb1308a	1.3842938
61	0x3ef6ceba	0.48204595
62	0x3dc115b4	0.09427968
63	0xbf6fe573	-0.93709487
64	0xbd19964b	-0.037496846
65	0x3d1da46f	0.038486894
66	0xbf63b317	-0.88945144
67	0xbcd1282c	-0.02553185
68	0x3e678063	0.2260757
69	0xbf738d5d	-0.9513758
70	0xbe58bab6	-0.21164975
71	0x3ea9fffc	0.33203113
72	0x3f527efa	0.82225
73	0x3f1e66f0	0.6187582
74	0x3e510f60	0.20416021
75	0x3f5ef120	0.8708668
76	0x3f4771c1	0.7790795
77	0x3e3a117a	0.1817073
78	0x3f515e2d	0.81784326
79	0xbdcd256e	-0.10016905
80	0x3eaa5e5c	0.33275115
81	0xbfa5c3a4	-1.295033
82	0x3e687edb	0.22704642
83	0x3e02bb57	0.12766777
84	0xbf8b9c75	-1.0907122
85	0x3d4cebfa	0.050029732
86	0x3d8f80b5	0.07006971
87	0xbe566262	-0.20935968
88	0xbe4c6342	-0.19959739
89	0x3da627c3	0.08113053
90	0x3f6f3309	0.9343725
91	0x3dfba13b	0.12286612
92	0xbcc9a321	-0.024613919
93	0x3f74efb7	0.95678276
94	0xbec0e22a	-0.3767255
95	0xbdc2955d	-0.09501145
96	0x3f840e26	1.0316818
97	0xbe25d720	-0.16195345
98	0xbe036a99	-0.12833633
99	0x3f604cff	0.87617487
100	0xbd56d812	-0.052452154
101	0xbd0cf5d9	-0.034414146
102	0x3f836dd6	1.0267894
103	0xbd2eb4bc	-0.04265283
104	0xbaaeaaaf	-0.0013326014
105	0x3f9d8363	1.2305721
106	0xbdb4c70a	-0.08827026
107	0x3f1f3692	0.6219264
108	0xbe489b6e	-0.19590542
109	0xbf1144a1	-0.56745344
110	0xbebbae97	-0.3665664
111	0xbf40d760	-0.75328636
112	0x3d8ab0a6	0.06771974
113	0xbc64a3ec	-0.013955098
114	0x3f7aeb4a	0.9801527
115	0x3d9ad08e	0.0755931
116	0x3cb15a55	0.021649519
117	0x3f294dac	0.6613414
118	0x3f30a24b	0.6899764
119	0xbf40fc1d	-0.75384694
120	0xbf9ada9d	-1.2097965
121	0x3f599c05	0.8500369
122	0xbf5b274d	-0.85606843
123	0xbf6026c0	-0.8755913
124	0x3f72cfe8	0.9484849
125	0xbdc7a744	-0.097487
126	0xbca7e0be	-0.020492908
127	0xbd28a602	-0.041173942
128	0x3d906aed	0.070516445
129	0x3d0979dc	0.03356348
130	0x3c9869c9	0.01860513
131	0xbdc9a712	-0.09846319
132	0x3c469b7b	0.01212203
133	0xbe258265	-0.16163023
134	0x3d7a78b1	0.061150257
135	0x3c946b06	0.018117439
136	0xbce6c536	-0.02817021
137	0xbd667260	-0.05626142
138	0xbd5ccbde	-0.05390536
139	0x3e2a4c6a	0.16630712
140	0x3cedc7a4	0.02902586
141	0xbd1b0e7f	-0.03785562
142	0xbe2020fc	-0.15637583
143	0x3d1fca18	0.03901109
144	0xbda9c2b7	-0.08289092
145	0x3d10dd23	0.035367142
146	0x3d2c5ad6	0.042078815
147	0xbcc860f2	-0.02446029
148	0xbd2864f9	-0.04111192
149	0xbd0c785e	-0.03429448
150	0xbc1d962e	-0.009618325
151	0x3d3af48d	0.045643378
152	0xbcd10be9	-0.025518375
153	0xbe36ba82	-0.17844585
154	0x3cf199be	0.029492255
155	0x3c8857bf	0.016643403
156	0x3cf219c4	0.029553302
157	0xbe02cd65	-0.12773664
158	0xbc9278b1	-0.017879816
159	0xbd4cad82	-0.049970157
160	0xbd18f74e	-0.037345223
161	0x3c5cf4cf	0.013486101
162	0x3e21c5f4	0.1579817
163	0x3d07e732	0.03317947
164	0x3d43dcfe	0.047818176
165	0x3df5577c	0.11979577
166	0xbcc0b151	-0.023522051
167	0xbd8a739d	-0.06760333
168	0x3f19ed44	0.60127664
169	0xbdb66e19	-0.08907718
170	0xbd8ad172	-0.0677823
171	0xbb8b596b	-0.004252603
172	0x3e0bc8fc	0.13650888
173	0xbdce633a	-0.1007752
174	0xbe0dbd77	-0.13841806
175	0x3b74f396	0.0037376634
176	0x3dde030d	0.10840426
177	0xbd5b0347	-0.053469922
178	0xbdd7320d	-0.10507593
179	0x3bd831e0	0.0065977424
180	0xbc71fce6	-0.014769768
181	0x3cff416b	0.031159123
182	0xbc25a9cb	-0.010111283
183	0xbd20bd13	-0.039242815
184	0x3c7b3828	0.015333213
185	0xbd90a2cf	-0.07062303
186	0x3dd95d79	0.106135316
187	0x3c42319c	0.011852648
188	0x3cb8bc46	0.022550713

linear.ken_20230618_denoised.location.bias f4 [3]
0	0x3ed7d6db	0.4215611
1	0x3f467b8a	0.77532256
2	0x3da12606	0.078685805

exp_avg f4 [3, 63]
0	0x3c393be7	0.011305786
1	0x3b4534f0	0.0030091368
2	0xbc01ffb0	-0.007934496
3	0x3c5abafd	0.013350246
4	0x3be6f0d8	0.007047754
5	0xbb93421a	-0.004493964
6	0x3bc324a3	0.005955295
7	0x39e8d07d	0.00044405824
8	0x39cdadcb	0.00039230133
9	0x39e462e4	0.00043561228
10	0x3b1e6aac	0.0024172468
11	0xbbc46d1d	-0.0059944526
12	0x3bc19a9d	0.005908324
13	0xbbd86aa3	-0.006604509
14	0x3aa9c58f	0.0012952554
15	0xbbb49920	-0.005511418
16	0x3b2566da	0.0025238306
17	0x38283d1a	4.0111227e-05
18	0x3bdb29af	0.0066883187
19	0x3b87d124	0.0041448046
20	0xbb05594a	-0.002034741
21	0x3b97265e	0.004612728
22	0xbb26e4a2	-0.0025465866
23	0xbc2b4551	-0.010453538
24	0xbaea0643	-0.0017854649
25	0xbb751ecb	-0.0037402387
26	0x3a4597e6	0.0007537588
27	0x3b352cba	0.0027645067
28	0xbb19f344	-0.0023490945
29	0xbbb8d873	-0.005641037
30	0xbaccb4cd	-0.0015617848
31	0xbb5624a1	-0.003267564
32	0xbb3329bf	-0.0027338115
33	0xbc2885ce	-0.010285808
34	0xbb0278f4	-0.001990852
35	0xba23dfa9	-0.00062512845
36	0xb98d49d7	-0.0002694863
37	0xbb396f1c	-0.0028294986
38	0xbbc94909	-0.0061427397
39	0xbb9ee620	-0.0048492104
40	0xbb86d758	-0.0041150264
41	0x3ad64bd0	0.0016349498
42	0x38b5bed8	8.6663e-05
43	0xbb249b02	-0.0025116806
44	0xbb08d22c	-0.0020877225
45	0xb99472c8	-0.00028314278
46	0xbaeeada0	-0.0018209703
47	0x3aa97269	0.0012927774
48	0x3b5b996d	0.0033508197
49	0x2f82482d	2.3698146e-10
50	0x30085b8c	4.960661e-10
51	0xbb5b996e	-0.00335082
52	0x2c91cd05	4.1439096e-12
53	0xac8ef6f6	-4.063301e-12
54	0x3b06ae17	0.0020550543
55	0xbbaccf2c	-0.0052737202
56	0xbae341c8	-0.001733833
57	0xbb172e27	-0.002306828
58	0xbb950a16	-0.0045483215
59	0x3bae1bb9	0.0053133634
60	0xbb34570b	-0.0027517702
61	0xbb5b996e	-0.00335082
62	0xad49aa63	-1.1463361e-11
63	0x3c1644b0	0.00917165
64	0x3c4231cd	0.011852694
65	0xbc95be19	-0.018279122
66	0x3c7abca6	0.015303766
67	0x3bc4a124	0.006000655
68	0xbc8d8537	-0.017275436
69	0x3c860558	0.01635997
70	0x3b11e96e	0.002226438
71	0xbc1c1f26	-0.009528911
72	0xbac6c178	-0.0015163859
73	0x3a3c4835	0.00071823905
74	0xbcb22d2a	-0.021750052
75	0xbc6e81bb	-0.014557297
76	0xbbd6ef47	-0.006559286
77	0xbc053fee	-0.008132918
78	0xbca7f5eb	-0.020503005
79	0x3bb98c08	0.005662445
80	0xbc0cca49	-0.00859315
81	0x3cbe7f0b	0.023253938
82	0xbad05c92	-0.0015896729
83	0xbca337ad	-0.01992401
84	0x3c8f22f3	0.01747272
85	0xbb2369d8	-0.0024934914
86	0xbc9741d3	-0.018464005
87	0x3c217b54	0.009856064
88	0x396e4479	0.00022722957
89	0xbc2e6b25	-0.010645662
90	0x390e0a5c	0.00013546034
91	0x3b7b94c8	0.003838824
92	0xbc694843	-0.01423842
93	0xbc6ffb16	-0.014647266
94	0x3b2b99de	0.0026184241
95	0xbc1d0da1	-0.009585769
96	0xbcf5a325	-0.02998502
97	0xbab7e197	-0.0014029023
98	0x3bab2bdc	0.0052237343
99	0xbba8819e	-0.0051424047
100	0x3bc21527	0.0059229317
101	0xb9b1ef0f	-0.00033938183
102	0xbc0803b2	-0.008301662
103	0xbbbb08f9	-0.0057078567
104	0xbb12ba5e	-0.0022388916
105	0xbbccd7aa	-0.006251295
106	0x3a499e14	0.0007691097
107	0xbb8a985a	-0.0042295875
108	0xbb6f17a4	-0.0036482597
109	0xbb54df11	-0.003248159
110	0x3b1e29db	0.0024133835
111	0x3c456baf	0.0120496
112	0xac798cfb	-3.5463288e-12
113	0x2f2bd664	1.5628526e-10
114	0xbc456bb4	-0.012049604
115	0x2ccce74e	5.8237087e-12
116	0xac234a1f	-2.3204839e-12
117	0x3c05875d	0.008149949
118	0xbc63761e	-0.013883142
119	0x3c8453e8	0.01615329
120	0xbadf2361	-0.0017024094
121	0xbc59d114	-0.013294477
122	0x3c5d84a4	0.0135203935
123	0x39b2058f	0.00033954947
124	0xbc456bb4	-0.012049604
125	0x2e8b28f5	6.3282636e-11
126	0xb8077831	-3.2298445e-05
127	0xb8783330	-5.917548e-05
128	0xb96a9b96	-0.0002237394
129	0xb8d358ff	-0.00010077841
130	0xb898c78b	-7.2850926e-05
131	0xb98c473c	-0.00026755955
132	0x380fc55a	3.4277655e-05
133	0xb8ab0d23	-8.156362e-05
134	0xb8e6f141	-0.00011012192
135	0x376a42bd	1.3963026e-05
136	0x3919b6a5	0.00014659257
137	0xb95f8ad6	-0.00021318658
138	0x387b25ac	5.9878148e-05
139	0xb8ae5d1c	-8.3143095e-05
140	0xb8ba144c	-8.872952e-05
141	0xb909ebfd	-0.0001315325
142	0x38a5e5ed	7.91064e-05
143	0xb86785db	-5.5199354e-05
144	0xb86a31bc	-5.5836266e-05
145	0xb906adcc	-0.0001284398
146	0xb937a70a	-0.00017514467
147	0xb90f340d	-0.00013656933
148	0xb985e4ed	-0.000255383
149	0xb9bdf861	-0.00036233946
150	0x38af7c3a	8.367789e-05
151	0xb962ae11	-0.00021617884
152	0xb954d6cf	-0.00020297918
153	0x37dac071	2.6077238e-05
154	0x382fa7c5	4.18795e-05
155	0xb84a9d2c	-4.830693e-05
156	0x38fd15b4	0.000120680226
157	0x38d29856	0.00010041955
158	0xb7129f31	-8.739343e-06
159	0xb937c670	-0.00017526164
160	0xb9023a2c	-0.00012419437
161	0x38a73626	7.9732665e-05
162	0x3802f873	3.12258e-05
163	0x38e9aa9c	0.00011142084
164	0xba042771	-0.00050412776
165	0x381338c9	3.5100416e-05
166	0xb997f825	-0.00028985846
167	0x369a06a9	4.590333e-06
168	0xb7069069	-8.0206455e-06
169	0xb71a1fb6	-9.186499e-06
170	0x371c7755	9.326109e-06
171	0xb782430e	-1.5528432e-05
172	0xb8315181	-4.2275995e-05
173	0x3909eb10	0.00013152906
174	0xb62f6679	-2.613668e-06
175	0xaacfb110	-3.6893448e-13
176	0x2da0f39d	1.829808e-11
177	0x362f6568	2.6136058e-06
178	0x2b0bf23f	4.9718904e-13
179	0xaa8bd80b	-2.484127e-13
180	0x37836ddd	1.5667576e-05
181	0x393dc010	0.00018095993
182	0x365cf410	3.2924618e-06
183	0xb7429666	-1.1598318e-05
184	0x37963f9b	1.7911012e-05
185	0x37a36d28	1.9481944e-05
186	0xb76717fa	-1.3774255e-05
187	0x362f6575	2.6136088e-06
188	0x2c08b507	1.9427253e-12

exp_avg_sq f4 [3, 63]
0	0x39328376	0.00017024376
1	0x38cb8950	9.705371e-05
2	0x3a6dd702	0.0009072871
3	0x3978fe81	0.00023745933
4	0x37c77026	2.3774872e-05
5	0x3a083315	0.00051956
6	0x39128f9f	0.00013977148
7	0x366380bc	3.390057e-06
8	0x3852b0e5	5.0232647e-05
9	0x37ba858b	2.2235114e-05
10	0x3907aef0	0.00012939773
11	0x3a65592c	0.00087489444
12	0x387694cf	5.878956e-05
13	0x38b7e9fe	8.7697044e-05
14	0x3a18c78c	0.00058280746
15	0x38d04d59	9.93262e-05
16	0x36821be6	3.8775497e-06
17	0x384e69ff	4.9212944e-05
18	0x39382355	0.0001756077
19	0x389de257	7.5285025e-05
20	0x3b183728	0.0023226235
21	0x392c9e47	0.00016462161
22	0x38ca524b	9.647439e-05
23	0x3aae3520	0.0013290979
24	0x38f1c06d	0.000115276176
25	0x399bd4bb	0.000297224
26	0x3a1af39d	0.0005910935
27	0x383cb36a	4.4989785e-05
28	0x38a4f2ac	7.8653306e-05
29	0x3b154548	0.002277689
30	0x37ac2a5f	2.0523728e-05
31	0x38cf7778	9.892782e-05
32	0x3abc2380	0.0014353842
33	0x38851b41	6.347011e-05
34	0x39a55b73	0.00031539387
35	0x3a059ee3	0.00050972233
36	0x384a706f	4.8265265e-05
37	0x39a92565	0.00032262053
38	0x3ae45177	0.0017419298
39	0x37b9201d	2.2068672e-05
40	0x39be29f3	0.0003627088
41	0x3a0b638b	0.0005317262
42	0x358ff37f	1.0725197e-06
43	0x36e41ba3	6.798147e-06
44	0x3722a31f	9.693932e-06
45	0x34f3d239	4.5415234e-07
46	0x35470c9d	7.415163e-07
47	0x379d2204	1.8731698e-05
48	0x389cd3e0	7.4781245e-05
49	0x1f91e581	6.178957e-20
50	0x1fe979f4	9.888109e-20
51	0x389cd3e1	7.478125e-05
52	0x191eba25	8.206e-24
53	0x191ac87d	8.002102e-24
54	0x363764b0	2.7327733e-06
55	0x3867cd27	5.5265755e-05
56	0x36706b1a	3.5825128e-06
57	0x37b738a9	2.1841684e-05
58	0x3857e365	5.1471772e-05
59	0x37346dce	1.0754402e-05
60	0x36d4e1ca	6.3443777e-06
61	0x389cd3e1	7.478125e-05
62	0x1b2d8329	1.4352605e-22
63	0x38eeaaf6	0.00011380568
64	0x38f6ea59	0.00011773845
65	0x3a595a0f	0.0008291313
66	0x39705943	0.00022921436
67	0x381ab866	3.6888196e-05
68	0x3a027124	0.0004975966
69	0x397168ea	0.00023022635
70	0x36755fb1	3.6563545e-06
71	0x387d351e	6.036937e-05
72	0x383ce964	4.5040055e-05
73	0x3935a0a4	0.00017321348
74	0x3a4e8a02	0.0007878841
75	0x39731269	0.00023181144
76	0x39243809	0.00015661134
77	0x3a00427e	0.00048927206
78	0x3989e132	0.0002629846
79	0x36c54048	5.878541e-06
80	0x38478ead	4.7578174e-05
81	0x394815a0	0.00019081542
82	0x38af35bf	8.354661e-05
83	0x3b09b76c	0.002101387
84	0x39249239	0.00015694731
85	0x38c5b108	9.426667e-05
86	0x3aa764a9	0.0012771088
87	0x3892a588	6.992655e-05
88	0x398e6804	0.00027161848
89	0x3a15940c	0.00057059596
90	0x3823d25e	3.9058148e-05
91	0x38a6bcbb	7.9506506e-05
92	0x3b08ced8	0.0020875242
93	0x3939996e	0.00017700132
94	0x38c29000	9.277463e-05
95	0x3aa7143b	0.0012747118
96	0x39d9ea13	0.00041563864
97	0x398e7434	0.0002717093
98	0x3a07e7d0	0.0005184384
99	0x381168da	3.4668345e-05
100	0x3995ee13	0.00028596874
101	0x3ad353d9	0.0016123011
102	0x384748a7	4.751296e-05
103	0x39a7edd5	0.0003202992
104	0x3a09e418	0.0005260124
105	0x36e88c54	6.930475e-06
106	0x36cbf248	6.0780767e-06
107	0x3737b2c8	1.0949276e-05
108	0x36111a0b	2.1621843e-06
109	0x35d6a5d4	1.5992505e-06
110	0x378cc1b3	1.6779499e-05
111	0x39178d79	0.00014453185
112	0x1f4e71e7	4.3716415e-20
113	0x1fc4a7b7	8.328669e-20
114	0x39178d7b	0.00014453188
115	0x197897f6	1.2851988e-23
116	0x195dd96a	1.1469339e-23
117	0x37b73427	2.1839585e-05
118	0x392d5c85	0.00016533032
119	0x38bc7ce2	8.9878e-05
120	0x38096c4d	3.276421e-05
121	0x391d7798	0.00015017239
122	0x386ce1d3	5.64771e-05
123	0x3719d9b9	9.170203e-06
124	0x39178d7b	0.00014453188
125	0x1c5b7a45	7.261905e-22
126	0x3525039f	6.147256e-07
127	0x3624beb8	2.4548917e-06
128	0x3836165e	4.3413012e-05
129	0x35f45056	1.8202797e-06
130	0x3506579d	5.0046384e-07
131	0x37d23cfa	2.5062345e-05
132	0x3630eb0e	2.6362864e-06
133	0x3386b85e	6.2733974e-08
134	0x362ace5a	2.5452086e-06
135	0x35a97cc9	1.2627798e-06
136	0x3639e968	2.7703009e-06
137	0x382ab669	4.070104e-05
138	0x364f2fd9	3.0873255e-06
139	0x34f6cfc5	4.5972243e-07
140	0x37c9f9ea	2.4077443e-05
141	0x363f632f	2.851895e-06
142	0x334c8ce2	4.7625583e-08
143	0x360d8277	2.1086578e-06
144	0x3547c06d	7.4413293e-07
145	0x36869c97	4.0117407e-06
146	0x38d9facb	0.0001039408
147	0x35c35702	1.4553955e-06
148	0x36b5591c	5.404594e-06
149	0x38820b3e	6.200977e-05
150	0x35e96d95	1.7391745e-06
151	0x3782f81d	1.5612744e-05
152	0x37dc71f9	2.6279116e-05
153	0x352e1fe8	6.486648e-07
154	0x36933c90	4.387992e-06
155	0x38da24eb	0.000104019266
156	0x35a3ae28	1.2195133e-06
157	0x36b63469	5.430124e-06
158	0x38834032	6.258524e-05
159	0x35f87c91	1.8513693e-06
160	0x377601d9	1.4663173e-05
161	0x37bd53c1	2.2569557e-05
162	0x3520f0d2	5.9955084e-07
163	0x378cff7f	1.6808275e-05
164	0x389ca099	7.468573e-05
165	0x34add899	3.2381357e-07
166	0x37936509	1.7570814e-05
167	0x37c98803	2.4024403e-05
168	0x325e8944	1.2953311e-08
169	0x34b67407	3.3984563e-07
170	0x34e2d3b0	4.2249803e-07
171	0x32be076d	2.2122288e-08
172	0x31b82b76	5.3600457e-09
173	0x356e91f3	8.8874293e-07
174	0x35fdc0e3	1.8906106e-06
175	0x1bdb9c28	3.6331424e-22
176	0x1c905ccb	9.553107e-22
177	0x35fdc0e9	1.8906113e-06
178	0x1674f5cb	1.9787722e-25
179	0x15ed51d0	9.5852615e-26
180	0x33bb073d	8.709183e-08
181	0x3532eaa4	6.6651614e-07
182	0x33066d65	3.12988e-08
183	0x342a1806	1.5841223e-07
184	0x354c0cf9	7.60148e-07
185	0x33981710	7.0822466e-08
186	0x32155933	8.693223e-09
187	0x35fdc0e9	1.8906113e-06
188	0x183535f4	2.3420941e-24

exp_avg f4 [3]
0	0xbd093fde	-0.033508174
1	0xbdf6c69f	-0.12049603
2	0x37db3cc7	2.6135136e-05

exp_avg_sq f4 [3]
0	0x3bf50b14	0.0074781273
1	0x3c6ccd1a	0.014453197
2	0x39463ebb	0.0001890612

exp_avg f4 [3, 63]
0	0x3ae6a948	0.0017598057
1	0x3b1219a2	0.002229311
2	0xbab40bc8	-0.0013736421
3	0x3ba77d9c	0.0051114094
4	0x3af32f83	0.0018553588
5	0xbb1be795	-0.0023789157
6	0x3b29fee3	0.0025939278
7	0xb73f62e8	-1.1407516e-05
8	0xba80606c	-0.0009794361
9	0xb811dce0	-3.47764e-05
10	0x3abb5f34	0.001429534
11	0xbb0f6d5e	-0.0021885256
12	0xbacec1b1	-0.0015774277
13	0xb966d2ac	-0.0002201299
14	0xbb13dab4	-0.0022560777
15	0xbb200edc	-0.002442292
16	0x3a34cdc1	0.0006897115
17	0xb90cf630	-0.00013443152
18	0x3afed91b	0.0019443365
19	0x3ae3b6c8	0.0017373199
20	0xbbb13615	-0.0054080584
21	0x3b034986	0.0020032837
22	0x3ac03af0	0.0014666002
23	0xbb8a6476	-0.0042234017
24	0x3acd3918	0.0015657274
25	0x37bdc4df	2.2622231e-05
26	0xbb906105	-0.004406097
27	0x39f85768	0.0004736737
28	0x3a20ebd7	0.00061386585
29	0xbbd4a927	-0.006489891
30	0x39290b27	0.0001612125
31	0x39c6da6f	0.0003792825
32	0xbb6092c1	-0.003426716
33	0xbaabb8d5	-0.0013101349
34	0xb96cbcd4	-0.00022577058
35	0xbb8b13dc	-0.004244311
36	0x3a97431a	0.0011540384
37	0x3a17af19	0.00057862845
38	0xbbcdce46	-0.006280693
39	0xb9250c3c	-0.00015740184
40	0xb9941f57	-0.0002825211
41	0xbba4f0e4	-0.005033599
42	0xb993fa89	-0.00028224688
43	0x389bdd21	7.4321644e-05
44	0xba1c23fd	-0.00059562904
45	0x3a734aae	0.00092808425
46	0xb9e7db21	-0.00044223017
47	0x3a5cf05a	0.0008428149
48	0x3b007e6f	0.001960661
49	0xaef83d52	-1.1288627e-10
50	0x2fe7f0b8	4.2189696e-10
51	0xbb007e70	-0.0019606613
52	0xabf21122	-1.719989e-12
53	0xac0a2d80	-1.9636237e-12
54	0x3aaf4c1c	0.0013374123
55	0x38e1040f	0.00010729592
56	0x3a1c4e32	0.000596258
57	0x3ab7a2e3	0.0014010336
58	0xbb2a2403	-0.0025961406
59	0x3b5e7afc	0.0033947816
60	0x39eaa73b	0.00044756554
61	0xbb007e70	-0.0019606613
62	0xac1dca13	-2.2423216e-12
63	0x3c55d6a7	0.013051665
64	0x3b8dcb96	0.004327248
65	0xbc2fbda6	-0.010726368
66	0x3c7aa8af	0.015299006
67	0x3b6649b1	0.0035139138
68	0xbc3498af	-0.011022731
69	0x3c158e9f	0.009128242
70	0x3af1b7e3	0.0018441643
71	0xbb9da0b1	-0.0048104157
72	0xbb2e2736	-0.0026573665
73	0xbb6440ce	-0.0034828666
74	0xbc814c1e	-0.015783366
75	0xbc2fa2bb	-0.01071995
76	0xbaf1d5f3	-0.0018450603
77	0xbc4e5d8c	-0.0125955455
78	0xbc33cbb5	-0.0109738605
79	0x3acd476f	0.0015661548
80	0xbb91ec6c	-0.0044532325
81	0x3c4f6c34	0.012660075
82	0x39a9776a	0.00032323162
83	0xbc870e2c	-0.01648625
84	0x3c20d0a1	0.009815366
85	0x3a934851	0.0011236762
86	0xbc291399	-0.010319614
87	0x3b53e0de	0.0032330076
88	0x3b20062b	0.002441774
89	0xbc79633b	-0.015221412
90	0xbb7a2a18	-0.0038172062
91	0x3b6fd21f	0.0036593748
92	0xbc7840eb	-0.015152196
93	0xbb9760ec	-0.0046197083
94	0x3b84b888	0.004050318
95	0xbbb70401	-0.005585194
96	0xbc38890d	-0.011263144
97	0xba952e4a	-0.0011381593
98	0xbc09570a	-0.008382568
99	0xbb9bc1fb	-0.004753349
100	0x3af072fb	0.0018344814
101	0xbc69deda	-0.014274323
102	0xbbcb6b6b	-0.0062078736
103	0x3ad83f1f	0.0016498304
104	0xbc576841	-0.013147415
105	0xbb4852bb	-0.003056689
106	0xb8900988	-6.8682304e-05
107	0xbb9a7c5d	-0.0047145323
108	0x38cfe64f	9.9134275e-05
109	0x38e91e8c	0.000111159956
110	0x3bb15033	0.005411172
111	0x3c0522d7	0.008125982
112	0xaf2d7ee1	-1.5779335e-10
113	0x30281540	6.114824e-10
114	0xbc0522da	-0.008125985
115	0x2b0e9300	5.065254e-13
116	0xababdb7d	-1.2211201e-12
117	0xba86460a	-0.0010244262
118	0xbaca4672	-0.0015432371
119	0x380ace4d	3.3093896e-05
120	0x3bef2b14	0.0072988365
121	0xbbe4674e	-0.0069703227
122	0x3c35ce39	0.011096531
123	0x3b2e5ca6	0.0026605516
124	0xbc0522d9	-0.008125984
125	0x2d3a8a6e	1.06036135e-11
126	0xb89cab32	-7.470547e-05
127	0xb7467658	-1.1829274e-05
128	0xb8248724	-3.9226506e-05
129	0x38d53858	0.00010167126
130	0x362c7362	2.569716e-06
131	0xb8009d22	-3.066392e-05
132	0x3862460d	5.394784e-05
133	0x3749159a	1.1985563e-05
134	0xb8368fe4	-4.352619e-05
135	0x38556490	5.0876813e-05
136	0x37b36175	2.1383845e-05
137	0xb8dd7472	-0.00010559791
138	0xb82d85e8	-4.1371124e-05
139	0xb77204da	-1.4425454e-05
140	0xb71e5f32	-9.439698e-06
141	0xb8658cac	-5.4728866e-05
142	0x37bfd4f9	2.2868147e-05
143	0x37bf80fe	2.2829041e-05
144	0x3709ac4c	8.205952e-06
145	0xb88e0be9	-6.773306e-05
146	0xb89d6d8e	-7.5067495e-05
147	0x37b0bfb4	2.1070104e-05
148	0xb6cf2cf5	-6.1743144e-06
149	0xb6d158e0	-6.239032e-06
150	0x38c43f23	9.3577684e-05
151	0x384ec8cc	4.9301234e-05
152	0x37698605	1.3919086e-05
153	0x378ce819	1.679738e-05
154	0xb88d7102	-6.744453e-05
155	0x397c297e	0.0002404805
156	0x385da500	5.2844174e-05
157	0xb83e34f6	-4.5348854e-05
158	0x395b62a8	0.0002092222
159	0x370d154d	8.409214e-06
160	0xb7549c14	-1.26725245e-05
161	0x385eb1dc	5.309457e-05
162	0xb8355cb7	-4.324011e-05
163	0x385addc6	5.2181793e-05
164	0x3901dd32	0.000123848
165	0x3841f3b5	4.6241756e-05
166	0x37e6fc82	2.753572e-05
167	0xb7df60b7	-2.6628708e-05
168	0xb68dbc2f	-4.224035e-06
169	0x3750685d	1.2422065e-05
170	0xb8262a72	-3.9617014e-05
171	0x37130ca2	8.764824e-06
172	0xb6b8950c	-5.5009787e-06
173	0x370920b5	8.1734515e-06
174	0x37bc70f4	2.2463944e-05
175	0xad464c4a	-1.12719365e-11
176	0xad24b3d9	-9.362255e-12
177	0xb7bc70dd	-2.2463902e-05
178	0x28a26c2b	1.8032523e-14
179	0x2a23eb39	1.4558917e-13
180	0xb593355b	-1.0967882e-06
181	0x37cce230	2.4424022e-05
182	0x34d62bdc	3.9892518e-07
183	0x36a40259	4.887854e-06
184	0x38026809	3.1091306e-05
185	0xb7e21abe	-2.6953752e-05
186	0xb7277efa	-9.98354e-06
187	0xb7bc70db	-2.2463899e-05
188	0xaad20dd2	-3.7313083e-13

exp_avg_sq f4 [3, 63]
0	0x387078d1	5.7332978e-05
1	0x38bd277f	9.019579e-05
2	0x3a7c193a	0.0009616796
3	0x38e196e5	0.00010756942
4	0x37bdab01	2.2610186e-05
5	0x3a06a2fc	0.0005135981
6	0x38d02d4c	9.92665e-05
7	0x36616607	3.3587e-06
8	0x38356a37	4.3252683e-05
9	0x3818cb20	3.64288e-05
10	0x38b51b19	8.6358e-05
11	0x3a7cb72e	0.0009640333
12	0x38a014ad	7.633246e-05
13	0x37b03802	2.1006916e-05
14	0x3a16ae69	0.0005748035
15	0x38a851c5	8.026095e-05
16	0x360d9d49	2.110219e-06
17	0x38845ea8	6.3118816e-05
18	0x37f4ca75	2.9181343e-05
19	0x382d2e27	4.1289397e-05
20	0x3b19d19b	0.0023470882
21	0x38338762	4.280301e-05
22	0x38688d7f	5.544489e-05
23	0x3aab1d72	0.001305504
24	0x386e2cfe	5.6785524e-05
25	0x3962c132	0.0002162501
26	0x3a3321aa	0.00068333244
27	0x37003b32	7.643177e-06
28	0x38779f81	5.903794e-05
29	0x3b278f7c	0.00255677
30	0x37d78487	2.569171e-05
31	0x3878430f	5.919026e-05
32	0x3ab464f4	0.0013762997
33	0x383a25cf	4.4381068e-05
34	0x39871573	0.00025765187
35	0x3a24d7a6	0.00062882376
36	0x3828e174	4.026429e-05
37	0x394dd4ca	0.00019629594
38	0x3aff5a3a	0.0019481846
39	0x368275f4	3.8880335e-06
40	0x3988762b	0.00026027983
41	0x3a284d0d	0.0006420173
42	0x33bcfc95	8.8003766e-08
43	0x3614223b	2.2073643e-06
44	0x37106cca	8.608398e-06
45	0x34cc5af1	3.806413e-07
46	0x340d9bb1	1.3188289e-07
47	0x38a5b08d	7.900698e-05
48	0x387cbb37	6.025584e-05
49	0x1ef501d3	2.5941138e-20
50	0x1fc1f5ab	8.21451e-20
51	0x387cbb2f	6.025581e-05
52	0x17ee9773	1.5418621e-24
53	0x18421464	2.5084207e-24
54	0x372688dd	9.926237e-06
55	0x38450437	4.6972385e-05
56	0x37bf371f	2.2794642e-05
57	0x3717bc0b	9.0440835e-06
58	0x3834c971	4.310295e-05
59	0x382780cb	3.993585e-05
60	0x35751f67	9.131531e-07
61	0x387cbb31	6.0255818e-05
62	0x1b296bc4	1.4014173e-22
63	0x3945efc1	0.000188767
64	0x38f5fbab	0.00011729387
65	0x3a68a427	0.0008874558
66	0x397eb787	0.00024291697
67	0x3805a455	3.1862717e-05
68	0x3a027363	0.00049763004
69	0x393eadb4	0.00018184521
70	0x363b30d0	2.7893584e-06
71	0x3835c28b	4.3334945e-05
72	0x38b88f21	8.8004635e-05
73	0x3939388c	0.0001766404
74	0x3a70b463	0.0009182153
75	0x397be53d	0.00024022623
76	0x387db7f5	6.0491224e-05
77	0x3a0cf6f4	0.0005377375
78	0x395125b0	0.00019945833
79	0x3686a0d6	4.012235e-06
80	0x386a4f6f	5.5863926e-05
81	0x380c5281	3.345544e-05
82	0x388119b7	6.155989e-05
83	0x3b20fe08	0.0024565477
84	0x382807aa	4.006146e-05
85	0x3880a821	6.134832e-05
86	0x3aba67c0	0.0014221594
87	0x380160d9	3.0846193e-05
88	0x396ccc01	0.00022582711
89	0x3a4568de	0.000753058
90	0x3928d2ec	0.00016100303
91	0x3891b2f3	6.947471e-05
92	0x3b2741b2	0.0025521335
93	0x394ddebc	0.00019633299
94	0x38814035	6.163159e-05
95	0x3abba836	0.0014317099
96	0x39b7f632	0.0003508791
97	0x3982079c	0.00024801202
98	0x3a42ea51	0.00074354286
99	0x38ab04ea	8.154831e-05
100	0x3953bc5e	0.000201927
101	0x3b0c4ea3	0.0021409176
102	0x38e96be9	0.000111304056
103	0x398c2f66	0.00026738195
104	0x3a3ec70b	0.00072775845
105	0x36919fe5	4.339951e-06
106	0x36136d4d	2.1968328e-06
107	0x3727ff72	1.0013451e-05
108	0x34dc93d2	4.1085747e-07
109	0x358f965a	1.0698088e-06
110	0x389ccd79	7.476932e-05
111	0x3901f9e0	0.00012395484
112	0x1fb3a595	7.608338e-20
113	0x2060d037	1.904243e-19
114	0x3901f9e1	0.00012395486
115	0x187ee7d7	3.294578e-24
116	0x1926e3be	8.627991e-24
117	0x38292763	4.032942e-05
118	0x38e4813b	0.00010895958
119	0x393e6be9	0.00018160012
120	0x38238ba9	3.8992297e-05
121	0x3923f3a9	0.00015635662
122	0x39738e5a	0.00023227316
123	0x36ce4f57	6.148515e-06
124	0x3901f9e1	0.00012395486
125	0x1bbf5684	3.165421e-22
126	0x34b422b9	3.3552877e-07
127	0x355e346a	8.2777717e-07
128	0x37293ff9	1.008808e-05
129	0x352cd68d	6.4387206e-07
130	0x345012d1	1.9378355e-07
131	0x36b5cd0e	5.418092e-06
132	0x354ac8d9	7.5543136e-07
133	0x32e0781b	2.613165e-08
134	0x34f655f3	4.5883607e-07
135	0x3486358b	2.4998403e-07
136	0x3548cc5d	7.4803194e-07
137	0x372ac2d7	1.0178154e-05
138	0x3513bacc	5.503359e-07
139	0x341bad24	1.4498488e-07
140	0x36c7b834	5.952106e-06
141	0x35258f9d	6.1676275e-07
142	0x32a51ae2	1.9220753e-08
143	0x35284ffb	6.2701264e-07
144	0x347ead22	2.3718579e-07
145	0x34fb57cf	4.6816282e-07
146	0x37cdb6c5	2.4523013e-05
147	0x34acfe39	3.2222468e-07
148	0x3528e93c	6.292428e-07
149	0x37658c0d	1.3682072e-05
150	0x34f36d10	4.534163e-07
151	0x3622839d	2.421649e-06
152	0x36ea1b16	6.9768967e-06
153	0x331a853e	3.5977102e-08
154	0x353427ea	6.711331e-07
155	0x37de5504	2.650405e-05
156	0x3437527c	1.7073211e-07
157	0x35362bd3	6.7864056e-07
158	0x37701cad	1.4311791e-05
159	0x34a96cde	3.1557914e-07
160	0x363bed30	2.8003233e-06
161	0x36da367e	6.50325e-06
162	0x348f382e	2.6676702e-07
163	0x36167d07	2.2424517e-06
164	0x37a9ce9f	2.0242585e-05
165	0x330238fc	3.031981e-08
166	0x3643a613	2.9153932e-06
167	0x36dcaaa9	6.5763784e-06
168	0x3122763e	2.3641316e-09
169	0x32d2b5fc	2.4529974e-08
170	0x33bc9582	8.7816275e-08
171	0x309a6b85	1.1235534e-09
172	0x2faf9782	3.1939967e-10
173	0x355933ff	8.0914464e-07
174	0x34f45e0e	4.5516975e-07
175	0x1b7cb6cc	2.0904016e-22
176	0x1c145fb5	4.909279e-22
177	0x34f45e0e	4.5516975e-07
178	0x14504bdf	1.0516279e-26
179	0x15034f1e	2.6517652e-26
180	0x325c68c5	1.2829507e-08
181	0x3420443b	1.4925983e-07
182	0x34013197	1.2032102e-07
183	0x3342ad2e	4.532665e-08
184	0x3413bada	1.3758418e-07
185	0x34cf60a8	3.862708e-07
186	0x30680489	8.4407553e-10
187	0x34f45e0e	4.5516975e-07
188	0x177a210e	8.082108e-25

exp_avg f4 [3]
0	0xbca09e09	-0.019606607
1	0xbda66b8a	-0.0812598
2	0xb96b8d20	-0.0002246392

exp_avg_sq f4 [3]
0	0x3bc57234	0.006025577
1	0x3c4b1664	0.012395475
2	0x383ee97e	4.5516987e-05

exp_avg f4 [3, 63]
0	0x3b0598e3	0.0020385317
1	0x3ad14dd8	0.0015968634
2	0xba8b2ffc	-0.0010619159
3	0x3b9e7935	0.0048362263
4	0x3af1346f	0.0018402467
5	0xbaef3ede	-0.0018252989
6	0x3b0f3442	0.0021851216
7	0x398b277b	0.0002654156
8	0xba5fd454	-0.0008538414
9	0xba754e98	-0.00093577197
10	0x3ae0f59d	0.0017163042
11	0x3a9eb906	0.0012109585
12	0x38e80c73	0.00011064941
13	0xbaa2c49c	-0.0012418213
14	0x39efe855	0.00045758733
15	0xbada68de	-0.0016663333
16	0x3a875b6f	0.0010326932
17	0xb89470e7	-7.07822e-05
18	0x3922c1be	0.00015521699
19	0x3ab5a39b	0.0013857962
20	0xb9cf1112	-0.00039494835
21	0x3aacc3d2	0.0013180918
22	0x3aa75d6b	0.001276893
23	0xb806d084	-3.2142285e-05
24	0x3aaa9d4a	0.0013016846
25	0x39583e8a	0.00020622663
26	0xba5dedc3	-0.000846591
27	0x3a40dbb0	0.0007356955
28	0x39041411	0.00012595976
29	0xbb0d44c7	-0.0021555887
30	0x3a4b6276	0.0007758507
31	0xb7e8e07f	-2.7761094e-05
32	0xb99df7f9	-0.00030130128
33	0xba77fcbb	-0.0009459962
34	0x36e37f75	6.779965e-06
35	0xba2f968c	-0.00066981534
36	0xbaa352ad	-0.0012460552
37	0x3a408fd1	0.0007345649
38	0xbaa0acf0	-0.0012258571
39	0x3a096fa9	0.0005242774
40	0xb997edd9	-0.00028978175
41	0xba64202c	-0.0008702304
42	0x383e4aad	4.5369077e-05
43	0x36fbe9c1	7.5075955e-06
44	0xb9ee7a63	-0.00045486083
45	0x3a278417	0.00063902274
46	0xb9e63d2b	-0.00043914592
47	0x396a1a93	0.00022325879
48	0x3a982260	0.0011606924
49	0x2de0bf62	2.5550843e-11
50	0xaea8732a	-7.660213e-11
51	0xba982262	-0.0011606927
52	0xab262eef	-5.904018e-13
53	0x2b80677c	9.12367e-13
54	0x3a4badd3	0.0007769737
55	0x3b01ae2c	0.0019787652
56	0x3af36211	0.0018568655
57	0x3a62f057	0.0008657029
58	0x3ae708f8	0.0017626574
59	0x3b8a192a	0.0042144256
60	0xbb24bf3c	-0.0025138399
61	0xba982262	-0.0011606927
62	0xad81b698	-1.474669e-11
63	0x3ca77bc4	0.020444758
64	0x3bc36009	0.005962376
65	0xbc08b135	-0.008343031
66	0x3cac48dd	0.021030838
67	0x3ba220e1	0.004947767
68	0xbc33d0ff	-0.0109751215
69	0x3c3c0517	0.011475823
70	0x3b0fb695	0.0021928896
71	0xbb93c3d0	-0.0045094267
72	0xbb779dd5	-0.0037783284
73	0xbb9d4ee8	-0.004800666
74	0xbc09dd6b	-0.008414607
75	0xbc3d204a	-0.011543343
76	0xbb9c9a26	-0.004779118
77	0xbbd5b503	-0.0065218224
78	0xbc55ab46	-0.013041323
79	0x3b25eb11	0.0025317112
80	0xbb4fa85d	-0.0031686046
81	0x3c827e47	0.015929354
82	0x3ad4e946	0.0016243837
83	0xbc3815a3	-0.011235627
84	0x3c675e1f	0.014121561
85	0x3b5678c1	0.0032725784
86	0xbbe33e1f	-0.0069348956
87	0x3b9146f1	0.0044335057
88	0x3b8c17a5	0.0042752796
89	0xbc70dc15	-0.014700909
90	0xbb8ebc61	-0.0043559526
91	0x3bb660e4	0.0055657495
92	0xbc55af25	-0.013042246
93	0xbba9a644	-0.005177291
94	0x3be12000	0.00687027
95	0xbb6cbe35	-0.0036124114
96	0xbc501cb9	-0.0127021605
97	0x3b1a0af9	0.0023505075
98	0xbbb5ae80	-0.0055444837
99	0xb9e8cedb	-0.00044404608
100	0x3bc5a018	0.0060310476
101	0xbc34b80c	-0.011030208
102	0xbb99b851	-0.0046911617
103	0x3b5f4f5b	0.00340744
104	0xbc204a29	-0.009783306
105	0xbb36295b	-0.0027795646
106	0x3a701c78	0.00091595156
107	0xbb807a71	-0.003920846
108	0xba275993	-0.0006383892
109	0x397d979e	0.00024184442
110	0x3bad96c2	0.0052975127
111	0x3c29df20	0.010368139
112	0x2eba0f73	8.461045e-11
113	0xafc8cdef	-3.6526113e-10
114	0xbc29df23	-0.010368141
115	0xace3953e	-6.4682973e-12
116	0x2c24c5c5	2.3415586e-12
117	0x3a4b1c08	0.00077480124
118	0x3c33d2da	0.010975564
119	0x3c116071	0.008873091
120	0x3cace6e2	0.021106187
121	0xbbcb11bb	-0.006197182
122	0x3c538301	0.012909652
123	0x3ab93497	0.0014130053
124	0xbc29df22	-0.01036814
125	0xae10d04b	-3.292681e-11
126	0xb8fe5cec	-0.00012128972
127	0x363ef163	2.8452712e-06
128	0xb984a30b	-0.00025298478
129	0x38ac0b39	8.2036895e-05
130	0x38546e2b	5.064734e-05
131	0xb96b04be	-0.00022413113
132	0x383a5eff	4.4434328e-05
133	0x383c87da	4.4949214e-05
134	0xb8ca6a36	-9.651894e-05
135	0x38644390	5.442236e-05
136	0x3906f829	0.00012871683
137	0xb96f71b5	-0.00022835175
138	0xb7d2f6d8	-2.5148896e-05
139	0x36df010c	6.6460398e-06
140	0xb935fb7c	-0.0001735519
141	0xb8bb5adf	-8.933781e-05
142	0x385a82ad	5.209695e-05
143	0xb8ad2aff	-8.2572915e-05
144	0x37ebe652	2.8121434e-05
145	0xb8ea4b8a	-0.0001117206
146	0xb878a21a	-5.9278776e-05
147	0x38b5701d	8.651635e-05
148	0xb89f4952	-7.595368e-05
149	0x3741bb66	1.15473285e-05
150	0x38bbc0cc	8.952766e-05
151	0xb7e4bba2	-2.7267091e-05
152	0x389f2376	7.588316e-05
153	0xb7e0dd3c	-2.6805901e-05
154	0xb85ca061	-5.2601452e-05
155	0xb90b5ba0	-0.00013290206
156	0x390a48a5	0.00013187768
157	0xb8b1c4fc	-8.476709e-05
158	0xb88c73d9	-6.6972985e-05
159	0x376d1637	1.4131473e-05
160	0xb8d9b4a4	-0.00010381013
161	0x38dea8b4	0.00010617208
162	0xb958e43c	-0.00020684389
163	0x3798d5c9	1.8219363e-05
164	0x38932578	7.016485e-05
165	0x3755aa42	1.2735431e-05
166	0xb8aa299d	-8.113983e-05
167	0x3793a7a4	1.760183e-05
168	0xb700cdde	-7.677327e-06
169	0xb59dd632	-1.1759751e-06
170	0xb89de015	-7.528082e-05
171	0x37f3ecb7	2.9078086e-05
172	0xb6b7b4b2	-5.4748607e-06
173	0x387ddd19	6.0525814e-05
174	0xb70d03c1	-8.405129e-06
175	0xad13e5bf	-8.4069965e-12
176	0xadf220e0	-2.7526814e-11
177	0x370d0390	8.405084e-06
178	0xa9eda6c1	-1.05538415e-13
179	0x2a3dc3e3	1.6854534e-13
180	0x37ae8369	2.0803609e-05
181	0x37066843	8.011298e-06
182	0xb8ca407e	-9.644123e-05
183	0x379639fa	1.790839e-05
184	0x3843f59e	4.672037e-05
185	0xb81ef295	-3.7896058e-05
186	0x36da5b31	6.5075224e-06
187	0x370d0393	8.405087e-06
188	0xab83ee40	-9.374237e-13

exp_avg_sq f4 [3, 63]
0	0x38af929c	8.3719584e-05
1	0x383f8e0a	4.5670233e-05
2	0x39a2cab3	0.0003105007
3	0x38f3c0af	0.00011623033
4	0x37523403	1.2529085e-05
5	0x392f2685	0.0001670365
6	0x38980905	7.249605e-05
7	0x35c41a60	1.4610814e-06
8	0x376bab9a	1.4047046e-05
9	0x3819aafa	3.6637277e-05
10	0x3868dabd	5.5516826e-05
11	0x39962c42	0.00028643204
12	0x387a2e45	5.9647737e-05
13	0x37dc6796	2.627428e-05
14	0x393558b2	0.00017294547
15	0x38734215	5.799726e-05
16	0x3592d9a1	1.0941186e-06
17	0x37a966b2	2.0194191e-05
18	0x37b8bd4e	2.2022661e-05
19	0x37a19f9e	1.9267023e-05
20	0x3a575a9d	0.00082151016
21	0x380095a6	3.065695e-05
22	0x37aef32a	2.0855648e-05
23	0x39f225db	0.0004618604
24	0x37e2b958	2.7027607e-05
25	0x38ae4ca0	8.311239e-05
26	0x398e1f6a	0.00027107756
27	0x37b1899b	2.1164122e-05
28	0x37c7a488	2.3799264e-05
29	0x3a6fc6ad	0.00091467315
30	0x3822839e	3.8746388e-05
31	0x37be3fa2	2.2679396e-05
32	0x39ffae10	0.00048767077
33	0x38578c04	5.1390394e-05
34	0x38c57f5c	9.4174145e-05
35	0x3980de19	0.00024579538
36	0x37a116ea	1.9203366e-05
37	0x389a188f	7.3478666e-05
38	0x3a3be139	0.00071670447
39	0x35f1bf3f	1.8011559e-06
40	0x38d54879	0.000101701306
41	0x39818193	0.00024701338
42	0x3345207b	4.5897178e-08
43	0x3551a9ea	7.8105825e-07
44	0x3652c289	3.1405673e-06
45	0x34960be7	2.7948337e-07
46	0x342b1bcb	1.5935727e-07
47	0x37d42c72	2.5293066e-05
48	0x383602e2	4.3394866e-05
49	0x1ebd93e5	2.0072321e-20
50	0x1f602537	4.746463e-20
51	0x383602e2	4.3394866e-05
52	0x17e074a8	1.4505109e-24
53	0x187eb870	3.2921848e-24
54	0x37ddc287	2.6435837e-05
55	0x38cf21d4	9.87683e-05
56	0x38a6917b	7.942595e-05
57	0x389dab55	7.5182565e-05
58	0x387a81a8	5.9725397e-05
59	0x38b2c76a	8.524845e-05
60	0x35ffe7c8	1.9066438e-06
61	0x383602e0	4.339486e-05
62	0x1ae9dd13	9.6723706e-23
63	0x3a208e85	0.00061247527
64	0x391f73c6	0.0001520655
65	0x3a2b8327	0.00065426755
66	0x3a2ec886	0.00066674536
67	0x38406762	4.587265e-05
68	0x39c56f43	0.00037657665
69	0x39d1261d	0.00039891983
70	0x366ee8fa	3.5600374e-06
71	0x380e67ed	3.3952227e-05
72	0x39768d21	0.00023512963
73	0x399be177	0.00029731888
74	0x3a29283f	0.00064528355
75	0x3a11e1a8	0.00055649364
76	0x3915ce4f	0.00014286603
77	0x39c7b98c	0.0003809448
78	0x39e08e81	0.00042830783
79	0x3693d516	4.405748e-06
80	0x383cc25f	4.5003715e-05
81	0x38b59fe4	8.6605345e-05
82	0x3883cda1	6.284868e-05
83	0x3afc3a7c	0.0019243504
84	0x38dc82e9	0.000105148014
85	0x383f0a9f	4.554784e-05
86	0x3a935b61	0.0011242443
87	0x380ff854	3.432513e-05
88	0x3937d436	0.00017531295
89	0x3a3902bb	0.0007057597
90	0x39e35721	0.0004336173
91	0x388a92d2	6.6077e-05
92	0x3b0aa8e5	0.0021157798
93	0x3a03f0b9	0.0005033124
94	0x384cd7af	4.883826e-05
95	0x3a9ac9a0	0.0011809357
96	0x3a4e59e1	0.00078716694
97	0x3948421a	0.00019098111
98	0x3a327e94	0.0006809023
99	0x38870315	6.437876e-05
100	0x39190314	0.00014592364
101	0x3aea512f	0.0017876978
102	0x3953c045	0.00020194154
103	0x395f371b	0.00021287466
104	0x3a2f5e4f	0.0006689773
105	0x36d080ee	6.2138924e-06
106	0x35d15725	1.5597076e-06
107	0x37237624	9.743064e-06
108	0x34944c9d	2.7622892e-07
109	0x35b45715	1.3436389e-06
110	0x387321a0	5.796703e-05
111	0x3994e261	0.00028397425
112	0x1fc4e8e5	8.339452e-20
113	0x2073269a	2.0595673e-19
114	0x3994e264	0.00028397434
115	0x1975fc7b	1.2717191e-23
116	0x194f759e	1.0725402e-23
117	0x3a137848	0.0005625528
118	0x39a51e00	0.00031493604
119	0x3a423ea6	0.0007409848
120	0x3a114438	0.00055414764
121	0x39f50b86	0.00046738627
122	0x39c0363c	0.00036661502
123	0x37950bd7	1.7767697e-05
124	0x3994e263	0.0002839743
125	0x1c25e534	5.489016e-22
126	0x35cf9c3b	1.5468171e-06
127	0x366dbf2e	3.5427033e-06
128	0x380f942b	3.423185e-05
129	0x364d5882	3.0598899e-06
130	0x3556f905	8.0083583e-07
131	0x379bdef3	1.8581259e-05
132	0x365639ef	3.1922207e-06
133	0x33bf08d2	8.895735e-08
134	0x35d13141	1.5586048e-06
135	0x355f5513	8.3197773e-07
136	0x365fcd1f	3.3348986e-06
137	0x38097028	3.27678e-05
138	0x36101e6d	2.1475382e-06
139	0x3540c580	7.1812974e-07
140	0x37a12463	1.920964e-05
141	0x3628e0f2	2.5164886e-06
142	0x3398d04b	7.11594e-08
143	0x360a9803	2.0652085e-06
144	0x3581f0e5	9.681359e-07
145	0x360ab14f	2.066681e-06
146	0x38bc52b6	8.979945e-05
147	0x35b19c80	1.3233075e-06
148	0x363a0499	2.7718836e-06
149	0x38550b0a	5.079344e-05
150	0x35ea558b	1.7459255e-06
151	0x37355576	1.0808339e-05
152	0x37e089fe	2.6767138e-05
153	0x33d07d7d	9.708581e-08
154	0x363688ab	2.7199665e-06
155	0x38cf4fe5	9.885411e-05
156	0x355a7639	8.1383365e-07
157	0x36389afb	2.7508347e-06
158	0x3860bd33	5.3581967e-05
159	0x35d07f7a	1.5534308e-06
160	0x3747f034	1.1917251e-05
161	0x37d6f5e3	2.5625288e-05
162	0x358db30a	1.0557426e-06
163	0x372145e2	9.612619e-06
164	0x389fad08	7.6139404e-05
165	0x33fabde8	1.1676076e-07
166	0x375af16e	1.3050025e-05
167	0x37cf3e1d	2.4705247e-05
168	0x319d02de	4.5696273e-09
169	0x33cb7ed5	9.475995e-08
170	0x349a8e1f	2.8788142e-07
171	0x31c5385d	5.7398624e-09
172	0x30f011b7	1.7467333e-09
173	0x36370646	2.7272777e-06
174	0x35f6899e	1.836848e-06
175	0x1c14ee72	4.9277276e-22
176	0x1ce2e5e9	1.5014856e-21
177	0x35f689a4	1.8368487e-06
178	0x15044d72	2.671828e-26
179	0x15abd0d4	6.939582e-26
180	0x3410082c	1.3414018e-07
181	0x34072575	1.2586482e-07
182	0x3672c49b	3.617525e-06
183	0x339d4cf8	7.324883e-08
184	0x34d6dd46	4.0021604e-07
185	0x353799b3	6.8396474e-07
186	0x317e42b7	3.6999788e-09
187	0x35f689a4	1.8368487e-06
188	0x183f7200	2.4743727e-24

exp_avg f4 [3]
0	0xbc3e2afc	-0.011606928
1	0xbdd456eb	-0.10368141
2	0x38b044a8	8.405122e-05

exp_avg_sq f4 [3]
0	0x3b8e3237	0.004339482
1	0x3ce8a1a7	0.028397394
2	0x39409ba0	0.00018368522
