artifacts/poses_to_location/20250818181454/best_model.pt (torch, 376885 bytes, 48 tensors)

embedding.embeddings.bex_20230623_denoised.poses.weight f4 [64, 63]
-0.11776826 -0.24069192 0.110234566 -0.26492268 -0.068047136 -0.04849259 0.1289094 0.18477294
0.020166332 0.040735994 -0.075931 0.060625575 -0.21355338 -0.053753693 0.15787832 -0.065422885
-0.057046697 -0.117351316 -0.033078764 0.041828837 0.091154605 -0.1401628 -0.021805968 -0.098567724
0.236756 -0.21276696 0.027860535 -0.02646391 0.11693434 0.024195867 0.01942847 -0.1495496
-0.08443589 -0.20963524 -0.022611676 -0.016335431 0.21510993 0.060592253 0.019342376 0.019890603
-0.2724611 -0.013320307 0.32793504 -0.30933785 0.16325572 0.34658578 -0.1632007 0.43599507
-0.08383291 1.3494289e-06 1.3946069e-06 -0.045559336 -6.226042e-10 2.501539e-10 0.15707383 0.10056722
0.086157985 0.16092063 0.07005293 0.09484751 -0.24958716 0.083217554 3.683566e-08 0.028354792
0.22922216 -0.08385488 -0.15576546 -0.29315925 0.10071446 -0.21529643 0.13191621 -0.5890449
0.24653377 -0.08526313 -0.17457911 -0.16723028 0.29750383 -0.27037686 -0.05263887 0.34950343
-0.07326865 0.10658744 -0.0025845435 -0.055166326 0.19977215 0.45274493 0.2270464 -0.1809145
0.25368658 -0.3345568 0.06843866 0.08497747 -0.10021233 0.012638268 0.057660047 -0.13462767
-0.22049676 0.034295853 0.19822264 -0.10820874 0.11064946 0.021599129 -0.17450173 0.09053419
0.16262423 -0.391158 0.3416667 -0.12750234 -0.070652574 0.06106754 -0.20689823 -0.008877605
7.6097245e-07 4.318784e-07 0.049281426 8.4533536e-10 -6.6516233e-09 -0.112836264 -0.09508164 0.0026773135
0.03750635 -0.15562735 0.011231852 0.23981339 0.062805556 3.287748e-08 -0.049430642 0.114209965
-0.016557615 -0.03200574 -0.31411776 0.043761086 0.0208064 0.027617129 -0.02252517 -0.08253981
-0.003648319 -0.039922174 -0.07423492 0.16404712 -0.023433946 0.23911414 -0.26009193 0.3239768
-0.105684996 -0.24504706 0.047748867 0.0799294 0.13661288 0.10669169 -0.205103 0.11569223
-0.13542557 -0.07379959 -0.07814437 -0.07381608 -0.018154046 0.010246208 0.05603162 0.25641823
0.10737105 -0.16947189 0.09996905 -0.08586631 -0.094566874 0.06191365 0.11587308 0.07669056
0.034079716 0.28275913 0.13033229 0.41073796 0.036035143 -0.17625415 -0.007576527 7.5214757e-07
-2.5342447e-06 0.016850013 2.0197682e-08 -7.517594e-09 -0.16071925 -0.039687775 -0.42511177 -0.03947795
-0.031542953 -0.30229002 0.37956142 -0.06869112 7.0344676e-08 0.042857476 -0.15139309 -0.023197241
0.1519668 0.4380249 -0.10786317 -0.3412934 -0.2637221 0.053537644 -0.07688922 0.17359821
-0.11942278 0.27829334 -0.11196084 0.09435162 -0.1138744 0.22107081 -0.25489363 0.0037440045
0.29536825 0.12315204 -0.014112958 -0.30719498 -0.104021795 0.010201411 0.029610058 -0.12111211
0.04463672 -0.12308829 0.12933595 -0.09302982 0.27731866 0.10519478 0.05848835 0.0067633763
0.2877898 -0.08047446 -0.047251582 -0.08896499 -0.05825433 -0.12997442 -0.11800861 -0.3288933
0.034360215 -0.3441299 -0.7172476 0.26268148 -0.29512864 -0.054897558 -5.4349757e-06 3.813259e-07
-0.012035137 -1.8525402e-08 2.0370932e-08 -0.008400789 0.122824855 0.2644716 -0.17680153 0.027917523
0.048198212 -0.10655121 0.057911742 -1.3100521e-07 -0.11777984 -0.13138592 0.058575142 -0.044338033
00000000: 7c30 f1bd f177 76be a9c2 e13d f2a3 87be
00000010: 4c5c 8bbd 2ba0 46bd d300 043e 1e35 3d3e
00000020: dd33 a53c c9da 263d b681 9bbd 8652 783d
00000030: bdad 5abe d52c 5cbd dbaa 213e 6ffc 85bd
00000040: cca9 69bd e355 f0bd 997d 07bd b754 2b3d
00000050: 44af ba3d d686 0fbe 6ea2 b2bc e0dd c9bd
00000060: 2a70 723e 95df 59be c73b e43c d7ca d8bc
00000070: 457b ef3d 6936 c63c 7428 9f3c 8823 19be
00000080: b9ec acbd 9faa 56be 1f3c b9bc e2d1 85bc
00000090: c745 5c3e 952f 783d e773 9e3c 9ef1 a23c
000000a0: 0580 8bbe 6b3d 5abc 1ae7 a73e 8861 9ebe
000000b0: 822c 273e b173 b13e 161e 27be bf3a df3e
000000c0: 97b0 abbd 061e b535 542e bb35 6d9c 3abd
000000d0: e023 2bb0 0886 892f f6d7 203e 30f6 cd3d
000000e0: 9973 b03d 61c8 243e e977 8f3d 693f c23d
000000f0: c793 7fbe f76d aa3d 3d35 1e33 4f48 e83c
00000100: 37b9 6a3e 1bbc abbd fb80 1fbe f818 96be
00000110: 6243 ce3d ab76 5cbe 0b15 073e a6cb 16bf
00000120: 5973 7c3e 709e aebd dec4 32be 6a3e 2bbe
00000130: 6c52 983e d66e 8abe db9b 57bd 1df2 b23e
00000140: e00d 96bd 844a da3d 7261 29bb 16f6 61bd
00000150: 1291 4c3e 2fce e73e da7e 683e a741 39be
00000160: 35e3 813e 074b abbe 9129 8c3d ab08 ae3d
00000170: 1f3c cdbd bd10 4f3c f12c 6c3d d6db 09be
00000180: e7c9 61be cf79 0c3d e0fa 4a3e 8b9c ddbd
00000190: 2f9c e23d a8f0 b03c 95b0 32be fd69 b93d
000001a0: f786 263e dd45 c8be f0ee ae3e f98f 02be
000001b0: 4cb2 90bd f521 7a3d 21dd 53be 6073 11bc
000001c0: a145 4c35 eadc e734 52db 493d 305d 6830
000001d0: 4c8c e4b1 b316 e7bd 2aba c2bd de75 2f3b
000001e0: 42a0 193d c75c 1fbe cd05 383c a491 753e
000001f0: 33a0 803d 2c35 0d33 c977 4abd eae6 e93d
00000200: d6a3 87bc 7318 03bd 0bd4 a0be d33e 333d
00000210: 2f72 aa3c 513d e23c b586 b8bc a20a a9bd
00000220: a318 6fbb 6f85 23bd 7a08 98bd f8fb 273e
00000230: 8cf8 bfbc 56da 743e c52a 85be 4ae0 a53e
00000240: 6071 d8bd 9eed 7abe 5194 433d 06b2 a33d
00000250: 3fe4 0b3e 2c81 da3d 8506 52be 0cf0 ec3d
00000260: 00ad 0abe 3d24 97bd 280a a0bd e32c 97bd
00000270: cbb7 94bc b6df 273c 6981 653d 4049 833e
00000280: 5ae5 db3d 0a8a 2dbe 93bc cc3d adda afbd
00000290: 47ac c1bd 2b99 7d3d de4e ed3d f10f 9d3d
000002a0: 2c97 0b3d cec5 903e d475 053e 3f4c d23e
000002b0: 9699 133d f87b 34be 8444 f8bb 30e7 4935
000002c0: fe11 2ab6 0a09 8a3c 2c7f ad32 ba26 01b2
000002d0: 9693 24be a68f 22bd 40a8 d9be a2b3 21bd
000002e0: 2f33 01bd c2c5 9abe e055 c23e eead 8cbd
000002f0: 6510 9733 528b 2f3d ca06 1bbe 2408 bebc
00000300: 2f9d 1b3e cd44 e03e 5ee7 dcbd 02be aebe
00000310: 9506 87be 4a4a 5b3d 1878 9dbd bbc3 313e
00000320: ee93 f4bd 777c 8e3e ba4b e5bd 6c3b c13d
00000330: fb36 e9bd 6360 623e 6b81 82be f95d 753b
00000340: 823a 973e 2337 fc3d 093a 67bc a948 9dbe
00000350: 6109 d5bd d223 273c cb90 f23c a009 f8bd
00000360: fed4 363d b715 fcbd a570 043e 6b86 bebd
00000370: b6fc 8d3e 5c70 d73d 7b91 6f3d 509f dd3b
00000380: 2f59 933e cbcf a4bd e08a 41bd 4733 b6bd
00000390: 189c 6ebd 0418 05be 80ae f1bd b464 a8be
000003a0: 4cbd 0c3d cb31 b0be 8a9d 37bf 307e 863e
000003b0: 1a1b 97be 43dc 60bd 165e b6b6 08b9 cc34
000003c0: 062f 45bc ca21 9fb2 27fc ae32 77a3 09bc
000003d0: 998b fb3d d268 873e 760b 35be 4ab3 e43c
000003e0: 7d6b 453d 8537 dabd dd34 6d3d 70aa 0cb4
000003f0: 8f36 f1bd 088a 06be 7dec 6f3d cc9b 35bd

embedding.embeddings.bex_20230623_denoised.poses.bias f4 [64]
-0.06373157 -0.026239263 -0.012836597 -0.030802777 -0.16577356 -0.090618186 -0.05260179 0.02199654
0.115032345 -0.09257387 0.02669653 0.0552097 -0.13942148 -0.053801626 -0.0033795084 0.015325923
-0.15533975 0.056135844 -0.0067430283 -0.029661968 -0.004102313 -0.0077413837 -0.15108214 0.09947656
0.036087673 -0.00074119976 0.028714975 0.109895445 0.11807884 -0.07328018 0.0036909017 -0.0947023
-0.17323112 -0.015148616 -0.025456736 0.16001645 0.06380312 -0.09104466 -0.14076127 -0.012140201
-0.07693312 -0.008057674 0.09085859 0.053657014 0.07820259 -0.10033281 -0.12767683 -0.13829134
-0.054535102 0.08944958 0.093436435 -0.12624237 -0.059021074 -0.06864778 0.0869754 -0.0053706253
-0.1666223 -0.08107122 0.049037457 -0.023783306 0.15846099 0.14155133 -0.18991221 0.020046376
00000000: b385 82bd b9f3 d6bc 9750 52bc 1b56 fcbc
00000010: 8bc0 29be 0796 b9bd f974 57bd 1632 b43c
00000020: 1496 eb3d 5f97 bdbd aeb2 da3c 9123 623d
00000030: 81c4 0ebe 185f 5cbd be7a 5dbb 9519 7b3c
00000040: 6211 1fbe b3ee 653d 9ff4 dcbb a8fd f2bc
00000050: b26c 86bb 6fab fdbb 47b5 1abe 5eba cb3d
00000060: abd0 133d 134d 42ba ab3b eb3c dd10 e13d
00000070: 52d3 f13d eb13 96bd 0ee3 713b 48f3 c1bd
00000080: 8063 31be e731 78bc a58a d0bc 5adb 233e
00000090: 36ab 823d 9f75 babd b923 10be b2e7 46bc
000000a0: 1d8f 9dbd 5604 04bc 1214 ba3d 75c7 5b3d
000000b0: ae28 a03d 4a7b cdbd b7bd 02be 3f9c 0dbe
000000c0: 3360 5fbd 5731 b73d 9a5b bf3d ae45 01be
000000d0: 15c0 71bd 3597 8cbd 2920 b23d 12fc afbb
000000e0: 099f 2abe ab08 a6bd 80db 483d 35d5 c2bc
000000f0: 9943 223e d5f2 103e 5978 42be 4c38 a43c

embedding.embeddings.ken_20230614_denoised.poses.weight f4 [64, 63]
-0.12369347 -0.15339698 -0.026330786 0.28743768 0.37705815 -0.1424519 0.14641474 -0.06309309
-0.14820997 -0.12631683 0.3775238 -0.18783921 0.0021505875 -0.47973305 0.2582267 -0.019096619
0.18628673 0.1886841 0.090197876 0.10098841 0.00932785 -0.12284694 -0.009425581 -0.087960824
-0.1611367 0.06436849 0.020126529 -0.011347022 0.041219283 -0.03712622 0.12374862 0.05918064
0.09857802 -0.027941022 0.17351413 0.025679085 -0.0024070472 0.15916535 0.08958941 0.13947423
0.010928553 -0.111669146 -0.0069672596 0.059467033 -0.14357272 0.38599205 -0.14952843 -0.14919128
-0.08503168 -6.8159893e-06 -4.558795e-06 0.13740897 8.363692e-10 -4.0799428e-08 0.03924068 0.029317051
-0.18624239 0.0901648 -0.522182 0.46198466 -0.1592144 0.070582755 1.2682042e-07 -0.15086086
-0.2953649 0.20408069 0.021227457 0.28483227 0.20559505 -0.031041503 -0.35276043 0.4486753
-0.111257896 -0.21337907 -0.13812767 0.04104469 -0.067174606 0.2314575 -0.06884533 -0.11180564
0.0953782 -0.15561706 0.25925386 -0.052947376 0.30802312 0.073387615 -0.30129084 -0.13782483
-0.46093142 0.16929278 -0.2507203 0.15742429 0.033105005 -0.3272411 -0.07643396 -0.17092891
0.014494944 -0.19179279 -0.058565773 0.094198994 -0.18294403 -0.17849551 -0.04214116 -0.25132206
-0.0056730593 0.022832943 -0.19029014 0.30348265 0.29388836 -0.32349333 -0.2594469 0.08106334
-1.0296552e-06 -2.266274e-06 -0.05320854 4.289282e-09 -1.1425261e-10 0.043901183 0.15320568 -0.21999839
-0.19995134 0.11690912 -0.5830482 0.29730785 -0.02216718 -1.1673984e-07 0.106521755 0.04047728
-0.09008046 0.03070656 -0.20495322 0.118996456 0.12843451 -0.10700646 0.14155619 -0.06558995
0.02463388 0.035106514 -0.012615776 -0.030510334 -0.06259084 0.22885406 -0.38766918 0.115452595
-0.013824508 -0.026234196 -0.031420097 -0.08164716 0.035211604 -0.10861553 0.004913552 -0.09163504
0.041960075 0.070089854 -0.10404889 -0.11671281 -0.17405653 -0.10389598 0.044248544 -0.045232303
0.17735209 0.04752619 0.15091033 0.0083986875 0.104242735 0.040757064 0.16614816 0.054209054
0.37356877 -0.06553075 0.7127507 0.070964776 -0.46237007 -0.0015601227 -0.04350188 1.2262931e-06
-9.921743e-07 0.079759434 -1.9540757e-08 1.9475303e-08 0.035441708 0.109152675 -0.38322127 0.059091892
0.039712954 -0.74071896 -0.15877046 -0.061616488 7.0430374e-08 0.15274976 0.020446118 -0.09202739
0.01889385 -0.2006867 0.007246358 -0.005235858 0.25000188 -0.06574765 0.13104315 -0.24630898
0.075059175 -0.044490866 0.374551 -0.17720379 -0.2865405 0.094231546 -0.23243526 0.027960284
-0.11895271 -0.09129115 0.15655878 -0.06585683 0.19554488 0.17309205 -0.05616411 -0.2404689
-0.06721939 0.08363528 -0.047423054 0.07006952 0.034161232 0.04908417 -0.02918419 -0.29565355
0.09842137 -0.09283699 -0.07642958 0.04470156 -0.09629654 -0.026086308 0.044034943 -0.33713478
0.08502148 -0.46150756 -0.60591453 0.5625022 0.13425387 0.0866662 3.464993e-08 3.4345671e-06
-0.10976615 -1.4090659e-08 3.4750443e-08 -0.17813191 -0.15526137 0.42327824 0.030055277 0.20778143
0.25083515 0.21476646 -0.017554946 2.9321154e-07 0.01139661 -0.09737793 -0.08563066 0.055503406
00000000: 0153 fdbd 1914 1dbe a9b3 d7bc 082b 933e
00000010: c40d c13e e9de 11be bfed 153e f336 81bd
00000020: 5bc4 17be 3359 01be cd4a c13e ec58 40be
00000030: dff0 0c3b 929f f5be 4a36 843e 8370 9cbc
00000040: f3c1 3e3e 6836 413e aab9 b83d 03d3 ce3d
00000050: d7d3 183c 2d97 fbbd c16d 1abc ce24 b4bd
00000060: 0501 25be a0d3 833d 64e0 a43c dce8 39bc
00000070: 8dd5 283d aa11 18bd eb6f fd3d 6667 723d
00000080: 46e3 c93d 92e4 e4bc b0ad 313e f25c d23c
00000090: 8dbf 1dbb 3efc 223e a77a b73d 55d2 0e3e
000000a0: ac0d 333c cbb2 e4bd 9c4d e4bb b493 733d
000000b0: ba04 13be c0a0 c53e fb1d 19be 99c5 18be
000000c0: 1725 aebd e7b4 e4b6 c0f7 98b6 f0b4 0c3e
000000d0: 40e6 6530 723b 2fb3 d6ba 203d 502a f03c
000000e0: 53b6 3ebe 53a8 b83d b8ad 05bf 4189 ec3e
000000f0: 1a09 23be b18d 903d 222c 0834 457b 1abe
00000100: 113a 97be 87fa 503e 34e5 ad3c 89d5 913e
00000110: 8287 523e c04a febc 049d b4be c5b8 e53e
00000120: 2edb e3bd 0b80 5abe 5771 0dbe 7a1e 283d
00000130: d792 89bd 3203 6d3e c8fe 8cbd 5bfa e4bd
00000140: a555 c33d 145a 1fbe ecbc 843e 59df 58bd
00000150: 35b5 9d3e 3f4c 963d cb42 9abe f421 0dbe
00000160: 34ff ebbe 165b 2d3e 695e 80be d533 213e
00000170: 1d99 073d 258c a7be 6889 9cbd fd07 2fbe
00000180: 347c 6d3c 5465 44be aae2 6fbd 67eb c03d
00000190: ae55 3bbe 87c7 36be 369c 2cbd 49ad 80be
000001a0: 12e5 b9bb 270c bb3c 6bdb 42be 1462 9b3e
000001b0: 8978 963e eba0 a5be 39d6 84be 8904 a63d
000001c0: af32 8ab5 4a16 18b6 33f1 59bd ec60 9331
000001d0: 803e fbae bad1 333d f3e1 1c3e 4247 61be
000001e0: 0bc0 4cbe 0c6e ef3d a642 15bf bc38 983e
000001f0: f297 b5bc 68b2 fab3 1428 da3d 81cb 253d
00000200: 1b7c b8bd 538c fb3c 42df 51be 6ab4 f33d
00000210: 5684 033e 3426 dbbd 1bf4 103e 0654 86bd
00000220: fecc c93c d9cb 0f3d 66b2 4ebc cff0 f9bc
00000230: a02f 80bd b858 6a3e 937c c6be 6972 ec3d
00000240: 3080 62bc 19e9 d6bc 5cb2 00bd a036 a7bd
00000250: 0b3a 103d d271 debd dd01 a13b 27ab bbbd
00000260: 54de 2b3d 458b 8f3d 9617 d5bd 2007 efbd
00000270: e03b 32be 6ac7 d4bd f63d 353d 8245 39bd
00000280: c99b 353e d2aa 423d 3d88 1a3e a69a 093c
00000290: 377d d53d e1f0 263d be22 2a3e 500a 5e3d
000002a0: 6844 bf3e fc34 86bd d476 363f fb55 913d
000002b0: c5bb ecbe 087d ccba 072f 32bd 1c97 a435
000002c0: d92a 85b5 ea58 a33d 94da a7b2 a54a a732
000002d0: 532b 113d 708b df3d 9435 c4be 570a 723d
000002e0: 0daa 223d c29f 3dbf b994 22be 9261 7cbd
000002f0: 823f 9733 6f6a 1c3e 9e7e a73c db78 bcbd
00000300: 46c7 9a3c d080 4dbe db72 ed3b 8f91 abbb
00000310: 3f00 803e b4a6 86bd 2d30 063e 6c38 7cbe
00000320: a0b8 993d 0e3c 36bd 26c5 bf3e e974 35be
00000330: 70b5 92be 78fc c03d 8203 6ebe f70c e53c
00000340: 7a9d f3bd dbf6 babd f250 203e f2df 86bd
00000350: eb3c 483e 0b3f 313e 560c 66bd 7b3d 76be
00000360: 52aa 89bd f948 ab3d ad3e 42bd 9c80 8f3d
00000370: a6ec 0b3d 7c0c 493d af13 efbc e75f 97be
00000380: 2591 c93d 5221 bebd 1d87 9cbd fc18 373d
00000390: 1f37 c5bd f4b2 d5bc fc5d 343d ee9c acbe
000003a0: be1f ae3d b84a ecbe 371d 1bbf 2500 103f
000003b0: d979 093e 0c7e b13d 00d2 1433 6a7d 6636
000003c0: 13cd e0bd 6013 72b2 8440 1533 3668 36be
000003d0: d6fc 1ebe edb7 d83e 7c36 f63c a8c4 543e
000003e0: 776d 803e bdeb 5b3e 64cf 8fbc b06a 9d34
000003f0: d9b8 3a3c 156e c7bd 215f afbd 8a57 633d

embedding.embeddings.ken_20230614_denoised.poses.bias f4 [64]
0.07916171 -0.18846884 0.112301074 -0.17778625 0.16028221 -0.027393864 0.110882394 -0.027102793
0.024762774 -0.19423178 -0.0008937627 -0.06200902 0.13197206 0.101593666 -0.13433896 -0.035538238
0.09230214 0.13987176 0.04840802 -0.11160543 -0.205938 -0.15822142 -0.03653026 0.1977334
-0.02238361 0.043736994 -0.014086248 -0.012986227 -0.08618335 -0.011884167 0.19775407 -0.0880433
-0.0038393873 -0.115708925 -0.055342805 -0.16600473 -0.053275146 -0.07131255 -0.0039882767 -0.12799175
0.075530164 0.103241764 0.09766832 0.01883188 0.033453897 0.103008516 0.04088116 0.12882061
0.038762074 0.06442972 0.026720807 -0.12246887 0.015200883 0.056326825 -0.03370588 0.00061317405
-0.014541289 0.109221384 0.015999299 0.2024336 -0.05471759 -0.048059292 0.053411603 0.044415984
00000000: 891f a23d fafd 40be 1bfe e53d 990d 36be
00000010: 0521 243e 1969 e0bc 4f16 e33d ad06 debc
00000020: 4ddb ca3c b2e4 46be 664b 6aba 2cfd 7dbd
00000030: af23 073e 5710 d03d 2790 09be 8b90 11bd
00000040: e808 bd3d 8b3a 0f3e 7d47 463d 6391 e4bd
00000050: 69e1 52be cc04 22be c1a0 15bd a07a 4a3e
00000060: d55d b7bc 9025 333d 02ca 66bc 2fc4 54bc
00000070: e580 b0bd cfb5 42bc 0b80 4a3e 0c50 b4bd
00000080: 3b9e 7bbb cdf8 ecbd 23af 62bd 25fd 29be
00000090: 0a37 5abd 500c 92bd 17b0 82bb 4510 03be
000000a0: 8faf 9a3d 6b70 d33d 5406 c83d 5145 9a3c
000000b0: f406 093d 21f6 d23d 0173 273d 8de9 033e
000000c0: fbc4 1e3d bbf3 833d 98e5 da3c f5d0 fabd
000000d0: 200d 793c f5b6 663d 2d0f 0abd 6abd 203a
000000e0: 963e 6ebc 76af df3d f610 833c c14a 4f3e
000000f0: 8d1f 60bd d2d9 44bd 20c6 5a3d 89ed 353d

embedding.embeddings.ken_20230618_denoised.poses.weight f4 [64, 63]
-0.13005204 0.108053885 0.0012842198 0.17619666 0.11311808 -0.23385142 0.22431393 0.028294865
-0.1805246 -0.12914944 0.38720024 -0.13102105 0.0038302958 -0.34227848 0.122045465 0.046946384
0.092304915 0.10794919 -0.0004581895 0.088305086 0.057236686 -0.11109661 0.16264993 -0.03629305
-0.07029035 0.039183218 0.10524469 0.17237496 0.012016167 -0.08323614 0.123852305 -0.07316191
0.12540556 0.06304902 0.1450319 -0.05603262 0.049839444 0.39852858 0.037573636 0.21053946
0.057850715 0.0037933202 0.0521847 0.14655632 0.14471397 0.17568076 0.07097038 -0.16198051
-0.065054886 -2.944227e-07 1.207383e-06 0.03205369 -1.959786e-09 1.549062e-08 0.10437704 -0.04036327
-0.32043844 0.23542394 -0.3182468 0.34563142 -0.27630103 0.030645994 -1.4051931e-08 0.07469886
-0.07399157 -0.025125278 -0.0036009632 0.10575716 0.24518393 -0.016408565 -0.13036703 0.14963207
-0.017223852 -0.27354905 -0.022366261 0.025943942 0.109486245 0.20075901 0.10254729 -0.108394876
0.10206193 0.048830807 0.0907104 -0.058381706 0.11519823 0.05762034 -0.10295219 0.030054258
-0.06124569 -0.062711336 -0.28071398 0.07649732 -0.05137271 -0.34148535 0.034670394 -0.16181006
-0.05688844 0.06527452 -0.12173674 0.3251224 -0.17032203 0.037931554 -0.10894782 0.014025957
-0.18269096 0.15975374 -0.18975554 0.091632396 0.082126476 -0.121282436 -0.036309004 0.008232195
2.8995305e-07 1.443726e-06 -0.061749544 1.4700332e-08 8.55383e-09 -0.08692895 0.046474326 0.029526107
-0.08451809 0.23060215 -0.2663882 0.20147932 -0.04664365 2.7025358e-08 0.055329625 0.08321267
-0.08181039 -0.21041381 -0.15118764 0.15656774 0.07620705 -0.21143389 0.15863976 -0.094588324
-0.075344145 0.106666125 0.16450685 0.12483665 -0.08454211 0.40411443 -0.41194206 -0.059151813
-0.01106016 -0.0046642176 -0.047081195 -0.08153464 -0.124812424 0.016135441 0.021609705 0.17392772
0.12778655 0.14556113 0.090472504 -0.034397583 -0.10848316 0.020719865 -0.07944195 -0.027131287
0.18890508 -0.01152831 0.18335684 -0.11780203 -0.03447468 0.06484602 0.11955027 0.0033014626
0.21610148 -0.15577143 0.61310804 0.15336567 -0.4682372 -0.1251192 -0.040753532 -3.1472496e-08
7.2973864e-07 0.09292701 -4.1213163e-08 -4.008699e-09 0.059339665 0.03508015 -0.3462064 -0.047552377
0.20368338 -0.6439768 -0.022843549 -0.02922246 -3.3786513e-08 0.110175975 0.042024236 0.10875596
0.040990226 -0.07151785 -0.10110189 -0.2501722 0.15188126 0.024131602 0.13171592 -0.28727013
0.06969441 -0.08844741 0.24308686 -0.13267611 -0.38618293 0.19447324 -0.19628282 0.031271227
0.027210224 0.06623842 0.13537562 -0.038487755 0.08732587 0.011422493 -0.0009780742 -0.14440954
-0.00458604 0.008808066 0.113022014 0.085187465 0.13020909 -0.07247087 0.07358545 -0.18825863
0.06434655 -0.13361701 -0.06265246 -0.16752206 -0.1258122 0.03460201 0.05683203 -0.37538716
0.110032916 -0.6358927 -0.4323805 0.3673055 0.14295915 0.06272841 -2.1926369e-06 -3.4129246e-07
-0.033719983 -1.496343e-08 1.6468137e-08 -0.024307946 -0.10996779 0.4053909 0.032715656 0.15314627
0.1408538 0.17100869 0.03831608 -1.480889e-08 0.08050033 -0.0783861 -0.056756806 -0.062762514
00000000: 5d2c 05be 5b4b dd3d 4453 a83a e66c 343e
00000010: 74aa e73d bf76 6fbe 8db2 653e a2ca e73c
00000020: 71db 38be c03f 04be 1c3f c63e 622a 06be
00000030: b305 7b3b 203f afbe f9f2 f93d da4a 403d
00000040: 5c0a bd3d 7714 dd3d 2739 f0b9 4cd9 b43d
00000050: 0471 6a3d 9f86 e3bd b48d 263e 05a8 14bd
00000060: 63f4 8fbd 957e 203d 878a d73d 1083 303e
00000070: 75df 443c b677 aabd 47a6 fd3d e9d5 95bd
00000080: 516a 003e d81f 813d 3e83 143e 7682 65bd
00000090: 7224 4c3d f00b cc3e d0e6 193d a897 573e
000000a0: dff4 6c3d 5a99 783b a0bf 553d dc12 163e
000000b0: e62f 143e a8e5 333e eb58 913d 38de 25be
000000c0: 7f3b 85bd 2611 9eb4 5d0d a235 bb4a 033d
000000d0: ebac 06b1 3c10 8532 a1c3 d53d f553 25bd
000000e0: 8210 a4be f912 713e 3ff1 a2be 9af6 b03e
000000f0: 5477 8dbe 4f0d fb3c 0c69 71b2 b7fb 983d
00000100: e488 97bd 87d3 cdbc 23fe 6bbb 3697 d83d
00000110: 7f11 7b3e 416b 86bc ef7e 05be 2639 193e
00000120: 0919 8dbc 9f0e 8cbe 7339 b7bc 6488 d43c
00000130: 533a e03d c593 4d3e 5004 d23d 22fe ddbd
00000140: d805 d13d d002 483d 60c6 b93d a821 6fbd
00000150: 0ded eb3d 4e03 6c3d 99d8 d2bd 5934 f63c
00000160: c3dc 7abd cd6e 80bd beb9 8fbe a0aa 9c3d
00000170: 316c 52bd 2bd7 aebe 8b02 0e3d 89b1 25be
00000180: da03 69bd a6ae 853d 1d51 f9bd 7176 a63e
00000190: e668 2ebe 1e5e 1b3d 0920 dfbd 21cd 653c
000001a0: 5713 3bbe 7c96 233e 474f 42be c4a9 bb3d
000001b0: ed31 a83d ed62 f8bd c0b8 14bd 54e0 063c
000001c0: d8aa 9b34 0cc6 c135 17ed 7cbd be8c 7c32
000001d0: 24f4 1232 ce07 b2bd dd5b 3e3d bce0 f13c
000001e0: d217 adbd f822 6c3e 0964 88be 9850 4e3e
000001f0: 690d 3fbd 6425 e832 51a1 623d 686b aa3d
00000200: 358c a7bd b876 57be efd0 1abe 4b53 203e
00000210: 7112 9c3d 2082 58be 7672 223e 86b7 c1bd
00000220: 084e 9abd c573 da3d 7c74 283e 5caa ff3d
00000230: 6a24 adbd 16e8 ce3e 12ea d2be 2c49 72bd
00000240: ac35 35bc 4bd6 98bb 36d8 40bd a2fb a6bd
00000250: a89d ffbd 792e 843c d606 b13c 1c1a 323e
00000260: 7ada 023e fa0d 153e a649 b93d 7be4 0cbd
00000270: 6b2c debd b5bc a93c 76b2 a2bd 6f42 debc
00000280: 5570 413e 3de1 3cbc e5c1 3b3e 3142 f1bd
00000290: 5235 0dbd fdcd 843d c6d6 f43d 5a5d 583b
000002a0: b549 5d3e 8c82 1fbe a6f4 1c3f e40b 1d3e
000002b0: c9bc efbe 3f1f 00be 2ded 26bd 602c 07b3
000002c0: 42e3 4335 8450 be3d 5a02 31b3 e4bc 89b1
000002d0: 260e 733d 34b0 0f3d f741 b1be 48c6 42bd
000002e0: 6092 503e aadb 24bf 6522 bbbc f163 efbc
000002f0: aa1c 11b3 f1a3 e13d 9b21 2c3d 72bb de3d
00000300: 5ee5 273d f377 92bd 820e cfbd 9216 80be
00000310: c386 1b3e a3af c53c 8ae0 063e 1215 93be
00000320: f1bb 8e3d ea23 b5bd c3eb 783e 3fdc 07be
00000330: c5b9 c5be fe23 473e 5dfe 48be 4216 003d
00000340: fae7 de3c 02a8 873d e89f 0a3e 56a5 1dbd
00000350: e8d7 b23d 6825 3b3c b932 80ba 18e0 13be
00000360: 7e46 96bb b54f 103c 1678 e73d c476 ae3d
00000370: 8855 053e 9c6b 94bd f8b3 963d dfc6 40be
00000380: 20c8 833d e6d2 08be ef4f 80bd e78a 2bbe
00000390: ead4 00be d6ba 0d3d b4c8 683d bf32 c0be
000003a0: f058 e13d ddc9 22bf fa60 ddbe 770f bc3e
000003b0: e263 123e c177 803d 3725 13b6 e13a b7b4
000003c0: f71d 0abd ee88 80b2 d175 8d32 7521 c7bc
000003d0: cb36 e1bd 658f cf3e da00 063d 60d2 1c3e
000003e0: fb3b 103e e71c 2f3e 52f1 1c3d 306a 7eb2
000003f0: 5bdd a43d e488 a0bd d379 68bd a289 80bd

embedding.embeddings.ken_20230618_denoised.poses.bias f4 [64]
0.12757125 -0.061512053 0.06668116 -0.03922366 -0.10231366 -0.12858622 0.009903562 0.034433886
0.1794241 -0.15106428 -0.022831665 -0.0911785 0.12657315 0.039498344 -0.09616503 -0.010517711
0.06509662 -0.0121519575 0.14953126 -0.12430909 0.0014261464 -0.07428359 -0.08353612 0.06589976
0.0032593065 0.045910314 -0.20407292 0.17909122 -0.15101963 0.050755713 0.09413337 -0.109511174
-0.11757549 0.06387636 -0.116823405 0.07311488 -0.120525 0.021723136 -0.03279838 -0.109953575
0.14089209 0.13094246 -0.07245959 0.15350726 0.11315382 -0.046032734 -0.09202993 -0.10553251
0.063165426 -0.0063864095 0.11267658 -0.11918132 0.116517454 -0.09106037 -0.06978842 -0.053114988
-0.02354013 -0.016112214 0.019249385 0.11169576 -0.10006961 0.09003484 -0.08263825 -0.115300596
00000000: 0aa2 023e 10f4 7bbd 2290 883d fda8 20bd
00000010: d389 d1bd 1bac 03be 8d42 223c 8c0a 0d3d
00000020: f4ba 373e 98b0 1abe 7909 bbbc cbbb babd
00000030: 649c 013e 04c9 213d 2cf2 c4bd 7a52 2cbc
00000040: 6051 853d 0119 47bc b91e 193e c495 febd
00000050: 88ed ba3a ff21 98bd fc14 abbd 74f6 863d
00000060: 179a 553b 740c 3c3d 7ef8 50be b063 373e
00000070: e4a4 1abe 39e5 4f3d ffc8 c03d 6547 e0bd
00000080: 6bcb f0bd 9cd1 823d 1c41 efbd 41bd 953d
00000090: d0d5 f6bd b8f4 b13c 9857 06bd 572f e1bd
000000a0: 0446 103e c815 063e b265 94bd 0231 1d3e
000000b0: 31bd e73d d28c 3cbd 307a bcbd 6e21 d8bd
000000c0: e05c 813d 1645 d1bb fbc2 e63d 5615 f4bd
000000d0: b4a0 ee3d dc7d babd 3bed 8ebd 1a8f 59bd
000000e0: 3bd7 c0bc c3fd 83bc e3b0 9d3c bfc0 e43d
000000f0: 4cf1 ccbd 3064 b83d 3e3e a9bd b822 ecbd

core.core.fc.0.0.weight f4 [128, 64]
-0.014667975 -0.014293658 -0.0024633082 0.0055037527 0.0011188925 0.0022475943 0.0042036907 0.014569345
0.015120186 -0.0049346727 0.009214515 0.0038143452 0.0007392569 -0.00087410264 0.0050200606 0.0030715489
0.00014461763 -0.0008541348 -0.0068704956 -0.008453655 0.0065772906 -0.00057588436 -0.006949342 0.017137302
-0.0010660236 0.007421018 -0.004902576 0.01522112 0.012511306 -0.0022992983 0.0001452845 -0.0054363357
-0.004013637 -0.006586536 -0.00037260685 0.01546455 -0.0036942805 0.0020163415 -0.00037342287 0.009963982
-0.0099514825 0.003785974 -0.0036661434 -0.0070821033 -0.003468429 -0.000970358 0.0031123874 -0.011320288
-0.008061333 0.0029525722 -0.0033752404 -0.009438827 0.0083188 -0.007162832 0.013922432 0.009897685
-0.015889052 -0.0014211067 -0.0018763721 -0.001494918 0.005320185 -0.019202476 -0.004124125 0.003182069
-0.0012182099 -0.000391564 -7.285372e-05 0.00053084904 -0.0004949335 -0.0001068432 -6.205406e-05 1.0501096e-05
0.0009581929 -0.00026335157 6.990041e-06 0.00017716327 -6.7724754e-06 -0.00017017752 -0.00014817601 6.1886065e-05
-0.00032833184 -0.00024713838 0.00026163846 0.00014997975 0.00077945716 0.0011883208 -0.00025265134 0.00012707475
0.00013830594 -0.0005283902 0.0006356923 0.00047528232 0.00022549892 0.00014112261 -0.0006746963 0.00015237233
-0.0003994701 0.00032475707 -4.684217e-05 0.00028165625 0.0002756758 0.00016076809 0.00072762877 -0.00039492306
-0.00014619542 -0.00035143428 -0.0003336511 0.0005266974 -0.00024000023 0.00031498758 -0.0005201738 8.32282e-06
2.5991449e-05 0.00020847445 5.7652895e-05 -2.2936372e-05 0.00021212782 -0.0007232263 -0.00012363802 -7.6343444e-05
-0.0004438343 -0.0002221821 5.55939e-05 -0.0010536034 0.00021775471 -0.00012550926 0.00023858204 0.00017137948
0.00018120575 0.00027932858 -6.6095956e-05 1.5809494e-05 -0.00021564966 3.2250453e-05 -6.3880805e-05 -0.00025191475
-8.6925036e-05 8.092295e-05 -0.00017888611 7.544989e-06 -1.8335008e-05 -0.00023415065 -0.0001518808 1.4163177e-05
4.6345112e-06 0.00015346 0.0003942222 0.00017280165 -0.0001781124 6.309648e-05 0.00016722041 -0.00033254182
-5.1729376e-07 -4.6553054e-05 6.992298e-06 -0.00025079204 -0.000100162724 8.995372e-05 -5.3360018e-05 -4.5361336e-05
0.0001518165 0.00012078881 0.00012987966 -0.00019593794 0.000159539 1.903345e-05 7.434467e-05 -0.00019683529
0.0004472897 -1.3001316e-05 -0.00014623355 0.000266778 8.869676e-06 0.000116309864 -0.00019039074 0.0002556143
0.00022559895 -0.0003048798 0.00015668634 0.000538865 -0.00029434194 0.00014296334 -0.00027717493 -8.7580534e-05
0.00040911863 0.00015540326 0.000116231524 6.153133e-05 -6.742063e-05 0.00044807972 0.0001330285 -9.9559e-05
-0.02234718 0.047434263 -0.08480563 0.05644942 0.04553051 0.024474213 -0.051821716 -0.04876971
0.009671847 0.09641031 -0.0035667005 0.042823553 -0.036765695 -0.029150616 0.03585822 0.073269814
-0.007812572 -0.12053885 -0.020180197 0.06608524 -0.021179503 0.012655367 0.051334098 -0.14127134
-0.02384246 0.1284408 0.0013153872 -0.089795455 0.07876227 0.017850999 -0.03590713 0.063947655
0.012724377 0.027532304 0.063555196 -0.0003995477 0.02357086 0.0654322 -0.014751234 0.05343764
0.020500641 -0.036669325 -0.04828753 -0.011671914 -0.05401066 0.04001127 -0.088838905 -0.022307413
-0.02085402 -0.032609694 -0.0882101 0.06331203 -0.060672533 0.051677193 0.010872439 0.008192108
-0.03577378 0.039616063 0.021973344 -0.037974317 0.03463152 -0.008876883 0.03423779 -0.00781405
00000000: f251 70bc f22f 6abc 746f 21bb d358 b43b
00000010: cda7 923a 604c 133b 1dbf 893b 43b4 6e3c
00000020: a8ba 773c 09b3 a1bb 7af8 163c 18fa 793b
00000030: b1ca 413a 0924 65ba 527f a43b 0a4c 493b
00000040: 80a4 1739 04e8 5fba e521 e1bb 3381 0abc
00000050: 5086 d73b f2f6 16ba 4eb7 e3bb 8763 8c3c
00000060: d1b9 8bba 032c f33b caa5 a0bb 0162 793c
00000070: 39fc 4c3c d3af 16bb 8357 1839 4a23 b2bb
00000080: d484 83bb ded3 d7bb 725a c3b9 065f 7d3c
00000090: be1b 72bb 9924 043b f8c7 c3b9 f83f 233c
000000a0: 8b0b 23bc 1b1e 783b ae43 70bb fd10 e8bb
000000b0: 954e 63bb a05f 7eba 32f9 4b3b bb78 39bc
000000c0: ae13 04bc f17f 413b 2333 5dbb 4fa5 1abc
000000d0: 934b 083c 31b6 eabb ea1a 643c e629 223c
000000e0: c229 82bc 6e44 baba 9af0 f5ba 20f1 c3ba
000000f0: f254 ae3b 834e 9dbc ab23 87bb 428a 503b
00000100: 57ac 9fba d54a cdb9 0bc9 98b8 ad28 0b3a
00000110: 6dbe 01ba 0211 e0b8 0523 82b8 dd2d 3037
00000120: 3d2f 7b3a 7312 8ab9 ff8b ea36 e7c4 3939
00000130: 1f3f e3b6 ae71 32b9 b25f 1bb9 d4c8 8138
00000140: f423 acb9 5a92 81b9 852c 8939 e243 1d39
00000150: 7c54 4c3a 6ec1 9b3a 4a76 84b9 5e3f 0539
00000160: 3806 1139 ab83 0aba 97a4 263a 502f f939
00000170: e873 6c39 50fa 1339 1ade 30ba 23c6 1f39
00000180: f86f d1b9 2844 aa39 6678 44b8 43ab 9339
00000190: 9488 9039 db93 2839 57be 3e3a ad0d cfb9
000001a0: 094c 19b9 b640 b8b9 e5ed aeb9 1012 0a3a
000001b0: 92a8 7bb9 eb24 a539 465c 08ba 3da2 0b37
000001c0: 3608 da37 ef99 5a39 53d0 7138 7c67 c0b7
000001d0: a16e 5e39 e596 3dba d4a4 01b9 931a a0b8
000001e0: 6eb2 e8b9 8ef9 68b9 7f2d 6938 1019 8aba
000001f0: 1655 6439 239b 03b9 e12b 7a39 54b4 3339
00000200: 0c02 3e39 d972 9239 ff9c 8ab8 a19e 8437
00000210: 0420 62b9 a944 0738 bff7 85b8 6d13 84b9
00000220: 864b b6b8 2eb5 a938 6093 3bb9 f62a fd36
00000230: 21ce 99b7 5686 75b9 3142 1fb9 629e 6d37
00000240: 2682 9b36 1bea 2039 9caf ce39 1732 3539
00000250: afc3 3ab9 aa52 8438 e357 2f39 0259 aeb9
00000260: 28dc 0ab5 f641 43b8 629f ea36 bd7c 83b9
00000270: 740e d2b8 89a5 bc38 e2ce 5fb8 5d42 3eb8
00000280: ee30 1f39 0050 fd38 4e30 0839 b174 4db9
00000290: ed49 2739 06aa 9f37 7ee9 9b38 9265 4eb9
000002a0: 3582 ea39 3a20 5ab7 4556 19b9 56de 8b39
000002b0: f8ce 1437 62eb f338 a0a3 47b9 f803 8639
000002c0: c28e 6c39 46d8 9fb9 2b4c 2439 9e42 0d3a
000002d0: e851 9ab9 6ee8 1539 ca51 91b9 71ab b7b8
000002e0: f97e d639 bff3 2239 53c1 f338 620a 8138
000002f0: 2d64 8db8 3eec ea39 917d 0b39 55ca d0b8
00000300: 6f11 b7bc 6e4a 423d 93ae adbd 8237 673d
00000310: 337e 3a3d 257e c83c 0243 54bd bfc2 47bd
00000320: ab76 1e3c c572 c53d 4ebf 69bb c067 2f3d
00000330: a097 16bd 46cd eebc 12e0 123d 7c0e 963d
00000340: 4d00 00bc 13dd f6bd f150 a5bc b357 873d
00000350: a380 adbc 7558 4f3c b443 523d 6fa9 10be
00000360: 4351 c3bc fc85 033e 1269 ac3a aee6 b7bd
00000370: 1d4e a13d 423c 923c 5b13 13bd fdf6 823d
00000380: e879 503c 6d8b e13c 3a29 823d 627a d1b9
00000390: ad17 c13c 5101 863d 29af 71bc 6de1 5a3d
000003a0: f6f0 a73c 9332 16bd 25c9 45bd 8e3b 3fbc
000003b0: 483a 5dbd dce2 233d 2cf1 b5bd 09be b6bc
000003c0: 0dd6 aabc be91 05bd 7fa7 b4bd bda9 813d
000003d0: c383 78bd 77ab 533d 5022 323c 3138 063c
000003e0: 8787 12bd 7444 223d 7101 b43c f58a 1bbd
000003f0: c8d9 0d3d 5970 11bc ed3c 0c3d 8006 00bc

core.core.fc.0.0.bias f4 [128]
0.015876321 -0.0006931082 6.490716e-05 -0.1329933 -0.0002577047 8.7857785e-05 0.33298346 0.01029125
-0.0048118145 0.00037854863 -0.028104492 -0.16002603 -0.12518871 -6.418272e-05 -0.15666042 0.036654044
-0.13139614 -0.25453585 0.0004556807 1.9141808e-05 -0.10563985 0.05640111 0.17926426 0.003064487
0.032871902 -0.01093955 1.9250032e-05 6.0598023e-07 6.7095374e-05 0.007030055 0.0011228699 0.011658342
0.2514804 0.15376742 0.0048301807 -0.09360379 0.04230675 -0.18010513 -0.18958624 -0.22428031
0.047400694 0.0011154892 0.005261779 0.00013121979 -5.686145e-05 0.00010504584 -6.842817e-05 0.00588066
0.04813463 0.12231455 0.0050298707 5.00026e-07 -0.1295656 0.08594942 -0.11428148 -0.0022064552
0.07553201 -0.00015578016 0.03882374 3.4631288e-05 0.00041680364 0.055337515 -0.036272846 -0.10919968
0.17794856 -0.00015913432 8.149049e-05 0.007866417 0.2709804 0.10223439 1.948453e-05 0.3208239
7.385442e-05 0.08428222 0.034474894 -0.06295376 0.00023759712 -4.1845225e-05 0.008103106 -0.084917754
0.0076826806 -0.14894599 -4.77492e-09 -0.04845446 0.02086271 -0.079810165 -0.01789645 -0.14364898
0.03978072 0.07423708 -0.11427703 -0.0100611895 -0.17452775 4.8052592e-05 0.123634964 0.00016254417
0.20234948 0.2662867 0.07258826 -0.017852085 -0.0003411672 -0.031048983 -0.022810545 0.00521134
0.00016304155 -0.05011217 0.0006284518 0.00034332383 -0.00013120241 0.14976288 -0.066932745 0.08624334
-0.1705722 -0.19167797 -0.050657447 0.12454328 0.0023132078 0.072895154 0.00431199 0.017498279
-0.17744896 3.415282e-05 0.0040540756 0.05270483 -0.12573737 0.049296264 -0.20310065 -0.035367098
00000000: 0f0f 823c b4b1 35ba c41e 8838 652f 08be
00000010: 8a1c 87b9 4a40 b838 cf7c aa3e a29c 283c
00000020: 6dac 9dbb f077 c639 643b e6bc dddd 23be
00000030: 7831 00be d699 86b8 976b 20be 8d22 163d
00000040: b68c 06be 8652 82be 6ee8 ee39 b892 a037
00000050: b559 d8bd da04 673d 0d91 373e 8fd5 483b
00000060: b0a4 063d cc3b 33bc 217b a137 a5aa 2235
00000070: 8eb5 8c38 605c e63b 432d 933a a102 3f3c
00000080: 0ac2 803e 3575 1d3e 7e46 9e3b 58b3 bfbd
00000090: d849 2d3d 7b6d 38be e522 42be bda9 65be
000000a0: 3b27 423d 9b35 923a 006b ac3b 0b98 0939
000000b0: 847e 6eb8 0e4c dc38 1881 8fb8 8db2 c03b
000000c0: d128 453d 0d80 fa3d 9dd1 a43b 8639 0635
000000d0: d8ac 04be 4006 b03d 690c eabd 2d9a 10bb
000000e0: 87b0 9a3d eb58 23b9 a405 1f3d 1041 1138
000000f0: 7086 da39 97a9 623d d692 14bd 15a4 dfbd
00000100: 2638 363e 4bdd 26b9 e0e5 aa38 25e2 003c
00000110: f1bd 8a3e 4460 d13d b672 a337 0843 a43e
00000120: 4ae2 9a38 289c ac3d 8c35 0d3d e7ed 80bd
00000130: 7e23 7939 f882 2fb8 e4c2 043c 5ce9 adbd
00000140: ffbe fb3b 4c85 18be a410 a4b1 2f78 46bd
00000150: 46e8 aa3c 8373 a3bd 939b 92bc b818 13be
00000160: 1cf1 223d 9c09 983d 130a eabd b0d7 24bc
00000170: 67b7 32be 148c 4938 5434 fd3d 9e70 2a39
00000180: b434 4f3e bb56 883e 27a9 943d 893e 92bc
00000190: b0de b2b9 705a febc 2edd babc e3c3 aa3b
000001a0: 22f6 2a39 6b42 4dbd b0be 243a 2500 b439
000001b0: 6193 09b9 715b 193e 0914 89bd 59a0 b03d
000001c0: 7baa 2ebe 3b47 44be 2f7e 4fbd 8c10 ff3d
000001d0: 3099 173b 0e4a 953d 984b 8d3b 8d58 8f3c
000001e0: 2eb5 35be 503f 0f38 0dd8 843b 05e1 573d
000001f0: 4cc1 00be e1ea 493d 9ef9 4fbe 17dd 10bd

core.core.fc.1.0.weight f4 [64, 128]
0.009887256 0.00017039287 4.9025344e-05 -0.05930257 -0.00020958239 7.251713e-05 0.11136456 0.008219772
-0.0044439565 0.00025707946 -0.010291307 -0.058740012 -0.05198209 -1.7662665e-05 -0.05823262 0.028669856
-0.06523574 -0.118260525 0.00044671952 3.8615424e-05 -0.046614345 -0.048680577 0.033972472 0.0017113076
0.007473756 -0.011354677 -7.642008e-05 6.2359857e-07 4.2205065e-05 0.0063676066 0.000981055 0.009287213
0.1658595 -0.02401577 0.0030258377 -0.040572006 -0.18165162 -0.06251633 -0.062348194 -0.07079571
0.037812576 0.000670098 0.0048602116 2.5935702e-05 8.785168e-06 9.224917e-05 -6.911263e-05 0.003987422
-0.06491777 0.06718311 0.0032827794 7.734957e-06 -0.05243408 -0.1166204 -0.04554698 -0.00189179
-0.227264 -5.4177224e-05 0.02615983 2.627041e-05 0.0002875847 0.03711378 -0.023621509 -0.05185857
0.08727513 -6.669863e-05 3.434667e-05 0.007018181 -0.18719439 0.051368535 1.5219224e-05 -0.041668903
3.7485977e-05 0.03822608 0.021567965 -0.03376825 7.931312e-05 -3.7280148e-05 0.0072018583 -0.034300603
-0.07293467 -0.058538307 1.26198305e-08 -0.043782957 0.011394217 -0.036933165 -0.05239397 -0.054035705
0.027577486 0.04719094 0.2183003 -0.0075868443 0.18415053 4.0117477e-05 0.07029139 0.00011880984
-0.4794368 -0.49688932 0.05762813 -0.012998675 -0.000100989986 -0.13723207 -0.05617225 0.0023474623
0.00013663749 -0.0291678 0.00046875863 0.00026094596 -5.528131e-05 -0.030891929 -0.032887515 0.20806412
-0.06231678 -0.11676636 -0.025148641 0.040757082 0.0015234236 0.045188606 0.002365555 0.016199159
-0.066766605 1.5086421e-05 0.0041893283 -0.008828445 -0.052579127 0.035821516 -0.16848697 -0.014288404
-0.00066096144 -0.0003141076 0.0007394132 0.03252463 -7.675565e-05 7.339941e-05 -0.08695277 0.0028402756
0.0030409987 0.00032339492 0.018132463 0.02269977 0.02374981 -4.548462e-05 0.022347853 0.007929912
0.037412014 0.017217293 0.0015017383 0.00013138112 0.023043897 0.0104891285 -0.027159583 0.0014128771
-0.0070159947 0.002290943 -3.7704544e-05 3.3232783e-07 0.00015524343 0.0017863215 0.00035344285 -0.0015220516
0.21831682 -0.008650395 0.010547769 0.023591101 0.01702226 0.023137756 0.02170289 0.021071607
-0.001181289 0.000444002 0.007989924 0.00049928285 -4.8574002e-05 0.00010055303 -8.150508e-05 -0.0010735064
0.20984605 -0.011524994 0.012498937 4.338614e-06 0.023527449 0.0019614352 0.02813999 0.00061663124
0.081103265 -0.00019751077 0.008137073 3.1308304e-05 0.00087394676 0.0057007344 0.0127746975 0.02850411
-0.008346922 -0.00021170771 8.1167105e-05 -0.00026136596 0.19731043 0.010839704 1.2114798e-05 -0.07088046
0.00024944247 -0.005327782 0.00034262904 0.020341204 -0.0006919792 5.052393e-05 0.018922532 0.021158796
0.031523958 0.023052976 5.2265228e-09 0.03921782 0.0059979293 0.0332017 0.038969863 0.022419818
0.016625706 -0.005413833 -0.06782591 0.0044814628 -0.11494886 5.2469382e-05 -0.0032554988 0.00026170973
0.034644738 0.058728363 -0.020450518 0.007167781 -0.00024518406 0.035859462 0.08156058 0.009550149
0.00021200419 0.023195198 0.00080659176 9.456295e-06 -8.537515e-06 0.009479407 0.025459833 0.12228756
0.022525195 -0.024139116 0.021718388 0.022337118 0.0051769037 -0.0106315045 0.0053741457 0.0020605028
0.023441648 0.00030417024 0.00096384966 0.06854974 0.023412893 0.0036611455 0.032930158 0.019119054
00000000: 28fe 213c 7dab 3239 90a0 4d38 40e7 72bd
00000010: 58c3 5bb9 5614 9838 1a13 e43d 39ac 063c
00000020: 9c9e 91bb 9fc8 8639 df9c 28bc 5e99 70bd
00000030: 2ceb 54bd 492a 94b7 5485 6ebd 0cdd ea3c
00000040: 519a 85bd 9332 f2bd ae35 ea39 fff6 2138
00000050: afee 3ebd 4965 47bd b826 0b3d f44d e03a
00000060: 69e6 f43b f808 3abc b843 a0b8 5e65 2735
00000070: 5805 3138 5ba7 d03b be96 803a 6529 183c
00000080: 13d7 293e b8bc c4bc 224d 463b d52e 26bd
00000090: e202 3abe 9008 80bd d260 7fbd 57fd 90bd
000000a0: 5ce1 1a3d 84a9 2f3a 6942 9f3b 7f90 d937
000000b0: 0264 1337 e575 c138 90f0 90b8 eca8 823b
000000c0: 9cf3 84bd 4c97 893d e623 573b 63c5 0137
000000d0: 1ec5 56bd add6 eebd 788f 3abd f0f5 f7ba
000000e0: e5b7 68be 5a3c 63b8 244d d63c 475f dc37
000000f0: f7c6 9639 9e04 183d e581 c1bc a769 54bd
00000100: 4ebd b23d 8ee0 8bb8 750f 1038 c5f8 e53b
00000110: e3af 3fbe d067 523d 1256 7f37 03ad 2abd
00000120: 433a 1d38 f392 1c3d 4daf b03c 9450 0abd
00000130: e854 a638 415d 1cb8 91fd eb3b ca7e 0cbd
00000140: c65e 95bd ddc5 6fbd 9ace 5832 c255 33bd
00000150: cfae 3a3c 3b47 17bd 0f9b 56bd 8b54 5dbd
00000160: 2eea e13c 494b 413d 1d8a 5f3e 109b f8bb
00000170: f591 3c3e d043 2838 eff4 8f3d 8c29 f938
00000180: be78 f5be 4768 febe 790b 6c3d 65f8 54bc
00000190: 96ca d3b8 9086 0cbe e014 66bd e2d7 193b
000001a0: 5946 0f39 4ff1 eebc b8c3 f539 93cf 8839
000001b0: dbdd 67b8 1211 fdbc 0fb5 06bd c30e 553e
000001c0: e13f 7fbd 3423 efbd 8604 cebc e6f0 263d
000001d0: 9dad c73a b017 393d 6d07 1b3b 19b4 843c
000001e0: eebc 88bd af1b 7d37 a246 893b 2fa5 10bc
000001f0: 365d 57bd 95b9 123d d987 2cbe e919 6abc
00000200: 5f44 2dba cfae a4b9 2ed5 413a 8c38 053d
00000210: e0f7 a0b8 02ee 9938 4b14 b2bd eb23 3a3b
00000220: 7e4b 473b 558d a939 888a 943c def4 b93c
00000230: f68e c23c bdc6 3eb8 d812 b73c 76ec 013c
00000240: 573d 193d 480b 8d3c fad5 c43a 5ac3 0939
00000250: 8ec6 bc3c 98da 2b3c c67d debc 4a30 b93a
00000260: 6ee6 e5bb a523 163b f224 1eb8 ca6a b234
00000270: d7c8 2239 0123 ea3a 4c4e b939 947f c7ba
00000280: 728e 5f3e 63ba 0dbc 8dd0 2c3c 2042 c13c
00000290: 4472 8b3c 648b bd3c 42ca b13c 5d9e ac3c
000002a0: 7bd5 9aba f1c8 e839 2ce8 023c 4ee2 023a
000002b0: f0bb 4bb8 ffdf d238 b5ed aab8 e6b4 8cba
000002c0: e2e1 563e 54d3 3cbc 57c8 4c3c 6994 9136
000002d0: a3bc c03c 6c8b 003b d685 e63c 6ca5 213a
000002e0: 7819 a63d e51a 4fb9 5c51 053c 0951 0338
000002f0: 9319 653a 3acd ba3b f74c 513c 7481 e93c
00000300: 87c1 08bc dbfd 5db9 4238 aa38 f207 89b9
00000310: bf0b 4a3e 0499 313c a940 4b37 c629 91bd
00000320: 9ac7 8239 ad94 aebb e4a2 b339 99a2 a63c
00000330: f065 35ba a8e9 5338 6d03 9b3c 3655 ad3c
00000340: 441f 013d 98d9 bc3c fb94 b331 dda2 203d
00000350: 478a c43b 81fe 073d dd9e 1f3d c4a9 b73c
00000360: a232 883c 8666 b1bb 50e8 8abd 3cd9 923b
00000370: 4f6a ebbd 9212 5c38 355a 55bb 1636 8939
00000380: a4e7 0d3d 278d 703d d887 a7bc b4df ea3b
00000390: 0c8c 80b9 5fe1 123d 3c09 a73d 3a78 1c3c
000003a0: 714d 5e39 db03 be3c 7571 533a 7aa6 1e37
000003b0: 593c 0fb7 844f 1b3c 2491 d03c e671 fa3d
000003c0: c286 b83c 65bf c5bc c3ea b13c 55fc b63c
000003d0: 04a3 a93b c32f 2ebc 9a19 b03b 8009 073b
000003e0: b308 c03c 0a79 9f39 dbaa 7c3a ce63 8c3d
000003f0: 65cc bf3c d4ef 6f3b c6e1 063d 909f 9c3c

core.core.fc.1.0.bias f4 [64]
0.36233214 0.031185536 -0.2740128 -0.1853957 0.04682874 -0.25286996 -0.2820423 -0.25366953
0.1207785 0.26619306 -0.29246974 0.33280283 -0.13064201 -0.1610054 0.23898083 -0.25532952
-0.13200676 -0.27762318 0.13286813 0.34442025 -0.14199774 -0.054684497 0.20292452 -0.15731977
-0.28862178 -0.17108238 -0.15034117 0.27802584 -0.27678144 -0.25659826 0.5036912 0.2549129
-0.2924541 0.006544603 -0.30209765 0.09144475 0.35245097 0.466823 -0.2841808 -0.34342343
-0.21437158 0.1641813 -0.2722222 -0.2349352 0.14001293 0.1659289 -0.17072894 0.39019912
-0.24066938 0.25997996 -0.2443887 -0.12007658 0.19448312 -0.27683246 0.1260453 0.4195901
0.17611766 -0.31619588 -0.24981962 -0.30439752 0.29522023 0.32356858 0.063807026 -0.12159529
00000000: 9983 b93e cf78 ff3c 684b 8cbe 5fd8 3dbe
00000010: 7ecf 3f3d 2c78 81be d967 90be f9e0 81be
00000020: b85a f73d 754a 883e 98be 95be 2265 aa3e
00000030: 05c7 05be 99de 24be 64b7 743e 8dba 82be
00000040: c82c 07be a024 8ebe 950e 083e da57 b03e
00000050: db67 11be dafc 5fbd 72cb 4f3e 6f18 21be
00000060: 3cc6 93be 3830 2fbe 09f3 19be 6759 8e3e
00000070: 4cb6 8dbe d960 83be e8f1 003f f283 823e
00000080: 8bbc 95be 1c74 d63b 8bac 9abe 6347 bb3d
00000090: 7474 b43e 6d03 ef3e 2580 91be 32d5 afbe
000000a0: 3984 5bbe 251f 283e b560 8bbe da92 70be
000000b0: 8d5f 0f3e 44e9 293e 91d3 2ebe 2ec8 c73e
000000c0: 0972 76be 181c 853e 0841 7abe b6ea f5bd
000000d0: 9526 473e fcbc 8dbe 0512 013e 83d4 d63e
000000e0: 3058 343e 6de4 a1be b7d0 7fbe fed9 9bbe
000000f0: 1b27 973e c8aa a53e 42ad 823d f406 f9bd

readout.readouts.bex_20230623_denoised.location.weight f4 [2, 64]
0.19916904 -0.08501825 -0.22542967 -0.3359196 -0.11816679 -0.10795032 -0.19642437 -0.17268194
-0.22938767 0.1460743 -0.20159116 0.24013498 0.050066214 -0.054771494 -0.040418368 -0.04679416
0.09940716 -0.20427287 -0.026011596 0.2640821 -0.20868415 0.25233737 0.17751585 -0.19077489
-0.17663702 -0.15519175 -0.15638383 0.11157845 -0.18138333 -0.21355568 0.046529092 0.056240965
-0.22798686 0.06963268 -0.27759948 -0.13427472 0.091864966 0.49985847 -0.21817628 0.30232552
-0.11213697 -0.0025191887 -0.21351446 -0.11052664 0.088185966 0.019184997 -0.07423246 -0.1598053
-0.049778882 0.19096383 -0.057108395 -0.29414877 0.19542378 -0.2736527 -0.13522513 0.11587245
0.21896565 -0.24615805 -0.18332933 -0.27485383 0.06318827 -0.16270347 0.048024744 0.05677841
-0.22639996 0.056234773 -0.065930694 0.1588389 0.14911275 -0.15744612 -0.09600737 -0.12462685
0.2876603 -0.20276025 -0.20696345 0.33919632 0.043452267 -0.120495014 0.32116413 -0.0980722
0.12004178 -0.17278206 0.043444496 0.13184406 -0.0068386625 -0.06872348 -0.071106486 -0.2455527
-0.20334056 -0.208313 0.027461853 0.20429285 -0.15836835 -0.11232206 0.5219636 0.14287864
-0.2073101 -0.032797057 -0.15055218 0.08606165 0.29961365 -0.090962626 -0.23831168 -0.31566867
-0.0939974 0.04771764 0.030795434 -0.218407 0.14551309 0.17002688 -0.24121454 0.24194986
-0.19745581 0.106686816 -0.23443915 -0.117974125 0.089726046 -0.19849305 0.17063172 -0.023114568
-0.08519176 -0.19148076 -0.10043944 -0.14982875 0.22946213 0.23317271 0.18465255 -0.06845772
00000000: f8f2 4b3e 0c1e aebd 09d7 66be a7fd abbe
00000010: 6e01 f2bd 0f15 ddbd 7823 49be 89d3 30be
00000020: 9ae4 6abe 8094 153e ea6d 4ebe f2e5 753e
00000030: 3b12 4d3d 1358 60bd bb8d 25bd 3cab 3fbd
00000040: fb95 cb3d e82c 51be 4516 d5bc c535 873e
00000050: 4cb1 55be 5d32 813e b7c6 353e 7e5a 43be
00000060: 56e0 34be 96ea 1ebe 1523 20be 3e83 e43d
00000070: 8dbc 39be 57ae 5abe 4a95 3e3d ed5c 663d
00000080: 6375 69be 949b 8e3d 8521 8ebe 507f 09be
00000090: b323 bc3d 73ed ff3e 9a69 5fbe 69ca 9a3e
000000a0: 11a8 e5bd f918 25bb 89a3 5abe cb5b e2bd
000000b0: d89a b43d db29 9d3c 3007 98bd 00a4 23be
000000c0: f1e4 4bbd 068c 433e 7eea 69bd ab9a 96be
000000d0: 2c1d 483e 351c 8cbe 7578 0abe 894e ed3d
000000e0: 8838 603e db10 7cbe afba 3bbe a4b9 8cbe
000000f0: da68 813d bd9b 26be 98b5 443d 7a90 683d
00000100: 64d5 67be 6f56 663d ac06 87bd aaa6 223e
00000110: 03b1 183e 8e39 21be 839f c4bd 5d3c ffbd
00000120: 3648 933e 62a0 4fbe 3aee 53be 24ab ad3e
00000130: 01fb 313d 17c6 f6bd a06f a43e 14da c8bd
00000140: 77d8 f53d c8ed 30be dbf2 313d 2102 073e
00000150: dc16 e0bb e5be 8cbd 47a0 91bd 2b72 7bbe
00000160: 8238 50be 0150 55be aef7 e03c 2532 513e
00000170: 502b 22be 1c09 e6bd 689f 053f c74e 123e
00000180: 1949 54be 3556 06bd 5a2a 1abe 1741 b03d
00000190: f666 993e 9d4a babd fa07 74be 539f a1be
000001a0: b581 c0bd 9273 433d b546 fc3c 16a6 5fbe
000001b0: 6201 153e 871b 2e3e f200 77be b4c1 773e
000001c0: db31 4abe 9e7e da3d d110 70be 6b9c f1bd
000001d0: 4ac2 b73d c341 4bbe 15ba 2e3e c35a bdbc
000001e0: 0479 aebd 8813 44be 31b3 cdbd b56c 19be
000001f0: 1ff8 6a3e d4c4 6e3e 8f15 3d3e 9033 8cbd

readout.readouts.bex_20230623_denoised.location.bias f4 [2]
0.1209298 0.21597601
00000000: 0baa f73d d128 5d3e

readout.readouts.ken_20230614_denoised.location.weight f4 [2, 64]
0.25687745 0.05718905 -0.16291028 -0.37588426 0.056047257 -0.32669598 -0.25517622 -0.24372998
0.0924961 -0.2888936 -0.20760995 -0.12291097 -0.4874698 -0.12549484 0.31094453 -0.26480564
-0.21728434 -0.16900182 -0.025859095 -0.16860314 -0.029635286 -0.46678498 -0.07059721 -0.003835375
-0.30367002 -0.0133106755 -0.0857177 0.096774 -0.35801524 -0.22034644 -0.060000174 -0.06981892
-0.32644016 0.07735067 -0.23351735 0.12552637 0.20102 0.29486898 -0.27903035 -0.12324413
-0.03261619 0.09516206 -0.1705785 -0.14057 0.117391154 0.023104662 0.018832559 0.06871865
-0.29152042 0.11465504 -0.3161221 -0.13712902 -0.059524894 -0.08683556 0.030096056 0.32444045
-0.09473123 -0.23054264 -0.09061794 -0.22881524 0.39094687 0.062369183 0.03111437 0.22399133
-0.12367122 0.035412278 -0.2187857 -0.7204232 0.023918247 -0.18493998 -0.114592 -0.16578534
-0.09003357 0.33436382 -0.07723432 0.27138552 -0.032089997 -0.2292144 0.15831222 -0.039773684
-0.17201461 -0.15528595 0.116896406 0.3999387 -0.22161363 -0.19613753 0.14929096 -0.46654066
-0.1942732 -0.27063304 0.11112494 0.22323364 -0.030874804 -0.16931233 0.33250713 0.25592652
-0.14720947 0.042047884 -0.20921126 -0.29069096 0.0803178 -0.032807827 -0.15743108 0.024403876
-0.2823508 0.099937 -0.19926494 -0.1094351 0.01904081 0.04059527 -0.23904346 0.12805386
-0.13207404 0.052182194 -0.17843391 0.07643838 -0.8316752 -0.14273106 0.16371241 0.012315112
0.17266473 -0.22061692 -0.17459022 -0.21045126 -0.01693667 0.24397382 -0.0502871 -0.45632592
00000000: 7185 833e 113f 6a3d f4d1 26be e773 c0be
00000010: cf91 653d b244 a7be 75a6 82be 5a94 79be
00000020: 986e bd3d dde9 93be b497 54be bfb8 fbbd
00000030: a495 f9be b881 00be 1f34 9f3e 9b94 87be
00000040: c97f 5ebe d00e 2dbe 74d6 d3bc 4da6 2cbe
00000050: b3c5 f2bc 71fe eebe 4595 90bd ea5a 7bbb
00000060: a37a 9bbe 0515 5abc c38c afbd 7231 c63d
00000070: c64d b7be 7fa2 61be bec2 75bd 39fd 8ebd
00000080: 2a23 a7be 076a 9e3d 2c1f 6fbe fc89 003e
00000090: 30d8 4d3e 11f9 963e 11dd 8ebe 6b67 fcbd
000000a0: 8e98 05bd 53e4 c23d 21ac 2ebe 95f1 0fbe
000000b0: c66a f03d fd45 bd3c bd46 9a3c 5dbc 8c3d
000000c0: 2a42 95be 43d0 ea3d c2da a1be 8d6b 0cbe
000000d0: 60d0 73bd d8d6 b1bd 018c f63c 0f1d a63e
000000e0: 7202 c2bd 5f13 6cbe e695 b9bd 8b4e 6abe
000000f0: 302a c83e d476 7f3d 90e3 fe3c fc5d 653e
00000100: 5647 fdbd 770c 113d 5c09 60be a86d 38bf
00000110: 33f0 c33c e860 3dbe 36af eabd a2c3 29be
00000120: 8563 b8bd bc31 ab3e 072d 9ebd 0bf3 8a3e
00000130: cd70 03bd 2eb7 6abe 991c 223e bbe9 22bd
00000140: 9924 30be 4803 1fbe 6267 ef3d c4c4 cc3e
00000150: afee 62be 47d8 48be bbdf 183e 6bde eebe
00000160: 8eef 46be 6a90 8abe 7995 e33d 5c97 643e
00000170: 28ed fcbc 3660 2dbe 603e aa3e cd08 833e
00000180: 14be 16be 673a 2c3d 7a3b 56be 72d5 94be
00000190: a97d a43d 8061 06bd 9d35 21be a3ea c73c
000001a0: 4990 90be c5ab cc3d 1c0c 4cbe 821f e0bd
000001b0: 79fb 9b3c 3a47 263d cfc7 74be 8d20 033e
000001c0: 6b3e 07be ffbc 553d 61b7 36be ba8b 9c3d
000001d0: aae8 54bf 1728 12be 3aa4 273e 53c5 493c
000001e0: 06cf 303e 67e9 61be c7c7 32be 8980 57be
000001f0: c5be 8abc 46d4 793e d9f9 4dbd 8da3 e9be

readout.readouts.ken_20230614_denoised.location.bias f4 [2]
0.23090607 0.014221877
00000000: a472 6c3e e002 693c
