artifacts/poses_to_location/20250818174615/best_model.pt (torch, 376885 bytes, 48 tensors)

embedding.embeddings.bex_20230623_denoised.poses.weight f4 [64, 63]
00000000: 289e 653c c6cb 353d 2335 033d 6260 963d
00000010: 6a9e 353d 8bee abbc fb12 673d 0f98 ceba
00000020: 2fba 47bd 96d6 ae3b d9ed 803d 8f49 dc3c
00000030: 5a8a f9bc d9b6 fb3a d9f3 2c3c c08f 25bd
00000040: e821 383d f73b 0d3c b445 dcbb 52aa 973d
00000050: 1aee f73c 0269 873c f149 783d 4bb5 b2bd
00000060: 841d 14bc 6b62 923d 314d bebd f2b0 3f3d
00000070: c9a6 cabb 6a8c 1fbc b491 d6bc 51e6 a33c
00000080: ce68 d03b d978 bebd ef5c a13d 31f3 4f3d
00000090: 7185 cabd 5282 083e 4f53 773d 7244 65bd
000000a0: 1646 453d 85a3 bbbc 2275 21bc 8061 c13c
000000b0: d9e6 23bd 84b0 cdbc 486e f2bb 43ac 26bd
000000c0: 3b89 1a3d 6fa3 24b2 3991 38b3 73f2 1bbd
000000d0: afc6 19ae 89ab 8c2f 35ea 923d 995e 21be
000000e0: 78e2 e6bd 2975 c13c 0f2b f2bd b7bc f2bc
000000f0: 363e 19bb c68b 1abd dabd 02b0 727d 08bd
00000100: 541b a63d 9226 3bbd 88a7 a1bd 45ea f7bd
00000110: 1b39 88bc d9aa 66bd 115c 893d 05ea 31be
00000120: 77d4 9cbc dbb1 8cbd 01d2 893c 8b4c b0bd
00000130: 1ed7 3b3e 4f9b aebd 61bc c3bd 66ba b83c
00000140: d2cc e4bd e167 be3c 63fd 55bd 5f65 3fbc
00000150: 4b49 cabc e788 b43d 68ce 4c3d b4bf ca3d
00000160: fc67 473d 84f0 0bbe 7f09 733c cfd4 c83a
00000170: 3566 37bd 242d 83bd 253f 2a3d 7f47 bdbd
00000180: dc3d 6abd a0f7 52bd 23a3 b03d 05e6 07bd
00000190: bc6d 7f3c a61f e83d 659a 913c b4df 16bd
000001a0: c174 b63b 41b5 10be 8dc9 733d 4796 b0bc
000001b0: c64e c3bd 8e65 0abc 3123 95bc 7937 db3b
000001c0: 6a62 4eb3 fad7 70b3 58c0 62bb 6c32 c2af
000001d0: 9ffd ca2e d8f3 943c aa46 cfbc 2a70 223d
000001e0: 3499 a33b 8c5e 7d3c 1b96 b6bd 20cb cb3d
000001f0: f7ed 1dbb db8e 8330 675c 00bc 8764 0e3b
00000200: a59d bd3b ae4e 0bbd 428d 93bd e41b 003d
00000210: 1fae 73bd 330c 0abd d641 143d 1b02 02bb
00000220: ccc7 663c b49c f13c 8d17 b7bc 7798 a43d
00000230: 901f 963c 8c47 2a3e 77fa ebbd 731f 273e
00000240: 0faf 85bd c92d bcbd c49f 333d f2f0 983a
00000250: d20c 2d3d 2184 883d 6c8f febd c0ac 9e3d
00000260: 365a 4bbd 9c48 51bd f810 b5bc 4046 77bd
00000270: beca 603b 9af7 f13c 9ad8 d63c df87 223e
00000280: ce00 7b3d 4004 efbd 5b8f 393d d135 3ebd
00000290: 3df3 a8bd 0717 91bc a8c8 973d 5cb0 013d
000002a0: d33b bb3c e776 443d 0f8e 903c 502b a53d
000002b0: a659 d23d d601 20be 9d64 d5bc 7ccc e3b1
000002c0: 1642 b2b3 0fef e83c e614 7c2f 6154 532f
000002d0: 5cfd a8bd 66e0 e8bb 13e7 3fbd c5cd 873d
000002e0: 55ff c8bc af32 dabd b897 103d 6808 c83b
000002f0: 2ccf 55b1 f6a9 8dbc 61d2 42bd 1636 c2bc
00000300: a6e1 1b3b d00e 483d a508 09bd b46f 54bc
00000310: 7e03 0c3d 0b50 e6bc e1da 9d3a e1ed 5bbc
00000320: ba6b 13be 85fe ee3c d2b1 c7bd 283e 033d
00000330: b80f 0ebe 6a55 d53d f517 38be 169d 053d
00000340: bd75 023d d14e 643d bb15 baba 0232 bcbd
00000350: 07f7 afbd 3f4a c53d badd 12be 42be 0dbd
00000360: de7d 9c3b 5c39 77bd ed14 273d 2ce5 89bc
00000370: 3345 3a3c 9fe2 f83c 3258 debd e620 c1bc
00000380: c806 f93d 6d61 c63b 0078 70bd 026b 46bd
00000390: aaf9 283d 49dd 2fbe 69e9 7dbd 781f acbc
000003a0: c3b9 80bd 023e 283b 49b0 a0bd 8900 e1bd
000003b0: 75f7 3b3e 4c0b 80bc 51b3 b432 0a6e ed31
000003c0: 8f85 5dbb 49ee 87af f085 bfaf 159a 453d
000003d0: 5f4f c83d 2342 ce3d 07f5 bebd efb6 b53d
000003e0: da5f 0a3e f295 2ebd 520e 873c df36 7b31
000003f0: b4c6 cc3c 1b19 00bd 7b41 9e3d 6490 2d3d
0.014014758 0.044383787 0.032033097 0.07342602 0.04434053 -0.02098777 0.056414586 -0.001576187
-0.048761543 0.005335639 0.06295366 0.026890544 -0.030461479 0.0019204273 0.010556185 -0.040420294
0.04495421 0.008620254 -0.0067221764 0.07405533 0.030264903 0.016529564 0.06061739 -0.08725985
-0.00904024 0.07147678 -0.09292067 0.046799608 -0.006184433 -0.009738067 -0.026192524 0.020007284
0.00636015 -0.093003936 0.07879054 0.050769035 -0.09888733 0.13330963 0.060382184 -0.055973478
0.048162542 -0.02290512 -0.009854587 0.023606062 -0.040015075 -0.025108583 -0.0073984005 -0.040691625
0.03772853 -9.583217e-09 -4.2972918e-08 -0.038073014 -3.496464e-11 2.5587735e-10 0.07173578 -0.15758742
-0.11273664 0.023615437 -0.11824619 -0.029631002 -0.0023383028 -0.037730955 -4.756352e-10 -0.03332276
0.08110681 -0.04569108 -0.07893282 -0.1210523 -0.016628793 -0.056315277 0.067070134 -0.17374428
-0.01914428 -0.06869861 0.01682377 -0.086083494 0.1834378 -0.085257165 -0.09557415 0.02254982
-0.11171879 0.023242893 -0.0522436 -0.011681884 -0.024693152 0.088151745 0.05000153 0.09899846
0.04868315 -0.13665968 0.014833807 0.0015322211 -0.044775207 -0.06405094 0.041564126 -0.092421524
-0.0571879 -0.051505685 0.08624866 -0.033178348 0.015590128 0.113341615 0.017773816 -0.036834434
0.0055681174 -0.14131643 0.059518386 -0.021556033 -0.09536509 -0.008447064 -0.018205257 0.0066899625
-4.805262e-08 -5.6075784e-08 -0.003459951 -3.532422e-10 9.2309486e-11 0.01818268 -0.02530225 0.03965775
0.0049926285 0.015464436 -0.08915349 0.099508524 -0.0024098137 9.572106e-10 -0.00783453 0.00217274
0.005786615 -0.03401058 -0.07204677 0.0312766 -0.059492227 -0.03370304 0.0361956 -0.001983768
0.014085721 0.029493667 -0.022350097 0.08036893 0.018325597 0.16628855 -0.11522382 0.1632059
-0.065275304 -0.0918842 0.043853536 0.0011668487 0.042248555 0.066658266 -0.12429699 0.07747793
-0.04964658 -0.051094636 -0.022102818 -0.06036973 0.0034300531 0.029537011 0.02622633 0.15872143
0.061280064 -0.116707325 0.04530273 -0.046438042 -0.08249519 -0.017711176 0.07411319 0.03166233
0.022855675 0.047964957 0.017645864 0.08064902 0.10271005 -0.156257 -0.026048953 -6.6298167e-09
-8.300792e-08 0.028434305 2.2926691e-10 1.9220316e-10 -0.082514495 -0.0071068285 -0.04685123 0.06631044
-0.024535814 -0.106541984 0.03530094 0.0061045177 -3.1113343e-09 -0.017292958 -0.047563914 -0.02370743
0.002378562 0.04884225 -0.03345551 -0.012966085 0.034183018 -0.02811434 0.001204338 -0.013423414
-0.14396563 0.029174099 -0.097507134 0.0320417 -0.13873184 0.10416682 -0.17977889 0.032620512
0.031850565 0.055739228 -0.001419715 -0.09189226 -0.085920386 0.09633302 -0.14342394 -0.034605272
0.0047757467 -0.060357437 0.04079144 -0.01683291 0.011369037 0.030381499 -0.10856666 -0.023575258
0.121594965 0.0060540945 -0.05870819 -0.048441894 0.041253723 -0.17174257 -0.061990175 -0.0210111
-0.06285431 0.0025671725 -0.07846124 -0.1098643 0.18356116 -0.015630387 2.1036302e-08 6.910118e-09
-0.003380153 -2.472567e-10 -3.4837866e-10 0.048242647 0.09780764 0.10071208 -0.09324079 0.088727824
0.13513127 -0.042623468 0.01648632 3.6556498e-09 0.024997093 -0.031273942 0.07727333 0.04237403

embedding.embeddings.bex_20230623_denoised.poses.bias f4 [64]
00000000: 2461 81be a9f5 d8bc ab09 813d bebe 35bd
00000010: a050 a6bc 2600 15be 54d6 b1bc b196 803d
00000020: 4e3c 74bd bcdf 0dbe abe6 9f3c b3bd 3fbd
00000030: bb66 eeba df78 59bd 344f e6bd cffb 08bd
00000040: e793 2ebe 8244 df3d d84a 433d 124c a7bd
00000050: 3765 8ebd daf1 293e 9838 1bbe 546f 533e
00000060: e3b8 0b3e 0b09 5cbd 182c 603e 8108 ac3d
00000070: a719 ed3c ba0d 37be 07e1 e0bd e2a3 c5bd
00000080: 5c16 56be 504b a63d 5a05 ccbd 704e 493e
00000090: 2b71 41bc ecf4 39be c0a4 10be 6d99 01be
000000a0: 5a37 babd a157 4e3d 6bc8 f43d 7d14 3fbb
000000b0: 7386 9b3d 01af 38be 20c7 30bd d47f 19be
000000c0: fd9e 4c3d 986d 4f3e 09aa 2b3e 2de1 35be
000000d0: 5cf5 bcbd ac4f 17be 3e58 113e 48a9 2d3d
000000e0: b0f0 f8bb cf94 5cbe 4369 c53c 6847 4fbd
000000f0: e748 da3d 48eb 733d 9cde fbbd ee72 e33d
-0.25269425 -0.026484327 0.06300672 -0.04437136 -0.020302117 -0.14550838 -0.021708645 0.06278742
-0.059627824 -0.13854879 0.01951917 -0.04681177 -0.0018188575 -0.053093787 -0.112455755 -0.03344327
-0.17048608 0.10901739 0.0476788 -0.08168806 -0.06952899 0.16596165 -0.15158308 0.20647937
0.13644747 -0.05371956 0.2189182 0.084000595 0.028942896 -0.1787633 -0.109804206 -0.09650399
-0.20906967 0.081198335 -0.09961958 0.19658828 -0.0118067665 -0.18159837 -0.14125347 -0.12656184
-0.09092589 0.05037654 0.11952289 -0.00291565 0.075940035 -0.18035509 -0.04315865 -0.14990169
0.04995631 0.2025665 0.16764082 -0.17761679 -0.09226486 -0.14776486 0.14193818 0.042397767
-0.0075970516 -0.21541141 0.024098044 -0.050605208 0.10658436 0.059550554 -0.12298319 0.111059055

embedding.embeddings.ken_20230614_denoised.poses.weight f4 [64, 63]
00000000: 5549 383d 14cb 3dba b65c 473d d570 fc3c
00000010: 03c2 193c 4eb4 593d a3f2 063d 16b7 9abb
00000020: 7822 ec3b 37bd cd3c 3b15 e2bc 6e74 133d
00000030: 54a4 20bc 4a7f 733c 5fd4 ca3c 2340 a4bc
00000040: 9e6b 3eba 4823 d33a c1a2 1ebc 9a73 9a3d
00000050: e23d c73c ef2a 15bb 9e70 7b3d ad3d 043d
00000060: ebbf 27bc ac40 803d 8bd6 0bbd 0dfd 41bd
00000070: 351f 383d 348d efba d0a9 25bd 13ac 213d
00000080: 0c0e 193b 841b 4cbd 4e94 4e3d 68f2 c6bc
00000090: 3352 9dba 3d58 953d 2e0c 60bb bb34 0ebd
000000a0: 2746 6a3d 05fe 30bd f396 8d3b 3596 c33a
000000b0: c207 bcba 9c0f 0ab7 8131 cebb 48ea adbb
000000c0: 5aa0 e93c cfdd 5fb2 b556 1232 73a1 e9bc
000000d0: f34e bcae 1e34 4b2e 8fde d23c 73cf 49bd
000000e0: abc3 aabd c9f8 c3bc 4e7b 4dbd 4314 60be
000000f0: 1526 2fbc 91a0 e9bc de68 4830 0bd6 21bd
00000100: a7f3 5b3b 76c3 a53c b64a ad3d de90 853d
00000110: b140 8cba 1a9a 0f3d 24c1 28bd 076a f5bb
00000120: 53fd 8ebc 1f8e 6f3d ef01 03bd 8da5 7a3c
00000130: d621 6ebd 770f 333d 677f 0c3c 78ce ac3b
00000140: cba2 873d 195b 0abd 8a3d ba3c 6087 063c
00000150: 0841 bcbc 0449 e83c 7969 83bd edb5 02bc
00000160: 2555 83bc c865 fe3c f817 95bc 2773 babc
00000170: d817 513c 2aed 163a a258 08bd 0e01 143b
00000180: 3bce c13c a4fc d43c 33b5 723c 6da4 9c3d
00000190: 23aa 353c 5def 86bb b061 f13b c13b 8ebb
000001a0: 6bc8 4abc d8e9 f23c fa29 793b cb26 613d
000001b0: b912 c63d 69d8 30bd 8488 0dbd 5806 d0ba
000001c0: e13f aab2 5f66 1f32 95d4 d73a be24 abaf
000001d0: 8cd4 2caf 7481 c83d 01a4 e13c 1253 bdbd
000001e0: 7a46 d43c 4ee5 d5bd 891c d33d 8eca e0bb
000001f0: ea09 e83a 1dfc 4b30 8bb8 893c 9cc2 8e3c
00000200: 70c4 dcbc c690 25bd 41ce c7bd 8464 ab3d
00000210: 394e 6d3c 887c 8fbd 28d0 b13d 45a9 d53b
00000220: 3917 4d3b 7def 433d c3c1 193c 15f7 883b
00000230: cfdd 28bc 9b40 fc3d ce6b c4bd 503a 7d3c
00000240: f031 4ebd 899e ac3c f6b5 77bc d591 dfbc
00000250: 870e 4dbc 8a02 8bbd 45dd 52bd 7a9e 57bd
00000260: ec7b 0bbb f957 043d e546 e7bc af84 a3bd
00000270: 627c 76bd e723 303d 77fb c63b e576 5d3c
00000280: dcc7 633d 7eaf 023d 979f 033e 522a 9f3c
00000290: dbeb 543d fbfe 11bc db0b 183d adb5 973c
000002a0: b66b ce3d 16c5 6cbd f2de 043e 6185 663c
000002b0: 63fb 6fbd a589 3dbd 37b2 dcbc cfdb 6833
000002c0: fbbc 0233 7d61 fd3c 1889 eead 0550 eb2f
000002d0: 3142 343c 447a bc3c e057 15bd 8816 d2bc
000002e0: 2f8c ec39 ca3b 6bbd 5659 b7bc 5fd5 6a3c
000002f0: f640 3931 ccdf 15bd 6a65 f1bc 2742 acbd
00000300: 9b3b 143d 7f6d bf3d 511b 91bd 527f 95bc
00000310: e7d2 a23d 346c b5bd e793 89bc 7dbe b6bb
00000320: c8d4 5dbd 6e71 c1bb 1825 18bc a372 a2bd
00000330: 3c6d 05be e023 da3d b6ba 93bc d501 783d
00000340: 2179 98bd e05e 90bd 8f00 073d 1a3b 81bc
00000350: 6c86 923d 38a3 793d 5780 efbc 1c26 9fbd
00000360: 2981 29bc bf54 eb3a adcb 48bd c333 b83d
00000370: 164a 94bd 167c cb3d 7ad7 133c ac2a b5bd
00000380: 88d7 833d 0523 09be 69b1 3dbd 81c5 593d
00000390: f941 033d 86e0 8cbb 1887 913c 8719 eabd
000003a0: 09c9 803d d3c2 10be 10d2 88bc 64e7 8d3d
000003b0: 0f33 5a3d 8492 1e3c 456e 7bb4 bc16 3bb3
000003c0: 95d4 44bc 64a1 4d2f 1c69 3cb0 69a0 d3bc
000003d0: ac18 cbbb 9c80 a53d d795 243d ea05 b63c
000003e0: aecd 2b3e b32f 003d 0d4b 04bb ea49 42b1
000003f0: e76b 083d a1a3 313a 3747 3d3d 4021 6ebd
0.04499181 -0.0007240039 0.0486724 0.030815521 0.009384635 0.053150468 0.03294624 -0.0047215326
0.0072062574 0.025114639 -0.027598014 0.035999708 -0.009804804 0.014861891 0.02475947 -0.020050114
-0.0007263961 0.0016108537 -0.009682358 0.075415805 0.0243215 -0.0022761186 0.061386697 0.03228538
-0.010238628 0.06262335 -0.03414015 -0.04736047 0.044951636 -0.0018276335 -0.04044515 0.039470743
0.002335432 -0.04983093 0.050434403 -0.02428551 -0.0012002647 0.07292221 -0.0034186947 -0.034718256
0.05719581 -0.043211002 0.004320973 0.0014922085 -0.0014345574 -8.229075e-06 -0.0062925224 -0.0053074695
0.028518844 -1.3030742e-08 8.518033e-09 -0.028519368 -8.5632744e-11 4.6203145e-11 0.02574089 -0.049270105
-0.08338102 -0.023922341 -0.05016642 -0.21882729 -0.010690232 -0.028518947 7.29086e-10 -0.039510768
0.0033561976 0.020234805 0.084615156 0.06521772 -0.0010700432 0.035059072 -0.04119982 -0.007489446
-0.017454779 0.058485147 -0.031984266 0.015298259 -0.058137737 0.04371592 0.008575297 0.0052736364
0.06622847 -0.033778284 0.022734422 0.008210987 -0.022980228 0.028355129 -0.06416602 -0.007977945
-0.016031811 0.031054392 -0.018199906 -0.022759987 0.012762032 0.0005757386 -0.03328765 0.0022583636
0.023657909 0.025999375 0.014813709 0.07648549 0.011087927 -0.00411789 0.0073663816 -0.0043406193
-0.012376885 0.029652521 0.0038019405 0.054968636 0.0967154 -0.043175135 -0.03455402 -0.0015871031
-1.9819653e-08 9.278295e-09 0.0016466553 -3.1130826e-10 -1.571882e-10 0.09790316 0.027544023 -0.0924436
0.025912512 -0.10444127 0.10308177 -0.006860084 0.001770315 7.4209244e-10 0.01681163 0.017426781
-0.026949137 -0.04042127 -0.09756137 0.08368781 0.014483982 -0.07006174 0.08682281 0.0065204226
0.003129436 0.047835816 0.009384575 0.004179845 -0.01030679 0.1231701 -0.095908746 0.015455797
-0.050340593 0.02107169 -0.015119066 -0.027291218 -0.012515671 -0.06787594 -0.05148055 -0.05264137
-0.002128358 0.03231046 -0.028232047 -0.07984292 -0.060177214 0.04300299 0.0060724574 0.013517116
0.055610523 0.031905644 0.12853847 0.01942936 0.05198274 -0.00891089 0.03712068 0.018519247
0.10079138 -0.057805143 0.12975672 0.014069886 -0.05858935 -0.046273846 -0.026940448 5.4216624e-08
3.043986e-08 0.030930275 -2.711835e-11 4.2803108e-10 0.011002109 0.02300752 -0.036460757 -0.02564551
0.00045117873 -0.057430066 -0.022381466 0.014333098 2.695797e-09 -0.036590382 -0.029467303 -0.08411055
0.036189657 0.093470566 -0.07085288 -0.018249188 0.07950383 -0.08858529 -0.016794158 -0.005576907
-0.054158002 -0.0059034145 -0.009286188 -0.079320215 -0.13029951 0.10651374 -0.018033367 0.060548622
-0.074449785 -0.07049346 0.032959517 -0.015775252 0.07154545 0.060946673 -0.029236002 -0.07770941
-0.010345736 0.0017954333 -0.049022365 0.08994248 -0.07240693 0.09935777 0.009023542 -0.0884603
0.06437594 -0.13392265 -0.04631177 0.05316687 0.03204534 -0.004299226 0.017764613 -0.1143065
0.062883444 -0.1413682 -0.016701728 0.069289 0.05327135 0.009678487 -2.3416312e-07 -4.3560007e-08
-0.012013574 1.8701979e-10 -6.854337e-10 -0.025833325 -0.0061980095 0.08081171 0.04018196 0.022219617
0.1677768 0.03129549 -0.0020186335 -2.827273e-09 0.03330603 0.0006776397 0.046210494 -0.05813718

embedding.embeddings.ken_20230614_denoised.poses.bias f4 [64]
00000000: 31cb 67be 5f17 88bd f863 303e 16ff dbbd
00000010: ce9c e23d 8d34 debd fe58 063e 90ea 39bd
00000020: 295d 02bd 8bd4 47be c13b ce3c efdb 28be
00000030: 00a2 4d3e fd92 8d3d 364e 43be 6063 9abd
00000040: 4210 f23c 9e5f a83d a3dd 2b3d e150 28be
00000050: 7a5a 3cbe aade d83d 38fd 0bbe 3800 303e
00000060: e681 133e a883 96bc 687a 483e eea7 2f3c
00000070: 4262 d6bd 4f4a 41be f009 06bd b8c1 183d
00000080: b1d4 26be db3c 53bc 99fd 0dbe c99a 81bc
00000090: 608f 13be 27c2 1ebe f1f2 8abd dced 65be
000000a0: 3b08 f1bc 845f 063e 0724 083e 2817 3d3c
000000b0: 8e52 c53d fba4 94bd f728 15be 5b8a 8cbd
000000c0: 3068 b63d 4852 583e 4c76 063d 62e5 4fbe
000000d0: 8daa 9f3c c8ca ebbd 8bbc 023e ee47 583b
000000e0: 2011 fa3b 4a5a 1ebe 8fff cfbb 212f b83d
000000f0: 76ba 85bc 21e3 3dbd fb16 a2bd f453 be3d
-0.22636105 -0.06645083 0.17225635 -0.10742013 0.11065064 -0.10849867 0.13119885 -0.04538971
-0.031827126 -0.19514672 0.025174977 -0.16490148 0.2008133 0.069128014 -0.19072804 -0.075384855
0.029548768 0.082213625 0.041959416 -0.16437103 -0.18393889 0.10589345 -0.13670814 0.17187583
0.14405021 -0.018373325 0.19577944 0.01072119 -0.1046796 -0.18876003 -0.03272432 0.03729412
-0.16292073 -0.012892927 -0.13866271 -0.015820878 -0.14410162 -0.1550375 -0.06784619 -0.22454017
-0.02942287 0.13122374 0.13294993 0.011541165 0.09634887 -0.0725803 -0.14566408 -0.06862327
0.08906591 0.21125138 0.03282766 -0.20302346 0.019490505 -0.11513287 0.12767236 0.0033001858
0.007631436 -0.1546413 -0.0063476036 0.08993364 -0.016324263 -0.046359185 -0.079145394 0.092933565

embedding.embeddings.ken_20230618_denoised.poses.weight f4 [64, 63]
00000000: 192d a43d f3ef 113c 34eb 643d ce46 5f3d
00000010: d3a2 b63c c8c0 6c3d d38b 233d c339 7cbc
00000020: 4fd4 bbba 4b49 90bc 066b 08bd 1aaa 37bb
00000030: 6a29 e1bb 93d0 61bd 8380 a739 3c54 25bc
00000040: d7ac 4dbb 7bb7 d5bb 0155 aabc 8980 c23d
00000050: 35be 113d 616b 04bc 4284 a13d 98b2 0b3d
00000060: c038 51bc 1ae6 873d fa60 4abd 5dbd 64bd
00000070: 9422 d73c ab2b 25bb 1b03 69bd 4e37 113d
00000080: be79 323d b6e2 e6bc 083a 883d da40 49bc
00000090: 74ad 2e3d a0d9 993d 3468 e9bb 0a2d e1bc
000000a0: 7806 9a3d a92c 2dbd 99ee 893c 7135 33bc
000000b0: 26b8 e23b 1293 e23c 0b47 60bc 52e3 85bc
000000c0: 2aee fa3c a094 71b2 ac8f ca2f 62f0 fabc
000000d0: 94a9 3c2c ac68 6c2f c04e 0e3e 06d1 8bbd
000000e0: 9a7a f6bd ba45 a4bd a1da b0bd dd64 32be
000000f0: ce0f 51bd 8cf0 fabc 251a 46b0 8799 653d
00000100: a24d c0bc fba8 b83c 1bf2 d8bd 5ccc abbd
00000110: d39a 013d b75c 5cbd a617 b43c 2314 bf3c
00000120: 10ff 2b3d 4baa cdbd aaad c4ba 4d03 c4bc
00000130: 0262 bb3d ea33 c0bb 8839 0e3c b56e 13bd
00000140: 5d51 19bd 072c 253d 8a3a 033c 81de 1b3b
00000150: 5893 413b de8b 9dba 22a6 2bbb 3e8e 32bd
00000160: 8bec 023d 85aa 6cbd 2834 2d3c 444d 483c
00000170: 68f5 3abd 95c6 b3bc 784f 323d c5ee 30bd
00000180: 8f43 c3bc 9a52 9d3c 6faa 1bbd 861f 193c
00000190: 9670 9a3c 87eb 853c 5162 0bbd f84e 3a3d
000001a0: 5cc3 04bd 601e 10bd 6f91 b03c f579 c7bc
000001b0: 36e1 ccbd c691 043d ee03 3b3d 3417 023c
000001c0: 006f 81b2 efdc 7eb2 ab26 11bc 18b6 01af
000001d0: bd6b 7aaf d758 54bd 2945 1dbd b268 0f3d
000001e0: 6c21 34bd 99ec ef3d 9b41 3fbe 0ff8 fa3d
000001f0: 9d96 0cbc 9652 ce30 1cec ad3c 0728 c5bb
00000200: 6a94 10bd f144 9bbd 509b acbd a213 fc3d
00000210: 7689 973c f267 adbd d751 be3d c588 0b3c
00000220: 224e 03bd 4545 913d a727 d33c 0731 c03c
00000230: fa0b 0b3c b7a9 053e 9253 eebd 631e 6f3c
00000240: fedd bdbc 36ff f63c 9c7a 07bd bd86 37bd
00000250: c16f 19bd d4f8 91bc 5534 dfbc 3116 ec3c
00000260: 916a 923d 8aa3 3e3d c0f7 fc3c 4598 97bc
00000270: 6231 8abd f66a 103d 85a9 a6bd 3e20 90bc
00000280: 664f 883d e9c6 0ebc 0e42 d03d 6f00 42bd
00000290: 0c92 7fbd 64a8 b5bb 5342 043d c33b 073c
000002a0: 478e 963d 9d23 78bd 88df d03d 10f3 c03c
000002b0: 3439 b6bd 2ac0 b1bd 6f92 9ebc 7517 83b3
000002c0: b9b6 b1b3 9404 c43c fe83 c430 ff9c 26af
000002d0: 1c6d 883c da22 7b3c d22c 12bd 4c70 0cbd
000002e0: e5a3 2f3d c6a6 a9bd 96df 02b7 fce7 553c
000002f0: 09dd 6f31 36e4 89bd 7f05 9e3c 8c11 2b3b
00000300: bcea 583d a992 a83d 9402 23be ee49 47bd
00000310: a8cc d13d fee1 c6bd eb6a 313b 3582 093d
00000320: 30d8 54bd ffe7 0cbc 2828 0db9 b744 bbbd
00000330: b862 03be a89f 073e a038 c1bc f2e8 ed3c
00000340: 56c4 9dbd a8ab 92bc 2a64 443d d9f9 68bc
00000350: 6cfb cb3a a071 e33c e9bf 8fbc a572 4fbd
00000360: b612 90bc 70a8 17bd 039a 333d 997d ce3d
00000370: 6a33 38bd 39aa ba3c 0d73 1e3d 5bfb adbd
00000380: bb40 9b3c 98b5 01be 5011 85bc efd1 a0bd
00000390: 81e0 b83c b054 ffbc f999 983c 4a09 babd
000003a0: 2ab6 953d 24b6 eebd b33d 21bd a06b d93d
000003b0: 33fa ba3d 9eb1 8d3b dadf 9f33 fe06 c033
000003c0: be24 1fbb a184 d8af 48e8 902f 829f a4bd
000003d0: 62dd d13c 8730 e43d d7b9 a73d 8e06 f538
000003e0: 662d 2d3e 7da6 ae3c c789 1b3b 2e0a 81b1
000003f0: 5504 1c3c e79e fd3b e0a9 a13c 713b 383d
0.08016414 0.008907306 0.05588837 0.054510884 0.022294438 0.057801038 0.03992827 -0.015394631
-0.0014330241 -0.017613074 -0.03330519 -0.0028024972 -0.006871392 -0.055130553 0.0003194847 -0.010090884
-0.0031383538 -0.0065221167 -0.020792486 0.094971724 0.035581786 -0.008082242 0.07886554 0.034105867
-0.012769878 0.06635685 -0.04940889 -0.055844653 0.026261605 -0.002520303 -0.056887727 0.035453133
0.043573134 -0.028184276 0.066516936 -0.012283528 0.042645887 0.07512212 -0.0071230177 -0.027487297
0.07520765 -0.04227892 0.016837405 -0.010938034 0.006918925 0.02765802 -0.013688813 -0.016343746
0.030631144 -1.406184e-08 3.684567e-10 -0.030632202 2.6810542e-12 2.1501262e-10 0.13897228 -0.068269774
-0.12035103 -0.08021112 -0.0863545 -0.17421289 -0.051040463 -0.03063228 -7.2069134e-10 0.05605462
-0.023474518 0.022541514 -0.10593053 -0.08388588 0.031641793 -0.053799357 0.021983933 0.023325032
0.041991293 -0.100422464 -0.0015005369 -0.023927355 0.09149553 -0.0058655636 0.008680709 -0.03599425
-0.03743111 0.04032519 0.008009562 0.0023783746 0.0029537287 -0.0012019833 -0.0026191552 -0.043592684
0.031963866 -0.057779808 0.010571517 0.012225453 -0.045644194 -0.021945277 0.04353282 -0.04319646
-0.023835925 0.019204427 -0.038004335 0.009345895 0.018852513 0.01634766 -0.03402931 0.045485467
-0.03241287 -0.035185218 0.021553723 -0.024350146 -0.10003893 0.032365583 0.045658045 0.007940102
-1.5068053e-08 -1.483498e-08 -0.008859317 -1.1797174e-10 -2.2775644e-10 -0.051842537 -0.038396034 0.035011955
-0.043977186 0.11715049 -0.1867737 0.12254345 -0.008580831 1.5011945e-09 0.02123075 -0.0060167345
-0.03529779 -0.07581509 -0.08428061 0.12308432 0.018498164 -0.084670916 0.092929535 0.008516495
-0.032056935 0.0709329 0.025775744 0.023460878 0.008486742 0.13053022 -0.116370335 0.014594647
-0.023177143 0.030150991 -0.033075914 -0.04480623 -0.037460092 -0.017818846 -0.027246634 0.028819175
0.07149232 0.04654268 0.030879855 -0.018505225 -0.067477 0.035258256 -0.08137802 -0.0175935
0.06655769 -0.008714416 0.10168849 -0.047363695 -0.06239514 -0.0055437554 0.032289814 0.008253994
0.07351356 -0.06058084 0.10198885 0.023553401 -0.088976294 -0.086792305 -0.019356934 -6.10443e-08
-8.275442e-08 0.023927964 1.4298391e-09 -1.5153388e-10 0.01665359 0.0153281335 -0.035687275 -0.034286782
0.04288091 -0.08283763 -7.8006615e-06 0.013055798 3.4904721e-09 -0.06732981 0.01928973 0.0026102988
0.052958235 0.08231098 -0.15918952 -0.04865449 0.10244113 -0.09711073 0.0027071785 0.03357144
-0.051963985 -0.008600234 -0.00013461767 -0.09143966 -0.12830627 0.13244498 -0.023586571 0.029041741
-0.07703464 -0.017904118 0.047947086 -0.014219725 0.00155626 0.027764142 -0.017547565 -0.050646443
-0.017587047 -0.03702587 0.04384805 0.100825496 -0.044970907 0.022786247 0.03868394 -0.08495208
0.018951764 -0.12666929 -0.016243607 -0.07852542 0.02256799 -0.031168312 0.018628107 -0.09083803
0.07310136 -0.11655834 -0.03936548 0.10616231 0.09129753 0.004324152 7.444733e-08 8.9419686e-08
-0.0024283375 -3.938441e-10 2.6358493e-10 -0.08038236 0.025618259 0.11142068 0.08189743 0.00011683731
0.1691185 0.021319622 0.0023733245 -3.7555514e-09 0.009522517 0.00773989 0.019734323 0.044978563

embedding.embeddings.ken_20230618_denoised.poses.bias f4 [64]
00000000: 96a2 43be 3558 873b f48f ed3d 3797 23bd
00000010: 19ad 22bd 12b3 37be 5018 0e3d f1c6 d13c
00000020: 5622 1fbd c3d9 21be 545d 88bd 3808 27be
00000030: 0806 3d3e 1361 b03c e0fc 37be a015 55bd
00000040: 229a 6ebd 9c03 c63d dc81 093e c69e 28be
00000050: 16a3 ccbd 0310 113e 66ff e3bd b016 c73d
00000060: 247b 153e 781e b83b 5857 e13d a3ce 763d
00000070: 343a 0abe 3bd0 ecbd a335 e9bd c6e1 aebc
00000080: 252b 5bbe 50f1 d33d 7407 4fbe 2927 fc3d
00000090: 562d 25be 8e76 c7bd 620e a3bd ba1a 68be
000000a0: 2905 493d 66f0 b43d 3d3c 64bb 1ac8 b83d
000000b0: 64ce 083e 0f58 2dbe fd81 d5bd 84bb 23be
000000c0: 1f72 343e af70 4e3e dbd9 183e 5b7e 54be
000000d0: 4a94 9f3d 1c45 20be f24f dc3d d8c2 b2bc
000000e0: c4c3 cf3d 8c15 4abe a987 e73c 48e9 933d
000000f0: bad7 7cbd 7c5d b43d e892 cfbd 624d 063c
-0.1910499 0.004130388 0.115997225 -0.03993913 -0.03971586 -0.17939404 0.034691155 0.025607558
-0.038851105 -0.15805726 -0.06658426 -0.16311729 0.18459332 0.021530664 -0.17967558 -0.052022576
-0.05825246 0.09668657 0.13428444 -0.16466817 -0.09992044 0.14166264 -0.11132698 0.09721124
0.14597756 0.0056188665 0.110029876 0.060255658 -0.13498765 -0.11563154 -0.113871835 -0.021347892
-0.21403177 0.10348761 -0.20217687 0.12312157 -0.16130576 -0.097394094 -0.07961728 -0.22666445
0.049077187 0.08834915 -0.0034825944 0.09022541 0.13359982 -0.16928123 -0.10425184 -0.159895
0.17621659 0.20160173 0.14926855 -0.20751326 0.07791956 -0.15651363 0.10757436 -0.021821424
0.10144761 -0.19734782 0.02826293 0.07222229 -0.06172917 0.08806893 -0.10135442 0.00819716

core.core.fc.0.0.weight f4 [128, 64]
00000000: e0a0 ab05 ae7d ad05 db90 a305 0d9a 8b05
00000010: 8295 9c85 1339 a685 1792 a785 22e3 a905
00000020: d414 ad85 a7e0 a105 cfde ac85 c022 7704
00000030: 804c ac05 2753 ac85 e657 a685 a7c1 9e85
00000040: 343e ac85 08aa a805 61fe aa05 5ade a985
00000050: fcd4 9405 6094 b205 236b ac85 4307 a405
00000060: ee1b ab05 596d ac05 05e3 a285 1f97 ab85
00000070: 9c5b 8185 f3e0 ac05 dd08 ae05 0df9 aa05
00000080: d526 a385 19d6 a005 f08a ba05 50e5 aa85
00000090: 1ad0 9d85 2cf5 ac05 8a74 a405 5a3f a605
000000a0: 9081 a505 3cda a705 4073 a585 90a4 af85
000000b0: 312c a705 e9aa ac05 5a3f bb05 a433 a885
000000c0: 36e7 9f85 8092 a085 e326 ab85 1c52 a805
000000d0: b223 ac85 3bef a405 970c 8805 9f3b a685
000000e0: 19c5 ab05 76b4 ac05 4dab 9d05 515d 9b85
000000f0: 72ad a705 905f ac85 52dd 9e85 83b8 a605
00000100: 36a1 47ba 5279 deb9 70fa ef39 6f4c 6e3a
00000110: 465e 6fb9 4403 90b9 5050 c036 8bf7 8e39
00000120: e6d3 12b9 e2d2 63b9 6a85 2a39 c863 55ba
00000130: 1145 573a 7211 dc38 aa28 10ba ccd4 083a
00000140: 3c10 36ba 3482 c6b9 5e43 f238 998a 47ba
00000150: 2b06 9cb9 9a42 1e3a c90d 8eb9 4e8c 243a
00000160: 8f84 4d3a 85f7 b839 cb00 363a 7c5a d6b8
00000170: f20d 19ba 8038 33ba 3aa4 0fba 280c 3fb7
00000180: 7b9b 46ba 4820 02b9 c4c9 45ba 1418 653a
00000190: 6a86 30ba 956f 11ba fcb6 0239 c425 56ba
000001a0: dc8f 30ba ba1f 98b9 6631 7d39 8dda d1b9
000001b0: 6056 0e3a d60f 2cba c5b4 1aba b7f3 2dba
000001c0: 44da 563a 7b34 3b3a d027 f739 5896 5bba
000001d0: 8f36 803a 87fb 91b9 278a 8b3a f0f6 1f3a
000001e0: 2036 a4b9 aac8 4bba 5a44 9d38 2c94 70b9
000001f0: ddee 6e3a f91f 07ba c2f6 32ba 94fd 7f3a
00000200: d200 8ab1 e43a 8132 85be 9432 3d75 0bb0
00000210: 523f 83b2 1a7b 1cb3 8286 ca30 6c6c 9f32
00000220: 7a69 deb2 f729 37b2 4f78 ebb2 85b7 28b2
00000230: d661 0132 c6c9 b2b2 7650 26b3 5783 bfb2
00000240: ce9d c4b1 67ca 2f33 a283 1833 b03e 90b2
00000250: 54c6 5bb2 880a 3332 04ce 0db1 fe4f 2a32
00000260: 7c2e 2d32 0cf6 61b2 b451 b7b0 3881 3a32
00000270: 662c 03b2 de6a 15b2 198f eeb2 ebf4 c9b2
00000280: d27c 34b2 5066 0a33 038b 96b2 96a3 7f31
00000290: d485 9930 ba02 b2b1 b086 02b3 c8e1 9cb0
000002a0: ec60 f831 a0e5 8632 68eb 0b32 8a4a b532
000002b0: 196e 7232 0e4a 8ab2 0f08 f4b1 12c3 f3b2
000002c0: 1187 c032 0d10 3232 ffc0 0b33 bba6 7ab2
000002d0: 7648 10b2 8c00 ccb2 00ba 972f 2251 5f32
000002e0: 3af9 1433 56b2 ddb1 8565 3132 9b16 7032
000002f0: aa9c d5b1 ef19 f132 d37b 95b2 8196 1931
00000300: 5eb6 ebb3 63d6 8334 cd0b 6333 cd86 0735
00000310: 95be eab4 2b8b 16b4 7aac 2ab4 a52f 1c35
00000320: 2958 f2b4 c40b 1533 ca59 c3b4 b0cc c6b3
00000330: 4be6 b333 d81a 06b5 5c03 22b4 847a 9a32
00000340: 4ec2 77b4 c687 1234 3e95 9334 65e1 d3b3
00000350: aa52 adb3 df2a e833 6cb8 5bb1 052d 3834
00000360: 51ba 1634 d637 7c34 b042 fe33 3ed1 1eb4
00000370: b854 85b3 5b92 a5b3 f311 74b4 2c58 e6b4
00000380: b698 bfb3 764f 6234 c2a4 dbb3 43cd 5c34
00000390: c6ff 2bb2 904e 89b3 9e53 19b4 864a 96b3
000003a0: d9cf 6fb4 948c 66b4 d569 06b4 9d23 c832
000003b0: 0690 ff33 43c8 bbb3 7146 b1b3 3590 41b4
000003c0: 90cf 0b34 3867 b933 1449 2734 3c53 afb3
000003d0: 1caa a734 52f2 5bb3 0a07 0a34 bfb6 1b35
000003e0: 78a2 ab34 c8e8 efb3 a60d a734 57ec 0bb3
000003f0: ed14 ae34 12da c932 70f4 2db4 f1e9 5134
1.6139859e-35 1.6315009e-35 1.5381658e-35 1.3128087e-35 -1.472509e-35 -1.5631531e-35 -1.575827e-35 1.5976119e-35
-1.6276493e-35 1.5222891e-35 -1.6256649e-35 2.9050667e-36 1.6202904e-35 -1.6205348e-35 -1.5642854e-35 -1.4929385e-35
-1.6197652e-35 1.5861104e-35 1.6080167e-35 -1.5974363e-35 1.3996091e-35 1.6793544e-35 -1.6214158e-35 1.5425153e-35
1.6091022e-35 1.621497e-35 -1.53178e-35 -1.6136276e-35 -1.2164754e-35 1.6257436e-35 1.6366137e-35 1.607821e-35
-1.5342711e-35 1.5124975e-35 1.7542394e-35 -1.6070959e-35 -1.4840653e-35 1.6264864e-35 1.5465296e-35 1.5633837e-35
1.5564119e-35 1.5784771e-35 -1.5558862e-35 -1.6517372e-35 1.5720838e-35 1.6237585e-35 1.7608667e-35 -1.5817614e-35
-1.5037222e-35 -1.5100143e-35 -1.6095047e-35 1.5828806e-35 -1.6187915e-35 1.5510365e-35 1.2794003e-35 -1.5632466e-35
1.6153165e-35 1.6241093e-35 1.4827135e-35 -1.4610409e-35 1.5768318e-35 -1.6209906e-35 -1.4939549e-35 1.5678344e-35
-0.000761527 -0.0004243353 0.00045772223 0.0009090369 -0.00022827936 -0.00027468253 5.7313955e-06 0.00027268784
-0.00014002583 -0.00021726967 0.00016262164 -0.0008140174 0.0008211891 0.00010493667 -0.00054992235 0.00052196975
-0.0006945168 -0.00037862512 0.00011552007 -0.00076119 -0.00029759234 0.0006037146 -0.0002709462 0.00062770105
0.0007839882 0.0003527963 0.0006942867 -0.00010221169 -0.0005838565 -0.0006836727 -0.0005479489 -1.13873175e-05
-0.0007576269 -0.00012409792 -0.0007545019 0.00087392447 -0.00067338964 -0.0005547938 0.00012465933 -0.00081690797
-0.0006735304 -0.00029015337 0.00024146363 -0.0004002642 0.0005429741 -0.0006563639 -0.00059015705 -0.00066357426
0.0008195976 0.0007141304 0.00047141174 -0.000837659 0.0009781885 -0.00027843958 0.0010646031 0.0006102165
-0.00031320844 -0.0007773737 7.499075e-05 -0.00022943382 0.0009114573 -0.00051546056 -0.0006826931 0.0009765264
-4.016422e-09 1.5044357e-08 1.7316106e-08 -5.073451e-10 -1.5279202e-08 -3.643354e-08 1.4735664e-09 1.855934e-08
-2.5892167e-08 -1.0661544e-08 -2.741231e-08 -9.8206145e-09 7.531034e-09 -2.0813683e-08 -3.8723066e-08 -2.2295053e-08
-5.722291e-09 4.0929446e-08 3.5509977e-08 -1.6792313e-08 -1.2792572e-08 1.0421566e-08 -2.0635307e-09 9.9134905e-09
1.0080495e-08 -1.3152668e-08 -1.3338224e-09 1.0856006e-08 -7.635299e-09 -8.69724e-09 -2.777192e-08 -2.3510855e-08
-1.050576e-08 3.222368e-08 -1.7525513e-08 3.7200372e-09 1.1170251e-09 -5.180792e-09 -3.039048e-08 -1.1414665e-09
7.2287687e-09 1.5704074e-08 8.14439e-09 2.110507e-08 1.4111287e-08 -1.609899e-08 -7.102251e-09 -2.8377631e-08
2.2413163e-08 1.0364613e-08 3.253899e-08 -1.4589825e-08 -8.398379e-09 -2.3748974e-08 2.75989e-10 1.2998756e-08
3.4685605e-08 -6.452221e-09 1.0325839e-08 1.39749785e-08 -6.2169265e-09 2.8067886e-08 -1.7402192e-08 2.2349982e-09
-1.0976213e-07 2.4556638e-07 5.286329e-08 5.048758e-07 -4.3724563e-07 -1.4020468e-07 -1.589523e-07 5.818386e-07
-4.5140158e-07 3.4702467e-08 -3.638691e-07 -9.257326e-08 8.377227e-08 -4.995795e-07 -1.5088648e-07 1.7983673e-08
-2.3074355e-07 1.3646704e-07 2.7489472e-07 -9.866452e-08 -8.070977e-08 1.081114e-07 -3.1973526e-09 1.7152713e-07
1.403762e-07 2.3489642e-07 1.1839927e-07 -1.4791019e-07 -6.2087054e-08 -7.710033e-08 -2.27308e-07 -4.2904992e-07
-8.9219085e-08 2.1076798e-07 -1.02279515e-07 2.056377e-07 -1.0011666e-08 -6.39385e-08 -1.4279655e-07 -6.998475e-08
-2.2334224e-07 -2.1471561e-07 -1.2518224e-07 2.329926e-08 1.19005605e-07 -8.7442935e-08 -8.255018e-08 -1.8026988e-07
1.3020895e-07 8.633509e-08 1.5579673e-07 -8.164213e-08 3.1229945e-07 -5.12103e-08 1.2854812e-07 5.800793e-07
3.1969444e-07 -1.11716474e-07 3.1116105e-07 -3.257841e-08 3.242525e-07 2.3498647e-08 -1.6200806e-07 1.9549749e-07

core.core.fc.0.0.bias f4 [128]
00000000: 0149 ab85 4c2c 1e3a 671a 9b31 5325 3c34
00000010: d4eb 072d ba04 df11 264d 633e d4c7 a429
00000020: 9b58 ad1f 97bd a385 1025 a3ac 993b 1336
00000030: 6e0e 8d85 368c fab4 33df 04b5 5ae0 d326
00000040: 7041 4239 db76 26b1 3d31 2137 debd 0f34
00000050: 5e48 a833 f682 443e 5fa4 a685 00c0 32b9
00000060: c409 d233 4a82 9f05 856c a685 9c4e 4824
00000070: 1b37 b299 df79 203e 573c 4e3e 607a 0d3e
00000080: 32e8 c33a ed40 2b3e 004b 2e3e d385 069a
00000090: 9615 232d a062 e1ad 5a9f 3c3a 627a 3839
000000a0: 0736 2d91 e556 4b25 c635 01b8 05be d936
000000b0: fc47 a985 e48e 38b9 c806 a105 ff68 a585
000000c0: fcdf d5b9 a550 a285 2277 8a38 f973 189f
000000d0: 95fa 4322 9de5 683e c865 0c34 f93d ac3a
000000e0: 2167 ba34 74dd a805 fe4b 4b3e 161b cc25
000000f0: 9855 8939 2b8e a405 96a7 0036 28e0 1c9b
00000100: a7bd 563e 04b4 fa3d d799 0a26 ab6c 9e85
00000110: 8494 aa85 3660 2832 8886 323e f72c e83d
00000120: 3082 f929 8340 a885 aaa1 9f85 a5f8 ab85
00000130: eec2 a005 b3ab e539 ec08 4f13 c06a 4ab8
00000140: 6f1c a805 8654 aa05 1641 129e 39fa 3d27
00000150: b1ea 00b9 cf0b 1eb7 ecd1 d729 462c e837
00000160: 843c a585 9de4 8a1a f607 4b36 e86b 3918
00000170: 8b42 7639 1d59 aa85 ea34 033e 66b7 a805
00000180: 056c 303e de73 e318 53ed 9e85 8a52 90a9
00000190: cef6 822c 0376 21b7 ec66 523d db9e 3b3e
000001a0: 7060 333e 9439 e2a3 0cd4 0138 8e82 69b6
000001b0: 1a26 a285 4c2d 373d 262c 6e28 6eca a585
000001c0: ad8f a205 1a29 3d3a 607a 522e a3cb a985
000001d0: 46de 9bb8 6d53 003e 344c 4b3e 876d a705
000001e0: d626 8e35 4415 212d 0d7b ea3d b5cf a385
000001f0: 0782 a527 a362 8e3b c7d0 80b0 d571 aa05
-1.610758e-35 0.00060338224 4.5140953e-09 1.7522443e-07 7.726226e-12 3.518611e-28 0.22197399 7.317728e-14
7.3414935e-20 -1.539809e-35 -4.6368534e-12 2.1939397e-06 -1.3264877e-35 -4.6668146e-07 -4.949863e-07 1.4701877e-15
0.00018525659 -2.422374e-09 9.607812e-06 1.3386986e-07 7.836273e-08 0.19190583 -1.5670945e-35 -0.00017046928
9.7806634e-08 1.5000149e-35 -1.5650429e-35 4.343467e-17 -1.8427026e-23 0.1567149 0.20140205 0.13816214
0.0014946519 0.16723986 0.17020798 -2.7818653e-23 9.27027e-12 -2.5623337e-11 0.0007195376 0.00017593199
-1.3663942e-28 1.7636884e-16 -3.0806077e-05 6.489225e-06 -1.5919127e-35 -0.00017600838 1.5142858e-35 -1.5555095e-35
-0.00040793407 -1.5264031e-35 6.602543e-05 -3.2283182e-20 2.6560085e-18 0.2274384 1.3075544e-07 0.0013141028
3.4720236e-07 1.5879993e-35 0.19853207 3.5406713e-16 0.0002619445 1.547471e-35 1.9171034e-06 -1.2976446e-22
0.20970784 0.122413665 4.808686e-16 -1.4898167e-35 -1.6041279e-35 9.800763e-09 0.17434132 0.11336701
1.1080405e-13 -1.5822342e-35 -1.5011674e-35 -1.61721e-35 1.5117934e-35 0.0004380621 2.6131472e-27 -4.825997e-05
1.5809089e-35 1.6017772e-35 -7.742635e-21 2.6364665e-15 -0.0001229446 -9.420283e-06 9.5843337e-14 2.7677172e-05
-1.5538755e-35 5.744481e-23 3.025399e-06 2.3965168e-24 0.00023485177 -1.6019458e-35 0.12813154 1.5866014e-35
0.17228706 5.879512e-24 -1.4945428e-35 -6.409203e-14 3.722223e-12 -9.623825e-06 0.051367685 0.18322317
0.17517257 -2.4527354e-17 3.095348e-05 -3.4795698e-06 -1.5248403e-35 0.044720933 1.3221227e-14 -1.5590886e-35
1.5287185e-35 0.00072159024 4.7857163e-11 -1.5967488e-35 -7.4323776e-05 0.12531824 0.19853288 1.5744839e-35
1.0591127e-06 9.156512e-12 0.11449251 -1.5404746e-35 4.5937676e-15 0.0043452545 -9.372564e-10 1.6028538e-35

core.core.fc.1.0.weight f4 [64, 128]
00000000: 5b57 a705 d0f3 e737 b0d0 c632 c59f ddb4
00000010: 2d69 062f a211 5c90 33a1 e63a 0c54 8f26
00000020: e590 b79f ebf3 a705 c07b b5aa baa9 5ab5
00000030: 5412 ad85 ab21 6db7 02ca d7b2 5130 0f24
00000040: 19fb a136 6c2b 3d31 5b43 5436 c64c 3ab4
00000050: b068 2035 4e51 b83c 5aad ab05 58b8 ed38
00000060: e3c4 4630 fe42 ad05 85e0 a685 65a3 bda4
00000070: 0617 c31a 5a64 463b 5f74 ebbb a881 713a
00000080: f3c6 4439 22d5 7cbb ae53 583d 012c 971a
00000090: 6306 3bae 6caa eead 7c1c 903a e5c4 a236
000000a0: c30e d910 4fdc b722 ccda 3134 fa12 72b7
000000b0: 3e16 a405 497c a3b9 d0b9 aa05 f543 a885
000000c0: 4a40 dab8 7b84 aa05 3c02 59b8 f9dd 4120
000000d0: 5af1 5ea2 17dd a33d f523 34b5 f1fd 983a
000000e0: 0dda 3d32 3583 ac05 1cd8 60bb 1a3c 3ca5
000000f0: 9686 8fb8 612b a705 d18a 6cb5 19c0 779c
00000100: f53f efbb b2c6 a83a 2820 22a6 be35 ad85
00000110: 9fe5 a005 9f44 932e 29b3 d1b9 b191 1f3b
00000120: 0024 96a5 c041 ab05 c78f ae85 dc6b ad05
00000130: 4d67 b785 e6be 2eb9 3031 b913 071c 4f39
00000140: 41b2 bc85 d141 aa85 442b 789d f0eb b2a8
00000150: 90d0 49b9 390c 1437 f32b 42ab 0fb1 4538
00000160: d4fb a405 ca72 5319 1326 39b6 9e10 1e99
00000170: 7221 c839 0989 a605 87b0 d23a 4f67 b205
00000180: effd 00bb 7933 8618 f950 ae05 db46 6d2b
00000190: def4 24ac 536b 6fb6 fa02 5d3b 197d 2c3d
000001a0: 676b f6ba d973 1f25 1283 9234 8167 4cb6
000001b0: d385 b085 80d6 8f3a 808e 06a8 167f af05
000001c0: 7a6b a805 ddc9 0bba c428 94b0 9427 a305
000001d0: 7ab5 a4b6 73ae 163b ee9e 233d bf89 a405
000001e0: 0eea 9133 0452 8fac 34c1 063b f03e ae85
000001f0: 354e 0ea9 77e6 1d38 fcd5 c331 9246 ac85
00000200: d84a ac05 8242 10ba b0ff d1af ffdc 8334
00000210: 8276 64ad 705a d991 5c1d 063e d441 56a6
00000220: 3cef 021f e5c5 ad05 c1d8 e72d 7a9c 47b5
00000230: 6940 aa85 4670 0d38 ac77 3d33 1cdd 23a4
00000240: 85a3 dfb6 94e4 46af 723a a4b6 082b f9b3
00000250: 00f7 d9b2 998f 3cbd 91b7 ac05 6021 0d39
00000260: 3a14 f930 bb8b aa85 8e9f a185 1cfe b0a4
00000270: 4054 3a99 74e9 983c f445 df3d 2c78 763d
00000280: 265b cbba ce44 9c3d f7ea 933b 0088 4a94
00000290: 1093 23ab 838a bc2f d1c1 cfba 46ab efb6
000002a0: 001a 5c0e 765c 03a3 10e2 2735 b1a9 1e36
000002b0: 8acb a905 0353 e639 0e91 a805 fc73 ad85
000002c0: 542a 9a39 b3a9 b105 9b21 66b8 7210 b41e
000002d0: e8ae f9a0 c665 35be 03bb 2334 08d9 09bb
000002e0: fb76 7fb3 76a2 9d85 233f 5b3b 8cbf 9ba3
000002f0: fd2c 29b9 e843 a985 c1f7 aeb5 e6c4 a59c
00000300: bb9a b93d aa63 1e3d 80b5 f025 bda8 9e05
00000310: fc0a ad85 84f1 322f 2a45 603d dd23 a43c
00000320: 5f85 dbaa 2a46 a305 118e ab85 34da a205
00000330: 3e40 a305 c4d9 6fb9 982c 5794 0ff9 c5b9
00000340: 2298 9e85 068a a305 9a7e 011f 4805 0927
00000350: 3e2c 8bb7 44ac 8936 00c5 18a6 f35c 4839
00000360: 5d93 a485 cdc4 db99 603d dcb2 9cea d896
00000370: 86ac 12ba cf3c bd85 0751 1c3d dfa1 ac85
00000380: f18d 863d 0d03 f098 c847 a685 484f 0ca9
00000390: a048 a42c fc3a 43b6 d897 e23a 9bed 343d
000003a0: a33b a63d 7bfa 95a3 81b0 5135 cedc f135
000003b0: 7791 a685 1eff 663b 56b6 c9a6 5297 a285
000003c0: 7263 aa05 8fb4 1e3a e61c 8cb0 a8e7 a985
000003d0: 5212 ca35 1887 2e3d 1cba 873d 3086 a805
000003e0: 74db 24b4 a311 9aad 9556 073d 5bdf 9d05
000003f0: c6f7 6627 7c75 4639 1898 ccaf 8f3d a485
1.5736694e-35 2.765088e-05 2.3145134e-08 -4.1280705e-07 1.2224595e-10 -4.3400934e-29 0.0017595649 9.945399e-16
-7.774322e-20 1.5794206e-35 -3.2237928e-13 -8.1458313e-07 -1.6275575e-35 -1.413414e-05 -2.5121157e-08 3.1049108e-17
4.8274055e-06 2.7527802e-09 3.1629668e-06 -1.735053e-07 5.9756985e-07 0.022499707 1.6144442e-35 0.00011335377
7.2311773e-10 1.6293451e-35 -1.569304e-35 -8.2242485e-17 8.0687306e-23 0.0030272217 -0.0071855034 0.00092127407
0.00018766131 -0.0038579185 0.05281418 6.252323e-23 -4.252455e-11 -2.713315e-11 0.0010994817 4.8508978e-06
8.561415e-29 4.983551e-18 1.6564007e-07 -1.4428742e-05 1.5430656e-35 -0.00031182382 1.605498e-35 -1.5823608e-35
-0.00010407025 1.6035389e-35 -5.1738913e-05 1.642118e-19 -3.021438e-18 0.08001154 -6.710755e-07 0.001167236
1.1050827e-08 1.6223e-35 -0.0034308499 -1.6326764e-16 -6.84384e-05 1.572054e-35 -8.8118856e-07 -8.1973725e-22
-0.0073013254 0.0012876599 -5.624862e-16 -1.6288584e-35 1.5130677e-35 6.6969756e-11 -0.0003999707 0.0024348313
-2.6045247e-16 1.6104915e-35 -1.6415697e-35 1.6308463e-35 -1.7247184e-35 -0.00016665048 4.674907e-27 0.000197515
-1.7744915e-35 -1.60109e-35 -3.2844895e-21 -1.9864291e-14 -0.0001924655 8.824333e-06 -6.8983637e-13 4.713336e-05
1.5514993e-35 1.0931626e-23 -2.758931e-06 -8.171764e-24 0.0003817189 1.5660904e-35 0.0016074338 1.6776989e-35
-0.0019682606 3.4690162e-24 1.6392626e-35 8.4297646e-13 -2.344173e-12 -3.5676246e-06 0.0033723698 0.04211149
-0.0018800319 1.3830302e-16 2.7289985e-07 -3.0458616e-06 -1.660012e-35 0.001097396 -7.469394e-15 1.6503605e-35
1.5838125e-35 -0.0005332509 -1.0780004e-09 1.5342985e-35 -4.9087075e-06 0.0022992163 0.03994649 1.5473086e-35
6.794663e-08 -4.07341e-12 0.0020561935 -1.6386001e-35 -3.1598168e-14 3.7646354e-05 5.699574e-09 -1.6200726e-35
1.6202296e-35 -0.00055030745 -3.8198555e-10 2.4561447e-07 -1.29866135e-11 -3.42923e-28 0.13097137 -7.433538e-16
2.772646e-20 1.6341537e-35 2.6357918e-11 -7.436098e-07 -1.6010384e-35 3.3721582e-05 4.4113833e-08 -3.5532278e-17
-6.664954e-06 -1.8089202e-10 -4.894385e-06 -1.16027934e-07 -2.5374447e-08 -0.046035383 1.6242234e-35 0.00013459241
1.8122883e-09 -1.6038052e-35 -1.5198978e-35 -7.675831e-17 -9.632989e-24 0.018666007 0.109020144 0.0601732
-0.0015514835 0.07630311 0.004514094 -1.0225215e-26 -5.8113323e-13 3.429542e-10 -0.0015850608 -7.142694e-06
2.7129612e-30 -7.121104e-18 6.254131e-07 2.3642608e-06 1.5967452e-35 0.00043930867 1.5851929e-35 -1.6311448e-35
0.00029404706 1.6707338e-35 -5.486757e-05 1.9065043e-20 -4.2297984e-19 -0.17714605 1.5248592e-07 -0.0021033902
-5.9480026e-08 -1.4823888e-35 0.003345438 -1.6886257e-17 -0.00016133855 -1.5917628e-35 -1.3036116e-06 -1.0969681e-21
0.090627156 0.038669266 4.1756353e-16 1.4920233e-35 -1.6272877e-35 1.6274809e-10 0.05475346 0.020036632
-3.899476e-13 1.535422e-35 -1.613295e-35 1.5314562e-35 1.5352045e-35 -0.0002287394 -1.0863521e-26 -0.0003776033
-1.4914133e-35 1.5379148e-35 2.7421535e-20 1.9015432e-15 -1.6590693e-05 4.1029725e-06 -5.300258e-16 0.00019108113
-1.5476619e-35 -2.2723556e-23 -2.5639281e-08 -3.5044741e-25 -0.0005595166 -1.7795812e-35 0.03816321 -1.6234264e-35
0.06570042 -6.2041626e-24 -1.5636933e-35 -3.115501e-14 4.6692233e-12 -2.9091598e-06 0.0017287685 0.04417191
0.081168436 -1.6260695e-17 7.8115414e-07 1.8020162e-06 -1.5664e-35 0.0035247277 -1.3996599e-15 -1.5289993e-35
1.6023254e-35 0.0006054127 -1.0194554e-09 -1.597778e-35 1.5055505e-06 0.042609304 0.066272944 1.5847937e-35
-1.5353527e-07 -1.7515605e-11 0.033041555 1.4846257e-35 3.205323e-15 0.00018926518 -3.7215453e-10 -1.5445099e-35

core.core.fc.1.0.bias f4 [64]
00000000: 99de af3c c6b4 1f3d fd28 303d 8cab 6f3b
00000010: c3d4 c53c f290 ca3b 181c 093d 88a7 793d
00000020: dc32 a43c d80f 073d a21b 503c 687a 1f3d
00000030: 6e42 db3c 0dde 253d 5ff0 003d d649 383b
00000040: 7ee6 2c3c c05a 233b 30ec ce3c 8415 303d
00000050: 38e8 f23c fa57 523d fb10 3a3d 24eb 3d3d
00000060: e4de 623d 3e0d 293b cd7f 41bb c2b4 293d
00000070: 0974 0fb9 1bb2 8739 59c9 313d 5a79 163d
00000080: e918 0d3c c74f aeba 7a10 7b3c 5825 053d
00000090: e1e2 1a3d 9fe6 6a3d 3185 8d3c fbb4 473d
000000a0: 8aad 803d e05b 053d 8b19 023c 56c7 8d3d
000000b0: 11dc 1d3d c848 603b bcf3 6b3d 4322 023d
000000c0: 3aea 963d c678 2a3d 11ef 603d 53db 133b
000000d0: b334 353d 0a55 cd3c 0b9c 133c a464 a63d
000000e0: 08c8 4c3d ca89 263d 7e4d 503d 4bc9 343d
000000f0: 9ecb a13c 66de b13c b204 2b3b 171f d93c
0.021468448 0.03899076 0.04300784 0.0036570756 0.024149304 0.0061818296 0.033474058 0.060950786
0.020043783 0.032974094 0.012701901 0.038935095 0.026765075 0.040494967 0.031479236 0.0028120182
0.0105530005 0.0024925917 0.025259107 0.04298927 0.029651746 0.051353432 0.04542635 0.046366826
0.055388346 0.0025795246 -0.0029525638 0.04143215 -0.00013680769 0.00025881905 0.04340491 0.036736824
0.008611896 -0.0013298922 0.015323753 0.032506317 0.037814025 0.057348844 0.017275425 0.04875658
0.062831 0.032558322 0.00794066 0.06922786 0.03853995 0.0034223069 0.05760549 0.031770956
0.07368894 0.041619085 0.05491549 0.0022561147 0.04423971 0.025064964 0.0090093715 0.081246644
0.049995452 0.04065875 0.050855152 0.04413728 0.019750413 0.021712493 0.0026095328 0.026504083

readout.readouts.bex_20230623_denoised.location.weight f4 [2, 64]
00000000: 483a 993b b2e8 1d3e 0b16 22be 09cd 06bd
00000010: 9e4c 24bd 33a5 a23c c96b 3cbd ce24 6ebd
00000020: 961b 04bf c747 493e 006c 08bd fc59 f73d
00000030: 0164 963e e9ea 453e 0a8c 44bd c5e8 823a
00000040: 15b3 d038 78e2 04bd 6c9d f8bd b4ad 8b3e
00000050: 3d58 08be 9c0f a93e ab92 a13e 036d 07be
00000060: 83f3 49bd 08f2 d0bc ae94 abbd d95d 233e
00000070: 992b 2cbc 38d7 1fbc 9454 813d cf81 1b3e
00000080: 1d58 31bd 2f3e 1cbd d05e dabd 9e21 66bd
00000090: e04d 1e3e 500c aa3e 7190 26bd 9cd4 573e
000000a0: 896f c7bd d63d de3d 646a ffbd 74e5 dc3c
000000b0: 8078 e73d 3d82 353d 1848 06bd 0998 06be
000000c0: 685f 023e 3245 8b3e 3edb aa3d 18d5 26bb
000000d0: 5862 933e a3c9 18be bc59 a1be 1153 993e
000000e0: b6e5 9a3e 5e6a dbbd 1cff 50be 5123 ffbd
000000f0: 63ed 653d 1b33 8abd f4c6 0f3c c5d6 dabe
00000100: 7d1e 03be e0ce 893d 7370 9fbd fc4f 29bd
00000110: 904e 543e 03c3 7abd d161 12be 633c 56be
00000120: 2e22 d73e 4a18 053d 131f e5bd fa44 283e
00000130: c30c 743e 1635 12bd 63c0 a03e 5dc4 28bd
00000140: 43d0 8cbd b4a4 67bd 6c8b 833e 58b6 623e
00000150: f93f 83bd 1fae 31bd 8faa 4d3d d4db 0bbe
00000160: c34a 64be 8b72 77bd f13c bd3d 4df4 a63e
00000170: 8781 debc 3fd9 adbc 8906 783e 3a76 5d3e
00000180: 8ab1 bdbd bde8 8a3d 07e5 9ebd 4154 03be
00000190: 7ada 5a3e c504 01bd 2146 03be 8268 2ebe
000001a0: 0a0c edbd 5852 a93d 211f e3bb fa2a 8bbe
000001b0: ba99 723e b901 b63d 32ff 5bbe f6e1 b13e
000001c0: 25c8 90be 115f 423e db5d 68be 9e19 123d
000001d0: 36d0 003e d7f2 cfbd 7380 f33e 951b 12be
000001e0: 8356 ad3d fad1 1abe 324b 9839 32a9 0dbe
000001f0: 9568 143e 3e8b b03e d936 8b3c 060d 9b3e
0.004676137 0.15420797 -0.15828721 -0.03291038 -0.04011213 0.019854164 -0.04600123 -0.05814057
-0.5160459 0.19656287 -0.03330612 0.1207771 0.29373172 0.19327892 -0.047985114 0.0009987584
9.9515695e-05 -0.03244254 -0.12139401 0.27280962 -0.1331491 0.33019722 0.3155721 -0.13225178
-0.049304496 -0.025506034 -0.08377968 0.15953769 -0.010508441 -0.009755902 0.0631496 0.15186237
-0.043296922 -0.03814524 -0.10662615 -0.056184404 0.15459394 0.3321252 -0.040665094 0.21077198
-0.097380705 0.10851638 -0.12471464 0.02696488 0.113022804 0.044313658 -0.032783598 -0.13143934
0.12731707 0.2720123 0.083425984 -0.0025456604 0.28785968 -0.14920668 -0.31513774 0.29946187
0.3025338 -0.10713647 -0.20409817 -0.12457908 0.056134593 -0.06748029 0.008775461 -0.4274198
-0.12804599 0.067289114 -0.0778512 -0.041336045 0.20733094 -0.061221134 -0.14295126 -0.20921473
0.42018265 0.032493867 -0.111875676 0.16432562 0.23832993 -0.035695158 0.3139678 -0.04120289
-0.0687566 -0.056553558 0.25692308 0.22139871 -0.06408686 -0.043378945 0.050211485 -0.13658077
-0.22294144 -0.06041197 0.09240139 0.32608262 -0.027161373 -0.021221755 0.24221243 0.21627131
-0.092623785 0.067826726 -0.07758527 -0.12825109 0.21372405 -0.03149869 -0.12819721 -0.17032054
-0.11574562 0.08267659 -0.006931201 -0.27181226 0.23691455 0.08887047 -0.21484068 0.34742707
-0.28277698 0.18981577 -0.22692053 0.03566896 0.12579426 -0.1015374 0.47558936 -0.14268334
0.084637664 -0.15119162 0.00029047724 -0.13834074 0.1449302 0.34481233 0.016993927 0.30283374

readout.readouts.bex_20230623_denoised.location.bias f4 [2]
00000000: 537e f53c 8cc0 bc3d
0.029967463 0.09216413

readout.readouts.ken_20230614_denoised.location.weight f4 [2, 64]
00000000: 26f6 aa3c 7124 8ab9 f128 7e3d 49f5 c4bc
00000010: 03ff 413e 9967 1cbd c845 37bd 6639 33bd
00000020: e746 da3e 6758 34bd f402 98bc 1162 c33c
00000030: 5347 20be 71cd e0bd f40c 723e 0c22 26bc
00000040: 4e71 eebc 0270 323a 19f3 1b3e 3eeb 97bd
00000050: 9a4b 993d 373e 80be 4a4e 0ebe b476 bc3d
00000060: 7152 6cbd da83 e8ba 9847 963d a20f 333e
00000070: eb31 ddbc d9bf 2abc 271f 883d 0b77 06bd
00000080: 39e1 f2bc 2aeb af3d 0ff3 f93b d9e0 ebba
00000090: 02ad 763d 5196 72be f96e babc b5fe c1bd
000000a0: 1dd9 e73d e9ca d23d 8bdc 1e3d 6d3e 83bd
000000b0: 5829 3b3e 1467 933c 4650 183d a4f8 723e
000000c0: 1320 0abe 444e 0cbe d364 c4bd 3883 e1bc
000000d0: a87a 13be a99c b63d d10e 963e 9ed7 0dbe
000000e0: 4c45 f5bd b9c8 683a d6b7 7c3e a741 60bb
000000f0: 6da9 4a3d b22a 443e dab9 823b 8042 bd3e
00000100: 8061 8bbd 55d7 4b3e 5996 60be 1717 95bd
00000110: e572 123e c389 fcbc a6fb 03be 33bb 6abe
00000120: c46d 87bd 7109 133e 7b2e 81bd 406b 743e
00000130: 83fb 9f3e 32b1 a43d dd35 463e a906 7ebc
00000140: 6bd3 8ebd 8c2d 21bd 1fcf 323e 8a7f c53e
00000150: fc97 18be 79a1 523e 8f4f 993e a9f7 5ebe
00000160: 8dc4 56be 1e56 16bd fd2d 983d 8e79 a23e
00000170: 7b2c 873b a5ae 67bc a9ef 773e 9ad8 9d3e
00000180: 00d4 8abd 3419 8a3d 098c 03be bc97 0ebe
00000190: 44f7 2f3e 94bc 393e ff28 c8bd 8861 183d
000001a0: b14a 85be 8785 283e 04c2 d9bd 8282 6ebe
000001b0: b49d 133e 9b9b 9a3d 7949 73be cd4e 193e
000001c0: ca92 2dbe c88e 903e 4886 1fbe 8473 ff3d
000001d0: 18f3 5d3e 063e 00be 505c 583e e550 1c3d
000001e0: 3086 863e a5f0 44be 1888 53be e5bf 4fbe
000001f0: c543 133e 7c4f 893e 3902 2fbd d254 2a3d
0.020869326 -0.00026348562 0.062050764 -0.024042742 0.18944936 -0.038184736 -0.044744283 -0.04375591
0.4263222 -0.04402962 -0.018556096 0.023850473 -0.15652208 -0.10976685 0.23637754 -0.010139953
-0.029106762 0.00068068516 0.15229453 -0.07417916 0.07485123 -0.25047466 -0.13897052 0.09202328
-0.05769581 -0.001773949 0.07337874 0.17486432 -0.027001342 -0.010421717 0.06646567 -0.032828372
-0.02964841 0.08589776 0.007627852 -0.0017996087 0.060223587 -0.23690154 -0.022757994 -0.0947241
0.11320708 0.10292608 0.038784545 -0.06408391 0.1827749 0.017993487 0.03718593 0.23727661
-0.13488798 -0.13701731 -0.09589543 -0.02752839 -0.14402258 0.08916599 0.2930818 -0.13851783
-0.11976108 0.00088800077 0.24679503 -0.003421882 0.049477983 0.19156912 0.0039894404 0.36964798
-0.06805706 0.19906361 -0.21932353 -0.07279795 0.14301641 -0.030827409 -0.12888965 -0.22922973
-0.06612733 0.1435907 -0.063076936 0.23869038 0.31246576 0.0804161 0.19356485 -0.015504518
-0.069739185 -0.039350078 0.17461823 0.38573867 -0.14901727 0.2056941 0.2994351 -0.21774162
-0.20973416 -0.03670322 0.074306466 0.31733364 0.0041251755 -0.01414076 0.24212517 0.30829316
-0.06778717 0.06743088 -0.12846388 -0.1392507 0.17184168 0.18138343 -0.097734444 0.037202388
-0.26033548 0.16457187 -0.10632709 -0.23291972 0.14415628 0.07549211 -0.23758496 0.14971466
-0.16950527 0.28233933 -0.15578568 0.12473205 0.21674764 -0.1252366 0.21128964 0.038163085
0.26274252 -0.19232424 -0.20657384 -0.20288046 0.14381321 0.26818454 -0.04272673 0.041584797

readout.readouts.ken_20230614_denoised.location.bias f4 [2]
00000000: a43e 963d ef9f cfbd
0.073361665 -0.10137927
