artifacts/poses_to_location/20250818182117/best_model.pt (torch, 376885 bytes, 48 tensors)

embedding.embeddings.bex_20230623_denoised.poses.weight f4 [64, 63]
0	0x3cf66f1c	0.030082278
1	0xbc1869c0	-0.0093025565
2	0xbc27f01c	-0.010250118
3	0x3d5f0df8	0.05445668
4	0x3d8cec71	0.06881035
5	0xbcd1711e	-0.025566634
6	0x3d0aa7c4	0.0338514
7	0xbae84b95	-0.001772272
8	0x3c807f0e	0.015685584
9	0x3be07c5f	0.0068507637
10	0x3d0a7b17	0.033808794
11	0xbbcf5810	-0.0063276365
12	0x3d1ed55d	0.038777698
13	0xbd669357	-0.056292858
14	0x3d0d2607	0.034460094
15	0x3b1274bb	0.0022347409
16	0x3c59359d	0.013257411
17	0x3cba358f	0.022730617
18	0x3b8ac60a	0.004235034
19	0x3d2babdf	0.041911956
20	0x3cc082eb	0.023499927
21	0x3c7a365d	0.01527175
22	0xbce06cc2	-0.02739561
23	0xbdee8322	-0.11646105
24	0xbca0cccc	-0.019628905
25	0xbd3501ef	-0.044191297
26	0x3d157b9b	0.036494832
27	0x3c91dc40	0.017805219
28	0x3bb456a6	0.0055034934
29	0xbb0150d9	-0.0019732027
30	0x3d06ec18	0.03294
31	0xbc5fe8ce	-0.013666345
32	0x3d81d627	0.063396744
33	0xbc9104ee	-0.017702546
34	0x3c7a19bd	0.015264926
35	0xbd2867bc	-0.041114554
36	0xbc9f6773	-0.019458508
37	0xbc38f326	-0.01128844
38	0x3bd22877	0.006413515
39	0xbc0ca9dc	-0.0085854195
40	0xbc0ac8be	-0.008470712
41	0x3917f995	0.00014493459
42	0x3cfde667	0.030993653
43	0xbd11de1b	-0.035612207
44	0xbc8e2a2a	-0.01735409
45	0x3b52e87a	0.0032182024
46	0xbce8f9b4	-0.02843938
47	0x3bd4b519	0.006491315
48	0x3b09056e	0.0020907777
49	0x328f7ee4	1.6705094e-08
50	0x328eca40	1.6622948e-08
51	0xbb090405	-0.0020906937
52	0x2f006804	1.1678486e-10
53	0xae9206bc	-6.6405076e-11
54	0x3bf0300b	0.007329946
55	0x3b5c2335	0.003359032
56	0xbb3de45d	-0.0028975226
57	0xbc8554c2	-0.016275767
58	0xbaff1987	-0.0019462564
59	0x3c610c0b	0.013735781
60	0xbd00ccf8	-0.031445473
61	0xbb0904ce	-0.0020907405
62	0x2f0b65c9	1.2678138e-10
63	0xb618d579	-2.2774022e-06
64	0x3630f34f	2.6367668e-06
65	0xb6256586	-2.464601e-06
66	0xb5fe5ea2	-1.8952016e-06
67	0x36ccf94e	6.1086967e-06
68	0xb641f50f	-2.8901884e-06
69	0xb617c528	-2.2615513e-06
70	0x363c01c9	2.8015222e-06
71	0xb62fe09a	-2.6207767e-06
72	0x36b163ed	5.286644e-06
73	0x36b111e0	5.277092e-06
74	0xb603aa19	-1.961953e-06
75	0x36af9208	5.2324067e-06
76	0x365f95f0	3.3316865e-06
77	0xb61d24fa	-2.3416346e-06
78	0x3689beac	4.1051153e-06
79	0x362d5d24	2.5833224e-06
80	0xb60bdbfa	-2.0840657e-06
81	0xb5065652	-5.00445e-07
82	0xb4dd6f68	-4.1245517e-07
83	0xb5e9c832	-1.7418117e-06
84	0xb53d10ea	-7.04326e-07
85	0xb60a4008	-2.0600874e-06
86	0xb65f743c	-3.3297247e-06
87	0xb59327b0	-1.0963904e-06
88	0xb632e61e	-2.6658013e-06
89	0xb5f93df2	-1.8569974e-06
90	0x36871aa4	4.026415e-06
91	0xb611b372	-2.1711135e-06
92	0xb60dc29e	-2.112392e-06
93	0x36c155c7	5.761834e-06
94	0xb61fadd1	-2.379402e-06
95	0xb5c71924	-1.4833972e-06
96	0x3698d43e	4.5546612e-06
97	0xb5f95962	-1.857796e-06
98	0xb64017d6	-2.8624104e-06
99	0x368aec72	4.1402463e-06
100	0xb5dad66a	-1.6304668e-06
101	0xb60e38d1	-2.119272e-06
102	0x368cdb74	4.197873e-06
103	0xb624848a	-2.4515052e-06
104	0xb6221d45	-2.4156918e-06
105	0x37023bb5	7.762505e-06
106	0xb6ceaf0e	-6.1596575e-06
107	0xb695030c	-4.4409007e-06
108	0xb64e429c	-3.0735164e-06
109	0xb66bf9c1	-3.5163105e-06
110	0x3670445a	3.5802573e-06
111	0xb66cc75c	-3.5282783e-06
112	0x2be60569	1.6343985e-12
113	0x2c929f9f	4.167291e-12
114	0x366ad8f4	3.4995e-06
115	0x28ed05db	2.6314825e-14
116	0x29440864	4.352802e-14
117	0x36befb96	5.6917297e-06
118	0x36c0da96	5.7474927e-06
119	0xb556664f	-7.987009e-07
120	0x37179cee	9.036839e-06
121	0x36aa4c74	5.075295e-06
122	0xb56a6145	-8.731334e-07
123	0x3585d893	9.972304e-07
124	0x3668f3af	3.4712536e-06
125	0x29163ca4	3.3359288e-14
126	0x3d0f4432	0.034977145
127	0xbc9e43bd	-0.01931941
128	0x3c825aa9	0.01591237
129	0x3d1ade36	0.037809573
130	0xb8a75060	-7.9781516e-05
131	0x3d2c6bf9	0.04209516
132	0x3c507f29	0.01272563
133	0xbd574dd9	-0.052564476
134	0x3dd733ec	0.1050795
135	0x3ceec56c	0.029146872
136	0x3ce8cbda	0.028417516
137	0x3c6325dc	0.013864007
138	0x3d3aea66	0.045633696
139	0xbcbc2e44	-0.02297128
140	0xbb993052	-0.0046749497
141	0x3e3493ad	0.17634459
142	0xbe0a2bd3	-0.1349328
143	0x3e1c384e	0.15255854
144	0xbd00de0f	-0.03146177
145	0x3c1474cc	0.00906105
146	0xbc513146	-0.012768095
147	0xbc80d78a	-0.015727777
148	0xbcffe2b6	-0.031236034
149	0x3c205293	0.009785312
150	0xbe06c7ea	-0.13162199
151	0x3ca5528a	0.02018096
152	0x3d8a2493	0.06745257
153	0xbca58d73	-0.02020905
154	0x3badd041	0.005304367
155	0xbc74af76	-0.014934411
156	0x3d86b627	0.065777116
157	0xbd059943	-0.032616865
158	0x3d4d53cf	0.050128754
159	0x3e1fd385	0.15608032
160	0x3d697d44	0.05700423
161	0xbe14427b	-0.14478485
162	0x3ccf366e	0.025294509
163	0xbd6752be	-0.056475393
164	0xbca1e8a4	-0.019764252
165	0xbc8ad45c	-0.016946964
166	0x3d933b4d	0.07189045
167	0x3c83f290	0.016106874
168	0x3dba08e5	0.09083728
169	0x3c955d67	0.018233014
170	0x3d454cf1	0.04816908
171	0x3d9ade36	0.075619146
172	0x3dd0af2b	0.10189661
173	0xbe008d26	-0.12553844
174	0xbb9b53c1	-0.004740209
175	0x343efe14	1.7787562e-07
176	0x3463f878	2.1231415e-07
177	0x3b9b5468	0.0047402866
178	0x2f92bde4	2.669217e-10
179	0x2fd69f22	3.9039444e-10
180	0xbd74460a	-0.059637107
181	0xbd394a11	-0.04523665
182	0xbc86e67b	-0.016467324
183	0x3d4254ea	0.04744426
184	0xbd257de3	-0.040403258
185	0xbcbd9ccd	-0.023146058
186	0xbcfeab64	-0.031087585
187	0x3b9b545e	0.004740282
188	0x30c1ec0c	1.4109687e-09
189	0xbc95ffb7	-0.01831041
190	0x3be6f50e	0.0070482558
191	0x3a8cd4f3	0.0010744616
192	0xbcff960f	-0.031199483
193	0xbd0d1536	-0.034444056
194	0x3bada066	0.005298662
195	0xbc990c67	-0.018682672
196	0x3bdfb255	0.0068266788
197	0xbca9925b	-0.02069967
198	0xbbbf4dbd	-0.0058381245
199	0xbca6f428	-0.020380095
200	0xba18323c	-0.00058058253
201	0xbcc5096f	-0.02405235
202	0x3cfb2e07	0.030661596
203	0xbc8af0cd	-0.016960526
204	0xbcb666c0	-0.022265792
205	0x3c06bd6e	0.0082238745
206	0xbcf29a5a	-0.029614616
207	0x3b33369a	0.0027345777
208	0xbcb71c6f	-0.022352425
209	0xbbdfbee2	-0.006828175
210	0xbba030df	-0.0048886384
211	0x3c8cc5bc	0.01718413
212	0x3d5485c7	0.051885393
213	0x3cd4df28	0.025985315
214	0x3c951c23	0.018201893
215	0xbcf5042e	-0.02990922
216	0xbba1db0e	-0.0049394434
217	0xbb781acc	-0.003785777
218	0x3ae801ad	0.0017700695
219	0xbcbd1beb	-0.023084601
220	0x3c2e38fc	0.010633703
221	0xbd2b9d54	-0.041898087
222	0xbc15c89f	-0.00914207
223	0xbc8993d7	-0.016794128
224	0x3d2c239b	0.042026144
225	0x3c0b6014	0.0085067935
226	0x3c585a4d	0.013205123
227	0xbb25e75a	-0.0025314898
228	0x3bf3ea84	0.007443728
229	0xbbf64680	-0.0075157285
230	0xbb760de7	-0.0037544908
231	0xbccc01ac	-0.024903141
232	0x3c811124	0.015755244
233	0x3b511600	0.0031903982
234	0xbc1f3d93	-0.00971927
235	0x3b1f95dd	0.00243508
236	0x3c3969d5	0.011316736
237	0xba465229	-0.00075653434
238	0xb2b9a48a	-2.1611658e-08
239	0xb2a5b46c	-1.9290574e-08
240	0x3a464e44	0.0007564763
241	0xad5d8332	-1.2591527e-11
242	0xaead70c8	-7.887163e-11
243	0x3b1b0d5b	0.0023659084
244	0x3b7181b9	0.0036851002
245	0x3b641349	0.0034801534
246	0x3b19f6ae	0.002349298
247	0x3bbf39f4	0.005835766
248	0xbb9015ff	-0.0043971534
249	0x3c9a3165	0.018822381
250	0x3a465075	0.00075650896
251	0x2ed5edc4	9.728354e-11
252	0x3b4ac052	0.0030937386
253	0xbb060911	-0.0020452181
254	0x3a3a5c64	0.0007109104
255	0x3acef0b6	0.001578829

embedding.embeddings.bex_20230623_denoised.poses.bias f4 [64]
0	0xbd27aac2	-0.04093433
1	0x363ffd88	2.8608792e-06
2	0x3d5c14ae	0.05373066
3	0x3a8367a0	0.001002539
4	0xbb4d7148	-0.0031348038
5	0xbd8e1718	-0.069379985
6	0xba051f7e	-0.000507824
7	0xb59488d6	-1.1066684e-06
8	0x37858e48	1.592109e-05
9	0xbe27a355	-0.163709
10	0x348a410e	2.5751837e-07
11	0xbdc2cd03	-0.09511759
12	0xbc71844f	-0.0147410175
13	0x3c797294	0.015225071
14	0xbe07adfe	-0.13249967
15	0xbcbb6d7a	-0.02287935
16	0x3a737432	0.0009287029
17	0xb9ad2e9b	-0.00033031855
18	0xbae5676f	-0.0017502139
19	0xbdd129a4	-0.102130204
20	0xba995261	-0.0011697524
21	0x3a805a62	0.0009792561
22	0xbe000b1b	-0.12504236
23	0xb7c0672c	-2.2936227e-05
24	0x38af0dca	8.347219e-05
25	0xbdf85d5e	-0.121271834
26	0x3d011643	0.03151537
27	0xba8df09d	-0.0010829155
28	0x391ab816	0.00014755162
29	0xbd2bd672	-0.041952558
30	0xb882d8b0	-6.239244e-05
31	0xba6a1c0e	-0.0008930572
32	0xbdeec04c	-0.116577715
33	0xba21577f	-0.00061547005
34	0xbd3593eb	-0.04433052
35	0xb78318af	-1.5627911e-05
36	0xbc66f935	-0.0140975015
37	0xbe29d958	-0.16586816
38	0xbcdf8805	-0.027286539
39	0xbe1582d9	-0.14600696
40	0x3a013714	0.0004929167
41	0xbb14f775	-0.0022730504
42	0x3dcd3efd	0.1002178
43	0x3b8e000c	0.0043335017
44	0x3c08a3e1	0.008339853
45	0xbe04f76b	-0.12985007
46	0x3d3275c3	0.043569338
47	0xba9fdff2	-0.0012197478
48	0xb9fd345c	-0.0004829493
49	0x3e3f2e4f	0.18670009
50	0x3d397f8f	0.045287665
51	0xbe0da52b	-0.13832538
52	0xbdef3866	-0.11680679
53	0xbe0bdc01	-0.13658144
54	0x3b3ca08c	0.0028782217
55	0x3c1f45f5	0.009721269
56	0xb868aae0	-5.547225e-05
57	0xbb401180	-0.0029307306
58	0xbd98e46e	-0.074654445
59	0x38a8d4a2	8.05047e-05
60	0xb890cc2e	-6.9044865e-05
61	0xb88202ed	-6.199428e-05
62	0x3abe6069	0.0014524582
63	0x3aa7c24e	0.0012798996

embedding.embeddings.ken_20230614_denoised.poses.weight f4 [64, 63]
0	0xbc013f04	-0.007888559
1	0x3bf8891c	0.007584704
2	0x3a925a2e	0.0011165792
3	0x3d0284e3	0.031865012
4	0x3ca614f8	0.02027367
5	0x3b9af9bf	0.004729479
6	0x3c568980	0.013094306
7	0xbc1989aa	-0.009371201
8	0x3b8aa591	0.004231163
9	0xbc34426d	-0.011002165
10	0x3cad1c71	0.021131726
11	0x3924a768	0.00015702622
12	0xbae25ec1	-0.001727067
13	0xbc570049	-0.013122627
14	0x3c0aa703	0.00846267
15	0xbb9451e5	-0.004526364
16	0x3b073f8b	0.002063724
17	0x3ca1aed4	0.019736685
18	0xbc5eb637	-0.013593248
19	0x3c532661	0.012887568
20	0xbb7716d6	-0.003770282
21	0xbb83b35d	-0.0040191845
22	0x3c340b0e	0.010988964
23	0xbc831bf8	-0.016004547
24	0x3bde35ca	0.0067813145
25	0xbc14fc2b	-0.009093325
26	0x3c8a9768	0.0169179
27	0xbb6b6213	-0.003591661
28	0xbbd1e876	-0.0064058853
29	0xbc0934e6	-0.008374428
30	0xbbbc5f75	-0.005748684
31	0xbc6236cd	-0.013807011
32	0xbb3fc0a2	-0.0029259105
33	0x3b5b030e	0.0033418569
34	0x3c0ef7ee	0.008726103
35	0x3b47eb03	0.0030505068
36	0x3d13060f	0.03589445
37	0x3ad6a326	0.0016375526
38	0xbb479df2	-0.0030459133
39	0x3be41eae	0.006961665
40	0xbb93ba08	-0.0045082606
41	0xbb419fd0	-0.0029544719
42	0x3bd81d7f	0.006595313
43	0x3b24fb69	0.0025174266
44	0x3c8d25be	0.017229911
45	0x3cbabbcf	0.022794632
46	0xbc2400c6	-0.01000995
47	0xbc297e3d	-0.010345039
48	0x3b1ad7bc	0.0023627123
49	0x31d19fa0	6.100848e-09
50	0x32957670	1.7399742e-08
51	0xbb1ad656	-0.002362629
52	0xb022ea50	-5.9268235e-10
53	0x2f336136	1.6314491e-10
54	0x3d4e7da9	0.050412808
55	0xbba6248b	-0.005070274
56	0xbd50e619	-0.05100069
57	0x3b5c1094	0.0033579217
58	0xbcdecb93	-0.027196681
59	0x3cfbea0d	0.030751253
60	0x3a077f60	0.00051688217
61	0xbb1ad76e	-0.0023626941
62	0xb1782a23	-3.6112702e-09
63	0x3709f4ca	8.222831e-06
64	0xb6dbe7d3	-6.5536965e-06
65	0x3701261a	7.69787e-06
66	0x3729cd28	1.0120952e-05
67	0xb6e00654	-6.676457e-06
68	0x36febbd1	7.5916546e-06
69	0x370dbc5c	8.448111e-06
70	0xb73ddd98	-1.1316872e-05
71	0x37196946	9.1440215e-06
72	0xb704e719	-7.92162e-06
73	0xb6fa3ad0	-7.4574273e-06
74	0x3702c53c	7.794526e-06
75	0xb6b18e1e	-5.2915557e-06
76	0xb719712b	-9.14586e-06
77	0x3709a3a5	8.203938e-06
78	0xb6e279dd	-6.7495116e-06
79	0xb714c709	-8.867829e-06
80	0x37307b84	1.0519176e-05
81	0x3726fb4b	9.95288e-06
82	0x3718a2a3	9.097773e-06
83	0x36db265a	6.5311733e-06
84	0x37389100	1.1001015e-05
85	0x37151770	8.886549e-06
86	0x36d18e4c	6.245251e-06
87	0x37465040	1.1820404e-05
88	0x36eb7556	7.0172055e-06
89	0x36effe3a	7.152351e-06
90	0xb49e2ba2	-2.946154e-07
91	0x372043e6	9.552552e-06
92	0x36e3f8f7	6.7941105e-06
93	0xb693d57c	-4.4057942e-06
94	0x37163e3c	8.955187e-06
95	0x36e9003a	6.9439675e-06
96	0xb659637c	-3.2393427e-06
97	0x3706966b	8.022044e-06
98	0x36e0b49d	6.6967464e-06
99	0x3784d7e2	1.5836154e-05
100	0x37045794	7.888204e-06
101	0x36e0f37e	6.7040664e-06
102	0x36e48c30	6.8112495e-06
103	0x36f12c77	7.187536e-06
104	0x36e07292	6.689058e-06
105	0x36a9b869	5.0580607e-06
106	0x372ab270	1.0174335e-05
107	0x374b61d0	1.2122517e-05
108	0xb623ee35	-2.4427547e-06
109	0x3689273e	4.0874866e-06
110	0xb71d3897	-9.371105e-06
111	0x370161d0	7.711773e-06
112	0x2c50ed98	2.9690469e-12
113	0xac7edaa9	-3.6216952e-12
114	0xb7010ef9	-7.692485e-06
115	0xa9055f82	-2.9614772e-14
116	0xa9132ac5	-3.2677654e-14
117	0x375932d6	1.2946044e-05
118	0xb60fca77	-2.142651e-06
119	0x352d17d4	6.4482197e-07
120	0xb6ff12be	-7.601774e-06
121	0xb70155df	-7.708993e-06
122	0x36975f4b	4.5112442e-06
123	0xb6db3da9	-6.533887e-06
124	0xb6fdbe98	-7.5621756e-06
125	0x2afaf1c5	4.4576682e-13
126	0xba5737dd	-0.00082099234
127	0x3c92ed5c	0.017935447
128	0x3bafd7dd	0.005366309
129	0xbd0ff508	-0.03514579
130	0xbda705e1	-0.08155418
131	0x3d8086c2	0.06275703
132	0x3d0768e8	0.03305903
133	0xbdaa2ff9	-0.08309931
134	0x3daf6d51	0.08565772
135	0xbc2e2cd5	-0.010630806
136	0x3cc2535e	0.023721393
137	0x3c694150	0.014236763
138	0x3cf11276	0.029427748
139	0x3c68759b	0.014188196
140	0x3d006c9e	0.031353585
141	0x3dc5ae36	0.09652369
142	0xbdd600aa	-0.104493454
143	0x3c975b5c	0.01847618
144	0xbd7fa969	-0.06241742
145	0x3d0bb2e9	0.03410617
146	0x3d013d5d	0.03155266
147	0xbd2159ca	-0.03939227
148	0xbcf13dff	-0.029448507
149	0xbd57bbc7	-0.052669313
150	0xbd043641	-0.032278303
151	0xbcf743d6	-0.030183714
152	0x3d294a37	0.041330542
153	0x3cf36298	0.0297101
154	0xbc4da2d9	-0.012551033
155	0x3a0c47a1	0.000535125
156	0xbd920856	-0.07130496
157	0x3ce03d5a	0.027373005
158	0xbd81b5a0	-0.0633347
159	0x3b816251	0.003948488
160	0x3d90849b	0.070565425
161	0x3abd5e28	0.0014447616
162	0x3e19ad3d	0.15007491
163	0x3cc05a8e	0.02348068
164	0x3c70b082	0.01469052
165	0x3b8260b4	0.003978813
166	0x3c668a8d	0.014071119
167	0xb9a91b40	-0.00032254495
168	0x3dba3761	0.09092594
169	0xbcd00c16	-0.025396388
170	0x3e06a803	0.13150029
171	0x3c289b67	0.010290957
172	0xbc9088f3	-0.017643427
173	0xbda37e45	-0.079830684
174	0xbc349e74	-0.011024106
175	0x32df294a	2.5979393e-08
176	0x34298974	1.5789357e-07
177	0x3c349ed1	0.011024193
178	0xb0dfde4a	-1.6288564e-09
179	0x2f063c22	1.2208592e-10
180	0x3d0b530d	0.03401475
181	0xbd19f0ee	-0.037583284
182	0xbd02fb16	-0.031977735
183	0xbc8fd7e1	-0.017558994
184	0xbd8eae21	-0.06966806
185	0x3c2645f2	0.010148512
186	0xbc8ad842	-0.016948823
187	0x3c349ede	0.011024205
188	0x31340474	2.6195979e-09
189	0x3b767aea	0.0037609884
190	0xbbb92364	-0.005649971
191	0xbb154786	-0.0022778227
192	0xbc4f225f	-0.012642472
193	0xba80b50f	-0.0009819585
194	0xbc4146df	-0.011796682
195	0xbc34224c	-0.010994505
196	0x3c61c193	0.013779062
197	0xbc44f488	-0.012021191
198	0x3bea4e5f	0.007150456
199	0xbc594700	-0.013261557
200	0xbb40ebdd	-0.002943746
201	0xbb073341	-0.0020629915
202	0x3bab65e2	0.0052306512
203	0xbc18b66e	-0.009320838
204	0xbc0e6600	-0.008691311
205	0x3c28c4a0	0.010300785
206	0xbc48b244	-0.012249533
207	0x3c609cc2	0.013709249
208	0xbc26f31b	-0.010189797
209	0xbbfabe49	-0.0076520783
210	0x3bcf97ab	0.006335219
211	0xbaf951ec	-0.0019021607
212	0x3c8394d4	0.016062178
213	0x38ff3ea7	0.000121710174
214	0x3c0a677c	0.008447524
215	0xbc845ed0	-0.016158491
216	0xbac7ecbf	-0.0015253051
217	0x3ba5415c	0.005043192
218	0x39d747e3	0.00041061555
219	0x3c38b15f	0.011272757
220	0x3b844bb6	0.0040373458
221	0x3c38e40a	0.0112848375
222	0xbaeae8ce	-0.0017922164
223	0xbc66d149	-0.014087983
224	0xbb3ee6a9	-0.0029129183
225	0xbd0f89e1	-0.0350436
226	0xbb81486d	-0.0039454014
227	0xbb3907cc	-0.0028233407
228	0xbb80b627	-0.0039279643
229	0x39090b8a	0.00013069637
230	0x3a086e11	0.00052043895
231	0xbc6799f1	-0.014135824
232	0x3adffab4	0.0017088265
233	0xbcbe407e	-0.023224112
234	0xbc5c3eee	-0.013442738
235	0x3bf07290	0.0073378757
236	0x3c717810	0.014738098
237	0xb95a74c9	-0.00020833606
238	0xb3110590	-3.3765502e-08
239	0x31dbc9de	6.3966885e-09
240	0x395a7094	0.00020832039
241	0x2e538be6	4.81001e-11
242	0x2fa6e17d	3.0355443e-10
243	0xbce906ab	-0.028445562
244	0x3bf6e9fc	0.0075352173
245	0x3cecbeb6	0.028899532
246	0x3663de60	3.3955075e-06
247	0x3cb52426	0.022111963
248	0xbc89d690	-0.016825944
249	0x3adac06d	0.0016689427
250	0x395a69d5	0.00020829526
251	0x30c920b2	1.4633967e-09
252	0xbc0c1fe1	-0.008552522
253	0x3ba0c5b3	0.00490638
254	0xbbe3eeae	-0.006955943
255	0xbc5f65e3	-0.0136351315

embedding.embeddings.ken_20230614_denoised.poses.bias f4 [64]
0	0xbcba3ab0	-0.022733063
1	0xb6db847e	-6.5421327e-06
2	0x3e076dda	0.13225499
3	0xbc8cd459	-0.017191099
4	0x3ba94cea	0.0051666396
5	0xbe0a1fe6	-0.13488731
6	0x397a2e58	0.00023859122
7	0x3788aa9e	1.6291913e-05
8	0x390fba94	0.00013707048
9	0xbe8aac6b	-0.2708467
10	0x33469f9c	4.624563e-08
11	0xbe314393	-0.17310934
12	0xbacd75d6	-0.0015675377
13	0x3e142ba7	0.14469777
14	0xbe6037af	-0.21896242
15	0xbd36b22c	-0.04460351
16	0xba85c9d8	-0.0010207249
17	0x3aa302c3	0.0012436736
18	0x3ae54eab	0.0017494758
19	0xbe4d10fe	-0.20026013
20	0x39f21fc8	0.00046181516
21	0x39de987a	0.00042456744
22	0xbe2a7985	-0.16647919
23	0x34dfb330	4.1667363e-07
24	0x398db2d9	0.00027026868
25	0xbdc63434	-0.09677926
26	0x3c840256	0.016114395
27	0x3ad7c4d3	0.0016461856
28	0x37bf7e8c	2.2827902e-05
29	0xbd11d4e4	-0.03560342
30	0x381b752f	3.7064015e-05
31	0x3ab760d7	0.0013990653
32	0xbe15e9a5	-0.1463991
33	0x3a874172	0.0010319187
34	0xbd6fecf2	-0.058575578
35	0x3858c582	5.1682357e-05
36	0xbe09b3b4	-0.13447458
37	0xbe4b5943	-0.1985827
38	0xbc9e1317	-0.019296212
39	0xbe7db868	-0.24777377
40	0xbbaf6c44	-0.0053534824
41	0x3cdf5943	0.027264243
42	0x3e15d8fd	0.14633556
43	0xbb7fcabf	-0.0039030758
44	0x3c851d1c	0.016249232
45	0xbe067301	-0.13129808
46	0x3b0b50a9	0.0021257794
47	0x3a32eae8	0.0006825165
48	0x3aa05cb9	0.0012234665
49	0x3e639ec5	0.22228535
50	0x3ccff0d6	0.025383394
51	0xbe5c6e1d	-0.2152638
52	0xbd83d3eb	-0.064369045
53	0xbe037ce2	-0.12840608
54	0xbbb58f84	-0.00554079
55	0x3b92f846	0.004485163
56	0xbb107974	-0.0022045048
57	0xba6adf09	-0.00089596264
58	0xbd785984	-0.060632244
59	0xb944d3f2	-0.00018770972
60	0x3955d086	0.00020390944
61	0x38b43480	8.592848e-05
62	0xba0267fd	-0.0004974602
63	0x3b200b91	0.0024420957

embedding.embeddings.ken_20230618_denoised.poses.weight f4 [64, 63]
0	0xbb2dff4f	-0.002654988
1	0x3c910861	0.01770419
2	0x38a713d0	7.966871e-05
3	0x3d3aa05c	0.045563087
4	0x3cf6871f	0.030093728
5	0xb97dc852	-0.00024202585
6	0x3cae458c	0.021273397
7	0xbb605dc9	-0.0034235588
8	0xbb54a1ee	-0.003244515
9	0xbcde9049	-0.02716841
10	0x3cb2a0b6	0.021805149
11	0x3c384b9d	0.011248496
12	0x3a66d59c	0.0008805634
13	0xbcf173fe	-0.029474255
14	0x3c3ed61a	0.0116477255
15	0xbbc2d25f	-0.0059454883
16	0x3c13f6e5	0.009031032
17	0x3bf2ed2b	0.0074135265
18	0xbc8b9586	-0.017039072
19	0x3b83dfd1	0.0040244837
20	0xbc028c6b	-0.007968049
21	0x3afcefd9	0.0019297554
22	0x3b5ff610	0.0034173764
23	0xbbafe153	-0.005367437
24	0x3c7e5291	0.015522615
25	0xbc40ec82	-0.011775138
26	0x3cad3902	0.021145348
27	0xbb343463	-0.0027497045
28	0xbaa43ef5	-0.001253097
29	0xbb76a846	-0.003763692
30	0xb9645702	-0.00021776187
31	0xbc7b28cb	-0.01532955
32	0xbb79f734	-0.003814173
33	0x3b6402eb	0.0034791778
34	0xbb443f37	-0.0029944906
35	0x3a896f25	0.0010485394
36	0x3b976212	0.004619845
37	0xbbc745cd	-0.006081319
38	0xbb3232b6	-0.002719087
39	0x3c47732a	0.012173453
40	0xbc4ae9e4	-0.012384865
41	0x3bacf48b	0.005278175
42	0x3c24ca56	0.010058006
43	0xbbb30fa6	-0.005464512
44	0x3be796e7	0.0070675495
45	0x3cac2899	0.021015452
46	0xbc464d4d	-0.012103391
47	0xbc4d1bcd	-0.012518835
48	0x3ace31db	0.0015731411
49	0x331a450b	3.5918713e-08
50	0xb03d57d4	-6.888261e-10
51	0xbace327a	-0.0015731596
52	0xae201ee4	-3.6407224e-11
53	0x2ff5c8f2	4.470802e-10
54	0x3d7f8be5	0.062389273
55	0xbc0b83d6	-0.008515319
56	0xbd3aab53	-0.045573544
57	0xbb69e438	-0.0035689007
58	0xbc3fa4e1	-0.011697025
59	0x3ccd56b8	0.025065765
60	0xbd61c456	-0.05511888
61	0xbace3270	-0.0015731584
62	0x2ea2c500	7.401901e-11
63	0xb644bbe6	-2.9315647e-06
64	0x36148710	2.2132335e-06
65	0x35921d2e	1.088634e-06
66	0x356005d4	8.3454984e-07
67	0x363d7a93	2.8234542e-06
68	0x35a5c8fb	1.2351951e-06
69	0x350cef4c	5.2502287e-07
70	0xb685f60c	-3.9923525e-06
71	0x353723ec	6.8225086e-07
72	0xb63dce0e	-2.8283134e-06
73	0x3646e13f	2.963541e-06
74	0x3622cafd	2.4258036e-06
75	0x349c8964	2.915723e-07
76	0x36168280	2.2427703e-06
77	0x36091519	2.0426871e-06
78	0x35cb624d	1.5153288e-06
79	0xb6b2e987	-5.3319995e-06
80	0x35481acd	7.4544806e-07
81	0xb66f3bce	-3.5648586e-06
82	0x361103e8	2.1608957e-06
83	0xb2819e40	-1.508954e-08
84	0xb5a293c3	-1.2112945e-06
85	0x35e57c07	1.7097926e-06
86	0xb1f4e300	-7.1271415e-09
87	0xb3c41b60	-9.131941e-08
88	0x35993d5a	1.1417244e-06
89	0x3489fa8c	2.5700535e-07
90	0xb5577a58	-8.0271775e-07
91	0x36651f32	3.4141817e-06
92	0xb287c600	-1.5806108e-08
93	0xb49be83c	-2.9039973e-07
94	0x35f1ca14	1.8014712e-06
95	0xb45cf228	-2.0577193e-07
96	0x3591bcb8	1.0858266e-06
97	0x35e80b4c	1.7288635e-06
98	0xb58dfc03	-1.0578664e-06
99	0x35a0e186	1.1986565e-06
100	0x36007c67	1.9145898e-06
101	0xb4bbd880	-3.498899e-07
102	0x352df382	6.480187e-07
103	0x35b871b1	1.3742157e-06
104	0xb51d6de6	-5.864698e-07
105	0x3617482f	2.254277e-06
106	0x35529f1c	7.846263e-07
107	0x3665ab64	3.4223422e-06
108	0xb6d1bc39	-6.2505974e-06
109	0x36556aa0	3.1801537e-06
110	0xb5f6e66e	-1.8395492e-06
111	0xb5969f55	-1.1222243e-06
112	0xace3d530	-6.4753966e-12
113	0x2cc21210	5.515817e-12
114	0x3597777e	1.1285154e-06
115	0xa9bc1943	-8.3532594e-14
116	0xa9950c16	-6.619026e-14
117	0x36cceece	6.1074743e-06
118	0x32ef7b80	2.7879423e-08
119	0xb6fdb7c8	-7.5613825e-06
120	0xb720341a	-9.548874e-06
121	0xb5515a38	-7.798985e-07
122	0xb71286f4	-8.733699e-06
123	0xb6a0473f	-4.7766657e-06
124	0x3599175c	1.1406187e-06
125	0x2aaa382c	3.0237043e-13
126	0xbc007991	-0.007841484
127	0xbbcdb82c	-0.0062780585
128	0xba915f11	-0.0011090954
129	0xbd36cd5c	-0.04462944
130	0xbd97deab	-0.074155174
131	0x3def281d	0.11677573
132	0x3d2cfc28	0.042232662
133	0xbdc1b8f5	-0.09459106
134	0x3dbab483	0.09116461
135	0xbc894151	-0.016754778
136	0x3b8454d6	0.0040384335
137	0x3c8f38be	0.017483111
138	0x3c46e8a0	0.012140423
139	0xb90ba616	-0.00013317945
140	0x3cf98fb5	0.030464033
141	0x3dd403e7	0.10352307
142	0xbdfbe084	-0.12298682
143	0x3d2dcdb0	0.042432487
144	0xbd3caa00	-0.046060562
145	0x3d37c0a2	0.044861443
146	0x3c74f6f1	0.014951454
147	0xbd563ed7	-0.052306022
148	0xbc9f1085	-0.019417057
149	0xbd25b840	-0.040458918
150	0xbbf2bd3f	-0.007407814
151	0xbc979e7c	-0.018508188
152	0x3d63e650	0.055639565
153	0x3d4b7e64	0.049681082
154	0x3c42867f	0.011872887
155	0x3c1738e5	0.009229873
156	0xbd7313a8	-0.059344918
157	0x3ba271dd	0.004957421
158	0xbd9a1f62	-0.07525517
159	0xbb545db1	-0.0032404477
160	0x3d40e3dd	0.047092307
161	0xbd0ec801	-0.034858707
162	0x3ddbc603	0.10731127
163	0xbcbddbfd	-0.023176188
164	0x3b544a18	0.0032392796
165	0xbbd1aabf	-0.0063985283
166	0x3c06c4a0	0.00822559
167	0x3c7edc30	0.0155554265
168	0x3d8b6d40	0.06807947
169	0xbd3985c0	-0.04529357
170	0x3dd5c1eb	0.104373775
171	0x3c8529a3	0.016255205
172	0xbcfcea59	-0.030873464
173	0xbddaf25d	-0.106907584
174	0xbc3e60d0	-0.011619762
175	0xb38dc376	-6.601378e-08
176	0x336f18b0	5.5668977e-08
177	0x3c3e60f1	0.011619792
178	0xb1b014a2	-5.12462e-09
179	0x3139132c	2.6931941e-09
180	0x3d37f80b	0.044914287
181	0xbd06e69b	-0.032934766
182	0xbcf8cc13	-0.030370748
183	0xbcb507aa	-0.022098381
184	0xbd64e51e	-0.055882566
185	0x3c8e7092	0.017387662
186	0xbd3e5967	-0.04647198
187	0x3c3e60f5	0.011619796
188	0xb1fff254	-7.4490263e-09
189	0x3af75a44	0.0018871506
190	0xbc0383d1	-0.008027033
191	0x37bebdf0	2.2738212e-05
192	0xbc9651f5	-0.018349627
193	0xbbe20d32	-0.0068985457
194	0xbc6f0ebd	-0.014590916
195	0xbc82e66c	-0.015979014
196	0x3c44fb12	0.01202275
197	0xbc0b4844	-0.008501116
198	0x3c7be2c9	0.015373894
199	0xbc357ac2	-0.011076631
200	0xbc03c206	-0.008041864
201	0xbabd13ae	-0.0014425421
202	0x3c77e053	0.015129167
203	0xbc1db3a5	-0.00962535
204	0xbc0c7a06	-0.0085740145
205	0x3c1480ed	0.009063941
206	0xbc0a1f6e	-0.008430345
207	0x3c618a0d	0.013765824
208	0xbbd8f453	-0.0066209226
209	0x3a2445a0	0.00062664784
210	0x3b9f3677	0.0048587876
211	0x3a501ec8	0.0007939157
212	0x3c009aa8	0.007849373
213	0xbbe26949	-0.0069095236
214	0x3c06662f	0.008203073
215	0xbc9953b7	-0.018716676
216	0xbb801338	-0.003908541
217	0xb991566e	-0.0002772095
218	0xb9cbb650	-0.0003885501
219	0x3bedc3fc	0.007256029
220	0x3bf5f8ce	0.0075064665
221	0x3c422211	0.011848942
222	0xba568fad	-0.00081848615
223	0xbb8a8e81	-0.0042284136
224	0x3b57b0b2	0.0032911715
225	0xbc658458	-0.014008604
226	0x3bc4e62b	0.0060088835
227	0xba237a68	-0.00062361965
228	0xbbabe57c	-0.0052458625
229	0x3bad0bcf	0.0052809487
230	0xbbb387f5	-0.005478854
231	0xbc48cdcc	-0.012256097
232	0x3bff5750	0.007792391
233	0xbc76ab7f	-0.015055536
234	0xbc3bd224	-0.011463676
235	0x3c0c58fe	0.008566139
236	0x3c966669	0.01835938
237	0x39a69ab6	0.00031777256
238	0xb1b99bdc	-5.401928e-09
239	0xb0094482	-4.9937665e-10
240	0xb9a69a7c	-0.00031777087
241	0xad85780d	-1.5173663e-11
242	0xae423d30	-4.416484e-11
243	0xbd11bf2c	-0.035582706
244	0x3bfab476	0.007650907
245	0x3cd016fb	0.025401583
246	0x3b70ddad	0.0036753223
247	0x3c4676e4	0.012113307
248	0xbc7d46c3	-0.015458765
249	0x3d06f9c8	0.032953054
250	0xb9a69954	-0.00031776226
251	0x30997e58	1.1168124e-09
252	0x3c408387	0.011750109
253	0xbbc22854	-0.0059252176
254	0xbb31746c	-0.002707745
255	0xb9ed24b0	-0.00045231497

embedding.embeddings.ken_20230618_denoised.poses.bias f4 [64]
0	0xbc9f03da	-0.019411016
1	0x338faf00	6.690789e-08
2	0x3e01f722	0.1269193
3	0xbc2af4b0	-0.010434315
4	0xbbb0ed00	-0.0053993464
5	0xbe13eb7e	-0.14445302
6	0x3a87cfa7	0.0010361568
7	0x36b744f6	5.461853e-06
8	0xb842812f	-4.6373516e-05
9	0xbe8d1729	-0.27556732
10	0x3306e131	3.1404117e-08
11	0xbe2f932d	-0.17145987
12	0xbb0fc9d2	-0.0021940363
13	0x3e194fc8	0.1497184
14	0xbe63446d	-0.22194071
15	0xbd164d58	-0.036694854
16	0xba19a2e2	-0.0005860758
17	0x3a105e26	0.0005507193
18	0xb9fa8534	-0.0004778296
19	0xbe4b8814	-0.19876128
20	0x3b1f27b7	0.0024285147
21	0xb8a8b299	-8.044131e-05
22	0xbe2e7281	-0.17035867
23	0xb50936ca	-5.1116206e-07
24	0xbb2add62	-0.0026071896
25	0xbdbfc142	-0.09363033
26	0x3c57ed44	0.013179127
27	0xb947b451	-0.00019045292
28	0x374df5c1	1.2276171e-05
29	0xbcf49f0f	-0.029861001
30	0xb6e648a9	-6.862993e-06
31	0xb9993e3b	-0.000292288
32	0xbe1828b9	-0.14859284
33	0xb96643e9	-0.00021959808
34	0xbd5c40f5	-0.053772885
35	0xb6d0347c	-6.204993e-06
36	0xbe1010c7	-0.140689
37	0xbe4ae531	-0.19813992
38	0xbc72ade0	-0.014811963
39	0xbe81f1ff	-0.2537994
40	0xb9389068	-0.00017601403
41	0x3ca68b83	0.020330196
42	0x3e0d1fa7	0.13781606
43	0x3b3f0c94	0.0029151784
44	0x3c2798d3	0.010229307
45	0xbe09da35	-0.13462146
46	0x3b47b9ba	0.0030475692
47	0xba1b087b	-0.00059140445
48	0xb9674b85	-0.0002205801
49	0x3e617cb2	0.22020224
50	0x3cb52490	0.02211216
51	0xbe5af422	-0.21382192
52	0xbd746255	-0.05966409
53	0xbe04f468	-0.12983859
54	0x3aa4e114	0.0012579286
55	0x3b1cf4f8	0.0023949724
56	0x39f001e3	0.00045777773
57	0xb99a2c60	-0.0002940623
58	0xbd6affb3	-0.05737276
59	0x37dd507a	2.6382728e-05
60	0xb83a8bb4	-4.4475964e-05
61	0xb7975923	-1.804211e-05
62	0xb9ed31ad	-0.00045241174
63	0xb9fb4b12	-0.00047930382

core.core.fc.0.0.weight f4 [128, 64]
0	0x0533ec9e	8.459999e-36
1	0x054a1484	9.5017625e-36
2	0x854a7a46	-9.5204524e-36
3	0x854437ef	-9.226149e-36
4	0x0545ebde	9.3062174e-36
5	0x053fbd95	9.0155976e-36
6	0x05365a96	8.574237e-36
7	0x853c6b23	-8.8593954e-36
8	0x8545cbd2	-9.3003314e-36
9	0x853b2b81	-8.800688e-36
10	0x054168f2	9.094092e-36
11	0x0549204e	9.456908e-36
12	0x853d928b	-8.913653e-36
13	0x8555e360	-1.0056974e-35
14	0x8548b973	-9.4380164e-36
15	0x0545c168	9.2984186e-36
16	0x853b541c	-8.808146e-36
17	0x85374c50	-8.618635e-36
18	0x8531c94d	-8.359473e-36
19	0x8545bb90	-9.297345e-36
20	0x05500d72	9.7825825e-36
21	0x053c7f10	8.863055e-36
22	0x8545f321	-9.307551e-36
23	0x8545295c	-9.270492e-36
24	0x853fdfa1	-9.021851e-36
25	0x054b5d52	9.5621544e-36
26	0x8556ef9f	-1.0106243e-35
27	0x85477dfc	-9.380075e-36
28	0x05469d56	9.338813e-36
29	0x05428158	9.145593e-36
30	0x855c53c9	-1.0359739e-35
31	0x05373670	8.614617e-36
32	0x05427e9c	9.1450906e-36
33	0x853ac98d	-8.782697e-36
34	0x053df055	8.930879e-36
35	0x853e69df	-8.9532025e-36
36	0x85467aac	-9.3324465e-36
37	0x8546837c	-9.334065e-36
38	0x05445159	9.230817e-36
39	0x0533f8c2	8.462229e-36
40	0x05397381	8.719873e-36
41	0x0538f464	8.696526e-36
42	0x8537a441	-8.634787e-36
43	0x0545916f	9.2896074e-36
44	0x05486395	9.422245e-36
45	0x85367485	-8.579e-36
46	0x854351dc	-9.183891e-36
47	0x854b8101	-9.5687084e-36
48	0x8550dcf0	-9.820693e-36
49	0x8543d7c3	-9.208485e-36
50	0x0546ed0e	9.353455e-36
51	0x055534f7	1.002494e-35
52	0x85429df6	-9.150849e-36
53	0x854662cc	-9.3280614e-36
54	0x853aae52	-8.7776956e-36
55	0x0540fb28	9.073927e-36
56	0x053b7843	8.814786e-36
57	0x0548d2cc	9.442672e-36
58	0x053702c8	8.6051295e-36
59	0x85477d86	-9.37999e-36
60	0x853faf8b	-9.013019e-36
61	0x054c1ee2	9.597706e-36
62	0x854f51a8	-9.748091e-36
63	0x85402c9e	-9.0359915e-36
64	0x8541e307	-9.116515e-36
65	0x854571f1	-9.283823e-36
66	0x854e1994	-9.6907714e-36
67	0x0540ef26	9.071721e-36
68	0x053f1a9f	8.9856664e-36
69	0x85441311	-9.219378e-36
70	0x0537edfc	8.6483295e-36
71	0x853a96db	-8.773386e-36
72	0x853caf08	-8.871866e-36
73	0x85457e2c	-9.2860696e-36
74	0x85400cf0	-9.030173e-36
75	0x8551f8fb	-9.872863e-36
76	0x85507b40	-9.8027504e-36
77	0x853dce46	-8.924624e-36
78	0x85372fbc	-8.613386e-36
79	0x05485b51	9.420727e-36
80	0x85490f3d	-9.4537734e-36
81	0x854919e9	-9.4557335e-36
82	0x8541a432	-9.104974e-36
83	0x853e9690	-8.961411e-36
84	0x05478340	9.381042e-36
85	0x05418254	9.098754e-36
86	0x8546633e	-9.328143e-36
87	0x053ffb5d	9.026945e-36
88	0x05342e03	8.47201e-36
89	0x854157f1	-9.090969e-36
90	0x85437cef	-9.1918026e-36
91	0x85465851	-9.3261364e-36
92	0x05457d35	9.2858924e-36
93	0x855067ee	-9.799202e-36
94	0x85481e3b	-9.409507e-36
95	0x853dff05	-8.933577e-36
96	0x05438edc	9.195095e-36
97	0x8543d551	-9.208036e-36
98	0x8546a896	-9.3408796e-36
99	0x85443916	-9.226361e-36
100	0x05488fe6	9.430385e-36
101	0x85482715	-9.411133e-36
102	0x8543c8f0	-9.205762e-36
103	0x853a6a21	-8.765171e-36
104	0x05497f2c	9.4743324e-36
105	0x0547fee8	9.403754e-36
106	0x85416e37	-9.09506e-36
107	0x053d9374	8.91382e-36
108	0x8541c5c3	-9.1111395e-36
109	0x0546e74c	9.352398e-36
110	0x053fe7dc	9.023363e-36
111	0x8547a93e	-9.38802e-36
112	0x8545581c	-9.2790786e-36
113	0x0545d4c7	9.3019765e-36
114	0x053d952a	8.9141344e-36
115	0x85523d23	-9.8853816e-36
116	0x054731a3	9.366052e-36
117	0x0535de7a	8.5514416e-36
118	0x0541f1c1	9.1192196e-36
119	0x8533a79a	-8.447323e-36
120	0x85472ccf	-9.365165e-36
121	0x853a67f2	-8.76477e-36
122	0x0533e4ce	8.458564e-36
123	0x85479049	-9.383436e-36
124	0x054440b5	9.2277605e-36
125	0x854a2fe8	-9.506793e-36
126	0x8556233d	-1.0068704e-35
127	0x8548cfbb	-9.442109e-36
128	0x05447b3c	9.23851e-36
129	0x853baca6	-8.824408e-36
130	0x0549b767	9.48466e-36
131	0x85349461	-8.490812e-36
132	0x85409a21	-9.0561056e-36
133	0x85483fc7	-9.415669e-36
134	0x853c3dcd	-8.8510685e-36
135	0x8538a1bf	-8.6813465e-36
136	0x055288e9	9.899299e-36
137	0x85384b0b	-8.6654216e-36
138	0x85392a4f	-8.706429e-36
139	0x054a5a16	9.5145405e-36
140	0x85371296	-8.608032e-36
141	0x854770ca	-9.377651e-36
142	0x053b0a22	8.794559e-36
143	0x0547b9a5	9.3910325e-36
144	0x8558db1f	-1.01965174e-35
145	0x0542a1ea	9.151575e-36
146	0x0536341f	8.567172e-36
147	0x8541f517	-9.119832e-36
148	0x854a648a	-9.5164605e-36
149	0x054de3c2	9.680886e-36
150	0x8557ba7f	-1.0143505e-35
151	0x853ab66f	-8.779186e-36
152	0x053effb6	8.980724e-36
153	0x85463ec8	-9.321446e-36
154	0x8548249d	-9.4106796e-36
155	0x0546271e	9.3171e-36
156	0x05474620	9.369815e-36
157	0x05494b39	9.464791e-36
158	0x054930c3	9.459931e-36
159	0x853d0644	-8.887888e-36
160	0x05359c21	8.5392555e-36
161	0x0545cb57	9.300243e-36
162	0x8545f9db	-9.308787e-36
163	0x053a75ce	8.767315e-36
164	0x8542a8d5	-9.152846e-36
165	0x85418834	-9.099833e-36
166	0x85382dcc	-8.66005e-36
167	0x853e66f5	-8.952667e-36
168	0x85468dc8	-9.3359564e-36
169	0x854bcab5	-9.5822455e-36
170	0x85496898	-9.4701854e-36
171	0x05466960	9.3292696e-36
172	0x0537f594	8.649724e-36
173	0x8548c09f	-9.439334e-36
174	0x85342472	-8.470253e-36
175	0x853e991a	-8.9618774e-36
176	0x0544d3d0	9.2547795e-36
177	0x8539982d	-8.7266085e-36
178	0x8547d166	-9.3953955e-36
179	0x05437c3c	9.191674e-36
180	0x8542b9de	-9.1559746e-36
181	0x055a7c1e	1.02731075e-35
182	0x854502c4	-9.2634034e-36
183	0x854f92ef	-9.760081e-36
184	0x8536677a	-8.5766045e-36
185	0x8546fd4f	-9.356441e-36
186	0x05439951	9.197016e-36
187	0x0539ac8c	8.73035e-36
188	0x02b92a18	2.7207467e-37
189	0x853fcf36	-9.0188355e-36
190	0x053fa255	9.0105925e-36
191	0x85336871	-8.4357224e-36
192	0x8555e087	-1.0056451e-35
193	0x854a8ee4	-9.524239e-36
194	0x055762b9	1.0127384e-35
195	0x054cba34	9.626234e-36
196	0x854bf9bc	-9.590883e-36
197	0x854cd08b	-9.630337e-36
198	0x85453c36	-9.2739545e-36
199	0x0547d898	9.396717e-36
200	0x05480f84	9.4068046e-36
201	0x053a1c8f	8.750923e-36
202	0x854c0582	-9.5930455e-36
203	0x05506aee	9.799753e-36
204	0x854e5a7e	-9.702694e-36
205	0x854b0523	-9.5459576e-36
206	0x0548fec0	9.450745e-36
207	0x053f9078	9.0073116e-36
208	0x8557ad2a	-1.01410566e-35
209	0x8539ec54	-8.742065e-36
210	0x8543469e	-9.181826e-36
211	0x054e95d2	9.713591e-36
212	0x055bd762	1.033689e-35
213	0x8549fb96	-9.4971836e-36
214	0x053e667f	8.9525826e-36
215	0x053bfcf1	8.839156e-36
216	0x0549d633	9.490317e-36
217	0x0544115d	9.219065e-36
218	0x0552ea08	9.917137e-36
219	0x8556cede	-1.0100227e-35
220	0x0548afe3	9.43626e-36
221	0x053e2e38	8.942246e-36
222	0x85463902	-9.320386e-36
223	0x05438778	9.1937376e-36
224	0x853a9d59	-8.774578e-36
225	0x854b043a	-9.5457904e-36
226	0x8552f54f	-9.9192086e-36
227	0x85355215	-8.525655e-36
228	0x854c9b2c	-9.6205345e-36
229	0x05561ed4	1.0067894e-35
230	0x8551bb9f	-9.861593e-36
231	0x05389e74	8.680742e-36
232	0x85443c76	-9.2269806e-36
233	0x054dd2b5	9.6777544e-36
234	0x85472fb6	-9.365698e-36
235	0x85469b0b	-9.338392e-36
236	0x0546cb42	9.347248e-36
237	0x8547bb54	-9.391342e-36
238	0x054399ff	9.1971406e-36
239	0x855580c4	-1.00388624e-35
240	0x854d066c	-9.640233e-36
241	0x054a3daa	9.50932e-36
242	0x85472df1	-9.365373e-36
243	0x854a0b32	-9.5000506e-36
244	0x854e87a1	-9.7109845e-36
245	0x05366adb	8.577225e-36
246	0x85389492	-8.6789265e-36
247	0x054554b9	9.2784566e-36
248	0x854b7e7c	-9.5682456e-36
249	0x8553225c	-9.927483e-36
250	0x05484f2f	9.4184985e-36
251	0x8547771c	-9.378812e-36
252	0x8559d9a8	-1.0243268e-35
253	0x05495121	9.4658756e-36
254	0x8541815d	-9.098577e-36
255	0x0545914c	9.289582e-36

core.core.fc.0.0.bias f4 [128]
0	0x85413a1c	-9.0854894e-36
1	0x0535d5d4	8.549853e-36
2	0x054591f3	9.289702e-36
3	0x85373dcb	-8.615968e-36
4	0x8540556c	-9.043486e-36
5	0x0536027a	8.558054e-36
6	0x853885f0	-8.676239e-36
7	0x8537e285	-8.646224e-36
8	0x8546723a	-9.3308954e-36
9	0x8543bf85	-9.2040325e-36
10	0x8532f36f	-8.4142315e-36
11	0x0532ca75	8.406705e-36
12	0x8544e691	-9.258224e-36
13	0x8539a412	-8.728793e-36
14	0x85359ef9	-8.539778e-36
15	0x0543ba3b	9.203061e-36
16	0x0534ca89	8.500759e-36
17	0x054268ba	9.1410714e-36
18	0x053a22cc	8.752069e-36
19	0x8546a032	-9.3393385e-36
20	0x85340ad5	-8.465549e-36
21	0x2561b8b2	1.9578216e-16
22	0x05373b01	8.615456e-36
23	0x854579df	-9.28528e-36
24	0x0545f7ea	9.30843e-36
25	0x2e10fc5e	3.2965956e-11
26	0x8547d410	-9.395885e-36
27	0xafc7893c	-3.62954e-10
28	0x0536c329	8.593444e-36
29	0x053f7eb5	9.004049e-36
30	0x0542e90d	9.164641e-36
31	0x0532b8d1	8.403465e-36
32	0xa795d063	-4.158174e-15
33	0x05400aa5	9.029752e-36
34	0x053ebac0	8.9680576e-36
35	0x05421145	9.125008e-36
36	0x05465203	9.3249784e-36
37	0x8547865a	-9.3816115e-36
38	0x05390b32	8.7007145e-36
39	0x0535458d	8.5233536e-36
40	0x05441397	9.219474e-36
41	0x8531da2a	-8.3625704e-36
42	0x85336a18	-8.436026e-36
43	0x0533fe92	8.463297e-36
44	0x2d302494	1.0012564e-11
45	0x0546bfc1	9.345135e-36
46	0x853f2110	-8.9868495e-36
47	0x8535cad8	-8.5478356e-36
48	0x0543f320	9.213511e-36
49	0x05475a38	9.3735056e-36
50	0x8539ed76	-8.742273e-36
51	0x85459931	-9.291032e-36
52	0x05436f84	9.189338e-36
53	0x85361f38	-8.563333e-36
54	0x05437a40	9.19131e-36
55	0x05471555	9.360853e-36
56	0x05379713	8.6323666e-36
57	0x8546b445	-9.3430255e-36
58	0x05417840	9.096903e-36
59	0x8a8fe3e3	-1.385612e-32
60	0xac37252e	-2.6026503e-12
61	0x05392785	8.705917e-36
62	0x054391e0	9.195649e-36
63	0xae536f46	-4.8074676e-11
64	0x05436195	9.186779e-36
65	0xb2f5ca28	-2.8613684e-08
66	0x2d5d31c8	1.2573449e-11
67	0x853f40d5	-8.9926846e-36
68	0x8546d486	-9.34895e-36
69	0x85471cd4	-9.36223e-36
70	0xb384222a	-6.1529434e-08
71	0x3e6d0cfd	0.23149486
72	0x853e5c63	-8.950726e-36
73	0x05434969	9.182339e-36
74	0x853c6297	-8.8578256e-36
75	0x8552ac11	-9.905756e-36
76	0x05393747	8.708811e-36
77	0x370aabda	8.265453e-06
78	0x853bb958	-8.82674e-36
79	0x053797ca	8.632498e-36
80	0x053e642e	8.952157e-36
81	0x853c3a2b	-8.850401e-36
82	0x26ca714c	1.4047275e-15
83	0x119c3e9f	2.4651053e-28
84	0x053b7b96	8.815397e-36
85	0x853de18d	-8.9281644e-36
86	0x853ccce9	-8.8773536e-36
87	0x8542a4eb	-9.152127e-36
88	0x05371156	8.607803e-36
89	0x053b71e2	8.813615e-36
90	0x054552ba	9.27809e-36
91	0x853b27eb	-8.8000295e-36
92	0x0546c745	9.346515e-36
93	0x3757c62a	1.2861137e-05
94	0x054028a0	9.035258e-36
95	0x8f2df37e	-8.5764534e-30
96	0x3e806b54	0.25081885
97	0x05391f5b	8.704417e-36
98	0x3e5ebebd	0.21752448
99	0x05464bcc	9.323837e-36
100	0x053f1bd5	8.985889e-36
101	0x2a3345ec	1.5922653e-13
102	0x8540380e	-9.038092e-36
103	0x853e2f95	-8.9424965e-36
104	0x853f6a06	-9.00025e-36
105	0x0533b812	8.450348e-36
106	0x8540320b	-9.036988e-36
107	0x05437146	9.189661e-36
108	0x85403649	-9.037767e-36
109	0x8544ffca	-9.262857e-36
110	0x8533d877	-8.456298e-36
111	0x8539cf67	-8.736752e-36
112	0x85423193	-9.1309415e-36
113	0x85448fa1	-9.242256e-36
114	0x054451f6	9.2309296e-36
115	0x8540a657	-9.0583484e-36
116	0x053c4e2c	8.8540754e-36
117	0x05320a30	8.371391e-36
118	0x85434d55	-9.1830596e-36
119	0x853c2f21	-8.848374e-36
120	0x053e92b0	8.960699e-36
121	0x2deaea03	2.6706642e-11
122	0x854478ee	-9.238087e-36
123	0x3b7e778e	0.0038828584
124	0x85348f8d	-8.4899254e-36
125	0x053a2125	8.751766e-36
126	0x0542b703	9.15545e-36
127	0x05360c44	8.559852e-36

core.core.fc.1.0.weight f4 [64, 128]
0	0x855230d2	-9.8831194e-36
1	0x854c501e	-9.606749e-36
2	0x855cc8d0	-1.0381234e-35
3	0x055293f2	9.901326e-36
4	0x054dff43	9.685938e-36
5	0x85478eb5	-9.383146e-36
6	0x853c65e0	-8.858429e-36
7	0x854f785c	-9.7552e-36
8	0x054e4650	9.698988e-36
9	0x8558e49e	-1.01982615e-35
10	0x05563893	1.0072623e-35
11	0x854fa50d	-9.763408e-36
12	0x85565d35	-1.0079351e-35
13	0x0555a737	1.00459244e-35
14	0x054e6d60	9.7061625e-36
15	0x053a4c1b	8.759656e-36
16	0x05521239	9.8774995e-36
17	0x055003fa	9.7808434e-36
18	0x854a17a5	-9.502337e-36
19	0x8545335d	-9.2723294e-36
20	0x8548f5ec	-9.4491235e-36
21	0x0549238b	9.457503e-36
22	0x8548d3be	-9.442846e-36
23	0x054ce7b4	9.634591e-36
24	0x054aab5f	9.52947e-36
25	0x054b40a0	9.556884e-36
26	0x854e3892	-9.696464e-36
27	0x092f3094	2.10877e-33
28	0x8559b50e	-1.02365455e-35
29	0x054cffad	9.638994e-36
30	0x054d85c4	9.6636225e-36
31	0x85434b45	-9.182681e-36
32	0x05535272	9.936315e-36
33	0x85411199	-9.0780486e-36
34	0x85521b75	-9.8791956e-36
35	0x05491fa4	9.456786e-36
36	0x0543d4cc	9.2079405e-36
37	0x0554e7a2	1.0010736e-35
38	0x054d42aa	9.651298e-36
39	0x85501d6c	-9.785517e-36
40	0x0542e066	9.163052e-36
41	0x853f2093	-8.98676e-36
42	0x0553b9d9	9.955307e-36
43	0x05535723	9.937177e-36
44	0x8475e230	-2.8903472e-36
45	0x0553bac4	9.955476e-36
46	0x0544154f	9.2197895e-36
47	0x0546d813	9.349602e-36
48	0x85497b02	-9.4735675e-36
49	0x0547fdab	9.4035265e-36
50	0x054a9f5b	9.527263e-36
51	0x054df78a	9.6845194e-36
52	0x8547cc0f	-9.394415e-36
53	0x054a477c	9.511124e-36
54	0x85500aee	-9.7821205e-36
55	0x0556fae3	1.0108312e-35
56	0x054f1287	9.736496e-36
57	0x053d4d17	8.9008965e-36
58	0x8541e1e2	-9.1163045e-36
59	0x854b8d5f	-9.57098e-36
60	0x85446fe2	-9.236425e-36
61	0x8540a8b1	-9.05878e-36
62	0x854d3133	-9.64809e-36
63	0x054dd332	9.677844e-36
64	0x05479646	9.384536e-36
65	0x8c306063	-1.3587552e-31
66	0x05456ea6	9.2832184e-36
67	0x05448734	9.2407086e-36
68	0x8549b84e	-9.484826e-36
69	0x0554e6f6	1.0010613e-35
70	0x8b149628	-2.8616728e-32
71	0x1593f83a	5.976446e-26
72	0x055bf5b2	1.03424576e-35
73	0x8545b631	-9.296359e-36
74	0x05401fcc	9.033637e-36
75	0x05559f0c	1.0044424e-35
76	0x054fe9b6	9.776019e-36
77	0x0f1f23c8	7.8461965e-30
78	0x853b9588	-8.820162e-36
79	0x8540e31c	-9.06951e-36
80	0x855c069f	-1.03455664e-35
81	0x8546a33e	-9.339898e-36
82	0x0542c6f0	9.158375e-36
83	0x054a2ca2	9.506192e-36
84	0x05496145	9.46884e-36
85	0x854acf3d	-9.536058e-36
86	0x053dd0c9	8.925085e-36
87	0x854bf0ea	-9.589263e-36
88	0x05423e7e	9.133314e-36
89	0x8550600b	-9.797753e-36
90	0x054bd799	9.584613e-36
91	0x0559befa	1.0238368e-35
92	0x0552bc05	9.908686e-36
93	0x91bf8851	-3.0218498e-28
94	0x0546dd10	9.350518e-36
95	0x054755d4	9.372699e-36
96	0x159065d6	5.8321806e-26
97	0x0549bfcc	9.486202e-36
98	0x1566f842	4.664397e-26
99	0x85577111	-1.01300184e-35
100	0x853337f6	-8.426818e-36
101	0x855483a4	-9.992371e-36
102	0x0546b426	9.343003e-36
103	0x05473523	9.366695e-36
104	0x0543e59b	9.211028e-36
105	0x85555f2c	-1.0032692e-35
106	0x854814a2	-9.4077445e-36
107	0x854ad91a	-9.5378696e-36
108	0x85568c7d	-1.0088035e-35
109	0x853c391e	-8.850208e-36
110	0x855aecde	-1.02938164e-35
111	0x054b202d	9.550924e-36
112	0x854af5bb	-9.543128e-36
113	0x8550cb0d	-9.8174075e-36
114	0x8551a5f4	-9.8576135e-36
115	0x854e9617	-9.7136406e-36
116	0x8547f070	-9.4010964e-36
117	0x8540af85	-9.0600345e-36
118	0x854d69b4	-9.658468e-36
119	0x05542421	9.974828e-36
120	0x0556bcba	1.0096895e-35
121	0x054a27c4	9.505298e-36
122	0x854d9656	-9.666666e-36
123	0x13cc634e	5.159476e-27
124	0x854b3eb2	-9.5565294e-36
125	0x05348b8d	8.489191e-36
126	0x054da47f	9.669267e-36
127	0x054558cd	9.2792056e-36
128	0x054b6103	9.5628324e-36
129	0x053acb12	8.782976e-36
130	0x8534e963	-8.506426e-36
131	0x0547d191	9.395426e-36
132	0x8545f04e	-9.3070325e-36
133	0x8542734a	-9.1430114e-36
134	0x0543339e	9.1783365e-36
135	0x0545c105	9.2983476e-36
136	0x0535f45b	8.55546e-36
137	0x0533950d	8.443916e-36
138	0x0546248e	9.316629e-36
139	0x05503e7c	9.7915896e-36
140	0x0540c467	9.06387e-36
141	0x8547c01c	-9.39222e-36
142	0x0542c6a1	9.1583185e-36
143	0x0532f1c6	8.4139265e-36
144	0x053b69af	8.812109e-36
145	0x853859b0	-8.6681114e-36
146	0x853fc50b	-9.016968e-36
147	0x8547319c	-9.366047e-36
148	0x0534a306	8.493502e-36
149	0x1c0baca2	4.6214365e-22
150	0x8544ee19	-9.259607e-36
151	0x853f00b9	-8.9809096e-36
152	0x054ac873	9.534811e-36
153	0xa5415f4f	-1.6772373e-16
154	0x8543d684	-9.208256e-36
155	0x276ea520	3.311865e-15
156	0x053d9066	8.913259e-36
157	0x053fcf45	9.018846e-36
158	0x0546b3b9	9.342925e-36
159	0x053c12ce	8.8431714e-36
160	0x9e17a196	-8.027289e-21
161	0x853448d6	-8.476937e-36
162	0x85408d44	-9.053743e-36
163	0x0545f97a	9.308717e-36
164	0x853e62b1	-8.951884e-36
165	0x853bc1c2	-8.8282854e-36
166	0x853c9e24	-8.8687634e-36
167	0x853e1665	-8.93787e-36
168	0x853c344a	-8.8493215e-36
169	0x053b1abc	8.797608e-36
170	0x85404383	-9.0401966e-36
171	0x853f2e31	-8.989261e-36
172	0x2380ae12	1.395151e-17
173	0x8544b651	-9.249362e-36
174	0x85473afe	-9.36777e-36
175	0x0549f966	9.496782e-36
176	0x854f42d3	-9.745367e-36
177	0x853a8ec4	-8.7719e-36
178	0x8535f7ba	-8.556079e-36
179	0x053ef7af	8.979249e-36
180	0x0548cae3	9.441219e-36
181	0x853dd62d	-8.926075e-36
182	0x053578fe	8.532802e-36
183	0x05377d0e	8.6275876e-36
184	0x053e149e	8.937544e-36
185	0x053d2a54	8.894512e-36
186	0x85424286	-9.1340546e-36
187	0x0553a100	9.950743e-36
188	0xa34662d8	-1.07545325e-17
189	0x854236f0	-9.1319266e-36
190	0x8544e41a	-9.257771e-36
191	0xa433dfab	-3.9003892e-17
192	0x854479ec	-9.238269e-36
193	0x29ba4805	8.272553e-14
194	0x2455e8f4	4.638433e-17
195	0x053f4424	8.993292e-36
196	0x053cc4ab	8.87584e-36
197	0x054919d8	9.455721e-36
198	0x29a86e51	7.4798356e-14
199	0xb2554184	-1.2413128e-08
200	0x8537124f	-8.6079814e-36
201	0x85488dce	-9.43e-36
202	0x8541e7a0	-9.117359e-36
203	0x853e27a9	-8.9410415e-36
204	0x8539e322	-8.740376e-36
205	0xadae07ab	-1.9784915e-11
206	0x05455fcb	9.28049e-36
207	0x85351b28	-8.515567e-36
208	0x8547f9ae	-9.402794e-36
209	0x0545a76f	9.293648e-36
210	0x9d1b2bcf	-2.0536728e-21
211	0x88047178	-3.9855687e-34
212	0x05383e7f	8.663117e-36
213	0x055097b7	9.8079786e-36
214	0x05440110	9.216071e-36
215	0x853af49e	-8.790607e-36
216	0x0539f67b	8.7439295e-36
217	0x8533c4dc	-8.452697e-36
218	0x85377d75	-8.6276615e-36
219	0x85463a31	-9.320603e-36
220	0x04ef762d	5.6297157e-36
221	0x2e07acd4	3.084895e-11
222	0x054183c4	9.099018e-36
223	0x8555b9e3	-1.0049354e-35
224	0xb2527cfc	-1.2252027e-08
225	0x054775e8	9.378591e-36
226	0xb3acf670	-8.054201e-08
227	0x8545e30e	-9.304599e-36
228	0x054ac02c	9.533291e-36
229	0x22808c4f	3.4843027e-18
230	0x8543c417	-9.204872e-36
231	0x0543d682	9.208255e-36
232	0x05416d3e	9.094881e-36
233	0x853628e2	-8.565108e-36
234	0x854468fb	-9.2351576e-36
235	0x054b0d9e	9.547515e-36
236	0x05536d7b	9.941281e-36
237	0x85478084	-9.3805396e-36
238	0x85459c1b	-9.2915675e-36
239	0x854a04c2	-9.498868e-36
240	0x0545996f	9.291077e-36
241	0x8542531a	-9.1370995e-36
242	0x8554b560	-1.00015054e-35
243	0x0549f2a1	9.4955385e-36
244	0x05412430	9.081463e-36
245	0x0547e484	9.398907e-36
246	0x0545668d	9.281731e-36
247	0x853a9f38	-8.774922e-36
248	0x853ff656	-9.0260216e-36
249	0x2457d824	4.680377e-17
250	0x0539d413	8.73761e-36
251	0x321ca8ca	9.118773e-09
252	0x8548abee	-9.435533e-36
253	0x054d3cb8	9.650206e-36
254	0x853ae225	-8.787214e-36
255	0x8548c4e2	-9.4401165e-36

core.core.fc.1.0.bias f4 [64]
0	0x15842d4e	5.3385854e-26
1	0xb2ad9a18	-2.0209924e-08
2	0x26a246b2	1.126017e-15
3	0x1ff7df40	1.04977905e-19
4	0xb0b653d0	-1.3266064e-09
5	0x1f4f88f4	4.394724e-20
6	0xa1626fd4	-7.671978e-19
7	0x253697ff	1.5837482e-16
8	0x268a2c68	9.58771e-16
9	0x2a1eec85	1.4115278e-13
10	0x268a2024	9.584385e-16
11	0xbbaf8c81	-0.0053573255
12	0x2c18fb74	2.1740084e-12
13	0xa151551e	-7.0924606e-19
14	0xbb9cbfaf	-0.0047835927
15	0x1c22f0b8	5.3912425e-22
16	0xa4c79918	-8.6561844e-17
17	0x20300f5a	1.4912859e-19
18	0xbc8b7147	-0.017021788
19	0xbdd13d78	-0.10216802
20	0xa0d067bf	-3.5305224e-19
21	0x2d06bca1	7.658902e-12
22	0xb94601f8	-0.00018883485
23	0x226de59a	3.224104e-18
24	0x27f3679c	6.7558382e-15
25	0x20930184	2.4903772e-19
26	0x1946273d	1.0244284e-23
27	0xbdcadf43	-0.09905865
28	0x9e946c70	-1.5714958e-20
29	0x1f89e9a2	5.840827e-20
30	0xbe3f802f	-0.18701242
31	0xbc9d4427	-0.019197537
32	0x268b5e67	9.67065e-16
33	0x254a36f0	1.753932e-16
34	0x24c5f532	8.585051e-17
35	0x20c80234	3.3882776e-19
36	0xbc2efa81	-0.010679842
37	0x3cda8c47	0.026678218
38	0x24b4064f	7.8073244e-17
39	0x14e1a4d7	2.2784212e-26
40	0x26b64694	1.2647917e-15
41	0xbb286909	-0.0025697371
42	0xa2a6a5c8	-4.5169918e-18
43	0x2213e8be	2.0045428e-18
44	0xb993eabb	-0.00028212913
45	0xb6c12d92	-5.7571533e-06
46	0x229e6765	4.293546e-18
47	0xbb3e5789	-0.0029043874
48	0x1f1dadab	3.3389698e-20
49	0xbc1c0ae7	-0.009524084
50	0x2819a225	8.528366e-15
51	0xae41d22a	-4.4069783e-11
52	0xb58aa9f8	-1.0331269e-06
53	0x29a57d59	7.349216e-14
54	0x3d43455b	0.047673564
55	0x3de124da	0.10993357
56	0x2af37540	4.324683e-13
57	0x29c5274a	8.755373e-14
58	0x9bb26048	-2.950985e-22
59	0x2bc12c21	1.3725723e-12
60	0x2f1a600d	1.4040342e-10
61	0xbe1b19a1	-0.15146495
62	0xafc07145	-3.500508e-10
63	0x1b4bb650	1.6850675e-22

readout.readouts.bex_20230623_denoised.location.weight f4 [2, 64]
0	0x153006d1	3.5548294e-26
1	0xb32fc62c	-4.09256e-08
2	0x276f6f14	3.3228128e-15
3	0xa22a6aa7	-2.3095757e-18
4	0xb213755a	-8.583209e-09
5	0x9ed58886	-2.2608717e-20
6	0xa131a486	-6.018768e-19
7	0x2650a0fb	7.2382666e-16
8	0x256b5ed9	2.0415136e-16
9	0x28e7d8a1	2.57401e-14
10	0x275a13e3	3.0264358e-15
11	0x3c2791c5	0.010227625
12	0xaf95c18f	-2.7240474e-10
13	0x9f66202a	-4.8731e-20
14	0x3cd80e35	0.026373962
15	0x1bbd255c	3.129157e-22
16	0x241b15a0	3.3628584e-17
17	0x9fc16573	-8.190651e-20
18	0xbd69319a	-0.05693207
19	0x3ed5abc5	0.41732612
20	0xa171703f	-8.180253e-19
21	0x2cfb4ecc	7.1425973e-12
22	0x39cc564a	0.00038974202
23	0xa1bf81de	-1.2977039e-18
24	0x28a6a16d	1.849971e-14
25	0xa2d47807	-5.75898e-18
26	0x1a81d3de	5.369544e-23
27	0x3edac54f	0.4272866
28	0x1ca94c12	1.1203146e-21
29	0x9ea7bcca	-1.7759894e-20
30	0x3eca3979	0.39496973
31	0x3e1c1b83	0.1524487
32	0x27438ff6	2.7139728e-15
33	0x27121438	2.027253e-15
34	0x25b62a5d	3.1600674e-16
35	0x9e0b4482	-7.372766e-21
36	0x3dc7b2a8	0.09750873
37	0x3e7da6d9	0.24770679
38	0x25cf5899	3.5968812e-16
39	0x15935e35	5.952146e-26
40	0x274d86e5	2.8522591e-15
41	0x3bfa1b6c	0.0076326635
42	0xa1fb7f94	-1.7042191e-18
43	0xa2b84607	-4.9947444e-18
44	0x3b470bfd	0.0030372136
45	0x389399c5	7.038148e-05
46	0x21fd631c	1.7170181e-18
47	0xbb6f2054	-0.0036487775
48	0x9e5a3d44	-1.1553493e-20
49	0x3e921dd4	0.28538382
50	0x28bbe23f	2.085929e-14
51	0xae90fcd3	-6.5932725e-11
52	0x374eebd7	1.2333468e-05
53	0x2a589f84	1.9239997e-13
54	0xbf9e82af	-1.2383631
55	0x3f1bcb40	0.6085701
56	0xaa4838ab	-1.7783229e-13
57	0x2a69c3de	2.0762512e-13
58	0x9d9f08a4	-4.2095884e-21
59	0x2c48bf41	2.8527877e-12
60	0xac406d96	-2.7345673e-12
61	0x3eca5a6d	0.39522114
62	0xaeec7656	-1.0753058e-10
63	0x9acafb99	-8.395172e-23
64	0x92a0eb44	-1.0155417e-27
65	0x32b77290	2.13561e-08
66	0xa80c82df	-7.799939e-15
67	0x225faea3	3.0314587e-18
68	0x31008eec	1.8707693e-09
69	0x1f47cb32	4.2307968e-20
70	0x21a1584f	1.0933159e-18
71	0xa6a757bf	-1.1611736e-15
72	0x2567f5e7	2.0119371e-16
73	0x28d1bd52	2.3285766e-14
74	0xa7ba59c0	-5.1722678e-15
75	0x3d0d22ef	0.034457143
76	0x2e03386e	2.983607e-11
77	0x9f8875ad	-5.779292e-20
78	0x3d3c90af	0.04603642
79	0x1b0dabec	1.1718798e-22
80	0x24250f00	3.5791377e-17
81	0x1fb56ade	7.683328e-20
82	0x3d5849f3	0.0528049
83	0x3ee2ab16	0.44271153
84	0x2150bc4b	7.0722345e-19
85	0x2c43b7f2	2.7813277e-12
86	0x3a7429b2	0.00093140744
87	0x234ab115	1.09879405e-17
88	0xa934028a	-3.997023e-14
89	0x229b0a86	4.2023976e-18
90	0x19525e68	1.0875811e-23
91	0x3ee43d9d	0.44578257
92	0x9c9f4382	-1.0539188e-21
93	0x1f02e045	2.7714082e-20
94	0x3f2b6e69	0.6696535
95	0x3e3bae72	0.18328264
96	0xa78d4b35	-3.92169e-15
97	0xa6414e3e	-6.7066364e-16
98	0xa5c21073	-3.3664782e-16
99	0x9d726c10	-3.20843e-21
100	0x3dd77ea6	0.10522203
101	0x3d80b8b0	0.06285226
102	0xa61e3acd	-5.489695e-16
103	0x1458a9a1	1.09386666e-26
104	0xa802c854	-7.259889e-15
105	0x3c90918c	0.017647527
106	0x21df5fee	1.513646e-18
107	0x2180f390	8.738088e-19
108	0x3b8c4f49	0.0042819125
109	0x38caad88	9.664433e-05
110	0xa408435a	-2.9547348e-17
111	0x3c282844	0.010263506
112	0x1e25b6fe	8.772869e-21
113	0x3e7298f0	0.23691154
114	0xa92f3b9d	-3.8909512e-14
115	0x2ee6cb6e	1.04953254e-10
116	0xb5ecdee7	-1.7648243e-06
117	0xab221f9b	-5.7597823e-13
118	0x3f525f72	0.8217689
119	0x3cf73414	0.0301762
120	0x29e59c13	1.01967175e-13
121	0xab231ac4	-5.794638e-13
122	0x1cc8e126	1.3293089e-21
123	0xad21125d	-9.155868e-12
124	0x2da50752	1.8761579e-11
125	0x3f16fdec	0.58981204
126	0x2ffa9e6e	4.5587306e-10
127	0x97e4d1e0	-1.4787135e-24

readout.readouts.bex_20230623_denoised.location.bias f4 [2]
0	0x3e9a5adf	0.30147454
1	0xbe8f5279	-0.2799261
