artifacts/poses_to_location/20250819220125/best_model.pt (torch, 17973 bytes, 18 tensors)

linear.bex_20230623_denoised.location.weight f4 [2, 63]
000000 24 5f 13 be 44 84 42 bb 0b f8 df bc 57 00 51 be
       -0.14391762 -0.0029680887 -0.027339956 -0.20410286
000010 e4 dd 30 3e 11 ec 42 be c7 0b 31 bd 44 38 b1 3d
       0.17272145 -0.19035365 -0.043224122 0.0865331
000020 d9 ec 01 be 79 f7 04 3e e5 3a 03 3e 92 27 d8 bd
       -0.12688006 0.12985028 0.12815435 -0.105544224
000030 d1 9a 85 3b a8 0d 3d 3e 3d 66 ed bc cb 4c 66 3e
       0.0040772934 0.1846224 -0.028979415 0.22490232
000040 ae 58 ac 3d ab f3 bc bd 6e b7 c3 bd 7f c7 52 3c
       0.08415352 -0.092261635 -0.09556471 0.012864946
000050 8e f4 8e 3c 31 81 07 be 73 cf d7 bd dc bd bb bd
       0.017450597 -0.13232876 -0.10537615 -0.09167072
000060 85 84 32 be 13 64 97 bd d3 b4 0a be f0 ad 76 bd
       -0.17433365 -0.073921345 -0.13545541 -0.060224473
000070 54 9a a8 3c 51 e1 48 bc 3f 63 27 3d 03 0d 38 be
       0.020581402 -0.012260751 0.040866133 -0.17973714
000080 f6 8c de bd 1f 02 32 3d 8d 3a 96 bd c2 f0 b3 3a
       -0.1086673 0.043459054 -0.073353864 0.0013728368
000090 19 c4 92 bc 09 da 52 bd 2b af a1 bd 17 10 43 be
       -0.017915772 -0.051477466 -0.07894739 -0.19049107
0000a0 13 ef 63 be 8a a0 f1 3a 78 73 09 be 7e 44 b8 3c
       -0.22259168 0.0018434685 -0.13422954 0.022493597
0000b0 ec ea 5e be a0 c0 3e be d0 59 87 3c 71 61 07 3e
       -0.21769303 -0.18628168 0.016522318 0.13220765
0000c0 da 3e 4b be 59 38 93 bc 4a 7e 70 3c 42 84 d5 3b
       -0.19848195 -0.017971205 0.014678547 0.0065160105
0000d0 e3 a4 90 bc cf 5e 03 3c cf a0 8a bd 22 c3 ef 3c
       -0.01765675 0.00801821 -0.06768953 0.029267851
0000e0 aa ee a3 bc f8 2d 84 3d 7f 1a bd 3d 67 cc 3e bd
       -0.020011265 0.0645408 0.09233569 -0.046581652
0000f0 b1 37 56 3e 92 4f 4a 3e b5 67 e6 3b 7c db 91 bc
       0.20919682 0.19756916 0.007031406 -0.017804854
000100 ca 21 a6 3d 08 0e 3a be ab 81 26 be 5f 6b 7a 3c
       0.081119135 -0.18169415 -0.16260402 0.015284388
000110 33 7f 18 be c4 0d 52 be 1a e9 53 3e 66 45 29 be
       -0.14892273 -0.20513064 0.2069439 -0.1653038
000120 f2 bc aa 3d d2 36 64 3e 1a c2 ee bd 4f 67 c6 3d
       0.0833682 0.22286537 -0.11658116 0.09687673
000130 e2 4b 25 3e 5a f4 ae bd 48 c1 aa 3c 41 9c 91 3c
       0.16142228 -0.085427 0.020844117 0.017774703
000140 d7 d2 9c bd 51 3d 48 be 21 30 b8 bd b5 97 03 be
       -0.07657402 -0.1955464 -0.08993555 -0.1285084
000150 fb e1 31 bd 59 73 46 3c 8e 1a 09 be c4 c8 8c bd
       -0.043428402 0.012112462 -0.13389036 -0.068742305
000160 b9 37 0d be 2d 9e 34 be fe a2 fd 3d 60 c8 1c 3b
       -0.13790788 -0.17638464 0.12384604 0.0023923144
000170 4b 36 18 be 49 aa 1f 3e b8 40 01 3d 65 26 ff bd
       -0.14864461 0.15592302 0.03155586 -0.12458495
000180 4f 0a 44 3d 79 ab ba bd 88 42 32 be 8f 13 8c 3b
       0.047861394 -0.09114737 -0.17408192 0.0042747925
000190 a3 df b9 bd fa 92 ba 3c fb 2a 35 3d cf b3 3c be
       -0.090758584 0.022775162 0.044230442 -0.18427967
0001a0 2f 39 54 3c 3c ad c7 3d e2 ba 01 3d 16 d0 31 be
       0.012953087 0.09749839 0.031672366 -0.17364535
0001b0 d5 37 6c bd 88 f9 02 3d 30 f5 eb 3c b1 41 c1 bd
       -0.057670433 0.031976253 0.028803438 -0.09436358
0001c0 3f 03 e7 3a f6 fd ee 3b 1e 59 40 3e e9 14 15 bc
       0.0017624869 0.007293458 0.18783996 -0.009099224
0001d0 a6 6f 74 38 73 72 a6 3b dd 09 0c 3e aa 52 b9 bc
       5.8278114e-05 0.0050795614 0.13675638 -0.022622425
0001e0 67 ba 75 bc 47 6d 15 3d b7 ac 6e be c3 73 76 3d
       -0.014998055 0.036481168 -0.23308073 0.060168993
0001f0 d6 62 60 3e 6d 21 9d bc
       0.21912703 -0.019180978

linear.bex_20230623_denoised.location.bias f4 [2]
000000 d2 d7 58 3c 2b a3 39 3d
       0.013235049 0.045321625

linear.ken_20230614_denoised.location.weight f4 [2, 63]
000000 d1 54 a2 bd 55 89 0d bc 33 73 df 3c da a5 07 be
       -0.07926334 -0.0086387 0.027276611 -0.13246861
000010 00 73 cd 3d b4 bc 19 be f0 66 18 be 06 0f 4b 3e
       0.100317 -0.15013391 -0.14883018 0.1982995
000020 b3 62 7e bd ac b9 a8 3d 3e fd 5f 3e f3 e2 19 bc
       -0.062105846 0.08238539 0.21873948 -0.009392488
000030 8c e8 4f 3b cb aa 54 3e 8e a7 2b be ab 74 3b 3e
       0.0031724302 0.20768277 -0.16763136 0.18306224
000040 5f 09 65 3e 28 df 3c be a4 df 03 be 9b 70 81 bd
       0.22366856 -0.18444502 -0.12878281 -0.06320306
000050 32 ed 17 be 05 cc 94 bd db 92 44 be c0 93 a5 bc
       -0.14836577 -0.07265476 -0.19196646 -0.020212054
000060 cd ff e4 bd d5 2a 25 be 86 0f 59 be 5b b3 e0 3d
       -0.111816026 -0.1612962 -0.21197328 0.10971709
000070 b9 a1 f6 bd f2 96 1e be b4 0f f4 3d 65 30 c2 bd
       -0.12042565 -0.15487269 0.11917058 -0.09481887
000080 5b 55 d3 bd b1 21 80 3d 6d 9e 3e be e6 dd ab bd
       -0.10319015 0.06256426 -0.18615122 -0.08391933
000090 ef 64 14 be 9f 6b 25 be 7c b4 82 bd b4 a0 53 bd
       -0.14491628 -0.16154335 -0.06382081 -0.05166693
0000a0 b1 ce 36 3c 94 2c b9 bd fb ff 49 be 9e be e7 bd
       0.0111576775 -0.09041706 -0.19726555 -0.11315654
0000b0 26 66 74 bd c7 d5 30 be 59 f7 14 be d4 04 10 3c
       -0.05966773 -0.1726905 -0.1454748 0.008790214
0000c0 3e 06 56 be 35 40 8d b6 e7 32 24 b7 bd 9b 2d 3c
       -0.20900819 -4.209602e-06 -9.787013e-06 0.010596213
0000d0 55 b8 4c 37 de d5 01 3a 14 43 97 bd bb 69 73 3e
       1.2202266e-05 0.0004952828 -0.07385841 0.23770802
0000e0 3a 77 bb 3d b1 41 fc 3c 45 30 40 3b eb 9e f5 bc
       0.091536 0.030793043 0.0029325646 -0.029983005
0000f0 22 44 25 bd be 8a 54 3d ae 35 b2 38 b3 e0 5b bd
       -0.04034818 0.051890127 8.4977e-05 -0.053681087
000100 3a 81 45 3d 3b a7 cc bd d1 da 83 bd c5 d7 13 3e
       0.048218943 -0.09992834 -0.0643822 0.14437778
000110 85 f8 71 bc 6b f3 30 be 3e 57 98 3d 28 6b 14 be
       -0.014768724 -0.17280357 0.07438515 -0.14494002
000120 74 cd 32 3e dc 4e 27 3d f0 92 35 bd 73 f7 1e 3e
       0.17461187 0.04084669 -0.044329584 0.15524082
000130 f5 da 0d 3d 63 9d a6 bd 75 c2 e3 3c 78 5a bf 3d
       0.03463264 -0.08135488 0.027802685 0.093434274
000140 fa 26 2c be 83 df 02 be 65 f1 98 3b 7c 00 5f be
       -0.16811743 -0.12780575 0.0046674483 -0.21777529
000150 7c 9b 3f be 15 fa fc bd e7 40 0f be f0 f9 3c be
       -0.18711656 -0.12352387 -0.13989602 -0.18454719
000160 aa fb 29 be 42 8c 22 be 2c bb 5e 3e 3a 56 35 bd
       -0.16599908 -0.15873817 0.21751088 -0.044271685
000170 5d 47 f1 bc db 03 40 3e b9 6f 27 be 34 24 3c be
       -0.029452974 0.1875147 -0.16351213 -0.18373185
000180 e9 5c 60 3e a7 0f e5 bd 95 e3 3c be 46 45 6e 3d
       0.21910442 -0.11184626 -0.1844619 0.058171533
000190 4c 58 06 bd 43 04 14 be 0d b4 ab 3d d0 fb 24 3c
       -0.03279905 -0.1445475 0.08383951 0.010069802
0001a0 2b 8d 0f bc 47 f9 f4 3d 56 ba e0 bb de 7e 85 bd
       -0.008761684 0.119616084 -0.0068581505 -0.065183386
0001b0 30 13 8c 3c d6 5c 4a be 46 07 ab 3d 84 8c 8c bd
       0.017098993 -0.19761977 0.08350997 -0.06862739
0001c0 26 ed 92 b7 ac db a3 b8 3c df 10 3e 08 0b cb 34
       -1.7514987e-05 -7.813363e-05 0.14147657 3.7819723e-07
0001d0 ea 74 34 b7 42 34 ae 3c cb 8d 81 3e 86 c4 c5 bd
       -1.0756057e-05 0.021265153 0.25303492 -0.096566245
0001e0 93 58 13 3d 90 07 6c 3e 9f f2 3b be a2 72 12 be
       0.035973143 0.2304976 -0.18354271 -0.14301541
0001f0 cf 09 ee 3d 82 8a 28 b9
       0.116229646 -0.00016073327

linear.ken_20230614_denoised.location.bias f4 [2]
000000 4c 34 40 3e 07 90 13 3e
       0.1876995 0.14410411

linear.ken_20230618_denoised.location.weight f4 [2, 63]
000000 ae a9 e4 bd 64 d9 e4 3d 24 75 4b be 95 20 59 be
       -0.11165176 0.111742765 -0.19868904 -0.21203835
000010 6c b9 1b 3d bd ad 81 bd cf 74 52 be 03 6f 29 3d
       0.03801863 -0.06331966 -0.20552371 0.041365635
000020 4b 75 26 be 80 b6 2f 3e 2a b8 9d 3d 93 98 bc bd
       -0.16255681 0.17159462 0.07701142 -0.09208789
000030 a6 9d 50 3e e4 d0 eb 3d a5 76 bb bd fb f3 2a 3e
       0.20372638 0.11514452 -0.09153489 0.16694634
000040 88 47 16 3e 4d 86 0b be fc 5b 4e be 32 2d 30 3e
       0.14675725 -0.1362545 -0.20152277 0.1720474
000050 05 38 2c be 9f 4f 5f bd ab d5 85 3d 89 e9 1e be
       -0.16818245 -0.054519292 0.065348946 -0.15518774
000060 34 bf 26 be 37 bf 1a be cf 80 02 be 7b 95 6b 3e
       -0.16283876 -0.15112005 -0.12744449 0.23006241
000070 b2 73 9a 3c f1 b3 38 be 1d 91 ea 3d 7b ab 0e 3d
       0.018853996 -0.18037392 0.114534594 0.034831505
000080 31 9d 08 be 73 83 66 3e 36 53 38 be d9 8e e1 bd
       -0.13341214 0.22511081 -0.18000492 -0.11013574
000090 d3 bb 56 bd 27 2b 9f 3d c1 b8 04 be c6 48 08 3e
       -0.052425217 0.077719025 -0.12961103 0.13309011
0000a0 cc 75 7e bd 46 9f b6 bd 77 d8 23 be ef ca 10 bd
       -0.06212406 -0.08917098 -0.16000544 -0.035349783
0000b0 1e 7a 56 3b c4 e4 fa bd 49 97 08 be 9c 1b ca 3c
       0.0032726596 -0.12250665 -0.1333896 0.024671368
0000c0 f7 87 77 bd b8 68 c5 3b 33 ac da 3b 49 f9 14 3c
       -0.0604324 0.0060244463 0.00667336 0.009092637
0000d0 3d 07 30 3c 64 77 4e bc 82 3e 73 be e2 39 86 3e
       0.010743913 -0.012601707 -0.23754314 0.26216036
0000e0 df 3b 27 3e 81 c3 33 be da 93 ca 3d e5 4d 73 be
       0.16331433 -0.17555048 0.09891482 -0.23760183
0000f0 ae fd 29 3c 41 ae cd 3c 29 18 90 b6 8a 3a 34 be
       0.010375423 0.025107505 -4.294347e-06 -0.17600456
000100 f9 24 b7 3d d7 54 1a be 2d 6d e1 bd b4 3a 3b 3e
       0.08942599 -0.15071426 -0.11007152 0.18284112
000110 f1 c2 d5 bd 39 93 44 be ca 74 00 3e d7 73 21 be
       -0.10437573 -0.19196786 0.12544551 -0.15766846
000120 b8 e7 7b 3e 2f bd 2d 3d 6d 28 39 be 07 4e f5 3d
       0.24600112 0.042416748 -0.18081827 0.11977773
000130 ce fa 52 3e a4 f3 06 be f0 8e 8a 3e 08 03 ea 3d
       0.20603487 -0.13178879 0.27062178 0.114263594
000140 55 a0 3a bd 26 0e 46 be b6 a6 42 3d de c6 85 bd
       -0.04556306 -0.19341335 0.04752227 -0.065320715
000150 57 c3 da bd 5d 78 ee bd 4c c6 3e be 2d e5 37 be
       -0.10681789 -0.11644051 -0.18630332 -0.17958517
000160 60 73 60 be 3d 70 50 be c9 19 2c 3e 4a c3 01 3e
       -0.21919012 -0.20355316 0.16806711 0.12672153
000170 72 73 02 be 98 50 13 3e ee f1 a3 bd 23 e2 07 bd
       -0.12739351 0.14386213 -0.08005129 -0.033174645
000180 11 e6 a8 3d ce 1b 39 be 59 29 18 be ed 3e 3d 3e
       0.08247007 -0.18077013 -0.14859523 0.18481036
000190 aa 93 c7 3c a0 0e 24 be 2e 98 91 3d f6 e1 72 be
       0.024362404 -0.16021204 0.07109104 -0.2371901
0001a0 51 79 ed bd af b1 bb 3d a1 5b a7 ba 6c 10 54 be
       -0.11595405 0.0916475 -0.0012768396 -0.2070939
0001b0 f0 f4 78 3d fc e0 dc bd 2f 34 94 bb 9c 83 8d bd
       0.060780466 -0.107851 -0.0045228223 -0.06909868
0001c0 41 f3 19 bc 91 a0 2e 3c b0 ca ca 3c 0d 0f 19 38
       -0.009396375 0.010658399 0.024754852 3.649206e-05
0001d0 91 db 90 b4 8a ac a4 3d c9 6f 4c 3e b8 4a 71 be
       -2.6981846e-07 0.08040722 0.19964518 -0.23563659
0001e0 63 b9 27 be d0 e8 a4 3d 13 e1 e4 bd 93 bf 1e be
       -0.16379313 0.08052218 -0.11175742 -0.15502767
0001f0 39 b3 4b 3e 17 6b 4a 39
       0.19892587 0.00019304115

linear.ken_20230618_denoised.location.bias f4 [2]
000000 73 a8 95 3d 2f 6e 76 3e
       0.0730752 0.24065469

exp_avg f4 [2, 63]
000000 a8 e7 e5 3d 5a 08 ca bd 29 4a 6e 3e 53 7b 10 3e
       0.112258255 -0.09864874 0.23270477 0.14109544
000010 8c 3d 2f bd 27 67 37 3e ff 99 eb 3d 97 5d 99 bc
       -0.042783305 0.17910443 0.11503982 -0.018721385
000020 6e ab 61 3d f0 0b 54 bc 60 f9 e6 bd a0 1a 75 3e
       0.05509513 -0.012942299 -0.11278033 0.23935938
000030 70 5d 63 bd d4 eb b3 bd ed ad 59 3e 96 11 c3 bd
       -0.05550903 -0.08785215 0.21257754 -0.095248386
000040 ec dd 84 bc f7 af 75 3d ce 2f f9 3d 74 cc 43 3d
       -0.016219102 0.059982266 0.12167321 0.047802404
000050 f5 e2 d0 3e 2c ca fe 3d ba 19 70 3d bd 89 97 3e
       0.40798154 0.12440905 0.058618285 0.29597273
000060 39 d4 d4 3d 12 0d f9 3d ac 8c 55 3e e7 a4 2a 3d
       0.10392041 0.12160696 0.20854443 0.04166117
000070 65 ea 1b 3d d6 d7 c9 3e c5 9b 27 bc 52 55 5b 3d
       0.038065333 0.39422482 -0.010230009 0.053548165
000080 5d b9 a4 3e a6 28 55 bd 81 0c 11 3e fb 95 43 3e
       0.3217267 -0.05204072 0.14164926 0.19100182
000090 1e 00 4f 3d ed 3c ff 3d 77 3e b8 3e 00 10 ca 3c
       0.05053722 0.124627925 0.35985157 0.024665833
0000a0 0b ad 17 3e 0c b4 46 3e a8 5f fc 3b d5 95 33 3c
       0.14812104 0.1940462 0.007701833 0.010961016
0000b0 95 06 be 3c a9 75 10 3b c2 29 15 bb 3b 44 0d bd
       0.023196498 0.0022042787 -0.0022760485 -0.034488898
0000c0 6c a2 ac 3d 1a af 67 b4 e8 8f 42 34 6d a3 ac bd
       0.08429417 -2.1577253e-07 1.8120011e-07 -0.084296085
0000d0 a8 a9 64 b4 82 c3 e2 33 f4 d3 57 3b 45 c4 8f bd
       -2.1295875e-07 1.0559508e-07 0.003293273 -0.07019857
0000e0 22 d3 51 3c cb 61 28 bd f5 64 8c bd 8b 56 9b 3c
       0.012806686 -0.041108888 -0.068551935 0.018962165
0000f0 e5 3e 84 bc 6d a2 ac bd b1 29 ca 33 c6 0e b0 3d
       -0.016143272 -0.08429418 9.4139416e-08 0.08596568
000100 a1 ea d8 bd ce 2d 4d 3e 7a 21 07 3e 0f 55 77 bd
       -0.10591627 0.20037004 0.13196364 -0.060383853
000110 18 a7 1c 3e 76 fa 0d 3e ac 56 95 bc bc cb 1e 3d
       0.15298116 0.13865075 -0.018229805 0.038768515
000120 d3 0a 73 bd b8 20 06 be 8c fc 48 3e 99 b3 0d be
       -0.059336495 -0.13098419 0.19627589 -0.13838042
000130 c9 8c df bd e6 e4 41 3e 59 a3 14 be 14 23 88 bc
       -0.109155245 0.18934974 -0.14515437 -0.016618289
000140 da b3 27 3d d8 84 bf 3d 87 ed 9d 3c 48 1f c3 3e
       0.040943004 0.0935151 0.0192783 0.38109803
000150 7d 41 d1 3d e4 34 40 3d 69 a7 97 3e 8f fe 9b 3d
       0.10217569 0.04692544 0.2961991 0.076169126
000160 f4 58 f4 3d 52 74 4e 3e 88 dd 4c bd 5a 20 d0 3c
       0.11931029 0.2016156 -0.050015956 0.025406051
000170 9f 5c c3 3e 48 30 e7 bd 22 11 31 3d 8c 3a 9d 3e
       0.38156602 -0.11288506 0.04322923 0.3070873
000180 bd 63 25 be 1e 88 0b 3e 81 e8 58 3e a3 e7 32 bd
       -0.16151328 0.13626143 0.21182443 -0.043677937
000190 01 1d f4 3d d3 38 bf 3e 23 4f 3a bd dc c1 11 3e
       0.119195946 0.3734804 -0.045485627 0.14234108
0001a0 a1 1a 4f 3e d9 3f 4e bc dd 60 69 3c 40 f5 a2 3c
       0.20225002 -0.012588465 0.014244285 0.019892335
0001b0 7a 98 18 3a ba 22 2e bb fd 11 02 bd ac 2d e5 3d
       0.00058210606 -0.0026570992 -0.031755436 0.11190352
0001c0 09 73 01 33 c6 a1 d0 33 2f 2d e5 bd 00 5f fd b3
       3.0139777e-08 9.715181e-08 -0.11190259 -1.1798511e-07
0001d0 d9 82 34 30 f5 3b 8f 3c 7e 0a d9 bd f2 38 7a 3d
       6.5669564e-10 0.017484644 -0.10597704 0.061089464
0001e0 88 12 2c bd 64 1d d4 bd 54 ab 27 3d 97 25 25 bc
       -0.04200986 -0.10357168 0.040934876 -0.010079763
0001f0 05 2d e5 bd 9f 50 76 b4
       -0.111902274 -2.2939865e-07

exp_avg_sq f4 [2, 63]
000000 d8 e6 0d 3b 7f b9 1b 3b 0d a1 aa 3c 08 4c 7c 3b
       0.0021652486 0.0023761687 0.020828748 0.0038497467
000010 89 58 ee 39 59 ef 46 3c 9e ad 49 3b d6 b1 a3 38
       0.0004546086 0.012142026 0.003077365 7.80557e-05
000020 fb 86 99 3a b5 15 6b 39 8f 8e 46 3b f0 89 aa 3c
       0.0011713201 0.00022419433 0.0030297374 0.020817727
000030 9b 39 a6 3a 68 15 b2 3a 9e 30 6f 3c 1b 10 1d 3b
       0.0012681963 0.0013586702 0.014598994 0.0023965898
000040 26 85 69 38 fa 12 9e 3a 90 be 1f 3b b0 9d aa 3a
       5.5675533e-05 0.0012060099 0.0024375059 0.0013016965
000050 1a 0d 6b 3d ed e5 42 3b eb fa f1 3a b6 1c 02 3d
       0.05738554 0.0029739097 0.001846162 0.031765662
000060 f2 1a 1a 3b 18 d1 d4 3b 70 a1 70 3c e5 a6 27 39
       0.0023514596 0.0064946525 0.014686927 0.00015988534
000070 fb 5e 9a 3a 83 b8 62 3d 8a cb 35 39 30 16 e5 3a
       0.0011777574 0.055351745 0.0001733733 0.0017477926
000080 95 f1 10 3d 08 56 60 3a c6 d3 f3 3b 5d 19 4f 3c
       0.03538664 0.00085577415 0.007441017 0.012640324
000090 2c aa a5 39 46 87 e3 3b 7b 12 31 3d b2 7c e1 38
       0.0003159804 0.006943616 0.043230515 0.000107520624
0000a0 99 3c 0a 3c cf 03 57 3c 7a 33 15 37 df 11 c1 38
       0.008437299 0.013123467 8.893077e-06 9.206286e-05
0000b0 1f ea 52 39 67 5a 9f 36 a0 47 3f 35 21 0a e8 39
       0.00020114378 4.7490935e-06 7.125727e-07 0.00044258035
0000c0 87 a9 ea 3a b9 a2 34 29 09 0b 1b 29 51 ab ea 3a
       0.0017903306 4.0109168e-14 3.4426485e-14 0.001790384
0000d0 8e 75 32 29 c6 dc cb 28 af 73 b7 37 d0 19 83 3a
       3.9625902e-14 2.2633273e-14 2.186917e-05 0.00100022
0000e0 86 08 d0 37 f5 ec ae 39 25 d3 84 3a b4 8a 1d 38
       2.4799501e-05 0.00033364413 0.0010133727 3.7560894e-05
0000f0 9d 9b 22 38 89 a9 ea 3a 91 72 bc 28 51 66 b1 3a
       3.8768736e-05 0.0017903309 2.0921878e-14 0.0013534521
000100 b7 2a 27 3b 56 b2 92 3c 9e e8 58 3b 53 a8 3c 3a
       0.0025507638 0.017907303 0.0033097635 0.0007196713
000110 ed a1 2a 3c 00 76 80 3b 68 3b 95 38 dd 32 5f 3a
       0.010414583 0.0039203167 7.115939e-05 0.0008514354
000120 12 ef 85 3a 5a d5 6b 3b 7e 98 8b 3c 57 40 8a 3b
       0.0010218343 0.0035985322 0.017040487 0.0042190957
000130 dc 09 f8 3a f5 ad 50 3c c9 d4 8e 3b 22 ec 5d 38
       0.0018923837 0.012736787 0.004358862 5.291042e-05
000140 cc b9 51 3a 48 14 aa 3a 64 a3 5a 3a 19 16 5b 3d
       0.0008000403 0.0012976015 0.0008340387 0.05348787
000150 6b bc f7 3a 99 eb d6 3a fb 63 03 3d 16 66 a2 3a
       0.0018900757 0.0016397118 0.03207777 0.0012390043
000160 8f d7 d6 3b 61 e2 67 3c 7a 87 36 3a 27 c4 7f 3a
       0.0065564583 0.014153094 0.00069629366 0.0009756707
000170 e3 2a 5b 3d bc 61 29 3b 19 76 c9 3a 22 ea 08 3d
       0.053507697 0.0025845608 0.0015370279 0.03342641
000180 d9 11 a0 3b 05 2c ec 3b 26 04 6a 3c 1a 6b 01 3a
       0.00488494 0.007207396 0.014283216 0.0004936919
000190 de 78 df 3b 50 ba 37 3d 59 3e c0 39 1f 7e 06 3c
       0.0068198284 0.044855416 0.00036667546 0.008208781
0001a0 cb e3 62 3c 0e 86 c8 37 b5 c7 f8 38 90 bf 30 39
       0.013848255 2.3904282e-05 0.0001186276 0.0001685603
0001b0 67 57 6c 36 74 e0 69 35 da db d5 39 98 b8 2c 3b
       3.5217615e-06 8.7125886e-07 0.00040790328 0.0026355144
0001c0 66 ee 4a 28 d5 d3 c0 28 0c b8 2c 3b cb ab dc 28
       1.1264947e-14 2.140815e-14 0.0026354818 2.449941e-14
0001d0 9c e9 b6 26 00 10 df 38 da 95 f9 3a 1f 13 f3 39
       1.2692107e-15 0.00010636449 0.0019041852 0.00046362818
0001e0 43 e1 cc 39 2f 5a fa 3a 1e a4 37 39 a9 41 38 38
       0.00039077745 0.0019100363 0.00017513378 4.393017e-05
0001f0 e0 b7 2c 3b c9 0b 3f 29
       0.0026354715 4.242074e-14

exp_avg f4 [2]
000000 48 cc 57 bf d3 3c 8f bf
       -0.84296083 -1.1190437

exp_avg_sq f4 [2]
000000 89 55 37 3e 64 f0 86 3e
       0.17903723 0.26355278

exp_avg f4 [2, 63]
000000 f5 02 6a 3d d5 ff 84 bc ba 06 fc 3b 60 cb 7f 3d
       0.057131726 -0.016235271 0.0076912316 0.062449813
000010 37 d5 23 bc 2b ca 51 3a 23 2d 31 3d dd 97 99 bb
       -0.009999565 0.00080028427 0.043255936 -0.004687293
000020 fb 43 14 ba 79 1c 1c bd 01 9c fb bc 70 e7 2c ba
       -0.0005655882 -0.03811309 -0.030714037 -0.0006595766
000030 21 d2 32 bd 18 ad f2 bc 13 84 6f 3b 6e 20 21 bd
       -0.043657426 -0.029623553 0.0036547228 -0.039337568
000040 15 34 2f bb 85 4d 91 3b dc ed c5 3c ea 71 bd bc
       -0.0026733924 0.00443429 0.024161272 -0.023125608
000050 a5 ab 8c 3c b3 ef ea 3c af 8f 6a bc ad 0e 40 3c
       0.01717169 0.02867875 -0.014316483 0.011722249
000060 66 96 a9 3c 37 97 5e bc 24 d5 89 3c 1c f8 03 bd
       0.020701598 -0.013585857 0.016825266 -0.032219037
000070 3c 34 b8 bc 93 b4 54 3c 19 cf 1e bd ba 94 a4 bc
       -0.022485845 0.012982505 -0.038771722 -0.02009045
000080 c0 8f 28 3c 16 03 28 bd 1f 62 40 bc dc 2a 55 3c
       0.010288179 -0.041018568 -0.011742144 0.013010707
000090 6c 8e a2 3c 0e 7b c9 bc cb 37 9c 3c 07 55 97 bb
       0.019843303 -0.02459481 0.019069573 -0.0046182903
0000a0 e6 d2 63 bc 71 4c 83 3c be 30 db 38 89 1b 27 bb
       -0.013905263 0.016027661 0.00010451813 -0.002549859
0000b0 45 99 0e 3b 0d d2 45 3b a6 1d 18 3b 61 74 4c bb
       0.0021758836 0.0030185014 0.0023211031 -0.0031197297
0000c0 87 a1 0c 3d 25 84 a4 33 e0 29 b4 33 12 a2 0c bd
       0.034333732 7.660882e-08 8.38952e-08 -0.03433425
0000d0 4a 34 0b 34 7e 43 21 b4 e8 0a 98 3c c7 78 90 bd
       1.2964406e-07 -1.5018847e-07 0.018559888 -0.070542865
0000e0 3e dc 17 bd f2 24 6d 3d c2 ff 6c bd 66 30 5a 3d
       -0.037075274 0.057896562 -0.057861097 0.053268813
0000f0 d0 91 f0 ba e7 a1 0c bd 48 fb d5 ad 4c 62 1f 3e
       -0.0018354002 -0.03433409 -2.4326888e-11 0.15564841
000100 9a 23 99 bd 66 50 81 3d 95 ff 29 3e d8 6d 2e bd
       -0.074774936 0.06314163 0.16601403 -0.042585224
000110 fe 3b 47 3d e7 a5 07 3e 6e e8 0e bc cb 56 2c 3c
       0.048641197 0.1324688 -0.008722408 0.01051874
000120 3b 80 d9 bd fa 05 f6 bd 6a 95 d5 3c d6 60 23 be
       -0.10620161 -0.12012859 0.026072223 -0.15954909
000130 2e e6 ad bd 2e f9 06 3d e1 b0 0c be 38 8c 5c bc
       -0.08491169 0.03295248 -0.13739349 -0.013461165
000140 5f 72 6b 3c d3 bc 2a 3d 66 b3 3a bd 63 11 2f 3e
       0.01437053 0.041683983 -0.045581244 0.17096476
000150 75 87 5e 3d 10 21 83 bc 1e 69 12 3e 75 f4 0d 3c
       0.0543284 -0.016006976 0.14297912 0.00866424
000160 91 74 f9 3c de 80 e8 3d fa 37 14 be 04 ef 17 bd
       0.030451091 0.113527045 -0.14474478 -0.037093177
000170 88 6e 32 3e 63 99 20 be 03 b4 4a bc 75 d8 1b 3e
       0.17424977 -0.15683512 -0.01237202 0.1521929
000180 4d f9 43 be 16 0b be 3c 9a cf 0c 3e ad 88 1d bd
       -0.1913807 0.023198646 0.13751069 -0.038460422
000190 12 54 36 bb 56 d9 43 3e f4 51 bc bd 9e 78 0b 3d
       -0.0027821106 0.19125876 -0.09195319 0.034050576
0001a0 07 67 04 3e 8f a2 5d bc 78 ea 94 3a 1c 01 d2 3b
       0.12929927 -0.0135275265 0.0011361381 0.0064088237
0001b0 98 9d 09 3b 76 10 16 3c f4 74 59 bc 59 4a e4 3d
       0.0020998474 0.009159198 -0.013272513 0.11146993
0001c0 44 8f f5 b3 e8 1d 0a 34 95 4a e4 bd 9d f8 a2 2f
       -1.14347614e-07 1.2863131e-07 -0.11147038 2.964428e-10
0001d0 bc 7c 07 2e 20 85 22 be b2 fc 00 be 5b a9 50 3e
       3.0806233e-11 -0.15871096 -0.12596396 0.20377104
0001e0 b0 fd 06 3e be 38 13 be 29 ea 11 3e 4c d4 c1 3c
       0.13182712 -0.14377114 0.14249481 0.023660801
0001f0 ab 49 e4 bd be f9 88 31
       -0.111468635 3.9865133e-09

exp_avg_sq f4 [2, 63]
000000 64 d4 a1 3a c0 71 22 3a c3 cf 53 3b a0 25 e2 3a
       0.0012346623 0.00061967596 0.003231988 0.0017253645
000010 7f 4e 33 39 5d 90 d5 3a ec c6 96 3a 0f ec c1 37
       0.00017100012 0.0016293634 0.0011503375 2.3117316e-05
000020 67 87 0a 39 ac 23 2d 3a 3e e2 68 3a 15 76 35 3b
       0.00013211147 0.0006604742 0.00088838104 0.002768879
000030 30 7e 82 3a c9 53 d8 39 c2 d8 e5 3a f9 a3 72 3a
       0.000995582 0.00041261155 0.0017535912 0.0009256001
000040 fb 05 66 37 17 a8 72 39 10 87 ba 39 b2 ef 8e 38
       1.3710461e-05 0.00023141537 0.00035577314 6.8157344e-05
000050 6d 97 0f 3c c5 5b fc 39 02 9b c3 38 0e 06 a0 3b
       0.00876413 0.0004813356 9.327197e-05 0.0048835343
000060 ae 5c db 39 1c 49 17 3a 6b 6f 4c 3b 68 42 9f 39
       0.00041839987 0.0005771087 0.003119434 0.0003037632
000070 23 89 b6 38 fe 18 1c 3c 2e 95 22 3a ed cf ae 38
       8.70398e-05 0.009527443 0.0006202039 8.335696e-05
000080 6d dd a6 3b c2 2c 50 3a ba 37 38 3a e4 c0 32 3b
       0.005092314 0.000794124 0.0007027347 0.0027275616
000090 0f f7 a6 39 53 74 c0 39 c7 d9 ff 3b 78 e7 2d 37
       0.0003184606 0.00036707762 0.0078079435 1.0365497e-05
0000a0 4e cc 3d 3a 76 80 39 3b e9 5f 3a 35 20 c9 86 36
       0.00072402216 0.0028305328 6.942997e-07 4.0169252e-06
0000b0 34 0f 1c 38 87 ce 9d 35 64 f3 04 36 6c 2f 8e 39
       3.7207457e-05 1.1757519e-06 1.9811205e-06 0.00027119683
0000c0 99 bb 36 3a 71 05 30 29 c3 fe 39 29 4d bc 36 3a
       0.0006970703 3.908457e-14 4.1299222e-14 0.0006970808
0000d0 02 85 76 29 45 fb 88 29 76 3b a6 38 56 c6 93 3a
       5.473834e-14 6.0832016e-14 7.926572e-05 0.0011274319
0000e0 12 59 19 39 70 24 9d 3a a7 03 7b 3a 15 db 88 3a
       0.00014624398 0.0011989009 0.00095754344 0.0010441268
0000f0 d8 f8 b8 36 13 bc 36 3a ed 27 05 27 60 1a d0 3b
       5.5125965e-06 0.0006970774 1.8479102e-15 0.0063508004
000100 6f c2 49 3b 00 75 23 3c 03 43 04 3c b4 ed 64 3a
       0.0030786057 0.009976625 0.008072617 0.00087329303
000110 44 47 b7 3b 45 31 c0 3b 71 f5 6d 38 c9 6b da 39
       0.0055932123 0.0058652484 5.673379e-05 0.00041660506
000120 2f c7 56 3b 28 9d ab 3b 07 f0 ec 3b 18 fd e8 3b
       0.0032772531 0.0052372403 0.007230762 0.0071102493
000130 24 48 0a 3b c7 eb 9f 3b 49 0c be 3b 95 db ac 38
       0.0021100128 0.004880402 0.0057998043 8.2424995e-05
000140 7e a2 1c 3a 8e 91 4b 3a 18 75 36 39 1e 68 12 3d
       0.0005975141 0.0007765525 0.00017400493 0.035743825
000150 39 59 a1 3a 70 d9 7a 39 1e ee b2 3c 81 38 cc 39
       0.0012309916 0.0002392286 0.021842059 0.0003895201
000160 d0 a9 31 3b fc 11 52 3c 7f 60 8e 3b e6 e8 2b 39
       0.0027109273 0.012821671 0.0043449993 0.00016394592
000170 19 80 1e 3d 1b 51 c5 3b 01 90 81 39 87 be c0 3c
       0.038696382 0.0060216314 0.0002471209 0.02352835
000180 8b 0f 16 3c f9 69 30 3b bf 52 6b 3c ca 3f 09 39
       0.009158979 0.0026918633 0.01436299 0.00013089101
000190 cc 91 b4 3a 2a d7 10 3d 46 d4 be 3a e8 98 59 3b
       0.0013776361 0.035361446 0.0014559112 0.0033202711
0001a0 c0 6f 5d 3c 79 c2 f6 37 af 15 9b 37 57 3c cb 38
       0.013515413 2.9416044e-05 1.8487537e-05 9.6910335e-05
0001b0 23 30 d4 35 40 c7 98 37 8b 0a 3c 3a 39 93 80 3b
       1.580924e-06 1.8212595e-05 0.0007173202 0.0039238003
0001c0 74 d1 61 29 2c c5 75 29 66 93 80 3b de 82 0c 28
       5.0141708e-14 5.4571948e-14 0.0039238213 7.7999385e-15
0001d0 e9 d5 3b 26 19 5c af 3b 29 52 4d 3b c2 8e 40 3c
       6.516856e-16 0.005351555 0.003132949 0.011752786
0001e0 62 2f a3 3b c1 99 98 3b 81 f0 ad 3b 48 8c 0a 39
       0.0049800137 0.004657001 0.0053082113 0.00013212964
0001f0 b1 92 80 3b 96 60 67 28
       0.003923737 1.284402e-14

exp_avg f4 [2]
000000 8e ca af be 98 ae 8e bf
       -0.34334224 -1.1147032

exp_avg_sq f4 [2]
000000 89 c2 8e 3d e7 e5 c8 3e
       0.069706984 0.39237902

exp_avg f4 [2, 63]
000000 b8 94 1d 3d 4c eb 1c bd 8d 21 61 3d 6c 50 52 3d
       0.038471907 -0.038310334 0.054963637 0.051346228
000010 a4 00 bb bc 82 a3 23 3d 8a d5 2b 3d e1 b3 11 bc
       -0.022827454 0.039950855 0.041951694 -0.008892984
000020 d0 38 41 3c b0 ac 02 bd 63 29 16 bd 2b 31 70 3d
       0.01179333 -0.03190297 -0.036660563 0.05864064
000030 51 aa 24 bd 19 d3 c3 bc a2 32 55 3d c3 90 1b bd
       -0.04020149 -0.02390437 0.05205024 -0.037979852
000040 08 e2 aa bb ce 8c ae 3c 63 af bc 3c 5d 0e 92 bc
       -0.0052149333 0.021307375 0.02303285 -0.017829115
000050 9b 0c c9 3d dd af f2 3c 81 17 e9 bb df 86 93 3d
       0.098168574 0.029624874 -0.0071133976 0.07203459
000060 05 53 01 3d ee ff 81 3b 88 43 8b 3d c1 1e 8e bc
       0.031573314 0.003967277 0.0679999 -0.017348649
000070 dc 97 79 bc 50 d7 ce 3d 82 ec c9 bc bd ad 35 bc
       -0.01523396 0.10099661 -0.024648909 -0.011088786
000080 fa 33 99 3d 7e d7 e2 bc cf d3 41 3c 48 4b 72 3d
       0.07480617 -0.027690645 0.011830284 0.059153825
000090 1a 13 02 3d f5 04 0f bc e6 42 c4 3d c4 d4 06 3c
       0.031756498 -0.008729209 0.09583072 0.008229438
0000a0 6e 6b d0 3b 04 92 87 3d 87 c0 38 3a 7e 28 10 3a
       0.006360463 0.06619647 0.0007047732 0.0005499198
0000b0 03 0d 12 3c 25 5b 5d 3b 25 b9 79 3b 62 0c 9d bc
       0.008914235 0.003377625 0.003810474 -0.019170944
0000c0 d6 04 07 3d 19 9e 13 af 2f 02 c8 2e eb 06 07 bd
       0.032963596 -1.342574e-10 9.095335e-11 -0.032965582
0000d0 38 d5 23 30 9d c4 26 32 53 60 92 3c bb 5a 3e bd
       5.9602057e-10 9.707176e-09 0.017868197 -0.046473246
0000e0 c9 5b 3b bc b7 a5 81 3c dd d1 2c bd 26 dd 45 3d
       -0.0114354575 0.01582609 -0.04219233 0.048306607
0000f0 41 96 d2 3b 7c 06 07 bd 42 e6 5d 30 d6 30 da 3d
       0.006426603 -0.03296517 8.072655e-10 0.10653846
000100 4e da cc bd a6 e2 5f 3e c9 64 02 3e ab aa 52 bd
       -0.10002576 0.21863803 0.12733759 -0.051432293
000110 fd 0f 2d 3e d3 b6 f4 3d e0 4f 52 bc ee c0 3f 3d
       0.1690063 0.119489335 -0.0128364265 0.04681485
000120 a4 17 a7 bd 6f 3c fd bd e0 8c 47 3e a8 7b 07 be
       -0.08158806 -0.123650424 0.19487333 -0.13230765
000130 9c 2a 8e bd 54 80 25 3e a3 3d fc bd fd 23 9b bc
       -0.06941721 0.16162235 -0.12316444 -0.018938059
000140 5a 33 4e 3d 4f e2 d3 3c 3e 22 8c 3c 73 85 d7 3e
       0.05034194 0.025864748 0.017106172 0.42094
000150 39 d3 27 3d bb ab 1e 3d cb a2 a8 3e 66 db 9a 3c
       0.040972922 0.038737994 0.329367 0.018903445
000160 0f fb f3 3d 72 35 74 3e 6c 6d cc bd a5 91 c6 3c
       0.1191312 0.23848513 -0.09981808 0.02423937
000170 5d c7 d7 3e 8a 07 f4 bd cd fa 25 3d ed fb a8 3e
       0.4214429 -0.119155005 0.040522385 0.33004704
000180 66 92 22 be 12 11 e6 3d 5e b8 7f 3e 58 02 34 bd
       -0.15876159 0.11233725 0.24972674 -0.043947548
000190 eb a2 bb 3d e1 81 d1 3e 29 6a 97 bd 92 b8 03 3e
       0.091619335 0.40919402 -0.07393295 0.12863377
0001a0 48 83 76 3e 4f 9c 42 bc 22 a7 20 3c df ab 94 3c
       0.24073517 -0.011878087 0.009805473 0.01814836
0001b0 e8 c9 f9 3a 34 f8 f3 3b 73 0b 7f bd 75 78 c8 3d
       0.0019057365 0.0074453596 -0.06226678 0.097886
0001c0 8e 59 d1 2e 96 70 81 2f 14 78 c8 bd af 64 2f ac
       9.520128e-11 2.354496e-10 -0.09788528 -2.4924886e-12
0001d0 b2 58 9b af 48 2f 05 bd c5 35 9c bd 40 d3 f7 3d
       -2.8257358e-10 -0.032515794 -0.07627443 0.121008396
0001e0 51 51 ab 3c 60 ec bf bd 4e fd e1 3d 9e 16 5b 3c
       0.020912798 -0.09371257 0.11034642 0.013372092
0001f0 36 78 c8 bd 85 99 9b b1
       -0.097885534 -4.528547e-09

exp_avg_sq f4 [2, 63]
000000 bf 98 38 3a 35 aa 97 3a 11 47 08 3c a5 a6 a9 3a
       0.0007041804 0.0011571111 0.008317725 0.0012943341
000010 15 7c a9 39 82 4c 92 3b e4 74 99 3a ec c4 40 38
       0.0003232664 0.004464687 0.001170781 4.5959765e-05
000020 05 d6 c6 39 f2 e8 fe 39 7f 51 88 3a 2a 1b 0c 3c
       0.0003792496 0.00048620213 0.0010400264 0.008551398
000030 38 f4 74 3a aa 0b 97 39 3d ef af 3b 02 76 78 3a
       0.0009344253 0.00028809655 0.0053690956 0.0009478034
000040 0c e4 cf 37 6a 0c 28 3a a3 5a ad 39 76 23 0b 39
       2.4782516e-05 0.0006410541 0.0003306466 0.00013269283
000050 9f da af 3c 7f db 06 3a a4 cc 8d 39 32 e2 42 3c
       0.021466551 0.0005144402 0.00027046085 0.0118947495
000060 ac a3 31 3a ff 9f b6 3a c2 06 e4 3b 94 1f d0 38
       0.0006776403 0.0013933181 0.0069588134 9.924095e-05
000070 13 0e 70 39 ad 4e be 3c 7f 20 ab 39 11 bb 87 39
       0.00022893427 0.023230875 0.00032639873 0.00025888582
000080 4d 73 4d 3c 63 47 06 3a 44 94 ef 3a 4d 3f c9 3b
       0.012539697 0.0005122332 0.001827844 0.0061415792
000090 ec 89 06 3a c1 14 88 3a a9 37 96 3c 47 a7 37 38
       0.00051322463 0.0010382162 0.018337088 4.378639e-05
0000a0 b8 b2 e1 3a 50 c2 d6 3b 5a 79 3c 35 2c 1d 74 37
       0.00172194 0.0065539256 7.021205e-07 1.4550325e-05
0000b0 36 5d c5 38 d9 0a 88 35 6e 4e 3c 36 ba 4d 40 3a
       9.411054e-05 1.0135947e-06 2.8059835e-06 0.0007335801
0000c0 e3 20 3b 3a e6 5a 9e 26 28 11 3f 26 59 23 3b 3a
       0.00071383844 1.098809e-15 6.628969e-16 0.0007138751
0000d0 1c 6a 89 27 ab c2 4c 28 08 99 a5 38 35 6b 13 3a
       3.8140183e-15 1.1366487e-14 7.8963174e-05 0.000562358
0000e0 ac a1 d4 37 8f 83 f7 37 2d 45 11 3a 15 36 0b 3a
       2.5347654e-05 2.9505956e-05 0.0005541619 0.0005310488
0000f0 2f 39 d5 36 d5 22 3b 3a 92 ea ce 27 f4 81 49 3b
       6.3545517e-06 0.0007138674 5.7430807e-15 0.0030747624
000100 55 84 79 3b a7 3f e5 3c 39 62 9a 3b 41 f0 77 3a
       0.003807326 0.027984453 0.004711416 0.0009458103
000110 65 c1 82 3c be f6 96 3b 71 8c a6 38 5b 2c a9 3a
       0.015961358 0.0046070507 7.941656e-05 0.0012906896
000120 d1 09 f5 3a ce 92 9b 3b ec 71 cf 3c f4 5f 9e 3b
       0.0018694942 0.004747725 0.025322877 0.004833216
000130 7b 2a a9 3a fc 42 82 3c 4d 02 94 3b 19 b8 fa 38
       0.0012906337 0.015901081 0.004516876 0.0001195522
000140 28 6f cf 3a 91 95 cf 39 47 cb 49 3a 23 30 af 3d
       0.0015825974 0.00039593552 0.0007697832 0.08554103
000150 fe a3 4f 3a 1a 56 bb 3a 7d 44 4e 3d 16 5c 09 3a
       0.000792086 0.0014292628 0.050358284 0.0005239857
000160 27 db ff 3b 81 e4 d1 3c 6d 76 fd 3a ad 5b 8c 3a
       0.0078081074 0.025621654 0.0019337662 0.0010708474
000170 90 a5 b4 3d 81 f1 5a 3b 1c 74 c3 3a 5e eb 50 3d
       0.08820641 0.0033408108 0.0014911923 0.051005714
000180 4c 4b c5 3b 0e cc 00 3c e0 d3 d7 3c 78 39 14 39
       0.006020939 0.00786115 0.026346147 0.00014135789
000190 5a 56 c2 3b d3 19 9b 3d 8c fc 57 3a a1 8a 16 3c
       0.005930704 0.07573285 0.00082392315 0.009188325
0001a0 69 1d ce 3c a4 da a8 37 db 3c 87 38 dc ec 5b 39
       0.025160508 2.0128973e-05 6.448637e-05 0.00020973705
0001b0 b8 b7 cb 35 fd 2d 18 37 c7 89 14 3b 1c 2f 44 3b
       1.5178148e-06 9.0706135e-06 0.002266513 0.0029935306
0001c0 fd 67 b7 23 b4 30 1a 22 a2 2e 44 3b 28 55 d5 21
       1.988494e-17 2.0896675e-18 0.0029935022 1.4455982e-18
0001d0 08 5a 02 27 8e db 99 39 62 d6 ad 3a f5 7d 57 3b
       1.808993e-15 0.00029346015 0.0013262744 0.0032881473
0001e0 be 34 8b 38 61 dd 05 3b 30 73 14 3b 26 9b ea 37
       6.6378605e-05 0.0020426142 0.0022651665 2.796722e-05
0001f0 cb 2e 44 3b 58 1e 2a 28
       0.0029935117 9.4434755e-15

exp_avg f4 [2]
000000 7f c8 a8 be e3 96 7a bf
       -0.32965466 -0.97886485

exp_avg_sq f4 [2]
000000 05 33 92 3d cc 44 99 3e
       0.071386375 0.299353
