artifacts/poses_to_location/20250818182025/best_model.pt (torch, 376885 bytes, 48 tensors)

embedding.embeddings.bex_20230623_denoised.poses.weight f4 [64, 63]
0	0x331434bc	3.4506897e-08
1	0x34894516	2.5568505e-07
2	0xb401945a	-1.2068031e-07
3	0xb45ca9c7	-2.0550861e-07
4	0xb41d11f1	-1.4628291e-07
5	0xb4399ce2	-1.7286541e-07
6	0x33f9af50	1.1626855e-07
7	0xb3140c20	-3.4469963e-08
8	0x332ce801	4.0257877e-08
9	0x331c1dfe	3.6348858e-08
10	0x31d6b9c8	6.2493406e-09
11	0x31b1ec46	5.178239e-09
12	0xb41f43fc	-1.4832762e-07
13	0x341633ed	1.3988729e-07
14	0xb3cd5af4	-9.562601e-08
15	0x34a07bce	2.9892402e-07
16	0x32288ee6	9.811378e-09
17	0xb26a8fa7	-1.3653255e-08
18	0x32cd2cc0	2.3885491e-08
19	0xb4800fd6	-2.385338e-07
20	0x342ea431	1.6264745e-07
21	0xb342f1c0	-4.5389015e-08
22	0x32bdb400	2.208435e-08
23	0xb1e13fb8	-6.555606e-09
24	0x341c46ae	1.4554345e-07
25	0x32f711e0	2.8762713e-08
26	0xb2d41f2b	-2.4694222e-08
27	0xb3c57567	-9.194883e-08
28	0xb44829f0	-1.8641708e-07
29	0xb435e018	-1.6938463e-07
30	0x322d01f2	1.0070368e-08
31	0x340282e9	1.2154818e-07
32	0xb28d5736	-1.645422e-08
33	0x3359c008	5.06989e-08
34	0x33461d2a	4.6126992e-08
35	0x32855486	1.5521675e-08
36	0x345788e3	2.0073234e-07
37	0x33b4010e	8.382095e-08
38	0xb31afccb	-3.6085833e-08
39	0x32cea37e	2.4055904e-08
40	0xb4676d3d	-2.1553292e-07
41	0xb21473d8	-8.641074e-09
42	0x33370438	4.2611845e-08
43	0xb32817eb	-3.91373e-08
44	0xb49b1c46	-2.8891571e-07
45	0xb3e964ec	-1.08682656e-07
46	0x338792bd	6.313119e-08
47	0xb3871278	-6.289787e-08
48	0xb46a458e	-2.1818252e-07
49	0x34551144	1.9843452e-07
50	0x33d9c68c	1.01409654e-07
51	0xb44760fc	-1.8568602e-07
52	0x343f9daf	1.7845626e-07
53	0xb437f50a	-1.7132348e-07
54	0x32326a9f	1.03852065e-08
55	0xb40c6a32	-1.307715e-07
56	0x33d47526	9.8933285e-08
57	0x3128b5a8	2.4550477e-09
58	0xb2d60934	-2.4917064e-08
59	0xb3fbcd0a	-1.1725395e-07
60	0xb30b6075	-3.2451187e-08
61	0x34645684	2.1265629e-07
62	0xb4421487	-1.8075126e-07
63	0x32a85730	1.9597422e-08
64	0xb3101586	-3.3547188e-08
65	0x34479445	1.858726e-07
66	0x32b5ff86	2.1187372e-08
67	0xb4123712	-1.3617344e-07
68	0xb3cc9331	-9.526264e-08
69	0xb408df8a	-1.274731e-07
70	0xb309b720	-3.206435e-08
71	0x3249ed08	1.17536345e-08
72	0xb1dc3364	-6.408685e-09
73	0x3442c37a	1.8138772e-07
74	0xb3194983	-3.5689947e-08
75	0x3227e206	9.772071e-09
76	0x31ee8740	6.942088e-09
77	0xb29a0436	-1.7929874e-08
78	0x34412226	1.7986949e-07
79	0xb2b7f1ce	-2.1413964e-08
80	0x3201411c	7.523592e-09
81	0x344a7f51	1.8859033e-07
82	0xb21070ee	-8.40758e-09
83	0xb3306618	-4.1071047e-08
84	0x333cf595	4.3995517e-08
85	0xb40c1906	-1.304762e-07
86	0x33909231	6.7321146e-08
87	0x32ee1ac4	2.7719018e-08
88	0xb20eb662	-8.306957e-09
89	0xb4239da9	-1.5237914e-07
90	0x32e49f00	2.6614998e-08
91	0xb3eb3d4c	-1.095419e-07
92	0x3310dffa	3.3731318e-08
93	0xb2505412	-1.2126309e-08
94	0x34a3a157	3.0478506e-07
95	0xb34027e7	-4.4739775e-08
96	0xb39da075	-7.340069e-08
97	0xb203ea27	-7.678444e-09
98	0xb3cd8e36	-9.5719244e-08
99	0xb469402a	-2.1723159e-07
100	0x31ec7c54	6.8826385e-09
101	0x349872fa	2.8395863e-07
102	0xb40aeb2f	-1.2937811e-07
103	0x340a9873	1.2907712e-07
104	0xb3a1dd36	-7.537385e-08
105	0xb2d5ddac	-2.4897268e-08
106	0x34863a9e	2.5002095e-07
107	0xb41a43c0	-1.4367015e-07
108	0xb31029b5	-3.3565545e-08
109	0xb4223aed	-1.5108863e-07
110	0x340fa986	1.3379585e-07
111	0x32c87405	2.3335824e-08
112	0xb41c8c46	-1.4579663e-07
113	0xb44a1c37	-1.882298e-07
114	0xb3ba1630	-8.665336e-08
115	0x33960366	6.9855375e-08
116	0xb1261088	-2.4165576e-09
117	0xb35ab772	-5.0923923e-08
118	0xb34d5b13	-4.7813113e-08
119	0x342f4e85	1.632671e-07
120	0xb461cf45	-2.1030162e-07
121	0xb31a2f06	-3.5898687e-08
122	0xb3fbc0e8	-1.1723188e-07
123	0x326e4331	1.3868701e-08
124	0xb3192641	-3.565788e-08
125	0x3486230e	2.498495e-07
126	0xb1bf70b9	-5.5716467e-09
127	0xb383d143	-6.138227e-08
128	0xb2136ddd	-8.581506e-09
129	0xb2bcb64c	-2.196898e-08
130	0xb333e7da	-4.1887553e-08
131	0x30b26708	1.2980488e-09
132	0xb2f4050c	-2.8407634e-08
133	0xb3fb809c	-1.1711492e-07
134	0x34056343	1.2422701e-07
135	0xb277f37a	-1.4432652e-08
136	0x33b80981	8.5698964e-08
137	0xb1c9019a	-5.850052e-09
138	0xb400af2d	-1.1984658e-07
139	0x332a9809	3.9719485e-08
140	0xb487c49c	-2.5288762e-07
141	0xb35af489	-5.0979484e-08
142	0x34860cac	2.4968665e-07
143	0xb4193dbc	-1.4271694e-07
144	0xb49ea9f3	-2.9553448e-07
145	0xb4a0aa46	-2.9926213e-07
146	0x342ed901	1.6283958e-07
147	0x33a44fc2	7.651353e-08
148	0x34275e83	1.558747e-07
149	0xb3968813	-7.009671e-08
150	0x324b40ec	1.1830917e-08
151	0x33da2946	1.0158924e-07
152	0xb36e19c7	-5.5437138e-08
153	0xb4a1ba86	-3.01243e-07
154	0x33fb8b96	1.1713489e-07
155	0xb2950d06	-1.7351805e-08
156	0xb3ecb6d7	-1.1022865e-07
157	0x34495337	1.8749857e-07
158	0x32c7fa38	2.3280435e-08
159	0x34149215	1.3836718e-07
160	0xb3f37b29	-1.1337972e-07
161	0x33e642a2	1.072233e-07
162	0x322ad0dc	9.9427915e-09
163	0xafacb890	-3.1417757e-10
164	0xb3a1280b	-7.5044305e-08
165	0x3378731c	5.784669e-08
166	0x30f3c248	1.7735795e-09
167	0xb3f6c7ea	-1.1491632e-07
168	0x33f78efe	1.1527844e-07
169	0x32cf9b79	2.4168672e-08
170	0x32ac1b90	2.003597e-08
171	0xb31c0604	-3.632705e-08
172	0x338ed29e	6.650701e-08
173	0xb3b7a737	-8.552018e-08
174	0x33367a5b	4.248646e-08
175	0x32e86af0	2.7056984e-08
176	0x32340f76	1.0480894e-08
177	0xb390f1f1	-6.7495314e-08
178	0xb484cbfa	-2.4735328e-07
179	0x34559566	1.9891522e-07
180	0xb45df5f4	-2.0671706e-07
181	0x335615b8	4.984551e-08
182	0x33a7826e	7.8002685e-08
183	0xb4769f24	-2.296843e-07
184	0x32bbf241	2.187983e-08
185	0x322837d0	9.791577e-09
186	0xb498f186	-2.8487938e-07
187	0x32a838b4	1.958356e-08
188	0x332c8b2a	4.017344e-08
189	0x339844e3	7.090582e-08
190	0xb42dc236	-1.6182534e-07
191	0x33221416	3.7736832e-08
192	0x308f5de0	1.04313e-09
193	0xb16c317e	-3.4370653e-09
194	0xb38399ef	-6.128163e-08
195	0x32b180aa	2.0664022e-08
196	0xb39c9886	-7.29206e-08
197	0xb4304e4f	-1.6419766e-07
198	0x32d23a08	2.4473607e-08
199	0xb15a1d40	-3.1739802e-09
200	0x348069de	2.3918886e-07
201	0x3360e662	5.2363596e-08
202	0x33614143	5.244625e-08
203	0xb31cc352	-3.6499223e-08
204	0x33dc9c97	1.0273032e-07
205	0x346017f8	2.0870345e-07
206	0x344bb6be	1.897233e-07
207	0xb3a16666	-7.515773e-08
208	0x33b9079c	8.616118e-08
209	0x338acb6a	6.4631266e-08
210	0xb283a6d9	-1.532628e-08
211	0x345a1e66	2.0313891e-07
212	0x32b6bd86	2.1273774e-08
213	0xb42cd5bb	-1.6096503e-07
214	0x340e4b64	1.3252208e-07
215	0x33a0fc4a	7.496472e-08
216	0x32f45787	2.8445141e-08
217	0xb405c9b2	-1.2459967e-07
218	0x33a09279	7.477224e-08
219	0x339d33ba	7.320291e-08
220	0x32ec271c	2.74918e-08
221	0xb3805a15	-5.97685e-08
222	0x3492a790	2.7316537e-07
223	0xb4069519	-1.2533964e-07
224	0xb4602885	-2.0876367e-07
225	0xb3aac270	-7.95161e-08
226	0x3440b2db	1.794646e-07
227	0xb4059c1d	-1.2443384e-07
228	0x345880e9	2.0163465e-07
229	0xb39a2444	-7.1777805e-08
230	0x3486efb2	2.5133846e-07
231	0x3451d6aa	1.9542736e-07
232	0x33c85226	9.3281685e-08
233	0xb35983ce	-5.0644125e-08
234	0xb324fcfe	-3.841432e-08
235	0xb23dc47b	-1.1045922e-08
236	0x34344c0c	1.6791472e-07
237	0xb26f9906	-1.39464245e-08
238	0x31632f0c	3.305959e-09
239	0x324deffe	1.1987138e-08
240	0xb40a8b88	-1.2903013e-07
241	0x340ef110	1.3312479e-07
242	0x3030a700	6.426575e-10
243	0xb45982a7	-2.0257231e-07
244	0x34580eb1	2.0121912e-07
245	0xb44122c3	-1.7987172e-07
246	0xb4411d06	-1.7985084e-07
247	0xb3038706	-3.0623617e-08
248	0xb32d0567	-4.0284615e-08
249	0xb41c480a	-1.455484e-07
250	0xb352bfb6	-4.9068795e-08
251	0x346538ad	2.1347905e-07
252	0x321462d6	8.6372065e-09
253	0x3381460b	6.019771e-08
254	0x34a55585	3.079587e-07
255	0xb4862ccd	-2.4992042e-07

embedding.embeddings.bex_20230623_denoised.poses.bias f4 [64]
0	0xb336d0b1	-4.256498e-08
1	0xb3e128db	-1.04848105e-07
2	0x30892aa8	9.980186e-10
3	0x34032c61	1.221647e-07
4	0xb33d8184	-4.4122785e-08
5	0x32d0ac58	2.429276e-08
6	0x3302948d	3.040309e-08
7	0x30187da0	5.54758e-10
8	0x329e3cd6	1.8421286e-08
9	0xb45e357c	-2.0694819e-07
10	0xb184f8dc	-3.8699977e-09
11	0xb3a9248c	-7.8763236e-08
12	0xb430d665	-1.6469274e-07
13	0xb360e5ca	-5.2363056e-08
14	0xb3879dc8	-6.3151276e-08
15	0x335e60e0	5.177651e-08
16	0xb492b729	-2.7327886e-07
17	0x33dc050c	1.0245466e-07
18	0x334ba9d2	4.741907e-08
19	0x32e566df	2.6705889e-08
20	0xb22a3035	-9.906263e-09
21	0x3222d470	9.477944e-09
22	0x3440bc16	1.7949819e-07
23	0x345850d6	2.0145976e-07
24	0x3336f455	4.2597396e-08
25	0x338857f5	6.348993e-08
26	0x307578c0	8.9302077e-10
27	0xb34dd37c	-4.7922626e-08
28	0xb3c6791a	-9.242122e-08
29	0xb47c579f	-2.3501205e-07
30	0xb31b710c	-3.6191565e-08
31	0xb41203e6	-1.3598728e-07
32	0xb464d17c	-2.1310365e-07
33	0xb2ee96fc	-2.7775506e-08
34	0xb3446e87	-4.573533e-08
35	0xaf9cd400	-2.852687e-10
36	0xb312d3ae	-3.4185796e-08
37	0xb4a935c9	-3.1517837e-07
38	0x3468037b	2.160795e-07
39	0x32a138b6	1.8768656e-08
40	0xb4131b05	-1.3700271e-07
41	0x33c969ae	9.379015e-08
42	0xb482f157	-2.4389985e-07
43	0x330e21ae	3.3092583e-08
44	0xb31645b4	-3.498799e-08
45	0x3415bcfa	1.3945456e-07
46	0x337fdcb0	5.957253e-08
47	0xb4365d60	-1.698404e-07
48	0x3314cb8e	3.4644067e-08
49	0x34a4c156	3.068805e-07
50	0xb3e02c68	-1.043889e-07
51	0xb3d9735d	-1.01258344e-07
52	0x348b34fa	2.5929313e-07
53	0x340cf8c6	1.312902e-07
54	0xb4155d0b	-1.3910555e-07
55	0x33194411	3.5684995e-08
56	0xb3d742b9	-1.00238545e-07
57	0x34487f7b	1.8672829e-07
58	0xb11f6a18	-2.3197853e-09
59	0xb43c7aa4	-1.7553481e-07
60	0xb41a09e6	-1.4345969e-07
61	0xb2cf808e	-2.4156432e-08
62	0x343f43df	1.7812953e-07
63	0xb40d92f8	-1.3185115e-07

embedding.embeddings.ken_20230614_denoised.poses.weight f4 [64, 63]
0	0xb16ff0a4	-3.4915866e-09
1	0xb279bad6	-1.4536189e-08
2	0xb265debc	-1.3380198e-08
3	0x31a530b4	4.807669e-09
4	0x310d2f48	2.0545077e-09
5	0x31279414	2.438587e-09
6	0xb2422fd3	-1.130316e-08
7	0x322f1c10	1.0192721e-08
8	0xb2668dbc	-1.3419989e-08
9	0x32337228	1.0445127e-08
10	0xb29e82bc	-1.8453072e-08
11	0xaf3d2b00	-1.7204727e-10
12	0xb09b4b61	-1.1299158e-09
13	0xb27ee14c	-1.48359725e-08
14	0xb1eb614e	-6.8504624e-09
15	0xb0fc41a1	-1.8354066e-09
16	0x326130a5	1.3107784e-08
17	0xb2621c56	-1.3161374e-08
18	0x3215ef5e	8.727367e-09
19	0x3234ac0a	1.0516496e-08
20	0xb220e5b7	-9.365457e-09
21	0xb1bf76de	-5.5723453e-09
22	0xb2c4b6ea	-2.2900583e-08
23	0xb038f214	-6.7282824e-10
24	0xb1f4780a	-7.1149815e-09
25	0xaf078e80	-1.2328805e-10
26	0xb18272d4	-3.7965524e-09
27	0xb26d141f	-1.3799791e-08
28	0xb165ab22	-3.3421164e-09
29	0xb213e416	-8.608387e-09
30	0x31f592f0	7.1471433e-09
31	0xb08868c0	-9.925074e-10
32	0xb2938e5a	-1.7177786e-08
33	0x30489652	7.2973194e-10
34	0xb221482a	-9.387842e-09
35	0x31bd06c4	5.501393e-09
36	0x30c29b0a	1.4159423e-09
37	0x31a4a6b7	4.7919815e-09
38	0xb0f6eb13	-1.7965668e-09
39	0x2e0483a0	3.013023e-11
40	0xb2676fa8	-1.3471357e-08
41	0xb0fae726	-1.825559e-09
42	0xb1552a47	-3.1019611e-09
43	0xb2a08570	-1.8687132e-08
44	0xb01cffc8	-5.7115956e-10
45	0xb1c79384	-5.808433e-09
46	0x321761a8	8.811561e-09
47	0xb0c3e43a	-1.4252983e-09
48	0x3057936f	7.842606e-10
49	0x309617e2	1.0920724e-09
50	0xb1ba9dcf	-5.4312532e-09
51	0x32adfc18	2.025449e-08
52	0x3073347d	8.8477475e-10
53	0xb1cc3209	-5.9428698e-09
54	0x2f8450c8	2.406806e-10
55	0xb1577fea	-3.1359328e-09
56	0xb1d908ac	-6.316517e-09
57	0x31d3acfc	6.1605743e-09
58	0x30a5d9f9	1.2067282e-09
59	0x2fe95b20	4.24472e-10
60	0x328582df	1.5542751e-08
61	0xb05895a4	-7.8792994e-10
62	0x30e8255e	1.6890842e-09
63	0x3227ddad	9.771083e-09
64	0x319adf29	4.5073603e-09
65	0x32c51ed5	2.294784e-08
66	0xb2114556	-8.455876e-09
67	0xb15f98b5	-3.2537575e-09
68	0x30c0ff1d	1.4042346e-09
69	0xb1aca4a6	-5.024577e-09
70	0x30a94249	1.2315208e-09
71	0x321d8b0d	9.170219e-09
72	0xb2496ef0	-1.1724964e-08
73	0x322094ca	9.3470565e-09
74	0x32a9d26a	1.9769875e-08
75	0xaee8dc10	-1.05892295e-10
76	0x3237e6f0	1.0704511e-08
77	0xb197bcde	-4.41615e-09
78	0xb02d744f	-6.310232e-10
79	0x30eb6aec	1.7128889e-09
80	0x3050bdd4	7.593972e-10
81	0x302f4720	6.3765704e-10
82	0xb0c80cc2	-1.4555541e-09
83	0xb27bfd26	-1.4667682e-08
84	0x325572b3	1.2424311e-08
85	0xaffda189	-4.613521e-10
86	0xb089c3d8	-1.0023724e-09
87	0xb1a86cd4	-4.901816e-09
88	0xb1ae2fb3	-5.0694893e-09
89	0xb16ce899	-3.4474736e-09
90	0xb06531f4	-8.33807e-10
91	0x31b3d8cc	5.2342326e-09
92	0x32547249	1.23660095e-08
93	0xb1ed376d	-6.903909e-09
94	0x2dd0fd00	2.3759217e-11
95	0x31b5ca75	5.29081e-09
96	0x32963d8e	1.749029e-08
97	0xb174598b	-3.5557572e-09
98	0x30a15f9c	1.1741466e-09
99	0xb23d4709	-1.1017399e-08
100	0xb11a442d	-2.2448703e-09
101	0xb183a3d2	-3.831226e-09
102	0x32a93939	1.9700211e-08
103	0xaf28d6d0	-1.5355828e-10
104	0xb1a0bb5d	-4.6779136e-09
105	0xb08a12fc	-1.0046217e-09
106	0xb19c6b86	-4.5524216e-09
107	0x32a2b6ca	1.8942405e-08
108	0xb166e04c	-3.3596903e-09
109	0x3010a262	5.2617655e-10
110	0xb0a4a078	-1.1978178e-09
111	0xb2104c89	-8.399305e-09
112	0x321dcb43	9.184819e-09
113	0x30bd519d	1.3774756e-09
114	0xb167c48e	-3.3726653e-09
115	0xb20012a5	-7.45482e-09
116	0x31b2a2e2	5.1989995e-09
117	0x320f0218	8.324172e-09
118	0xb1b1701b	-5.164123e-09
119	0xaeb18710	-8.07302e-11
120	0x31b27af8	5.1944617e-09
121	0xb261de1e	-1.3147227e-08
122	0x323a740f	1.0853014e-08
123	0xaf8d9165	-2.575106e-10
124	0xb287465f	-1.574807e-08
125	0x318261a8	3.7946e-09
126	0xb24b32b2	-1.1827682e-08
127	0xb1afa27a	-5.1116418e-09
128	0xb21bc3c1	-9.066697e-09
129	0x31012eda	1.8798603e-09
130	0x32a97bec	1.9730543e-08
131	0xb2068307	-7.829619e-09
132	0xb1077f00	-1.9717277e-09
133	0x313426c1	2.6215476e-09
134	0x3285a6eb	1.5559143e-08
135	0x3212499f	8.515058e-09
136	0x324b165a	1.1821237e-08
137	0x2fa3ec98	2.9817637e-10
138	0xb2c25e90	-2.2627574e-08
139	0xb144488b	-2.856299e-09
140	0xb02fd008	-6.396026e-10
141	0x311b7425	2.262149e-09
142	0x324ded0e	1.19864705e-08
143	0x32546a08	1.2364133e-08
144	0xb2212f5e	-9.3822035e-09
145	0xb0816a48	-9.416192e-10
146	0x31a7470d	4.8684172e-09
147	0xb1d58848	-6.2146093e-09
148	0x32ae46ec	2.0288518e-08
149	0x316b2b6f	3.422169e-09
150	0x3084f430	9.673666e-10
151	0x30c492ea	1.4302632e-09
152	0xb0c3e048	-1.4251862e-09
153	0x3198bb54	4.445079e-09
154	0x329a2d25	1.7948489e-08
155	0x32ac8f19	2.0088509e-08
156	0x3237cead	1.0698995e-08
157	0x3014c703	5.41249e-10
158	0x3211739c	8.466397e-09
159	0x30884919	9.916078e-10
160	0x31989c17	4.4415276e-09
161	0xb249a367	-1.1736893e-08
162	0xb14b7139	-2.9604748e-09
163	0x30b53331	1.3184033e-09
164	0x31b25c34	5.190964e-09
165	0xb1c267bc	-5.6579363e-09
166	0x31b859c7	5.3653113e-09
167	0xb1c688d3	-5.7781135e-09
168	0x326cd89b	1.3786258e-08
169	0xb298590a	-1.773562e-08
170	0xafc52dc8	-3.586662e-10
171	0xb22e0d7e	-1.0131201e-08
172	0x308eb5f0	1.038357e-09
173	0x313b9e51	2.7302074e-09
174	0xb0bf57f7	-1.392208e-09
175	0xb1001a3a	-1.864136e-09
176	0x32136315	8.579055e-09
177	0xb24a3303	-1.1769546e-08
178	0x2f1dfae0	1.4368196e-10
179	0xb292c63c	-1.7086784e-08
180	0xb2bdfd1b	-2.2117595e-08
181	0x31b8b54e	5.3757168e-09
182	0x31b28621	5.1957305e-09
183	0xb22051f3	-9.331859e-09
184	0x3077f538	9.0206553e-10
185	0x3182f4ac	3.811314e-09
186	0x3035ba6a	6.6112327e-10
187	0x32a031d1	1.8649105e-08
188	0x31210a41	2.3434412e-09
189	0x31c1b948	5.6381033e-09
190	0xb11833e4	-2.2148408e-09
191	0x32844281	1.5397065e-08
192	0x30e46364	1.6617432e-09
193	0xb1e17952	-6.5621544e-09
194	0xaf826942	-2.3721652e-10
195	0xb23f1fe2	-1.11249125e-08
196	0xb1d28b4a	-6.1276397e-09
197	0x2f144e14	1.348826e-10
198	0x3122b69a	2.36779e-09
199	0xb0029984	-4.7511883e-10
200	0xb1ae2dfa	-5.0692934e-09
201	0xb1c1a432	-5.635706e-09
202	0x2d866500	1.527889e-11
203	0xb23322c5	-1.0427077e-08
204	0x31a74372	4.8680073e-09
205	0x3230de18	1.0295047e-08
206	0xb1e60606	-6.694566e-09
207	0x324dfea8	1.1990473e-08
208	0x306d5528	8.634111e-10
209	0x30e3ad60	1.65657e-09
210	0xaf120080	-1.32788e-10
211	0x329290d7	1.7062503e-08
212	0xb21d26db	-9.1474375e-09
213	0xb254af06	-1.237982e-08
214	0x31e51a20	6.6677472e-09
215	0x32708ed6	1.4002316e-08
216	0x3140a4f3	2.803344e-09
217	0x32b74ac1	2.1337998e-08
218	0xb20b2b14	-8.10066e-09
219	0xb0bc9a44	-1.3722645e-09
220	0xb1975284	-4.4040593e-09
221	0x323f76d0	1.1144678e-08
222	0xb1dbf594	-6.401658e-09
223	0xb13b0472	-2.7214608e-09
224	0x323f4680	1.1133693e-08
225	0x3107ce9c	1.976253e-09
226	0xafb8e35a	-3.3630948e-10
227	0xb0eaef8a	-1.7093822e-09
228	0x30ab4127	1.2460405e-09
229	0xb283082e	-1.5254127e-08
230	0x30e985e4	1.6991035e-09
231	0x30e9c017	1.7007576e-09
232	0x32385c8d	1.0731253e-08
233	0xb210b0ba	-8.422086e-09
234	0xb27a7bfc	-1.4580106e-08
235	0xb1973fd4	-4.401935e-09
236	0x308b51b5	1.0136804e-09
237	0xb1010628	-1.877547e-09
238	0x2ff1cb65	4.3982165e-10
239	0x31412f28	2.8112002e-09
240	0x30e53ee1	1.6679814e-09
241	0x31630d2c	3.3040335e-09
242	0x316225e6	3.2908871e-09
243	0x32104cea	8.399391e-09
244	0xb22039c8	-9.326364e-09
245	0xb1d355e2	-6.150672e-09
246	0x2fee7e72	4.3381793e-10
247	0x320d015d	8.20759e-09
248	0xb10e55a3	-2.0712398e-09
249	0x31f64e62	7.1684534e-09
250	0x32bf556b	2.227417e-08
251	0x301b7d4a	5.656672e-10
252	0x32a778e7	1.9496339e-08
253	0x31875aac	3.9393253e-09
254	0x32176bb8	8.813849e-09
255	0x316100e1	3.2742309e-09

embedding.embeddings.ken_20230614_denoised.poses.bias f4 [64]
0	0xb1e702f9	-6.723323e-09
1	0x32407314	1.1202037e-08
2	0x3165c4e7	3.3435812e-09
3	0x31d6fdaa	6.257058e-09
4	0xb27a276a	-1.4560877e-08
5	0xb0eefd6e	-1.7388808e-09
6	0xb2318ab9	-1.0334298e-08
7	0x3285a4f0	1.5558243e-08
8	0xb098257a	-1.1070107e-09
9	0xb193f86c	-4.3065054e-09
10	0xb2206b44	-9.337615e-09
11	0xb0f34ace	-1.7701838e-09
12	0x31421a5a	2.8245695e-09
13	0x3165d40e	3.3444425e-09
14	0xb232afff	-1.04009805e-08
15	0xb100d9f4	-1.8750344e-09
16	0xb2004a8c	-7.467531e-09
17	0xb200799a	-7.47823e-09
18	0x30a6bb46	1.2131316e-09
19	0xb161e52e	-3.2872083e-09
20	0xb22b2f86	-9.964316e-09
21	0xb0d1ba48	-1.5259696e-09
22	0x320104e1	7.509898e-09
23	0xb186d738	-3.924381e-09
24	0x301a6bf7	5.61783e-10
25	0xb1e9acd0	-6.800839e-09
26	0xad607140	-1.2758072e-11
27	0x3180a123	3.7436094e-09
28	0xb1b8f02e	-5.38241e-09
29	0xb2062682	-7.808582e-09
30	0x32978ac3	1.7641815e-08
31	0x318322cb	3.8165573e-09
32	0xb09275e2	-1.0656402e-09
33	0x320e724e	8.291478e-09
34	0x30a0faa7	1.1712772e-09
35	0x32514749	1.21816095e-08
36	0xb14b8b72	-2.9619653e-09
37	0x304c8304	7.440095e-10
38	0x32048222	7.713e-09
39	0xb1c7190a	-5.794509e-09
40	0xb0a32ac6	-1.1871968e-09
41	0x311c2d30	2.2726674e-09
42	0xb2116f29	-8.465386e-09
43	0x31ac0f38	5.007589e-09
44	0xb0fca226	-1.8381499e-09
45	0x31cb5a1e	5.9183227e-09
46	0xb2572a44	-1.2524257e-08
47	0xb09bba90	-1.1330759e-09
48	0x32311138	1.0306671e-08
49	0x325a4307	1.270451e-08
50	0x324f05dd	1.2050319e-08
51	0xb25aff2f	-1.2747292e-08
52	0xb0e3cd89	-1.657484e-09
53	0x3123935f	2.3803393e-09
54	0x3002a358	4.752585e-10
55	0x320faeba	8.363424e-09
56	0x321571e4	8.698837e-09
57	0xb0e2cfaa	-1.6502686e-09
58	0x2eb61850	8.2807206e-11
59	0xb1b0f8c1	-5.150554e-09
60	0x310c5d9b	2.042589e-09
61	0x312c3676	2.5060252e-09
62	0x3033b779	6.538055e-10
63	0x3060f538	8.18392e-10

embedding.embeddings.ken_20230618_denoised.poses.weight f4 [64, 63]
0	0xadde09cd	-2.524283e-11
1	0x3083831d	9.568769e-10
2	0x2f648bba	2.078612e-10
3	0x3039378d	6.738155e-10
4	0x300ee906	5.1990445e-10
5	0xaffc625e	-4.5908427e-10
6	0xb0195d8b	-5.579401e-10
7	0x301e3b3c	5.756424e-10
8	0xaf9ac562	-2.8152686e-10
9	0xafdc3373	-4.0054324e-10
10	0xb0800a3b	-9.316133e-10
11	0x2e076b8f	3.0790977e-11
12	0xada74bc4	-1.9019349e-11
13	0xb06fd676	-8.725246e-10
14	0xb03e335f	-6.91946e-10
15	0x2f50b71a	1.898254e-10
16	0x30884995	9.916216e-10
17	0x2d94c986	1.6915146e-11
18	0x2ede1a5d	1.0100074e-10
19	0x309abce0	1.1258656e-09
20	0x30adee91	1.2655211e-09
21	0xb07d0eb0	-9.2061736e-10
22	0x30940b75	1.0771674e-09
23	0x2fa9cc0a	3.08859e-10
24	0xaec25027	-8.8363365e-11
25	0xb0a48187	-1.1969384e-09
26	0xaf0fca8c	-1.3077733e-10
27	0x2f80c4f3	2.3423005e-10
28	0x30bac1d1	1.3588367e-09
29	0xafefd982	-4.3628395e-10
30	0x30a4834e	1.196989e-09
31	0xaf7fc8b7	-2.3263423e-10
32	0x2f9f5643	2.8983224e-10
33	0x30614d21	8.196413e-10
34	0x2da8b33e	1.9178988e-11
35	0x2ff65443	4.480701e-10
36	0x30bd3d31	1.3768952e-09
37	0x30e2132a	1.6449111e-09
38	0x2ea3bd5b	7.446018e-11
39	0xb01c8ed0	-5.695542e-10
40	0xb09eea81	-1.1562663e-09
41	0xaff46542	-4.445529e-10
42	0x30748470	8.895489e-10
43	0xaf8402be	-2.4012609e-10
44	0xb0218f8f	-5.877547e-10
45	0xad437d14	-1.111224e-11
46	0xaede3908	-1.0105522e-10
47	0x2e8a568b	6.2908866e-11
48	0x30109e75	5.2612076e-10
49	0xaf67fbb4	-2.109875e-10
50	0x30ab8dd7	1.2482201e-09
51	0x2ec6d1f9	9.041296e-11
52	0xb0dfa005	-1.6270866e-09
53	0x2f8b1d4e	2.5304775e-10
54	0x2f83f903	2.4005695e-10
55	0x30304c86	6.4137173e-10
56	0xb0c535db	-1.4348943e-09
57	0x2e694474	5.3038865e-11
58	0x2fafdbf8	3.1988612e-10
59	0xaf5bec30	-2.0001845e-10
60	0x3096588f	1.0939106e-09
61	0x2fab9468	3.1210168e-10
62	0xaf1eded5	-1.4449182e-10
63	0xafa5f972	-3.0190567e-10
64	0xb015bcdd	-5.4474275e-10
65	0x2f5a5d0a	1.9860039e-10
66	0xb063453e	-8.268052e-10
67	0xafea2294	-4.258892e-10
68	0xb0987f8a	-1.1095704e-09
69	0xb0299767	-6.1697e-10
70	0xb03e18d8	-6.91569e-10
71	0x2e8801e6	6.184901e-11
72	0xae6a2770	-5.3240468e-11
73	0x303cff3c	6.875671e-10
74	0x3007a106	4.934154e-10
75	0xb0119463	-5.2961563e-10
76	0xb04fd0f5	-7.5603107e-10
77	0x2fa039d3	2.9144917e-10
78	0x30100fb6	5.240922e-10
79	0xafa3e7d6	-2.9814257e-10
80	0x302c4b6a	6.2680405e-10
81	0x3055dfd5	7.7807033e-10
82	0x308b1804	1.0120407e-09
83	0x302c2b52	6.26348e-10
84	0x2fb72fe4	3.3321534e-10
85	0x2f9fb110	2.9047742e-10
86	0x3015e6c0	5.45338e-10
87	0x303ab7be	6.792752e-10
88	0xb08f252a	-1.0415182e-09
89	0x2ecb307a	9.2399824e-11
90	0x2f15f460	1.363829e-10
91	0x2f94e711	2.7085226e-10
92	0xafefae04	-4.3597492e-10
93	0x308b3e65	1.0131315e-09
94	0xb066783e	-8.3844387e-10
95	0xb0be8911	-1.3863276e-09
96	0x2ddd9d08	2.5194527e-11
97	0xb0c66ff8	-1.443822e-09
98	0xb014bee8	-5.411338e-10
99	0x30b9f750	1.3530812e-09
100	0x2ff168ec	4.3912196e-10
101	0xafc4de00	-3.5809933e-10
102	0x2fa66ab1	3.0271033e-10
103	0xaf5fc20a	-2.0350668e-10
104	0xb05cad70	-8.0282003e-10
105	0xafcd0166	-3.7290276e-10
106	0x30a0cda8	1.1699983e-09
107	0xb04f1ed3	-7.5349965e-10
108	0x2f53fff4	1.9281271e-10
109	0x2f41cc02	1.7625726e-10
110	0xaf90152a	-2.6208485e-10
111	0x30d36a66	1.5382511e-09
112	0x2f28e65b	1.536135e-10
113	0x2f3d7fee	1.72349e-10
114	0x303e8aaf	6.931868e-10
115	0xaf659306	-2.0879662e-10
116	0xb03b6a4b	-6.8181255e-10
117	0xb01214e6	-5.314419e-10
118	0xaf693905	-2.1211484e-10
119	0x2f725a48	2.2041846e-10
120	0xaf290296	-1.5371379e-10
121	0x3041b5c6	7.0471307e-10
122	0x3088a0d4	9.941012e-10
123	0xaf5c4f37	-2.0037026e-10
124	0x2f59a1fa	1.979358e-10
125	0x3084030f	9.605133e-10
126	0xaf281cfd	-1.528981e-10
127	0xb09a4248	-1.1223813e-09
128	0x30445988	7.1431616e-10
129	0xb0074486	-4.921009e-10
130	0x2e82aeca	5.942764e-11
131	0xb0651e0a	-8.33524e-10
132	0x2efc05f6	1.1460692e-10
133	0xaf01f4b9	-1.1819425e-10
134	0x2ffe2c1e	4.6233678e-10
135	0x2f3331f7	1.6297706e-10
136	0xb0ba7d5a	-1.3568908e-09
137	0x308785a5	9.860527e-10
138	0xae9b51a8	-7.063089e-11
139	0x2f2c8f80	1.569429e-10
140	0x2f93a980	2.685958e-10
141	0x2f7cd4d8	2.2994884e-10
142	0xb097eaf4	-1.1053474e-09
143	0x2d315fc0	1.0082546e-11
144	0xb0182fb1	-5.536505e-10
145	0xaf70e720	-2.1909985e-10
146	0x30444914	7.1408235e-10
147	0xaf37e5e8	-1.6725432e-10
148	0x3096db81	1.0976323e-09
149	0x2cfc8e48	7.178067e-12
150	0x2eb24e67	8.10843e-11
151	0x30d31d6c	1.5360633e-09
152	0x30818b3d	9.425559e-10
153	0x3026f2ca	6.073547e-10
154	0xb0d3f49c	-1.5421793e-09
155	0xae097262	-3.1251786e-11
156	0xb0521eb2	-7.6441176e-10
157	0xae432590	-4.437123e-11
158	0xb05070ca	-7.583024e-10
159	0xad48acc0	-1.1407042e-11
160	0xb00f0c2d	-5.20404e-10
161	0x303550b3	6.5962097e-10
162	0xaebb67d9	-8.5222225e-11
163	0x2f1ec387	1.4439482e-10
164	0xb0aa2ae2	-1.2381316e-09
165	0xaf11def1	-1.3266878e-10
166	0x300ee0e0	5.1978866e-10
167	0xaeb872de	-8.387756e-11
168	0x3099e867	1.1198268e-09
169	0xafc6831e	-3.6109155e-10
170	0xb08c669e	-1.0215506e-09
171	0xb096444c	-1.0933348e-09
172	0x3016f306	5.491504e-10
173	0x30cbf677	1.4840243e-09
174	0x2fcc766e	3.7191533e-10
175	0x30a8ff01	1.2296085e-09
176	0x2eec1006	1.0734884e-10
177	0xb07b3a03	-9.139571e-10
178	0x2db73dbe	2.083211e-11
179	0xaf64d8ad	-2.0813458e-10
180	0x2f7a8cb7	2.278736e-10
181	0x3002cc08	4.758367e-10
182	0x30d3dc23	1.5414837e-09
183	0xb08c22a2	-1.0196184e-09
184	0xafbd1a69	-3.4397665e-10
185	0x30182b28	5.5358607e-10
186	0xb0198ebc	-5.5863913e-10
187	0x2fd3b994	3.8512538e-10
188	0x30805cee	9.339638e-10
189	0x2e41f965	4.4104626e-11
190	0x2e7cf45f	5.751521e-11
191	0xb0874f4c	-9.84508e-10
192	0x303a2632	6.7720685e-10
193	0x2f96dbde	2.7441066e-10
194	0x2e7bf0c0	5.728462e-11
195	0xaed8ebe2	-9.864444e-11
196	0x2e985416	6.9270964e-11
197	0xb0d0fefc	-1.5206463e-09
198	0x2e453cc3	4.484658e-11
199	0xb0114314	-5.2846016e-10
200	0xaefc9d1f	-1.14875436e-10
201	0x300fee3b	5.2361643e-10
202	0x2fdb2ec5	3.98691e-10
203	0xaee446c4	-1.038081e-10
204	0x2f06a29f	1.2245004e-10
205	0x2e2fbfc4	3.9960715e-11
206	0x2cbff910	5.456198e-12
207	0x2d727558	1.3782163e-11
208	0xb0221f66	-5.8979877e-10
209	0x2fb8e3a6	3.363116e-10
210	0xafa4810e	-2.9923125e-10
211	0x30064742	4.885018e-10
212	0x2e44a232	4.47093e-11
213	0x2f0edbe7	1.299295e-10
214	0xad9dd894	-1.7945014e-11
215	0xaecfe1fe	-9.4534144e-11
216	0xb0bb3152	-1.3620058e-09
217	0xadb543ca	-2.0607422e-11
218	0x30a7879c	1.2189392e-09
219	0x2ff59a63	4.467494e-10
220	0x2ef02a2e	1.0921429e-10
221	0x2eee1b94	1.0827886e-10
222	0xae8696d8	-6.12041e-11
223	0xafb6aa6c	-3.32267e-10
224	0x2f04b30b	1.2068939e-10
225	0x2fb3a341	3.267591e-10
226	0x3023970f	5.951372e-10
227	0xb0be417b	-1.384293e-09
228	0xaf927560	-2.6640645e-10
229	0x2eb8a6dc	8.3969914e-11
230	0xafd741ab	-3.9154932e-10
231	0x2fa4e222	2.9992103e-10
232	0xb09eb0a1	-1.1546214e-09
233	0x2f9bb370	2.8321834e-10
234	0x304a8ce6	7.36874e-10
235	0x2fbe53ef	3.4620437e-10
236	0x2f0ab07d	1.2613728e-10
237	0x30852960	9.688783e-10
238	0xb028dc90	-6.143148e-10
239	0x30d0c9a9	1.5191307e-09
240	0x2f4551c7	1.7946099e-10
241	0xb0bfb9e2	-1.394991e-09
242	0x30810dae	9.389873e-10
243	0x2fb566fc	3.2996883e-10
244	0xae1d4d80	-3.57665e-11
245	0x2ec642d8	9.0158714e-11
246	0x2e5b51be	4.9867437e-11
247	0xb08aaa92	-1.00893e-09
248	0xb0117343	-5.291449e-10
249	0xb08f7e4c	-1.0440515e-09
250	0x2f869c30	2.4485436e-10
251	0x30384324	6.703422e-10
252	0xb00c38cc	-5.1012417e-10
253	0x301dd1fa	5.741466e-10
254	0x2f71fb2b	2.2008055e-10
255	0x305af216	7.9651963e-10

embedding.embeddings.ken_20230618_denoised.poses.bias f4 [64]
0	0x2fbce9ce	3.436313e-10
1	0x2cab9e60	4.8776955e-12
2	0xaf948f9e	-2.702309e-10
3	0x2e04ea8c	3.0221645e-11
4	0x2ff70d7b	4.4938617e-10
5	0xb09dae24	-1.1472747e-09
6	0x2fcd6bb0	3.73658e-10
7	0x2da7b7fc	1.9067407e-11
8	0xae3127ac	-4.0280376e-11
9	0xaf16fce4	-1.3732265e-10
10	0xaff56d7c	-4.4643034e-10
11	0x2f2a34a6	1.5480114e-10
12	0x30b13b4a	1.2895296e-09
13	0x2fe7e25c	4.2179493e-10
14	0xb0ba8bc6	-1.3573007e-09
15	0x2ebf1c5d	8.690713e-11
16	0xae96165a	-6.825181e-11
17	0xaf9f486c	-2.897339e-10
18	0x30d7d071	1.5702551e-09
19	0xafd5eace	-3.8911313e-10
20	0x2d211520	9.156481e-12
21	0x2dc9904d	2.2915137e-11
22	0xaf22f2bc	-1.4820051e-10
23	0xaf6f76f3	-2.1779183e-10
24	0xac06bb90	-1.9146663e-12
25	0xafe2f839	-4.1285533e-10
26	0x30c9e460	1.4689583e-09
27	0x30360d18	6.622982e-10
28	0xb055123e	-7.751487e-10
29	0x2e32a088	4.0615095e-11
30	0x2f8ba059	2.5397887e-10
31	0x3046bd3c	7.23009e-10
32	0xadba85f0	-2.1205232e-11
33	0xaf9acf46	-2.8159713e-10
34	0xb08b7986	-1.014812e-09
35	0xaec7b16a	-9.0809874e-11
36	0xb051183a	-7.6068185e-10
37	0xaef75746	-1.12477624e-10
38	0xadcc65d4	-2.3237336e-11
39	0x30c76d67	1.451025e-09
40	0x308eb06a	1.0382e-09
41	0x304512c5	7.1694856e-10
42	0x2f7710b2	2.247045e-10
43	0x30045360	4.8139803e-10
44	0x2e885a74	6.200632e-11
45	0xafe0a9c6	-4.0865994e-10
46	0xaf9fb38e	-2.9049513e-10
47	0x3007fe6e	4.947428e-10
48	0x2e454af0	4.4859172e-11
49	0xaf2810bd	-1.5285458e-10
50	0xb0233720	-5.937739e-10
51	0x3062b576	8.247619e-10
52	0xaf206926	-1.4589271e-10
53	0x30ad2607	1.2598215e-09
54	0x2fd4bb15	3.8695505e-10
55	0xae37900c	-4.1737322e-11
56	0x2e999e66	6.985772e-11
57	0xb0199d08	-5.588423e-10
58	0xaf284406	-1.5303678e-10
59	0x2f5f20cc	2.0293384e-10
60	0x3097f1d1	1.1055424e-09
61	0xb0889ce3	-9.939892e-10
62	0xaef76e06	-1.1251804e-10
63	0x2fccc594	3.7247772e-10

core.core.fc.0.0.weight f4 [128, 64]
0	0x1a900162	5.955924e-23
1	0x1c06a91f	4.4555465e-22
2	0x9bd386f9	-3.4994246e-22
3	0x99d0bdcc	-2.1583354e-23
4	0x997ba6f2	-1.301011e-23
5	0x1ac7bef2	8.261296e-23
6	0x1926aa88	8.616437e-24
7	0x1bc37061	3.2332667e-22
8	0x9b07d422	-1.1235482e-22
9	0x1a74aaaf	5.0595894e-23
10	0x9c078e5d	-4.4851753e-22
11	0x1ac73dfe	8.2404625e-23
12	0x1ac93f9d	8.3234424e-23
13	0x9ba6f450	-2.762028e-22
14	0x9b8c16b7	-2.3175736e-22
15	0x1b9e2f89	2.6169626e-22
16	0x1c0c6316	4.645018e-22
17	0x9b94563e	-2.454028e-22
18	0x1aa1a26a	6.6850433e-23
19	0x98f4d2e8	-6.3285483e-24
20	0x1b475432	1.6488099e-22
21	0x9acdfe05	-8.5196403e-23
22	0x9c0f15c8	-4.7342883e-22
23	0x18a58cc0	4.279362e-24
24	0x19a54108	1.7086866e-23
25	0x1b6ff332	1.9848197e-22
26	0x9bdcbf19	-3.651944e-22
27	0x99d08ac4	-2.1562743e-23
28	0x9b634556	-1.8799404e-22
29	0x1a961b44	6.2082596e-23
30	0x1a5ffa30	4.631742e-23
31	0x1a9df8ba	6.533552e-23
32	0x99ead4e6	-2.4281022e-23
33	0x9add9a19	-9.1652416e-23
34	0x9bc524e7	-3.2614764e-22
35	0x99321d68	-9.208323e-24
36	0x1b0ed6eb	1.1815408e-22
37	0x9bb1463c	-2.9327582e-22
38	0x19563970	1.107514e-23
39	0x9ae54028	-9.481583e-23
40	0x9a8e7279	-5.8914764e-23
41	0x19bfa97e	1.9817394e-23
42	0x9a58368a	-4.471181e-23
43	0x989c7c30	-4.0450452e-24
44	0x1b2074ed	1.327267e-22
45	0x1b681889	1.9198518e-22
46	0x9a76efd0	-5.1065327e-23
47	0x1baf0b20	2.895851e-22
48	0x1b8c854f	2.3247206e-22
49	0x1ac5cf39	8.1812077e-23
50	0x19032b28	6.7812566e-24
51	0x9b0fed26	-1.190531e-22
52	0x9aaca840	-7.1409355e-23
53	0x1b6d844d	1.9646929e-22
54	0x9b3def6e	-1.5711077e-22
55	0x19a5ec54	1.7156052e-23
56	0x1bba8010	3.0853877e-22
57	0x1a84b242	5.488191e-23
58	0x9c0d1cf7	-4.6690423e-22
59	0x1aff42b6	1.05573305e-22
60	0x9bb09598	-2.921343e-22
61	0x1b66b7a6	1.9084494e-22
62	0x1ad9a623	9.0017505e-23
63	0x1b91b125	2.4102715e-22
64	0x1abbffc0	7.7754574e-23
65	0x1a30eda6	3.6587918e-23
66	0x1af22dd9	1.00162925e-22
67	0x1a05c12d	2.76598e-23
68	0x9bd16c51	-3.4646147e-22
69	0x1a072ab2	2.7951835e-23
70	0x1ad2dd58	8.7211564e-23
71	0x9a10d4c0	-2.995036e-23
72	0x9b07426f	-1.1188404e-22
73	0x1baa18bc	2.8140125e-22
74	0x9aa69d1e	-6.890983e-23
75	0x1a787198	5.1376958e-23
76	0x9b13eeee	-1.2236757e-22
77	0x1ab6a727	7.5543485e-23
78	0x9b62c826	-1.8758953e-22
79	0x9a939628	-6.1040366e-23
80	0x1ab10553	7.3214086e-23
81	0x9a5b6ce5	-4.5376103e-23
82	0x9bd0871f	-3.4498033e-22
83	0x1be8f2bb	3.8538041e-22
84	0x9b1a5d8f	-1.2768812e-22
85	0x1a6ac402	4.85484e-23
86	0x9ab57d24	-7.506202e-23
87	0x1b0b7bfc	1.1537872e-22
88	0x1b3a52ac	1.5412272e-22
89	0x193331f8	9.264174e-24
90	0x99c59434	-2.0429181e-23
91	0x9a3ac3b2	-3.862198e-23
92	0x9bb1a38f	-2.938789e-22
93	0x1b44afe1	1.626957e-22
94	0x9b31a73b	-1.4695132e-22
95	0x9b8f03c0	-2.365979e-22
96	0x9a9b58ba	-6.424984e-23
97	0x19922f47	1.5115141e-23
98	0x9b90458a	-2.386774e-22
99	0x9b6c08ba	-1.9524282e-22
100	0x1b9e25e4	2.6163394e-22
101	0x1ab3efe4	7.442023e-23
102	0x1b61021c	1.8612245e-22
103	0x1c084ca9	4.5097706e-22
104	0x9be026aa	-3.7082678e-22
105	0x1aa3e0e2	6.777854e-23
106	0x9bdf1c24	-3.691044e-22
107	0x1a88db8f	5.6603e-23
108	0x18c7281c	5.1480794e-24
109	0x1adb3f62	9.067868e-23
110	0x9aaf551e	-7.251582e-23
111	0x9abd47f7	-7.8284833e-23
112	0x199017ed	1.4898915e-23
113	0x199f3184	1.6460214e-23
114	0x9a8c18e6	-5.794287e-23
115	0x19465038	1.025256e-23
116	0x1a96228c	6.209436e-23
117	0x1adbf07b	9.0964794e-23
118	0x1c16c7b6	4.9888957e-22
119	0x990c0684	-7.239146e-24
120	0x98c6f8f0	-5.1433163e-24
121	0x1b538760	1.7497253e-22
122	0x19906860	1.4931408e-23
123	0x19e21e25	2.3380028e-23
124	0x1873f3f0	3.153017e-24
125	0x1b0153ba	1.0697683e-22
126	0x9b3ac1a8	-1.5448133e-22
127	0x184b04e0	2.6239596e-24
128	0x1bd7ea3e	3.5720142e-22
129	0x9ac04d90	-7.953465e-23
130	0x9b0f0b48	-1.1832328e-22
131	0x9b81766f	-2.1417796e-22
132	0x1b88e39a	2.2646397e-22
133	0x1b684c25	1.9215194e-22
134	0x1ab8f9bc	7.6504084e-23
135	0x1ad3a868	8.753963e-23
136	0x999f757e	-1.648767e-23
137	0x1bf14a89	3.9918273e-22
138	0x1a339e60	3.7144267e-23
139	0x1a84ad44	5.4873846e-23
140	0x9ba0f1df	-2.6626085e-22
141	0x9b5e3788	-1.8381353e-22
142	0x9bf36d17	-4.0271475e-22
143	0x9b9cbde2	-2.5930744e-22
144	0x9b4cfdb5	-1.6956462e-22
145	0x9bcf6d95	-3.4316093e-22
146	0x196be7cc	1.2196026e-23
147	0x1a8ea94e	5.900335e-23
148	0x99defde0	-2.3056801e-23
149	0x9a9abdc3	-6.3999484e-23
150	0x9afeb49f	-1.0534375e-22
151	0x9ade6d15	-9.199328e-23
152	0x1be83f34	3.8422024e-22
153	0x99d830d4	-2.2353598e-23
154	0x19cd1d9c	2.1208462e-23
155	0x1b5b23cc	1.8126822e-22
156	0x9a9570b8	-6.180706e-23
157	0x1bba711e	3.084422e-22
158	0x1a0b096a	2.875213e-23
159	0x9a4746d8	-4.1209463e-23
160	0x9be2d154	-3.752384e-22
161	0x19d2d5ea	2.179989e-23
162	0x995ca824	-1.1407689e-23
163	0x1aec2a1a	9.767533e-23
164	0x9b9a965f	-2.5574338e-22
165	0x983ad198	-2.4145754e-24
166	0x99824098	-1.3467774e-23
167	0x1bb4a683	2.9886108e-22
168	0x1bc8f0b4	3.3242775e-22
169	0x9b8b9421	-2.3091347e-22
170	0x9bb0156f	-2.9130609e-22
171	0x1b351193	1.4977648e-22
172	0x9bf75ccc	-4.092269e-22
173	0x18d97144	5.6207554e-24
174	0x198a46f8	1.429753e-23
175	0x1bc94fbe	3.3304193e-22
176	0x9b4c508e	-1.6900513e-22
177	0x99b3308c	-1.8527774e-23
178	0x9bb99f54	-3.0708646e-22
179	0x1aa9438f	7.000591e-23
180	0x9a890dc2	-5.66841e-23
181	0x1bd8c89c	3.5863843e-22
182	0x98e9c1d0	-6.042479e-24
183	0x1a74c136	5.0614092e-23
184	0x9a9c5f57	-6.467412e-23
185	0x9b0c476a	-1.1603604e-22
186	0x1b1dbec4	1.3048375e-22
187	0x18e02316	5.793807e-24
188	0x99bf0f86	-1.9755207e-23
189	0x1ab9793a	7.671006e-23
190	0x9aa2b3a5	-6.729186e-23
191	0x19b6dab2	1.890669e-23
192	0x9a9f99d4	-6.600938e-23
193	0x1b29780a	1.4018139e-22
194	0x9ac13c17	-7.992001e-23
195	0x9ae32c4c	-9.3956565e-23
196	0x1b8fc4f9	2.3784656e-22
197	0x1a323d32	3.685897e-23
198	0x1a095c4a	2.8405486e-23
199	0x9b3071bb	-1.4595127e-22
200	0x1af2d28e	1.00429024e-22
201	0x1a50692e	4.3098355e-23
202	0x99cfae98	-2.1473816e-23
203	0x9bf6cc7e	-4.0829436e-22
204	0x98a29328	-4.202461e-24
205	0x9b307aae	-1.4598019e-22
206	0x1b46c165	1.6440665e-22
207	0x1b8ffdd2	2.3821393e-22
208	0x9ab8c092	-7.641173e-23
209	0x1b3dd3ba	1.5702126e-22
210	0x9928db20	-8.729648e-24
211	0x1c07c101	4.4917205e-22
212	0x99fad28c	-2.5934433e-23
213	0x18af8160	4.5367075e-24
214	0x9b20a19e	-1.3287111e-22
215	0x9b0fa864	-1.1883093e-22
216	0x9973150e	-1.25670575e-23
217	0x1a14c4f8	3.0764793e-23
218	0x1c05a47b	4.4218595e-22
219	0x9ad798db	-8.916887e-23
220	0x1b92029e	2.4155365e-22
221	0x1a6a2b16	4.842487e-23
222	0x1ad63cc2	8.8606485e-23
223	0x9ae8ed1d	-9.633603e-23
224	0x9806f7f0	-1.744427e-24
225	0x1a25ccdc	3.4286684e-23
226	0x9c01a420	-4.2894646e-22
227	0x9890e610	-3.745543e-24
228	0x9ab50fbe	-7.488528e-23
229	0x1aa9360a	6.9984067e-23
230	0x1ad280d6	8.706211e-23
231	0x1a76a167	5.1001987e-23
232	0x99516ca8	-1.082699e-23
233	0x9b213d52	-1.3337422e-22
234	0x9b3e466a	-1.5739184e-22
235	0x98b99f60	-4.7982307e-24
236	0x9c014fb4	-4.2785533e-22
237	0x1b9187c1	2.4075967e-22
238	0x9a303e18	-3.6446106e-23
239	0x9ae1f7be	-9.345807e-23
240	0x99407950	-9.950666e-24
241	0x19b8180c	1.9034867e-23
242	0x1a327938	3.6907457e-23
243	0x1a1ffc55	3.308426e-23
244	0x99d6ffc4	-2.2230384e-23
245	0x19b8decd	1.9115143e-23
246	0x9b09d92a	-1.1402544e-22
247	0x1b0bcbf3	1.156371e-22
248	0x1bb8ca4e	3.0570983e-22
249	0x1b2b0134	1.4145177e-22
250	0x1a622c32	4.6771405e-23
251	0x9ae40462	-9.430567e-23
252	0x1b68b3ea	1.9248724e-22
253	0x1b0055e1	1.0615661e-22
254	0x994683a1	-1.0262942e-23
255	0x99e021a6	-2.3174648e-23

core.core.fc.0.0.bias f4 [128]
0	0x1ae45c8b	9.44481e-23
1	0x1b551121	1.7624482e-22
2	0x9b18c7c4	-1.2637693e-22
3	0x1a152048	3.0838554e-23
4	0x1b48a460	1.6596725e-22
5	0x1b97a750	2.5088978e-22
6	0x9bb62f82	-3.0140076e-22
7	0x1a92d48d	6.072758e-23
8	0x1bd1dbde	3.4718235e-22
9	0x9b89859c	-2.2751092e-22
10	0x1a4bfe4e	4.2184842e-23
11	0x1bf888c8	4.111655e-22
12	0x194c1ed0	1.0552775e-23
13	0x1aa0ec28	6.655598e-23
14	0x9b8f10ca	-2.3668215e-22
15	0x1b79c869	2.0661553e-22
16	0x1b9eb809	2.6257837e-22
17	0x1b9c03fa	2.5810605e-22
18	0x1b78848a	2.0556905e-22
19	0x1a9393e4	6.1036705e-23
20	0x9b85fb2a	-2.2165315e-22
21	0x9890ac10	-3.7396866e-24
22	0x9b532461	-1.7465266e-22
23	0x1b9f7cfa	2.6385108e-22
24	0x1ad4ff8a	8.809399e-23
25	0x1acd036c	8.479154e-23
26	0x1c148f18	4.9154037e-22
27	0x1afdba5f	1.04939446e-22
28	0x1aa5df38	6.860303e-23
29	0x1b0c8d7e	1.1626247e-22
30	0x1b4662ee	1.6410142e-22
31	0x99644430	-1.1801094e-23
32	0x9abd18ee	-7.8208844e-23
33	0x9af407f4	-1.00928884e-22
34	0x1ba84aac	2.7841524e-22
35	0x9b759ad3	-2.0315951e-22
36	0x1bccbdc0	3.3871592e-22
37	0x994fbe23	-1.0740047e-23
38	0x9b941ed6	-2.4504473e-22
39	0x1b86fc5a	2.233152e-22
40	0x9b43723c	-1.6166933e-22
41	0x1b3b4119	1.5489312e-22
42	0x1b470a1c	1.6464161e-22
43	0x9b5c7beb	-1.8238014e-22
44	0x9b180f6e	-1.2578131e-22
45	0x9afa25ca	-1.0345863e-22
46	0x9c2c8b87	-5.709036e-22
47	0x9ae9c9ec	-9.6692764e-23
48	0x1bbe307a	3.146419e-22
49	0x9b7b010a	-2.0762569e-22
50	0x1bb9338d	3.0638997e-22
51	0x99e79076	-2.3943187e-23
52	0x9ba8535f	-2.7847146e-22
53	0x1bb161ad	2.9345315e-22
54	0x1b6c61f3	1.9553112e-22
55	0x9b99008a	-2.5312075e-22
56	0x1bbeb10b	3.1547275e-22
57	0x1bdbeb5b	3.6382606e-22
58	0x1b526d36	1.7406081e-22
59	0x9b0910a2	-1.1337749e-22
60	0x1a276da9	3.4623373e-23
61	0x1b5b6ca9	1.8150365e-22
62	0x19e3d70c	2.3558107e-23
63	0x9bbbfd80	-3.1100375e-22
64	0x1c16d508	4.9906173e-22
65	0x1a401d21	3.97282e-23
66	0x9bcfdc59	-3.4387674e-22
67	0x1b5eb702	1.8422543e-22
68	0x1b43c4cb	1.6193609e-22
69	0x1b8e1211	2.3503605e-22
70	0x98b82bb0	-4.7607e-24
71	0x9a5c0615	-4.5499847e-23
72	0x1b5f01d8	1.8446723e-22
73	0x1c4f100b	6.851129e-22
74	0x9bbde52b	-3.1415523e-22
75	0x1b1d5cb4	1.301669e-22
76	0x9b2806dd	-1.3898852e-22
77	0x1a139420	3.0518542e-23
78	0x1b93058f	2.4322702e-22
79	0x9b0b234a	-1.1509213e-22
80	0x1c11a66e	4.819158e-22
81	0x1c269a62	5.512433e-22
82	0x9b5e4acf	-1.8387582e-22
83	0x1a176d10	3.1314168e-23
84	0x9b03b942	-1.0895926e-22
85	0x9bddb2d7	-3.6676956e-22
86	0x1acce323	8.473938e-23
87	0x9aba9ed9	-7.718443e-23
88	0x1bcea8dc	3.4188964e-22
89	0x9a7b804c	-5.200922e-23
90	0x9b74c5d0	-2.0247124e-22
91	0x1b726155	2.004922e-22
92	0x9b4e176a	-1.7047486e-22
93	0x1ab09194	7.302709e-23
94	0x9b680426	-1.9191931e-22
95	0x9b39ffb7	-1.5385467e-22
96	0x1bf9687c	4.1261116e-22
97	0x1b1d0e11	1.2991281e-22
98	0x99926758	-1.5137786e-23
99	0x99b73ae5	-1.8945544e-23
100	0x1a1c05e7	3.2264812e-23
101	0x1ac0708a	7.9591155e-23
102	0x1b5394ba	1.7501567e-22
103	0x1a89741a	5.6849444e-23
104	0x1ba639bf	2.7499714e-22
105	0x9c2376e4	-5.408584e-22
106	0x9988e24c	-1.4153471e-23
107	0x1ba1ac16	2.6746424e-22
108	0x1b366581	1.5087485e-22
109	0x1a309d90	3.6523225e-23
110	0x99b5a500	-1.8781604e-23
111	0x19c40870	2.0269333e-23
112	0x18c3d4c0	5.062114e-24
113	0x9b235ce8	-1.3513064e-22
114	0x1bdcb019	3.6509747e-22
115	0x1aba3e2c	7.702824e-23
116	0x9b979a90	-2.5080738e-22
117	0x9b4c7e76	-1.6915346e-22
118	0x1b27d252	1.3881874e-22
119	0x98972358	-3.9068273e-24
120	0x9b5a5144	-1.8058796e-22
121	0x1ac1419e	7.992894e-23
122	0x1a11572e	3.005572e-23
123	0x1b175349	1.2517338e-22
124	0x9c082a83	-4.505357e-22
125	0x9ab46780	-7.461347e-23
126	0x9b5948aa	-1.7973298e-22
127	0x1ab3585f	7.4175436e-23

core.core.fc.1.0.weight f4 [64, 128]
0	0x1735df00	5.876572e-25
1	0x1b395968	1.533173e-22
2	0x9ac84d22	-8.2842676e-23
3	0x1a76db6a	5.104885e-23
4	0x9ad2415d	-8.6959564e-23
5	0x9a9cecec	-6.4902856e-23
6	0x9918ea1c	-7.905494e-24
7	0x1b7debaa	2.1003817e-22
8	0x19dd2478	2.2865594e-23
9	0x1a6f3871	4.9469635e-23
10	0x18d7ec3a	5.5814725e-24
11	0x1a58af5e	4.4809414e-23
12	0x1bc5208f	3.2611957e-22
13	0x1b7e7404	2.1047874e-22
14	0x198712cc	1.3966265e-23
15	0x99ad7756	-1.793598e-23
16	0x1b092a1e	1.1345983e-22
17	0x1b069842	1.1133417e-22
18	0x1b226a94	1.3434763e-22
19	0x9b34666f	-1.4922349e-22
20	0x9ae189f8	-9.328072e-23
21	0x9b2a8d0d	-1.4107646e-22
22	0x1a80647c	5.31019e-23
23	0x99913030	-1.5012111e-23
24	0x1a42b5e7	4.02652e-23
25	0x9a04f05e	-2.7491127e-23
26	0x9aa17970	-6.678423e-23
27	0x9b14223e	-1.2253337e-22
28	0x9b42eb40	-1.6123317e-22
29	0x9a9ae940	-6.406974e-23
30	0x9a7ed4dc	-5.2697915e-23
31	0x1aa39988	6.766326e-23
32	0x9b2f1fe0	-1.448596e-22
33	0x1b0e9997	1.1795592e-22
34	0x9b6449bd	-1.8883544e-22
35	0x9b93698c	-2.4387318e-22
36	0x9b34702d	-1.4925497e-22
37	0x1b836c9b	2.1742317e-22
38	0x1a374c68	3.7905234e-23
39	0x9afa2220	-1.0345271e-22
40	0x99cd7ea4	-2.1247653e-23
41	0x9a7c7b92	-5.2212198e-23
42	0x1a3f63b5	3.9578417e-23
43	0x9b920218	-2.4155027e-22
44	0x1b9d07b4	2.597845e-22
45	0x1ad0e776	8.640073e-23
46	0x1b1d580b	1.3015184e-22
47	0x1af194ee	9.991587e-23
48	0x9aab4e6a	-7.085063e-23
49	0x9a5cf3e3	-4.5691944e-23
50	0x9b4a90a0	-1.6755779e-22
51	0x1a64d406	4.7320566e-23
52	0x1acf28e9	8.567929e-23
53	0x1a289f64	3.487034e-23
54	0x1b744dda	2.0208362e-22
55	0x19a4f124	1.7054598e-23
56	0x1a7dd9be	5.2495064e-23
57	0x1b6ea5d0	1.9740475e-22
58	0x9b1d91be	-1.3033827e-22
59	0x99962714	-1.552542e-23
60	0x1aede25c	9.8386606e-23
61	0x1ad2b340	8.714356e-23
62	0x1b0d2c60	1.1677585e-22
63	0x9aad37f9	-7.164155e-23
64	0x9a117754	-3.008169e-23
65	0x998baebd	-1.444284e-23
66	0x99a17b30	-1.6696765e-23
67	0x99f6a956	-2.5504198e-23
68	0x9b42fd8a	-1.6129227e-22
69	0x9b9f6491	-2.6369333e-22
70	0x1b8377ec	2.174963e-22
71	0x9af7e2fe	-1.0252353e-22
72	0x9a685685	-4.8046365e-23
73	0x1ad43882	8.777244e-23
74	0x9b0465d0	-1.0951681e-22
75	0x9b05f4fa	-1.1080658e-22
76	0x9a48ffa8	-4.1565548e-23
77	0x1b113728	1.2011941e-22
78	0x99b6bb8c	-1.8894109e-23
79	0x9b41fd2d	-1.6046391e-22
80	0x19ee06c8	2.4611362e-23
81	0x1b00957c	1.0636213e-22
82	0x1b4d212c	1.6967921e-22
83	0x1b915fd5	2.4050168e-22
84	0x1a758822	5.077478e-23
85	0x19a68d74	1.722113e-23
86	0x9a48c70d	-4.1519823e-23
87	0x1a31ca20	3.6766017e-23
88	0x1b06811a	1.1125935e-22
89	0x1b2ad024	1.4129324e-22
90	0x1ab22980	7.368612e-23
91	0x1b0db779	1.172253e-22
92	0x9b9a59f9	-2.5535306e-22
93	0x181d7b10	2.0353905e-24
94	0x1b97f100	2.5136597e-22
95	0x9b1d6b74	-1.3021456e-22
96	0x9aaf9dc9	-7.263322e-23
97	0x1a83c3a8	5.449643e-23
98	0x1b670a80	1.9111265e-22
99	0x9a193771	-3.1684444e-23
100	0x1b49c23b	1.668909e-22
101	0x1b9e3e79	2.617928e-22
102	0x9b2ae5ea	-1.413636e-22
103	0x1a4a600f	4.1850216e-23
104	0x1b16e27c	1.248089e-22
105	0x9a3612e2	-3.765197e-23
106	0x9a8dd6eb	-5.866345e-23
107	0x1b92cf28	2.4287545e-22
108	0x9860b190	-2.9040968e-24
109	0x193caf74	9.754805e-24
110	0x99d72a3c	-2.2247537e-23
111	0x9b204d78	-1.3259921e-22
112	0x9b05c03c	-1.1063616e-22
113	0x1a79855e	5.1599726e-23
114	0x9978c538	-1.28611275e-23
115	0x1b981403	2.5159223e-22
116	0x992373a0	-8.450253e-24
117	0x98e25814	-5.8508567e-24
118	0x9a0c09cd	-2.895924e-23
119	0x1a635966	4.7014715e-23
120	0x97e13f40	-1.4556251e-24
121	0x99532643	-1.0916171e-23
122	0x9b100152	-1.1911827e-22
123	0x1a83a98f	5.4454267e-23
124	0x1b85422a	2.2045762e-22
125	0x9b7fc8ab	-2.1157945e-22
126	0x1a7f41e1	5.278598e-23
127	0x1a8319da	5.4222096e-23
128	0x9aefa1dc	-9.910958e-23
129	0x1b8afacb	2.2992256e-22
130	0x1868f330	3.0108076e-24
131	0x19e3b188	2.3542954e-23
132	0x1a5c9756	4.5617182e-23
133	0x995e4062	-1.1490133e-23
134	0x9b617dde	-1.8652234e-22
135	0x98bd4fcc	-4.893593e-24
136	0x998ca69a	-1.454295e-23
137	0x1a2971a3	3.5040176e-23
138	0x9a4a3b90	-4.1820735e-23
139	0x1b59e0b3	1.8022424e-22
140	0x1b7c3a60	2.0863813e-22
141	0x9b23e51a	-1.3557071e-22
142	0x9b8f5f8e	-2.3719116e-22
143	0x1a7286c6	5.0153296e-23
144	0x9b2c3bd6	-1.424684e-22
145	0x1a201738	3.310598e-23
146	0x99f94da9	-2.5777363e-23
147	0x1909aa90	7.117179e-24
148	0x9b020878	-1.0756084e-22
149	0x1bae8608	2.88725e-22
150	0x1b93a328	2.4424547e-22
151	0x1a4e0464	4.2603348e-23
152	0x190da608	7.323059e-24
153	0x9a75a3a4	-5.0797e-23
154	0x1ac83876	8.280928e-23
155	0x1b7dc4bb	2.0991237e-22
156	0x1b1d8c90	1.3032154e-22
157	0x1b9a1bf0	2.5495217e-22
158	0x9a397fca	-3.836033e-23
159	0x1ace2f36	8.5275876e-23
160	0x9a6a06e0	-4.839562e-23
161	0x1a87abfd	5.6112553e-23
162	0x1b98b6ff	2.526455e-22
163	0x9b17cb9d	-1.2556218e-22
164	0x19c9ab56	2.0852115e-23
165	0x18e47188	5.9051256e-24
166	0x9abd824d	-7.837908e-23
167	0x9af6260e	-1.01804696e-22
168	0x9a550c7a	-4.4057446e-23
169	0x198b9089	1.443064e-23
170	0x9b416b36	-1.5999228e-22
171	0x1abd0bca	7.8187614e-23
172	0x9b15b275	-1.2382654e-22
173	0x9b6792ae	-1.9155267e-22
174	0x9c0162f2	-4.2810403e-22
175	0x1a5b82c0	4.5393758e-23
176	0x19cb4c4c	2.1020524e-23
177	0x9ae9eda8	-9.6750496e-23
178	0x1b8c1650	2.3175476e-22
179	0x9b9f28e2	-2.6330763e-22
180	0x19e9ff26	2.4194689e-23
181	0x99c00dae	-1.985786e-23
182	0x9ab52190	-7.491407e-23
183	0x9ac16ea9	-8.000171e-23
184	0x1a85d796	5.535581e-23
185	0x1adfbff2	9.254074e-23
186	0x1a5ce98d	4.5683595e-23
187	0x1a2c18f0	3.558891e-23
188	0x1b711516	1.9941866e-22
189	0x9b06fbd8	-1.1165595e-22
190	0x1b9bd289	2.5778654e-22
191	0x9b4565c0	-1.6328335e-22
192	0x1b01cde2	1.0737154e-22
193	0x99a10dbf	-1.6652562e-23
194	0x1ab0f180	7.318206e-23
195	0x1b876fec	2.2406204e-22
196	0x9a8b8d46	-5.771729e-23
197	0x9aa9ae3a	-7.017824e-23
198	0x1b705492	1.9879661e-22
199	0x19ed0584	2.4507453e-23
200	0x18bb4a54	4.841342e-24
201	0x9a1783d6	-3.1332564e-23
202	0x1b4b3c82	1.6811318e-22
203	0x9b3a21b2	-1.5396447e-22
204	0x1b19e408	1.2729544e-22
205	0x1b46efc1	1.6455645e-22
206	0x9abccb29	-7.80832e-23
207	0x99fba8fc	-2.6021044e-23
208	0x1a8bbae0	5.7790965e-23
209	0x18e8d2f8	6.018362e-24
210	0x195fee1a	1.1576914e-23
211	0x99764d78	-1.2733547e-23
212	0x1985130a	1.3759567e-23
213	0x1a66f125	4.775768e-23
214	0x98d00e13	-5.378095e-24
215	0x1a5b7b66	4.538782e-23
216	0x1a961545	6.207291e-23
217	0x9acab8b5	-8.384365e-23
218	0x9bca3356	-3.3451272e-22
219	0x1af15e97	9.982808e-23
220	0x999892e7	-1.5775765e-23
221	0x1b2b46c3	1.4167653e-22
222	0x9aaf3d8b	-7.247773e-23
223	0x9906d68d	-6.970966e-24
224	0x1b2bcfb5	1.4211902e-22
225	0x1aeaadd8	9.706099e-23
226	0x9b57d832	-1.785424e-22
227	0x979fa200	-1.0316029e-24
228	0x9ab906c8	-7.652516e-23
229	0x9a383134	-3.8090054e-23
230	0x199848c8	1.5745828e-23
231	0x1b4ff220	1.7200873e-22
232	0x1a12491e	3.0251156e-23
233	0x1bb29932	2.954663e-22
234	0x19fb3908	2.5975826e-23
235	0x9b088000	-1.1291015e-22
236	0x1999c05c	1.5897523e-23
237	0x9ad2550d	-8.699137e-23
238	0x1ad79093	8.915549e-23
239	0x9a85e589	-5.5378345e-23
240	0x1ac08d5f	7.9637736e-23
241	0x1a142a5e	3.0639907e-23
242	0x9a7efab1	-5.2728476e-23
243	0x999ae7fe	-1.6016928e-23
244	0x9b5d7387	-1.831802e-22
245	0x9bc1af1a	-3.2042328e-22
246	0x9bae079a	-2.8790798e-22
247	0x1b368798	1.50985e-22
248	0x98f1bbc8	-6.248665e-24
249	0x1848c2d0	2.594775e-24
250	0x9a429925	-4.024197e-23
251	0x1a313e65	3.6653144e-23
252	0x9b72f3c3	-2.0096534e-22
253	0x1ad76116	8.9078767e-23
254	0x9b3c1c52	-1.5560146e-22
255	0x997baa14	-1.3010743e-23

core.core.fc.1.0.bias f4 [64]
0	0xb4cffa8c	-3.8739051e-07
1	0xb5c21967	-1.4461519e-06
2	0xb42f50e4	-1.6327573e-07
3	0xb420dd0b	-1.4981576e-07
4	0xb41f05fc	-1.4810206e-07
5	0x309e6400	1.1524435e-09
6	0xb402d32f	-1.2184022e-07
7	0xb3124d5c	-3.4063632e-08
8	0x327bb42b	1.4651088e-08
9	0x335e60e0	5.177651e-08
10	0x32e120dc	2.620839e-08
11	0xb800c674	-3.0702402e-05
12	0xb2550baf	-1.2400888e-08
13	0xb1761b2d	-3.581316e-09
14	0xb3d4e720	-9.914061e-08
15	0x3221adfc	9.410993e-09
16	0xb28b8b96	-1.6245206e-08
17	0x32378471	1.0682116e-08
18	0xb43ba0fb	-1.7474296e-07
19	0x3f7ae9e9	0.9801317
20	0xb3dab12e	-1.0183645e-07
21	0xb2b4d795	-2.1052793e-08
22	0x340524f3	1.2400032e-07
23	0x321da486	9.176011e-09
24	0x3447cf45	1.8608723e-07
25	0xb2716453	-1.4050857e-08
26	0xb1c36a20	-5.687312e-09
27	0xb5a8f53c	-1.2588348e-06
28	0xb2b3bb32	-2.092347e-08
29	0x31dd4ead	6.440891e-09
30	0x36c0fa6c	5.751199e-06
31	0xb9e2be05	-0.00043247655
32	0x31cdfc34	5.9949574e-09
33	0xb4a2b12b	-3.0303758e-07
34	0x33ba46de	8.6741906e-08
35	0x33967662	7.006453e-08
36	0xb8e28771	-0.00010801748
37	0xb4c2b31a	-3.626563e-07
38	0xb3aaca4b	-7.953039e-08
39	0xb2da43a2	-2.5409296e-08
40	0x324d1dd2	1.1939351e-08
41	0xb426c56a	-1.5531774e-07
42	0xb380ba5b	-5.994362e-08
43	0xb3b18141	-8.265716e-08
44	0xb385551f	-6.2087786e-08
45	0x323cda25	1.0992641e-08
46	0xb3cc58e8	-9.515662e-08
47	0x3398531f	7.093171e-08
48	0xb405c8bd	-1.2459618e-07
49	0xb53917ce	-6.895251e-07
50	0x33961f66	6.990631e-08
51	0xb35b84a5	-5.111055e-08
52	0x32baf0e2	2.176279e-08
53	0x33c6a616	9.250304e-08
54	0x332015a8	3.72726e-08
55	0xb1abb568	-4.9973785e-09
56	0x340a7ee5	1.2898415e-07
57	0xb3419fd9	-4.5081695e-08
58	0xb3c51330	-9.1770175e-08
59	0x300e1b90	5.169847e-10
60	0xb21b53a2	-9.041203e-09
61	0xb520676c	-5.9755143e-07
62	0xb39fa59c	-7.4341386e-08
63	0xb080684c	-9.342869e-10
