artifacts/poses_to_location/20250818183722/best_model.pt (torch, 376885 bytes, 48 tensors)

embedding.embeddings.bex_20230623_denoised.poses.weight f4 [64, 63]
00000000: 59fd b13c 2b38 213c c3c8 88bc 0456 c03c
00000010: b907 003c 39a5 65bc ea6f 733c a548 d83a
00000020: 7bb8 e7bb be17 a13b fba3 8cba 04a2 87bc
00000030: 7a1a 3cbb d682 39bc 903c 8cb8 aee2 83bc
00000040: cd23 e23b a269 d1bb 7f7b c13c af9d 663a
00000050: 76a0 92bb fd6e 883c 59d7 83bb f09f 17bc
00000060: bc1c 053b 8f49 ffb9 374b 503a c5a6 aa3b
00000070: b2c9 c1ba e8a7 f8ba f2af 34bc 880e 8aba
00000080: 8c24 233b 9347 09bd aae9 b9b9 a8b5 813c
00000090: 2e7a 2fbc d2a5 203b ce13 353c f05c 6fbc
000000a0: 09a3 a2bb 9971 213c b7e0 d1bb 5e06 8539
000000b0: 8011 76bb 673a 95bb 5799 72bb 1db4 c73a
000000c0: 311b 073c 5d99 5c2f a954 ec2f 5425 07bc
000000d0: d32d 342d b8ab 892b 138e daba 4778 23bc
000000e0: 4ca4 9d3c cb2a 25bc 185f 24bc fd48 a03c
000000f0: 00e3 fdbb 121d 07bc de3a fa2d 2faa 293c
00000100: 4839 973b 7095 01bc 7a81 373c 9473 743b
00000110: 7f86 d8bb eb09 e83b 3b92 653a 2e0d 5dbb
00000120: b837 143b 8d27 04ba dc56 00bc 6004 c5ba
00000130: 5f5b b1bb 4cae 1338 5a5b fcbb 81da 593b
00000140: 8bcf 40bb 5b3f 383c 7095 eb39 d083 08bb
00000150: 6add 013c 5844 fcba c7ae 8ebb 444d 773a
00000160: 102c 4fb9 7bda da39 702a 1b3b 53e4 32ba
00000170: 4480 5dba b9a2 aebb 3132 04ba 1c75 a13a
00000180: 242c 83bc 0ceb 0fb9 0253 f83b e0e8 a7bb
00000190: b0ed 993a c064 ad3b 9701 e6bb 77ac 18bb
000001a0: 788e 9a3b 0ec8 47bb 369e fe38 cc79 e8ba
000001b0: 1626 03bb 9133 e7ba 3b26 423a 8931 833b
000001c0: 50a4 dc2e 5fb1 622f 562c 81bb cf8e ab2c
000001d0: 0756 502b de72 46ba 18fa 9cbb 0759 163c
000001e0: a954 9cbb 498c 9cbb 3026 193c 897e 79bb
000001f0: 13c0 80bb 867a 6e2d c04b c2bc 2291 2fbc
00000200: 9a5d 953c 9bed d1bc 917c 0bbc 6d97 7a3c
00000210: e0dc 84bc d75e 00bb 6afc ff3b 5413 b0bb
00000220: ded9 973a ac20 943c 9845 4d3b 4184 4a3c
00000230: d838 ca38 b85d 903c 6198 f9bb 5b4f e73b
00000240: 876a d3bc 400c 7aba 9d2a a03b 4b02 95bc
00000250: fc9f 903b c6ab 253c 634c 11bb a617 0e3a
00000260: dae1 5eba 129f bcbb 899a cf3a b134 083b
00000270: 807f 443c 70d3 963a 8f5b 31bb 56c9 153d
00000280: f358 d339 df90 8dbc 57b2 3f3c 7f6b 2fbb
00000290: 557e 45bc e6de 823c 34ae b03b a232 30bc
000002a0: e11c e83b d79a 82b9 0fe7 823b afe0 983b
000002b0: 1c8b 823b a2b2 dcba 90ef 13bc 9068 8faf
000002c0: 24b7 dfad a2e8 133c c2b9 44ad 0c9a 8eab
000002d0: 42f3 dd3a a386 323c fc14 acbc c1c8 323c
000002e0: 9252 333c aea8 aebc f45d 0a3c 01a4 133c
000002f0: 48e8 05ae 24cf c43c df0d 323c e451 97bc
00000300: 7ea3 d43c cb36 0d3c 7fe2 7dbc b474 863c
00000310: 5771 ff3a 78aa 01bc 636e b23b bda0 9aba
00000320: 2126 96bc 4002 52bb 0a20 4dbc e8b2 aeb8
00000330: d22a 92bc 08a4 fc3b d415 eabb 4a0d d63c
00000340: 22d4 7e3a bd4a a2bb 22df 963c b4a7 92bb
00000350: 22d7 27bc 4168 133b c22a 12ba 685b 633a
00000360: 340c bd3b 84f1 d4ba 4218 0abb c735 47bc
00000370: 149b 98ba 8aba 333b dda3 17bd 5cf5 d3b9
00000380: 5e57 8f3c a7f1 41bc 05c2 313b 1206 483c
00000390: e52c 84bc 576d b3bb 324b 323c 20b3 ebbb
000003a0: 0fdf 9039 0f75 81bb 4001 9abb e976 82bb
000003b0: 80ef e73a 05ba 153c eafc 4f2f f6a5 0a30
000003c0: 23a3 15bc 8f53 462d a9c9 a72b 48d6 e0ba
000003d0: 3dc0 34bc d559 ae3c 435d 35bc 7f8d 35bc
000003e0: 3afe b03c 2379 0cbc f6b0 15bc 554d 0a2e
000003f0: f746 23bc 9cbd 91bb 792a fa3b 857c 30bc
0.02172725 0.009840052 -0.016697293 0.023478515 0.007814341 -0.014016443 0.014858225 0.0016501142
-0.0070715523 0.0049161604 -0.0010730022 -0.016556747 -0.0028702305 -0.011322698 -6.687001e-05 -0.0160993
0.0069012404 -0.0063907662 0.023618458 0.00087973004 -0.004474695 0.016654486 -0.004023474 -0.009254441
0.0020311316 -0.00048692196 0.0007945778 0.0052078688 -0.0014784841 -0.0018970938 -0.011028277 -0.0010532895
0.002489361 -0.033515524 -0.00035460043 0.01583369 -0.010710282 0.00245129 0.011052085 -0.01460956
-0.004963283 0.009853744 -0.006404962 0.0002537248 -0.0037547052 -0.0045540812 -0.0037017667 0.0015236173
0.008246229 2.0063369e-10 4.2988305e-10 -0.008248646 1.024199e-11 9.782097e-13 -0.0016674421 -0.009977407
0.019243382 -0.010081003 -0.010032438 0.019566054 -0.007748008 -0.008246677 2.8447852e-11 0.010355516
0.0046149828 -0.007909164 0.011200303 0.0037300335 -0.00660783 0.0070812604 0.0008757447 -0.003372978
0.0022616219 -0.0005041294 -0.007833209 -0.0015031211 -0.0054125036 3.5209858e-05 -0.0077013196 0.003324181
-0.002942058 0.011245574 0.00044934032 -0.002083052 0.007926324 -0.0019246442 -0.004354331 0.0009433816
-0.00019757473 0.0004174298 0.0023676418 -0.0006824184 -0.0008449594 -0.0053294566 -0.00050428795 0.0012318227
-0.016012259 -0.00013725105 0.0075782547 -0.0051241964 0.001174381 0.0052915514 -0.0070192325 -0.0023296156
0.0047166906 -0.0030484232 0.00012141133 -0.0017736494 -0.0020011715 -0.0017639269 0.00074062095 0.004003708
1.00336295e-10 2.0617595e-10 -0.003942053 4.8759673e-12 7.401583e-13 -0.0007570217 -0.0047905557 0.009176499
-0.0047708345 -0.0047774655 0.0093474835 -0.0038069806 -0.003929147 1.3555939e-11 -0.023717761 -0.010715755
0.01823311 -0.025625994 -0.008513586 0.015294892 -0.016218603 -0.001958778 0.0078120725 -0.005373398
0.0011585315 0.018081985 0.0031321999 0.012360633 9.6426986e-05 0.017622814 -0.007617042 0.0070590205
-0.025807632 -0.00095385686 0.0048878924 -0.01818957 0.004413603 0.010111755 -0.0022170774 0.0005420394
-0.00085022824 -0.0057562673 0.0015838902 0.002078336 0.011993289 0.0011507105 -0.002706263 0.036568962
0.00040311328 -0.017280994 0.011700234 -0.0026766954 -0.012054046 0.015975427 0.0053918604 -0.010754259
0.0070835208 -0.00024910897 0.0039948295 0.0046654562 0.0039838683 -0.0016837905 -0.009029284 -2.6085845e-10
-2.5433496e-11 0.009027632 -1.1182557e-11 -1.0132463e-12 0.0016933458 0.010896358 -0.0210061 0.010912121
0.010944979 -0.021320667 0.008445252 0.00901127 -3.0447006e-11 0.024024554 0.010867565 -0.018471666
0.025956865 0.008619021 -0.015495895 0.01641307 0.0019488734 -0.007914178 0.005445288 -0.0011797171
-0.018328728 -0.0032044798 -0.012519846 -8.3302904e-05 -0.017842684 0.0077099837 -0.0071437154 0.026129384
0.00097209413 -0.004952757 0.018416945 -0.004475558 -0.010244163 0.002249256 -0.00055758294 0.00086729834
0.005769277 -0.0016246294 -0.0021071588 -0.012158818 -0.0011642897 0.0027424418 -0.037021507 -0.00040427863
0.017497715 -0.0118374 0.0027123701 0.0122084785 -0.016134689 -0.005475681 0.010882186 -0.007192984
0.00027632012 -0.003950722 -0.004699856 -0.0039814604 0.0017695278 0.009138589 1.8916393e-10 5.043995e-10
-0.009133133 1.1273551e-11 1.1922036e-12 -0.0017153705 -0.011032161 0.02128307 -0.011069599 -0.011081099
0.0216056 -0.008573803 -0.009136429 3.1446252e-11 -0.00996565 -0.004447652 0.0076344577 -0.010771875

embedding.embeddings.bex_20230623_denoised.poses.bias f4 [64]
00000000: 3281 a8bd 96f5 20bd 3ce1 b73d 6945 babd
00000010: 60e4 1a3d a6f1 88bd 58e8 9d3d 5f25 dabd
00000020: 6ced e4bd 1ff1 10be 3ac3 8f3d 3274 a6bd
00000030: 18cc 7b39 47d4 8c3d 37f2 adbd 36e4 c5bd
00000040: 9ff6 cfbd 5b9a 94bd daaa a43d e27e e0bd
00000050: 0a58 dfbd 4376 c73d 0f9e edbd 1d1d 34bd
00000060: c555 013e fb55 15bd bf2c 0b3a 1569 cbbc
00000070: a742 b2bd 1e02 e8bd 0758 b83d 53f2 29bd
00000080: 0cbb fcbd a389 083d 9b37 bdbd 814f 9d3d
00000090: e4df e9bd ac31 05be 4587 59b8 b3a9 14be
000000a0: 0e92 eebc 8a3e 9c3d 1076 eb3d 170f 863d
000000b0: 6e88 b93d 2f85 dbbd 0026 9dbd 13de 8abd
000000c0: 539f 943d 4920 053e 3d1f 103d 8720 03be
000000d0: 5fe9 ec3b a18a d4bd 48c1 d83d 0303 993d
000000e0: b5cb a43d ecfc bfbd f939 c0bd ada1 21bc
000000f0: 0317 3dbd 3655 393b 6bec c2bd 98c2 59ba
-0.08227767 -0.03929671 0.08978507 -0.0909527 0.03781545 -0.06686716 0.07710332 -0.10651659
-0.11178097 -0.1415448 0.070196584 -0.08127631 0.00024013256 0.06876426 -0.084934644 -0.096626684
-0.10154461 -0.072560035 0.080404 -0.10961701 -0.10905464 0.097393535 -0.11602413 -0.043973077
0.12630375 -0.03645895 0.0005309097 -0.02483038 -0.08704119 -0.11328529 0.09001165 -0.041490864
-0.12340364 0.033334386 -0.092391215 0.0768118 -0.11419657 -0.1300723 -5.186281e-05 -0.1451786
-0.029122379 0.07629116 0.11497128 0.06545847 0.09059225 -0.10718762 -0.076732635 -0.067806385
0.07256951 0.13000597 0.03518604 -0.12805377 0.0072299684 -0.10378004 0.105837405 0.074712776
0.080466665 -0.09374413 -0.093860574 -0.009865207 -0.046164524 0.002827955 -0.095177494 -0.000830689

embedding.embeddings.ken_20230614_denoised.poses.weight f4 [64, 63]
00000000: 3295 6e3c 4c18 3f3a 08c3 48bc 1ce2 7f3c
00000010: 2fb8 253b 6b32 0dbc 9595 193c 2464 043b
00000020: 165d 8cbb 936b 12bc 14c1 39bc 4b52 c2bc
00000030: 4c8b 7dbc ff68 0fbc 0e4d 73bc 4c0c 5bbc
00000040: 4086 3cb8 7f15 bcbb c2b3 853b 771b 92bb
00000050: 8373 6cba 7614 483b c79e 1bbb d371 7c3b
00000060: 3e1f cfbb 0321 3a3b 6e60 65b9 9aea 82bc
00000070: 3a72 80bb f98c 70bb 598b 70bc 7d24 39ba
00000080: bd06 cc3b 2d49 b4bc 13dd 58bb 6471 143c
00000090: ab23 a1bc a43d 34ba 72cc d83b b995 95bc
000000a0: b8c5 1a3b 0fca 393b f3dc 94bb dac0 63b9
000000b0: 0ba7 6ebb 0d0a cd3a f591 873a 6e12 a93b
000000c0: 7e5f 083c e046 fdad 068e 582f c268 09bc
000000d0: 998b 852c 38fc b3ac 38ec a8ba 4def dabb
000000e0: c179 873c 7f4b 513c 2b19 f7bb bf38 0e3d
000000f0: f7c6 803b a163 08bc 49e4 92ad a6cc e23b
00000100: 2656 e339 a00c c0bb dba1 f23b c1ca 9d3a
00000110: 37c4 87bb 486e 903b d74c 6d3a b0c9 05bb
00000120: 5e8c 8bbb d0b7 afbb 56b1 39bc add6 eebb
00000130: 2e8b 87bb 40c7 e8bb 25c6 cdbb 1008 82b7
00000140: e5a2 33bb 9af2 f13a 35ce 0abb 167e f6b9
00000150: 74f0 bd3a 5ce8 96ba a1cb ea3a 49d9 4bbb
00000160: ed42 b33a b237 15b9 4a38 f9bb eb7e f1ba
00000170: 9b6b ebba c957 e4bb a657 97b9 0919 3f3b
00000180: 2fc1 2bbc 0309 cfba 4255 8b3b 5600 1abc
00000190: c079 35b9 2b7a 4a3b d473 0dbc 0b9e 983a
000001a0: b299 a73a d1e7 faba 9522 d4b8 5ffd e1ba
000001b0: e89c 403a 7f3e ed39 0ba9 1f3b 6c18 813b
000001c0: 76be 16ae ad9a 852e a82d 7fbb e687 76a9
000001d0: 707f 2dac ace1 20ba a587 4bbb c096 043c
000001e0: 6a0f c63b a99c 6dbb fc76 873c 357b f83a
000001f0: 7002 83bb a7b7 5aac 4e67 82bc 00cd 5eba
00000200: aa1a 5b3c 7d9b 8bbc 4469 2bbb 3ed2 193c
00000210: cd38 27bc 0e78 0bbb bdf1 983b 0890 1f3c
00000220: 2098 4a3c 0708 d43c 0dfd 893c 9c5b 1a3c
00000230: 6fdb 843c 894f 6f3c 88b6 2838 cc29 cd3b
00000240: 651f 92bb 0ebc 973b 8d96 7f3a f455 59bb
00000250: 3504 2a3b 1e30 8abb ff27 e23b 1ba9 48bb
00000260: bbf4 6739 f70b 8f3c cb52 953b 26d5 823b
00000270: 2648 833c fad9 523a 79e9 debb 89c8 c43c
00000280: b288 6c3b 3963 22bc 0569 af3c 79cf 453a
00000290: 2615 edbb fde3 a23c 6561 29bb 09ad 4bbb
000002a0: 3544 a23b 469c 7839 3521 833b 0d9b dcba
000002b0: af9d 90ba e57d b8bb 7b35 15bc d29b 8d2e
000002c0: 0411 58af c5d3 153c f6f7 cb2b 3874 ba2c
000002d0: 6b0f b83a 64b3 ef3b 44dd 93bc 04e9 65bc
000002e0: 54a1 073c 7949 1bbd ab7b 8dbb 2600 163c
000002f0: aa7a 05ac ff10 843c ea93 523a 40d5 5dbc
00000300: ec76 8d3c f0c7 2f3b fbec 1bbc e7e2 293c
00000310: 099e 113b 3e42 9bbb 2494 21bc 41ec 4cbc
00000320: 3ac6 d6bc ebd4 8bbc 5558 1cbc 7e91 86bc
00000330: bec0 72bc ce56 36b8 0dd2 d0bb 55f4 933b
00000340: cefa 9fbb df12 81ba bd01 5b3b 715b 2bbb
00000350: b125 8c3b 5ba1 e4bb 6439 4c3b 862f 57b9
00000360: bcd7 90bc 88ab 97bb 2490 84bb 73ea 84bc
00000370: 5713 64ba 6ad6 e13b fb45 c7bc 8698 6fbb
00000380: aabc 243c 5657 b1bc b551 49ba 3f3a f03b
00000390: 7744 a5bc 67d4 2a3b 6556 4e3b 7a1a a4bb
000003a0: 76b5 7ab9 d859 83bb 5265 e03a aff6 953a
000003b0: b4dc ba3b 1021 173c 6a0e 9f30 9457 762f
000003c0: a922 17bc 8e45 21aa affb caac d4b6 bbba
000003d0: f388 f5bb dbf6 953c 2f73 673c 8daa 09bc
000003e0: 684f 1d3d ecfc 8b3b edeb 17bc 01a0 832d
000003f0: f039 dbbb 3f22 bcb9 d30c b93b 7565 eabb
0.014561938 0.00072896923 -0.01225353 0.0156178735 0.0025286784 -0.008617978 0.009374042 0.002020129
-0.0042835576 -0.0089367805 -0.011337537 -0.023720881 -0.0154751055 -0.00875306 -0.014849914 -0.013369631
-4.4947723e-05 -0.005739867 0.0040802667 -0.0044588405 -0.0009019898 0.0030529774 -0.0023745762 0.0038519993
-0.006320863 0.0028401024 -0.00021875065 -0.015981007 -0.003919867 -0.003670512 -0.014681661 -0.0007062627
0.006226389 -0.02200755 -0.0033090755 0.009060238 -0.019670328 -0.000687564 0.0066161687 -0.01825987
0.0023616385 0.0028349196 -0.0045429408 -0.0002172025 -0.0036415483 0.0015643254 0.0010343181 0.0051596677
0.008323548 -2.8794245e-11 1.9695542e-10 -0.008386793 3.795586e-12 -5.115488e-12 -0.0012887781 -0.006681359
0.016537549 0.012774347 -0.007540842 0.034722086 0.0039299685 -0.008324535 -1.6699657e-11 0.0069213687
0.00043361 -0.00586088 0.0074045486 0.0012038575 -0.0041432637 0.004407678 0.00090522825 -0.0020414405
-0.0042586764 -0.0053624883 -0.011333784 -0.007288775 -0.0041364646 -0.0071038306 -0.006279724 -1.5500962e-05
-0.0027410325 0.0018459142 -0.0021180038 -0.00047014718 0.0014491216 -0.001151334 0.0017913469 -0.0031104854
0.0013676562 -0.00014230495 -0.007605587 -0.0018424665 -0.0017961146 -0.0069684726 -0.00028866268 0.002915921
-0.01048307 -0.0015795532 0.004252107 -0.009399494 -0.0001730686 0.0030895572 -0.008633573 0.001164378
0.0012786894 -0.0019142573 -0.00010115389 -0.0017241648 0.00073475996 0.00045250726 0.0024362232 0.003939679
-3.4275215e-11 6.075616e-11 -0.0038937125 -5.4740846e-14 -2.465552e-12 -0.00061371434 -0.0031056192 0.008092582
0.006044318 -0.0036256707 0.016536228 0.0018957617 -0.0039980933 -3.108161e-12 -0.0159184 -0.00084991753
0.013373056 -0.017041916 -0.0026155272 0.009388505 -0.010206413 -0.0021281275 0.0046674893 0.00973893
0.012365371 0.025882734 0.016844297 0.009421255 0.016217915 0.014606365 4.0224317e-05 0.006261086
-0.004459309 0.004630572 0.0009749912 -0.0033162804 0.002594245 -0.004217162 0.0069017406 -0.0030618373
0.00022121046 0.01746176 0.004556989 0.0039926944 0.016025614 0.00080433453 -0.0068027345 0.024021404
0.003609222 -0.009911352 0.021412382 0.00075458694 -0.007235187 0.019884104 -0.0025845405 -0.0031078479
0.0049519786 0.0002370934 0.0040017613 -0.0016830877 -0.0011033321 -0.005630242 -0.009106989 6.439617e-11
-1.9651131e-10 0.009144728 1.449284e-12 5.299341e-12 0.0014042681 0.007315086 -0.018049844 -0.014032606
0.00827821 -0.037911866 -0.004317721 0.009155309 -1.896853e-12 0.016121386 0.0008032905 -0.013539612
0.01726862 0.0026822053 -0.00951695 0.010369039 0.002221944 -0.0047381213 -0.00986198 -0.012507499
-0.026217569 -0.0170693 -0.009542544 -0.016426798 -0.014816461 -4.3473025e-05 -0.0063726963 0.0045152106
-0.004882193 -0.0009847543 0.0033417784 -0.0026147033 0.004276954 -0.006977243 0.0031162137 -0.00020521702
-0.017680995 -0.0046286024 -0.004045503 -0.016225075 -0.00087003916 0.006892015 -0.024325361 -0.0036559417
0.010054747 -0.02164809 -0.0007679717 0.007331162 -0.020174248 0.0026066543 0.00314846 -0.005008039
-0.00023909457 -0.004008513 0.001712004 0.0011441315 0.0057025794 0.009224191 1.1572869e-09 2.2404684e-10
-0.009224572 -1.4323804e-13 -5.769128e-12 -0.0014321455 -0.0074931323 0.018306186 0.014126583 -0.008402479
0.038405806 0.004272094 -0.009272558 1.4964032e-11 -0.0066902563 -0.0003588367 0.0056472807 -0.007153208

embedding.embeddings.ken_20230614_denoised.poses.bias f4 [64]
00000000: 068f abbd 69c4 23bd 3b39 bb3d 05a5 bdbd
00000010: b398 1d3d 8f68 8bbd 90c4 a03d c917 debd
00000020: 540f e9bd 2d83 13be b55c 923d e975 a9bd
00000030: 1af9 8339 2c5e 8f3d 181a b1bd b17a c9bd
00000040: 1fc0 d3bd 6d42 97bd b8a7 a73d 3f8d e4bd
00000050: ce62 e3bd 2115 cb3d 68e7 f1bd 6039 37bd
00000060: fca6 033e 2deb 17bd 934b 0a3a 43d1 cebc
00000070: 6175 b5bd 7332 ecbd 5bb1 bb3d d9ed 2cbd
00000080: 37a3 00be 36e9 0a3d 67a6 c0bd 3f2b a03d
00000090: 5011 eebd f194 07be cc56 69b8 f448 17be
000000a0: c190 f2bc d612 9f3d 31b6 ef3d 7378 883d
000000b0: f8e5 bc3d 6884 dfbd b6fe 9fbd 6b5d 8dbd
000000c0: bf4f 973d 6c83 073e 4b98 123d 3b7a 05be
000000d0: a55f ef3b 5465 d8bd 4dad dc3d a0c8 9b3d
000000e0: bac4 a73d 0a7a c3bd 2fb6 c3bd 0ae0 23bc
000000f0: f968 40bd f2cb 3b3b 8575 c6bd 34d1 5bba
-0.08376889 -0.039982233 0.09141775 -0.092599906 0.038475703 -0.06807052 0.07849991 -0.108443804
-0.11379877 -0.14405508 0.07146589 -0.08274443 0.00025171862 0.07000384 -0.08647555 -0.09837855
-0.103393786 -0.073857166 0.08186287 -0.11159753 -0.1110283 0.099161394 -0.11811715 -0.04473245
0.12856668 -0.037089515 0.00052755437 -0.025246268 -0.08860279 -0.1153306 0.09164687 -0.042219017
-0.12562262 0.033913814 -0.09406739 0.078207485 -0.11624396 -0.1324041 -5.5632365e-05 -0.14773923
-0.02961004 0.077672645 0.11704672 0.06663599 0.092235506 -0.10913926 -0.07812254 -0.06902584
0.07388257 0.13233727 0.03578977 -0.13034908 0.007305103 -0.10566202 0.10775242 0.076066256
0.081918195 -0.095447615 -0.09556233 -0.010002146 -0.04697511 0.0028655496 -0.09690384 -0.00083853607

embedding.embeddings.ken_20230618_denoised.poses.weight f4 [64, 63]
00000000: 5338 b73c 7666 d53b fec6 84bc c2a1 b03c
00000010: 6bd8 d53b 1bf4 66bc 39f2 2f3c 4ab0 463b
00000020: 505b d3bb 4475 17bc 3900 2abc c1c2 e4bc
00000030: 3f32 83bc ed06 38bc b2ee 9ebc cecc 6bbc
00000040: 5b5e d33a 9dd6 e7bb 4346 e73b cc1e acbb
00000050: 93fa 3bbc f756 d33b af8f faba 5800 71bb
00000060: 9ef2 e0bb 8607 e63a 43c0 11bc c04c 8bbc
00000070: a117 61bb 2497 59bc c4e9 6bbc 2ec6 243b
00000080: 3db5 1f3b b267 bfbc 4ac6 2bbb 1184 ee3b
00000090: 78d1 92bc 5948 5e3a 384a 6ebb 4481 96bc
000000a0: c5bb 8d3a 464f fb37 9ed4 99bb 9cb9 be39
000000b0: 4a15 89bb 6a51 9439 c86a 083a 399d 043c
000000c0: e7d1 1c3c f8e6 beae 3fbd 7faf b88a 1dbc
000000d0: 4bc0 9dac f272 062d 465b 58bb a35a 8bba
000000e0: c474 c03c d22e f43c c237 a3bb fcd4 273d
000000f0: ec62 bf3a d886 1dbc f6e8 baad e3ba 2e3c
00000100: a009 473b fd64 fdbb 73c2 283c 96e0 4a3b
00000110: 9e93 dcbb c152 a93b 27ac be3a 11c4 49bb
00000120: 9398 8fbb cc1b a3bb 3c22 5abc bfaa fbbb
00000130: 1b67 b0bb a69a 17bc 1bb6 e1bb e0b3 453a
00000140: 6cf2 5dbb 439f 5b3b ce14 26bb 7a3c b4bb
00000150: 3ec8 4b3b 5ada 91ba fb99 e9ba 3900 54bb
00000160: a1c4 593a 27d7 8abb 00cb 05bc e66d fbba
00000170: cf80 d0bb 0bd9 e0bb 8000 a13a e284 953a
00000180: 0394 36bc 391f a3ba 8627 613b b562 0bbc
00000190: de34 8939 98f7 e6ba 0b28 0fbc ffa7 c139
000001a0: 186d a7b6 e32f 10bb 4ba4 3939 62b7 02bb
000001b0: 264a ed38 7a70 8a39 4237 7d3b 2b7b 953b
000001c0: c19e 282e dac2 6daf fc8e 96bb 5ad6 0bac
000001d0: 79be 362c f173 ceba 42e7 2eba fa57 333c
000001e0: 80fa 683c c280 1cbb 7907 a03c 8ebc 423a
000001f0: 290b 98bb 777d 83ad 9be4 c7bc 9d1d e9bb
00000200: d3e7 903c 38ec c0bc 8340 e9bb f602 7c3c
00000210: ac23 40bc db52 5abb c784 e63b 8766 253c
00000220: 5c07 393c d4ab f93c 5291 8e3c 9432 493c
00000230: c577 ad3c 429c 803c 0b87 e7ba 1440 fe3b
00000240: 43d1 fbbb fdec c13b a013 4d3c f1ab e7bb
00000250: cb01 073b f35d 833b a00d f63b 8518 00bb
00000260: f60e 1f3c 9264 973c b071 743b 705f 6d3c
00000270: 58b8 803c a8a1 3dbb 87be 2ebb 3ff2 d03c
00000280: 816d 393b d74f 02bc 46d4 9f3c 057b 61ba
00000290: 5cd6 813b ae6b a43c 1567 97ba b1a3 1eb8
000002a0: 4876 a83b 5120 a3b9 ce62 953b ed42 31ba
000002b0: 6f88 6bba edcf 10bc fbb0 2bbc 28e1 c0ae
000002c0: b61a 982f 74fc 2a3c 1409 0dad 483b 2bad
000002d0: 31c2 6a3b 218d 993a d6ec d1bc 6d37 05bd
000002e0: e966 b53b 1a3f 37bd 3206 d8ba 30a0 2b3c
000002f0: 0822 162e 567c ca3c 9902 eb3b d8c4 92bc
00000300: 4b44 c33c 6226 ee3b 4443 7fbc eba5 423c
00000310: 0035 593b be23 eabb e18c 27bc 73e7 3bbc
00000320: 79e4 fcbc 3bca 90bc 1bf1 4bbc 33b4 afbc
00000330: ca42 82bc 06c1 e73a a34a 00bc 0c72 ff3b
00000340: aef0 c2bb eab5 4fbc 9f8f ea3b b333 13bb
00000350: 3206 85bb d66d f9bb 88cb f93a e11b 21bc
00000360: 8254 99bc e612 86bb 4266 70bc cc88 82bc
00000370: 6f58 2f3b 2504 313b aca2 d3bc 9c87 3cbb
00000380: 10ff 033c 36f0 a1bc 147a 5b3a 1b7e 83bb
00000390: ec6e a6bc bb2a 9a3a 4b08 2f38 adad a8bb
000003a0: c53b d139 0887 96bb 1b95 323a 1820 5e3a
000003b0: 33a2 123c cf53 2d3c 4e67 e12e ec5a 8caf
000003c0: 3ed8 2dbc 1e96 aeac 64cf cb2c df13 6cbb
000003d0: 2bdb a6ba d5f9 d33c 37f4 063d 9d3e b5bb
000003e0: 2b9b 393d f4f9 d23a 7b7b 2dbc 04fa 18ae
000003f0: b60b 28bc 817b 42bb 42dd f33b 1800 23bc
0.022365725 0.0065124584 -0.016208168 0.021561507 0.006526043 -0.014096285 0.010738903 0.0030317479
-0.0064500943 -0.009244267 -0.01037603 -0.027924897 -0.01601517 -0.01123212 -0.019400928 -0.014392091
0.0016126143 -0.0070751444 0.0070579364 -0.0052526947 -0.011473316 0.006449576 -0.0019116307 -0.0036773887
-0.0068648597 0.001754985 -0.008895936 -0.01700437 -0.003434636 -0.013280664 -0.014398996 0.0025142538
0.00243695 -0.023364875 -0.0026210719 0.007278927 -0.017922148 0.00084794086 -0.0036360156 -0.018372186
0.0010813406 2.9958446e-05 -0.0046945354 0.00036377914 -0.004183446 0.00028289418 0.00052039 0.008094125
0.009571529 -8.681228e-11 -2.3259349e-10 -0.009615593 -4.483557e-12 7.642541e-12 -0.0033013388 -0.001063187
0.023493178 0.029807482 -0.004981012 0.040974602 0.0014601625 -0.009614669 -2.1249207e-11 0.010664674
0.0030370727 -0.007732986 0.010300267 0.0030956618 -0.0067314645 0.0051673357 0.0014547155 -0.003078703
-0.004382202 -0.004977679 -0.013313826 -0.0076802666 -0.005383385 -0.00925318 -0.0068881637 0.0007541757
-0.0033866419 0.0033511675 -0.002534199 -0.0055003734 0.0031094695 -0.0011127696 -0.0017822379 -0.0032348766
0.0008307193 -0.004237074 -0.008166075 -0.0019182533 -0.0063630114 -0.006861811 0.0012283474 0.00114074
-0.011143687 -0.0012445218 0.0034355833 -0.00850742 0.00026170065 -0.0017621396 -0.008737574 0.00036936995
-4.989688e-06 -0.00220012 0.00017704179 -0.001994573 0.00011314852 0.00026405213 0.0038637673 0.004561802
3.833978e-11 -2.162425e-10 -0.004594682 -1.9872077e-12 2.596949e-12 -0.0015751106 -0.00066720333 0.010946268
0.01421988 -0.0023880457 0.019534813 0.00074286095 -0.0046400023 -1.4948693e-11 -0.024401 -0.007114126
0.017688667 -0.023550138 -0.007118286 0.015381565 -0.011727255 -0.0033313546 0.0070348713 0.010095245
0.0112932585 0.030477442 0.017403278 0.012280125 0.021175275 0.01569951 -0.0017664147 0.0077591036
-0.007684858 0.005918144 0.012516886 -0.0070700576 0.0020600434 0.0040090024 0.0075089484 -0.0019545865
0.009708157 0.018480573 0.0037299208 0.014488086 0.015712902 -0.0028935466 -0.0026663856 0.025506137
0.002829403 -0.007953606 0.0195104 -0.00086014 0.003962321 0.020070877 -0.0011551107 -3.7822585e-05
0.0051410533 -0.0003111386 0.0045588976 -0.0006761987 -0.0008984869 -0.008838636 -0.010479207 -8.771145e-11
2.7667618e-10 0.010436166 -8.016938e-12 -9.733388e-12 0.0035821314 0.0011715033 -0.025625627 -0.03252356
0.0055359495 -0.044737913 -0.0016481339 0.010475203 3.4136277e-11 0.024717491 0.0071719405 -0.017916128
0.023836276 0.007267759 -0.015580002 0.011880378 0.0033143163 -0.007145374 -0.010226459 -0.011468756
-0.030870663 -0.017674556 -0.012447621 -0.02144823 -0.015900988 0.0017681427 -0.007830295 0.007795578
-0.0059491014 -0.012677649 0.0071582342 -0.0022461235 -0.0040595764 -0.0076119704 0.001905785 -0.009833307
-0.018717054 -0.0040916083 -0.014672818 -0.01593437 0.0026755591 0.0027010527 -0.025834404 -0.0028767353
0.008056417 -0.019767862 0.0008372378 -0.0040128357 -0.020316564 0.0011762002 4.1730975e-05 -0.005147657
0.00039908118 -0.0045937337 0.00068123796 0.000847341 0.008949804 0.010579064 1.0250166e-10 -2.5530456e-10
-0.010610638 -4.962044e-12 5.792632e-12 -0.0036022586 -0.0012730112 0.025875965 0.032947745 -0.0055311457
0.045313995 0.001609622 -0.010588522 -3.4782857e-11 -0.010256698 -0.0029675665 0.0074421475 -0.009948753

embedding.embeddings.ken_20230618_denoised.poses.bias f4 [64]
00000000: 996e c2bd d4c6 39bd 4628 d43d 37e5 d6bd
00000010: e3c6 323d fb0a 9ebd 5338 b63d 8d98 fbbd
00000020: feff 03be df03 27be e7e9 a53d 6a0e c0bd
00000030: 7d47 9339 4f86 a23d d8b3 c8bd 2949 e4bd
00000040: 71e0 efbd 9e73 abbd 7503 be3d 5073 01be
00000050: 4fca 00be ed18 e63d 3dff 08be a6d3 4fbd
00000060: 3618 153e d35b 2cbd fecd 213a 89c2 eabc
00000070: 08a0 cdbd 5fc5 05be 7aaf d43d b02a 44bd
00000080: deaf 11be 9096 1d3d 9c4b dabd e088 b53d
00000090: dbd3 06be bb87 19be f447 7cb8 fb45 2bbe
000000a0: 28a4 09bd 954d b43d 5cc2 073e d5b5 9a3d
000000b0: 830d d63d 912e fdbd 0758 b5bd 1b41 a0bd
000000c0: be83 ab3d 9873 193e b751 263d d527 17be
000000d0: ff46 083c 9127 f5bd 87fe f93d d493 b03d
000000e0: 3824 be3d 157d ddbd cac1 ddbd c555 3abc
000000f0: 2f3c 5abd 775e 563b e1dd e0bd 8785 7bba
-0.09493751 -0.045355633 0.10359244 -0.10492938 0.043646704 -0.07716938 0.08897462 -0.12284956
-0.12890622 -0.1631007 0.08101254 -0.09377749 0.00028091288 0.079357736 -0.097999275 -0.11146767
-0.11712731 -0.083716616 0.09278003 -0.12641644 -0.12577175 0.11235223 -0.13378616 -0.050738953
0.14560017 -0.042079758 0.0006172358 -0.028657215 -0.10040289 -0.13063572 0.10385032 -0.047892272
-0.14227244 0.038473666 -0.106589526 0.088639975 -0.13166754 -0.14993183 -6.0148494e-05 -0.16725914
-0.033603817 0.0880386 0.13257736 0.07554213 0.10451796 -0.123623975 -0.088546805 -0.07824918
0.08374737 0.14985502 0.040605273 -0.14761288 0.008317708 -0.11970437 0.1220675 0.08621946
0.09284252 -0.10814873 -0.10827978 -0.011372988 -0.05328005 0.0032710114 -0.1097982 -0.0009594787

core.core.fc.0.0.weight f4 [128, 64]
00000000: c691 e682 f7ea d602 8635 df02 dd2a dc82
00000010: 6835 dc02 a814 e282 e659 e382 1f14 cf82
00000020: 02be e782 4e4f e982 45f2 dc02 d20b d982
00000030: 2804 dd82 d9ac ce02 961e dd02 13cc db82
00000040: f4a0 ce82 4ad4 d082 4517 df02 cf74 e782
00000050: 7d7c d502 8123 e182 bdf9 d482 cbdf d382
00000060: 7753 e402 a26d cd82 92f1 d582 283a e582
00000070: 487f d102 be3e c902 fcac db82 c00c ea82
00000080: e074 db02 c22c e602 a202 de82 2ef1 eb02
00000090: dd50 d302 ec58 c982 6ad9 e602 8d4a db02
000000a0: 6629 d582 83cc e702 5e54 d802 9b29 d902
000000b0: 58e3 e182 9e26 d082 68f1 cd82 a77f d582
000000c0: 8db6 ca02 5763 e482 cdb6 de82 c6ce cc82
000000d0: fcf5 db02 cc25 d982 ccdc e202 f874 cb02
000000e0: 2777 d302 c193 c982 767b db82 1651 d802
000000f0: 93c3 d782 650f de82 5c8b d382 aa1f d682
00000100: 1b09 ca82 ac9b e702 172e cb82 caef f382
00000110: e16f d882 3b4f cb82 419b e502 de74 d402
00000120: 1a14 d402 906d c782 d89a e002 4b73 d882
00000130: 4f60 cf82 1cd0 dc02 4e9c ec02 a614 e182
00000140: 975d d902 eb68 ed82 7f90 d482 0eec da02
00000150: d696 da02 500c f402 eb2f e582 2404 ee02
00000160: fde1 d182 e015 db02 72e8 e082 009d d982
00000170: 229e d682 64c1 ce02 aa0c d702 fbb7 d582
00000180: 9845 d682 59f1 dd82 85c8 cd82 6150 d482
00000190: 8936 dd02 e5de e502 c47f d982 b6f9 d602
000001a0: 28e1 d582 4ede e902 3b11 dd02 2af1 e302
000001b0: 6213 dc82 f4eb df02 0c0a eb82 2a17 d782
000001c0: 5d66 f202 1fd3 f382 7adf e382 5049 e402
000001d0: a741 db02 fb32 cc82 97cb d602 577c e502
000001e0: 57b9 ef82 96f2 dc82 459e dc82 13e5 d402
000001f0: ce6a d802 2c53 d582 ee5f d082 2720 f182
00000200: c657 c782 9fe1 df82 48f1 e102 eda8 db82
00000210: 1dfb dc82 64e7 db82 541f c802 4951 e582
00000220: f897 e202 8919 db82 06e3 d802 9158 d802
00000230: 8f71 e102 a29e f002 24dd dc02 7a98 d882
00000240: 615d dd02 63d7 cf82 cca8 f002 749c d902
00000250: 17a1 d202 3c2c dd82 6a93 d082 a1be e802
00000260: adf7 d102 884f df02 fa39 d302 c77b dd02
00000270: ad8b d702 96f3 d882 ca2b f002 f426 d882
00000280: 3f00 d482 a4e6 d902 4ce0 dd02 1776 d782
00000290: b3dc d202 8872 df02 7d51 e502 42f2 c902
000002a0: ba64 c982 ff9e ce82 6ef6 dc82 6033 cc82
000002b0: da05 dd82 a8b0 f202 8271 ef82 c469 ce82
000002c0: a555 e582 ac15 d382 4e62 cd02 e06a d302
000002d0: 89a3 ed02 9ce1 cc02 fffe e282 0588 f182
000002e0: ccd3 da82 232f d782 9845 cb82 293d d782
000002f0: 840d d702 fef4 dd02 cc52 df82 5925 f382
00000300: 909b da82 5083 c702 138c df02 99c2 de02
00000310: 5cf1 ec82 0414 ed82 66e5 d602 b4f6 dc02
00000320: 86bd d382 c85d d982 b666 e682 0bca ce02
00000330: 961b e982 bbff ee82 9b5a d782 fc42 df82
00000340: 7dc1 e602 00b7 cf82 38d6 cd02 dbbe dc02
00000350: 94b4 e102 48fc de02 3224 e382 dc7a d202
00000360: c5c8 df02 8969 d882 9872 d602 7a4e db82
00000370: 36b9 cb02 2496 f002 5aae cd82 08ee ca02
00000380: bc0f e082 114b d682 c954 d902 c881 de02
00000390: 360f d182 84b6 e302 df68 d682 11e8 e402
000003a0: bcba ef82 72c2 d882 362b ce02 72be e002
000003b0: 9274 c982 8166 d082 b29a df82 08b1 e302
000003c0: 8b8b cb82 f481 e882 0604 dd02 5682 d982
000003d0: 4c7f e002 c152 f202 aa15 d182 5f6a db82
000003e0: 4608 c702 7575 d302 46ac e482 cf98 dc02
000003f0: ec07 dd02 00fa dd82 ff22 d782 542a e102
-3.3879132e-37 3.1579337e-37 3.2797626e-37 -3.2350697e-37 3.2356748e-37 -3.3219572e-37 -3.3406251e-37 -3.0427465e-37
-3.4051459e-37 -3.4281792e-37 3.246515e-37 -3.1892069e-37 -3.2475417e-37 3.036819e-37 3.2490587e-37 -3.229629e-37
-3.0361362e-37 -3.06847e-37 3.278026e-37 -3.4009444e-37 3.136899e-37 -3.3081157e-37 -3.1293943e-37 -3.1132114e-37
3.3549495e-37 -3.018497e-37 -3.1436192e-37 -3.3681906e-37 3.0782846e-37 2.9570308e-37 -3.2278446e-37 -3.4390528e-37
3.224624e-37 3.3821152e-37 -3.262148e-37 3.4668577e-37 3.1050077e-37 -2.9585334e-37 3.3920252e-37 3.2221948e-37
-3.1321299e-37 3.4059783e-37 3.1786772e-37 3.1909165e-37 -3.3191268e-37 -3.0585018e-37 -3.0260603e-37 -3.1370806e-37
2.9786011e-37 -3.3558607e-37 -3.272489e-37 -3.0093788e-37 3.2320346e-37 -3.1906979e-37 3.3334447e-37 2.9895306e-37
3.1072054e-37 -2.9619102e-37 -3.225002e-37 3.1784889e-37 -3.1703665e-37 -3.2628804e-37 -3.1083652e-37 -3.1462648e-37
-2.9686459e-37 3.403175e-37 -2.9854623e-37 -3.5843273e-37 -3.1802563e-37 -2.9873645e-37 3.3737637e-37 3.1217679e-37
3.1162138e-37 -2.9303308e-37 3.3002718e-37 -3.1804522e-37 -3.0471195e-37 3.2445544e-37 3.4766798e-37 -3.307263e-37
3.1939002e-37 -3.488424e-37 -3.1233537e-37 3.216771e-37 3.2118797e-37 3.5859645e-37 -3.367603e-37 3.4973334e-37
-3.08395e-37 3.2191713e-37 -3.304726e-37 -3.1975398e-37 -3.1535238e-37 3.037998e-37 3.159868e-37 -3.1403137e-37
-3.1484419e-37 -3.2611558e-37 -3.0237135e-37 -3.1196736e-37 3.2504333e-37 3.377646e-37 -3.1958618e-37 3.15878e-37
-3.142677e-37 3.436387e-37 3.2482921e-37 3.3493074e-37 -3.233722e-37 3.2902335e-37 -3.4535913e-37 -3.1604706e-37
3.5617458e-37 -3.5826818e-37 -3.3482921e-37 3.3543668e-37 3.221684e-37 -3.0004367e-37 3.1561329e-37 3.3719893e-37
-3.5224274e-37 -3.2465332e-37 -3.2416937e-37 3.1282082e-37 3.179965e-37 -3.1345275e-37 -3.0617914e-37 -3.5430222e-37
-2.9290801e-37 -3.2896405e-37 3.3199267e-37 -3.2276116e-37 -3.2470227e-37 -3.231197e-37 2.940534e-37 -3.3695181e-37
3.3294941e-37 -3.2193814e-37 3.1868653e-37 3.1789182e-37 3.3125958e-37 3.5355881e-37 3.2453023e-37 -3.1825865e-37
3.2526628e-37 -3.0539542e-37 3.5361715e-37 3.1975084e-37 3.0949188e-37 -3.249842e-37 -3.0647465e-37 3.4198752e-37
3.0851949e-37 3.2812554e-37 3.103694e-37 3.2544076e-37 3.167158e-37 -3.187816e-37 3.5289964e-37 -3.1760705e-37
-3.1150742e-37 3.2017665e-37 3.2601772e-37 -3.165919e-37 3.0983402e-37 3.2832643e-37 3.3695298e-37 2.9673345e-37
-2.959211e-37 -3.0360239e-37 -3.2467538e-37 -3.0004594e-37 -3.247639e-37 3.56601e-37 -3.5183044e-37 -3.0329686e-37
-3.3697683e-37 -3.1016103e-37 3.0178467e-37 3.1065007e-37 3.4917885e-37 3.01046e-37 -3.3354076e-37 -3.5489839e-37
-3.2153787e-37 -3.1618466e-37 -2.9868114e-37 -3.1626515e-37 3.1599168e-37 3.261365e-37 -3.2814428e-37 -3.5727077e-37
-3.212151e-37 2.9315792e-37 3.2847304e-37 3.2731662e-37 -3.4815617e-37 -3.4835509e-37 3.1576142e-37 3.2467695e-37
-3.1112445e-37 -3.1939112e-37 -3.3854416e-37 3.0384947e-37 -3.4252107e-37 -3.511774e-37 -3.1643416e-37 -3.2805352e-37
3.390652e-37 -3.0520953e-37 3.0244998e-37 3.243564e-37 3.3164425e-37 3.276477e-37 -3.3375427e-37 3.0927245e-37
3.288214e-37 -3.1798922e-37 3.1510247e-37 -3.2224201e-37 2.9934475e-37 3.5351007e-37 -3.0222116e-37 2.9817856e-37
-3.2922873e-37 -3.148756e-37 3.1933949e-37 3.269446e-37 -3.071852e-37 3.345941e-37 -3.1504667e-37 3.3634789e-37
-3.5225074e-37 -3.1849954e-37 3.0293781e-37 3.3023152e-37 -2.9601204e-37 -3.0621687e-37 -3.2855696e-37 3.3456263e-37
-2.9908263e-37 -3.4163926e-37 3.247534e-37 -3.1960093e-37 3.2986907e-37 3.5606203e-37 -3.0722224e-37 -3.2240212e-37
2.924517e-37 3.107108e-37 -3.360047e-37 3.2413802e-37 3.2477578e-37 -3.2616524e-37 -3.1611497e-37 3.3085074e-37

core.core.fc.0.0.bias f4 [128]
00000000: fdc1 dc82 c88c d502 5c4d da82 8c55 d482
00000010: ac2a dd02 6c01 d302 d4b4 a802 bb85 dc82
00000020: f414 dd82 ab58 d302 9ef7 d882 209c c882
00000030: 6610 db02 b061 df02 13f1 e082 cf24 d782
00000040: 9fc9 d782 a171 d382 7d6e db02 a3be d082
00000050: 3fd8 ce02 efa5 cb82 c433 da82 90ff dc82
00000060: e501 da82 bfeb dc02 9058 d202 dc39 d502
00000070: c968 d182 bc82 da82 1cc6 d902 f97b dc02
00000080: 3d30 d382 8075 cc82 e703 d402 3eda dc82
00000090: 8fb6 e102 edaf cd02 f1d4 d602 f7f8 c802
000000a0: a61c c782 784a d802 84af d282 1449 dd02
000000b0: c42f df02 1486 d502 0a7c cd82 eaf7 d202
000000c0: 14fc dc02 ee69 0a03 6845 b302 6541 d182
000000d0: a954 c882 b510 da82 e571 cc82 b2d9 dc82
000000e0: 00c1 d982 9b36 d702 f0e3 ce82 4516 c702
000000f0: 31c5 de82 1fc6 da82 f572 e002 a302 df02
00000100: 0ada b302 3c72 da02 fd36 c982 e11e 9802
00000110: 44d2 ea02 dc75 b582 c228 d382 8767 9902
00000120: 2277 d302 624f a202 4d55 343f b374 c982
00000130: b7ae ce02 118d de02 7d01 e182 6230 de02
00000140: 2abd e102 1ece dc02 353e cd82 8fbf d402
00000150: 0b3a cf82 1672 c902 632e dd02 3354 d902
00000160: d6e6 dc02 343c d002 bdde d902 afa4 e182
00000170: 0f33 d702 34df d602 ba1a d382 218f c582
00000180: e336 602f 7fd1 af02 2cd8 d982 5873 d802
00000190: dcf0 e482 c905 df82 2a45 c982 c290 d182
000001a0: 2a6b d882 bea9 e202 5b83 c182 fe7a d102
000001b0: ea28 ce82 09f2 c282 05ca e602 2dd6 cc02
000001c0: 44ff c982 af30 d582 f923 dc82 0cb5 da02
000001d0: 4f2a ce82 57de d882 8b34 d702 e451 da82
000001e0: be9b da82 0ad5 d182 4d5b d302 a371 cd02
000001f0: 4929 e102 1d55 d202 48f4 d402 1e7a d502
-3.2437438e-37 3.1378342e-37 -3.2076623e-37 -3.1199702e-37 3.2497524e-37 3.100448e-37 2.4789172e-37 -3.2402852e-37
-3.2485058e-37 3.1054556e-37 -3.1880473e-37 -2.947697e-37 3.218857e-37 3.2822975e-37 -3.3052212e-37 -3.1612538e-37
-3.1707136e-37 -3.1068883e-37 3.2242575e-37 -3.0672273e-37 3.0393099e-37 -2.992341e-37 -3.2061933e-37 -3.247278e-37
-3.2033308e-37 3.2461406e-37 3.090756e-37 3.1330747e-37 -3.0769934e-37 -3.210726e-37 3.1998993e-37 3.2397251e-37
-3.103135e-37 -3.0042548e-37 3.115284e-37 -3.245136e-37 3.3165562e-37 3.022302e-37 3.1566696e-37 2.9530258e-37
-2.9256865e-37 3.178109e-37 -3.0957468e-37 3.2514976e-37 3.2794321e-37 3.1374494e-37 -3.0193238e-37 3.0999022e-37
3.247078e-37 4.0676156e-37 2.6341523e-37 -3.0747325e-37 -2.9435951e-37 -3.204181e-37 -3.0040478e-37 -3.2451046e-37
-3.199606e-37 3.1622753e-37 -3.039981e-37 2.9253204e-37 -3.273315e-37 -3.2145937e-37 3.2979824e-37 3.2768418e-37
2.6426834e-37 3.2097788e-37 -2.9565857e-37 2.2352116e-37 3.4503896e-37 -2.6663208e-37 -3.1027057e-37 2.2540751e-37
3.1072042e-37 2.3849324e-37 0.7044266 -2.9601278e-37 3.036926e-37 3.2700936e-37 -3.3061633e-37 3.2647739e-37
3.3169353e-37 3.24444e-37 -3.0157748e-37 3.126055e-37 -3.0449231e-37 2.9599778e-37 3.2499656e-37 3.1933612e-37
3.2458588e-37 3.0597408e-37 3.201313e-37 -3.3155302e-37 3.1620717e-37 3.1572586e-37 -3.1019004e-37 -2.90287e-37
2.0392181e-10 2.5834184e-37 -3.200936e-37 3.1804552e-37 -3.3639835e-37 -3.2770226e-37 -2.9573994e-37 -3.0792877e-37
-3.1799857e-37 3.3305143e-37 -2.8434196e-37 3.0780384e-37 -3.0292463e-37 -2.864466e-37 3.3911416e-37 3.0098037e-37
-2.968081e-37 -3.132548e-37 -3.2346742e-37 3.2136137e-37 -3.0293263e-37 -3.1865964e-37 3.1621569e-37 -3.2079224e-37
-3.2121613e-37 -3.0832068e-37 3.1056068e-37 3.0187267e-37 3.3084475e-37 3.090558e-37 3.129081e-37 3.136763e-37

core.core.fc.1.0.weight f4 [64, 128]
00000000: 9f6e d502 6a79 e502 e86d dc02 9488 d402
00000010: e0b6 dc02 ed3e dc82 1ee1 e302 1fec cf02
00000020: debf ea02 c5c3 e702 a730 e082 f8c2 f082
00000030: 9bc0 d282 2eb0 e002 5d1d e382 cfd0 e702
00000040: de11 e002 1804 cc02 ef8b d582 855d e382
00000050: bf0e e082 7f22 db02 45b9 e502 01e3 cc02
00000060: 5269 df82 bc9d e582 7d59 df82 fa4a dd82
00000070: 54a9 e002 b92a e202 9077 e182 3944 d902
00000080: 2099 cf82 3448 d602 ce79 de02 862c de02
00000090: 2e47 d802 b5a8 d382 6538 db02 e8b6 dc02
000000a0: 80c9 e682 d073 c982 3f1a f182 7a96 da82
000000b0: 3be7 d402 823a dc82 c30b d482 6128 ea82
000000c0: afa2 d002 b805 de82 9627 dd02 ab4f dc02
000000d0: f4a6 de82 b45b ed02 b0ef db02 a241 dd82
000000e0: 4aaa e802 645f de02 bceb d002 106e f282
000000f0: 3df2 de02 7522 cd02 ba22 d002 5ab5 f102
00000100: e5c5 d802 c239 ef02 e0fe d882 d4f1 d782
00000110: 8c13 db82 73e6 cc82 54b7 dc82 cb2a ec02
00000120: 17d2 f202 9a5a ea82 2cb9 e92c f912 d082
00000130: ab12 e382 06df cb82 0a07 f282 d690 dd02
00000140: 12df df82 4f4b dd82 bdd6 dd82 0086 cc02
00000150: be4c e902 a089 e602 4e59 f382 5d16 d682
00000160: 504d d482 5cc1 d482 889b e782 30a5 db82
00000170: 7798 d602 15eb e402 3b55 d582 7a14 c702
00000180: 9475 371c 2d36 e482 ed04 da82 6e0a d282
00000190: 4c74 cf02 506c ce82 a243 d682 b296 ef02
000001a0: cc0c dd02 6146 dc82 9be3 dc82 4448 cc82
000001b0: e17f df82 d272 e882 45c0 e482 fa99 dd02
000001c0: 822d db82 ff3a e582 dfc1 da82 4d17 d902
000001d0: 58c6 f302 7dc9 e282 c2f0 df02 a8a5 e202
000001e0: 7d7d e602 f8a6 de82 7ef1 d782 5adf e382
000001f0: f3a2 d182 76f2 cc82 a082 e182 61a8 e182
00000200: b41b de02 b251 ce02 3390 ed02 ec6f da02
00000210: af0d d682 fb1a ee02 76ae e802 a45f c602
00000220: f873 e402 f417 d702 76ae e602 89d3 db02
00000230: e0ad f482 5e03 d702 02c9 d402 aa6f db02
00000240: 5e54 de82 123f d602 8060 e102 5b99 d082
00000250: 36f3 d982 bca5 cb82 39df da82 aad7 d402
00000260: 476c d682 ccd2 d182 0c5f e402 aba8 cb02
00000270: 0528 de02 813a dd82 7c3d db02 a282 cc82
00000280: 650b df82 6ce3 cc82 9de1 c902 cb28 dd82
00000290: cf8b e282 a53b e302 7570 dc82 f6d0 e802
000002a0: 8b64 c602 3bf2 d882 24d5 ce82 711d d982
000002b0: 8fce dc82 4bab e082 8597 cf82 0bd5 e182
000002c0: 1ebe e882 803a 0483 8aef dc82 f4bb e482
000002d0: 2c80 e082 3843 f282 ecb4 d582 c883 e582
000002e0: e906 db02 5dcd f082 9bb3 d802 fc34 d682
000002f0: 2076 cc82 1527 dd02 4b5c db02 e99c dd02
00000300: e8c3 ee02 9257 ef02 128b cf02 036a 0503
00000310: daa8 de82 9937 dd02 c0a1 dd82 47ad dc82
00000320: e07e eb02 cc92 d282 0659 b539 105f d482
00000330: 12a6 df82 706e d182 d568 ed02 27f1 d982
00000340: 8005 db02 55e3 ed02 6370 e502 1379 f382
00000350: 4cb0 cc02 1359 ea82 3ff6 d782 1822 df82
00000360: 5e0f dd02 55a2 ce82 84e1 dd82 1835 d602
00000370: bb23 ea02 4be8 d002 3f89 d302 edf7 d882
00000380: 5b8e dc28 b8d4 df02 6447 de82 409f dd82
00000390: 68e9 da82 72eb de02 bcac e102 42ab de82
000003a0: e8bb e382 8548 df02 2a53 dd02 2191 db82
000003b0: 128b e002 f0b9 d482 eb0e f202 49cc d702
000003c0: 675e df82 b8de d202 08c8 e002 198f de02
000003d0: 13a7 e202 ce30 d702 bc7d dd82 ac67 ed82
000003e0: facd d582 48ac e882 ad97 e202 480b e902
000003f0: cc1e c702 b3e6 dd82 a4da dd82 7854 e002
3.136103e-37 3.3718214e-37 3.2389178e-37 3.1228992e-37 3.243106e-37 -3.2362212e-37 3.3483863e-37 3.0551443e-37
3.4493336e-37 3.4054766e-37 -3.2941767e-37 -3.5376737e-37 -3.0967277e-37 3.3014964e-37 -3.3371506e-37 3.406225e-37
3.2924097e-37 2.9977456e-37 -3.1377855e-37 -3.340833e-37 -3.2922306e-37 3.2198958e-37 3.3754865e-37 3.01054e-37
-3.2827356e-37 -3.373906e-37 -3.2818269e-37 -3.2516066e-37 3.3011031e-37 3.3232237e-37 -3.3129404e-37 3.1924442e-37
-3.0503806e-37 3.1485916e-37 3.268988e-37 3.2645523e-37 3.1779203e-37 -3.1100497e-37 3.2211527e-37 3.2431078e-37
-3.3911118e-37 -2.9600769e-37 -3.5426832e-37 -3.211859e-37 3.128332e-37 -3.2359676e-37 -3.1157351e-37 -3.4406386e-37
3.065623e-37 -3.262325e-37 3.2495753e-37 3.2371822e-37 -3.2715795e-37 3.4876655e-37 3.2316732e-37 -3.2510703e-37
3.4187077e-37 3.267472e-37 3.0698158e-37 -3.5621877e-37 3.2759006e-37 3.014182e-37 3.0582785e-37 3.5515858e-37
3.1851933e-37 3.5151045e-37 -3.1884639e-37 -3.1730213e-37 -3.2190377e-37 -3.0107377e-37 -3.243132e-37 3.4701645e-37
3.567929e-37 -3.4435213e-37 6.6428165e-12 -3.0573743e-37 -3.3365367e-37 -2.9956178e-37 -3.5562744e-37 3.2556163e-37
-3.289494e-37 -3.2516256e-37 -3.2596285e-37 3.0052018e-37 3.428032e-37 3.3874455e-37 -3.57569e-37 -3.145731e-37
-3.1194975e-37 -3.1261583e-37 -3.403167e-37 -3.227397e-37 3.1531984e-37 3.363652e-37 -3.1346457e-37 2.9252175e-37
6.0701587e-22 -3.3532684e-37 -3.2035048e-37 -3.0862713e-37 3.0482667e-37 -3.0331148e-37 -3.1483293e-37 3.5204389e-37
3.2480376e-37 -3.236649e-37 -3.2456734e-37 -3.0016584e-37 -3.2840304e-37 -3.415524e-37 -3.3611946e-37 3.256141e-37
-3.2205278e-37 -3.3682388e-37 -3.2143498e-37 3.1898658e-37 3.5819485e-37 -3.3323364e-37 3.2905093e-37 3.3302797e-37
3.386749e-37 -3.2715804e-37 -3.173002e-37 -3.348285e-37 -3.0803318e-37 -3.0114272e-37 -3.3135754e-37 -3.3157423e-37
3.263587e-37 3.031587e-37 3.4906786e-37 3.209646e-37 -3.1452328e-37 3.4986443e-37 3.4189472e-37 2.914838e-37
3.3568152e-37 3.160516e-37 3.3895598e-37 3.2300573e-37 -3.5952377e-37 3.1593343e-37 3.1265973e-37 3.224325e-37
-3.2668393e-37 3.1480674e-37 3.3116167e-37 -3.0650875e-37 -3.202488e-37 -2.9923296e-37 -3.2160345e-37 3.1274385e-37
-3.1506622e-37 -3.0830781e-37 3.3556143e-37 2.992498e-37 3.2642938e-37 -3.250661e-37 3.2214448e-37 -3.0050086e-37
-3.2773445e-37 -3.010564e-37 2.9663791e-37 -3.2496445e-37 -3.3287962e-37 3.3388886e-37 -3.2390642e-37 3.4209274e-37
2.9151194e-37 -3.187738e-37 -3.0391316e-37 -3.1902183e-37 -3.2444653e-37 -3.301216e-37 -3.0502884e-37 -3.318306e-37
-3.4198458e-37 -3.885847e-37 -3.2463583e-37 -3.3609469e-37 -3.2987409e-37 -3.5597286e-37 -3.1401381e-37 -3.3724165e-37
3.2183124e-37 -3.5382703e-37 3.1841436e-37 -3.1474885e-37 -3.0042906e-37 3.2495463e-37 3.2232131e-37 3.2563093e-37
3.5083402e-37 3.5168157e-37 3.0495739e-37 3.9206883e-37 -3.2716884e-37 3.2504943e-37 -3.2565871e-37 -3.242555e-37
3.460297e-37 -3.0940984e-37 0.00034589338 -3.1205163e-37 -3.2862225e-37 -3.0773178e-37 3.488419e-37 -3.20237e-37
3.2182315e-37 3.4954502e-37 3.3713033e-37 -3.5775134e-37 3.0076295e-37 -3.4434336e-37 -3.173275e-37 -3.2786474e-37
3.2481852e-37 -3.0362154e-37 -3.260247e-37 3.1474948e-37 3.4403718e-37 3.0696183e-37 3.108244e-37 -3.188065e-37
2.4486643e-14 3.2889e-37 -3.2660944e-37 -3.2564436e-37 -3.216619e-37 3.2755107e-37 3.3159923e-37 -3.2718265e-37
-3.3462505e-37 3.280853e-37 3.2520765e-37 -3.2262458e-37 3.2993664e-37 -3.1257323e-37 3.5567267e-37 3.1708665e-37
-3.282109e-37 3.098456e-37 3.3028654e-37 3.2702102e-37 3.3303611e-37 3.1619423e-37 -3.25452e-37 -3.4883525e-37
-3.1415762e-37 -3.418822e-37 3.3294773e-37 3.4242748e-37 2.9258099e-37 -3.2605446e-37 -3.2598525e-37 3.2962325e-37

core.core.fc.1.0.bias f4 [64]
00000000: a330 452c cb8d 1639 b02f b6aa af72 03ae
00000010: a6c0 a136 4e24 d3a5 6c5c 52a2 0146 e312
00000020: 6653 d9a7 93ea b634 1ea2 64ae c2e4 203b
00000030: 4a0a 6b21 08e9 a302 ce43 a428 ba4b 97a5
00000040: ebd0 b002 b7da 10a7 7fa9 073a 18cc 943e
00000050: 2146 25a1 e1f6 25a1 9f9a db21 7cb7 16a7
00000060: 083b c9ab e58a b527 369b a928 0008 8d3e
00000070: 73aa 2aaf 5371 3aa6 68e8 b03b 7f1c 323e
00000080: e12d 8bb1 28de fb82 e898 5ea9 dd3f 1fac
00000090: de0a 0c3b c82d 8e2d 8d52 19aa fbf1 bc2f
000000a0: b04d 3cb1 ac13 ce3b 3d77 d3b1 df64 11a5
000000b0: f6ad 0995 ed10 ae2b d794 e2a0 44d5 9c3a
000000c0: 8c8d 119f 4e53 0d3b 1df2 3db1 e192 1889
000000d0: f926 0f0a 22d6 57ae 4c31 f637 3b62 1032
000000e0: 3ee2 8d8e 2cf3 e3b0 200e 89ad 8712 2ab2
000000f0: 4cac bea2 cc85 9a3e 5df7 a09b 1a7c 9007
2.8022383e-12 0.00014357937 -3.2362784e-13 -2.988781e-11 4.820601e-06 -3.6627266e-16 -2.8509235e-18 1.4342971e-27
-6.032002e-15 3.4070817e-07 -5.1985187e-11 0.0024550413 7.9634715e-19 2.408445e-37 1.8237063e-14 -2.624564e-16
2.5980789e-37 -2.010258e-15 0.0005175098 0.2906196 -5.599699e-19 -5.6230916e-19 1.4880945e-18 -2.0916149e-15
-1.4298293e-12 5.038818e-15 1.8830081e-14 0.27545166 -1.5521966e-10 -6.4685296e-16 0.0053987987 0.17393683
-4.0506483e-09 -3.7008647e-37 -4.9426527e-14 -2.263071e-12 0.0021368782 1.6163862e-11 -1.361777e-13 3.4368938e-10
-2.740176e-09 0.006288966 -6.154464e-09 -1.2610922e-16 -2.780416e-26 1.2368141e-12 -3.8384383e-19 0.0011965414
-3.082203e-20 0.0021564546 -2.7640745e-09 -1.8365397e-33 6.8925295e-33 -4.907553e-11 2.934844e-05 8.404238e-09
-3.4977047e-30 -1.6585537e-09 -1.558137e-11 -9.899515e-09 -5.168203e-18 0.30180204 -2.6629634e-22 2.1739652e-34

readout.readouts.bex_20230623_denoised.location.weight f4 [2, 64]
00000000: 0384 762c 1065 d439 983d 00ab 908f 2eae
00000010: 3cdf a337 9d82 73a6 2988 b1a2 922c 2395
00000020: 6c9d 80a7 c6a2 0735 6212 e1ae 7ac4 113c
00000030: 90e2 3b22 4a31 df82 7e42 3029 f594 52a6
00000040: cd4d b482 9dd0 86a7 dc0b 123b 8983 b33e
00000050: fd30 7ea1 7735 64a2 8854 4022 6e2f 82a7
00000060: 59fe 55ac 646a 6428 e0e2 5929 5098 a73e
00000070: 5b01 aeaf 6279 81a6 63b8 973c 3da5 5b3e
00000080: a433 1db2 29ca b401 7971 baa9 647c 45ac
00000090: 9c7d d93b b908 fa2d 9c0c a1aa 17c5 c72f
000000a0: c1cd c3b1 a9f2 ae3c 8ec0 0db2 d55d a0a5
000000b0: 0070 1296 08f5 362c 8d53 73a1 3ad0 9e3b
000000c0: d038 34a0 de94 ef3b 5010 f5b2 abdb ca89
000000d0: 459c 0a0c 794a c2ae d927 3839 2502 4232
000000e0: cf0e 7991 0999 66b1 d07e 7aad 90ab 9fb2
000000f0: 6968 8da2 c0d3 b73e a0ad e89b 96c2 158b
00000100: 36f6 0e2e d9ba f33a 6320 afac d7e8 eeaf
00000110: 29ec 7c38 8286 c4a6 d9b2 2aa4 756e 8e95
00000120: 8b6c b1a9 f42d d336 f206 b3af 56eb b43c
00000130: 8e2f a022 3b81 cb02 d6c4 fd29 8530 e2a6
00000140: cec5 d082 7f6a 7da8 aae4 ba3b 2d8b fc3e
00000150: 09d9 1aa3 9bf7 b1a1 7206 ed23 872c 67a8
00000160: c8f9 86ad fe74 7a29 5d74 fd29 7f1d f23e
00000170: 8ae5 adb0 fab2 aaa7 b844 213d 39f0 a23e
00000180: 800d 30b3 1ee8 7d03 2aa0 30ab 20da 22ae
00000190: b7a6 823c 57b6 7d2f bcc3 c0ab ddf8 d831
000001a0: 5007 20b3 6a38 3f3d 2c1a e9b3 9784 3ea6
000001b0: 8663 ba96 7400 0a2d 29e5 17a2 8d1b 2b3c
000001c0: edfb 8aa0 ec00 843c d4d8 80b2 17a0 9e8a
000001d0: 9f44 e409 a49a f4af 4df9 9539 defb 1e34
000001e0: d039 120f 8545 9fb2 725e 15af 23de 0bb4
000001f0: bc98 69a4 1a23 053f be36 9c9d fe49 ab8a
3.5031984e-12 0.00040511088 -4.5560214e-13 -3.969053e-11 1.9535066e-05 -8.4484575e-16 -4.812011e-18 -3.2952748e-26
-3.5697814e-15 5.0528286e-07 -1.0235081e-10 0.008896941 2.5463167e-18 -3.2795196e-37 3.9137523e-14 -7.306026e-16
-2.6493278e-37 -3.741865e-15 0.00222849 0.3506129 -8.6123383e-19 -3.0928066e-18 2.6065603e-18 -3.613367e-15
-3.0410312e-12 1.2679612e-14 4.8380462e-14 0.32733393 -3.165138e-10 -8.984074e-16 0.01852054 0.21449752
-9.1503445e-09 6.6411643e-38 -8.279744e-14 -2.8064434e-12 0.0066372883 2.8425583e-11 -2.8608095e-13 3.633793e-10
-5.6986385e-09 0.021355944 -8.251062e-09 -2.7819159e-16 -1.1829127e-25 2.5999775e-12 -8.244218e-19 0.0048466
-1.5265391e-19 0.0073114475 -2.8529172e-08 -4.8836306e-33 1.0678159e-31 -8.8353276e-11 0.00017562452 1.1292774e-08
-1.96472e-28 -3.3556395e-09 -1.4239013e-11 -1.8588054e-08 -3.8328675e-18 0.3590374 -3.8493383e-22 -2.8842746e-32
3.250574e-11 0.0018595114 -4.977395e-12 -4.345739e-10 6.0301423e-05 -1.363669e-15 -3.7014364e-17 -5.7527614e-26
-7.879208e-14 6.2936397e-06 -3.2564845e-10 0.022084873 4.3418437e-18 2.9902344e-37 1.12696026e-13 -1.5695051e-15
-3.0676387e-37 -1.4067414e-14 0.0057035284 0.49324933 -8.394316e-18 -1.2059527e-18 2.5698321e-17 -1.2832731e-14
-1.5344961e-11 5.5612626e-14 1.1255643e-13 0.4728813 -1.2652646e-09 -4.7378525e-15 0.039372176 0.318239
-4.099047e-08 7.4616475e-37 -6.2750033e-13 -3.702827e-11 0.015948636 2.3074996e-10 -1.3696748e-12 6.31472e-09
-3.7259554e-08 0.04668466 -1.08546686e-07 -6.6099185e-16 -3.011273e-25 7.844492e-12 -2.0585632e-18 0.01044358
-2.354482e-19 0.01611372 -1.4999763e-08 -1.5275066e-32 5.4953534e-33 -4.449322e-10 0.00028605238 1.4806525e-07
7.20949e-30 -1.854165e-08 -1.3585025e-10 -1.3026197e-07 -5.0653192e-17 0.52006686 -4.134946e-21 -1.6494534e-32

readout.readouts.bex_20230623_denoised.location.bias f4 [2]
00000000: f1a8 543e 0f62 813e
0.20767571 0.25270125

readout.readouts.ken_20230614_denoised.location.weight f4 [2, 64]
00000000: 1e2e 012c 700b 0139 5089 bcaa d6d0 f4ad
00000010: 5239 8836 8194 b9a5 3d21 65a2 54e5 d012
00000020: e47a a9a7 2924 a234 f83f 70ae f710 233b
00000030: 8189 2821 8f34 b582 5860 8728 86c5 91a5
00000040: e65c f282 a559 41a7 4d43 ee39 9f2d 913e
00000050: f05e 43a1 782c 06a1 92f9 ef21 e1de 84a7
00000060: ea1b cdab 24c1 8527 904b 9928 4755 873e
00000070: e21c 37af fb76 3ba6 c3ec c33b bdea 233e
00000080: 6bf5 9ab1 0b60 bf02 d5a2 5ea9 f935 0eac
00000090: a136 0c3b af77 852d 740b 22aa d0df be2f
000000a0: 908a 87b1 4c2c d43b 0e1e dfb1 750c 1fa5
000000b0: 5f1d c795 61d6 972b 7562 84a1 41ad 8e3a
000000c0: e294 189f 0c72 173b 9aef 3ab1 3298 d188
000000d0: 00c8 c609 9576 dfae 79de c737 9058 0232
000000e0: f27e bf8e d94f f8b0 d7fa 67ad 4528 3bb2
000000f0: 33fe 81a2 0bd0 983e 0953 879b 06ed 100a
00000100: e7a8 b92c 41a7 c039 775f 53ab 33bd 8eae
00000110: 02d9 3c37 adb7 91a6 3cd9 59a3 5faf 4c14
00000120: 025b 0ea8 a0eb 3635 e934 efaf 5ef3 003c
00000130: 063a c421 5e75 fb82 f03c 1529 e230 1ea7
00000140: 3a74 ab82 31fa 11a8 f12d b03a 296c 093f
00000150: 7dfe daa1 7292 1ca2 723a 8322 4ac4 d2a7
00000160: da72 afac e86a e328 40b9 0629 a943 013f
00000170: 8199 a8b0 6f8c 0da7 caf8 993c 5c84 a43e
00000180: 9051 a4b2 7eac b902 d1a3 19aa bcc3 b3ac
00000190: d08c 063c 6ab6 9a2e 807b 0cab aaae 1730
000001a0: 7af4 efb1 2e29 ab3c b4be 79b2 ce83 94a6
000001b0: 0456 9395 a206 312c 85e0 8ea1 a6a0 883b
000001c0: 10f6 12a0 ab14 083c 804f 26b2 4dbe 9689
000001d0: b2b6 070a 849c 70af ba81 7a38 4842 9d32
000001e0: 5704 798f 9d41 c5b1 4047 dcad f54e 0eb3
000001f0: beae 12a3 fd44 103f 5b68 069c 0936 750a
1.8357603e-12 0.0001230666 -3.3490788e-13 -2.783233e-11 4.059789e-06 -3.2193014e-16 -3.1052883e-18 1.3183179e-27
-4.704016e-15 3.020116e-07 -5.4626498e-11 0.0024881938 5.71026e-19 -2.6625727e-37 1.5029793e-14 -2.5287337e-16
-3.5612025e-37 -2.6832727e-15 0.0004544504 0.2835512 -6.619422e-19 -4.545982e-19 1.6261331e-18 -3.6879006e-15
-1.4573874e-12 3.712432e-15 1.7019182e-14 0.2643225 -1.6654014e-10 -6.5039907e-16 0.005979152 0.16007514
-4.5098907e-09 2.8120054e-37 -4.9435137e-14 -2.0209375e-12 0.0021394866 1.51735e-11 -1.4392464e-13 3.4719827e-10
-3.94477e-09 0.006475007 -6.493571e-09 -1.3795272e-16 -8.04218e-26 1.0788697e-12 -8.970729e-19 0.0010885374
-3.2310405e-20 0.0023108749 -2.720276e-09 -1.2614511e-33 4.7854845e-33 -1.016193e-10 2.3826246e-05 7.587133e-09
-4.720738e-30 -1.8067069e-09 -1.3186527e-11 -1.0893989e-08 -3.5234664e-18 0.29846224 -2.2387537e-22 6.977927e-33
5.276768e-12 0.00036745708 -7.509474e-13 -6.491021e-11 1.1256199e-05 -1.0111182e-15 -1.1809595e-17 1.0333954e-26
-7.902318e-15 6.8143163e-07 -4.3511442e-10 0.007870523 1.3296835e-18 -3.69485e-37 3.31375e-14 -2.1953404e-15
-2.5192903e-37 -8.1033685e-15 0.0013441426 0.53680664 -1.4839617e-18 -2.121947e-18 3.5569503e-18 -5.8499526e-15
-4.9865502e-12 2.5248426e-14 2.9914656e-14 0.50493866 -1.2267237e-09 -1.964381e-15 0.01879539 0.32132232
-1.9129203e-08 2.7282313e-37 -1.3645965e-13 -5.109217e-12 0.008212283 7.0355125e-11 -4.990938e-13 5.518169e-10
-6.9836092e-09 0.02089366 -1.4537068e-08 -1.0305289e-15 -5.9508536e-26 2.5156895e-12 -9.681724e-19 0.0041695414
-1.2448096e-19 0.008305709 -9.680548e-09 -3.6290144e-33 6.534375e-33 -2.1883478e-10 5.9725462e-05 1.8307347e-08
-1.2277484e-29 -5.740914e-09 -2.5042746e-11 -3.3133762e-08 -7.951679e-18 0.5635527 -4.4471757e-22 1.1806484e-32
