artifacts/poses_to_location/20250820195153/best_model.pt (torch, 674933 bytes, 54 tensors)

embedding.embeddings.bex_20230623_denoised.poses.weight f4 [128, 3]
000000 f1 ce 1f be 99 0b 17 bf 7b 09 ac 3f 1d 91 d3 be
       -0.15606286 -0.5900207 1.3440393 -0.4132165
000010 c1 08 ce 3e 31 58 a4 bf bf 69 85 3e c8 92 57 3d
       0.40241054 -1.2839414 0.2605724 0.052630216
000020 94 6b 93 bf 3b 03 1f 3e 94 23 ba 3d 99 a4 ca 3d
       -1.1517205 0.15528576 0.09088817 0.09894676
000030 8f 1a cf be d9 18 23 3e 14 65 cf be c1 aa 04 3f
       -0.4044995 0.15927447 -0.40506804 0.5182305
000040 a9 d4 cd 3c 32 cb 6d be bf e3 78 3d 98 4e 0a 3f
       0.025125818 -0.23222044 0.06076407 0.54026175
000050 dd 7c 02 bf 24 a3 85 bd fe 07 1b 3f 83 87 7a bf
       -0.50971776 -0.06525257 0.6055907 -0.97863024
000060 ad 72 97 be e3 52 1c bd 6a bb 13 3f 7f 4e 4b 3e
       -0.29579678 -0.038164984 0.57707846 0.19854163
000070 c6 81 22 3f 24 c3 0b bf c0 25 25 be 1e b1 35 bf
       0.6347927 -0.54594636 -0.16127682 -0.70973384
000080 3a 1e 6f 3e 8e 91 64 be e3 5e 98 3e ff 5b a7 3f
       0.23351374 -0.2232115 0.29759893 1.307495
000090 fb 5c c7 3e 3e fe ab 3e e0 89 7e bc 1a fb c6 be
       0.38938126 0.3359241 -0.015535802 -0.3886345
0000a0 86 00 3e bf 69 b4 99 3f 18 4b c3 bd 4e e3 03 3f
       -0.7421955 1.2008182 -0.09535807 0.51518714
0000b0 7f 15 ad bf 63 ae d1 be 33 67 0b bf b6 ed d6 3e
       -1.3522185 -0.4095336 -0.54454345 0.41978234
0000c0 34 11 d7 be b6 93 f2 be 92 03 93 3f cd d4 cd be
       -0.42005312 -0.4737832 1.1485465 -0.40201417
0000d0 5b ea d8 be bc e2 27 bf cd 74 a2 3c ff e5 de be
       -0.423663 -0.65580344 0.019831086 -0.43534848
0000e0 94 7e 5d bc 07 7f 39 be 0f ab 45 be e5 8a 9e 3f
       -0.013518948 -0.18114863 -0.19303535 1.2386137
0000f0 c5 9f df 3e 82 b2 4d 3f fd e6 5d 3f 78 c6 be 3e
       0.43676582 0.80350506 0.86680585 0.37260795
000100 0d 99 0c 3f 14 0a a5 bf 14 9b 83 be da 9f 72 bf
       0.54921037 -1.2893701 -0.25704253 -0.94775164
000110 cf 73 35 3f 82 3c d1 be c3 c0 9d 3e f3 9c 9a bf
       0.70879835 -0.40866476 0.30811128 -1.2079147
000120 a3 98 8e bd 38 e1 49 3f 48 b3 3f 3f 30 78 06 bd
       -0.06962707 0.7885928 0.74882936 -0.032829463
000130 e8 90 e2 3d 9a 11 c2 3e 3e 35 ab be 79 84 1a be
       0.11062795 0.37904054 -0.33439058 -0.15089597
000140 26 af f1 3d ee 5c bc be 8d 7a 9f be 02 6e 00 bf
       0.11800985 -0.3678965 -0.31148186 -0.5016786
000150 04 28 8e 3e 29 1d 64 3f a4 40 ac bf 99 d3 1e 3e
       0.27764904 0.89106995 -1.3457227 0.15510406
000160 17 19 f9 3d 24 2b 65 bf 8d a7 b9 3d ae e8 cd 3e
       0.12162989 -0.8951895 0.09065161 0.40216583
000170 29 55 11 3f 4a 8f 55 3e 21 5c 25 3f dd eb 8b bf
       0.5677057 0.20855442 0.645937 -1.0931355
000180 ff 9c 83 be c5 00 1a 3d 70 0c 69 bf 65 0d ce be
       -0.25705716 0.03759839 -0.91034603 -0.40244594
000190 95 b6 ec bd aa dc bb 3f 59 87 80 be 16 3a 0f bf
       -0.11558262 1.4676716 -0.25103262 -0.5594801
0001a0 0c 50 b1 3f fa 3b 21 bd 8d 97 24 3f 1c 87 98 bf
       1.3852553 -0.03936384 0.6429375 -1.1916232
0001b0 38 22 78 3d 96 d6 00 bf 92 b1 58 3f 6d 81 3c 3d
       0.06057951 -0.5032743 0.8464595 0.046021868
0001c0 89 3a ab 3e 59 76 24 bf 0f 00 b0 3e a8 f6 4b bf
       0.33443096 -0.64243084 0.34375045 -0.7967324
0001d0 30 cc 5a be 73 ee bc 3e 00 56 14 3e e8 c2 95 3f
       -0.21366954 0.36900672 0.14485931 1.1700106
0001e0 6c f6 03 bf cc 11 1b bf 53 89 f4 be 0e 38 33 bd
       -0.51547885 -0.6057403 -0.4776102 -0.04375463
0001f0 2f de 90 3e 39 88 2f 3f 5f 15 b4 3c 2b 7b 77 3c
       0.28294513 0.68567234 0.021982847 0.015105049
000200 8c 84 3f 3f e8 77 41 bd 98 38 dd bd 2a 7f 69 bf
       0.74811625 -0.047233492 -0.1080181 -0.9120966
000210 21 77 a3 bd 92 d9 66 3f ec a8 94 bf 07 ce 60 bd
       -0.079817064 0.90175736 -1.1614051 -0.054883983
000220 ed f2 af 3e 4a df 8b bf 5f 7d 9a be 45 3a 2f 3d
       0.34365025 -1.0927517 -0.30173776 0.04278018
000230 aa 01 b2 be 13 a2 f4 bd 03 f5 8f 3e a0 40 9c 3f
       -0.34766895 -0.11944976 0.28116617 1.2207222
000240 9d 93 07 bf 2a 53 9b bf 62 67 af 3f 65 e7 d1 3e
       -0.52959615 -1.2134755 1.3703425 0.40996853
000250 1a 3a e5 3e 08 e0 9b 3f dc 6b 4d bd d7 4c d3 3e
       0.4477089 1.2177744 -0.05015169 0.41269562
000260 58 48 a8 bf dd 26 0d bf 79 ea 08 bf db 52 48 3f
       -1.3147078 -0.55137426 -0.53482777 0.7825143
000270 d8 cc a7 be 65 a5 98 3e 1e b3 55 be 09 2f 91 be
       -0.3277347 0.29813686 -0.20869109 -0.28356197
000280 7d c4 b4 3e b8 ce 87 bf 99 d8 31 3d 44 b0 85 be
       0.3530616 -1.060996 0.043419454 -0.26111042
000290 0e 7d fe 3e 24 a9 08 3e e6 12 8c be 83 33 95 be
       0.49704784 0.13345772 -0.27358168 -0.29140863
0002a0 bf 31 96 be 25 f9 98 be 9b 40 4c 3f e5 48 ee 3d
       -0.29334828 -0.29877582 0.7978608 0.11634997
0002b0 76 ad e6 bc f0 9f 20 bf f2 bd e7 bd 0a 0a a5 be
       -0.028158884 -0.62744045 -0.11315526 -0.32234222
0002c0 b0 1b fd 3e 25 c1 0b 3e 27 9f 25 3f 78 7a 90 3e
       0.49435186 0.13647898 0.6469597 0.28218436
0002d0 4a 7b 0b bf f0 83 a2 3d 5f da 96 bf fd de 02 bf
       -0.54485 0.07935321 -1.1785392 -0.51121503
0002e0 93 ad 32 3e 04 3c 01 3f 7e 2c 04 bf 02 6e d3 be
       0.17449026 0.504822 -0.5163039 -0.41294867
0002f0 5c fc 96 bd 62 bf 33 be 68 10 0f bf bc 4e fb be
       -0.073723525 -0.17553475 -0.5588441 -0.49083507
000300 5a 10 b0 3e b2 fd 31 be bb 6a 1a bf 34 56 ee be
       0.34387475 -0.17381933 -0.6031911 -0.46550143
000310 a5 c2 3c be d7 16 b9 be 18 f7 2e 3d 21 7c e6 3e
       -0.18433626 -0.36150238 0.042716116 0.45016578
000320 21 ad 7b be 32 41 22 3e 3b 9b af 3e d2 ec 08 3f
       -0.24577762 0.15845183 0.3429812 0.5348636
000330 a7 4a 58 3e 63 07 53 3e c8 de 14 3f 22 79 aa 3e
       0.21122228 0.20608287 0.5815244 0.33295542
000340 e3 81 79 3e 92 8b 9b 3f 30 ac 24 bd ec ab ce be
       0.24365954 1.2151968 -0.040203273 -0.4036554
000350 e0 9b 99 bf fc 61 a0 be a7 11 88 be bb af 8f bf
       -1.2000694 -0.31324756 -0.26575968 -1.1225504
000360 29 91 82 3d 5a d9 b9 be 53 14 37 bf 72 98 8c be
       0.06375343 -0.3629864 -0.7151539 -0.27460057
000370 c5 69 ad 3d 6a d4 71 3f d4 67 06 3f 7f 02 c2 3e
       0.084674396 0.94464743 0.5250218 0.3789253
000380 5e f4 70 3f d2 20 b2 3e bb 8a 14 bf 40 52 33 3f
       0.94122875 0.34790665 -0.58024186 0.7004738
000390 46 86 ed be 5c a9 3e bf 09 ee 81 bc 1d 75 d2 3e
       -0.46391505 -0.7447717 -0.015860574 0.41104975
0003a0 8d 21 07 3f 79 0d 0a 3f fe bd d7 3d af fa 14 3d
       0.5278557 0.5392681 0.10534285 0.036371883
0003b0 96 69 a6 bf ee d4 49 be a3 52 c8 be 75 b5 3c 3f
       -1.3000972 -0.19710132 -0.39125547 0.7371438
0003c0 ed e1 8b be 5b 98 e8 3d 25 f6 c0 3e f5 ea 0e bf
       -0.27320805 0.113571845 0.37687793 -0.55827266
0003d0 0f 3e 12 3f 0f 3d 97 3f a4 53 cb be 83 04 6f 3c
       0.57125944 1.1815509 -0.3971225 0.014588478
0003e0 ee 56 0d bf 77 8a c9 be df ed a1 3e 50 2b 90 3f
       -0.5521077 -0.39363453 0.31626794 1.1263218
0003f0 7f 5e c6 3c dd 96 b2 bc bb c7 c3 3f 1f 1b 0d bf
       0.024214981 -0.021800453 1.5295328 -0.5511951

embedding.embeddings.bex_20230623_denoised.poses.bias f4 [128]
000000 3b fd ca be 24 f3 ae be 52 be 55 bc f2 d0 a1 be
       -0.39646325 -0.34169877 -0.013045864 -0.31604725
000010 16 56 9a ba 61 0a b1 be 39 ea b4 bd a8 e2 08 3c
       -0.0011774923 -0.3457823 -0.08833737 0.00835482
000020 97 16 11 bd 88 22 d9 be 2e a1 05 3d 9e 5b 51 3e
       -0.035421934 -0.42409158 0.032624416 0.20445105
000030 35 84 de be 59 30 e6 bd 34 7d 5a be 7a 89 87 bd
       -0.4346024 -0.1123969 -0.21336824 -0.066180184
000040 86 74 05 bf 78 b3 c1 3e 77 b3 22 3e 2a b9 60 bd
       -0.52130926 0.37832236 0.15888773 -0.054864086
000050 6f 7b 9a 3d 39 09 e8 3e b3 07 08 bf 31 9b b1 3e
       0.07543074 0.45319536 -0.5313675 0.34688714
000060 47 b3 40 3e c4 e1 ee bd 6d a5 01 3f 2a 58 e8 3d
       0.18818389 -0.11664155 0.50643045 0.11344941
000070 ab 21 d6 3e a8 bb 01 bf f6 64 33 bd f0 09 9e be
       0.41822562 -0.50676966 -0.043797456 -0.30866957
000080 8a d4 1f bf 33 eb 0b 3e 59 a8 fd bd 47 5e ed 3e
       -0.62433684 0.1366394 -0.123856254 0.4636099
000090 dd 6b 3d 3e d3 ec 14 bf 1c 3e 07 bf 27 b3 44 bd
       0.18498178 -0.58173865 -0.52829146 -0.048022415
0000a0 40 f6 d9 be 7c c9 7b 3e 3b 3f 0b 3f 50 a3 8d be
       -0.42570686 0.24588579 0.5439336 -0.2766366
0000b0 bd dc 55 3d d9 31 14 bf 31 88 99 be d3 24 e5 be
       0.052212466 -0.5788856 -0.29986718 -0.44754657
0000c0 f6 e2 71 be d9 67 28 3f 4e 02 fd 3e 68 c7 e5 be
       -0.23621735 0.6578346 0.4941582 -0.44878697
0000d0 81 93 13 bf 4b 61 e1 be 92 64 a5 3e 44 4c 0f bd
       -0.5764695 -0.4401954 0.32303292 -0.034984842
0000e0 f9 0d 9f be 93 4c c8 be 0a a3 5d 3e b5 ad ad be
       -0.31065348 -0.39120921 0.21644226 -0.3392159
0000f0 56 fb 72 3e 90 e8 c0 3e f1 c9 ec be 84 44 84 3e
       0.2372869 0.3767743 -0.4624782 0.25833523
000100 d9 c5 41 bd 68 5e e0 3e d1 6d d0 bd 71 03 c2 be
       -0.047307823 0.43822026 -0.10177196 -0.3789325
000110 59 a6 97 be b5 e6 ac 3e 2f 4f ed 3e 8f ac dd 3e
       -0.296191 0.33769765 0.46349475 0.43295714
000120 f1 84 d1 be 0c 78 2f be cc cc c3 be a3 12 9d 3e
       -0.4092174 -0.17135638 -0.38242185 0.3067828
000130 63 67 ab bc 60 9d 93 3e dd 6c d0 3e 65 db 8d bd
       -0.020923322 0.28831005 0.40708056 -0.06926612
000140 d3 57 17 bf 28 8d 93 be 82 44 22 3d 62 f6 84 be
       -0.59118384 -0.2881863 0.039616115 -0.25969225
000150 45 d1 31 3e 07 80 3b bd 11 73 96 be f9 9f 47 be
       0.17364986 -0.045776393 -0.29384664 -0.19494618
000160 52 93 41 be d6 1c 98 3e d4 42 14 3d 67 f9 12 3e
       -0.18903854 0.297095 0.036196545 0.14352952
000170 6b 5e 3c 3e d0 93 bd 3e 8c 0a d5 be 6f bb 6e 3e
       0.18395393 0.37026834 -0.4160961 0.23313688
000180 05 57 83 3e e0 dd 5e 3d c3 ec df bb f0 c5 97 3e
       0.25652328 0.054410815 -0.006833644 0.29643202
000190 ff b6 8b 3e 60 8f f0 be 3d b7 33 be b9 6a a0 bb
       0.27288052 -0.46984386 -0.17550369 -0.004895535
0001a0 43 33 8f be 3f 85 0c bf 3a 8e c2 be d8 38 d0 3e
       -0.27968797 -0.5489082 -0.37999135 0.40668368
0001b0 4f 24 ec be ac 69 13 bf f5 4c bb 3d ff 18 34 be
       -0.4612145 -0.5758312 0.09145538 -0.1758766
0001c0 8a ca 09 bf 3e f2 fa be 1c bd f6 bd d9 8e 56 3e
       -0.53824675 -0.4901294 -0.120477885 0.2095293
0001d0 d2 e7 fb 3e cb 78 02 3f 83 6a e2 be be 28 d3 3e
       0.49200302 0.50965565 -0.44221887 0.4124202
0001e0 a6 6b ac 3e 96 f7 06 3f 60 bb 05 3f d7 a7 ad 3e
       0.3367588 0.52721536 0.52239037 0.33917114
0001f0 1c 3e c5 be d9 76 d0 bd aa 27 44 3e 40 47 af 3e
       -0.38523948 -0.101789184 0.19155756 0.34234047

embedding.embeddings.ken_20230614_denoised.poses.weight f4 [128, 10]
000000 26 00 0b 3e 7e c7 20 bf b8 5b f8 bd b8 06 01 3f
       0.13574275 -0.628044 -0.12126869 0.50400877
000010 29 f2 2f be d4 95 62 be 9b 20 7d be fe b1 a4 be
       -0.1718222 -0.22127467 -0.24719469 -0.32167047
000020 43 ed 07 3d b5 7a 2c bf e2 4c 89 3e ab 4b 3c be
       0.033185255 -0.67374736 0.2681647 -0.1838824
000030 4b de e9 bd 72 f3 ec be 89 19 0c 3f 8b e3 db 3d
       -0.11419352 -0.46279484 0.54726464 0.1073676
000040 a0 f8 c4 3e 3e e7 b9 be c5 d0 26 be cb 2c 5c 3f
       0.38470936 -0.36309236 -0.16290577 0.8600585
000050 1d e0 c4 bd 5e 8d 57 bd d8 9b 1c bf 47 1a 89 bd
       -0.09613059 -0.052625053 -0.611753 -0.06694465
000060 7d cc ab bd 3d ef 8e 3e 1a bc 01 be f4 7b b0 3e
       -0.083886124 0.279169 -0.12669411 0.3446957
000070 3f 46 18 3f 94 b6 66 be 6a f5 18 be 1a 13 9e 3b
       0.5948219 -0.22530586 -0.14937368 0.0048240544
000080 b3 34 0f be 69 cf 1f 3e 1d 80 da be 90 08 3d be
       -0.13984947 0.15606464 -0.42675868 -0.18460298
000090 02 11 3f bd 7b 5b 3b 3d d5 2a d2 3e 5b a4 08 bf
       -0.04664708 0.04574154 0.41048303 -0.53375787
0000a0 5c 22 29 be f4 be 41 3e 53 23 66 3e 8d 81 0c 3e
       -0.16517013 0.18920499 0.22474413 0.13721295
0000b0 5f ff 6c 3d 1d f0 28 bd 74 57 68 be 84 5c 01 be
       0.05786073 -0.041244615 -0.2268961 -0.12632948
0000c0 13 19 6d bf 4e 3d c6 3e 35 95 85 3d 29 18 9e 3e
       -0.92616385 0.38718647 0.065225996 0.30877808
0000d0 23 4d d6 3e 7a e4 7d be aa 80 21 bf e9 13 b1 be
       0.41855726 -0.24794188 -0.6308695 -0.34585503
0000e0 26 f2 3f 3f b5 a7 db be c7 95 b0 be 81 38 97 be
       0.74978864 -0.42901388 -0.3448927 -0.29535297
0000f0 e6 74 78 3e 54 c9 ba bd 4c 8c cd bd 89 3a e1 be
       0.24263343 -0.091204315 -0.10036525 -0.4398997
000100 54 15 8b 3e f7 ff e5 3e 08 3e 70 3c 05 b9 00 be
       0.2716471 0.44921848 0.014663227 -0.1257058
000110 42 6f 4e be e9 86 5e 3f 4d aa 28 bd c0 13 86 3e
       -0.20159629 0.86924607 -0.041178036 0.26186943
000120 68 5a ba 3e b5 44 91 3e b6 8a 15 bf f2 49 c7 bc
       0.363971 0.28372732 -0.5841478 -0.024327252
000130 ff b9 6c 3e 29 94 27 3f d6 fa c8 3e a3 39 4c bf
       0.23117827 0.6546045 0.39253873 -0.79775447
000140 28 72 48 be 70 09 e6 bd f4 b9 8f 3e c0 ed dd 3e
       -0.19574797 -0.11232269 0.28071558 0.4334545
000150 bf fc d7 be 6c 0f 8a bd d1 78 75 be a1 06 46 3d
       -0.42185017 -0.06741223 -0.23971869 0.048346166
000160 50 ea a4 3e 38 f1 5b bf 26 2d c7 bd f8 27 8a 3e
       0.32210016 -0.85914946 -0.09725408 0.2698362
000170 a1 86 e6 3e 2d e4 5c bc 41 e2 c3 be 27 d1 db bd
       0.4502459 -0.013482136 -0.38258556 -0.10733252
000180 d7 a2 3d 3f 3c 29 9f 3d a9 c4 bf 3d de d6 29 bf
       0.740766 0.07771537 0.09363682 -0.66343486
000190 2f cd 01 3d 00 9e 58 be d0 8c 81 3e d3 c4 8c 3e
       0.03168982 -0.21154022 0.25302744 0.27493915
0001a0 10 50 82 3e 47 f5 0d bd 61 c5 d6 be 38 77 cd bd
       0.25451708 -0.034657743 -0.41947463 -0.10032505
0001b0 5b e7 d1 3c 43 9a a1 3e 42 8c 2f bc a7 8a 43 3e
       0.025623014 0.31563005 -0.010714592 0.1909586
0001c0 36 6b 1f be 75 55 04 bb 07 db bd bd 18 7f 2c be
       -0.15568241 -0.0020192538 -0.09270292 -0.16845357
0001d0 58 51 fa 3d a9 e4 73 3e 38 67 44 3f 27 47 2c bf
       0.12222546 0.23817696 0.7672 -0.6729607
0001e0 c9 bb 02 3e 8f 1a 34 3f f0 cc 82 3d 34 bf b5 be
       0.12766947 0.70353025 0.06386745 -0.3549744
0001f0 1d 28 fa 3e bf b0 9a 3e f1 ac 42 3f f1 16 95 3e
       0.4885873 0.30212972 0.7604514 0.29119065
000200 2d 51 af be 80 79 2d 3f 0f 7c 82 be 7d 3f 0a 3f
       -0.3424162 0.6776352 -0.25485274 0.54003125
000210 dc c2 f2 3c c6 c5 39 be 66 e8 85 3e 35 0c 00 3d
       0.029633932 -0.18141851 0.26153868 0.03126164
000220 11 3f cd bd 01 55 e7 bc 53 10 5f bf b2 cb 9a 3e
       -0.100217946 -0.028238775 -0.87134284 0.30233532
000230 89 e3 22 be 9d ca 70 be a7 4e e6 be a3 2f e5 3d
       -0.1590711 -0.23514791 -0.44981882 0.111907266
000240 31 60 ff 3e 0d 5a 4d 3e 67 9c 98 bc 55 d9 3d 3f
       0.49878076 0.20053883 -0.018629266 0.7415975
000250 ab 2c 8b 3f 5b 5e 65 bd fb 94 21 3e fc 7a 58 bf
       1.0873007 -0.055998188 0.15779488 -0.8456266
000260 57 f8 bc be ef f1 3c 3b 00 69 fe 3d e0 61 6a be
       -0.36908218 0.0028830727 0.12422371 -0.22888899
000270 81 9b b1 3e da a8 b8 3c 6a fd 6e 3f ed 17 ba 3e
       0.34688953 0.022541452 0.9335543 0.3634638
000280 06 1a 7f bd 03 93 68 3e aa e6 e2 bc 4f 92 a8 bb
       -0.062280677 0.2271233 -0.02769788 -0.0051443945
000290 69 af c7 bd 6d 56 03 3e bd f5 8d 3e e5 3c bf 3e
       -0.09750254 0.12825938 0.27726546 0.37351146
0002a0 70 48 17 3f 22 8f 87 be 91 20 4b 3d 63 78 64 be
       0.59094906 -0.2647639 0.049591605 -0.22311549
0002b0 6a 2f c6 be ff 25 b6 be 5e 03 6f 3e 57 88 e9 3e
       -0.3870805 -0.35575864 0.23341128 0.45611832
0002c0 86 10 23 3e 39 c9 f9 3e 71 39 59 3c 29 ff ab 3d
       0.15924272 0.48786333 0.013258324 0.08398277
0002d0 f9 bd 93 be 67 55 85 3e ed bb 50 be 76 9e c7 3e
       -0.28855875 0.2604172 -0.20384188 0.38988084
0002e0 ca 5b 4f be 0b ac 3d 3d 68 16 55 be 25 72 f2 bd
       -0.20249858 0.04630665 -0.20809329 -0.118381776
0002f0 93 c9 8d 3d a6 52 b7 be 21 0d 6e be 53 16 95 be
       0.06923213 -0.35805243 -0.23247196 -0.29118595
000300 c2 20 08 be a7 8e ad 3e 4f 9b 8f 3e 24 1c 48 3e
       -0.13293746 0.33897898 0.2804818 0.19541985
000310 ac 2a 18 bf 62 16 b6 be 9b 39 cb be 79 90 18 3f
       -0.5944011 -0.35563952 -0.39692387 0.5959545
000320 0e 19 a6 bd a1 14 b8 3e ac ec c7 3d 0c 79 7b bc
       -0.081102476 0.3595324 0.097619385 -0.015348684
000330 87 bf 01 bf 35 ec 39 3e 1b d3 20 be c5 70 7e 3d
       -0.5068287 0.18156512 -0.1570553 0.062119264
000340 86 0c 70 3e e4 8f 46 bf 20 17 a8 bc e4 04 89 be
       0.23442277 -0.7756331 -0.02051884 -0.26761544
000350 2c d2 90 3e de dc ef bd ab f1 a0 be ea f5 8f be
       0.28285348 -0.11712049 -0.31434378 -0.28117305
000360 7d bc 41 be 0c 10 38 3f a4 41 d1 3e 74 d7 08 bf
       -0.18919559 0.71899486 0.40870392 -0.53453755
000370 1e d7 cb bd 15 bf 2a 3e 68 24 b7 be e9 ef 5e bd
       -0.0995314 0.16674455 -0.35769963 -0.054428015
000380 06 10 22 3f 23 16 85 3e 0a 1a 11 be 14 95 aa bd
       0.633057 0.2599345 -0.1417009 -0.08329216
000390 7a c3 fd be aa f0 74 3f 9e c5 0c 3d e4 a1 b3 bd
       -0.495632 0.95679724 0.03436815 -0.087711126
0003a0 bf 21 ab be b1 81 8b 3d d1 7d d7 3c c1 69 8f be
       -0.33424184 0.06811846 0.026305111 -0.2801037
0003b0 99 09 d8 3d 43 5c 9c be 76 e8 07 bf 09 43 3d 3f
       0.105487056 -0.3053914 -0.5308908 0.7393041
0003c0 10 96 13 bd a8 98 c8 3e 9a e2 6e 3e ea 75 86 bd
       -0.036031783 0.39178967 0.23328629 -0.06565459
0003d0 93 ab 12 bf 93 f9 3b 3e 95 4b 75 3d a9 ee db bc
       -0.5729305 0.18356924 0.059886534 -0.0268472
0003e0 88 23 9a 3e 8d 18 48 bf 79 bf 98 3e ce fd d3 bd
       0.30105233 -0.7816246 0.29833582 -0.10351144
0003f0 31 8c c3 be 5c 90 a3 be 14 68 f7 3e 36 74 2d be
       -0.38192895 -0.31946075 0.48321593 -0.16938862

embedding.embeddings.ken_20230614_denoised.poses.bias f4 [128]
000000 a8 43 00 be d7 0a 4f be 01 82 1b 3e d1 c8 0c be
       -0.12525809 -0.20218979 0.15186311 -0.1374848
000010 88 e1 80 3e 76 13 86 3d e9 3c 58 3e e8 3d a7 be
       0.25172067 0.06546681 0.21116985 -0.32664418
000020 6d 39 55 3c 10 48 a0 be ef 50 20 3e 2f 6d 46 be
       0.01301418 -0.3130498 0.15655874 -0.19377588
000030 95 8a b9 3e 22 bb 61 3d 09 7c 77 be d1 61 a1 3d
       0.36238542 0.055110104 -0.2416841 0.07879985
000040 26 50 fe 3d 00 78 47 3e ff ca 15 bd 69 d7 58 be
       0.12417631 0.1947937 -0.036570545 -0.21175922
000050 04 cf 90 be 9a 85 8a bd 83 01 0e be ed b3 15 3e
       -0.2828294 -0.06763764 -0.13867764 0.14619417
000060 f7 77 f4 3c e6 af 1b 3e f8 4b 41 bc f0 33 05 be
       0.02984236 0.15203819 -0.0117978975 -0.13008094
000070 89 da 02 be f1 5c 43 be 58 f9 83 3e 0b 13 84 3d
       -0.12778677 -0.19078423 0.25776172 0.06448945
000080 a3 aa 06 be be 83 81 be 3a d4 e9 bc 8e f9 1f be
       -0.1315103 -0.25295824 -0.02854358 -0.15622541
000090 3d 21 7e be 3a 28 a2 bd 42 21 13 3e 2d 81 a1 be
       -0.24817367 -0.07917829 0.14368156 -0.31543866
0000a0 5a f6 84 bd 95 d2 ef 3d 75 a7 4a 3e 27 f6 61 be
       -0.064923 0.11710087 0.19790442 -0.22066556
0000b0 96 ee 2e bc 30 dd 21 3e 36 92 70 be e4 f9 4b 3e
       -0.0106770005 0.15807033 -0.23493275 0.19919544
0000c0 c0 14 22 be d3 2b 46 3e d8 91 29 be ce e1 61 be
       -0.15828228 0.19352655 -0.16559541 -0.22058794
0000d0 18 79 6c 3c 81 1e df 3d 93 78 a7 3d 31 98 28 3e
       0.014433168 0.1089449 0.081772946 0.16464306
0000e0 5d 5c 02 be 49 ca d2 3d b5 41 dd 3d 0c b2 e2 3d
       -0.12730546 0.10292489 0.10803548 0.11069116
0000f0 fa f7 8d bd 4b 80 37 be f1 f0 b6 bd 79 18 20 3e
       -0.069320634 -0.17920034 -0.08932675 0.15634336
000100 2f 0c 8f 3e 51 40 88 be 64 46 96 bd 9f fc a1 3e
       0.27938983 -0.2661157 -0.07337645 0.31638047
000110 15 a1 e6 3d c1 57 a0 be e9 05 73 3d 2c e5 3f 3e
       0.11261193 -0.3131695 0.05933181 0.18739766
000120 d3 7b 66 3e 74 8d c8 3e 35 9a 67 3e ac e3 80 be
       0.22508173 0.3917042 0.22617419 -0.251737
000130 e7 18 f8 3d 00 4f 4a 3e 80 4a c5 bc a0 71 8d bd
       0.12114125 0.19756699 -0.024083376 -0.06906438
000140 59 da 02 3e e9 a2 c7 3c 70 d9 0f be ba c8 a0 be
       0.12778606 0.024369674 -0.1404779 -0.31403142
000150 af 61 37 3d e7 86 53 be 30 e5 50 be ad da 8d be
       0.044770893 -0.2065693 -0.20399928 -0.277059
000160 4e 7e 8b be b0 41 a9 3d 3a 59 25 3e 75 84 38 be
       -0.272448 0.08264482 0.16147318 -0.18019278
000170 2d 82 49 3e 56 8b 6d 3e 48 bd 63 3e a5 12 8b bb
       0.19678564 0.23197684 0.22240174 -0.004244166
000180 11 ef 8e 3e a2 a9 cb 3d 6d 0c 49 3e ec 4d 86 bd
       0.27916768 0.09944464 0.19633646 -0.06557831
000190 5d ab 2b be f5 ae 56 be 07 d8 6e be fc 2b 75 be
       -0.16764589 -0.20965178 -0.23324595 -0.2394256
0001a0 a0 cb 09 be cb e7 8e 3e 0e 67 44 be 67 d6 49 3e
       -0.13456583 0.2791122 -0.19179937 0.19710694
0001b0 05 ec cd 3d b3 be 9b be 25 30 46 bd 08 23 5b be
       0.10054783 -0.3041893 -0.048385758 -0.21400082
0001c0 2c 0b 43 be 4a 3e 72 bd f2 c1 0f 3e e8 7a 5a be
       -0.1904723 -0.059141435 0.14038828 -0.21335948
0001d0 a4 8e af be 98 24 a4 bd 30 47 83 3e e7 ad db 3c
       -0.34288514 -0.08014792 0.2564025 0.026816322
0001e0 a7 e5 ba bd f0 8f 13 3e b5 59 b2 bd fb fc 2e be
       -0.09125834 0.14410377 -0.087085165 -0.17088692
0001f0 e9 5c 6d be 40 4d 76 be 57 a1 ba 3d 9d fd da bd
       -0.23179974 -0.24052906 0.091128044 -0.10692904

embedding.embeddings.ken_20230618_denoised.poses.weight f4 [128, 12]
000000 e8 51 bd 3b be 82 42 3e e0 d5 cd bc 61 97 8a be
       0.0057775863 0.18995187 -0.025126398 -0.27068618
000010 bb ba 82 3e 06 be 86 be 6b 22 ee 3e c8 68 ab 3e
       0.2553309 -0.2631685 0.46510634 0.3347838
000020 4d 39 a3 bd f0 39 bc 3e 76 eb 76 be 23 e0 9d 3f
       -0.07969914 0.36762953 -0.24113259 1.2334026
000030 bd a9 21 bc f1 e8 52 3b 09 ef 52 3e 2b 9a 8a 3c
       -0.009867129 0.00321823 0.20598997 0.016919216
000040 ce 02 18 be 99 8a a3 3d e3 fd 8b be 35 01 5d 3e
       -0.1484482 0.0798542 -0.27342138 0.21582492
000050 d5 94 5c 3f ab 24 01 bd 8e 87 c0 3e 1b 6f 83 bf
       0.861646 -0.03152911 0.3760342 -1.0268282
000060 b1 6c a8 3c e8 cb e8 3e 5d a2 2c 3e 82 ba ad 3e
       0.02055964 0.45468068 0.16858812 0.33931357
000070 4d 83 71 3e 23 3c 0f 3d 48 3b e9 be 2d 35 bd bd
       0.23585244 0.03496946 -0.4555304 -0.09238658
000080 27 27 52 3e 5e 5d 44 3e e3 55 86 be 02 9f de bf
       0.20522748 0.19176242 -0.262374 -1.7392275
000090 74 83 43 3e 2a 5b b6 3e 63 bc 64 be 1d 81 43 3f
       0.19093114 0.35616428 -0.22337489 0.76368886
0000a0 08 37 01 3f f2 de 09 bf 6d 52 0f 3d f9 55 38 bd
       0.50474596 -0.5385581 0.034990717 -0.045003865
0000b0 c7 fa 98 3f 4a eb c7 bd 33 9a 83 be 2d d0 67 3f
       1.1951531 -0.09761675 -0.25703582 0.90552026
0000c0 37 5e 5c be f0 a8 38 be 0d 7e 94 be b6 5c 3f bf
       -0.21520315 -0.18033195 -0.2900242 -0.7475084
0000d0 2a 15 ba be 3b 17 c3 bc aa ab 8e bd 80 0a c1 3d
       -0.36344272 -0.023814788 -0.06966336 0.09425831
0000e0 81 74 06 be 02 36 59 be dc 13 4a 3f fb 97 f9 3e
       -0.1313038 -0.21212009 0.78936553 0.48748764
0000f0 8a 8a 31 3e 85 3e 80 be 0f fa e3 bd aa 8f 44 bf
       0.17338005 -0.250477 -0.11131679 -0.76781714
000100 ab b8 09 3e 10 7d 20 be b4 c5 40 3e 42 87 72 bd
       0.13449351 -0.15672708 0.18825418 -0.059211023
000110 98 ad ab 3f 92 e1 1d bf 26 18 79 3e df 12 81 3e
       1.3412352 -0.6167232 0.24325618 0.2520971
000120 8e 84 f9 39 67 c9 9e bd 13 0d 04 be d1 b0 2e 3e
       0.00047591742 -0.07753258 -0.12895612 0.17059638
000130 20 de c9 be 88 9f c3 3e 00 23 ce be a9 e5 ef be
       -0.3942728 0.3820765 -0.40261078 -0.46854904
000140 32 cc b0 be 6b cc 74 3d 13 f4 95 be 47 5d b5 bf
       -0.3453079 0.05976526 -0.29287776 -1.4169091
000150 99 16 b7 bd d0 3e 5e 3d 2b d1 e4 3b 19 14 9b be
       -0.08939857 0.05425912 0.0069829426 -0.3028877
000160 5c 6d 34 bf 32 d8 8e 3e 61 aa 34 bd 43 56 dd bd
       -0.7047937 0.2789932 -0.0441078 -0.10807469
000170 b4 89 ab bf 3d 7c 9d bc 3c 47 8e be 75 ff c0 bf
       -1.3401399 -0.01922428 -0.27788723 -1.5077959
000180 44 88 30 3e 98 4a 94 3e 56 f6 9d be ac 70 05 3f
       0.17239481 0.2896316 -0.30852002 0.5212505
000190 d2 a5 3f 3e 60 8c c2 bc 43 28 1a 3e 34 ca 2c be
       0.18715599 -0.023748577 0.15054421 -0.1687401
0001a0 f0 21 f3 be 75 68 1a 3e 81 ca 1b bf e2 86 b3 3f
       -0.4748683 0.1507891 -0.6085587 1.4025538
0001b0 73 4f b6 3c 05 0a 78 bc 5c 27 44 be 2e 02 07 bf
       0.022254681 -0.015139108 -0.1915564 -0.527377
0001c0 af 69 7e bc 16 cd ae 3d 5b ca c5 be f5 fe 02 bd
       -0.015528127 0.08535211 -0.38630947 -0.031981427
0001d0 dd 56 f5 3e 41 6c 18 bf 3c eb 08 3f 52 ab 67 bf
       0.47917834 -0.5954018 0.5348394 -0.9049579
0001e0 d7 16 12 3d ab 4e 35 3e 50 85 84 3e fe fa a1 3e
       0.035666313 0.1770579 0.2588296 0.31636804
0001f0 9c 29 38 3e 0b d4 82 be 98 c4 c2 bd ef 63 10 3f
       0.17984623 -0.255524 -0.095101535 0.56402487
000200 4f 9e 97 be f2 15 9c 3d a2 a4 e0 3c 1e 3b a8 3f
       -0.29612967 0.07621373 0.027422253 1.3143041
000210 d0 b4 ee bd 1a 24 bf be 7b a4 06 3e c4 41 05 be
       -0.11655581 -0.3733223 0.13148682 -0.13013369
000220 67 cf 9a be 36 0d 3b 3e 74 0e fa 3e 63 7c 96 3e
       -0.3023636 0.18266758 0.48839152 0.29391775
000230 60 57 41 bf 39 64 82 3e ec 1e 94 be 76 f3 f7 3e
       -0.7552395 0.2546709 -0.28929842 0.48427933
000240 62 b1 06 be d2 6c 39 bd 98 e7 da bd bf 48 98 3e
       -0.13153604 -0.045269795 -0.10688704 0.29743
000250 85 4c 06 be 19 07 69 3e a0 ec 97 be 02 a0 b0 3e
       -0.13115127 0.22756614 -0.29672718 0.34497076
000260 1d 29 17 3e 9f cb 9b 3d e4 e0 27 3f 39 a2 7a bf
       0.14761777 0.07607197 0.6557753 -0.9790378
000270 47 91 42 be 62 91 c4 3e f4 ce f5 bd 36 77 19 3e
       -0.19000731 0.38392168 -0.12002364 0.14986882
000280 85 36 b6 3e 35 ab 32 3e a1 fc 13 3e a0 a6 68 3d
       0.3558847 0.17448123 0.14451839 0.05679953
000290 09 63 75 bf 39 27 a5 3e 10 1f ae 3e 3f 6f 53 3f
       -0.9585424 0.32256487 0.34008074 0.82591623
0002a0 67 4f 41 3e f1 45 d0 3b a2 27 a8 3e 27 7e 13 3e
       0.18877946 0.006355994 0.32842737 0.14403592
0002b0 94 7e 66 be 31 ba 2b be ef 75 6a be 58 12 19 bf
       -0.22509223 -0.16770245 -0.2289655 -0.59793615
0002c0 14 83 2a 3e 38 d3 89 3e d3 0f 86 be df 61 a7 bf
       0.16651565 0.2691896 -0.26183948 -1.3076743
0002d0 73 a4 61 bd 26 4b 0b 3e fd 25 ad bd ca c0 4a 3f
       -0.05508847 0.13602886 -0.08454511 0.7920042
0002e0 6f 4d 66 3e 38 c8 28 be 0e 08 3a be a1 52 0f bf
       0.22490476 -0.16482627 -0.18167135 -0.55985457
0002f0 4e 82 14 3f 97 1d e0 3d bb 6d 07 bf c0 c9 10 bf
       0.5801133 0.10943144 -0.5290181 -0.56557846
000300 f7 00 3c 3e d3 21 76 be 2b 1b 9a be 29 7c 8f be
       0.18359743 -0.2403634 -0.30098853 -0.28024414
000310 1d 9a 03 3e c0 8d 45 3e 00 cb 40 3e 7d a5 74 3e
       0.12851758 0.19292355 0.18827438 0.23891254
000320 2d a2 01 bf 8d 19 21 3c d9 1a 81 3e 43 4a 8a 3f
       -0.50638086 0.009832752 0.25215796 1.0803913
000330 b8 0a 4e 3d d8 4a f9 3d a1 4b f4 bc 67 aa c1 3e
       0.05030319 0.121724784 -0.029821219 0.3782532
000340 da db c7 3a d4 00 54 3e 56 85 b4 be c1 b7 00 bf
       0.0015248016 0.20703441 -0.35257977 -0.50280386
000350 c5 d0 95 bc 67 c7 83 be 96 ba 77 bd da 98 a7 bf
       -0.018288026 -0.2573807 -0.060480677 -1.3093522
000360 68 cc 72 be e5 59 e2 bd 2a 76 f0 3e e0 99 5d 3e
       -0.23710787 -0.11052302 0.46965152 0.2164073
000370 11 74 7c be 57 73 1a 3e 09 eb c4 3e 23 76 c7 bd
       -0.24653651 0.15083061 0.38460568 -0.0973933
000380 74 09 4d bf 51 0d b7 3e 58 a3 0a bf 9c 01 67 bf
       -0.8009255 0.35752347 -0.5415549 -0.9023683
000390 f2 96 8e 3d 2d e7 e5 39 17 4e 22 3e 1d 31 0d 3e
       0.06962384 0.00043850523 0.15850101 0.13788266
0003a0 f4 dc 7a 3e 5e 6c 0b 3e fb ae be 3e 11 c0 00 3e
       0.2449835 0.13615558 0.37242875 0.12573268
0003b0 77 05 36 bf e5 af ca 3e 98 49 7a 3e 39 9f 2e 3f
       -0.7110209 0.39587322 0.24442136 0.68211704
0003c0 2a 40 c1 bd ac 2a be 3d 39 eb a4 3e d1 de 04 3e
       -0.094360664 0.09285483 0.3221071 0.12975623
0003d0 c8 68 57 bd 94 83 b2 3d bd b4 b9 3e 34 89 92 3e
       -0.05259016 0.08716503 0.36270705 0.28620303
0003e0 8d 7b cb be 72 af 6b bd 29 e0 cd b9 93 28 27 3f
       -0.397427 -0.057540365 -0.0003926766 0.65296286
0003f0 1f c9 59 3e eb 2f 78 be 78 f4 8d 3e 9b d1 cf 3e
       0.21268128 -0.24237029 0.27725577 0.40589604

embedding.embeddings.ken_20230618_denoised.poses.bias f4 [128]
000000 b7 62 a9 3d bd 46 70 3d 5b 06 00 3e 8c a4 62 bc
       0.082707815 0.05866121 0.12502424 -0.013833176
000010 1e ac f6 bd 0f ee 88 be 1c 86 cc bd 56 77 38 bb
       -0.120445475 -0.26744124 -0.09986517 -0.0028147302
000020 15 85 e9 3d 20 ee 87 be 3a 08 ff bd 02 7b 40 be
       0.114023365 -0.26548862 -0.12452741 -0.18796924
000030 65 3d 5e 3e 8c e7 ab 3d 4f 81 69 be a9 5f be 3c
       0.21703108 0.083937734 -0.22803234 0.023238974
000040 a8 3f ee 3d cb 34 a3 3d 07 73 6d 3e 02 f5 2e be
       0.11633235 0.07969054 0.2318841 -0.1708565
000050 db f1 82 bd a7 a0 f8 bb 2e bc fb bd 68 11 a7 bd
       -0.063937865 -0.0075875106 -0.12291752 -0.08157617
000060 01 10 0e 3b 28 b1 e3 3d b1 c3 23 be d4 5c df 3d
       0.002167702 0.11117774 -0.15992619 0.109063774
000070 de 4f 78 be bb 14 d6 3d 0a 1c e7 bc 8e b5 38 be
       -0.24249217 0.10453173 -0.028211612 -0.18038008
000080 9e 8c a0 be 2a d5 13 3e 7f cb 9c be 83 d2 06 3e
       -0.31357282 0.14436784 -0.30624005 0.13166241
000090 10 b8 78 be c8 b5 14 3d fb 85 4e bd 5a 20 7f be
       -0.24288964 0.036306173 -0.050420742 -0.24914685
0000a0 06 b1 64 3e bc b0 14 3e 69 98 da bd 94 3d 37 3e
       0.22333154 0.14520544 -0.10673601 0.17894584
0000b0 08 68 02 3e 5b 63 23 be 53 cc a4 bd fd 5d 91 bd
       0.12734997 -0.1595587 -0.08046784 -0.07098005
0000c0 b4 d8 5d 3e 44 06 77 3e 43 52 0a 3e 01 ee 5f be
       0.21664697 0.24123484 0.13507943 -0.21868135
0000d0 92 c4 7f 3e db 6a 8e be a4 c7 24 be 32 8b 8f bb
       0.2497733 -0.278159 -0.16091782 -0.004380607
0000e0 dd f6 cb 3d ae cb 0d be b0 a4 85 3d 2b ba ef 3d
       0.09959195 -0.13847229 0.06525552 0.117054306
0000f0 67 25 44 be 0a 20 92 3e 25 27 df bd f3 a0 81 be
       -0.19154893 0.2854007 -0.10896138 -0.25318107
000100 77 87 08 be 5a 35 64 be a5 87 80 3d cc dd 18 bc
       -0.13332926 -0.22285977 0.06275872 -0.009330224
000110 9f 93 04 bd f7 05 69 3e 04 f1 9b be bd 5b b8 3d
       -0.032367345 0.22756182 -0.30457318 0.09001873
000120 57 69 80 be 57 ed 3e be 92 74 14 be bd 63 03 be
       -0.25080368 -0.18645225 -0.14497593 -0.12831016
000130 66 35 84 3e 08 78 9c 3d 6d a5 4f be 65 d6 ec 3d
       0.2582199 0.07640082 -0.20277949 0.1156433
000140 29 09 7c 3e e1 b9 25 3d 1e b5 87 be 4b 22 33 3e
       0.2461287 0.04046047 -0.2650537 0.1749355
000150 47 9c b0 3e 8c 1c b1 3c 24 90 6d 3d 91 6d 71 be
       0.3449423 0.021620058 0.05799879 -0.23576953
000160 e7 13 03 be 52 d8 46 be 56 52 ee 3b d2 15 c5 bd
       -0.12800561 -0.19418457 0.007272999 -0.096233025
000170 0a 9b f0 3d f8 be 32 bc 72 eb d4 bc 33 79 10 3e
       0.11748321 -0.010909788 -0.025991175 0.14108734
000180 58 13 67 bd 67 80 08 be 43 18 85 bc ed e5 20 3e
       -0.056414932 -0.13330232 -0.01624692 0.1571271
000190 53 d2 6f 3e 36 f0 ef bd 7e 27 34 3e 95 5a 27 3e
       0.23420076 -0.117157385 0.1759319 0.16343148
0001a0 e5 91 aa ba fa a8 e2 3d 75 1d 1a be 9c 67 09 be
       -0.0013013451 0.11067386 -0.150503 -0.1341843
0001b0 3e ea 07 bd c9 a8 0c 3e df 58 8d be 65 a3 99 bd
       -0.033182375 0.13736261 -0.27606866 -0.07501868
0001c0 f5 4f c6 3d bc be 95 3d 83 cd 84 be 6f bb 7a 3e
       0.09683219 0.0731177 -0.25938043 0.24485563
0001d0 17 01 3c 3e 3a b2 1e 3e 36 04 bb 3d 1b 57 90 3e
       0.1835979 0.15497676 0.091316625 0.28191456
0001e0 9d 5c 38 3d d4 db 97 be 39 8a 5a be 06 8f 31 3e
       0.045010198 -0.29659903 -0.2134179 0.17339715
0001f0 c3 1e 1b 3c 74 90 27 be e9 0c 4f 3e 94 ce 33 be
       0.009467783 -0.16363698 0.20219769 -0.17559272

core.core.fc.0.0.weight f4 [128, 128]
000000 b8 07 d5 3c 07 ef 85 bd c2 2c bc 3d e7 88 7b 3c
       0.026004657 -0.065397315 0.091882244 0.015352464
000010 6e 4b 83 bc 5f 74 5f bc df df 84 bd 02 ab 7b bc
       -0.016027179 -0.013638585 -0.064880125 -0.015360596
000020 27 67 aa 3c ba ea 31 3b 55 94 79 3d b3 d3 6c 3c
       0.02080114 0.0027147965 0.060932476 0.01445477
000030 4c f8 9e bd 8b 48 5c 3d 56 01 7b bd 06 eb 80 3d
       -0.077622026 0.05378012 -0.06128057 0.06294827
000040 7a 6d 9a 3d 84 3e 31 bd c3 49 4a bd cc 51 4c bc
       0.07540412 -0.04327251 -0.04938675 -0.012470674
000050 99 86 09 bd bf 80 91 3c a5 c5 ea bd 11 cb 51 3d
       -0.033575628 0.017761586 -0.11463479 0.05121905
000060 1f 51 a2 bb f4 0d c1 bc cc f8 7a bd 22 c1 e0 bc
       -0.004953518 -0.023566224 -0.061272427 -0.027435843
000070 6f 18 72 bc 4b ca ab bb d5 32 0a 3d de ed 36 bc
       -0.014776333 -0.005242621 0.033739883 -0.01116511
000080 66 a1 28 bc 5d 94 99 bd b0 06 85 bd 7d 16 b3 3d
       -0.010292387 -0.07499001 -0.06495416 0.08744524
000090 2e bc 9e bd d2 8b b2 bd d8 5f 8c 3c b1 9b ae 3c
       -0.07750736 -0.08718075 0.017135546 0.021314474
0000a0 0c f1 90 3d 55 45 31 3d 8d 88 98 bd db 28 ac bb
       0.07077226 0.04327901 -0.0744792 -0.005253894
0000b0 f9 80 46 3d ff 62 e2 bd a2 3e 04 3c da 99 4d bd
       0.04846284 -0.11054038 0.008071573 -0.050195552
0000c0 33 ff 9d bd 8f 0f 94 3c 50 cd 40 bc 90 fe 92 bd
       -0.07714691 0.018073825 -0.0117677 -0.0717746
0000d0 ac 2a 0e bd dd bf 86 3c 9b 98 a9 3c c7 b4 69 3d
       -0.034708664 0.01644891 0.02070265 0.05705717
0000e0 75 fc 95 3d 9f aa 4d 3d e5 41 b3 bd 41 eb a6 3d
       0.07323543 0.050211545 -0.08752803 0.0815034
0000f0 61 e6 61 3d f2 8e 33 bd 53 43 3e bd 1a b7 0f 3c
       0.055151347 -0.043837495 -0.046450924 0.008771682
000100 b1 82 42 bd 64 a3 c5 bb 29 0e 11 3d 29 b3 49 3c
       -0.04748792 -0.0060314406 0.035413895 0.0123107815
000110 93 1d 8c 3d c8 47 74 bd 60 b7 25 bd 01 d9 e7 bc
       0.06841578 -0.05963877 -0.040458083 -0.028301718
000120 f3 56 4c bd d7 08 6d bd 96 44 1c 3d 97 e1 a6 3c
       -0.04988761 -0.05786976 0.038151346 0.020371241
000130 04 a6 97 bd 58 14 bc 3c e5 64 b0 bd 00 a1 0c 3d
       -0.07404712 0.02295892 -0.08612994 0.03433323
000140 08 bf 48 bd 36 c2 c4 bc a2 f0 bd 3d 46 6e aa bd
       -0.049010307 -0.024018388 0.09274413 -0.08321814
000150 cf 6c 7a bd 5c 53 f1 b9 d9 7b e5 bc 29 21 51 bd
       -0.061138924 -0.0004602921 -0.028013157 -0.051057015
000160 dd 1d 55 bd 27 fa 64 bd 04 1d 97 3d 75 73 df 3c
       -0.052030433 -0.055902626 0.07378581 0.027276734
000170 ea 34 88 3d 5d 88 b4 3c 0f ff 15 bd d5 2b 83 bd
       0.066507176 0.02203768 -0.036620196 -0.06404845
000180 cb 37 b6 3d 9f c7 9d 3c c5 aa 33 bd c9 30 23 bd
       0.088973604 0.019260226 -0.04386403 -0.039841447
000190 b5 e3 8e 3d b0 66 52 3c 0e d1 3a bd 7d 8a a5 3d
       0.069770254 0.012841865 -0.045609526 0.08083055
0001a0 69 f1 aa 3d 58 9a d1 bc d6 38 2b 3d 46 94 a6 3d
       0.083468266 -0.025586292 0.04180225 0.0813375
0001b0 f4 f9 3b 3c 80 a1 92 bd df 01 4f bc 67 d9 f8 3c
       0.011473168 -0.0715971 -0.012634723 0.030377103
0001c0 5a 89 b8 bc 3e 70 25 3c 02 d9 0c 3d e4 6c 32 3b
       -0.022526432 0.010097561 0.034386642 0.0027225548
0001d0 ae d6 58 bd 17 2e 31 bd 3b 3e d8 3d d8 a9 b1 3c
       -0.05293911 -0.043256845 0.105587445 0.021687433
0001e0 c6 1c b3 3d 1f 22 90 3d e1 8b 8a bc 27 c8 da bc
       0.087457225 0.07037758 -0.016912403 -0.026706768
0001f0 ec a8 3e bd e3 26 2d bd f1 69 a3 3d 4c 67 e3 3c
       -0.046547815 -0.042273413 0.07979191 0.027759217
000200 6a 4b 65 3e f5 21 7d bd 35 b3 c2 bd 54 e5 5a bd
       0.2239205 -0.061799962 -0.09506837 -0.05344136
000210 04 16 37 3d 16 b7 f8 bc 5a 02 74 bd c5 a5 8a bd
       0.04469873 -0.03036074 -0.059572555 -0.06769899
000220 16 d0 50 3d 9e 27 d4 3c 5d b9 bd 3b f0 15 95 bc
       0.050979696 0.025897797 0.0057899193 -0.018198937
000230 dc 48 49 3b 76 19 32 3d ce fc d8 bd cd be 19 3d
       0.0030713594 0.043481313 -0.10595094 0.037535477
000240 b0 13 02 3b e8 fb 8a bd b1 6f 14 bd 0c 01 93 3d
       0.001984816 -0.067863286 -0.03623933 0.07177934
000250 b3 8f b2 3d 50 96 15 bd 8f 54 ce ba a4 09 7a bd
       0.08718815 -0.036520302 -0.0015741753 -0.06104435
000260 40 46 66 3d e0 b4 80 3d 94 34 89 3b fa ca 89 3c
       0.05621934 0.06284499 0.004187176 0.01682042
000270 94 90 0f 3d b5 91 35 bd 0a 8e 5c 3d 9e 81 18 be
       0.03504999 -0.04432841 0.053846397 -0.14893195
000280 80 c5 f4 bd d7 0b b7 3c 8d c2 53 bc e2 83 43 bd
       -0.11951733 0.022344513 -0.0129248025 -0.047733195
000290 5a cc 48 3e 3f 7d 1b be 8d 04 c2 bd e9 bd c8 3d
       0.19609204 -0.15184496 -0.09473524 0.098018475
0002a0 20 38 aa 3d 34 54 cf 3d a2 68 fa bc 6c 95 5c bc
       0.08311486 0.10123482 -0.030567471 -0.013463359
0002b0 a3 e3 97 bd 9b c8 1c be de 3e 3f bd 36 5b 96 3d
       -0.07416465 -0.153109 -0.046690814 0.07341616
0002c0 12 69 fc bc 92 e8 eb 3d fd 6e d6 bd cf ec 9b 3d
       -0.03081182 0.11518969 -0.10470388 0.07613527
0002d0 d4 16 9e bc 86 72 29 be dc 2f 95 bd 53 6f e3 bc
       -0.019297995 -0.16547593 -0.07284519 -0.027763044
0002e0 ec e7 2b 3d 97 a4 36 be e9 7c e8 3d 31 b5 9e 3c
       0.041969225 -0.17836224 0.1135195 0.019373508
0002f0 64 83 63 3b 0c 13 8b 3d 45 7c 19 bd 7a c8 a2 bd
       0.0034715766 0.06790742 -0.03747203 -0.07948394
000300 73 12 60 bd 2c 0d f2 3c 10 a1 ac 3c 6d dd f8 3c
       -0.054705095 0.029547296 0.021072894 0.030379022
000310 23 3b de 3d 3e 22 91 bd 7c dc 96 bd a9 f3 00 bd
       0.10851123 -0.07086609 -0.07366273 -0.031482372
000320 95 81 19 be e5 87 82 3c e2 5c 0c bc 86 55 cc 3d
       -0.14990838 0.01593394 -0.008567067 0.0997725
000330 36 3c 2b bc 44 e5 5c 3d 19 b8 f0 bc f1 93 21 bd
       -0.010451367 0.053929582 -0.02938466 -0.03944773
000340 13 52 ad 3d ec a9 8d 3d 79 b8 2c bd b2 f6 87 bd
       0.0846292 0.06917176 -0.042168114 -0.0663885
000350 a6 ce b2 3d 85 90 3c 3d 05 d3 31 3d fe 6d 95 3d
       0.08730821 0.046036262 0.043414135 0.0729637
000360 b1 8e e0 3b 3f 95 e5 3b bb db 91 bd 3a 8d e0 bd
       0.0068529476 0.007006317 -0.071219884 -0.10964437
000370 b1 34 c8 3d c7 fc 54 3b 46 d6 d4 bc 23 88 11 bd
       0.09775675 0.00324993 -0.02598108 -0.03553022
000380 a0 eb b8 bb c9 d4 92 3d 63 e7 69 bd dd 72 85 3c
       -0.005643323 0.07169492 -0.057105433 0.016290123
000390 89 d9 b2 bd 98 8a 89 bd 27 8d f8 3c a6 11 3e bc
       -0.08732898 -0.06715888 0.030340744 -0.011600887
0003a0 81 46 de bd 52 c7 d8 bd 85 ae 8a bd a7 38 75 3e
       -0.10853291 -0.10584892 -0.06771568 0.23947392
0003b0 fe fb a2 bd 76 7b 21 3d 75 7b 14 bd 8d 40 39 3d
       -0.0795822 0.039424382 -0.03625055 0.045227576
0003c0 ba 0c 82 bd 4b c5 37 bd 62 db 68 3d eb 16 14 3d
       -0.06350084 -0.044865888 0.056849845 0.03615467
0003d0 13 a3 5b bb 93 8c b3 3d 6f f8 92 bb e3 54 c6 3d
       -0.0033513948 0.08767047 -0.004485182 0.096841596
0003e0 57 c4 79 bd e5 bd 97 bd f8 8f a4 3d 50 09 a7 bc
       -0.06097826 -0.074092664 0.08035272 -0.020390183
0003f0 8f b4 28 be 6f 7d cf 3c 6a 1c fd 3c e3 a0 2d 3d
       -0.16475128 0.025328366 0.030897338 0.04238976

core.core.fc.0.0.bias f4 [128]
000000 35 07 a2 3d d1 8c 8f 3d c5 40 e3 3c 60 f2 03 3d
       0.07911531 0.070092805 0.027740845 0.03221357
000010 13 8e 05 3c 7e 4c e4 3d d6 6d 43 3b 72 e3 19 3d
       0.008151549 0.11147402 0.0029820106 0.037570424
000020 75 a3 83 bd 17 53 cc bb 86 41 c3 3d a8 08 04 be
       -0.06427661 -0.006235491 0.09533982 -0.12893927
000030 f8 dc 96 bd 29 a8 8b bc d7 db bc bd c2 d6 79 3d
       -0.07366365 -0.017047958 -0.092216186 0.060995825
000040 a9 83 01 bd e2 38 d5 bc 56 4b 9a 3c 52 87 39 bb
       -0.0316197 -0.0260281 0.018834751 -0.0028309417
000050 19 b6 e8 bb 75 1f 85 bc a8 03 70 3d a3 eb 42 3d
       -0.007101786 -0.016250351 0.058597237 0.047588002
000060 e0 71 11 bd 77 f4 90 bd 49 b7 6b 3c 1e e9 88 3d
       -0.03550899 -0.07077878 0.01438696 0.066850886
000070 3d 4d 01 bc d9 44 3a 3d c6 29 b1 3c 6a a1 90 3c
       -0.00789195 0.045475814 0.021626364 0.017655093
000080 b2 b5 1a 3d bf 93 59 3c 1a 7a 78 bd 37 ca 95 bd
       0.037770934 0.013279854 -0.06066332 -0.0731396
000090 ad 31 cb bc a0 03 bd bd 4a 13 07 be 3c 80 a6 bd
       -0.02480396 -0.09229207 -0.13190952 -0.081299275
0000a0 8a 1c d4 3d f6 15 a5 bd 4f f8 ed 3d 9f e6 0c 3d
       0.10357006 -0.08060829 0.11619627 0.034399625
0000b0 11 7b 41 bd a9 ac 9b 3b e9 34 82 3d d4 16 4a 3c
       -0.047236506 0.0047508073 0.06357748 0.012334544
0000c0 2e bd 30 bd e7 f9 06 3e 61 16 ca 3d 54 bb 3a bd
       -0.043149166 0.13181268 0.0986755 -0.045588806
0000d0 b0 56 9f bd 7e 27 b5 bd c1 d9 f5 bd 8d 98 a0 bd
       -0.07780206 -0.08845423 -0.12004424 -0.07841597
0000e0 ca 5d 64 bd ec 86 b1 3d d4 5c 10 3e ca 99 96 3d
       -0.055753507 0.086683124 0.14097911 0.07353552
0000f0 2d c8 04 3e d6 c3 27 3c a5 6d 3c bd 52 9b 81 bc
       0.12966986 0.010239562 -0.046003003 -0.015821133
000100 c7 3e 9c 3d b8 d1 9d 3c 70 d9 89 3c f5 d5 a6 3d
       0.07629161 0.01926504 0.016827315 0.08146278
000110 6e 26 85 3d b2 80 1e 3d 47 ea 65 3d af 87 18 3d
       0.065014705 0.038696952 0.056131627 0.037238773
000120 9a 6d a1 3d d4 12 a9 3d 37 1d 9b 3c 87 e2 c4 bd
       0.07882233 0.08255544 0.01893483 -0.09613519
000130 44 32 e7 3b 85 80 2d bd 77 57 88 3c 2b 01 16 3d
       0.0070555527 -0.042358894 0.016643269 0.036622208
000140 cc 60 2c bd 79 6c 9f bd 96 8f 27 3c 93 66 6c 3c
       -0.0420845 -0.077843614 0.010227105 0.0144287525
000150 6b 5b 12 bd 1e e0 96 bd f3 6f 25 bc 59 f8 91 bc
       -0.035731714 -0.07366966 -0.010097492 -0.017818617
000160 02 e6 04 3e 07 2d 4b 3d dc 2a 07 be 28 06 63 3d
       0.12978366 0.04960349 -0.13199943 0.055425793
000170 47 fd 30 bd 9b ea be 3d f1 bb 6f 3d a9 88 4f bc
       -0.043210294 0.09322091 0.058528844 -0.01266686
000180 74 fb e0 3b d5 a0 75 3d d5 c6 4c bc fc 09 c3 3c
       0.006865913 0.059967835 -0.012498577 0.023808472
000190 06 15 b5 bd 28 9a 82 3d b5 a9 88 bd 58 7a d4 3b
       -0.088419005 0.06377059 -0.06672994 0.006484311
0001a0 0e 8e 22 3d d0 cb b0 bc fa 1a 8b 3d 80 ed ed bc
       0.039686255 -0.02158156 0.06792255 -0.029043913
0001b0 97 9b fb bb 47 23 2c 3d 04 5d 7e bd 19 19 fc bc
       -0.00767846 0.04202583 -0.062100425 -0.030773686
0001c0 32 09 c5 bd f2 ee 87 bd e4 cb 9a bd 1e fd 5f 3d
       -0.096208945 -0.06637372 -0.0755842 0.05468475
0001d0 3f fe 98 bd 9e 58 12 3c c5 db ce 3b 7d 69 74 3d
       -0.074703686 0.008932261 0.0063128197 0.059670914
0001e0 e0 42 ea bd c4 12 b1 39 ed 67 4d 3d 9a 95 00 3d
       -0.11438537 0.00033774052 0.05014794 0.03139267
0001f0 27 3a 05 bc 31 0c 03 3d fc 6d a5 bd 69 fa 48 3d
       -0.00813154 0.03199405 -0.080776185 0.049066935

core.core.fc.1.0.weight f4 [128, 128]
000000 4b 16 98 bd f4 03 47 bd aa f0 09 be cf 83 49 be
       -0.07426127 -0.048587754 -0.13470712 -0.19679187
000010 b7 8e a7 bd 1e 26 f0 bd d6 c6 40 bd 3f ca 62 3d
       -0.081815176 -0.1172602 -0.047064625 0.05536866
000020 d9 fe 34 3c 72 3e 3e bd c0 95 04 be 49 15 be bd
       0.011047089 -0.04644627 -0.1294775 -0.092814036
000030 a7 98 1b be ab 9e 2b be 6d d3 89 bd 8d 19 11 3b
       -0.15194951 -0.16759746 -0.067297794 0.0022140474
000040 f4 8c 92 bd 98 a3 51 3c a3 02 a0 bd 80 7c c2 bd
       -0.07155791 0.012795351 -0.07813003 -0.09496403
000050 e3 de 86 bd 36 89 ea 3b d1 da 80 bd 4d a9 10 3d
       -0.06585481 0.00715747 -0.06291736 0.035317708
000060 0e 98 1c bd 87 58 bf bd 73 a3 b4 3c 68 bb 4d be
       -0.03823095 -0.09343057 0.022050595 -0.20091021
000070 00 88 f0 bd e7 7c 42 bd fa 16 1d bd 87 f4 0d 3b
       -0.1174469 -0.047482397 -0.03835199 0.0021660642
000080 17 d0 ee bd 13 37 0f be c4 58 be bd 9a e3 ae bd
       -0.11660784 -0.13985853 -0.092942744 -0.08539505
000090 68 e7 b3 bd a5 32 6e 3d 74 9f cd bc e2 ab 0c 3e
       -0.087843716 0.058153767 -0.025100447 0.13737443
0000a0 2a a1 01 be 77 8e a6 bd 64 34 16 be ad a8 9f bd
       -0.12659135 -0.08132642 -0.14668423 -0.07795844
0000b0 fb 6a 94 bd fb d5 e1 bd d5 bd c4 3c 92 08 8e bd
       -0.072469674 -0.11027142 0.0240163 -0.069352284
0000c0 2b 7d e4 bd 86 3c 53 bd c8 68 83 bd 50 32 89 3d
       -0.111566864 -0.05157139 -0.0641647 0.066990495
0000d0 db 82 b7 bc 66 d3 b5 bd bd 41 41 3c ea 42 27 bd
       -0.022401264 -0.08878212 0.011795458 -0.0408353
0000e0 23 36 5c bd e2 2c f0 bd 04 b2 e6 bd e2 a9 93 bd
       -0.053762566 -0.11727311 -0.112644225 -0.07210137
0000f0 86 82 e4 bd 02 2a 76 3c e4 c9 98 bd b7 bc 53 bd
       -0.11157708 0.015024664 -0.074603826 -0.051693644
000100 7b 0f b9 3d d9 c6 85 bd f7 7d ac 3a e9 a3 f4 bc
       0.09036156 -0.06532068 0.0013160099 -0.029863315
000110 88 ff 63 bc ae 11 f1 3d 3c 2f 57 bd e1 54 bf bd
       -0.013915904 0.1177095 -0.05253528 -0.09342361
000120 1a 30 5d bd dc f1 57 3c 7d 9b 17 3d ac b8 10 3e
       -0.05400095 0.013180222 0.03701352 0.14132947
000130 f5 13 de 3c ce ff 11 be 5f 8c 57 bb b6 82 32 be
       0.027109126 -0.14257738 -0.0032890064 -0.17432675
000140 d8 f5 ba bd 11 5a 56 3c 7b 4f 3b bd fc f8 03 be
       -0.09128922 0.013082997 -0.045730095 -0.12887949
000150 4e 8a d8 bc 0f 8f 72 bd 68 47 d5 bc 99 17 0a be
       -0.026433136 -0.059218463 -0.026035026 -0.13485564
000160 4c 7b fc bd c0 42 79 bd e7 44 bf 3c 82 5b b8 bd
       -0.123282045 -0.060854673 0.023348285 -0.09001829
000170 f6 9b 53 bc 5a d9 7f bd e0 32 05 be cb a7 32 bd
       -0.012915602 -0.062463142 -0.13007689 -0.04361705
000180 94 d4 22 bc eb 7f cb bb a9 f3 b3 bd 54 0e 00 be
       -0.009938378 -0.0062103174 -0.08786709 -0.12505466
000190 d4 51 5c 3d 4e 60 c8 bd 3f 04 82 bd cf 0f 8c bd
       0.053788975 -0.09783994 -0.06348466 -0.06838953
0001a0 40 26 f6 bd 10 92 5b bd c0 d8 fe bd af ed 0a be
       -0.12019014 -0.053606093 -0.124436855 -0.13567232
0001b0 19 c3 60 bd 5c d8 6d bc 1c 81 16 be 90 bb 0a 3c
       -0.05487356 -0.014516916 -0.14697689 0.00846757
0001c0 ba 3b 35 be 42 3a 09 3d 4a e6 fc 3c a0 42 c0 bd
       -0.17698565 0.033502825 0.03087153 -0.09387708
0001d0 ef a6 ab 3c 0f 30 7b bd f9 4e 28 bd 41 19 ff bc
       0.020953624 -0.06132513 -0.04109094 -0.031139972
0001e0 7a de 11 3d 95 fe 0e 3b d0 eb 96 bd 3a 33 0d 3d
       0.03561256 0.0021819223 -0.073691964 0.03447268
0001f0 ae eb e5 bd 16 4d 0c be 10 0a d5 bd 8f 59 16 be
       -0.11226593 -0.13701281 -0.1040231 -0.14682601
000200 7e f5 3b 3c 1b bf be bd 4c 4b 27 3c 26 61 43 bd
       0.011472104 -0.09313794 0.010210823 -0.04770007
000210 32 a5 1e bd 7e 1e 82 bd e1 bb 7f 3d d7 c6 8a 3c
       -0.03873176 -0.06353472 0.062435035 0.016940517
000220 69 6d e1 3d 0c 09 1c 3b d4 71 e0 bc eb 5a a2 3d
       0.110071965 0.0023809103 -0.027398027 0.079274975
000230 e7 f9 96 3d 3e 5d 96 3d 62 cb c2 3d 6d fe 80 3b
       0.07371884 0.07342003 0.095114484 0.00393658
000240 7f a5 33 bd e8 17 9e bc 45 c0 91 3d a7 d4 b5 3c
       -0.043859 -0.019298509 0.07116751 0.022196127
000250 68 9f de bc 73 83 54 bc 71 24 fb bc e9 e2 95 bd
       -0.02717562 -0.012970793 -0.030657025 -0.0731867
000260 b9 f8 91 bc 9c be d8 3d 3d 18 69 3d d8 04 14 bd
       -0.017818796 0.10583231 0.05690788 -0.03613743
000270 79 d0 b4 3d c3 43 82 bd 0e 06 2b bc d6 e8 51 bd
       0.088288255 -0.06360581 -0.010438455 -0.05124744
000280 e7 bb 02 3c bd 10 bb 3b 7d 26 83 bd 28 84 b8 bd
       0.00797937 0.0057087825 -0.064038254 -0.09009582
000290 60 a3 99 bd 37 7d 87 bb 9a 74 c7 bc 3d 71 e3 3c
       -0.075018644 -0.0041348 -0.024347592 0.027763957
0002a0 5a 46 f4 bd 68 6a 50 3b 6b 18 e7 3b 37 0b 1c bc
       -0.11927481 0.0031801704 0.0070524714 -0.009524158
0002b0 cc 83 62 3d 39 e2 6d 3d 1f 73 90 bd f9 9a db 3d
       0.055301473 0.05807707 -0.070532076 0.10722918
0002c0 ba d8 47 3d 58 e5 b9 bd 87 ca b7 3d ff 91 fb bd
       0.04879067 -0.09076947 0.08974176 -0.12283706
0002d0 62 0a 24 3d 3d da bb bb c3 a8 8a 3d 9d 2b 35 3d
       0.040048964 -0.005732803 0.0677047 0.044231046
0002e0 5c 05 8e 3d 8d 64 5a 3d b5 4e 25 bd 83 1a 33 bd
       0.06934616 0.05331855 -0.040358264 -0.043726455
0002f0 8a 1f c3 bd 5c 98 ac 3d 40 34 a5 3d 3a e4 ce 3d
       -0.095275 0.08427498 0.080666065 0.101021245
000300 02 74 97 bd 7f 2c f2 bc da c5 07 bd a3 99 25 bd
       -0.073951736 -0.029562233 -0.03314767 -0.040429723
000310 96 90 d5 bc 21 c3 0c 3d f8 97 83 bd d4 12 f1 bb
       -0.02606992 0.034365777 -0.0642547 -0.007356981
000320 4e ff 34 3d cc 09 9a 3d c7 ca 37 bd 3e 65 93 be
       0.04418879 0.075214 -0.044871118 -0.2878818
000330 8e 83 6c bd b2 a2 c8 3d 3c 62 47 bd 50 e2 b9 3c
       -0.057742648 0.09796657 -0.048677668 0.022690922
000340 ac 86 88 3d ad 19 92 3c e4 62 75 bd 1d 32 a0 bd
       0.066663116 0.017834509 -0.059908763 -0.07822058
000350 e8 65 77 3c 0d ab 06 bd cc a9 c7 3c c1 61 c8 3b
       0.01509998 -0.03287797 0.024372958 0.006115169
000360 e1 9a 03 be 3e 46 a3 bc e7 1b fe 3c 15 75 17 be
       -0.1285205 -0.019930955 0.031019164 -0.14790757
000370 e4 87 17 bc f7 4c 6d 3d 9c 71 a2 3d e2 a8 9d bc
       -0.009248707 0.057934728 0.079318255 -0.019245569
000380 09 e9 6d bd e8 1d 0e 3d 84 1f f6 bc 06 13 c6 bd
       -0.058083568 0.03469649 -0.030044325 -0.09671597
000390 97 7d ac bb 98 55 b0 bd cf 47 50 3d 4a ad b8 3d
       -0.005263995 -0.08610076 0.050849732 0.09017427
0003a0 c1 fc 3e bc 7d c8 ae 3d 03 28 c3 bc a2 e3 86 bc
       -0.011656941 0.08534334 -0.02382279 -0.016465966
0003b0 4a 7b 42 3d b9 85 58 bd b6 0c 9e 3c 5e 57 61 3d
       0.04748086 -0.052861903 0.01929317 0.05501496
0003c0 70 40 16 3d 8c 27 b3 3d a4 40 76 bc 86 38 f3 bc
       0.036682546 0.08747777 -0.01503006 -0.029690038
0003d0 33 f8 79 bd 78 94 d5 bd 4b 6c c9 3d ad 92 34 bd
       -0.061027717 -0.10428709 0.09835108 -0.044085193
0003e0 49 f7 82 bd b6 31 05 3c e2 b1 09 3e 26 7b 4a 3d
       -0.06394822 0.008129528 0.13446763 0.04943385
0003f0 e2 4a 7f 3d 88 ea 24 3d 85 96 1e bc b7 12 d7 3c
       0.062327273 0.04026273 -0.009679441 0.026254041
