artifacts/poses_to_location/20250818173139/best_model.pt (torch, 376885 bytes, 48 tensors)

embedding.embeddings.bex_20230623_denoised.poses.weight f4 [64, 63]
000000 4a 16 fe 32 23 bc 0d 34 cf 02 b3 b3 b5 61 1f b4
       2.9579628e-08 1.3200092e-07 -8.335848e-08 -1.4843575e-07
000010 84 8a 47 b2 89 07 3b b4 06 e1 f5 b3 4f 56 d8 b2
       -1.1614819e-08 -1.7418473e-07 -1.1449633e-07 -2.5184958e-08
000020 5e 18 d9 b2 02 3e b9 b3 9e 5c 3f b2 e7 73 77 32
       -2.5273206e-08 -8.626013e-08 -1.1138722e-08 1.4403645e-08
000030 51 cc 1f b4 3c 92 20 b2 cf e0 f6 b3 de 7b ac b3
       -1.4882359e-07 -9.346476e-09 -1.149616e-07 -8.0319055e-08
000040 3e 04 83 32 f4 cf 1f 32 1e 01 cc b2 d2 69 53 b4
       1.5252336e-08 9.302301e-09 -2.3749234e-08 -1.9689404e-07
000050 b5 49 80 34 02 d6 35 33 1e 08 c2 b2 a8 15 9c b0
       2.3895487e-07 4.2336985e-08 -2.2588264e-08 -1.1356649e-09
000060 1c 87 76 b2 4d b9 2c b3 de 94 55 b3 de 13 a6 33
       -1.4349805e-08 -4.02154e-08 -4.972832e-08 7.733591e-08
000070 c5 f5 8f 33 08 85 3c b4 ea 8c 8b 33 d1 e9 12 34
       6.7036616e-08 -1.7557261e-07 6.498324e-08 1.3682372e-07
000080 18 49 95 32 68 74 83 b3 36 1a 42 b3 e9 ee d3 b3
       1.7379122e-08 -6.121337e-08 -4.5192984e-08 -9.868911e-08
000090 83 f5 4d 34 39 f8 0b b3 a8 71 7c b1 8d 22 13 33
       1.918143e-07 -3.2589217e-08 -3.6735432e-09 3.425753e-08
0000a0 a3 36 7a 34 cd 71 02 b4 5c 43 49 b3 e0 a2 64 34
       2.3302941e-07 -1.2148594e-07 -4.6860222e-08 2.1293408e-07
0000b0 ce 0b c0 b3 a0 a4 54 b1 12 b6 3c b3 ff 63 7c b3
       -8.942844e-08 -3.0943639e-09 -4.3937753e-08 -5.8764268e-08
0000c0 e9 95 48 b4 13 94 6c 34 a8 1d cd b1 e0 ee f8 b3
       -1.8680988e-07 2.2033082e-07 -5.9696568e-09 -1.1591851e-07
0000d0 6e 66 6d 34 e8 b2 3b b4 06 2c 75 32 93 72 27 b4
       2.2109609e-07 -1.7480818e-07 1.4270887e-08 -1.5594769e-07
0000e0 8a 15 2a 34 5e 33 a6 b3 12 c0 97 32 f2 6b e1 33
       1.584032e-07 -7.739321e-08 1.7666057e-08 1.0497014e-07
0000f0 68 b0 1c b4 cd e3 53 34 22 08 0f b4 d0 2b a2 32
       -1.4592808e-07 1.973378e-07 -1.3320872e-07 1.8879206e-08
000100 8b 56 40 33 f2 62 37 34 30 0b 30 b1 20 40 16 b4
       4.4782194e-08 1.7079199e-07 -2.561773e-09 -1.3993167e-07
000110 52 d5 d9 33 87 fe 2c b3 fa 38 1a b4 b1 bb 1b 34
       1.0143653e-07 -4.0278362e-08 -1.4363096e-07 1.4503782e-07
000120 22 39 e0 b2 c1 50 79 34 07 76 f6 32 20 d4 a1 2f
       -2.6103013e-08 2.321931e-07 2.8691842e-08 2.9436453e-10
000130 99 40 80 33 4c 0b 66 32 33 8d 3c 34 14 e3 66 b2
       5.972215e-08 1.3390331e-08 1.7560232e-07 -1.3439394e-08
000140 68 88 06 33 9c 4f 24 34 ab ed b8 31 a1 4b bb 32
       3.1323367e-08 1.5302652e-07 5.3821245e-09 2.1804057e-08
000150 a3 9f dc 33 6a bb 62 b4 36 78 06 b3 f0 57 7a 33
       1.0273586e-07 -2.1116071e-07 -3.1308637e-08 5.828764e-08
000160 12 78 8c b3 25 78 03 b4 11 20 9f b2 21 8b 00 b4
       -6.541099e-08 -1.2244034e-07 -1.8524618e-08 -1.1971544e-07
000170 58 80 ae b3 ae 18 a0 33 26 05 b1 b2 63 f7 20 b3
       -8.125852e-08 7.45507e-08 -2.0607853e-08 -3.74779e-08
000180 11 f8 ff 33 1e 5c 18 32 8c 6d e6 33 21 44 50 b4
       1.1919486e-07 8.8685095e-09 1.0730136e-07 -1.9396295e-07
000190 f4 bd 4c 31 90 32 29 b4 a4 2a b7 33 a1 f9 29 34
       2.9793883e-09 -1.5757746e-07 8.529358e-08 1.5830166e-07
0001a0 b2 36 59 34 f0 f6 70 32 4a fe 50 b4 5a 74 1e b4
       2.0229598e-07 1.4025986e-08 -1.946402e-07 -1.4757225e-07
0001b0 1d 55 f4 b2 3c 08 7f b2 86 ba 82 b3 c6 0f c7 32
       -2.8444044e-08 -1.4844826e-08 -6.087525e-08 2.3173822e-08
0001c0 a8 c9 ab 32 ef 91 28 b4 3c f3 f9 32 ad 35 bb 33
       1.9998723e-08 -1.569931e-07 2.9098025e-08 8.7176296e-08
0001d0 a2 26 a5 32 6a c9 8d b3 28 13 29 33 b7 e7 2f 34
       1.9226096e-08 -6.602461e-08 3.93658e-08 1.6382442e-07
0001e0 1a 50 5c b4 ec 34 02 34 82 58 85 b4 9a 2c 80 b2
       -2.0518237e-07 1.2126446e-07 -2.4837578e-07 -1.4921444e-08
0001f0 b6 37 62 34 f5 5b 39 34 38 c4 cf b1 2a b2 94 b3
       2.1068158e-07 1.7262921e-07 -6.0468004e-09 -6.924195e-08
000200 03 c6 26 32 b0 c7 f6 b1 ef 3b 92 32 f2 de 10 32
       9.707494e-09 -7.182244e-09 1.7023892e-08 8.432595e-09
000210 50 dc fd b0 58 08 e8 33 8e 7e 1a 34 5c 0b 83 b1
       -1.8470789e-09 1.08048596e-07 1.4388408e-07 -3.813893e-09
000220 ae 20 2a 34 e0 03 e8 2f b7 75 2a b4 de 92 7d b2
       1.5844373e-07 4.2203308e-10 -1.5875308e-07 -1.4759932e-08
000230 d7 97 bc b3 c4 2a 20 b3 56 a3 4f b4 71 ff 0a 34
       -8.782052e-08 -3.7291798e-08 -1.9337799e-07 1.294518e-07
000240 46 a1 c7 33 80 72 71 b3 79 86 0e 34 5f 2c 2d b3
       9.295995e-08 -5.6216322e-08 1.3273701e-07 -4.0320057e-08
000250 f2 2b 2c 34 f3 f4 8a 33 60 d0 0b b0 95 06 ce b3
       1.6034735e-07 6.470682e-08 -5.0864024e-10 -9.59382e-08
000260 3b 2d 2f 33 e8 77 94 33 2f 5d e0 b3 85 9b 52 b3
       4.07865e-08 6.913598e-08 -1.0447763e-07 -4.903588e-08
000270 e6 f7 29 b4 08 18 6c 34 56 69 cc 33 d6 54 13 b3
       -1.5829536e-07 2.1987955e-07 9.518651e-08 -3.4303262e-08
000280 da e3 fe b3 e6 fe c0 33 f8 69 44 32 8a dd f9 31
       -1.1869243e-07 8.9870625e-08 1.1432796e-08 7.27204e-09
000290 0c fe 59 b2 05 52 74 33 b0 c4 bc 31 9e 22 d2 33
       -1.2688826e-08 5.6885273e-08 5.493881e-09 9.785184e-08
0002a0 d1 dd cf b3 e6 cd d4 b2 c8 2c fa 32 bf 2a 4e 33
       -9.679537e-08 -2.477368e-08 2.9124195e-08 4.800199e-08
0002b0 aa 46 88 33 88 86 03 32 98 7a 2e b2 95 a5 96 33
       6.345847e-08 7.6557924e-09 -1.0156008e-08 7.0150385e-08
0002c0 80 0a 36 b2 b1 6b 76 b3 14 4c 92 b3 97 5a 4e b3
       -1.0596182e-08 -5.7374283e-08 -6.812493e-08 -4.8045504e-08
0002d0 c6 67 7f 34 f7 94 a5 b3 01 6f 04 b3 db 5b 4a b4
       2.3786478e-07 -7.710508e-08 -3.0834602e-08 -1.8846133e-07
0002e0 1c f2 c2 31 b8 71 d0 b1 ed b3 09 34 4a 42 19 34
       5.6736678e-09 -6.066525e-09 1.2824576e-07 1.4273351e-07
0002f0 5c cb 30 32 71 af 00 33 22 a8 0b b4 74 4c 15 32
       1.0290787e-08 2.9961885e-08 -1.300655e-07 8.690325e-09
000300 32 4e ac 33 7b 11 13 32 c0 eb e5 2f 20 33 66 b4
       8.023598e-08 8.560501e-09 4.1822368e-10 -2.1439018e-07
000310 49 e0 1a b3 39 e5 31 b4 99 c6 6b b2 4c dd 1b b2
       -3.6059905e-08 -1.65678e-07 -1.3723956e-08 -9.0725045e-09
000320 ea 6d b7 33 cc ed 39 33 b9 c2 5d b3 cd 8d 2d b3
       8.541595e-08 4.3289944e-08 -5.163267e-08 -4.040867e-08
000330 fb 8c d3 b3 30 0d 53 34 31 c4 6e 34 78 b5 ac 31
       -9.8510974e-08 1.9655704e-07 2.2236851e-07 5.0264894e-09
000340 53 5d 29 b3 69 3c 21 34 48 b3 7a b2 1f 04 6f 34
       -3.9433257e-08 1.501627e-07 -1.4592679e-08 2.2260109e-07
000350 ce 21 97 b3 42 db 88 b2 7e 77 33 34 4d 86 43 b3
       -7.0376345e-08 -1.593219e-08 1.6714145e-07 -4.552412e-08
000360 17 73 b3 32 f3 53 ee b3 ba be 72 b3 94 cf 05 b4
       2.089068e-08 -1.1098009e-07 -5.651848e-08 -1.2462107e-07
000370 dc 6d ed 33 62 07 88 33 df b4 14 34 29 fd f6 b3
       1.1056156e-07 6.3343364e-08 1.3849375e-07 -1.1501317e-07
000380 8d f9 95 33 7e d9 c2 b3 14 83 c8 33 09 ef ff 33
       6.983746e-08 -9.0733906e-08 9.337069e-08 1.1917843e-07
000390 84 8f 2b b3 fe eb d6 b2 3e a1 5a 34 5e ac 0c 34
       -3.9944567e-08 -2.5020196e-08 2.0361492e-07 1.3101223e-07
0003a0 0f 26 34 33 bb f8 38 33 62 c7 fc 32 d8 6f 27 b2
       4.194413e-08 4.3067057e-08 2.942733e-08 -9.74611e-09
0003b0 df 36 6c 34 2f 3a 92 b3 0a 09 6e 32 ed 15 a1 33
       2.1999175e-07 -6.809238e-08 1.38554785e-08 7.501135e-08
0003c0 98 08 81 33 a8 34 d4 b2 c8 3e 8d 33 54 90 81 34
       6.008594e-08 -2.4703994e-08 6.577244e-08 2.4133135e-07
0003d0 52 6f 6d 34 31 69 6d b4 2e 69 d4 b3 ec a1 a8 b3
       2.2112843e-07 -2.2110613e-07 -9.8911514e-08 -7.852563e-08
0003e0 08 fe 82 b1 3e a3 1d b4 80 a2 e0 32 9e 57 36 34
       -3.812378e-09 -1.4681152e-07 2.6150929e-08 1.6981946e-07
0003f0 26 a7 88 b1 08 ec 80 33 10 bd d0 31 54 84 59 34
       -3.9771235e-09 6.003398e-08 6.0750907e-09 2.025784e-07

embedding.embeddings.bex_20230623_denoised.poses.bias f4 [64]
000000 9e 42 a1 b2 ff 43 01 b4 36 cb 41 32 87 cd 2c 34
       -1.877316e-08 -1.2038798e-07 1.1280283e-08 1.6093519e-07
000010 49 88 ac b2 2f 33 2c b4 8c 5c c5 32 20 1b b2 30
       -2.008541e-08 -1.6037369e-07 2.2975904e-08 1.2958914e-09
000020 90 c1 4b b2 d1 bf 14 b4 e0 32 f9 32 6a a3 a1 b2
       -1.1860166e-08 -1.3853357e-07 2.901055e-08 -1.8817179e-08
000030 f5 2d 2f b4 51 1e 75 33 80 93 e0 b0 ea 24 79 33
       -1.6314864e-07 5.707108e-08 -1.6340067e-09 5.8008403e-08
000040 a0 d2 76 34 30 77 cb b3 68 1f ac b3 e0 50 01 b0
       2.298716e-07 -9.474604e-08 -8.015087e-08 -4.7044857e-10
000050 1a 91 a9 31 5c a2 0f b4 88 17 6c 34 74 87 32 34
       4.9350435e-09 -1.3376979e-07 2.1987773e-07 1.662682e-07
000060 90 0d 15 33 6e 08 0f 32 69 66 0d 34 94 a0 97 b3
       3.47041e-08 8.325612e-09 1.3168905e-07 -7.0606944e-08
000070 7c db 33 34 5d f8 8c 34 24 fc d4 b2 6c a7 97 b3
       1.6750522e-07 2.625774e-07 -2.4794709e-08 -7.061939e-08
000080 04 3d 8a 34 4c 79 1e 32 9c c7 03 b2 ac 6c 82 33
       2.5748898e-07 9.22439e-09 -7.6705895e-09 6.073364e-08
000090 ef 6f a7 33 80 c2 0a b4 00 bc 56 31 84 c4 89 b3
       7.796904e-08 -1.292301e-07 3.1247964e-09 -6.4153056e-08
0000a0 62 00 39 33 f1 bd da b3 c7 d9 45 b4 38 53 a8 33
       4.3074017e-08 -1.0185966e-07 -1.8426282e-07 7.838247e-08
0000b0 f2 36 0a b3 1c 4c 6d 33 ea 49 c7 32 43 b2 02 34
       -3.21806e-08 5.5250084e-08 2.3200261e-08 1.2172045e-07
0000c0 c1 a2 f6 b2 6e 4e 33 33 f6 45 a0 33 68 4d b0 31
       -2.8712181e-08 4.1748017e-08 7.4633064e-08 5.1310742e-09
0000d0 91 1b 35 34 5e af 32 b4 78 13 f1 b3 a0 53 da b0
       1.6866967e-07 -1.664134e-07 -1.12259784e-07 -1.5885355e-09
0000e0 62 ae db b3 f0 2c 33 34 fd de 7e b3 3f 5d 4c b4
       -1.0229702e-07 1.6687022e-07 -5.934179e-08 -1.9032903e-07
0000f0 bd 80 03 34 ad b2 02 34 58 39 1f 34 66 96 f4 b3
       1.224716e-07 1.2172195e-07 1.482889e-07 -1.1389493e-07

embedding.embeddings.ken_20230614_denoised.poses.weight f4 [64, 63]
000000 10 c7 fe b1 82 da 82 32 2e ad 84 32 b7 08 6d b1
       -7.4150037e-09 1.5233358e-08 1.5445575e-08 -3.4492993e-09
000010 57 32 bd 30 43 18 03 b1 f8 42 d8 31 6a be cf 31
       1.3765867e-09 -1.90768e-09 6.294041e-09 6.0461405e-09
000020 44 9d 1e 32 2f c8 3a b2 ab 70 15 32 55 50 3e 32
       9.2325685e-09 -1.0872141e-08 8.698559e-09 1.1077721e-08
000030 92 dd 89 b0 60 ef 06 30 80 ad 9e b2 e2 5f 79 30
       -1.0031036e-09 4.908909e-10 -1.847252e-08 9.072193e-10
000040 ef 65 84 b2 50 f1 0f 32 61 1a 37 b2 cc ba 4d b2
       -1.5413177e-08 8.378564e-09 -1.0658e-08 -1.1975043e-08
000050 cb 83 19 b2 f9 f6 45 b1 ac 9d 19 b2 00 34 fe 2e
       -8.935738e-09 -2.880766e-09 -8.9416226e-09 1.155982e-10
000060 a7 2b 09 b1 14 2c 05 af 3a cf c2 b0 33 7d 84 32
       -1.9960937e-09 -1.2111939e-10 -1.4174255e-09 1.5423756e-08
000070 25 2a 75 b1 22 c1 0f b2 9e 28 20 32 ea 7b 74 b0
       -3.5676149e-09 -8.367609e-09 9.322461e-09 -8.8942775e-10
000080 91 64 65 32 cc 9d d1 2f a4 dd 6b 30 70 55 d8 b1
       1.33524205e-08 3.8129e-10 8.580747e-10 -6.2961405e-09
000090 a8 e9 54 30 d6 4d dc b1 3f 53 0f b1 5f cb 49 30
       7.7457196e-10 -6.4116916e-09 -2.0856559e-09 7.341238e-10
0000a0 a0 e0 1d 32 68 99 7b 31 aa 1e 9d b1 ff b0 06 32
       9.189677e-09 3.6612509e-09 -4.5727875e-09 7.840071e-09
0000b0 c4 c4 3e b0 7d 49 b3 31 ac 35 99 32 00 75 c7 30
       -6.940122e-10 5.2179403e-09 1.7835951e-08 1.4512409e-09
0000c0 75 45 eb 30 78 b2 a0 b0 5c cd 88 31 0b 07 a7 32
       1.7118241e-09 -1.1692256e-09 3.9814676e-09 1.9444562e-08
0000d0 25 38 49 b0 60 4d d0 31 8e bf 9d 32 0e 54 b7 31
       -7.320316e-10 6.0623933e-09 1.8364315e-08 5.335557e-09
0000e0 98 e1 3c 31 da c9 aa b1 36 a2 f2 b0 bc dc 2a b0
       2.7485836e-09 -4.970599e-09 -1.765392e-09 -6.215932e-10
0000f0 cd 31 14 b1 d0 89 25 b1 90 b3 c0 b0 3c c7 91 31
       -2.1565143e-09 -2.4088997e-09 -1.4020873e-09 4.2427057e-09
000100 7c d3 b5 b0 7b b5 4a 32 fc 13 fe b1 83 13 f6 b1
       -1.3229591e-09 1.1799211e-08 -7.394645e-09 -7.1617605e-09
000110 e8 46 a2 30 72 14 ac b0 78 01 51 b1 db 4c 17 32
       1.1807204e-09 -1.2520458e-09 -3.0414338e-09 8.806832e-09
000120 66 f8 36 32 f7 5c 11 32 08 e8 d5 30 74 0f f9 30
       1.06502736e-08 8.461249e-09 1.5563737e-09 1.8121527e-09
000130 f8 55 c2 31 21 1b a0 b2 dc da 8b 30 64 0d c9 31
       5.6559166e-09 -1.8638788e-08 1.0175785e-09 5.8513923e-09
000140 1a f9 fd 30 9c 5c 90 b0 d8 4f 99 af 27 87 82 b2
       1.8478972e-09 -1.05037e-09 -2.788727e-10 -1.5195452e-08
000150 ee f1 a0 b1 17 fc 4f b0 69 df 29 b2 66 d6 f3 30
       -4.684117e-09 -7.56644e-10 -9.887892e-09 1.7741513e-09
000160 a8 bf 22 32 14 9c 19 32 cc d7 be b1 94 51 ec 30
       9.473219e-09 8.94126e-09 -5.554261e-09 1.7194446e-09
000170 dc 6a d9 31 2f 82 12 b1 82 f2 7c b1 92 78 15 b1
       6.3276797e-09 -2.1319797e-09 -3.6808676e-09 -2.175089e-09
000180 78 30 33 b2 57 17 96 32 e7 03 e5 31 ec c0 74 30
       -1.0430192e-08 1.7472912e-08 6.665221e-09 8.904084e-10
000190 aa 13 87 30 e4 56 a1 31 30 96 60 b0 aa 0e bb b1
       9.828132e-10 4.695595e-09 -8.1704155e-10 -5.4440834e-09
0001a0 2e 52 30 31 17 25 15 b0 81 2d 2f 31 40 50 05 b1
       2.5658085e-09 -5.425859e-10 2.5491718e-09 -1.9399664e-09
0001b0 20 5f b7 31 2b 93 40 b0 ff 6b ad b0 16 06 f0 b1
       5.3368154e-09 -7.005833e-10 -1.2618101e-09 -6.985611e-09
0001c0 68 18 47 b2 90 31 7c 31 a1 47 51 31 e3 f9 f7 b1
       -1.1588874e-08 3.6699e-09 3.045422e-09 -7.217055e-09
0001d0 44 90 ba b1 98 eb df 2f 52 0b 7b 31 02 80 6e 31
       -5.4297136e-09 4.0730863e-10 3.6531742e-09 3.4706322e-09
0001e0 05 c1 a1 31 7c 8f 25 32 e4 21 8f 31 e2 d0 04 30
       4.7076605e-09 9.636889e-09 4.1657007e-09 4.831816e-10
0001f0 fe ca 52 b2 35 f5 82 31 49 2e 86 32 92 36 97 b1
       -1.2269764e-08 3.8113748e-09 1.5620701e-08 -4.4008823e-09
000200 75 ff f0 b1 8a e3 7b 32 95 fa 56 b1 f9 27 49 32
       -7.0139614e-09 1.4661859e-08 -3.1283538e-09 1.1708829e-08
000210 dc b9 3f 31 54 25 37 b1 26 0d 7c b2 a3 ae 09 32
       2.7899807e-09 -2.6651223e-09 -1.467132e-08 8.014157e-09
000220 45 43 21 b2 35 dc ee b1 46 aa 89 b2 ba 02 2c 31
       -9.386729e-09 -6.9517463e-09 -1.602633e-08 2.5030844e-09
000230 d2 7d 2b b2 b2 b3 e9 b0 69 32 0f b1 14 f4 00 b2
       -9.982118e-09 -1.7004054e-09 -2.0837894e-09 -7.5060775e-09
000240 fb f5 6c 31 00 f8 2b 2d 84 32 ad 31 79 41 a4 31
       3.4482344e-09 9.775292e-12 5.0407056e-09 4.7804716e-09
000250 43 0f a8 32 a1 e9 62 31 49 fe 3b b2 1e f2 a0 32
       1.9564714e-08 3.302013e-09 -1.094265e-08 1.8736554e-08
000260 44 94 80 b0 e6 0e 2f 32 1e 6c 2d b2 8c e6 39 b1
       -9.355365e-10 1.0189728e-08 -1.0094508e-08 -2.7052094e-09
000270 2e ba f0 b0 00 d7 b3 ad ea 66 0a b2 6e 63 6b 31
       -1.7515214e-09 -2.0445423e-11 -8.056057e-09 3.425352e-09
000280 39 47 9d 31 62 55 89 31 66 de b1 b0 42 e2 10 b0
       4.5773985e-09 3.9969317e-09 -1.2941654e-09 -5.2708427e-10
000290 e7 5a 3a b2 da 80 a0 b0 50 14 5d 31 0c 4d a1 31
       -1.0847294e-08 -1.1678154e-09 3.217128e-09 4.694476e-09
0002a0 f4 3b 4a b2 47 72 2a 32 8a d0 87 b1 c1 47 e3 b1
       -1.1771579e-08 9.921286e-09 -3.9527253e-09 -6.614727e-09
0002b0 a5 38 39 32 51 03 31 b1 4e 5e 80 b1 cd ee 9f b2
       1.0781297e-08 -2.5758775e-09 -3.7360115e-09 -1.861863e-08
0002c0 94 69 70 30 15 c4 10 32 5a b6 d4 30 5f 1e f0 31
       8.7461527e-10 8.426487e-09 1.5476858e-09 6.988372e-09
0002d0 59 21 b9 b1 6a 6e 02 32 40 5b 30 2f a1 8f 95 b1
       -5.388e-09 7.592101e-09 1.6039525e-10 -4.3527995e-09
0002e0 70 79 e7 b1 8a fc 94 31 2c 86 06 b1 fe c6 01 32
       -6.7367907e-09 4.3360773e-09 -1.9575834e-09 7.554034e-09
0002f0 30 aa ba b1 28 5a 48 b2 e0 89 18 32 e4 80 68 b2
       -5.4326605e-09 -1.1662031e-08 8.878914e-09 -1.3533484e-08
000300 48 ae 3b af 14 eb b6 31 be 5b 83 af cc 9b 8b 32
       -1.7069468e-10 5.3236224e-09 -2.3893948e-10 1.6252578e-08
000310 be f8 1e 32 4c 59 4b b0 70 2d ec 31 05 0e e1 31
       9.253368e-09 -7.397787e-10 6.8736696e-09 6.5499557e-09
000320 ac ff 64 31 bf f6 9f b2 9a 72 01 b0 5f c8 8e 31
       3.33237e-09 -1.8622243e-08 -4.7092785e-10 4.1555235e-09
000330 66 87 db 30 80 67 4d b1 1f d2 2e 31 f5 c7 43 b2
       1.597283e-09 -2.989026e-09 2.5439773e-09 -1.1395959e-08
000340 f1 d3 38 32 a5 c6 17 b2 f9 29 57 30 9b 2a 3d b2
       1.07583995e-08 -8.834523e-09 7.827619e-10 -1.1010935e-08
000350 3c 45 f7 31 8f de f7 31 38 89 00 32 58 d6 72 b2
       7.196517e-09 7.213948e-09 7.4817805e-09 -1.413499e-08
000360 fb 3b 34 b2 ec 75 9d 32 ae 03 14 b2 c0 84 31 ae
       -1.0491017e-08 1.833083e-08 -8.6155705e-09 -4.0363046e-11
000370 07 6a da 31 e4 5f 7d b2 38 c6 d2 b1 c5 52 d5 b0
       6.356689e-09 -1.4748341e-08 -6.1343393e-09 -1.5521314e-09
000380 34 27 57 b2 82 59 a7 b1 c4 bd 38 b0 91 00 8e b1
       -1.2523561e-08 -4.8705155e-09 -6.7208483e-10 -4.1328083e-09
000390 dc 7e 8c 2f 95 b8 5e b2 3e 63 f3 b0 f0 be 00 b1
       2.555599e-10 -1.296407e-08 -1.7708783e-09 -1.8734987e-09
0003a0 32 9d 35 b2 73 c2 3b 31 80 35 6b 2e 14 bb 8f 32
       -1.0571329e-08 2.7322613e-09 5.348033e-11 1.6732464e-08
0003b0 15 96 a1 b0 51 bb 1f b1 50 3e 86 af ce 4d 93 31
       -1.1756948e-09 -2.3244022e-09 -2.4418734e-10 4.2871084e-09
0003c0 8e e4 66 30 9a fc 93 b2 17 da 81 31 1f 22 22 32
       8.399831e-10 -1.7227922e-08 3.779188e-09 9.437399e-09
0003d0 14 da 04 b2 10 3c 49 32 1b 96 8a b0 10 cf 9a 32
       -7.7329965e-09 1.17133965e-08 -1.0083484e-09 1.802212e-08
0003e0 69 79 21 31 64 8e a2 30 c2 85 d7 31 3a 23 98 af
       2.3497597e-09 1.1827521e-09 6.27253e-09 -2.767367e-10
0003f0 c4 f5 7f 31 31 7b 3f b1 9a f3 24 32 31 c8 3f b2
       3.7247085e-09 -2.7864184e-09 9.601445e-09 -1.11631815e-08

embedding.embeddings.ken_20230614_denoised.poses.bias f4 [64]
000000 40 c8 e2 b0 8e 83 b6 b0 bd 9f 44 32 f9 3d cd b1
       -1.6500579e-09 -1.3279633e-09 1.1445022e-08 -5.9733307e-09
000010 02 14 48 b2 aa 30 d8 b0 36 41 20 b2 2c bc f5 31
       -1.1646081e-08 -1.57299e-09 -9.328053e-09 7.151831e-09
000020 1d 5a 11 31 71 94 97 32 1a 85 ad 31 68 63 23 b2
       2.11515e-09 1.7646217e-08 5.0500946e-09 -9.510451e-09
000030 66 5b a0 b2 57 a2 50 b1 40 87 49 32 dd 49 fc 30
       -1.8668015e-08 -3.0360263e-09 1.1730492e-08 1.8356406e-09
000040 58 c8 0b b2 f2 73 63 31 51 96 46 b1 88 c1 ee b1
       -8.136418e-09 3.3098755e-09 -2.8898237e-09 -6.9487136e-09
000050 00 09 76 b1 0e b7 06 b0 04 2f 8c 30 a4 0b a5 31
       -3.5802827e-09 -4.900905e-10 1.0199703e-09 4.8034554e-09
000060 00 2b 6e b0 d9 fd ce b1 70 81 a0 30 4c 72 4b b1
       -8.6645e-10 -6.024248e-09 1.167832e-09 -2.9605358e-09
000070 75 df a8 31 57 15 3b 31 f2 57 79 b2 90 03 e2 30
       4.9148476e-09 2.7224212e-09 -1.4513704e-08 1.6444677e-09
000080 aa d9 d6 31 5d 48 94 b2 ad e4 e8 30 6a f7 51 31
       6.2529653e-09 -1.7262375e-08 1.6945215e-09 3.0554141e-09
000090 17 d2 4c b2 7f cc b2 b1 62 cd c1 b1 4f 9a c4 b1
       -1.1922132e-08 -5.2037303e-09 -5.6403886e-09 -5.7218936e-09
0000a0 4c 3b 6d 31 04 6c 8d b1 8c 48 96 b1 d9 d6 10 b2
       3.4521745e-09 -4.11592e-09 -4.373822e-09 -8.430754e-09
0000b0 27 ed 0c b1 c1 23 39 b2 0e 98 3c 31 aa d7 2d b2
       -2.0507487e-09 -1.0776547e-08 2.7444034e-09 -1.0118962e-08
0000c0 ce e9 e7 31 f0 0e c8 30 4b cd 12 b2 61 ea 51 32
       6.7495654e-09 1.4556161e-09 -8.544997e-09 1.2218693e-08
0000d0 8a a9 27 b1 42 13 c3 b1 f6 2a d7 31 97 d2 c6 b1
       -2.439807e-09 -5.6774363e-09 6.2622076e-09 -5.7864997e-09
0000e0 90 2a 9d 31 7e d5 62 31 f2 d4 9d 31 c9 30 c7 31
       4.57414e-09 3.3008685e-09 4.5935105e-09 5.7972085e-09
0000f0 20 27 24 31 dc aa b9 31 61 27 a5 30 85 5b b4 b1
       2.388738e-09 5.403633e-09 1.2016522e-09 -5.249094e-09

embedding.embeddings.ken_20230618_denoised.poses.weight f4 [64, 63]
000000 21 c3 63 ae 1b 40 78 b0 b4 d5 64 af 70 ee 82 30
       -5.1787134e-11 -9.0312974e-10 -2.0812402e-10 9.526513e-10
000010 e3 50 08 30 32 30 28 30 65 80 5c b0 f8 de 5f ae
       4.959146e-10 6.1186534e-10 -8.0217993e-10 -5.0902366e-11
000020 0b 64 13 2f 56 22 01 af e0 fa a4 af ff 6f a2 ae
       1.3405115e-10 -1.174468e-10 -3.0009684e-10 -7.3868016e-11
000030 60 0f 67 2c ea 69 25 b0 7d e5 2f 30 32 5d 03 af
       3.283561e-12 -6.0177163e-10 6.399075e-10 -1.194749e-10
000040 e0 5e 21 30 78 aa b5 ae 42 7e 42 af 2c 46 3b b0
       5.8706284e-10 -8.2612084e-11 -1.7689053e-10 -6.8129924e-10
000050 75 0f e4 af 39 55 95 b0 f1 7c 8b 30 b8 b3 79 ae
       -4.148394e-10 -1.0865399e-09 1.0149092e-09 -5.6775668e-11
000060 d0 91 ed 2c f7 ac 8b b0 7e 5e a1 2e 94 42 a8 ae
       6.7521336e-12 -1.0162741e-09 7.3382175e-11 -7.651582e-11
000070 80 c4 18 ae a4 34 bc af cf 63 1d 30 83 63 55 b0
       -3.4735326e-11 -3.4234404e-10 5.7258104e-10 -7.7630363e-10
000080 66 75 87 af 06 d9 2e 30 8b 73 4c 2e 8b 35 08 2f
       -2.4639774e-10 6.360924e-10 4.6486853e-11 1.238815e-10
000090 69 f4 89 2f ef 4c 90 b0 18 27 b2 2d 80 e3 fa 2f
       2.509382e-10 -1.0499245e-09 2.0253618e-11 4.5636384e-10
0000a0 d3 a7 f4 af bc 55 fb ae 23 8e 17 30 88 cf 65 30
       -4.4502588e-10 -1.1429388e-10 5.513547e-10 8.3604634e-10
0000b0 92 fe b6 30 72 bf 8f ae 74 8b c6 ad 03 27 c6 2e
       1.3314596e-09 -6.5368946e-11 -2.2571923e-11 9.0109274e-11
0000c0 d0 b6 18 b0 dc 29 93 af 70 f7 bc 2f 7f 59 4b af
       -5.555707e-10 -2.6768887e-10 3.4372816e-10 -1.8494538e-10
0000d0 a1 16 8a 30 f0 04 58 2d a4 3a 47 af a8 cf 8c 30
       1.0047253e-09 1.2279275e-11 -1.8119778e-10 1.024536e-09
0000e0 8d 10 2a 30 a2 2c 06 30 1a d7 9d 30 a9 00 a3 af
       6.186916e-10 4.8812343e-10 1.1484389e-09 -2.9649996e-10
0000f0 90 3c 87 30 7a cd f7 2e 84 86 ec 2e 60 a8 98 2e
       9.839756e-10 1.12687595e-10 1.0755932e-10 6.942069e-11
000100 8a 7f ab 2f 5e 34 49 2f 1e ee 99 2f 8e cd 2c 30
       3.119534e-10 1.8299448e-10 2.799973e-10 6.2865346e-10
000110 b7 f7 90 b0 f6 da 2a 30 2a 2a 0b b0 7a 13 3d 2e
       -1.0547784e-09 6.21568e-10 -5.0627824e-10 4.2990923e-11
000120 c4 a4 ab 2d a3 30 f2 2f 66 03 d6 af 05 f2 a2 af
       1.951362e-11 4.4054102e-10 -3.8928788e-10 -2.9639594e-10
000130 4c 08 3f 30 dd c9 b0 b0 e2 12 04 2f f4 22 83 af
       6.9497186e-10 -1.2863058e-09 1.2012039e-10 -2.3853597e-10
000140 b4 f5 92 30 79 b7 95 b0 16 08 98 30 d8 0f a9 ae
       1.0692731e-09 -1.0893323e-09 1.1061754e-09 -7.6880446e-11
000150 18 02 cf ad ee ce 8f af b4 4e 80 30 b9 a8 1a b0
       -2.3534105e-11 -2.615858e-10 9.335595e-10 -5.6264643e-10
000160 20 35 65 ad dd 0d 1e 2f 1a c4 dc af 30 75 d1 2e
       -1.3028939e-11 1.4374942e-10 -4.0157105e-10 9.525036e-11
000170 8d 25 96 b0 ea 2a c1 b0 9e b9 a0 b0 55 68 ac af
       -1.0924609e-09 -1.4054795e-09 -1.1694288e-09 -3.136075e-10
000180 be 47 61 30 20 a3 59 2f de c4 56 30 40 97 b9 ae
       8.1956475e-10 1.9793989e-10 7.813251e-10 -8.4396934e-11
000190 7c f0 35 b0 c0 73 35 2e 0f d9 72 30 34 58 a9 2f
       -6.6189165e-10 4.1257442e-11 8.8347546e-10 3.0803593e-10
0001a0 ce 11 0f 30 1e e2 ca 2f 72 d5 bc b0 7a 9b bd 30
       5.20484e-10 3.6904252e-10 -1.3739465e-09 1.3795749e-09
0001b0 60 4c c6 2e 85 f7 3e 2f 8f d1 78 af 9c 31 5d b0
       9.0175645e-11 1.7368336e-10 -2.2629919e-10 -8.046983e-10
0001c0 56 82 ca af f1 36 ac af ca d8 32 b0 6e 2d f6 2e
       -3.6836195e-10 -3.1325656e-10 -6.50641e-10 1.1194855e-10
0001d0 07 e7 0b 30 56 bc b5 af 1c 57 78 2f 49 5b 80 af
       5.0896215e-10 -3.305753e-10 2.2586416e-10 -2.3347926e-10
0001e0 2d e0 04 2f 26 a7 a4 30 cd 8b 7b b0 8c 7c d2 af
       1.2084973e-10 1.1980077e-09 -9.1511937e-10 -3.8287273e-10
0001f0 6e fd 53 af 76 e5 04 30 08 a0 be ae 7a 1f 10 b0
       -1.9280375e-10 4.8347404e-10 -8.668627e-11 -5.2431626e-10
000200 a6 7c 38 b0 68 10 04 b0 e4 cd bb 2d 6a 69 42 af
       -6.7115946e-10 -4.8044635e-10 2.1350872e-11 -1.7681648e-10
000210 4e 1c 1a 30 32 a9 48 2f db f0 66 2f 66 3e 00 af
       5.6065097e-10 1.8250004e-10 2.1003947e-10 -1.16637e-10
000220 23 0a 08 b0 7e 99 66 30 1d f5 ae b0 48 78 11 30
       -4.9490917e-10 8.389164e-10 -1.2729832e-09 5.292162e-10
000230 7e af df ae 91 68 c8 2e 57 4d 8b b0 81 ad b0 30
       -1.01720396e-10 9.113522e-11 -1.0135562e-09 1.2854998e-09
000240 40 28 19 2d 9e 26 f5 af 95 76 38 b0 54 0b 00 af
       8.70598e-12 -4.459268e-10 -6.7107325e-10 -1.1645557e-10
000250 b8 a3 bf b0 5d f9 08 2f 38 fd aa ae 03 01 60 b0
       -1.3943611e-09 1.245772e-10 -7.7756857e-11 -8.1492163e-10
000260 32 09 5a 2f bf b3 ec 2f b2 08 5b 30 55 35 96 2f
       1.9830251e-10 4.3055867e-10 7.968409e-10 2.7322736e-10
000270 c7 fa 15 b0 cf 3c 8d 30 0d 70 36 30 84 a7 06 ae
       -5.456226e-10 1.0276383e-09 6.637045e-10 -3.0616856e-11
000280 dc c5 58 30 a4 b0 b3 af 40 aa e1 ab d5 c0 2f b0
       7.886152e-10 -3.268542e-10 -1.6034465e-12 -6.393866e-10
000290 02 11 49 b0 86 ec bc ae ab 3f 09 30 07 8f d0 ae
       -7.3147544e-10 -8.591265e-11 4.993079e-10 -9.484152e-11
0002a0 7a 1a 8d 30 bf 02 d0 2f 70 1f 1e af 30 c5 49 30
       1.0266625e-09 3.783693e-10 -1.4381185e-10 7.3403594e-10
0002b0 7e e7 fd 2f 62 e4 6a af 87 08 0f 2f 27 48 4a 30
       4.6184917e-10 -2.1363314e-10 1.3008804e-10 7.3589707e-10
0002c0 20 1b 1c b0 41 fc c0 30 15 cd 05 2e 88 ff 17 2f
       -5.6791016e-10 1.4041533e-09 3.042285e-11 1.3824153e-10
0002d0 46 53 7a 2f 50 a8 5d 30 9c 71 3f b0 e8 93 c1 30
       2.2766952e-10 8.063852e-10 -6.9646844e-10 1.4084636e-09
0002e0 47 61 c7 2f 60 2b fc af 10 eb c4 af 6f c4 f0 2f
       3.626701e-10 -4.5869353e-10 -3.5819214e-10 4.379532e-10
0002f0 e1 a4 87 2f 1c ab 83 2e ae b9 a3 ae 16 86 7c b0
       2.467351e-10 5.9875854e-11 -7.445365e-11 -9.1867614e-10
000300 ba 73 0a 30 be ce 05 af 15 85 62 30 ee b4 1a af
       5.0368565e-10 -1.2169729e-10 8.240744e-10 -1.4070498e-10
000310 02 8e db ae 7e b0 7f 30 00 df 64 ac a6 6f 2f 30
       -9.9841926e-11 9.301927e-10 -3.2524539e-12 6.382329e-10
000320 fa 82 12 2e 6e b9 84 2f 05 b5 50 af 0b f3 8c 2f
       3.3312887e-11 2.4142416e-10 -1.8981801e-10 2.5638544e-10
000330 fa 96 2c af a8 93 2d 2e 48 b3 35 2f 54 4f c7 ae
       -1.5696947e-10 3.946679e-11 1.6525548e-10 -9.063564e-11
000340 3a a2 f1 2f 15 eb 7d af 94 61 bf 2f 42 c3 b2 2f
       4.3952914e-10 -2.3093734e-10 3.481203e-10 3.251675e-10
000350 3e d6 ff ae f0 35 a2 2f 28 ca 3e ad 3c 88 ce ad
       -1.16341145e-10 2.9505953e-10 -1.0845137e-11 -2.3479989e-11
000360 52 0e 10 30 39 ae 8e ae 92 59 21 b0 7a c8 a9 2f
       5.2407245e-10 -6.4883605e-11 -5.8698746e-10 3.0883368e-10
000370 9c 8e 97 af e2 8e 02 ae d7 38 07 af 89 d7 c7 2f
       -2.756807e-10 -2.9685483e-11 -1.2298372e-10 3.6351036e-10
000380 76 84 b3 af 0f 75 01 af b6 03 d2 af ed eb d7 af
       -3.265403e-10 -1.1774069e-10 -3.8201414e-10 -3.9275908e-10
000390 bf 5f bc 2f bd ee 0e 30 a2 98 44 b0 5e f0 e0 ae
       3.4265032e-10 5.1998567e-10 -7.152129e-10 -1.02290384e-10
0003a0 5d 69 93 b0 fd 23 04 b0 7d 99 a3 2f e1 a4 3d af
       -1.0725604e-09 -4.807246e-10 2.9758587e-10 -1.7248027e-10
0003b0 30 33 ba 2f 0f b7 95 30 28 19 c3 2f 13 73 80 b0
       3.3869574e-10 1.0893205e-09 3.5488168e-10 -9.345932e-10
0003c0 ae be ce 2f 89 41 a6 30 ae 4e 99 30 ee 5a ff af
       3.7606668e-10 1.2096716e-09 1.1154577e-09 -4.644884e-10
0003d0 9b fe ec 2e 96 28 ed af 71 1e 9c ae 24 1e 31 b0
       1.07772645e-10 -4.3138887e-10 -7.099466e-11 -6.443506e-10
0003e0 5d 7a 7b af ec 40 8f b0 f8 6b 7a ae 86 13 e5 2f
       -2.2871789e-10 -1.0423071e-09 -5.6939314e-11 4.166873e-10
0003f0 a4 05 02 30 25 53 dd af 38 03 41 2f b4 ee 38 b0
       4.730174e-10 -4.0258744e-10 1.7554391e-10 -6.727803e-10

embedding.embeddings.ken_20230618_denoised.poses.bias f4 [64]
000000 38 f3 14 2f 70 c0 a6 ae 73 f8 e8 2f 40 25 9c ac
       1.354693e-10 -7.58299e-11 4.2377088e-10 -4.4379223e-12
000010 02 c2 d4 2f 38 69 88 ae 2d fe fb 2f 00 5e d4 aa
       3.8700426e-10 -6.2032546e-11 4.5837237e-10 -3.772399e-13
000020 e0 b3 59 ad c2 f5 0f b0 2e 1f 33 30 95 0e b0 af
       -1.2374962e-11 -5.237234e-10 6.516413e-10 -3.2024575e-10
000030 8c 0f 50 af 0f 9e 4e 2f ba 85 25 b0 0b 70 84 2f
       -1.8923013e-10 1.8791745e-10 -6.0216687e-10 2.4090271e-10
000040 02 18 ac af 66 20 55 af 4e 3e 87 b0 dc ff 52 b0
       -3.1303676e-10 -1.9383747e-10 -9.840251e-10 -7.6761153e-10
000050 74 86 8d 2d 6d 0e 87 2e c2 cb af 2e 94 28 91 2f
       1.6089553e-11 6.141652e-11 7.994273e-11 2.640418e-10
000060 f0 b8 29 2d b4 b6 8e ae a4 b9 a6 b0 74 ec a4 ae
       9.647602e-12 -6.489867e-11 -1.2130852e-09 -7.499859e-11
000070 50 82 a3 b0 1a 56 d0 af bf 56 72 af 29 27 11 30
       -1.1896848e-09 -3.7896158e-10 -2.204059e-10 5.280634e-10
000080 18 40 6e b0 f2 8e 48 b0 d6 20 07 b0 88 48 28 b0
       -8.667498e-10 -7.2962714e-10 -4.9159377e-10 -6.1221117e-10
000090 5c 0e 9f b0 20 f9 70 2f 2c 62 67 af 10 7d 93 b0
       -1.1572854e-09 2.191638e-10 -2.1044205e-10 -1.0731203e-09
0000a0 f4 41 a7 30 7a 87 d0 af 09 22 f8 2f 28 79 71 30
       1.2169594e-09 -3.7931241e-10 4.513512e-10 8.784746e-10
0000b0 d8 64 2e b0 71 be 87 af f0 4b 06 ae 40 45 72 ae
       -6.344414e-10 -2.4691674e-10 -3.053552e-11 -5.5085936e-11
0000c0 85 66 af 2f 21 52 e4 af a1 5d 63 b0 eb 10 1e 30
       3.190516e-10 -4.1531314e-10 -8.2715174e-10 5.7504107e-10
0000d0 ae d2 20 30 27 5d c0 af 2b ec c4 2f 4c 33 1a ad
       5.8507055e-10 -3.4990785e-10 3.582e-10 -8.765277e-12
0000e0 66 93 fc 2f 8c 41 14 ae 97 7f 26 2f f0 b8 22 2e
       4.5943266e-10 -3.370952e-11 1.5142941e-10 3.6998793e-11
0000f0 72 2c 5a 30 00 29 b1 30 6a ea 70 2e 98 68 87 af
       7.93711e-10 1.2890098e-09 5.4777884e-11 -2.4630675e-10

core.core.fc.0.0.weight f4 [128, 64]
000000 4b fc 1a 9b 8c 87 db 1a e1 e2 b8 1b 10 52 ed 18
       -1.2820102e-22 9.0795265e-23 3.0586864e-22 6.1345926e-24
000010 6a a7 4c 19 9c 6d 66 1b 4a 7f 95 1a c5 bc b9 9b
       1.0580362e-23 1.9060571e-22 6.18306e-23 -3.0727672e-22
000020 61 08 e3 9a 1e 78 1c 9a 9c 4a bc 9b 72 66 a7 1b
       -9.3898536e-23 -3.2357074e-23 -3.1150206e-22 2.7694036e-22
000030 c8 45 b1 19 a5 e5 91 1b 9f c7 8b 9b c0 52 74 1b
       1.8329555e-23 2.4136642e-22 -2.3124623e-22 2.0209945e-22
000040 c2 c3 a1 9a f8 6a ec 19 98 dd 98 99 83 23 43 9a
       -6.69043e-23 2.4445032e-23 -1.5805933e-23 -4.035374e-23
000050 da 4d 81 1a 81 e5 ab 1a a9 f3 fb 1b b7 30 31 9b
       5.3478925e-23 7.1094726e-23 4.1681928e-22 -1.4656837e-22
000060 ce f6 aa 19 a9 83 25 9b b6 44 e8 9a 0c 6a 0a 9a
       1.7677272e-23 -1.3691022e-22 -9.606396e-23 -2.8623395e-23
000070 ce 37 29 1b e5 9a ad 9a 7a 74 27 1a d2 c8 de 99
       1.3997384e-22 -7.180137e-23 3.462888e-23 -2.3035373e-23
000080 67 77 d7 99 bc 50 2e 9b 76 1a 86 1b ca 97 67 9a
       -2.2278705e-23 -1.4419029e-22 2.218554e-22 -4.7892295e-23
000090 c9 4d eb 9a ca 74 98 1b 3b 8a c5 9a d7 3c 1e 1b
       -9.731939e-23 2.5221764e-22 -8.1700614e-23 1.3089112e-22
0000a0 8a 90 9e 1b 8f 64 21 9a 04 18 87 9b b6 71 ab 1a
       2.6232314e-22 -3.337525e-23 -2.2349396e-22 7.090765e-23
0000b0 1f fa ee 9a e4 4c 26 1b dc 06 7d 9a 8a bb 6c 9b
       -9.8838585e-23 1.3756043e-22 -5.2324715e-23 -1.958206e-22
0000c0 13 49 d5 1b 67 4a be 1a 40 9d e1 9a 3a 6e a7 9a
       3.5285117e-22 7.870236e-23 -9.331187e-23 -6.924766e-23
0000d0 4a 47 17 1b 43 1b 9b 9a a2 19 dc 9a f2 c9 83 9a
       1.2513462e-22 -6.415054e-23 -9.103128e-23 -5.450659e-23
0000e0 66 08 c2 9b 29 35 2a 9b ae b5 c1 9a 79 cd 95 1b
       -3.2100035e-22 -1.4079247e-22 -8.011645e-23 2.4782766e-22
0000f0 a4 21 a9 9b 4a 05 37 9b 08 95 56 9b 7c 8d 0e 1b
       -2.7980444e-22 -1.5139114e-22 -1.774982e-22 1.1791681e-22
000100 05 da 8f 9b 80 19 f9 99 48 cb 5d 9b 3e f4 a7 9a
       -2.3798257e-22 -2.5756296e-23 -1.8346375e-22 -6.9464176e-23
000110 dd 8d cc 1b 2a 1e 19 9b 77 49 96 1a 00 b4 91 97
       3.3840646e-22 -1.266561e-22 6.2157235e-23 -9.415844e-25
000120 4c 1a 2c 1b d7 4b 91 9b c1 2f 77 9b 54 82 db 9a
       1.4236004e-22 -2.4037248e-22 -2.0446791e-22 -9.0786834e-23
000130 e8 25 32 1a 84 bd 5a 1a 25 6c 9d 1b 6a 0d c9 1a
       3.6840158e-23 4.5234433e-23 2.6043358e-22 8.315332e-23
000140 de 92 36 1b 66 a3 71 9a 14 ec 37 9b 72 00 b8 9a
       1.5102142e-22 -4.9969624e-23 -1.5213686e-22 -7.6101336e-23
000150 a6 b2 7a 9b c6 37 de 99 ef dc a8 1a 20 81 16 1b
       -2.073724e-22 -2.2976789e-23 6.984011e-23 1.2449432e-22
000160 52 14 00 1b 70 3a c1 19 30 88 a2 1b ad 10 31 1b
       1.0594478e-22 1.9979335e-23 2.688866e-22 1.4646485e-22
000170 50 9f 79 9b 7a cb b0 9a 8e ae 07 1b 6f 6c 07 1b
       -2.0648274e-22 -7.312063e-23 1.122334e-22 1.1201975e-22
000180 c3 bb 62 9b a8 d5 e4 99 47 7e 1a 1b ff de 24 1b
       -1.8754951e-22 -2.3660943e-23 1.2779384e-22 1.3637816e-22
000190 47 1c 8d 1b 68 60 98 1a 60 1a 15 9b 6e 41 d6 9b
       2.3344767e-22 6.302148e-23 -1.2333513e-22 -3.5445613e-22
0001a0 ee 04 d7 9b 0a 96 b3 19 86 28 38 1b 32 40 26 9b
       -3.5571952e-22 1.8568767e-23 1.5233217e-22 -1.3751941e-22
0001b0 92 cd ef 99 26 3c a2 1a 26 49 58 1a 37 c0 50 1b
       -2.479505e-23 6.7098805e-23 4.4726842e-23 1.7267465e-22
0001c0 bb bb 36 9a 0d 87 20 1a 1e c8 99 99 bd 91 13 1a
       -3.7788365e-23 3.3196318e-23 -1.5900656e-23 3.0516614e-23
0001d0 95 f3 e8 1a fb 90 9f 9b 85 29 08 9c 40 32 d9 9a
       9.634648e-23 -2.6398035e-22 -4.505229e-22 -8.983028e-23
0001e0 28 c8 15 9a d8 89 26 9a d0 ec 77 9a d2 6b 24 19
       -3.0974163e-23 -3.4439345e-23 -5.12697e-23 8.5003754e-24
0001f0 e0 ac a5 17 e6 e0 64 9b 07 aa a8 9b ba 05 8b 9a
       1.0706515e-24 -1.8932387e-22 -2.7903146e-22 -5.7498304e-23
000200 7c b3 c6 9b a0 0b d9 99 08 a9 85 1a 3d 5d ee 9b
       -3.2872341e-22 -2.244197e-23 5.5280595e-23 -3.943405e-22
000210 30 a0 68 9b fa 41 a8 1a 4b 37 1b 1b e6 f4 56 9a
       -1.924235e-22 6.958976e-23 1.2839166e-22 -4.445199e-23
000220 9e fd ba 19 32 2d cb 1b 2b 71 e7 1a 41 56 64 1b
       1.9334384e-23 3.361274e-22 9.5722193e-23 1.8887588e-22
000230 d0 1e 80 1b bc bc 9c 1b f0 44 05 99 42 24 7b 1b
       2.1195736e-22 2.5930002e-22 -6.889861e-24 2.0773949e-22
000240 3c eb 03 1b 67 42 d2 1b 0e d6 82 1a 0a fa 84 9a
       1.0912074e-22 3.4784497e-22 5.4112564e-23 -5.499788e-23
000250 02 35 cb 9b 6d fc 39 9b 70 64 f4 18 10 95 d9 98
       -3.3617788e-22 -1.5384405e-22 6.3173938e-24 -5.62437e-24
000260 e0 73 a0 9a 72 b5 01 9b 49 9f b4 9a a0 85 2a 9a
       -6.6361655e-23 -1.0729258e-22 -7.4703594e-23 -3.5263117e-23
000270 12 b5 96 1a 76 1b e9 1a 00 fe d4 16 2c 8f 97 1a
       6.233108e-23 9.641091e-23 3.4410744e-25 6.268344e-23
000280 e3 9c d0 1b 14 5b 51 19 d0 d2 08 18 ae af 67 9b
       3.45121e-22 1.082344e-23 1.7684021e-24 -1.9164637e-22
000290 f0 3a 64 1b a0 39 6f 99 84 39 18 1a 81 10 19 9b
       1.8878762e-22 -1.2367648e-23 3.1479324e-23 -1.2661196e-22
0002a0 ab 0f c3 9b 2a 42 82 1b 32 11 65 9b 0c 2e 41 1b
       -3.227017e-22 2.1549453e-22 -1.8947992e-22 1.5979464e-22
0002b0 1a 00 b1 9b 4a 4a 56 19 dc a0 75 99 ba d0 b8 1b
       -2.928226e-22 1.1078543e-23 -1.26986884e-23 3.0575133e-22
0002c0 be 45 08 9b b0 36 ee 99 25 8d 85 9b f9 db 7c 1b
       -1.1272191e-22 -2.4630711e-23 -2.2094217e-22 2.0916028e-22
0002d0 9c 0c a8 9a 33 bc 08 9c ec 16 1c 1a 55 84 b9 1a
       -6.950354e-23 -4.5241867e-22 3.227856e-23 7.6728e-23
0002e0 23 eb 52 1b 00 ad a9 18 18 d5 c6 9b 10 f1 dd 97
       1.744677e-22 4.386016e-24 -3.289406e-22 -1.4342643e-24
0002f0 f6 32 cf 19 44 fa 01 1a e4 ec a1 1a 46 06 8b 99
       2.1423881e-23 2.6878738e-23 6.6970757e-23 -1.4374797e-23
000300 f0 8e 87 98 f7 85 34 1b b8 65 d8 9a 68 f1 8d 99
       -3.5041012e-24 1.4932537e-22 -8.949984e-23 -1.4676562e-23
000310 dc dc a3 9b 36 5b fb 1a 54 9c 61 9a 6b 0d 31 9b
       -2.7108815e-22 1.03958526e-22 -4.665519e-23 -1.4645432e-22
000320 d6 46 cb 9b 7f 26 f0 99 11 34 94 99 34 6c f9 1a
       -3.362931e-22 -2.4830967e-23 -1.532387e-23 1.031588e-22
000330 a0 fd 52 98 ce 9a a4 9a ee d1 2b 9b 52 b3 a2 9b
       -2.7269912e-24 -6.807891e-23 -1.421262e-22 -2.6916535e-22
000340 38 b3 86 1a 58 a2 99 1a 9a 90 86 1b 66 90 b3 1b
       5.5710645e-23 6.35416e-23 2.2261887e-22 2.970638e-22
000350 04 f0 86 99 ba 24 02 9a f0 8f 1b 9a c4 b4 22 1b
       -1.3952217e-23 -2.6913037e-23 -3.216952e-23 1.3458734e-22
000360 84 38 d2 99 cc 01 11 1a 50 b8 b7 1b 2b 13 86 1b
       -2.1736318e-23 2.998675e-23 3.039392e-22 2.2180827e-22
000370 1e af a3 1b 5c 97 98 1a f8 08 a2 99 f8 79 54 9b
       2.7079255e-22 6.311026e-23 -1.675403e-23 -1.7575639e-22
000380 d0 bf 9b 99 d6 dd 0a 9b ff b7 9d 1b 1e 11 41 1a
       -1.6104097e-23 -1.1486772e-22 2.6092376e-22 3.9925292e-23
000390 59 89 9a 1b cf 3e c2 1a 78 e3 88 19 60 18 98 1a
       2.5565922e-22 8.033799e-23 1.4153944e-23 6.2905106e-23
0003a0 fa 23 42 99 34 6b 18 1b 25 8e 4c 1b 45 02 1b 1b
       -1.003683e-23 1.2607785e-22 1.6920414e-22 1.2822033e-22
0003b0 6a 0d e0 9b e7 7f d4 1a a0 4b 1e 1a b2 ef 11 1b
       -3.706636e-22 8.788778e-23 3.2734724e-23 1.2071569e-22
0003c0 fa dd c9 1b f2 71 77 99 40 85 90 1a 7f 76 12 1a
       3.339611e-22 -1.2792612e-23 5.977228e-23 3.0287813e-23
0003d0 fc a5 1c 1b 0e 5c e1 19 72 75 10 1b 4f 50 60 9b
       1.295765e-22 2.3301635e-23 1.194935e-22 -1.8554795e-22
0003e0 7e b4 23 9b 6f 8d 04 1b 9f 5b 9b 1a 18 06 ad 1b
       -1.3541364e-22 1.0964484e-22 6.425452e-23 2.8624387e-22
0003f0 b4 59 9b 9b 45 dc fd 9a a0 08 25 98 e9 30 22 1a
       -2.5700568e-22 -1.0499421e-22 -2.1330105e-24 3.3540324e-23

core.core.fc.0.0.bias f4 [128]
000000 f1 fe 80 9b 6a c2 90 9b 1b 95 2f 1c 46 68 71 9a
       -2.1340576e-22 -2.394844e-22 5.8095357e-22 -4.9921863e-23
000010 1a f7 ec 1b 9f 9b 32 1a f3 2d d4 1b 5c 89 12 9b
       3.920261e-22 3.6935247e-23 3.5102152e-22 -1.212122e-22
000020 7c e2 19 1b 40 fb 92 99 22 80 58 1b 9a cb 15 1c
       1.2729044e-22 -1.5197525e-23 1.7908503e-22 4.9563113e-22
000030 9a 6d d6 9b 65 11 9b 1a 20 ab 7d 9b fc dd cc 9c
       -3.5474159e-22 6.41346e-23 -2.0982963e-22 -1.3556969e-21
000040 d5 10 09 1a 88 d4 76 1b 90 bd 3a 99 39 d4 33 9c
       2.8344533e-23 2.0417316e-22 -9.6542565e-24 -5.9500423e-22
000050 17 77 f4 9b 39 f7 62 9a 37 1d a1 9b ad 9e 3e 1b
       -4.0443374e-22 -4.693541e-23 -2.6654095e-22 1.5767703e-22
000060 6c 83 30 1b a4 af 66 9a 70 46 1e 1c 7b ef c2 9a
       1.4600843e-22 -4.7704767e-23 5.2368853e-22 -8.062342e-23
000070 a0 f3 28 9b 3f dc 51 1a 89 a9 8e 1b 7c 80 fd 1a
       -1.3975354e-22 4.33981e-23 2.360149e-22 1.04845925e-22
000080 b0 e1 ac 19 81 eb 95 1b d8 c6 fe 1a 4e e8 3e 1c
       1.7875538e-23 2.4802173e-22 1.0537319e-22 6.3165973e-22
000090 40 2b 4f 19 f6 24 2c 1b ab 7e e8 28 7e e4 d4 9b
       1.07103834e-23 1.4239449e-22 2.5812108e-14 -3.5220118e-22
0000a0 f4 3a 64 1b 2a 4b bb 9b 66 ff ab 9b 9b 64 1c 9b
       1.8878767e-22 -3.0985129e-22 -2.8454624e-22 -1.2936525e-22
0000b0 14 37 c1 9a 2e 82 0b 1b 8f 7d 6b 9b 3e 9d 59 9b
       -7.991191e-23 1.1539874e-22 -1.9479315e-22 -1.8000627e-22
0000c0 fb 70 98 9b 32 ac 82 9b 38 ee 01 1a 60 8f 91 19
       -2.5219303e-22 -2.1617975e-22 2.6869006e-23 1.5050557e-23
0000d0 29 1e 33 1c 6a d7 ea 1a c1 48 d5 9b 89 6b eb 9b
       5.9265113e-22 9.712815e-23 -3.528491e-22 -3.8946982e-22
0000e0 e2 ad 62 1a e1 a4 1b 9c 6a 34 cd 1b 88 3f a9 1a
       4.6876166e-23 -5.14983e-22 3.3948277e-22 6.99994e-23
0000f0 3a 1f 01 9c 43 cb d2 1b 0b d9 78 9b da 7c c1 1b
       -4.272288e-22 3.487294e-22 -2.058421e-22 3.2009855e-22
000100 cb 79 b6 1b dc 63 2e 9a 47 f9 cb 1a 54 d0 8c 1b
       3.018808e-22 -3.6063022e-23 8.436156e-23 2.3295686e-22
000110 22 4e 33 1b 30 96 aa 9b 0a a9 c5 1a 31 6f 86 9a
       1.4831779e-22 -2.8221197e-22 8.175039e-23 -5.560074e-23
000120 d0 a1 23 1b 24 78 de 9b b2 68 56 9b 32 47 24 1b
       1.3535328e-22 -3.6804458e-22 -1.7735494e-22 1.3588766e-22
000130 34 ed 6f 9c 4e ca 11 9b 05 be 08 1c 03 6a 59 9b
       -7.9385044e-22 -1.2059487e-22 4.524422e-22 -1.7984074e-22
000140 4a 2d 04 1b cd a4 c7 1b b7 c7 2e 9b e2 1f 5a 1c
       1.0933418e-22 3.3028288e-22 -1.4457474e-22 7.2171357e-22
000150 fc 84 a4 1c e4 99 b5 9b 23 56 b0 1c 8b de 82 1a
       1.0886985e-21 -3.0043388e-22 1.1668969e-21 5.412628e-23
000160 8c 4a 2b 9a 30 50 52 1b 72 8c ee 9b de a6 ab 9c
       -3.542219e-23 1.7396703e-22 -3.9464558e-22 -1.1358965e-21
000170 24 38 ea 9a 10 07 f1 19 db 43 e2 1a f7 22 3b 9a
       -9.687083e-23 2.4921668e-23 9.3581036e-23 -3.8698938e-23
000180 8a 37 30 9a 7d 0b 45 1c 39 3c 17 1b c9 7a b5 9b
       -3.644081e-23 6.519668e-22 1.2509886e-22 -3.0023286e-22
000190 90 ab e6 9b e8 12 91 9c 07 02 28 2b c2 e8 bf 1c
       -3.8161178e-22 -9.600182e-22 5.9688403e-13 1.2699486e-21
0001a0 83 4f 65 9b 4f 26 c4 1b 78 f2 ca 1b 01 a9 ac 1b
       -1.8968128e-22 3.2450236e-22 3.3574789e-22 2.856423e-22
0001b0 72 ad 30 1a 7e 80 5a 9b 8f f4 a6 1b 4c 6e 57 9c
       3.6536055e-23 -1.8074055e-22 2.7620439e-22 -7.128009e-22
0001c0 d9 54 a6 9b aa 82 08 98 ed 9b ed 9b 3e 3e 55 1b
       -2.7517228e-22 -1.7643557e-24 -3.9309126e-22 1.7639059e-22
0001d0 b5 a7 a6 9a d0 fe 01 9d 12 15 a0 1b a5 65 61 1b
       -6.8926936e-23 -1.7204743e-21 2.6483396e-22 1.8644407e-22
0001e0 ae 0f 98 1b fa 7f db 9b 38 f2 0f 9b 60 62 25 1c
       2.5156423e-22 -3.6313214e-22 -1.1906948e-22 5.4721067e-22
0001f0 e9 cb c6 1c 73 b4 a1 9a 44 e9 90 9a fc 3f 9c 1b
       1.315525e-21 -6.687957e-23 -5.9933865e-23 2.5849384e-22

core.core.fc.1.0.weight f4 [64, 128]
000000 b9 7d 05 9a ba 59 ca 1a 30 f4 f0 98 40 4f a9 1a
       -2.7605313e-23 8.36902e-23 -6.2285112e-24 7.00248e-23
000010 78 c2 a7 1a 0e 42 72 1a 4f 8f 04 9a 9d 2b 95 1b
       6.938376e-23 5.0097786e-23 -2.7412724e-23 2.4678167e-22
000020 b2 18 e5 19 44 da 7a 1a 94 ef 12 1a 1a 5b 68 1a
       2.368802e-23 5.1875102e-23 3.0385622e-23 4.8050067e-23
000030 0f f5 56 1b 1e c3 0a 1a e1 b6 49 1a f1 4f b6 99
       1.7780848e-22 2.8695346e-23 4.1713554e-23 -1.8850647e-23
000040 fb 2d ba 1a 70 98 bd 9a aa 52 9b 1b 00 cb 39 99
       7.700208e-23 -7.8414844e-23 2.569602e-22 -9.605271e-24
000050 10 c2 49 1a 8c 9e 4c 9b 06 7b 4d 9a 5a 87 c9 9a
       4.1722588e-23 -1.6925714e-22 -4.2492384e-23 -8.3350324e-23
000060 c0 12 ef 98 b9 b6 fc 19 b0 d8 26 1b 03 7f 8a 1b
       -6.1798985e-24 2.612999e-23 1.3801214e-22 2.2912264e-22
000070 ec 6d b1 1a d1 be a4 1a b8 0e 9c 1a 2c 23 a9 9b
       7.338307e-23 6.813709e-23 6.454387e-23 -2.7981434e-22
000080 c5 7a 2a 1b 09 15 3f 9b f8 ed ec 9a 78 6e 23 1b
       1.410174e-22 -1.5805947e-22 -9.799177e-23 1.3518738e-22
000090 dc 29 de 19 42 9f 28 1b ca 5d 13 20 40 11 09 19
       2.2971169e-23 1.3948093e-22 1.2482417e-19 7.0862176e-24
0000a0 9e 74 8e 99 7a b6 1e 1b c4 3b de 99 34 a6 23 1a
       -1.4729557e-23 1.3128415e-22 -2.2978401e-23 3.3841868e-23
0000b0 8d 8e 94 1b 80 46 16 97 08 26 0a 1a 96 f8 ca 1a
       2.4576667e-22 -4.8556598e-25 2.8568453e-23 8.3946854e-23
0000c0 98 09 14 9b 5f 0d 2b 9a ae b5 f5 1a ba 41 9f 1b
       -1.2245373e-22 -3.5372772e-23 1.01623144e-22 2.6346818e-22
0000d0 cc 25 b0 9a 7b 65 21 1a 1c 64 24 1b 03 64 28 1b
       -7.285296e-23 3.3375995e-23 1.3598109e-22 1.392895e-22
0000e0 a1 4f 9a 9a 5c cd 9f 9a c2 72 6e 9b 8d 3b 08 1b
       -6.3821555e-23 -6.6092635e-23 -1.9723979e-22 1.1268898e-22
0000f0 ba c0 05 9b ec 32 1d 1a f4 35 35 9b e4 88 d5 1a
       -1.1063775e-22 3.2507973e-23 -1.4989402e-22 8.8315894e-23
000100 b8 9c 23 99 3c 7e 0b 1a 3c aa 0f 99 89 de 9b 9a
       -8.4585516e-24 2.8846498e-23 -7.427305e-24 -6.446602e-23
000110 29 d7 3e 1b 60 67 62 1a de c7 b7 9a 2d ea 96 9a
       1.5785954e-22 4.681921e-23 -7.600993e-23 -6.241688e-23
000120 10 59 90 98 d0 9e 3b 9b 50 a5 e6 18 1e a6 b0 1b
       -3.7313058e-24 -1.5519593e-22 5.962053e-24 2.9224108e-22
000130 00 07 c5 17 26 c1 05 1b a0 9e af 98 97 70 5c 1b
       1.2732594e-24 1.1063912e-22 -4.539661e-24 1.8234353e-22
000140 80 19 25 18 ae 04 5f 1b df 71 5e 9b fc f1 0f 1b
       2.1338624e-24 1.844764e-22 -1.8400203e-22 1.1906872e-22
000150 a8 fe 4c 9a fc b3 5f 9a d7 07 7f 9a 69 81 89 1a
       -4.239192e-23 -4.626071e-23 -5.2739097e-23 5.6870945e-23
000160 e6 78 c0 9a 8a a3 62 1b 2f 98 94 1a e6 57 68 9a
       -7.960466e-23 1.8747124e-22 6.145723e-23 -4.804748e-23
000170 f8 ae 60 1b e5 bc f6 1a 96 2b 81 1b 19 cd a3 1a
       1.8585381e-22 1.0204839e-22 2.1369427e-22 6.774657e-23
000180 03 25 89 1a d2 ce 43 1a 00 fc eb 9a cc 30 94 99
       5.672167e-23 4.0492123e-23 -9.760085e-23 -1.532255e-23
000190 4e 06 65 1b 95 cb 89 1b 5b ff 12 a2 74 cf 8d 1a
       1.8944473e-22 2.279631e-22 -1.9921874e-18 5.865139e-23
0001a0 18 19 ae 9b 3a 17 93 19 24 03 e3 99 5e e6 d2 1a
       -2.8802102e-22 1.5208825e-23 -2.3472518e-23 8.722614e-23
0001b0 6a 0b a2 19 ce 9f 3e 9a 55 15 f5 1a 38 8c c4 1a
       1.6755018e-23 -3.9420168e-23 1.0136409e-22 8.1290236e-23
0001c0 76 2e 2e 1b 1a 1b ff 9a a6 b6 31 1b db 6a 86 1b
       1.4407955e-22 -1.0550931e-22 1.4700114e-22 2.2237494e-22
0001d0 20 56 aa 98 ed 71 7c 19 8a 1d 23 1a 38 8f 99 1a
       -4.4030934e-24 1.3051102e-23 3.373147e-23 6.35107e-23
0001e0 a7 36 ce 9a 94 2e 44 98 ba 7f 83 9a 96 be 8a 9a
       -8.52879e-23 -2.5355922e-24 -5.4386684e-23 -5.738337e-23
0001f0 a7 33 72 1b 78 37 00 9b e3 b4 a7 1a 40 80 38 99
       2.003446e-22 -1.0605835e-22 6.936182e-23 -9.538477e-24
000200 fa 1c 98 1a 2a a5 0f 1b c5 71 51 1a 5a 0c f5 99
       6.291254e-23 1.188205e-22 4.331209e-23 -2.5337395e-23
000210 d8 18 29 1b c1 ef 80 9a 78 3e 88 99 8c 26 77 9a
       1.398738e-22 -5.33269e-23 -1.4087301e-23 -5.110954e-23
000220 7f 8b 29 1a 60 b7 38 9a 52 89 f9 19 e8 d8 3e 99
       3.5061065e-23 -3.8198437e-23 2.580146e-23 -9.866574e-24
000230 d4 a2 69 9b b0 dc a6 19 5a 69 78 9b 8b e8 c4 9a
       -1.9325921e-22 1.7253133e-23 -2.054812e-22 -8.1439393e-23
000240 88 e3 7d 9b ca 95 76 1a 8e 82 7f 19 9e 10 8c 19
       -2.1001189e-22 5.0992606e-23 1.3209556e-23 1.4482372e-23
000250 7f 60 d1 9a 73 6e 76 1b b8 0c 51 1a b0 34 0b 99
       -8.659627e-23 2.0384331e-22 4.323046e-23 -7.196772e-24
000260 50 1c d5 19 4b 85 67 9b f6 da 56 1a df ee 6a 9b
       2.2035119e-23 -1.9150941e-22 4.4431038e-23 -1.943321e-22
000270 c4 d5 21 1b 5e e5 09 1c f4 98 80 9a 9a 49 74 19
       1.3386679e-22 4.562595e-22 -5.318667e-23 1.2629368e-23
000280 50 cf 5d 98 50 e3 33 98 a9 35 66 1b d4 74 0b 1b
       -2.8668247e-24 -2.3249971e-24 1.9042493e-22 1.153556e-22
000290 ce 4d a4 19 f1 04 38 1a de cf ae 21 88 92 39 9a
       1.6988628e-23 3.80543e-23 1.1845721e-18 -3.837547e-23
0002a0 5c b9 c1 1b c0 e1 4f 18 b6 25 88 9b 36 db d3 9a
       3.2048957e-22 2.6868098e-24 -2.2523683e-22 -8.762171e-23
0002b0 c2 df 9f 9b a0 c0 c3 18 cb 81 48 9b 52 eb 72 9b
       -2.6448944e-22 5.060082e-24 -1.658555e-22 -2.0093807e-22
0002c0 9e 31 d9 1a 35 69 24 1b b0 9e 6c 9b e0 37 a9 1b
       8.982926e-23 1.3599756e-22 -1.9572737e-22 2.7994813e-22
0002d0 d1 f1 a6 9a d8 78 01 19 a6 92 60 1b 1e 9e d6 1a
       -6.9046666e-23 6.693548e-24 1.857623e-22 8.876378e-23
0002e0 b6 81 a4 9a cf 54 af 1a 40 22 bb 99 09 d3 7e 1a
       -6.803837e-23 7.251532e-23 -1.934918e-23 5.2696442e-23
0002f0 2c 25 8d 1a 20 a4 8c 99 46 c1 0f 1b fb 9e 4a 1b
       5.837629e-23 -1.454195e-23 1.1891133e-22 1.6760418e-22
000300 34 f1 0a 1b 09 2b 26 1a 27 4b d1 9a 61 1b 71 1b
       1.149303e-22 3.436276e-23 -8.656179e-23 1.9943899e-22
000310 d2 26 68 1b 5e 3b c0 19 52 51 96 1a 30 36 ea 17
       1.9203134e-22 1.9876313e-23 6.2169926e-23 1.5135574e-24
000320 fb 83 97 99 3c ff 47 1a 9a 56 7a 9b da 6a 5f 9b
       -1.566634e-23 4.1358412e-23 -2.0707498e-22 -1.8480653e-22
000330 5b 59 12 1b fc 42 c0 9b a0 19 d1 9a 6b d3 64 1b
       1.2105709e-22 -3.1807023e-22 -8.6481773e-23 1.8928031e-22
000340 80 72 9e 98 73 e6 1d 9a 40 5c 91 18 e7 5c c5 1a
       -4.095766e-24 -3.2652994e-23 3.757477e-24 8.162738e-23
000350 c8 c6 1b 19 f8 26 2a 19 80 a2 00 1a 44 f3 13 99
       8.053456e-24 8.796664e-24 2.6601046e-23 -7.648849e-24
000360 50 0f 20 1b 0a df 87 9b 96 a4 ac 9b ee a3 9b 9b
       1.3239838e-22 -2.2478012e-22 -2.8561374e-22 -2.5748536e-22
000370 d3 9e 03 1a c3 f7 8c 9b cc 6c 7b 9a c8 9e 27 1a
       2.7218462e-23 -2.332117e-22 -5.199347e-23 3.4663053e-23
000380 f3 47 80 9b 5a 36 c7 1a 8a bd b4 9b 34 4e c6 1a
       -2.122232e-22 8.239228e-23 -2.990099e-22 8.2017225e-23
000390 46 9d 29 9a 8e 24 93 9a 48 6d 46 a2 dc 4e 5c 1b
       -3.5075425e-23 -6.085683e-23 -2.6891857e-18 1.8223454e-22
0003a0 44 92 02 19 a9 8e e3 9b 10 a6 58 99 10 1a 14 1b
       6.7503806e-24 -3.7646192e-22 -1.1200474e-23 1.2250694e-22
0003b0 b8 2f 3a 19 08 27 32 9a e7 87 c4 9a 90 ee 8a 9b
       9.625611e-24 -3.6841066e-23 -8.128326e-23 -2.2984352e-22
0003c0 e0 d0 a8 9a e6 e1 e3 1a 6c dc 86 9a 58 90 ab 18
       -6.982063e-23 9.424996e-23 -5.577721e-23 4.4348214e-24
0003d0 6c 2e cc 9a c0 98 98 9b 52 a1 87 1b ce df 26 1b
       -8.444742e-23 -2.5245003e-22 2.2438127e-22 1.3803513e-22
0003e0 e8 c6 f8 1a 3b a7 35 9a 60 7c 1f 1b 8a f7 bb 99
       1.02891746e-22 -3.756501e-23 1.319236e-22 -1.9435327e-23
0003f0 34 8e 81 1a ee ec 91 99 99 b8 da 9a 70 fc bb 17
       5.358289e-23 -1.5088344e-23 -9.046092e-23 1.2148316e-24

core.core.fc.1.0.bias f4 [64]
000000 5d df 5e b4 e1 60 3b b5 db 2b fa 33 01 df 2f b4
       -2.075662e-07 -6.9803906e-07 1.16495094e-07 -1.6379273e-07
000010 df 3b 83 34 a2 58 45 b0 4f a8 1a 34 d6 8b ee 33
       2.4444213e-07 -7.179414e-10 1.4403598e-07 1.1108175e-07
000020 6a 78 4a b3 20 ea e3 b2 35 46 29 34 ca be 23 38
       -4.7141306e-08 -2.6532746e-08 1.5764893e-07 3.9039915e-05
000030 02 97 e2 b1 2a 9b d1 b1 34 01 9b 31 27 f9 0f b3
       -6.5946333e-09 -6.1003407e-09 4.5112305e-09 -3.3521385e-08
000040 93 0f 21 32 33 45 20 b3 15 e6 e8 b5 65 d2 8f 3f
       9.374975e-09 -3.731584e-08 -1.735231e-06 1.1236082
000050 b6 ab 0b 34 65 06 06 b3 e1 e1 80 34 de 2a ab 32
       1.3007852e-07 -3.1205122e-08 2.4006206e-07 1.9926514e-08
000060 b1 34 50 b3 ac f5 f9 b1 32 fd 80 b1 37 4a d1 36
       -4.8476696e-08 -7.2747834e-09 -3.7540753e-09 6.237325e-06
000070 f2 b1 8d b3 85 68 22 32 81 60 1b ba 0c a0 6b 38
       -6.598192e-08 9.453406e-09 -0.0005927161 5.617742e-05
000080 bd c7 fd 33 82 71 84 34 e3 01 41 b2 c8 72 1f b4
       1.1817563e-07 2.4669504e-07 -1.12345075e-08 -1.4849786e-07
000090 76 e6 e1 37 9a f7 22 b4 be 35 9e 32 6d 0c a7 b3
       2.6929407e-05 -1.5177503e-07 1.841806e-08 -7.778804e-08
0000a0 46 f3 21 b3 f0 ad 1c 36 a5 fe 33 34 6b 13 9b 32
       -3.770699e-08 2.3347056e-06 1.6763313e-07 1.8053205e-08
0000b0 68 a0 a4 31 c8 e4 22 b3 f2 a2 97 33 77 85 83 b7
       4.7912643e-09 -3.792664e-08 7.061125e-08 -1.5678566e-05
0000c0 8e 22 4f 34 f2 d7 e7 b5 0e 42 75 b3 5e 16 ea b2
       1.9290948e-07 -1.727369e-06 -5.7103584e-08 -2.7251357e-08
0000d0 0a 15 65 b2 33 88 4b b3 b3 46 4d b5 f6 80 1a 34
       -1.3334338e-08 -4.7388493e-08 -7.647133e-07 1.4389283e-07
0000e0 72 be 22 34 48 20 89 34 57 fd e7 b3 16 0c d2 b4
       1.515671e-07 2.5541726e-07 -1.0802858e-07 -3.9124342e-07
0000f0 88 ea 8e b1 47 d3 cd b5 0e c1 30 33 85 ae 28 b3
       -4.159407e-09 -1.533518e-06 4.1153775e-08 -3.9274273e-08
