artifacts/poses_to_location/20250817220208/best_model.pt (torch, 17909 bytes, 18 tensors)

linear.bex_20230623_denoised.location.weight f4 [2, 63]
000000 f5 af 1e bf 66 6a d9 3d 5d c6 d9 3d df 75 15 bf
       -0.6198724 0.10615997 0.10633538 -0.5838298
000010 a6 12 12 be 30 08 75 bd 29 a4 06 bf aa 25 12 3e
       -0.14264926 -0.05982226 -0.5259424 0.1427218
000020 4c 69 c9 bd ff a0 69 be 09 cd 58 3e 04 fe 95 3d
       -0.09834537 -0.22815321 0.21171965 0.0732384
000030 e1 95 07 be b2 77 0d 3f 10 64 70 be 85 7c e5 3e
       -0.13240768 0.55260766 -0.23475671 0.44821563
000040 8d 8e f1 bd 19 96 3e be 57 82 07 bf 91 49 41 be
       -0.117947675 -0.18611945 -0.5293326 -0.1887572
000050 32 45 d3 bd 8d 73 0f bf 1d 2a 70 3d 3b 47 9c bd
       -0.10315932 -0.5603569 0.058633912 -0.07630774
000060 bb a5 a4 be df b7 10 bd 9f c6 fe bc 00 8b 0d bf
       -0.32157692 -0.035331603 -0.03110057 -0.5529022
000070 42 d4 ed 3d f5 a6 bf bc 3f 24 7e 3d b1 00 50 3d
       0.116127506 -0.023395041 0.062046286 0.05078191
000080 c7 c3 1e be 47 f6 40 3f 0a 3c 33 be 80 9d c2 bd
       -0.1550437 0.7537579 -0.17503372 -0.09502697
000090 90 67 63 be c1 40 01 bd d7 01 6c 3c ce 4c c8 3e
       -0.22207475 -0.031555895 0.0144047355 0.39121097
0000a0 57 18 d2 bd 2b fe bb bc d6 e3 4f be 0c 1b 82 3e
       -0.10258549 -0.022948345 -0.20301756 0.2541126
0000b0 7a 99 32 3e 7f bc f0 3e d6 bf 89 3f 17 92 30 bd
       0.17441359 0.4701881 1.0761669 -0.043108072
0000c0 92 1c ee be 87 e2 3f bd 21 f5 88 bd e7 86 b8 3e
       -0.46506172 -0.046846893 -0.0668738 0.36040422
0000d0 16 45 85 bb 30 ed 3b 3d 62 6c 51 3e 0a bb 11 3f
       -0.0040670736 0.045880497 0.20451501 0.56926024
0000e0 01 c7 5f bd 8a 36 15 3f 8a 9d 1c 3f 89 16 4e bf
       -0.054633144 0.58286345 0.61177886 -0.80503136
0000f0 05 b2 4d 3f 51 49 f3 3e e1 07 ed bb 2d 75 30 bf
       0.8034976 0.47516873 -0.0072336053 -0.68928796
000100 61 56 01 3e 1f 25 09 bd 5c a9 53 bf 32 45 1b 3e
       0.12630607 -0.033482667 -0.82680297 0.15163115
000110 48 9b 90 3d 2f 98 1c bf fb 32 b9 3c 08 13 4b 3e
       0.070608675 -0.61169714 0.022607317 0.19831479
000120 94 db 54 3e 4c b8 d2 3e ce dc 7c 3b 04 a1 0e 3f
       0.20786887 0.41156232 0.0038583758 0.5571444
000130 fa 81 1e 3f 5f b4 c4 bc 34 3d 1f 3f aa 45 06 be
       0.6191708 -0.024011789 0.62202764 -0.13112512
000140 88 f3 07 3e 84 3d 5a bf 80 8e 67 3e 30 35 8e 3d
       0.13276494 -0.85250115 0.22612953 0.069437385
000150 4d dc 50 bf 30 2f 7e 3d 3f 4d a4 bd c2 2e 06 bf
       -0.8158615 0.06205672 -0.08022546 -0.52415097
000160 b2 49 7f b9 19 79 63 bd 98 43 81 3e bf 5b 1d bd
       -0.00024346149 -0.05553541 0.25246882 -0.038417574
000170 80 25 9a 3d f7 e3 44 3f 47 4c 81 3d 5e 3e d7 bd
       0.07526684 0.76910347 0.06313377 -0.105099425
000180 d7 2e 67 3f 8c 12 1a bd 53 15 e6 bd 25 8b 19 3f
       0.90305847 -0.037615344 -0.11234536 0.5997794
000190 6f dd 93 bd 5d 9c 2f be 59 f1 6a 3f 22 8e f3 bc
       -0.072199695 -0.17149492 0.9177452 -0.02973086
0001a0 85 48 c6 bc 7e d1 94 3f e8 9a 2a 3c 98 e8 71 3e
       -0.024204502 1.1626432 0.010412909 0.23623884
0001b0 a4 6c 50 3f 31 d1 a8 3f a3 4c 82 bd a3 34 05 bf
       0.8141577 1.318884 -0.063622735 -0.5203344
0001c0 26 51 b2 3c ba 19 7c 3d e6 b4 00 3f 1b f5 63 3d
       0.02176721 0.061547972 0.5027603 0.055653673
0001d0 ad d8 f6 bd 9a 19 38 bf ce ac 4e 3f 3a f5 74 bf
       -0.120530464 -0.71914065 0.8073243 -0.95686686
0001e0 20 cb 00 3f 9f db 2e 3f 80 f4 85 bf 62 64 fc 3e
       0.50309944 0.68303865 -1.046524 0.49295336
0001f0 14 42 20 3f e7 f4 ba 3d
       0.6260083 0.09128743

linear.bex_20230623_denoised.location.bias f4 [2]
000000 ed bc f3 3e ea c9 2c 3f
       0.47605076 0.67495596

linear.ken_20230614_denoised.location.weight f4 [2, 63]
000000 d8 1c 13 bf 57 de ee 3d d1 9d 78 3c 2e 6c 04 bf
       -0.5746589 0.11663502 0.015174345 -0.5172757
000010 18 0b da 3d 37 b1 3b 3d c1 ff 04 bf 0c de 84 3e
       0.10646647 0.045823302 -0.5195275 0.25950658
000020 f7 4c ef 3d a1 5a 99 3e 03 48 62 3e 4d 71 75 3d
       0.11684602 0.29951957 0.22097783 0.059922505
000030 27 e2 00 3f 4d 45 a7 3e 3d fc c6 bd 67 1d a5 3e
       0.5034508 0.3267006 -0.097160794 0.32248995
000040 64 1d 7c 3d 44 3a 2e be fa 0e c0 be 89 3b 47 bd
       0.061551467 -0.17014414 -0.37511426 -0.04864076
000050 c6 b2 fa bd 99 04 e7 be 6e e6 37 bd 42 54 5e 3d
       -0.122411296 -0.45120695 -0.04489749 0.054279573
000060 e8 c1 b7 be 79 cb e8 bd 42 ee 3e 3d f2 7c e4 3e
       -0.35890126 -0.11366934 0.04661394 0.44626576
000070 cd 85 b1 3d 74 d0 eb bd 76 44 d9 3e db dd ba 3d
       0.086680986 -0.11514369 0.42435044 0.09124347
000080 2a cd b0 bd b6 7a de 3e 55 59 65 3d 77 d6 42 3d
       -0.08632882 0.43452996 0.055993397 0.04756781
000090 8c 9c ba be 7c 32 96 3c 51 e6 01 be 12 a8 ad bd
       -0.3644756 0.01833462 -0.12685515 -0.084793225
0000a0 98 01 cf 3c 80 96 03 b9 9c fc ed 3e c1 0b b5 bd
       0.025269315 -0.00012549199 0.46481788 -0.088401325
0000b0 00 86 ec bc 52 1b 85 bf 94 ef ed ba 3b 8f 1f 3e
       -0.02887249 -1.0398962 -0.0018153065 0.15581982
0000c0 96 5b 94 be 86 18 a1 bd 8b ab 2a 3d 3c 99 e5 3e
       -0.28976125 -0.078660056 0.041667502 0.4484347
0000d0 9c 74 80 bb a5 fe 99 3d 95 3f 4a bf 6f 1a 1b 3f
       -0.003920151 0.07519273 -0.7900327 0.6058721
0000e0 2d f0 11 3f 73 70 33 bf ac 01 0f 3f 89 d0 2e bf
       0.57007104 -0.7009346 0.55861926 -0.6828695
0000f0 d0 28 44 bf d9 7e d1 3e ad c5 a5 bd d1 66 3b bf
       -0.76624775 0.4091709 -0.08094344 -0.7320376
000100 7d 08 7f 3e 07 a6 ba 3d 5c 9e 35 bf de ff 19 3e
       0.24905582 0.091136985 -0.7094476 0.15039012
000110 72 30 8a bd 7e f4 15 bf 9c 2d 8b 3d 0c 49 ed 3d
       -0.067475215 -0.5857619 0.06795809 0.11586198
000120 62 ed 0d 3f 14 79 e8 3e fb f1 fc 3d 92 fe 37 3f
       0.5544034 0.45404875 0.123508416 0.7187282
000130 e8 06 08 3f fb cd 4c 3d 1f 1d 12 3f e7 af 8e 3e
       0.5313554 0.050001126 0.57075685 0.27868578
000140 c6 f4 14 3e 8c 7f 51 bf 37 35 d5 3e d5 b3 83 bd
       0.14546499 -0.81835246 0.41642162 -0.064307846
000150 2f d5 4d bf fe a0 3b 3e c2 1c 73 bd 44 7c a9 bd
       -0.8040342 0.18323132 -0.059353597 -0.08275655
000160 73 1c 61 be f3 4e d7 bd f5 85 59 3f 94 39 18 3e
       -0.21983509 -0.10513105 0.8497003 0.14865714
000170 15 f9 e8 bc 13 f4 42 3f f0 35 e2 bd df 72 84 bd
       -0.028439084 0.7615368 -0.11045444 -0.064672224
000180 b9 d8 48 3f a2 cc b3 bc 0d b5 35 be b2 25 50 3f
       0.7845569 -0.021948162 -0.17744847 0.8130752
000190 74 1d 67 bd a5 da 64 be 3d f4 4e 3f 17 0b cc bd
       -0.056424573 -0.22349031 0.8084143 -0.09963053
0001a0 e2 32 c1 bd 21 b7 a8 3f 9e 0e c0 bb 0a ed 7b 3e
       -0.09433533 1.3180887 -0.0058611175 0.24602142
0001b0 91 72 02 bf 76 2e 2a bf a5 f1 1e be e0 40 30 bf
       -0.50956064 -0.66477144 -0.15521868 -0.6884899
0001c0 0d 31 66 3d 73 d6 0a be e0 cf 13 3f f3 a6 a9 3d
       0.056199122 -0.13558368 0.5773907 0.08283796
0001d0 ab 73 4c 3d e3 4e 48 3f 20 c5 50 3f 7b ea 1a bf
       0.049914997 0.7824537 0.8155079 -0.6051404
0001e0 4b 8b 7e bf 52 41 45 3f 3c 93 54 bf e7 a0 90 bf
       -0.99431294 0.77052796 -0.8303716 -1.1299103
0001f0 81 45 35 3f b1 15 c2 3d
       0.7080918 0.094767936

linear.ken_20230614_denoised.location.bias f4 [2]
000000 f8 5e cf 3e c3 10 16 3f
       0.40502143 0.58619326

linear.ken_20230618_denoised.location.weight f4 [2, 63]
000000 9a 35 2c bf 04 61 0b 3d d1 7b b9 bd 52 be 13 bf
       -0.6726929 0.03402807 -0.09056819 -0.5771228
000010 68 36 e7 bd 43 33 5d 3d 89 ba e4 be 78 8b ef bc
       -0.11289674 0.054003965 -0.44673565 -0.029241309
000020 53 ab 1f 3d fe 43 06 3f 47 13 b7 3d 18 d8 ba 3d
       0.038981747 0.524475 0.08939224 0.09123248
000030 cd 36 a4 3e 7b 42 08 3f fd 50 ac 3d 1c 10 16 3f
       0.3207306 0.5322644 0.08413885 0.5861833
000040 1a f9 37 be 84 42 cb bd d1 28 07 bf 47 ff e9 3c
       -0.17966118 -0.09924796 -0.52796656 0.028564109
000050 5a dd 19 be 5b 5d 0f bf 33 26 cb bd ac 6e e5 bb
       -0.15025845 -0.56001824 -0.09919395 -0.0070017185
000060 53 c9 9f be a2 eb 93 bd 72 96 6b bd 4a 64 0f 3f
       -0.31208286 -0.07222678 -0.057516523 0.56012404
000070 7d a2 94 3d 70 9b 2f 3c 12 ef 06 3f ca 19 60 3d
       0.07257555 0.0107182115 0.5270854 0.054712094
000080 a6 f9 81 3d 21 96 cd 3e 06 6b 59 3d 92 3c 6a bd
       0.06346445 0.40153602 0.05308058 -0.05718667
000090 66 8c 2f be ec da 35 3e a0 95 47 bd e1 a9 32 3e
       -0.17143402 0.17759293 -0.048726678 0.17447616
0000a0 1e 93 c0 bd 3e db 9c 3c 5c 27 a9 3e 0a 87 b8 3c
       -0.094030604 0.019147512 0.3303784 0.02252533
0000b0 1d 94 22 3c 64 39 89 bf b4 44 9a 3c 7d 48 e5 3d
       0.009923008 -1.0720639 0.018831588 0.11195467
0000c0 a3 42 cb be 5e cc aa 3c e7 13 c9 3d d2 05 a7 3e
       -0.39699277 0.020849403 0.09818249 0.32621628
0000d0 6e 8e 42 bb 87 9c 6d 3d ff 97 86 bf fb 2b 06 3f
       -0.0029686945 0.058010604 -1.0515136 0.5241086
0000e0 02 e0 03 3f 3b f6 3a bf 29 48 ed 3e c3 c8 3b bf
       0.51513684 -0.7303197 0.46344116 -0.73353213
0000f0 ac 56 b9 3f d0 77 dd 3e 9c cf 4c 3b 3d d7 82 bf
       1.4479575 0.43255472 0.0031251675 -1.0221936
000100 4b 1c 16 3e e6 e9 04 3d e2 31 6d bf cd e4 26 bc
       0.1465923 0.032449625 -0.9265424 -0.010186386
000110 27 9d 61 3e 12 6f 3f bf 5c f9 81 be 0c 7d c3 3e
       0.22032605 -0.74778855 -0.2538556 0.3818134
000120 2d 8a 32 3f d1 18 1f 3f 19 78 89 3e 8e a4 5e 3f
       0.6974209 0.6214724 0.2684944 0.8696984
000130 c2 1a 45 3f 0d 70 76 3e 99 b5 4a 3f ff e2 94 3d
       0.76993954 0.24066181 0.79183346 0.072698586
000140 b5 ac 85 3e 1a cc 91 bf 8d d4 76 3e 95 37 f5 3d
       0.26108328 -1.1390412 0.24104519 0.11973492
000150 b8 4a 81 bf 93 7b 77 3d 21 31 cc bd f0 20 69 bc
       -1.0100927 0.060420584 -0.09970308 -0.014229044
000160 69 ce a8 bd 7a f0 3e 3e 45 ae 68 3f 74 1e d8 3c
       -0.082424946 0.18646422 0.90890914 0.026381709
000170 af 2b ed 3d 5e 48 3e 3f 3f 76 83 be ae 89 13 be
       0.115805976 0.74329174 -0.25676152 -0.1440799
000180 93 d7 6b 3f cd c9 11 be 17 f2 db bd 62 d4 52 3f
       0.92125815 -0.14237137 -0.10739534 0.8235532
000190 08 70 00 be 0a ff 6a 3d 5b 09 69 3f 4e 42 de bd
       -0.12542737 0.05737213 0.910299 -0.1085249
0001a0 90 0d 03 be e8 b2 9f 3f 08 48 8f bd 8c 95 05 3f
       -0.12798142 1.2476473 -0.06996161 0.52181315
0001b0 1b 06 62 be d9 6f 34 bf db 18 8e be 66 4a 56 bf
       -0.22072642 -0.70483166 -0.27753338 -0.83707273
0001c0 af 72 15 3d 40 4b 29 bc 1e d6 65 3f d9 f8 9c bd
       0.036486324 -0.010332882 0.8977984 -0.076646514
0001d0 6e 3c c4 bd 40 b8 42 3f 05 93 ff 3e ed 01 21 bf
       -0.095818385 0.76062393 0.49916855 -0.62893564
0001e0 b5 c0 95 bf c1 df 4e 3f b6 04 6e bf 6d c3 54 bf
       -1.1699435 0.8081017 -0.9297594 -0.83110696
0001f0 3b 6f 69 3f dc d5 20 bd
       0.9118535 -0.039266452

linear.ken_20230618_denoised.location.bias f4 [2]
000000 33 9f f9 3e d3 06 6b 3f
       0.48754272 0.9180729

exp_avg f4 [2, 63]
000000 ab ca 8a 3c 57 50 72 3b 8f 16 38 bc c5 7b a0 3c
       0.016942343 0.0036974156 -0.011235847 0.019590268
000010 aa f9 26 3c 0a 60 d1 bb 5b b9 02 3c f5 53 17 3a
       0.0101913605 -0.0063896226 0.0079787625 0.00057727034
000020 a6 a2 51 3a 5f 3f cf 3a c5 36 89 3b 89 5a ff bb
       0.0007996954 0.0015811733 0.0041874372 -0.007792775
000030 b7 98 1b 3c 7a 4b 15 bc 3c ea 2f 3b 0b 34 eb bb
       0.009496859 -0.009112233 0.0026842495 -0.007177835
000040 8c 43 79 3b be b1 6a 39 bb ae 0e 3c 4f 90 e2 3b
       0.0038034646 0.00022382193 0.008708651 0.0069141756
000050 80 05 04 bb 3e 75 bd 3b 54 25 6d bb 0a 89 76 bc
       -0.002014488 0.0057817986 -0.003618558 -0.015047321
000060 3a f8 66 bb 52 dc b4 bb c2 67 fb 3a bb 01 94 3b
       -0.003524317 -0.0055194283 0.0019180703 0.004516808
000070 39 a5 73 bb 1a ca e0 bb b7 ce fc ba 33 ad 9e bb
       -0.0037177338 -0.00686003 -0.001928768 -0.0048424243
000080 ed ef 4f bb a2 58 75 bc 78 c8 46 bb 8e e5 af b9
       -0.00317287 -0.014974745 -0.003033189 -0.00033549633
000090 4c a5 1d ba 8b 56 88 bb 39 bd 00 bc b4 4e f2 bb
       -0.0006013706 -0.0041607074 -0.007857614 -0.007394636
0000a0 f0 3f d0 bb 0f b2 36 3b ee 64 aa 39 7b f9 76 bb
       -0.006355278 0.0027877127 0.00032500125 -0.0037685323
0000b0 e5 30 44 bb b3 1d c4 b9 a2 97 34 bb d1 78 f3 3a
       -0.002993637 -0.0003740616 -0.00275562 0.0018575435
0000c0 a9 c4 87 3b 85 e6 b4 2f d6 93 52 30 aa c4 87 bb
       0.0041433168 3.2905603e-10 7.660764e-10 -0.004143317
0000d0 ab e0 e0 2c 84 56 de ac e7 cd 36 3b 87 01 da bb
       6.391406e-12 -6.3192247e-12 0.0027893723 -0.006653014
0000e0 9f 67 31 bb 79 41 69 bb 88 45 b3 bb 90 bb 06 3c
       -0.002706982 -0.0035592003 -0.0054709353 0.008223429
0000f0 6c b7 8e bb aa c4 87 bb 11 c5 76 ad a7 f0 6c 3c
       -0.0043553617 -0.004143317 -1.4027239e-11 0.014461673
000100 a1 46 8c 3c 0a 1d 00 bd 4e d0 c7 3c af 6b 0a 3c
       0.017123522 -0.031277694 0.02439132 0.008448525
000110 82 45 ea bc e1 1d d5 3c 38 cc 5c 3b cb 64 7e bc
       -0.028597597 0.026015224 0.003369106 -0.015526961
000120 4d 35 26 bb c2 b4 a5 3a 1a 2c 14 bd bb 6e c0 bc
       -0.002536136 0.0012642371 -0.03617487 -0.0234903
000130 9a 95 30 bc 1c f5 64 bc ee 8d 04 bd f8 8b 0c 3c
       -0.010777855 -0.013974454 -0.032361917 0.008578293
000140 8f a8 64 bc 8c 7f 16 3d 42 af 12 bb 26 fa 01 bd
       -0.013956203 0.036742732 -0.0022382294 -0.0317327
000150 c2 7d e6 3c 99 68 83 bb b1 60 ea bc 76 a1 86 3c
       0.028136138 -0.0040102717 -0.02861056 0.016434412
000160 9e 76 f9 39 2d 6e 8a bc 48 19 7c 3a c6 43 9f 3b
       0.00047581358 -0.016898239 0.00096168043 0.004860374
000170 c2 e9 b5 bc 77 c5 b6 bc c9 bf 6d 3b de 4e 78 bc
       -0.022206191 -0.022310955 0.0036277643 -0.015155522
000180 40 b2 3f bd d5 e4 8f ba 67 27 21 3c e8 7d 0e bc
       -0.04680085 -0.0010978231 0.009836054 -0.008697011
000190 b3 73 10 3c 6e ed f6 ba f6 f7 48 bc c2 30 fb bb
       0.008816647 -0.001883907 -0.01226615 -0.0076657245
0001a0 63 bd 03 bb da fa 1d bc a9 17 b4 3a c7 ef d7 bb
       -0.0020101897 -0.009642327 0.0013739961 -0.006589863
0001b0 83 e4 b3 bb 5d 27 a9 bb a8 82 79 3b 02 a1 9d 3c
       -0.005489887 -0.005162163 0.0038072262 0.019241814
0001c0 00 db 8a ae bc 74 9a 2f 03 a1 9d bc 82 75 02 2d
       -6.314416e-11 2.8095382e-10 -0.019241815 7.415736e-12
0001d0 9d 25 9a ac 09 63 47 3c f4 48 b7 bc 7d 27 dc 3c
       -4.381119e-12 0.012169608 -0.022373654 0.026874298
0001e0 dd 65 40 bb ba 47 b1 bc b2 22 b0 3c 04 55 97 3a
       -0.002935759 -0.021640647 0.021500919 0.0011545722
0001f0 02 a1 9d bc ce 02 cd 2e
       -0.019241814 9.322819e-11

exp_avg_sq f4 [2, 63]
000000 a6 21 c0 39 e9 8d 24 39 68 84 a4 3a a4 74 f3 39
       0.00036646164 0.00015693124 0.0012551667 0.00046435476
000010 75 42 34 38 cb 07 3c 3a 32 c9 74 39 04 79 c0 36
       4.2977237e-05 0.0007172792 0.00023344604 5.736134e-06
000020 4d df 91 38 6e 17 43 38 3e a7 53 39 d5 2d 9d 3a
       6.955732e-05 4.6513444e-05 0.0002018483 0.0011991808
000030 8a 5c be 38 c3 0b 34 39 de e1 50 3a 26 35 23 39
       9.077143e-05 0.0001717052 0.0007968227 0.0001556469
000040 77 3d 12 37 f4 73 8b 38 13 1f b6 39 4c 15 fe 38
       8.716589e-06 6.6496345e-05 0.00034736897 0.00012115631
000050 2d a6 4f 3b ff 7a 9a 39 e3 e7 14 39 8e 53 f0 3a
       0.0031684742 0.00029464808 0.00014200764 0.0018335448
000060 61 76 43 39 2e ba dc 39 55 a8 53 3a be f7 d7 38
       0.00018640749 0.00042100385 0.00080740947 0.000102981445
000070 88 e0 04 39 a6 6f 4c 3b c8 6b 39 38 91 21 1f 39
       0.00012672145 0.0031194477 4.4207816e-05 0.00015175926
000080 81 a9 ff 3a 83 6d 10 39 ef 45 e2 39 e3 a5 39 3a
       0.0019505472 0.00013773706 0.00043158184 0.0007081909
000090 e1 a3 da 38 36 dc ed 39 41 90 1c 3b 16 da 49 38
       0.00010425575 0.00045368233 0.0023889693 4.8125243e-05
0000a0 a4 73 02 3a e6 68 41 3a a5 6f 26 36 d8 9f 4e 37
       0.0004976338 0.0007377997 2.4800913e-06 1.2315773e-05
0000b0 50 e8 6e 37 91 b8 6f 35 99 99 fc 35 b7 a5 da 37
       1.4239995e-05 8.930302e-07 1.8820166e-06 2.6064792e-05
0000c0 28 2e f5 38 49 f1 1e 20 c1 f2 7a 20 2b 2e f5 38
       0.00011691108 1.3462955e-19 2.1256144e-19 0.0001169111
0000d0 8f 0a e6 19 e1 c7 fc 19 46 c5 ee 36 4e fc dc 38
       2.3785707e-23 2.613692e-23 7.1159184e-06 0.00010537413
0000e0 a4 98 f6 36 38 45 49 38 90 da c2 38 9a f8 d4 37
       7.349141e-06 4.79866e-05 9.291351e-05 2.5388134e-05
0000f0 bc 99 8a 37 2f 2e f5 38 99 4e 94 1b 96 01 97 39
       1.652247e-05 0.00011691113 2.4535339e-22 0.00028802146
000100 eb 35 ae 39 e5 d6 38 3b b2 3c 1d 3a 6e 7c d0 38
       0.00033228038 0.002820426 0.0005998119 9.94139e-05
000110 cd f1 da 3a 4d 0e 24 3a e6 be 2c 37 b1 31 44 39
       0.0016704142 0.00062582345 1.0296446e-05 0.00018710528
000120 20 2c 10 39 3f c5 fb 39 d9 a3 2e 3b c5 58 1e 3a
       0.00013749348 0.0004802141 0.0026647954 0.00060404494
000130 e8 d2 c4 39 af 89 dd 3a 96 a8 38 3a 37 ea 55 37
       0.0003754117 0.0016901995 0.0007044164 1.2750322e-05
000140 68 27 1e 39 3a 78 ff 39 89 e4 81 39 59 6d ee 3b
       0.00015082734 0.00048726966 0.0002477507 0.007276219
000150 df d7 de 39 66 00 a4 39 90 f1 8f 3b 37 d8 60 39
       0.00042503976 0.00031280814 0.00439281 0.00021442851
000160 f9 f9 7a 3a 62 15 00 3b ee 2e cc 38 45 36 83 39
       0.0009573992 0.0019543995 9.736219e-05 0.000250267
000170 1f ad ed 3b 55 b3 da 39 47 cb a0 39 40 8f 91 3b
       0.0072533037 0.00041713813 0.00030669032 0.0044421256
000180 96 27 83 3a eb f0 7a 3a 84 ef f1 3a 86 f6 bb 38
       0.0010006304 0.0009572643 0.0018458222 8.9627734e-05
000190 ba 1a 84 3a 64 27 b9 3b 9b 46 cb 38 53 d4 92 3a
       0.0010078766 0.0056504477 9.6929456e-05 0.0011202194
0001a0 03 79 f2 3a d5 43 85 37 67 e6 af 37 63 2b 09 38
       0.0018499199 1.5886422e-05 2.0968915e-05 3.2703752e-05
0001b0 ac ea ab 36 62 fb 7d 36 65 6f 74 38 74 74 cf 39
       5.1235165e-06 3.7846262e-06 5.8277878e-05 0.0003956888
0001c0 46 cf 35 20 3f b2 4c 20 76 74 cf 39 c7 2b 0c 1a
       1.5399877e-19 1.7338449e-19 0.00039568887 2.8986684e-23
0001d0 06 a8 cd 19 11 5f 30 38 ee d0 ce 39 ab 64 73 39
       2.1264367e-23 4.2050207e-05 0.00039447047 0.00023211788
0001e0 1d d3 9d 38 db de c1 39 11 9c 0e 39 e8 59 8a 37
       7.525666e-05 0.0003697787 0.00013600315 1.6492748e-05
0001f0 74 74 cf 39 7d 74 f8 1c
       0.0003956888 1.6441375e-21

exp_avg f4 [2]
000000 d0 b5 29 bd 44 09 45 be
       -0.041433156 -0.19241816

exp_avg_sq f4 [2]
000000 11 8c 3f 3c 01 13 22 3d
       0.011691109 0.039568905

exp_avg f4 [2, 63]
000000 7c b2 d9 39 d1 cd 1a 3b e4 ae 90 ba df 1b cc 3b
       0.00041522447 0.0023621211 -0.001103845 0.0062289084
000010 fc 62 11 3b 1e 21 1e bb 18 72 4e 3b 6a 45 15 b9
       0.0022184243 -0.0024128626 0.003150111 -0.00014235606
000020 0c fa 8c ba 29 66 c7 38 3c 47 32 3b f7 f0 a2 ba
       -0.0010755672 9.508088e-05 0.0027203104 -0.0012431432
000030 3a bd d0 ba f2 fd db b7 f6 bf 07 bb 14 a0 4a bb
       -0.0015925535 -2.6225087e-05 -0.0020713783 -0.0030918168
000040 e2 b0 88 3a 9d 0f 44 39 86 1d e3 3a 31 ed 48 3b
       0.0010428692 0.00018697833 0.0017327524 0.0030658955
000050 97 85 92 bb de 87 0b 3b 99 6a 21 3b cf f5 5a bb
       -0.0044714916 0.00212907 0.0024630188 -0.0033410673
000060 b1 5f 0c 3b 5f 06 7d 39 49 67 7a bb ce f4 53 3a
       0.0021419341 0.00024130334 -0.0038208535 0.000808549
000070 25 46 32 b9 56 a9 f9 bb 12 5b 21 3a 4d a3 4c b9
       -0.00017001534 -0.0076190634 0.0006155233 -0.0001951579
000080 93 c1 71 bb ea 8f 93 ba 5a 8a f0 b8 1c 53 8a bb
       -0.003688906 -0.00112581 -0.00011469862 -0.004221333
000090 94 95 6c 3a 4f 51 5f 3a 8c 6a cb bb 24 8c 03 39
       0.00090249744 0.0008518891 -0.0062077697 0.0001254534
0000a0 8f c0 1f b9 81 de 9f bb 5e 95 ae b9 3d 4d 72 39
       -0.00015235155 -0.0048788195 -0.00033299153 0.00023107692
0000b0 ca 7f 11 ba c8 ff c2 3a 00 91 18 ba 96 f3 59 3a
       -0.0005550353 0.0014877254 -0.00058199465 0.000831419
0000c0 83 1c 1b 3b 77 5b 57 af ad 82 1b 30 82 1c 1b bb
       0.0023668117 -1.9586631e-10 5.6574373e-10 -0.0023668115
0000d0 28 62 30 ac 98 6c 5e ac 39 36 a6 3a 07 dd 11 3a
       -2.5065592e-12 -3.160838e-12 0.0012680955 0.00055642467
0000e0 7d 3d 38 3b b2 61 12 3a 92 ed 61 bb 04 0b 82 3b
       0.0028112822 0.0005584016 -0.0034473878 0.0039685983
0000f0 11 68 9d 39 81 1c 1b bb 83 d4 80 ac bf b0 b5 3c
       0.0003002291 -0.0023668113 -3.6615723e-12 0.022179006
000100 e3 61 ed 3b ed 93 5d bc 01 86 cf 3c ea d9 bd 3b
       0.007244335 -0.013524038 0.025332453 0.0057937996
000110 a4 46 76 bc 07 cc 7a 3c fe e9 3a 3b b3 0f e4 bb
       -0.0150314905 0.015307433 0.0028520818 -0.0069598793
000120 3e ad b7 bb 70 5c 0c bc 7f 86 ce bc 4e 87 97 bc
       -0.005605369 -0.008566961 -0.025210617 -0.018497135
000130 67 af 98 bb 25 11 9e bc 62 65 95 bc 6e 53 09 3b
       -0.0046595815 -0.019295285 -0.01823682 0.002095427
000140 b4 e6 de bb 74 aa ae 3c 2b 0a e7 38 44 5c ad bc
       -0.0068024043 0.021321513 0.00011016832 -0.02116216
000150 f5 18 8a 3c 32 fb ee 3a 76 c4 4e bc b7 b6 c1 3b
       0.016857604 0.0018232821 -0.012620082 0.005911674
000160 86 91 b0 3b ca 1c ac bc c7 95 ba bb 6d 9d e2 3b
       0.0053884415 -0.021009821 -0.0056941244 0.0069157393
000170 6b ce 95 bc 4d 6b fc bb 1c 71 ef 3b 9c d2 87 bb
       -0.018286904 -0.007703221 0.007307185 -0.0041449796
000180 99 0b 93 bc 3f ad c2 b9 22 2f 17 bc fc 74 cf bb
       -0.017949866 -0.00037131642 -0.009227546 -0.0063310843
000190 6f 33 8a 3b 5a 2f 8b bc 83 a7 21 bc e6 64 96 3b
       0.004217557 -0.016990352 -0.009866598 0.0045896647
0001a0 78 4e 8d bc b0 e1 a2 bb 6a 9e 0d b8 bc 2d eb bb
       -0.01724933 -0.0049707517 -3.3764554e-05 -0.007177083
0001b0 10 8c ec 38 8a 88 a9 39 eb b4 02 3c ba 83 5e 3c
       0.000112794456 0.0003233592 0.0079777045 0.013581211
0001c0 30 a7 91 af 88 4f 72 30 bb 83 5e bc 1e 55 bd 2b
       -2.649414e-10 8.815211e-10 -0.013581212 1.3452882e-12
0001d0 02 3e 6e ac 24 f4 09 bb f8 ab b5 ba 86 e6 aa 3b
       -3.3856255e-12 -0.002105006 -0.0013860455 0.005215469
0001e0 48 55 46 3c ff 37 50 bc 2f 78 9b 3c b6 85 89 3b
       0.012105294 -0.012708663 0.018978206 0.004196848
0001f0 bb 83 5e bc f3 56 6d 2d
       -0.013581212 1.3491197e-11

exp_avg_sq f4 [2, 63]
000000 a9 25 99 38 53 5b cd 38 b8 3a 84 3a 69 b7 11 39
       7.302623e-05 9.792172e-05 0.00100883 0.00013896603
000010 6b e3 d6 37 1b f3 0d 3a 23 3e f1 38 64 1c 85 36
       2.5616688e-05 0.00054149487 0.000115033494 3.967014e-06
000020 a3 90 3f 38 21 7b 3c 38 e6 46 c0 38 38 66 85 3a
       4.5672652e-05 4.4937366e-05 9.168479e-05 0.0010177558
000030 5b 67 bd 38 54 69 c8 37 88 b4 1d 3a 80 e9 c3 38
       9.031474e-05 2.3890905e-05 0.0006015976 9.341817e-05
000040 22 34 1b 36 18 96 8b 38 7b bc 1e 38 68 ae 52 38
       2.3127145e-06 6.655994e-05 3.784567e-05 5.023033e-05
000050 06 00 21 3b fa ce 63 38 dd 19 82 38 7f 47 b3 3a
       0.0024566664 5.431378e-05 6.2037005e-05 0.0013677924
000060 b8 80 8f 38 fe fa 71 39 d6 48 3d 3a 3c 2c 39 37
       6.842747e-05 0.00023077053 0.0007220631 1.1037158e-05
000070 58 ae 8f 38 ff da 2f 3b e0 dd fe 37 72 d4 8b 38
       6.8512454e-05 0.0026833413 3.0382478e-05 6.6676075e-05
000080 a0 3b bc 3a b3 96 56 38 60 11 8f 39 1f d0 2c 3a
       0.0014361031 5.1161926e-05 0.0002728803 0.0006592292
000090 a2 44 63 38 ba 4f 62 39 2b d6 05 3b 8a 4b e2 36
       5.4184937e-05 0.0002158274 0.0020421844 6.7441188e-06
0000a0 c7 61 91 39 5d 0d 32 3a a6 69 2b 34 34 24 22 36
       0.00027729405 0.00067921524 1.596405e-07 2.4160954e-06
0000b0 e7 1b 1b 37 26 e4 63 35 c9 97 89 34 6f 1b ae 38
       9.2452165e-06 8.489609e-07 2.5628677e-07 8.3020765e-05
0000c0 f6 7c 92 38 94 fd 6a 1f 57 62 51 20 f7 7c 92 38
       6.985098e-05 4.9761182e-20 1.7735527e-19 6.985099e-05
0000d0 cc 9d 78 18 31 ce e2 18 ea 82 5f 37 9a 14 aa 38
       3.2132916e-24 5.862783e-24 1.3322317e-05 8.110069e-05
0000e0 46 5b 12 38 72 49 88 37 b5 8e 9d 38 6d c4 5e 38
       3.4894118e-05 1.6246664e-05 7.512925e-05 5.311186e-05
0000f0 07 d6 fb 35 f7 7c 92 38 14 9c b0 1b 58 6c 07 3a
       1.8763247e-06 6.985099e-05 2.921762e-22 0.0005165986
000100 ab ca df 39 d2 ca 58 3b 24 71 36 3a 98 8c ed 38
       0.00042684874 0.0033079875 0.0006959608 0.00011327228
000110 6b 7c f3 3a dd 7c 14 3a ab 4e 2b 37 02 ca 25 39
       0.0018576508 0.0005664358 1.0210711e-05 0.0001581088
000120 72 74 88 39 e9 77 1f 3a 01 3e 5a 3b 84 7a 33 3a
       0.000260267 0.00060832367 0.0033301117 0.00068465644
000130 e3 06 4e 39 5c 0d 01 3b 18 10 1c 3a e5 38 67 37
       0.00019648256 0.00196918 0.0005953326 1.378192e-05
000140 e2 eb 55 39 a4 ac c6 38 16 05 59 39 32 85 17 3c
       0.00020401136 9.4735326e-05 0.00020696627 0.009248065
000150 fb 74 03 39 15 3b 63 39 7e ab af 3b a0 fb d2 38
       0.00012536712 0.00021670417 0.0053610196 0.00010060449
000160 29 0a 5b 3a 6c 00 3a 3b 0a 97 cd 39 0b 82 70 39
       0.0008355701 0.00283816 0.0003921318 0.00022936628
000170 1e 31 1e 3c 01 ad 07 3a b9 fa 61 39 b0 15 b2 3b
       0.009655265 0.0005175621 0.00021551074 0.0054347143
000180 33 46 72 3a c7 65 70 3a b7 42 38 3b 77 e7 36 39
       0.0009242028 0.00091704394 0.0028115937 0.000174431
000190 26 72 3f 3a 74 65 04 3c 62 1c 81 39 a1 fa 81 3a
       0.0007303081 0.008080829 0.00024625944 0.0009916612
0001a0 d3 7d 34 3b 80 af 28 37 79 06 06 37 7b 7f 09 38
       0.0027540817 1.0054442e-05 7.988529e-06 3.278207e-05
0001b0 9c 24 96 35 61 fe 67 36 9e e3 90 39 46 19 c7 39
       1.1186526e-06 3.456975e-06 0.00027635408 0.00037975068
0001c0 ae 73 7d 20 85 be 2c 21 49 19 c7 39 54 54 14 19
       2.1468209e-19 5.8528017e-19 0.00037975077 7.6684506e-24
0001d0 24 5e ba 19 3d 0b e9 38 5e 69 80 39 a8 60 2d 3a
       1.9269972e-23 0.00011112399 0.00024492567 0.0006613829
0001e0 12 3e c9 38 54 f8 ce 39 f7 58 2d 3a 3a ac 7a 37
       9.5959884e-05 0.000394764 0.0006612683 1.4941261e-05
0001f0 49 19 c7 39 d7 b6 a7 1c
       0.00037975077 1.1098396e-21

exp_avg f4 [2]
000000 9d e3 c1 bc 59 12 0b be
       -0.023668105 -0.13581218

exp_avg_sq f4 [2]
000000 3a e3 e4 3b ba 8b 1b 3d
       0.0069850953 0.03797505

exp_avg f4 [2, 63]
000000 72 de 60 3b e7 93 10 3b 5b 57 92 ba 62 b1 f5 3b
       0.0034312275 0.0022060813 -0.001116495 0.0074979523
000010 a8 f4 39 3b 15 5c 19 bb ef 25 54 3b 68 9d ea 39
       0.0028374586 -0.0023400832 0.0032371243 0.00044749235
000020 71 19 99 ba e6 2e 28 bb e5 61 14 3b 17 ab 1a 3b
       -0.0011680556 -0.002566272 0.0022641358 0.0023600513
000030 f9 fc ee b9 79 de 06 bb 07 fd 89 3a 9e 70 20 bb
       -0.00045583377 -0.0020579381 0.0010527679 -0.0024481188
000040 f9 42 ca 3a c7 96 c2 b7 c3 0c 55 35 fa c4 d3 3a
       0.0015431336 -2.3196813e-05 7.9367254e-07 0.0016156726
000050 9f da 00 3a a1 08 ee 3a fa c1 ed 3a fb e3 7a 3a
       0.00049153896 0.0018160531 0.0018139475 0.0009570715
000060 69 81 05 3b 1f 61 1a 3a 8e cc de b9 e0 3e d2 3a
       0.0020371324 0.0005889106 -0.00042495545 0.0016040467
000070 08 72 ed 39 3d eb e5 ba 4b fd c2 3a db 09 fc 39
       0.00045289122 -0.001754142 0.0014876513 0.00048072528
000080 d0 e8 93 3a 64 58 9c ba 8e c1 db 39 d9 c7 b9 38
       0.0011284593 -0.0011928198 0.00041915145 8.858712e-05
000090 22 b6 f7 ba 75 2f a9 3a ee de d5 b9 94 1a 6b 3a
       -0.0018898884 0.001290782 -0.0004079262 0.0008968499
0000a0 d0 83 8a b7 69 ef 83 b9 a0 da 6e 38 d1 3d 71 38
       -1.6512262e-05 -0.00025164642 5.6947232e-05 5.751645e-05
0000b0 08 6f 24 ba bc e9 7b 3a f5 de 2f ba 1e fa 0d 39
       -0.00062726485 0.0009609719 -0.00067089434 0.00013539984
0000c0 f3 e2 d8 3a 13 8d 78 2e a4 90 2c af f9 e2 d8 ba
       0.0016547128 5.651397e-11 -1.5694696e-10 -0.0016547135
0000d0 5f d9 8a ab 24 8a ed 2b 83 cc 0f 3b bc 97 a1 3b
       -9.865822e-13 1.6878205e-12 0.0021941967 0.004931418
0000e0 3e 23 0f 3b ad 65 e2 39 29 9b f9 3a 51 47 d5 3b
       0.0021841074 0.00043181833 0.0019043434 0.0065087457
0000f0 a7 5f 8e bb f7 e2 d8 ba 22 69 d2 ad c6 7a ec 3c
       -0.0043448987 -0.0016547133 -2.3920924e-11 0.028867137
000100 0b 73 29 3c 1b 13 4b bc ec 73 f4 3c 53 24 07 3c
       0.01034237 -0.012394692 0.029840432 0.008248406
000110 27 0c 84 bc 57 40 85 3c bf 70 66 3b 4b 90 db bb
       -0.016119076 0.016266031 0.0035162417 -0.0067005507
000120 ba 80 cf bb 95 de df bb fc 56 5f bc 39 d4 8a bc
       -0.006332484 -0.006831954 -0.013631579 -0.016946899
000130 c7 b4 ea bb c6 c8 2b bc f6 38 9c bc 88 81 78 3b
       -0.0071626636 -0.01048488 -0.01907013 0.0037919004
000140 b5 75 aa bb 82 48 ba 3c 17 8e 30 3b b0 61 98 bc
       -0.00520202 0.022739653 0.002694016 -0.018601269
000150 2e 65 a2 3c 40 9f a7 3b 26 8f 3a bc 7f 08 b0 3b
       0.019823637 0.0051154196 -0.011386668 0.0053721066
000160 82 e1 e6 3b cc c5 bb bc 33 c0 fe bb 1e 3f 19 3c
       0.0070459256 -0.022921465 -0.007774377 0.009353427
000170 c7 6e 9e bc 84 f7 0b bc 0a 4a 3b 3c bc dd a3 bb
       -0.019339932 -0.008542899 0.0114312265 -0.005000798
000180 96 b1 9d bc fc e5 80 3b 57 d6 0f bc a7 a8 10 bb
       -0.019249719 0.0039336663 -0.00877913 -0.002207318
000190 89 c8 1f 3c f6 a5 8d bc 62 62 04 bc 4c 09 bd 3b
       0.009752401 -0.01729105 -0.008080097 0.0057689305
0001a0 0d 54 7f bc e3 1f 8c bb f0 ab b3 3a 29 98 c4 bb
       -0.015584004 -0.004276262 0.0013707858 -0.005999584
0001b0 6b cc 50 ba 44 12 3c 39 93 f1 03 3c 24 61 74 3c
       -0.0007965031 0.00017935882 0.008053201 0.014915738
0001c0 a1 15 43 2f 21 83 2b b0 25 61 74 bc c7 2d 2a ad
       1.7742831e-10 -6.2395783e-10 -0.014915739 -9.673546e-12
0001d0 7e c6 39 2c 89 0b 9b 3b 09 d0 86 3c bf cf 95 3c
       2.6400267e-12 0.0047315997 0.01645662 0.018287538
0001e0 36 95 05 3d c6 09 13 bc 04 2c 6b 3c cd 46 28 3b
       0.032613 -0.008974498 0.014353756 0.0025676966
0001f0 24 61 74 bc 14 54 6c ae
       -0.014915738 -5.3734864e-11

exp_avg_sq f4 [2, 63]
000000 c3 e6 3e 39 94 d2 d8 38 9e 7e 33 3a 8e 39 85 39
       0.00018205777 0.00010338906 0.00068471755 0.00025410618
000010 e3 f5 f0 37 d9 8f c0 39 0e db 24 39 e9 c1 5b 36
       2.872473e-05 0.0003672827 0.00015721863 3.2746414e-06
000020 d8 40 02 38 f0 e3 ad 38 49 2a 05 39 9b 8d 25 3a
       3.1054806e-05 8.2917395e-05 0.00012699621 0.00063153513
000030 8f 8c 09 39 b4 31 82 38 ae cb c7 39 08 e9 03 39
       0.000131177 6.208141e-05 0.0003810799 0.00012579944
000040 dc 35 27 36 33 65 3c 38 26 30 39 38 c7 1a 35 38
       2.491629e-06 4.4916942e-05 4.415228e-05 4.31787e-05
000050 be 1f ee 3a e1 6d 83 38 e5 95 3c 38 97 e7 85 3a
       0.0018167419 6.267033e-05 4.4962293e-05 0.0010216114
000060 b8 ae 6f 38 3c ba 3b 39 3b b7 1f 3a 77 5d 3e 38
       5.714476e-05 0.00017903087 0.0006092672 4.5386576e-05
000070 79 a0 5c 38 54 a4 04 3b 84 30 b0 38 07 11 4e 38
       5.260154e-05 0.0020239549 8.401371e-05 4.9130085e-05
000080 67 81 8d 3a 34 d9 ef 38 b8 cb 54 39 2b 84 0f 3a
       0.0010796011 0.00011436865 0.00020293787 0.00054747117
000090 55 92 2c 38 a2 83 25 39 4f d4 d0 3a 09 14 a9 36
       4.1144278e-05 0.00015784663 0.0015932414 5.038925e-06
0000a0 29 62 65 39 53 da 10 3a 7a 52 01 34 07 31 e1 35
       0.0002187571 0.0005525697 1.2044066e-07 1.6778075e-06
0000b0 f5 43 ef 36 f1 8e 30 35 71 de cd 34 00 e1 69 38
       7.1306663e-06 6.5773116e-07 3.8346073e-07 5.5761077e-05
0000c0 f5 17 c4 38 6b c8 72 1f 6f 50 08 20 f2 17 c4 38
       9.350471e-05 5.1411275e-20 1.1546261e-19 9.3504685e-05
0000d0 a1 dd 5c 18 dd f5 4c 19 28 76 af 38 b5 6e 4a 39
       2.8546228e-24 1.05962045e-23 8.3666586e-05 0.00019305463
0000e0 a1 c9 3b 39 bb 34 1c 39 bf 3b 06 39 d8 cd 6d 39
       0.00017908822 0.00014896963 0.00012801493 0.00022678764
0000f0 ef b5 bc 36 f2 17 c4 38 af 6e 8e 1b 7e 53 af 3a
       5.6240165e-06 9.3504685e-05 2.3563457e-22 0.0013376323
000100 da 34 e0 39 e0 cc fe 3a d2 21 c5 3a f2 cc 02 39
       0.00042763987 0.001943972 0.0015039986 0.00012474114
000110 7b 45 91 3a f7 37 77 3a 08 d0 23 37 60 1e cb 38
       0.0011083329 0.00094306417 9.763993e-06 9.685452e-05
000120 0c 39 0f 3a c1 b0 43 3a 6c 88 f4 3a e0 28 a8 3a
       0.0005463518 0.0007464998 0.001865638 0.0012829565
000130 2a 4f b5 39 28 9d 91 3a bc dc 83 3a 5a 5b 47 37
       0.00034581992 0.0011109458 0.0010060291 1.1882594e-05
000140 09 86 08 39 ce 96 37 39 da 0b 1a 39 27 75 bd 3b
       0.00013019903 0.00017508419 0.00014691 0.005781788
000150 32 52 6a 39 69 32 01 39 bf 0e 5e 3b af a5 cc 38
       0.00022346599 0.00012321178 0.00338833 9.758339e-05
000160 a1 86 0b 3a 4f d5 06 3b 44 e1 85 3a 0e 5b 2c 39
       0.00053224905 0.002057392 0.0010214229 0.00016437119
000170 7d 6b cf 3b 67 4b 9b 3a 93 41 07 39 d5 67 69 3b
       0.0063299523 0.0011848033 0.00012899032 0.0035614867
000180 e4 94 f3 3a ef a5 16 3a e4 d0 04 3b 68 03 42 39
       0.0018583802 0.0005746772 0.002026611 0.0001850255
000190 5e 00 dd 39 bc 55 af 3b 53 64 00 3a e3 4d 29 3a
       0.00042152678 0.0053507965 0.0004897762 0.00064584444
0001a0 8b 60 01 3b ea a9 71 37 80 dc 99 36 37 11 da 37
       0.0019741382 1.4404281e-05 4.585425e-06 2.5995641e-05
0001b0 d9 6f 38 35 84 ec 4f 36 4c 78 2f 39 da cb 2d 3a
       6.87081e-07 3.0983074e-06 0.00016734115 0.00066298025
0001c0 7a e2 2e 20 5f 56 08 21 db cb 2d 3a 37 28 09 1a
       1.4813308e-19 4.6192904e-19 0.0006629803 2.836342e-23
0001d0 eb 03 19 1a 8f 58 a1 3a 0d 68 25 3a 02 04 0e 3b
       3.1642823e-23 0.0012309718 0.0006309755 0.002166987
0001e0 e6 3c 9f 3a 76 c8 84 3a 7d 01 53 3a 9d 72 2b 38
       0.0012148886 0.0010130543 0.0008049233 4.087632e-05
0001f0 da cb 2d 3a 52 fc a2 1c
       0.00066298025 1.0785484e-21

exp_avg f4 [2]
000000 df 8d 87 bc b2 bc 18 be
       -0.016547142 -0.14915732

exp_avg_sq f4 [2]
000000 d0 32 19 3c 47 c7 87 3d
       0.009350494 0.06629806
