artifacts/poses_to_location/20250818182736/best_model.pt (torch, 376885 bytes, 48 tensors)

embedding.embeddings.bex_20230623_denoised.poses.weight f4 [64, 63]
0	0xbc37bba4	-0.011214171
1	0xbda79395	-0.08182446
2	0x3d3a8d0c	0.04554467
3	0xbd919803	-0.07109072
4	0x3d35dfaf	0.044402774
5	0xbd8a9ceb	-0.06768211
6	0x3d182124	0.03714098
7	0xba90843b	-0.0011025736
8	0xbbfaa6a9	-0.007649262
9	0x3cb07fd7	0.021545334
10	0x3b672fb0	0.0035276227
11	0x388e3d18	6.782467e-05
12	0xbd8965b4	-0.067088515
13	0x3d4d161d	0.050069917
14	0x3d3cd794	0.04610403
15	0x3dc6cb85	0.09706787
16	0xbb2ffec4	-0.0026854733
17	0x377b6358	1.4983896e-05
18	0x395381a8	0.00020170829
19	0x3da47ab5	0.08031217
20	0x3dba900a	0.091095045
21	0xbb7dc8fa	-0.0038724528
22	0x37545c91	1.2657737e-05
23	0x38b615a7	8.682469e-05
24	0xbd33f335	-0.043933112
25	0x3b1f2a78	0.0024286788
26	0xbc5bf496	-0.013425013
27	0x3cc73024	0.024314947
28	0x3dadf23b	0.084934674
29	0x3d7b12c1	0.061297182
30	0xbc80d6e8	-0.015727475
31	0xbd800dd7	-0.0625264
32	0x38cb5c74	9.697015e-05
33	0xbcfbec65	-0.03075237
34	0x3b824626	0.0039756475
35	0x3d99eb45	0.07515577
36	0x3d8c8cf5	0.06862823
37	0x3ca86ed5	0.020560661
38	0x3adf0404	0.0017014747
39	0xbd83661c	-0.0641596
40	0xbdccb3ab	-0.099952064
41	0x3d9ab8b8	0.075547636
42	0xbba13b2d	-0.0049203844
43	0x3db39ab4	0.08769742
44	0xbdc15845	-0.09440664
45	0xbd96bd0c	-0.073602766
46	0xbd670a95	-0.056406576
47	0x3c406859	0.011743628
48	0xbd8f7d3b	-0.07006308
49	0xbda1d8a3	-0.07902648
50	0x3d970352	0.0737368
51	0xbd932cd6	-0.07186286
52	0xbda0e1f5	-0.07855598
53	0x3d7ad1bc	0.061235175
54	0x3645831f	2.943161e-06
55	0xbd59a14e	-0.053132348
56	0x3d5c4460	0.053776145
57	0xbc98924a	-0.018624444
58	0xb8a862f0	-8.029293e-05
59	0x3d057392	0.03258092
60	0x3d9b83bc	0.07593486
61	0x3d8da431	0.06916083
62	0x3d720120	0.059083104
63	0x3d84a341	0.06476451
64	0xbb660fbe	-0.0035104598
65	0xbd7a989a	-0.06118069
66	0xbcfb7028	-0.030693129
67	0xbd88cea1	-0.06680036
68	0xbceec5aa	-0.029146988
69	0xbd966b27	-0.073446564
70	0x3d9b9491	0.07596696
71	0xbd42f2c9	-0.04759482
72	0xb9c18f41	-0.0003691856
73	0x3dbb9d98	0.09160918
74	0xbadd1c84	-0.001686946
75	0xb74bc584	-1.2145731e-05
76	0x3cd564ef	0.026049105
77	0x384cedac	4.885874e-05
78	0xbd7851ca	-0.060624875
79	0xbd84ec58	-0.064903915
80	0x3a60e899	0.00085795816
81	0xbd74e2c1	-0.059786562
82	0x36cce844	6.106713e-06
83	0xbc062095	-0.008186479
84	0x3d243b4c	0.040095612
85	0x3d9e9a45	0.07744268
86	0xbc52dc55	-0.012869914
87	0x3c58fd27	0.01324395
88	0xbc9d4899	-0.019199656
89	0xbd592edd	-0.053023208
90	0x3b8f9809	0.0043821377
91	0x3d8038bc	0.06260821
92	0xbcd98132	-0.026550863
93	0x3cd352de	0.02579635
94	0x3dc45615	0.09586731
95	0xbb9f51bd	-0.004862039
96	0xbd1371ad	-0.03599708
97	0x378c05e5	1.6692045e-05
98	0xbd4b1e88	-0.049589664
99	0xbd8e8823	-0.0695956
100	0x378f9966	1.711836e-05
101	0x3dc6f4b5	0.09714643
102	0xbd1a791b	-0.03771315
103	0xbd807f6e	-0.06274305
104	0x3db19873	0.086716555
105	0xb885c631	-6.37885e-05
106	0x3dcad29e	0.09903453
107	0xbd58732f	-0.052844223
108	0x3a44a958	0.0007502041
109	0xbd4e897c	-0.050424084
110	0xbd3128a0	-0.043251634
111	0x3784fe88	1.5854152e-05
112	0x3d343889	0.04399923
113	0x3d746208	0.059663802
114	0x3d695647	0.056967046
115	0xbd81fdbb	-0.06347223
116	0x3c331e5b	0.01093253
117	0x3d8298a7	0.063767724
118	0x3bb3083f	0.0054636295
119	0x3d8a177d	0.06742761
120	0xbdbc69d1	-0.091998704
121	0xbd44a62a	-0.04801003
122	0xbdb8e5fc	-0.09028241
123	0xb56bb524	-8.7807916e-07
124	0x3db408de	0.08790754
125	0xbda5c26b	-0.08093723
126	0xb7cb701f	-2.4251696e-05
127	0xbc6113a8	-0.013737597
128	0xb8cf6daa	-9.890956e-05
129	0xb9a6b4ee	-0.0003179679
130	0xbc772ce8	-0.01508639
131	0xb896ea54	-7.1962044e-05
132	0xbb81c280	-0.003959954
133	0x3d053e33	0.03253002
134	0xbd801e76	-0.0625581
135	0xb783066b	-1.5619406e-05
136	0x3d5e1d3e	0.054227106
137	0xb8bf2f43	-9.116393e-05
138	0xbd59999b	-0.053125005
139	0xbbf5746e	-0.007490686
140	0x3da7f2dd	0.08200619
141	0xbbcf0f73	-0.0063189804
142	0x3dcaf29b	0.099095546
143	0x3dafba65	0.08580474
144	0xbdc75ba4	-0.09734276
145	0xbdc2c07d	-0.095093705
146	0x3d509f20	0.050933003
147	0x3d97bfed	0.07409654
148	0x3d898fe6	0.067168996
149	0x3c8928f0	0.016743153
150	0xba816b10	-0.0009873826
151	0x3cdf0598	0.027224347
152	0xbd994f5b	-0.07485839
153	0xbdc606aa	-0.0966924
154	0xbd06c1e6	-0.03289976
155	0xbc876b89	-0.016530769
156	0xbd5a9b3f	-0.05337071
157	0x3dbb54fd	0.091470696
158	0x3d5f32f1	0.05449194
159	0xbd313609	-0.043264423
160	0x3d7fac6a	0.062420286
161	0xbd3d8df3	-0.04627795
162	0x3a8b4ac3	0.0010627139
163	0xb866516d	-5.4912107e-05
164	0xbd2612ea	-0.04054538
165	0x3c28946b	0.010289292
166	0xb873b1c4	-5.8101272e-05
167	0x3d02b879	0.031914208
168	0xbd2f4a10	-0.04279524
169	0xb85052ad	-4.9668062e-05
170	0x3cd4dd14	0.025984325
171	0x3b9ee602	0.0048491964
172	0xbc42c97d	-0.011888859
173	0x3cbf5a65	0.023358533
174	0xbb511854	-0.003190537
175	0xbc834266	-0.016022872
176	0xaa3ce9e3	-1.67789e-13
177	0x3c47496b	0.0121635
178	0x3da9b622	0.08286692
179	0xbdad5072	-0.08462609
180	0xbdcd2c5c	-0.100182265
181	0x3cb01e83	0.021498924
182	0xbd684bff	-0.0567131
183	0xbdbd5f8e	-0.09246741
184	0x3ab8bfa8	0.0014095204
185	0xb68dcd8d	-4.2260567e-06
186	0xbdc86b6f	-0.09786116
187	0xbd4130d7	-0.047165718
188	0x3cd78522	0.0263086
189	0xbc93e50b	-0.018053552
190	0xbd531981	-0.051537994
191	0x3bfa16e5	0.007632124
192	0x3d6117ef	0.054954465
193	0x3513e50d	5.509508e-07
194	0x3c2b724b	0.010464261
195	0xbdb4f0da	-0.08835001
196	0xbca055a6	-0.01957209
197	0x3d7aa303	0.061190616
198	0x389b79bd	7.4136515e-05
199	0x39820c19	0.00024804546
200	0xbdacced0	-0.08437884
201	0x3c7d6fcb	0.015468548
202	0x3bdd3933	0.0067512034
203	0x3b6be2c4	0.0035993317
204	0x3cec0b38	0.028813943
205	0x3d8d3b70	0.068961024
206	0xbda1da51	-0.07902969
207	0x3d666f54	0.056258515
208	0x3d9707bb	0.07374521
209	0x3d829d79	0.06377692
210	0xb8298a7b	-4.042171e-05
211	0xbda2a59b	-0.07941743
212	0xbcdef2ba	-0.02721535
213	0xbd51aa3e	-0.051187746
214	0xbd80e14c	-0.06292972
215	0xbcd42487	-0.025896324
216	0x3a84b4d6	0.0010124694
217	0xbd8906b6	-0.06690733
218	0x3c8bcfe8	0.01706691
219	0xbd2b92dd	-0.041888107
220	0x3d5fe06d	0.05465739
221	0x3c1b9653	0.009496289
222	0x3dc055e4	0.09391382
223	0x3d3691ff	0.044572826
224	0x3dab12d4	0.083532006
225	0x3d8173b9	0.063209005
226	0xbd73fac1	-0.05956531
227	0xbd260d5f	-0.040540095
228	0xbdad4769	-0.08460886
229	0xbd87f988	-0.06639391
230	0xbda713bd	-0.08158062
231	0x3d927e30	0.071529746
232	0x3d212ee0	0.039351344
233	0xbbd4d8ff	-0.0064955945
234	0x3b3d7b03	0.0028912432
235	0x338b1623	6.4767185e-08
236	0xbda022cd	-0.07819138
237	0xbcd81147	-0.026375426
238	0x366be48d	3.5150763e-06
239	0xbcb52df0	-0.022116631
240	0xbd19594c	-0.037438676
241	0x3d4c64e8	0.04990092
242	0xbd0ff3b5	-0.035144527
243	0xbdcd5b09	-0.10027129
244	0x3dbc7c1d	0.0920336
245	0x3da0e4cf	0.07856142
246	0xbd9345f2	-0.071910754
247	0x3cb9b633	0.022669887
248	0x3bb014c0	0.0053735673
249	0xbd894c2a	-0.0670398
250	0x3cffaee6	0.031211328
251	0x3d90bbcf	0.07067072
252	0x382f1d86	4.1750747e-05
253	0xbcbe59fd	-0.02323627
254	0x3dc7331a	0.09726544
255	0xbdca3580	-0.098734856

embedding.embeddings.bex_20230623_denoised.poses.bias f4 [64]
0	0xbd8597ea	-0.06523116
1	0xbd172655	-0.03690179
2	0x39b8786b	0.00035184933
3	0xbd5d2c95	-0.053997595
4	0xb90db63d	-0.00013514697
5	0xbd73e4aa	-0.059544243
6	0xbaaf7421	-0.001338605
7	0xb956d999	-0.00020489692
8	0x38f4bfa9	0.00011670526
9	0xbd8f036b	-0.06983074
10	0x3b4aeb39	0.0030962958
11	0x3c8c2b74	0.017110564
12	0xbdb74208	-0.08948141
13	0xbbc2698b	-0.005932992
14	0xbc4d0f95	-0.012515922
15	0x3afc197b	0.0019233668
16	0xbdc0f837	-0.09422343
17	0x3d8dcba7	0.06923609
18	0x3cad2e23	0.021140164
19	0xb7d263b3	-2.5080377e-05
20	0xb9b446f7	-0.00034385148
21	0x3d4b486b	0.04962961
22	0xbda15335	-0.078771986
23	0x3d8ebf56	0.06970088
24	0x3c0479b1	0.008085654
25	0xbc387560	-0.011258453
26	0x3db9ce3b	0.090725385
27	0x3c9aa35c	0.018876724
28	0x3d75e358	0.060031265
29	0xbdc4cd59	-0.096094795
30	0xbb1bc4f4	-0.0023768516
31	0xbd298921	-0.041390542
32	0xbdc97c11	-0.09838117
33	0x3c201777	0.009771219
34	0xbb1c20b2	-0.00238232
35	0x3d9fbfae	0.07800232
36	0x3b16caaf	0.0023008992
37	0xbdc98d3f	-0.09841394
38	0xbdad84f1	-0.08472622
39	0xbaba55e8	-0.0014216276
40	0xbd4ec865	-0.05048408
41	0x3cec4f30	0.028846353
42	0x3da4c7e7	0.08045941
43	0xbcacc7a7	-0.021091295
44	0xb89b4963	-7.404645e-05
45	0xbdb5d0b6	-0.08877699
46	0xbd037cbf	-0.03210139
47	0xbd89a704	-0.06721309
48	0xbaa76c0c	-0.0012773289
49	0x3dc54af2	0.09633435
50	0x3db6340e	0.088966474
51	0xbd971bd2	-0.07378353
52	0xbda8f6f1	-0.08250225
53	0xbd79eac6	-0.061014913
54	0x3d2ce263	0.042208087
55	0x3a058ff2	0.0005094997
56	0xbd0f3d0d	-0.034970332
57	0xbd7ba57a	-0.061437108
58	0x3cb59585	0.022166023
59	0xbd88a84a	-0.066727236
60	0x3d3687a1	0.04456294
61	0x3d78b933	0.060723495
62	0xbd735208	-0.059404403
63	0x3d33a9ba	0.043863036

embedding.embeddings.ken_20230614_denoised.poses.weight f4 [64, 63]
0	0x3d0db08e	0.034592204
1	0xbd8e2511	-0.069406636
2	0xbd8e22f3	-0.0694026
3	0x3cbc125b	0.022957971
4	0xb5c3b358	-1.4580828e-06
5	0x38920b27	6.9639e-05
6	0x3d839a90	0.06425965
7	0xbd1621dc	-0.036653385
8	0xbd5d97fb	-0.054100018
9	0xbd48520c	-0.04890637
10	0x3da45b07	0.080251746
11	0xbd383025	-0.04496779
12	0x369e5753	4.718933e-06
13	0xbd955a17	-0.07292574
14	0x3daf8369	0.085699864
15	0x374c4f81	1.21778585e-05
16	0x3d8d7ec7	0.069089465
17	0xbd5d0159	-0.053956363
18	0x3d67c3f7	0.05658337
19	0x3d6609c1	0.056161646
20	0xbd056b23	-0.032572877
21	0xbd085bb5	-0.033290584
22	0xbdbe7d85	-0.09301285
23	0xb70b5a99	-8.3061395e-06
24	0xbd564856	-0.05231508
25	0xb5e07cce	-1.6725623e-06
26	0xbb8ac46c	-0.004234841
27	0xbd8ddf87	-0.069274
28	0x3b39734e	0.0028297487
29	0xbd076dba	-0.033063628
30	0xbd108b95	-0.035289366
31	0xb64eff45	-3.0844978e-06
32	0xbd91556b	-0.0709637
33	0x32ac2b1a	2.0043036e-08
34	0xbd5875b0	-0.05284661
35	0xbca748cf	-0.02042046
36	0xb69348b5	-4.3894056e-06
37	0xbca4e2da	-0.020127703
38	0x3a489756	0.00076519453
39	0xb5d57e4a	-1.5906492e-06
40	0xbd5e052f	-0.054204162
41	0xbc8c154f	-0.017100004
42	0x3cefad3d	0.029257411
43	0x3da4739a	0.08029862
44	0xb4877d65	-2.5236946e-07
45	0xbc523e42	-0.012832226
46	0xbdaf21f5	-0.08551399
47	0x37be8e81	2.2716124e-05
48	0xb6cbed6d	-6.0775114e-06
49	0xa9a54013	-7.338587e-14
50	0x3c32b2e7	0.010906911
51	0x3dc3e2fa	0.09564777
52	0xa9dc4db3	-9.783441e-14
53	0xbc8ebb1c	-0.017423205
54	0xbdb26a0c	-0.08711633
55	0xbcba5999	-0.022747802
56	0x3d1bbb78	0.03802058
57	0xbc7bc42d	-0.015366596
58	0xb8d666e1	-0.00010223478
59	0xbbaf4640	-0.0053489506
60	0x3d94e57f	0.072703354
61	0xb8e068a4	-0.00010700643
62	0x3475b7ad	2.2884224e-07
63	0xbd3ec1b7	-0.04657146
64	0xbbf17c58	-0.0073695593
65	0x3dbe5268	0.092930615
66	0xbd05ed8d	-0.03269725
67	0xbccef917	-0.02526526
68	0xb9a4f6a8	-0.0003146429
69	0x3cd8656c	0.02641555
70	0xbb232ac0	-0.0024897307
71	0x3d013541	0.031544928
72	0x3d7811c2	0.06056381
73	0x3d27ac72	0.04093594
74	0xbda8ec4b	-0.08248194
75	0xb74be5de	-1.2153263e-05
76	0x3d295e1c	0.041349515
77	0x3db04e6a	0.08608706
78	0xb7479b64	-1.1897504e-05
79	0xbd0cb44a	-0.034351625
80	0xbd6f791e	-0.058465116
81	0x3699528c	4.569365e-06
82	0x3d6f486b	0.058418673
83	0x3dab2d89	0.083582945
84	0xbd43cfdd	-0.047805656
85	0x3706c43c	8.032712e-06
86	0xbd53b541	-0.05168653
87	0xbc17b069	-0.009258368
88	0xbd34586c	-0.04402964
89	0xbd8a2ab6	-0.06746428
90	0xbcd1d746	-0.025615346
91	0x3c966178	0.018357024
92	0x3d957c9e	0.072991595
93	0x3cde0e22	0.027106348
94	0xbc43d0b9	-0.011951619
95	0xbc7cfe1b	-0.015441443
96	0x3d92585f	0.07145762
97	0xbdb41b02	-0.08794214
98	0x3c988737	0.018619163
99	0xbd2cd8b0	-0.042198837
100	0x3972755c	0.00023122638
101	0x3be0a057	0.0068550515
102	0x3dbb0118	0.09131068
103	0x3d0ac8d5	0.033882935
104	0x3be4e697	0.0069854963
105	0xb4b7d2ee	-3.4239878e-07
106	0xbc4c4c88	-0.012469418
107	0x3dba663b	0.0910153
108	0xbcbb0f50	-0.02283445
109	0x34ca563c	3.7688176e-07
110	0xb72b7549	-1.0219702e-05
111	0x3ce05416	0.027383845
112	0xbd49e790	-0.0492931
113	0xbb4d54e3	-0.0031331114
114	0x3ad23473	0.001603736
115	0xbcfdf631	-0.031001182
116	0x3c591504	0.013249639
117	0xbd19cd8c	-0.03754954
118	0x3c81afe6	0.015830945
119	0xbb59010e	-0.00331122
120	0x3cfa2f6c	0.03054019
121	0x3d82df07	0.06390195
122	0x3d292333	0.041293334
123	0x350dfd7c	5.289546e-07
124	0x3dac0b7b	0.08400627
125	0x3b78dbb3	0.0037972748
126	0x3da02045	0.07818655
127	0x3cb2b4e7	0.021814777
128	0xbd03ac10	-0.032146513
129	0x3d9ad415	0.07559983
130	0xbda5e422	-0.081001535
131	0x3d49622f	0.0491659
132	0x3a976047	0.0011549079
133	0xba3f1f9c	-0.0007290782
134	0x3d8ed31c	0.0697386
135	0xbce34bed	-0.027746165
136	0xbd458770	-0.048224866
137	0x3d08d8bf	0.03340983
138	0xbdc0f8fc	-0.0942249
139	0xb9caf486	-0.00038710627
140	0xbd531b6d	-0.051539827
141	0xb7b2cd96	-2.1314987e-05
142	0xbd417cf1	-0.047238294
143	0x3d5ab1a4	0.053392068
144	0x3d848001	0.06469727
145	0xb7d8aee9	-2.5830655e-05
146	0xbc4035f2	-0.011731612
147	0x3c78a955	0.015177091
148	0x3dc38f78	0.09548849
149	0xbd10e557	-0.035374966
150	0x3d35abd4	0.04435332
151	0xbdb259ce	-0.08708535
152	0xbd0d19c8	-0.034448415
153	0x3d2318f2	0.03981871
154	0xbda3fa53	-0.0800673
155	0xbda9234b	-0.08258685
156	0x3d2e062c	0.042486355
157	0xb7fc4561	-3.0073048e-05
158	0x3d6578de	0.05602347
159	0x3b8ccd0e	0.0042969054
160	0xbbf8ffd0	-0.0075988546
161	0x3d3f4ce8	0.046704203
162	0xbcf8469a	-0.030307103
163	0xb88d8737	-6.74859e-05
164	0x3d2fbfc9	0.04290751
165	0x3cda8cef	0.02667853
166	0x3c93e5cc	0.018053912
167	0x3c6a4dfa	0.014300818
168	0x3d5fe14c	0.05465822
169	0x3da39692	0.079877034
170	0x3bd88aa2	0.006608323
171	0xbd281222	-0.041032918
172	0xbd379b9c	-0.044826135
173	0xb942e847	-0.00018587812
174	0xbb8c441f	-0.0042805816
175	0x3db1c9a6	0.086810395
176	0xbd197b27	-0.037470963
177	0x3d471687	0.048605468
178	0x32d199ab	2.4400682e-08
179	0xbd933812	-0.07188429
180	0xbdbd2096	-0.09234731
181	0x3ccdc9b2	0.02512059
182	0xbcda3724	-0.026637621
183	0x3d3de2f8	0.046359032
184	0xbc9d9b2b	-0.019239029
185	0x3bb9556f	0.0056559364
186	0x35856457	9.938475e-07
187	0xbda964dc	-0.082711905
188	0x3c899f39	0.016799556
189	0xbd4cc9da	-0.04999719
190	0xbd892aaa	-0.06697591
191	0xbd7e7f52	-0.06213314
192	0xb7452dbc	-1.1752763e-05
193	0x3d7315d2	0.05934698
194	0xb7c44b24	-2.340001e-05
195	0x3da02179	0.078188844
196	0xbd32b595	-0.0436302
197	0xb6e2e374	-6.761804e-06
198	0x3cd08277	0.025452835
199	0x3c9db4d3	0.019251263
200	0xbc0cbef9	-0.008590453
201	0x3db05618	0.08610171
202	0x36d005c6	6.199555e-06
203	0xbd2d1132	-0.042252727
204	0xbd86945c	-0.06571266
205	0x3d58b3ae	0.05290573
206	0xbc9251e5	-0.017861316
207	0xbd77cb5b	-0.06049667
208	0xbd37410d	-0.04473977
209	0xbd1d3a36	-0.038385592
210	0xb69bd798	-4.6444584e-06
211	0xbda30a82	-0.079609886
212	0x3d763f86	0.060119174
213	0xbd5aea4e	-0.053446107
214	0xbce95122	-0.02848107
215	0xbda10c02	-0.078636184
216	0xbd4ed50c	-0.050496146
217	0x3dc2fda0	0.095210314
218	0xbcfb9416	-0.030710261
219	0xba9daeae	-0.0012030208
220	0xbc8b8637	-0.017031772
221	0x3d8cfa0e	0.06883632
222	0xbcfbf545	-0.030756602
223	0x39b22b14	0.000339829
224	0x3db6e6a6	0.089307114
225	0x3d6da73a	0.058020808
226	0xb77ff5d6	-1.5256423e-05
227	0x3d88377a	0.06651206
228	0x36b44e0d	5.3735043e-06
229	0x3dac4c55	0.08412997
230	0xb5be498f	-1.4177512e-06
231	0xb58970db	-1.0240141e-06
232	0xbd481546	-0.048848413
233	0x3d8526df	0.06501555
234	0xbd959518	-0.07303828
235	0xbdb4107a	-0.08792205
236	0x3894e61c	7.100051e-05
237	0xb86dae3f	-5.6667483e-05
238	0xa8e7bf05	-2.5728993e-14
239	0x3c9a9da2	0.018873993
240	0xb903cbbb	-0.00012569029
241	0x3db3a983	0.08772566
242	0x3c0be57c	0.0085386
243	0xbd11b198	-0.035569757
244	0xbd98524b	-0.07437571
245	0x3d4c2e12	0.049848624
246	0x34622a8b	2.1063367e-07
247	0xbdaf6a02	-0.08565141
248	0xbc61aac6	-0.013773626
249	0xbcabd898	-0.020977303
250	0x3dbd3b36	0.09239809
251	0xaa0195d7	-1.1509488e-13
252	0xbda8cc69	-0.08242113
253	0xbd70d213	-0.058794092
254	0x3d97d6eb	0.07414039
255	0xbd4f2d73	-0.050580453

embedding.embeddings.ken_20230614_denoised.poses.bias f4 [64]
0	0xbc89f399	-0.01683979
1	0xbd8150f6	-0.0631427
2	0x3d58b65c	0.052908286
3	0xbc82de58	-0.015975162
4	0x3dae4fcf	0.08511316
5	0xb9a75098	-0.0003191277
6	0x3d1ab415	0.037769396
7	0xbdaf84c7	-0.08570247
8	0x3a595e7e	0.00082919735
9	0xbdb4399c	-0.088000506
10	0x3d0c29b5	0.034219462
11	0xbd15af35	-0.036544044
12	0x3db8a3cc	0.09015617
13	0x3b84bc6a	0.004050781
14	0xbd4a6e6e	-0.04942172
15	0x39ad5460	0.00033059996
16	0x3ca56ca5	0.020193407
17	0x3caac990	0.020848066
18	0xba52c86c	-0.00080407294
19	0xbd273210	-0.040819228
20	0xbd98eb37	-0.07466739
21	0xb81aef2e	-3.6939215e-05
22	0xbcbc67f4	-0.022998787
23	0x3cadcac7	0.021214856
24	0x3a5d6df4	0.0008446865
25	0x3ccc4d43	0.024939185
26	0xb9704102	-0.00022912401
27	0xbbb06beb	-0.0053839586
28	0xbc42da0b	-0.011892806
29	0xbd537e09	-0.05163387
30	0x3d9401be	0.07226895
31	0x3b0137e8	0.001971716
32	0xbc21a60f	-0.009866252
33	0xbda1538a	-0.07877262
34	0xb5d80df0	-1.609731e-06
35	0xbd45bd8f	-0.04827648
36	0xbd5892ef	-0.0528745
37	0xbca1a5a9	-0.019732313
38	0x3cdb59f2	0.026776288
39	0xbd9cc1e0	-0.07654166
40	0xba3c48a7	-0.0007182457
41	0x3c7ecc88	0.015551694
42	0x3d1d61ea	0.038423456
43	0xbd56a32f	-0.052401718
44	0xb90fe079	-0.00013721165
45	0x3d334d61	0.043774966
46	0xbd983242	-0.07431461
47	0x3d417584	0.047231212
48	0xbd1960ae	-0.037445717
49	0x3d6147e0	0.055000186
50	0xbd42faa9	-0.04760233
51	0xbd683242	-0.056688555
52	0x3a0ab9f6	0.00052919926
53	0x3c660a1b	0.014040495
54	0x3c930f88	0.017951742
55	0x3cedbae1	0.029019775
56	0xbce944ec	-0.028475247
57	0x3ca896f6	0.020579796
58	0x3c4a0864	0.012331102
59	0x3c83555e	0.016031917
60	0xbaada39b	-0.0013247611
61	0xbcf4fad9	-0.02990477
62	0xba342039	-0.00068712566
63	0x3cc5763f	0.024104236

embedding.embeddings.ken_20230618_denoised.poses.weight f4 [64, 63]
0	0x378e4de4	1.696399e-05
1	0x3d983e94	0.07433811
2	0xba0fb855	-0.00054824847
3	0xbd7c9f52	-0.061675377
4	0x3c802609	0.015643137
5	0xbd0a9dff	-0.033842083
6	0x3d55d9dd	0.052209724
7	0x3d13c51f	0.03607666
8	0x3d04601c	0.03231822
9	0x3c20369e	0.009778647
10	0xbd36c852	-0.044624634
11	0x380efb9a	3.408976e-05
12	0xb79a7e0d	-1.8416928e-05
13	0xbd39618b	-0.04525904
14	0x3cff24dc	0.031145506
15	0x38f4c20c	0.00011670971
16	0xbd4c8782	-0.049933918
17	0x371b6976	9.2632745e-06
18	0xb7b597e8	-2.1647618e-05
19	0x3d96ff5a	0.07372923
20	0x3d95347e	0.07285403
21	0x3d7e9571	0.062154237
22	0x3d8fc293	0.07019534
23	0x3d731760	0.059348464
24	0x370a17ba	8.230965e-06
25	0x3d819135	0.06326524
26	0x380754a1	3.2265325e-05
27	0xb952b3a7	-0.00020094086
28	0x3d9470a6	0.072480485
29	0xbc7db2b2	-0.015484499
30	0xbd840e71	-0.06448067
31	0x3d2a46e4	0.041571513
32	0xbbe6c40f	-0.007042415
33	0x3d627b63	0.055293452
34	0x37a7b242	1.999096e-05
35	0xbc99dd5d	-0.018782312
36	0x3d936921	0.07197786
37	0x3db8ff7d	0.090331055
38	0x38808a28	6.129249e-05
39	0x3cc73471	0.024316998
40	0x3d849518	0.0647375
41	0xbd15d2f6	-0.03657814
42	0x3d394e76	0.04524084
43	0x3d89d9c2	0.06730987
44	0x3daddd80	0.084895134
45	0xb42f361e	-1.6317833e-07
46	0x353d1838	7.044323e-07
47	0xb72c9583	-1.028681e-05
48	0xbd88cd74	-0.06679812
49	0xba6c60b9	-0.00090170983
50	0xbda256bb	-0.07926699
51	0xb9e1278f	-0.00042944818
52	0xbdb8e6a9	-0.0902837
53	0xba09ed5e	-0.0005261506
54	0x39ba4556	0.00035528344
55	0xbd9f081d	-0.07765219
56	0xbdb781d9	-0.08960313
57	0x3c9e78b7	0.01934467
58	0x3d8c4b8a	0.068503454
59	0x3b09cd9d	0.0021027096
60	0x3d6a7068	0.057236105
61	0xbb153376	-0.0022766269
62	0x3354a0ab	4.9506223e-08
63	0xbd5e20de	-0.054230563
64	0x3cf7779e	0.030208405
65	0xb8913992	-6.924862e-05
66	0x3d86a2fd	0.06574056
67	0xbd09439f	-0.033511754
68	0x3d800e12	0.06252684
69	0xbce50591	-0.027956756
70	0xbd608c87	-0.054821517
71	0xb732d52f	-1.0659262e-05
72	0x3773e605	1.4537484e-05
73	0xbd251e84	-0.040312305
74	0xbccd2e70	-0.025046557
75	0xbca44e51	-0.020056875
76	0xbd0d151e	-0.034443967
77	0x3d9a8cdc	0.07546398
78	0xbc934168	-0.017975524
79	0xbcd3f036	-0.025871377
80	0xbd9f469b	-0.07777139
81	0x3d98d857	0.074631386
82	0xbd800dfe	-0.06252669
83	0xbcfee1e8	-0.03111358
84	0xbc9b3916	-0.01894812
85	0x3b4ffe41	0.003173724
86	0xbd592776	-0.05301615
87	0x3cdd889b	0.027042678
88	0xbdb55c9f	-0.08855557
89	0xb89c3f13	-7.450408e-05
90	0xbc9b45fa	-0.018954266
91	0x3ae3ada0	0.001737047
92	0xbd8e3f98	-0.06945723
93	0xbdab7970	-0.08372772
94	0xbd8ea282	-0.0696459
95	0xbd955285	-0.0729113
96	0x3d430c4e	0.047619157
97	0x3da39914	0.07988182
98	0xbd3295ea	-0.0436
99	0x3d947f45	0.07250837
100	0x3d08e29e	0.033419244
101	0x3cb217af	0.021739809
102	0x3d401c89	0.046902213
103	0x3c0b9306	0.00851894
104	0xbd3558ce	-0.044274144
105	0xbbfa66a3	-0.00764163
106	0xbdaaed5c	-0.08346054
107	0x3dad0a8d	0.08449278
108	0x373c8fae	1.1239126e-05
109	0x35b95941	1.380955e-06
110	0xbc04ca44	-0.0081048645
111	0xbda77959	-0.08177442
112	0x3c2cac1d	0.010539082
113	0x3b60c568	0.003429735
114	0xbd1d639a	-0.038425066
115	0xb8226675	-3.871923e-05
116	0xbcde4a05	-0.027134905
117	0xbd5ef541	-0.05443311
118	0x3c501c97	0.012702129
119	0xb9ac3e38	-0.00032852753
120	0x38695556	5.5631004e-05
121	0x3d8e1b74	0.0693883
122	0x3d9775ee	0.0739554
123	0x3c8b4554	0.017000832
124	0x3790a9a4	1.7245133e-05
125	0xbd4bbec6	-0.049742483
126	0xbc6d7ca2	-0.014495047
127	0x3da15ad7	0.078786545
128	0xbcf950a7	-0.030433966
129	0xbc78bf41	-0.015182317
130	0x37d183e0	2.497615e-05
131	0x3d4a22d7	0.049349632
132	0xbcb6718a	-0.022270937
133	0xbd5bde99	-0.053679083
134	0x3c3983f8	0.011322968
135	0x37d3018b	2.5153879e-05
136	0xbd92b630	-0.07163656
137	0x3d6dbfd5	0.058044273
138	0x3d9c82a8	0.07642108
139	0x3c9fc514	0.019503154
140	0xbd03ee7d	-0.032209862
141	0x39de8077	0.00042438853
142	0xbd672c79	-0.056438897
143	0xbd9c5fdb	-0.076354705
144	0xbd13bc61	-0.036068324
145	0xbc43abbf	-0.011942803
146	0xbcf8512a	-0.03031214
147	0xb8002cbf	-3.055925e-05
148	0xbdab4305	-0.08362392
149	0xb91cdc60	-0.00014959415
150	0xb81be58b	-3.716866e-05
151	0x3db83087	0.08993631
152	0x3d379656	0.044821106
153	0x3db2ca9b	0.0873005
154	0x3da6e77a	0.081496194
155	0xbaff98b8	-0.001950047
156	0xbd70475b	-0.0586618
157	0x3db0447a	0.08606811
158	0xbd0c9219	-0.034319017
159	0xb89adaf0	-7.3840725e-05
160	0x3d1ccd6b	0.03828184
161	0x3cdd25c0	0.02699554
162	0xb72f0fab	-1.0434461e-05
163	0xbd430122	-0.047608502
164	0xbd905597	-0.07047575
165	0x3cee9f33	0.029128646
166	0x3c7d8ade	0.015475003
167	0xb8edd133	-0.00011340007
168	0x3d68d52e	0.05684393
169	0xbbf9ab20	-0.0076192766
170	0x3d8605a9	0.06544048
171	0xbd973e3e	-0.07384919
172	0xbc92880d	-0.01788714
173	0xbda4998a	-0.08037098
174	0xbc50cd7c	-0.012744304
175	0xbd838fd0	-0.064239144
176	0x3cb49a47	0.022046221
177	0x3dac2450	0.084053636
178	0x27afd49c	4.880277e-15
179	0xb826a69a	-3.9732644e-05
180	0xbaa7e0cf	-0.0012808087
181	0xbd7ab857	-0.061210956
182	0xbda6117b	-0.08108803
183	0x3dabe13e	0.08392571
184	0x3bcab485	0.0061860704
185	0xbcf4b6ee	-0.029872384
186	0xbca74ca1	-0.020422282
187	0xbcbbf7bb	-0.022945276
188	0x3d36f94f	0.044671353
189	0xb720728d	-9.563414e-06
190	0x371dfe07	9.417075e-06
191	0x3d4f3ed1	0.050597016
192	0x3d6037da	0.054740764
193	0xbd047f22	-0.032347806
194	0xbd2c6864	-0.042091742
195	0x3be3c63f	0.006951123
196	0x35db5538	1.6341573e-06
197	0x3da76408	0.08173376
198	0x36e5b9ce	6.8463623e-06
199	0xbce43637	-0.027857883
200	0xb7d6c65d	-2.5603158e-05
201	0xbc959762	-0.018260662
202	0x3c033342	0.008007826
203	0xbd5c5df1	-0.053800527
204	0x3a388185	0.0007038343
205	0x35b8eaec	1.377744e-06
206	0xb98e8ca8	-0.00027189148
207	0xb6bca4c4	-5.622018e-06
208	0x3cc5a011	0.024124177
209	0x3ba0e838	0.004910495
210	0xbbb203f3	-0.0054325997
211	0xbcbdab72	-0.02315304
212	0xb8011a41	-3.0780448e-05
213	0xbc6984fa	-0.0142528955
214	0xb74a4e22	-1.205833e-05
215	0xb7c9f333	-2.4074316e-05
216	0xbdb6cb12	-0.08925451
217	0xb693c6bd	-4.4040776e-06
218	0x3d957465	0.07297591
219	0x3c3b2bc3	0.011424008
220	0xbc4bd91b	-0.012441899
221	0xb8041d65	-3.149863e-05
222	0x3be608d7	0.0070200968
223	0xbbb19035	-0.005418802
224	0xbc4d6bd9	-0.01253792
225	0x3b4bff65	0.0031127569
226	0xbcc6e1bc	-0.02427756
227	0xbd93b992	-0.07213129
228	0x3b8bccd1	0.0042663594
229	0x3c9e47a8	0.019321278
230	0x3d284e4f	0.041090306
231	0xbcf167c4	-0.029468425
232	0x3d81277a	0.06306358
233	0x3d08897f	0.03333425
234	0x3db37ff8	0.087646425
235	0xbb84679d	-0.004040672
236	0xbc89e430	-0.016832441
237	0x3d8f1407	0.06986242
238	0x3cc5129a	0.024056721
239	0xbda7891f	-0.08180451
240	0xbc8ad756	-0.016948383
241	0x3da92f4a	0.08260973
242	0x3d8eff42	0.0698228
243	0x3ce66284	0.028123148
244	0x36d53a30	6.3546686e-06
245	0x3c2f6e04	0.010707382
246	0xb6822dc6	-3.8796306e-06
247	0x3d4d52fd	0.050127972
248	0x3c94c800	0.018161774
249	0xbd8f96be	-0.07011174
250	0x3d5cfc1c	0.053951368
251	0x3d70d4b4	0.0587966
252	0x3d898a93	0.06715884
253	0xbd89395a	-0.06700392
254	0x3d786f4c	0.060653016
255	0x3d129d4f	0.035794552

embedding.embeddings.ken_20230618_denoised.poses.bias f4 [64]
0	0x3bc13def	0.0058972756
1	0x398271b6	0.00024880253
2	0x3cbe8a45	0.023259291
3	0xbb167b74	-0.0022961767
4	0xbbd8c15a	-0.006614846
5	0xbdb73b04	-0.08946803
6	0xbc4ff59e	-0.012692837
7	0xb9b3ecc3	-0.00034317942
8	0x3bf3f568	0.007445026
9	0xbdadbaa6	-0.08482866
10	0xbce6b797	-0.028163714
11	0xbd3ef015	-0.04661568
12	0x3d9431ee	0.07236086
13	0x3c245fc0	0.010032594
14	0xbd922acf	-0.07137071
15	0x397e6e17	0.0002426434
16	0x3bdc8936	0.006730224
17	0x3b23277e	0.0024895365
18	0x3db7661c	0.08955023
19	0xbd3a6442	-0.04550577
20	0xb9eea7e7	-0.00045519994
21	0x386c8474	5.639014e-05
22	0xbc05a8ad	-0.008157891
23	0xb9b8bf13	-0.00035237576
24	0x3a6f9fa1	0.0009140913
25	0x3c350e9f	0.011050849
26	0xbda4dba1	-0.080497034
27	0x3d032b88	0.032023937
28	0xbd8e3a73	-0.06944742
29	0x3c22fb22	0.00994757
30	0xbad67b0d	-0.0016363576
31	0xbd4b0680	-0.049566746
32	0xbd8c63a9	-0.06854946
33	0x3d204beb	0.0391349
34	0xbdb6c899	-0.0892498
35	0x3ce88576	0.028383952
36	0xbd8fc78f	-0.07020485
37	0xba132b7c	-0.00056140847
38	0xb92000e1	-0.00015259116
39	0xbda963c2	-0.082709804
40	0x3d9129a5	0.07088021
41	0x3d14ab6b	0.03629629
42	0xbc2429d8	-0.010019742
43	0x3d543c1c	0.051815137
44	0x3cfcac28	0.03084381
45	0xbd130594	-0.03589399
46	0xbc0f8309	-0.008759269
47	0xbc4f8545	-0.012666051
48	0x3d7d269a	0.06180439
49	0x3d77cf9d	0.06050073
50	0x3d38cc1d	0.045116533
51	0xbd8ac4a4	-0.067757875
52	0x3d8a9041	0.067657955
53	0xbd9f2a6d	-0.07771764
54	0xbca0253a	-0.019549001
55	0x394dc4e3	0.0001962367
56	0x3cd21018	0.02564244
57	0xbca5f72a	-0.020259459
58	0xba1bf7cf	-0.0005949707
59	0x3cbb7201	0.02288151
60	0xbd7a20dc	-0.061066493
61	0x3db07b2e	0.08617245
62	0xba2447b1	-0.00062667864
63	0xbd89fe10	-0.06737912

core.core.fc.0.0.weight f4 [128, 64]
0	0xb80472be	-3.1578114e-05
1	0xbcd29fdf	-0.025710998
2	0x3d025f5b	0.03182922
3	0x36d3a0b3	6.306998e-06
4	0xb70d766d	-8.431828e-06
5	0x371a2695	9.188098e-06
6	0xb7c0a801	-2.2966417e-05
7	0x3bc77b69	0.0060877097
8	0xb7950d41	-1.7768356e-05
9	0xb7311cf6	-1.0556765e-05
10	0x3cd8a6a7	0.026446654
11	0x3b353aaf	0.0027653386
12	0xbc975a33	-0.018475628
13	0x3c41bbde	0.011824576
14	0x357633e9	9.171768e-07
15	0x395fe354	0.00021351624
16	0x3d06f1e6	0.032945536
17	0xbb8d44a2	-0.00431116
18	0x36b1f641	5.303679e-06
19	0x352a25da	6.3385016e-07
20	0x37704551	1.4321254e-05
21	0x37b2e56c	2.1326086e-05
22	0xbd0c10bd	-0.03419565
23	0x387575e9	5.8522364e-05
24	0xb64cb0bf	-3.0501249e-06
25	0xba620636	-0.00086221413
26	0xbcdf654b	-0.02726998
27	0x375e9a82	1.3268205e-05
28	0xb6cf5ac2	-6.1796463e-06
29	0xb78388f2	-1.5680187e-05
30	0xb7d65c51	-2.5553776e-05
31	0xb7727295	-1.4451002e-05
32	0x374f13bc	1.2342756e-05
33	0x37602186	1.3359246e-05
34	0xbc757c35	-0.014983227
35	0x37bef8e0	2.2765656e-05
36	0x37ca2218	2.4096153e-05
37	0xbbb23b97	-0.0054392326
38	0xb7930647	-1.7526689e-05
39	0x374f468a	1.2354585e-05
40	0x3c1b4987	0.0094779795
41	0xb6f1f43c	-7.2107923e-06
42	0xbcdb15ec	-0.026743852
43	0xb674a7aa	-3.6456427e-06
44	0xb74f31f9	-1.2349797e-05
45	0xb75a2baa	-1.3003979e-05
46	0x37d90f32	2.5875492e-05
47	0xbb8606a8	-0.004090149
48	0xbc869dbb	-0.016432634
49	0x379fd4a7	1.9053301e-05
50	0x37f97f1b	2.9742301e-05
51	0xbc363845	-0.011121814
52	0xb68490b7	-3.9507536e-06
53	0xb7266241	-9.917248e-06
54	0x36128c78	2.183746e-06
55	0x3cce22f9	0.02516316
56	0x3c2fd997	0.01073303
57	0x3c5fd657	0.013661942
58	0xbceea708	-0.029132381
59	0x3c292227	0.010323084
60	0x3c103cf1	0.008803592
61	0x37c0a3f8	2.2964537e-05
62	0x3643fad2	2.920326e-06
63	0x37c48325	2.342609e-05
64	0x37146482	8.844889e-06
65	0x370ba933	8.32444e-06
66	0xb76ec8c2	-1.4232648e-05
67	0x379e62b5	1.8881032e-05
68	0x3c5271bd	0.0128445
69	0x36b3cfd0	5.3588083e-06
70	0xb6d30eb5	-6.290002e-06
71	0x382659e6	3.966121e-05
72	0x372c1f1b	1.0259241e-05
73	0xbadad4b2	-0.0016695468
74	0xb6e2c7bf	-6.7585784e-06
75	0x37fef9a7	3.0395413e-05
76	0xbbeff087	-0.0073223743
77	0xb78faf30	-1.7128506e-05
78	0xbc3425b9	-0.010995322
79	0x37a67d64	1.9847132e-05
80	0x3870e796	5.743614e-05
81	0x37fb6107	2.9966714e-05
82	0x3c87d0a5	0.016578982
83	0xbc882479	-0.016618954
84	0x3803273f	3.1269385e-05
85	0xb7cade4f	-2.4183797e-05
86	0x3865aa5a	5.4756507e-05
87	0xbb1d4345	-0.0023996395
88	0xb7936dd3	-1.7574906e-05
89	0xb78546cf	-1.5887808e-05
90	0x3b314794	0.002705072
91	0x37934b59	1.7558852e-05
92	0x3b683818	0.0035433825
93	0x3839e696	4.4322187e-05
94	0xb859c31c	-5.191854e-05
95	0x360f73b2	2.1376004e-06
96	0x3be5b49d	0.007010056
97	0x372769d8	9.978619e-06
98	0x37d3ae54	2.5234338e-05
99	0xb7c8be7a	-2.3930555e-05
100	0x39ab31ff	0.00032652912
101	0x3886c3c8	6.426085e-05
102	0xb7918135	-1.7345514e-05
103	0x3d0daf9f	0.034591313
104	0x3cad6ef9	0.02117108
105	0xb7317672	-1.05776e-05
106	0x3c8c8ec6	0.017157923
107	0xb7a19275	-1.9260895e-05
108	0xb7807de3	-1.531741e-05
109	0x3878495a	5.919612e-05
110	0x376b9c27	1.4043449e-05
111	0x37b14037	2.1129947e-05
112	0xb750240f	-1.2406162e-05
113	0xb8a49289	-7.847424e-05
114	0x368797c4	4.0409814e-06
115	0x388b3016	6.636993e-05
116	0xb6b1152b	-5.2774753e-06
117	0xba33a863	-0.00068533997
118	0x3d0f6e2f	0.03501719
119	0xb4a349de	-3.041486e-07
120	0x3ba5be75	0.0050581046
121	0x3c7d9356	0.015477022
122	0x36de98d8	6.633909e-06
123	0x360c9e3a	2.0953726e-06
124	0x37261feb	9.9018025e-06
125	0x36860f12	3.9952656e-06
126	0x3b7bca5a	0.0038420171
127	0xb72a4cd4	-1.0150678e-05
128	0x3c6e0608	0.014527805
129	0x374ab594	1.2082415e-05
130	0xba8783f0	-0.0010339003
131	0xbce48965	-0.027897546
132	0x3d091c6d	0.033474375
133	0xb8ebbd89	-0.00011240977
134	0x37b57bdd	2.163456e-05
135	0xb80e9754	-3.3996374e-05
136	0xb6262c8a	-2.4761853e-06
137	0x3cbf2e34	0.023337461
138	0xb7aef94e	-2.0858508e-05
139	0xb7c3a8ee	-2.3324475e-05
140	0x3acfb6e6	0.0015847355
141	0x3a118096	0.0005550472
142	0xbc9a95b1	-0.018870207
143	0x3ae22aa2	0.0017255137
144	0xb53f6138	-7.1294517e-07
145	0xbc6892bf	-0.014195143
146	0x383f0f20	4.5552035e-05
147	0xb796e31f	-1.7987155e-05
148	0x3cf7d02e	0.030250635
149	0xba463b07	-0.00075618963
150	0xb725239a	-9.8430555e-06
151	0xb8389208	-4.400502e-05
152	0xbc895850	-0.016765743
153	0x38004436	3.0581105e-05
154	0xb86adb32	-5.599409e-05
155	0xb7a6fe8a	-1.9907271e-05
156	0x3bb15a68	0.0054123886
157	0xbc0b4f6b	-0.008502821
158	0x37948959	1.7706932e-05
159	0xba98b3db	-0.0011650281
160	0xbc6cf558	-0.014462791
161	0x3645b52e	2.9460748e-06
162	0xb7ce64f4	-2.4604124e-05
163	0xb7ad5c5e	-2.0666219e-05
164	0x3c1ae5c5	0.009454195
165	0xb7863b83	-1.6001757e-05
166	0x378dffbd	1.6927597e-05
167	0x3b1a4ec0	0.0023545474
168	0x3cf38e1f	0.029730855
169	0x359ad683	1.1536325e-06
170	0xbcc805b8	-0.02441679
171	0x37f3abad	2.90478e-05
172	0xbcc28684	-0.023745783
173	0xb756e3b0	-1.2808407e-05
174	0xb7b56b8f	-2.1626967e-05
175	0x3bf7acef	0.007558457
176	0x37937212	1.7576884e-05
177	0x3a9c351b	0.0011917682
178	0xbb936edf	-0.004499301
179	0xb83f55d2	-4.5617875e-05
180	0xb58d1641	-1.0511795e-06
181	0xbd170325	-0.036868233
182	0xbb0cd9a0	-0.002149202
183	0xb53c5b98	-7.0168744e-07
184	0x37c8af29	2.3923423e-05
185	0xbd086c97	-0.033306684
186	0x3c3ecaec	0.01164506
187	0x37f07f7f	2.86696e-05
188	0xb812e8c3	-3.502589e-05
189	0xb6d6bd69	-6.3997472e-06
190	0xb6426250	-2.8965478e-06
191	0xb7b92795	-2.207215e-05
192	0xb6bd8891	-5.6485374e-06
193	0x3b3aa137	0.002847744
194	0x3794cbb5	1.7737833e-05
195	0xb6ff08ff	-7.6006395e-06
196	0x3c63e593	0.013909715
197	0xbc3cf540	-0.0115330815
198	0x36d05987	6.2093054e-06
199	0xb6915fbf	-4.332483e-06
200	0xbd08a023	-0.033355843
201	0xb672781c	-3.6130723e-06
202	0xb7a627cc	-1.9807274e-05
203	0x3cfea926	0.031086516
204	0x377a7c58	1.4930112e-05
205	0xb7816fb5	-1.5430016e-05
206	0xb7bd0186	-2.2531265e-05
207	0xbc586719	-0.013208174
208	0xb5aa650e	-1.2695398e-06
209	0x36ffe75b	7.6265255e-06
210	0x383e777a	4.54108e-05
211	0xbcd73004	-0.026268013
212	0xb71e7d82	-9.446756e-06
213	0x36f0b0fc	7.173161e-06
214	0x364e4ff4	3.074293e-06
215	0x3a5801a6	0.0008239992
216	0x3733464b	1.0685598e-05
217	0x377e3136	1.5151038e-05
218	0xbd18f422	-0.0373422
219	0xbc39f0b7	-0.011348895
220	0x3ce13380	0.027490377
221	0x375ab455	1.3035799e-05
222	0xb6f7d112	-7.3855126e-06
223	0xb608e4d3	-2.0398772e-06
224	0xb7d7ea63	-2.5739142e-05
225	0x37b4088c	2.1461652e-05
226	0xbcef7762	-0.02923173
227	0xb6dd2788	-6.5909153e-06
228	0xbb056275	-0.0020352874
229	0xb71e89a5	-9.449582e-06
230	0x36be8c6c	5.6787885e-06
231	0xb839b3ae	-4.4274777e-05
232	0x3784d7a2	1.5836038e-05
233	0xb6ba5b44	-5.5538567e-06
234	0xb68f9b72	-4.2798283e-06
235	0x37a2ea7b	1.9421093e-05
236	0xbcc2abd9	-0.023763584
237	0xb75c0366	-1.3113813e-05
238	0xb683a2f8	-3.9230763e-06
239	0x3766a3dd	1.3747221e-05
240	0xbcf532fa	-0.029931534
241	0x37e34466	2.709236e-05
242	0x37d5f658	2.5506291e-05
243	0xb822a8f2	-3.8781152e-05
244	0xb6b81a68	-5.4867014e-06
245	0xb6c030c9	-5.7277252e-06
246	0xb5f10f62	-1.7960376e-06
247	0x36a61fae	4.9508735e-06
248	0xbb6ae9cc	-0.003584492
249	0xbc4528f2	-0.012033688
250	0x37ff3c58	3.0426469e-05
251	0xbb974034	-0.004615808
252	0xba10521a	-0.0005505398
253	0x370c9391	8.379008e-06
254	0x36113fa0	2.1643718e-06
255	0xb764d066	-1.3638381e-05

core.core.fc.0.0.bias f4 [128]
0	0x3b56ecd9	0.003279498
1	0xba22d7b3	-0.0006211951
2	0x39b6fa1b	0.00034900088
3	0x39724aff	0.00023106857
4	0xbabcc3ae	-0.0014401579
5	0xbab276a9	-0.0013615686
6	0x3bf31db5	0.007419313
7	0x3bc76dc7	0.0060860845
8	0x38a75e8d	7.980792e-05
9	0x3c8cc07c	0.017181627
10	0xba8153de	-0.0009866913
11	0xbc37a6a6	-0.011209166
12	0xbce4f72f	-0.027949898
13	0xbb91c824	-0.0044489074
14	0xb9bdf4d5	-0.00036231303
15	0x3cc84e04	0.024451263
16	0xba9d5044	-0.001200207
17	0x3989ddc0	0.00026295893
18	0xba47e719	-0.0007625684
19	0x3af8192b	0.0018928399
20	0xbbaace25	-0.0052125626
21	0xba7c0795	-0.0009614167
22	0x3c9dda59	0.019269155
23	0x3a37653e	0.0006995982
24	0x3a0eb287	0.0005443473
25	0xbc961849	-0.018322127
26	0xb983c995	-0.00025136457
27	0xb8bc323c	-8.9738955e-05
28	0x3a2f7671	0.00066933694
29	0x3ae8a4a7	0.0017749266
30	0x3b0d78ed	0.002158697
31	0x3af991dc	0.0019040662
32	0xba1ae194	-0.00059082475
33	0x3aaafa7f	0.0013044624
34	0xba248186	-0.0006275404
35	0xbcc33b81	-0.023832085
36	0x39a3d0a3	0.0003124523
37	0xb91cdbb5	-0.00014959167
38	0xbc939458	-0.018015072
39	0xbc18e2e6	-0.009331441
40	0x39673bd5	0.00022052166
41	0x3a50e655	0.00079688925
42	0x398fb24b	0.00027407924
43	0x382b40a6	4.0829786e-05
44	0x3a30a351	0.0006738203
45	0xba73d366	-0.0009301215
46	0x3cf1010a	0.02941944
47	0x3a339928	0.000685113
48	0xbb25cde1	-0.0025299715
49	0x3ce028e0	0.02736324
50	0x3a4d2883	0.0007826166
51	0x3aaf8eb7	0.0013393973
52	0xbc969b7a	-0.018384684
53	0xb9e66675	-0.00043945355
54	0xbc1f50c1	-0.009723843
55	0xbc1db1e3	-0.009624931
56	0x39cff598	0.00039665098
57	0x39af3ddb	0.00033424687
58	0x3a59337d	0.00082855654
59	0x3ca644f8	0.020296559
60	0x3959e9ef	0.0002078188
61	0x3bfb8622	0.007675902
62	0x380dfdf8	3.3853546e-05
63	0xba3deffd	-0.0007245539
64	0x3cffcde3	0.031226104
65	0x3a6ab806	0.0008953813
66	0xb8eea443	-0.000113793205
67	0x3af4d4be	0.0018679125
68	0x3ba89678	0.0051448904
69	0x3c124383	0.008927229
70	0x3cc464ab	0.023973783
71	0x3c1fa290	0.009743348
72	0x3a1af78b	0.00059115206
73	0x3cd18840	0.025577664
74	0x3af4bb5f	0.0018671564
75	0xbce5ddf7	-0.028059943
76	0xba377a47	-0.0006999117
77	0x3a087503	0.00052054244
78	0xba626ea8	-0.0008637705
79	0xbb178b7a	-0.0023123906
80	0xbb0b291f	-0.0021234227
81	0xbd1282a7	-0.03576913
82	0xba350598	-0.00069054356
83	0xb9bae63f	-0.0003564823
84	0x3a866945	0.0010254761
85	0x3af8ac3b	0.0018972227
86	0xb91827ac	-0.00014510629
87	0xbaea7fc1	-0.0017890857
88	0x3c05dee2	0.008170815
89	0x3ca95cc8	0.020674124
90	0x38cddd84	9.816422e-05
91	0x39dfba46	0.0004267266
92	0x3a2c7750	0.0006579058
93	0x3ba55457	0.0050454545
94	0x3c46fb6c	0.012144905
95	0x39842b32	0.00025209185
96	0x3a676edd	0.00088284706
97	0x3c6f1cab	0.014594237
98	0x3a75a7fa	0.0009371039
99	0x3a10a1c0	0.00055172667
100	0xb8d5f0c3	-0.00010201477
101	0xba8a8903	-0.0010569397
102	0x3a9ed397	0.0012117502
103	0xb8171652	-3.6021993e-05
104	0xb89f40fb	-7.5938144e-05
105	0xb9ab3df1	-0.00032661812
106	0x3cb3b484	0.021936662
107	0x3b18f874	0.002334145
108	0x3a14d874	0.0005678006
109	0x3c0e2c17	0.008677504
110	0x395d4631	0.00021102351
111	0xbae098b6	-0.0017135355
112	0xbd14950f	-0.036274966
113	0x38c804e8	9.537657e-05
114	0xbce3b862	-0.027797882
115	0xba02ea95	-0.0004994062
116	0x3ad90967	0.0016558588
117	0xba42203d	-0.00074053166
118	0x3a25540f	0.0006306776
119	0x3a3cb567	0.0007198662
120	0xbca615d5	-0.020274082
121	0x39981e02	0.00029014057
122	0x3c9a0b58	0.018804237
123	0xb9d799ff	-0.00041122732
124	0xbba6091a	-0.005067003
125	0xba86332d	-0.001023864
126	0xbbc38916	-0.0059672697
127	0xb89bbe89	-7.426466e-05

core.core.fc.1.0.weight f4 [64, 128]
0	0x3846aa42	4.7365444e-05
1	0xb882e439	-6.241393e-05
2	0x3803a989	3.1390726e-05
3	0x3852db96	5.0272407e-05
4	0xb90297ae	-0.00012454271
5	0xb896c38b	-7.18898e-05
6	0x392f201f	0.00016701267
7	0x39396bd6	0.00017683147
8	0x37c665d5	2.3650859e-05
9	0x3995c6d5	0.00028567636
10	0xb887c405	-6.473813e-05
11	0xb8dfca9b	-0.00010671207
12	0xbb6df2f6	-0.0036308146
13	0xb81935f7	-3.65283e-05
14	0xb85382e8	-5.0428236e-05
15	0x39428396	0.00018550301
16	0xb8a573b8	-7.8893674e-05
17	0x382d5a28	4.133038e-05
18	0xb85eed5a	-5.3149975e-05
19	0x3837d19b	4.382581e-05
20	0xb8afa526	-8.3754116e-05
21	0xb90b6694	-0.00013294286
22	0x3982ac86	0.00024924072
23	0xb73b245f	-1.1154537e-05
24	0x389790ea	7.2272334e-05
25	0xb93126bc	-0.00016894465
26	0x3aa0857e	0.0012246815
27	0xbb092c4e	-0.0020930949
28	0x38e0807e	0.00010705086
29	0x389e1f42	7.539849e-05
30	0x38af2b19	8.352678e-05
31	0x39a44d84	0.0003133827
32	0xb84bfceb	-4.863452e-05
33	0x389f1b0d	7.5867494e-05
34	0x37457af2	1.17707405e-05
35	0xbb32215a	-0.0027180524
36	0x37f0eb37	2.871976e-05
37	0x392a4522	0.00016238217
38	0xb9b6d7c5	-0.00034874506
39	0xb91b4668	-0.0001480818
40	0xb7ab4a50	-2.0419393e-05
41	0x37e0c2ef	2.6793654e-05
42	0x37f9f3ad	2.9796583e-05
43	0xbb1bafb1	-0.0023755843
44	0xb8103373	-3.438019e-05
45	0xb7929d21	-1.7477725e-05
46	0x39dfdf54	0.00042700267
47	0x3822e2d1	3.883505e-05
48	0xb71e1c2d	-9.424094e-06
49	0x39da1ca1	0.0004160153
50	0x36812dc1	3.849826e-06
51	0x3bb9b616	0.0056674583
52	0xb95ceb96	-0.00021068598
53	0x38378e8b	4.3763353e-05
54	0xb93f5bdd	-0.00018249401
55	0xb90b9dac	-0.0001331481
56	0xb805908b	-3.1844287e-05
57	0xb8b40a1a	-8.5849504e-05
58	0x37d583a1	2.5452873e-05
59	0x38c01948	9.1599824e-05
60	0x374ddd00	1.2270408e-05
61	0x391fb136	0.00015229438
62	0x38c6e689	9.484316e-05
63	0xb7adb1a3	-2.0705926e-05
64	0x39d4456f	0.00040487523
65	0x38bedf04	9.101446e-05
66	0x37795896	1.4862182e-05
67	0x38a9a6f7	8.0896476e-05
68	0x37871409	1.6102584e-05
69	0x3b7a1013	0.0038156554
70	0x3996ff63	0.00028800507
71	0x39085c63	0.00013004387
72	0x3788933d	1.6281027e-05
73	0x39b3f245	0.00034322045
74	0x39f8b3b0	0.00047436124
75	0x39dfd3b3	0.00042691603
76	0xb70dfc3f	-8.4629855e-06
77	0xb99a1d91	-0.00029395198
78	0xb8eb75cd	-0.00011227615
79	0xb8726f1b	-5.780077e-05
80	0xbb1b4ea2	-0.0023697992
81	0x3a04ee4d	0.000507091
82	0x38b52924	8.6384156e-05
83	0xbbc069cd	-0.0058719874
84	0x38b98ec1	8.8480774e-05
85	0x38fe1f2f	0.00012117472
86	0x372a9faf	1.0169969e-05
87	0xb812bdb2	-3.498578e-05
88	0x38aa673e	8.125462e-05
89	0x396f4e2f	0.00022821942
90	0xb710bd01	-8.627075e-06
91	0xb7869536	-1.6043527e-05
92	0xb7e0f784	-2.681814e-05
93	0x38dc8322	0.00010514843
94	0xbbae4ec4	-0.005319448
95	0x382043a1	3.8209957e-05
96	0xb68eba3f	-4.2536117e-06
97	0x39418caa	0.00018458316
98	0x3892094a	6.963553e-05
99	0x38e24d16	0.00010790878
100	0x3b3437ea	0.0027499148
101	0xb8c2f417	-9.296106e-05
102	0x39103061	0.00013750933
103	0xb6eb1239	-7.005667e-06
104	0xbb5a29fa	-0.003328918
105	0x374128cb	1.1513194e-05
106	0x3974447b	0.00023295164
107	0x386e724a	5.685006e-05
108	0x38a54b25	7.88181e-05
109	0x394ac516	0.00019337641
110	0xb90b8da1	-0.00013308834
111	0xb8cfeb13	-9.914315e-05
112	0xb9ef0ba2	-0.000455943
113	0x3aae6eec	0.0013308204
114	0xb9beb563	-0.00036374768
115	0xb95ffb95	-0.00021360659
116	0x38e4ca98	0.00010909623
117	0xb8aad61d	-8.1461134e-05
118	0x3838ffef	4.4107375e-05
119	0xb783cf27	-1.571288e-05
120	0xb98378d7	-0.000250763
121	0xb6663f32	-3.4309455e-06
122	0x3929e5c9	0.00016202698
123	0xb8392137	-4.413837e-05
124	0xbb7075ab	-0.003669123
125	0x370c73d1	8.371616e-06
126	0xb6d7fb85	-6.43678e-06
127	0x37da92ef	2.6056046e-05
128	0x39a43b2e	0.0003132461
129	0xb9b22bc2	-0.00033983408
130	0x3915da77	0.00014291132
131	0x3958cf06	0.00020676487
132	0xba3e4f6e	-0.0007259761
133	0xba01a376	-0.0004945317
134	0x3a8f74cc	0.0010944842
135	0x3a9d184b	0.0011985389
136	0x39816507	0.0002468007
137	0x3ae1f0a6	0.0017237857
138	0xb9ce1315	-0.000393056
139	0xba574691	-0.00082121143
140	0x3b2dd6d5	0.0026525755
141	0xb9cd883b	-0.00039202147
142	0x3b4d4684	0.0031322548
143	0x3a9f2e34	0.0012144507
144	0xbab409ae	-0.0013735795
145	0x398f7d4c	0.0002736844
146	0xb9f229dc	-0.00046189025
147	0x39bf44ec	0.0003648171
148	0xb9ea8625	-0.00044731903
149	0xba6d8888	-0.0009061177
150	0xbb0bc6f9	-0.0021328314
151	0xb9119315	-0.0001388307
152	0x39d6c10f	0.000409611
153	0xba8c0439	-0.0010682411
154	0xb9f0f98e	-0.000459623
155	0xbb922d80	-0.0044609904
156	0x39ea5db5	0.00044701775
157	0x39c1da0c	0.00036974286
158	0x39d7f943	0.0004119371
159	0x39adcfcf	0.0003315196
160	0xb965468f	-0.00021865427
161	0x3a0a95a5	0.0005286581
162	0xbab1c22a	-0.0013561894
163	0xbb1e87a4	-0.0024189735
164	0x3888fcac	6.532049e-05
165	0xb98cc6f1	-0.00026851104
166	0xbb0b3e06	-0.0021246686
167	0xba5cf45b	-0.0008428746
168	0xba9a3c52	-0.0011767244
169	0x393ba09f	0.00017893546
170	0x3a38b4c1	0.00070459774
171	0x39523999	0.00020048617
172	0x3aa29844	0.0012404998
173	0xb944dec0	-0.00018774997
174	0x386cfdc8	5.6503137e-05
175	0x397e7e07	0.00024270276
176	0xb9617335	-0.0002150059
177	0x3b2dfbd8	0.0026547816
178	0x37cbed8e	2.4310106e-05
179	0x3a36e5aa	0.00069769716
180	0xbabc77f7	-0.0014379014
181	0x393e2b03	0.00018135835
182	0xba8ffb51	-0.0010984932
183	0xba5bb69a	-0.0008381397
184	0x3862f89e	5.411414e-05
185	0xba04b600	-0.00050625205
186	0x399a537d	0.00029435373
187	0x3a775bc8	0.0009435979
188	0xb909ab99	-0.00013129263
189	0x3a2e32c5	0.00066451385
190	0x39adff5e	0.00033187395
191	0xb98c3935	-0.00026745503
192	0x3b30fc72	0.0027005938
193	0x3a0fa0ad	0.00054789596
194	0xb7fa445b	-2.9834153e-05
195	0x3a0b68a9	0.0005318025
196	0x394c86af	0.0001950513
197	0x3ac2f760	0.0014874749
198	0x3ad70c98	0.0016406951
199	0x3a8b09cd	0.0010607779
200	0x3898e195	7.289943e-05
201	0x3b191633	0.002335918
202	0x3a4d4eba	0.00078318606
203	0xbaeb3f1e	-0.0017947888
204	0xb99c8309	-0.00029852267
205	0x39a3562a	0.0003115398
206	0xba215e8c	-0.0006155751
207	0xb9bac3bf	-0.00035622527
208	0xba56a58e	-0.0008188122
209	0xbb30711a	-0.0026922883
210	0x397f4a2d	0.00024346328
211	0xb96aebaf	-0.00022403778
212	0x3a13f207	0.000564367
213	0x3a21a0fb	0.00061656506
214	0x382143ff	3.8448718e-05
215	0xb96c9538	-0.00022562302
216	0x3a040b7e	0.0005037113
217	0x3ac819c8	0.0015266472
218	0xb7f43e98	-2.9116214e-05
219	0x37250529	9.835968e-06
220	0xb8a7100e	-7.966171e-05
221	0x3bb77c10	0.005599506
222	0x3ab06b9f	0.0013459808
223	0x395df0f4	0.00021165964
224	0xb9959fc3	-0.00028538526
225	0x3aa570e3	0.0012622144
226	0x39ef11da	0.00045598933
227	0x3a1bf4aa	0.00059492385
228	0x39c46979	0.00037462616
229	0xba004278	-0.0004892717
230	0x3a482764	0.0007635264
231	0xb8c7f28c	-9.534237e-05
232	0xb96e4a1b	-0.00022725055
233	0x3a7b7ceb	0.00095935044
234	0x3adc286d	0.0016796716
235	0x3a0fd884	0.00054872804
236	0x39d40b3e	0.00040444167
237	0x3aade1b6	0.001326612
238	0xba0b061c	-0.00053033396
239	0xba13e22e	-0.00056413084
240	0xbb44b336	-0.0030014045
241	0x383aa57d	4.449998e-05
242	0xbb22f82a	-0.0024867156
243	0xba298ed0	-0.0006468119
244	0x3a251cca	0.00062985404
245	0xbb94ba5a	-0.0045388164
246	0x399afd72	0.00029562
247	0x389308c1	7.011137e-05
248	0xbad216d4	-0.0016028532
249	0x389ac11e	7.379263e-05
250	0x3a962c0d	0.001145722
251	0xb95b36b0	-0.0002090584
252	0x395a3255	0.0002080885
253	0xb7f17f44	-2.8788701e-05
254	0xb8f59ec9	-0.000117120864
255	0x3924b71a	0.0001570847

core.core.fc.1.0.bias f4 [64]
0	0x3c7793ad	0.015110892
1	0x3da99384	0.082800895
2	0xbd89a6b6	-0.06721251
3	0xbd7c2818	-0.061561674
4	0x3cff9032	0.031196687
5	0xbd1f3bbe	-0.038875334
6	0xbd620198	-0.0551773
7	0xbca976bd	-0.020686502
8	0xbb3ea65f	-0.0029090864
9	0x3bc023bf	0.0058636363
10	0xbd9d3dfe	-0.0767784
11	0x3da5e72a	0.08100732
12	0xbd0ac680	-0.03388071
13	0xba9c6848	-0.0011932934
14	0x3c87a053	0.01655594
15	0xbd164fbc	-0.036697134
16	0xbbb64d3a	-0.0055634053
17	0xbd1c3a8c	-0.038141772
18	0x3d6cafb6	0.05778476
19	0x3dedadef	0.11605441
20	0xbd13a71b	-0.036048036
21	0xbcde40ee	-0.02713057
22	0x3cbc81c1	0.02301109
23	0xbd159033	-0.036514472
24	0xbdb3d390	-0.08780587
25	0x3c6841bb	0.014175828
26	0x3cef6880	0.029224634
27	0x3d7f1b91	0.06228215
28	0xbd8133c4	-0.06308702
29	0xbd4171ab	-0.047227543
30	0x3dd23136	0.102632925
31	0x3da85be7	0.08220654
32	0xbe11e159	-0.1424612
33	0x3c444321	0.011978895
34	0xbd5d3ae5	-0.054011244
35	0xbd22be19	-0.039732073
36	0x3de3b5fa	0.11118694
37	0x3d0036de	0.031302325
38	0xbd874ccc	-0.06606445
39	0x3cdac9d5	0.02670757
40	0xbdd9257b	-0.10602852
41	0x3d814b5e	0.06313203
42	0xbdc86ee9	-0.097867794
43	0xbd0d46d2	-0.034491368
44	0xbc8c61e5	-0.017136524
45	0x3ca55034	0.020179845
46	0xbcc2b20a	-0.023766536
47	0x3d9dee3f	0.077114575
48	0xbd092c19	-0.03348932
49	0x3d85a3fd	0.06525419
50	0xbdd97d28	-0.10619575
51	0x3c0a6e17	0.008449099
52	0xbc80f092	-0.015739713
53	0xbda44999	-0.0802185
54	0x3d283284	0.0410638
55	0x3c857c41	0.0162946
56	0xbb09e098	-0.002103841
57	0xbe154eb2	-0.14580801
58	0x3bee89b2	0.007279598
59	0xbe1b74d4	-0.15181285
60	0xbbc50baa	-0.0060133534
61	0x3d3c00f8	0.04589936
62	0xbccc69e9	-0.024952846
63	0xbc63ac90	-0.013896123

readout.readouts.bex_20230623_denoised.location.weight f4 [2, 64]
0	0x3c47806d	0.012176615
1	0x3cc6b6bd	0.024257058
2	0xbdb75efd	-0.089536645
3	0xbd7e82a8	-0.062136322
4	0xbd3475a2	-0.044057496
5	0xbb4a1846	-0.0030837222
6	0xbd807ff7	-0.06274407
7	0xbd579206	-0.052629493
8	0xbd5e486b	-0.054268282
9	0x3d01df9e	0.0317074
10	0xbd7423ca	-0.059604444
11	0x3c877fd8	0.016540453
12	0x3d59c348	0.05316475
13	0xbaff85f2	-0.0019494875
14	0x3c79eb69	0.01525388
15	0x3c899f52	0.016799603
16	0x3c62f80b	0.013853083
17	0xbd0e6621	-0.034765366
18	0xbd561aca	-0.05227164
19	0x3dd5ce40	0.1043973
20	0xbd69e991	-0.057107512
21	0x3d3c9429	0.046039734
22	0x3d8f1cda	0.06987925
23	0xbd3e180f	-0.046409663
24	0xbd5a0f67	-0.053237345
25	0xbd7afdd9	-0.061277244
26	0xbc1cb5dd	-0.009564844
27	0x3d9365f5	0.07197181
28	0xbce50b4e	-0.027959492
29	0xbd8bef2b	-0.06832727
30	0x3c2b1283	0.010441425
31	0x3d5cc092	0.053894587
32	0xbd990bee	-0.074729785
33	0x3d915dbe	0.07097958
34	0xbdb2e027	-0.0873416
35	0xbd065c5f	-0.032802936
36	0x3db6668d	0.08906279
37	0x3dbad08f	0.09121811
38	0xbd3cabb5	-0.04606219
39	0x3dafc68a	0.0858279
40	0xbcaf285b	-0.021381548
41	0x3d087029	0.03331009
42	0xbdbdad65	-0.09261588
43	0xbca92d78	-0.020651564
44	0x3d95ca54	0.07313982
45	0x3cb1301a	0.021629382
46	0xbc5b1a47	-0.013372964
47	0xbd0f9d57	-0.03506216
48	0x3d0f1059	0.0349277
49	0x3da812c9	0.08206708
50	0x3da2f322	0.0795653
51	0xbdb04f55	-0.086088814
52	0x3db6d919	0.08928127
53	0xbdbddd0c	-0.09270677
54	0xbd9c0762	-0.07618596
55	0x3d98ddee	0.07464205
56	0x3da2e077	0.079529695
57	0xbdc6da3c	-0.09709594
58	0xbc78e4a7	-0.015191234
59	0xbde9289b	-0.11384698
60	0xbc535f64	-0.012901161
61	0xbd913787	-0.07090669
62	0x3bdeb9b2	0.006797039
63	0xbc7027ea	-0.014657954
64	0xbc994de8	-0.018713906
65	0xbc0a0fc5	-0.008426611
66	0x3ba4f077	0.0050335485
67	0x3ca705f5	0.020388583
68	0x3cacca4a	0.021092553
69	0xbd521039	-0.051285002
70	0xbca78bef	-0.020452468
71	0xbcf2e12f	-0.029648392
72	0x3dac3d29	0.08410103
73	0xbd9b2100	-0.075746536
74	0xbdaf06f5	-0.08546249
75	0xbac9874a	-0.0015375402
76	0x3d098d84	0.033582225
77	0xbb55d57c	-0.0032628467
78	0x3dcb69ed	0.09932313
79	0xbd0bdf72	-0.03414864
80	0x3d231f4b	0.039824765
81	0xbd3b1dec	-0.045682833
82	0xbbbe9775	-0.005816395
83	0x3daa392f	0.08311688
84	0x399d7102	0.0003002957
85	0xbd4fecd3	-0.050762963
86	0xbcfffcbf	-0.031248448
87	0xbd590666	-0.052984618
88	0xbdc00350	-0.09375632
89	0xbd5a3c7b	-0.053280335
90	0x3d06c04d	0.032898236
91	0x3dbb041c	0.09131643
92	0xbd089486	-0.033344768
93	0xbcfe3d97	-0.031035228
94	0x3c958a2b	0.01825436
95	0x3db3c1ec	0.08777222
96	0xbdcadb1f	-0.09905075
97	0xbd44318a	-0.047898807
98	0xbd302441	-0.043003324
99	0x3d49ea9e	0.049296014
100	0x3e0022d9	0.12513293
101	0xbbd0f5d4	-0.0063769612
102	0xbd9be443	-0.07611897
103	0xbdceae1e	-0.10091804
104	0xbc6b2b59	-0.014353597
105	0xbd2d826b	-0.042360704
106	0x3d953274	0.07285014
107	0xbd8caba2	-0.06868674
108	0x3d8a56a4	0.06754807
109	0x3d0b888e	0.034065776
110	0xbdb5cf07	-0.08877378
111	0x3d9b2ba7	0.075766854
112	0xbdb7ed46	-0.08980803
113	0x3dc2ff39	0.09521336
114	0xbde917bd	-0.11381481
115	0xbcf2d291	-0.029641422
116	0xbb3cbde1	-0.00287997
117	0xbdae5103	-0.085115455
118	0x3d50b7c2	0.050956495
119	0xbd8426e1	-0.06452728
120	0xbd1d79e3	-0.03844632
121	0xbdd62183	-0.104556106
122	0x3c5bf870	0.013425931
123	0xbd592543	-0.05301405
124	0x3cffde8f	0.031234054
125	0x3d654aee	0.05597966
126	0x3d6e7159	0.058213565
127	0xbc9cf4e9	-0.019159751

readout.readouts.bex_20230623_denoised.location.bias f4 [2]
0	0xbcc48b7c	-0.023992293
1	0x3df7ac82	0.1209345
