artifacts/poses_to_location/20250818173511/best_model.pt (torch, 376885 bytes, 48 tensors)

embedding.embeddings.bex_20230623_denoised.poses.weight f4 [64, 63]
000000 85 10 f0 3c 1b b3 4f 3c b1 87 b3 bc 93 3f 01 3d
       0.029304752 0.012676979 -0.021915289 0.03155477
000010 c8 0c 16 3c c3 e8 95 bc 96 93 a6 3c 44 73 24 3b
       0.009158321 -0.018299466 0.020334046 0.0025093118
000020 ea 90 16 bc f0 8d ff 3b c6 a6 0b bb d3 51 b3 bc
       -0.009189824 0.0077989027 -0.0021309122 -0.021889603
000030 cf a6 77 bb f0 7f 82 bc 60 8b 50 38 b0 10 af bc
       -0.0037788635 -0.015930146 4.9720868e-05 -0.021370262
000040 11 01 1d 3c 7d 10 03 bc 53 b4 03 3d f0 5a 95 3a
       0.009582774 -0.007999537 0.032154392 0.0011394899
000050 4c e1 c1 bb 5c 9c b9 3c b6 2c a9 bb 54 47 45 bc
       -0.00591675 0.022657566 -0.0051628007 -0.012040932
000060 0a f8 68 3b 80 10 d5 37 b2 c4 f9 3a d0 ad 03 3c
       0.0035548233 2.5399262e-05 0.0019055812 0.008037046
000070 e6 d2 fe ba a8 c9 13 bb f7 d0 5d bc 8c 7f 59 ba
       -0.0019441515 -0.0022550616 -0.013538591 -0.0008296899
000080 bf 17 77 3b ec 37 34 bd 18 f9 8b b9 19 c0 b4 3c
       0.0037703363 -0.043998644 -0.00026697735 0.022064256
000090 c5 09 65 bc 49 d5 80 3b 4c 17 7a 3c e1 d7 98 bc
       -0.01397938 0.0039316756 0.0152643435 -0.018657627
0000a0 8f ec d8 bb 37 39 67 3c 1b 75 1d bc 9e 32 32 3a
       -0.006619997 0.014112762 -0.00961044 0.00067977037
0000b0 1b 40 97 bb 72 c4 b8 bb 8e 39 a3 bb fe 5c ec 3a
       -0.0046157963 -0.0056386525 -0.0049812263 0.0018033085
0000c0 63 0f 38 3c 6c 39 bd 2e f5 f5 0b 30 67 26 38 bc
       0.011234137 8.604925e-11 5.091743e-10 -0.011239625
0000d0 7f 93 ac af af c8 67 af 85 71 24 bb db 43 5a bc
       -3.139142e-10 -2.1080625e-10 -0.0025092077 -0.013321842
0000e0 25 d5 d4 3c 95 b4 56 bc 24 87 66 bc f8 30 d6 3c
       0.025980541 -0.013104578 -0.014070306 0.026146397
0000f0 93 1b 24 bc ff 1e 38 bc 54 a9 61 af e1 a0 8e 3c
       -0.01001634 -0.011237859 -2.0523788e-10 0.017410697
000100 84 6a d6 3b ee 68 56 bc 9b 80 9a 3c 15 38 b4 3b
       0.0065434594 -0.013086541 0.018860152 0.0054998496
000110 e1 09 32 bc d5 92 45 3c dc c4 ae 3a e3 fb b2 bb
       -0.010866613 0.012058933 0.0013333815 -0.005462156
000120 e5 06 98 3b fc f0 8d ba 14 ff 55 bc e1 ba 2f bb
       0.004639494 -0.0010829265 -0.013061304 -0.002681427
000130 05 57 26 bc 2c 4a 08 39 bc ee 50 bc 22 2a a2 3b
       -0.010152583 0.00012997602 -0.012752231 0.0049488703
000140 ea 6f 94 bb 55 71 9c 3c 24 be 0a 3a e2 11 6b bb
       -0.0045299428 0.01909701 0.00052926154 -0.0035868813
000150 fb 85 5b 3c b2 07 4c bb 32 aa e9 bb c9 07 15 3b
       0.013398643 -0.0031132516 -0.0071308846 0.0022740236
000160 28 00 c9 38 92 c4 a4 3a 08 13 94 3b 97 d4 9f ba
       9.584456e-05 0.001257079 0.0045188703 -0.0012194094
000170 7e 43 ae ba cd af 06 bc df a7 0e ba b4 6d 1a 3b
       -0.0013295261 -0.008220625 -0.0005441885 0.0023563923
000180 c5 90 d6 bc 40 fd 3a 39 68 58 5a 3c 63 8f 07 bc
       -0.026192078 0.00017832685 0.013326742 -0.008273932
000190 22 28 21 3b 33 36 16 3c 77 88 37 bc 63 c3 74 bb
       0.0024590571 0.009168196 -0.011201969 -0.0037347905
0001a0 9f 20 0b 3c 62 ae dc bb 8a 0e cb 39 9a d7 22 bb
       0.008491664 -0.0067346552 0.0003873001 -0.0024847747
0001b0 37 a3 3b bb 90 4b 40 bb 12 ad 96 3a 00 27 e6 3b
       -0.002863122 -0.0029341914 0.0011495671 0.007023692
0001c0 a1 f3 c6 2f 64 c8 50 2f 52 ac de bb b4 aa c9 ae
       3.61891e-10 1.8988683e-10 -0.0067954445 -9.170745e-11
0001d0 e8 2c 07 2d d1 c2 7f ba 93 d7 fd bb 4b 85 7c 3c
       7.683833e-12 -0.0009756508 -0.0077466457 0.015412639
0001e0 17 4d 02 bc 27 8b 07 bc fd 3e 7e 3c 87 d6 d2 bb
       -0.00795295 -0.008272923 0.015517947 -0.006434265
0001f0 6a 9b d9 bb 15 7a 99 af d0 4e a0 2e 07 fc 95 30
       -0.0066408413 -2.7917282e-10 7.2899575e-11 1.0912807e-09
000200 ba 0d ea b0 58 79 ec b0 66 cc 56 30 c8 7e 89 2f
       -1.7029642e-09 -1.7205748e-09 7.8143214e-10 2.5010238e-10
000210 17 b8 1f b0 0b 1c 80 2f c8 1f 12 ad e8 a0 d0 30
       -5.810547e-10 2.330299e-10 -8.306196e-12 1.5179724e-09
000220 13 00 8b 30 5a fe 4c b0 5f 80 ff 2f 68 65 d3 30
       1.0113602e-09 -7.4576223e-10 4.6475443e-10 1.5381092e-09
000230 98 d2 61 af 93 ed 2c 31 8a 43 c6 2f 16 57 46 af
       -2.0538449e-10 2.516434e-09 3.606398e-10 -1.8038934e-10
000240 15 b9 13 b0 51 39 46 b0 33 31 60 b1 b0 29 43 af
       -5.3741306e-10 -7.211343e-10 -3.2624257e-09 -1.7749957e-10
000250 4f 00 80 ae b0 21 7e b1 a2 56 73 b0 77 75 0f b1
       -5.820821e-11 -3.6981014e-09 -8.8526e-10 -2.087601e-09
000260 aa 2e 55 b0 aa 71 26 af 04 84 7f b0 2a 81 c3 b1
       -7.755526e-10 -1.5137994e-10 -9.2956065e-10 -5.689931e-09
000270 1f 3c e1 2f 18 a6 46 af bf 47 16 b1 e1 bb fd 30
       4.096998e-10 -1.8067003e-10 -2.1868656e-09 1.8461571e-09
000280 6e 4d 5a af f9 13 f9 b0 4e ac 7e 30 63 01 94 30
       -1.9854493e-10 -1.8122811e-09 9.264952e-10 1.0768811e-09
000290 d2 86 29 b1 d1 df 6f 30 ac 2d d2 30 27 ae 09 b1
       -2.4669373e-09 8.7265756e-10 1.5292492e-09 -2.0035118e-09
0002a0 8f 04 c6 2f ae 88 64 b0 92 2c a7 2e fd d4 6e 2f
       3.601923e-10 -8.314015e-10 7.602198e-11 2.1721643e-10
0002b0 f4 c1 19 2f 91 e7 01 30 39 86 53 b0 0d 6b f7 2e
       1.3984175e-10 4.7259e-10 -7.6952095e-10 1.12512756e-10
0002c0 00 f6 9e ac 0e 06 9d 30 dd ff 9e 2e bc dd 45 2f
       -4.5179416e-12 1.1424974e-09 7.2304586e-11 1.7995821e-10
0002d0 09 df 25 af ee e9 17 30 6c 1e 34 af e3 74 83 2f
       -1.50859e-10 5.5265914e-10 -1.6381713e-10 2.3911814e-10
0002e0 8e ce 2e 30 70 f4 1a b1 fa 18 9b af 78 47 5e 30
       6.3594363e-10 -2.2548896e-09 -2.8212083e-10 8.086469e-10
0002f0 c2 8a 21 2f e6 6a 82 3c 2c fa ce 3b e5 75 44 bc
       1.4692161e-10 0.015920114 0.006316444 -0.011990999
000300 6c 47 8d 3c 8f 2a ae 3b 84 61 23 bc 90 11 34 3c
       0.01724597 0.005315132 -0.00997198 0.010990515
000310 5d b4 af 3a aa af a5 bb 4a 61 89 3b f2 08 fa ba
       0.0013405193 -0.005056341 0.004192506 -0.0019076152
000320 9b 8f 45 bc 6d 80 21 bb 14 a7 18 bc 50 2a f4 38
       -0.012058164 -0.0024643198 -0.009317178 0.00011642708
000330 c1 1c 42 bc 71 83 96 3b 43 96 92 bb ec 66 8f 3c
       -0.011847676 0.0045933058 -0.004473479 0.017505132
000340 a6 96 14 3a f2 4a 5a bb 11 bd 47 3c 94 00 3c bb
       0.00056682003 -0.003330883 0.012191073 -0.0028686868
000350 3e dc d6 bb 24 7c 07 3b 60 ec f5 37 c1 f1 9a 3a
       -0.0065570166 0.0020673359 2.9316347e-05 0.0011821316
000360 52 85 85 3b b6 7a 94 ba be ae a2 ba 83 b7 f2 bb
       0.004074731 -0.0011328075 -0.0012411696 -0.00740713
000370 de 2d fe b9 3f ee 0c 3b 94 7e c4 bc 20 5b c6 38
       -0.0004848083 0.002150431 -0.023986138 9.458349e-05
000380 8e e1 46 3c b8 9c f8 bb 6a 95 0f 3b 68 3d 0a 3c
       0.012138737 -0.0075870417 0.0021909126 0.008437492
000390 d3 51 26 bc b3 7d 60 bb 85 26 ff 3b 64 cd 96 bb
       -0.010151344 -0.003425461 0.0077865743 -0.004602121
0003a0 ac 30 04 3a e2 81 0a bb 87 ad 38 bb 59 71 36 bb
       0.0005042653 -0.0021134545 -0.0028179602 -0.0027838557
0003b0 85 83 94 3a c2 10 d2 3b 94 f4 45 2f f0 a9 90 2f
       0.00113307 0.006410689 1.8003937e-10 2.6314195e-10
0003c0 17 ab cf bb 81 26 78 af 0a cc 2d 2f 96 d9 91 ba
       -0.006337534 -2.2569148e-10 1.5806748e-10 -0.0011127468
0003d0 ef 43 eb bb 77 8f 67 3c f8 25 e9 bb 76 6b f8 bb
       -0.007179729 0.014133326 -0.007115122 -0.0075811697
0003e0 1f b3 60 3c 68 59 af bb d3 83 d1 bb fc 58 6e af
       0.013714581 -0.005351234 -0.0063938885 -2.1677588e-10
0003f0 63 d4 7e bc 56 b6 be bb e9 a0 41 3c 14 4b 89 bc
       -0.015553567 -0.005820076 0.011818149 -0.016759433

embedding.embeddings.bex_20230623_denoised.poses.bias f4 [64]
000000 66 82 dd bd a3 8c 85 bd 47 4c 27 32 d8 9c 75 bd
       -0.10815887 -0.06520965 9.738023e-09 -0.05996403
000010 b6 c4 6f 3d 13 64 08 bb 10 eb 8e b2 f6 4d 08 be
       0.058537208 -0.0020811602 -1.663787e-08 -0.1331099
000020 ac 4d 0d be 48 d7 0d be bc 7c a0 35 c7 90 3e bd
       -0.1379916 -0.13851655 1.1957231e-06 -0.04652479
000030 5e 32 e0 35 ff a8 40 35 bd b6 a9 bb fe 66 4c 34
       1.6703959e-06 7.1771495e-07 -0.005179255 1.9036449e-07
000040 1a b7 18 be f9 84 ed bd bd 9b cc 3c 36 73 8a bd
       -0.14913598 -0.11597628 0.024976606 -0.06760256
000050 72 bc 06 be e7 4e 04 3e 7f 09 13 be 90 03 e0 b4
       -0.13157824 0.12920724 -0.14359091 -4.1725843e-07
000060 de c7 ff 3d 66 5b bb b9 f8 12 75 30 81 91 ae bd
       0.124892935 -0.00035735517 8.9157437e-10 -0.085238464
000070 0b 70 bf bd 99 2e 14 be 53 bb ea 3d e5 6d 12 bb
       -0.093475424 -0.144709 0.114615105 -0.0022343334
000080 b3 96 ef bd fa 4f b9 bc 79 f8 d0 bd 6e 63 9c 3d
       -0.116986655 -0.022621144 -0.102036424 0.07636152
000090 ff 40 f9 bd 26 40 1d be 41 d4 3b 33 8e 3e 16 be
       -0.121706 -0.15356502 4.3732374e-08 -0.146723
0000a0 7a 4e 81 bd 09 52 a0 33 3e 90 fc 3d ad ef e7 3c
       -0.06313796 7.465503e-08 0.123321995 0.028312529
0000b0 27 9c f4 3c 0e 1e ff bd 32 da 13 3b be 6a 91 bc
       0.029859615 -0.12456904 0.0022560474 -0.017751094
0000c0 d8 6f 48 b2 86 5f 1b 3e 04 af 61 35 b2 ca e0 bd
       -1.16669625e-08 0.15173158 8.4073713e-07 -0.10976161
0000d0 f8 4a db b5 58 76 bb bd 6b ae d7 3d 1a bc cc 3d
       -1.633859e-06 -0.09153432 0.105313145 0.09996815
0000e0 2e c4 94 3d 62 b3 d2 bd 62 be 4b bd d4 02 bc bd
       0.07263981 -0.10288121 -0.04974211 -0.09180227
0000f0 3f 2e a2 bc bc 0c 6a 34 f5 66 cd bd e1 ee 99 3c
       -0.019797442 2.1797581e-07 -0.10029403 0.018790664

embedding.embeddings.ken_20230614_denoised.poses.weight f4 [64, 63]
000000 08 13 97 3c 78 41 06 3b b7 06 94 bc e5 93 9f 3c
       0.018441692 0.00204858 -0.018069608 0.019479701
000010 c4 8a bb 3b 53 7b 59 bc 76 30 37 3c cc 12 68 3b
       0.0057233293 -0.013274032 0.011180988 0.0035411594
000020 52 67 e8 bb f2 0c 3b bc a7 38 64 bc 88 b5 08 bd
       -0.007092395 -0.011416661 -0.013929523 -0.033376247
000030 5d 9c 9b bc d0 e8 35 bc f0 7b ad bc 81 9e 85 bc
       -0.018995458 -0.01110287 -0.021177262 -0.016310932
000040 bf 6d 95 39 57 70 13 bc 8d 95 96 3b 62 82 00 bc
       0.00028501262 -0.008998952 0.0045954646 -0.007843586
000050 e2 67 55 bb 42 68 3b 3b 8f 25 95 bb b4 b4 4d 3b
       -0.003256314 0.0028596078 -0.0045515965 0.0031388225
000060 20 fa 1b bc fa 02 a4 3a 24 08 f8 ba ff aa ae bc
       -0.009520084 0.0012513094 -0.0018923325 -0.021321772
000070 34 19 0a bc af 24 e6 bb 00 04 99 bc bb 99 84 bb
       -0.00842886 -0.007023416 -0.018678665 -0.0040466464
000080 e2 eb cd 3b 2d 9f e5 bc b6 74 d9 bb 49 4c 26 3c
       0.006284223 -0.028030002 -0.0066362275 0.010150024
000090 03 43 e4 bc 9c 28 67 bb 99 2c e0 3b 6e 90 e0 bc
       -0.027863985 -0.0035272008 0.006841254 -0.02741262
0000a0 f6 ae 75 3a 06 0a 0f 3b 9c f7 cf bb 3d 6b 1a ba
       0.00093720795 0.0021826043 -0.006346656 -0.00058906135
0000b0 76 a2 f6 bb 33 ff 47 3b 71 ae c0 3a eb 1f 14 3c
       -0.007526691 0.00305171 0.0014700425 0.009040813
0000c0 fc 62 1e 3c 74 c7 37 31 90 32 2e 2e f4 76 28 bc
       0.009667154 2.674338e-09 3.9607928e-11 -0.010282267
0000d0 db a7 61 2d c5 58 13 ad 62 2a 1b bb 49 05 17 bc
       1.2827041e-11 -8.375693e-12 -0.0023676385 -0.009217569
0000e0 24 22 b3 3c 58 35 a6 3c 57 77 17 bc a9 23 45 3d
       0.021866865 0.020289108 -0.009244761 0.04812971
0000f0 f6 af ac 3b c1 82 1e bc f6 74 7d 2e 91 18 31 3c
       0.0052699996 -0.009674729 5.7629422e-11 0.01080908
000100 f8 81 0e 3b b8 2d 39 bc 28 60 3a 3c 29 17 5e 3b
       0.0021744948 -0.011302404 0.0113754645 0.0033888316
000110 c8 59 0d bc f8 5a ca 3b ae 2e 42 3b 1f 58 9e bb
       -0.008627363 0.006175395 0.0029629874 -0.004832282
000120 9e 1e dc bb 84 57 fb bb 4d 54 a7 bc cd ed 33 bc
       -0.006717517 -0.007670345 -0.02042594 -0.010981989
000130 5f 4a cb bb 24 4e 56 bc 57 15 17 bc 1a ef 02 3a
       -0.006203934 -0.013080154 -0.009221396 0.00049947354
000140 74 8c b4 bb e8 2e 7e b9 60 42 9c bb 69 bd 33 bb
       -0.0055099074 -0.00024240802 -0.0047686547 -0.002742613
000150 d5 3a d6 3a 2a 95 66 bb 28 9e 97 3a 36 0f eb bb
       0.0016344438 -0.0035184124 0.001156752 -0.007173444
000160 4c 13 66 39 f1 78 cf ba 91 aa 5b bc 41 55 ae bb
       0.00021941698 -0.001582889 -0.013407365 -0.0053202217
000170 43 12 a5 bb be 7b 38 bc 80 46 3f bb 92 53 41 3b
       -0.0050375774 -0.011259971 -0.0029186308 0.0029499275
000180 60 65 87 bc e4 da 88 bb 66 a7 b0 3b 13 6e 85 bc
       -0.016527832 -0.0041764844 0.005391049 -0.016287839
000190 e6 e2 3f bb 13 25 58 3b 25 b6 68 bc ec 76 65 b9
       -0.002927953 0.0032981082 -0.014203583 -0.00021883444
0001a0 e6 d5 33 3a e3 5f 68 bb d1 f8 39 ba 22 3c 49 bb
       0.00068601815 -0.0035457544 -0.00070942665 -0.0030706008
0001b0 77 04 d6 3a 6e 39 d5 39 7c 97 c9 3b 6a 01 b5 3b
       0.0016328235 0.00040669314 0.0061520915 0.00552385
0001c0 cf 01 89 2e 06 28 c8 ae 32 c8 a9 bb b2 e7 69 2c
       6.23036e-11 -9.1020566e-11 -0.005181336 3.3239908e-12
0001d0 cb b1 8a ac 6b 9e f5 b9 0f 6f a5 bb 6e b2 34 3c
       -3.941935e-12 -0.00046848072 -0.0050486396 0.011028869
0001e0 8a 9c 46 3c e0 7c b7 bb 74 92 e7 3c 81 f4 67 3b
       0.012122283 -0.005599603 0.028268076 0.0035393538
0001f0 4d 88 c3 bb 15 34 5e ad 84 60 2a ad 38 4f 50 b0
       -0.005967176 -1.26308035e-11 -9.684812e-12 -7.5782536e-10
000200 7a 1a 47 31 24 7c 90 2d ff 12 ba ae 48 34 82 30
       2.8973361e-09 1.6426034e-11 -8.461675e-11 9.473604e-10
000210 fe a7 81 2f fa 47 bc af 10 f5 7e 2f 1c 47 54 af
       2.358433e-10 -3.4248143e-10 2.3188229e-10 -1.9306551e-10
000220 10 50 19 af 6a 78 13 31 6b b9 c6 2e d1 e8 ac 2f
       -1.3943713e-10 2.1459763e-09 9.0369344e-11 3.1452044e-10
000230 b3 45 ad 30 67 18 9e 30 fa ab 81 ae 21 f7 ad 2f
       1.2607216e-09 1.1502949e-09 -5.89679e-11 3.1644112e-10
000240 4c 00 15 ac db d0 dd 30 2b a5 92 31 6a bc bb 2f
       -2.1174338e-12 1.6139227e-09 4.2679367e-09 3.4148978e-10
000250 30 63 3a 2f 2b fe 45 31 b2 1a ad 2f f4 2d a4 2f
       1.695184e-10 2.881175e-09 3.1487485e-10 2.9864078e-10
000260 1d 9c 12 31 e2 e4 a0 2f 14 56 83 2f 7c 41 aa 30
       2.1334536e-09 2.9266461e-10 2.3889923e-10 1.238774e-09
000270 a1 62 1b 2f fa 49 0a 30 90 21 9e 30 be 85 2c 30
       1.4132208e-10 5.0309235e-10 1.1505552e-09 6.2763295e-10
000280 41 85 24 31 7c 20 6e 30 b7 0c 8b 30 fa 4a 2f 30
       2.3940887e-09 8.663006e-10 1.0117195e-09 6.377118e-10
000290 5a 39 e2 30 7a d2 2b 30 bb c3 aa 30 52 43 f8 30
       1.6459965e-09 6.2508543e-10 1.2424758e-09 1.8063508e-09
0002a0 30 e6 55 2e 9a d4 33 2e e5 ea 20 30 61 bd 8a ae
       4.863504e-11 4.0888716e-11 5.8541466e-10 -6.309154e-11
0002b0 b7 9a 0b ae f0 a2 ac b0 f7 1f 34 2f 28 83 04 2b
       -3.1742355e-11 -1.2560957e-09 1.6382261e-10 4.7077836e-13
0002c0 f3 32 8b 2c 95 24 07 af 82 5f 45 2a 86 fc bc 2c
       3.956274e-12 -1.2291175e-10 1.7530251e-13 5.371317e-12
0002d0 db ff b2 2e 4d 44 25 ae 8e b4 b2 af e0 70 cd af
       8.139952e-11 -3.757732e-11 -3.2506303e-10 -3.7369485e-10
0002e0 34 79 d0 ae 5e 77 27 b1 79 53 82 b0 fe e0 0e ae
       -9.480275e-11 -2.436955e-09 -9.482469e-10 -3.2486895e-11
0002f0 d2 e0 f8 2b 40 28 22 3c 4f 24 b0 3a 91 d0 2c bc
       1.768386e-12 0.009897292 0.0013438555 -0.010547773
000300 37 5b 27 3c de 1b 13 3b be 74 03 bc 4a b2 c3 3b
       0.010214618 0.002244703 -0.008023439 0.0059721814
000310 48 f8 ee 3a 60 6b a6 bb 6f bd c2 bb f2 e2 db bb
       0.0018231953 -0.005078718 -0.0059429924 -0.0067104036
000320 25 a7 9b bc 77 76 2a bc 52 9b 83 bb 36 1b 49 bc
       -0.0190006 -0.010404221 -0.0040163184 -0.012274554
000330 0a f2 10 bc b3 ea 86 39 08 2d bd bb f9 bf 1f 3b
       -0.008846769 0.00025733336 -0.0057731904 0.00243759
000340 f4 33 91 bb 49 00 31 bb 58 4b dd b9 d6 16 33 bb
       -0.004431242 -0.0027008227 -0.0004220854 -0.0027326844
000350 f6 0b 7a 3a ba e2 ae bb 80 2a f3 b6 3a 93 c0 ba
       0.00095385255 -0.0053370865 -7.246912e-06 -0.0014692314
000360 ae 58 40 bc b8 c8 83 bb 41 2f 9d bb b7 55 2b bc
       -0.011739893 -0.0040217303 -0.004796893 -0.010457448
000370 47 c4 2e bb 6e 7d 2e 3b 5f 74 77 bc 87 6b 97 bb
       -0.0026667283 0.0026625055 -0.015103429 -0.0046209726
000380 41 01 a7 3b 5d fd 70 bc f8 cf 37 bb 6e d4 40 3b
       0.005096585 -0.014708844 -0.0028047543 0.0029423493
000390 52 6e 84 bc 14 77 20 39 08 d9 06 3a 06 46 38 bb
       -0.016165886 0.00015303149 0.00051440345 -0.002811791
0003a0 74 89 f1 b9 27 65 41 bb da aa 98 3a 6b 12 51 3a
       -0.00046069513 -0.0029509754 0.0011647597 0.0007975462
0003b0 c3 80 bb 3b b2 e0 96 3b cb c9 1f b0 a3 19 83 2f
       0.0057221367 0.0046044225 -5.813063e-10 2.3846977e-10
0003c0 49 77 97 bb d5 96 76 2c 2c 96 2b ac 24 5b c5 b9
       -0.004622374 3.5042431e-12 -2.4383924e-12 -0.00037642673
0003d0 80 51 9d bb a1 78 42 3c f3 e6 3d 3c 4a f2 a7 bb
       -0.0048009753 0.0118695805 0.011590707 -0.0051253187
0003e0 0a ed d9 3c 51 a9 50 3b df 2a b4 bb fb d3 35 2e
       0.026602287 0.0031839202 -0.0054982747 4.134291e-11
0003f0 4c 13 20 bc 20 7f b4 ba 3a 7e 28 3c e9 79 27 bc
       -0.009770226 -0.0013770796 0.010284001 -0.010221937

embedding.embeddings.ken_20230614_denoised.poses.bias f4 [64]
000000 d0 cf de bd 05 bb 83 bd b2 95 ac b0 f8 07 71 bd
       -0.10879481 -0.064321555 -1.2557193e-09 -0.05884549
000010 10 a3 6b 3d 9f 29 f3 ba 3e 57 5f b2 8b 00 0a be
       0.057528555 -0.0018551833 -1.3000145e-08 -0.1347677
000020 4d 37 0f be 10 ce 0f be ca f8 82 b4 77 ee 38 bd
       -0.1398594 -0.1404345 -2.4395405e-07 -0.045149293
000030 bf 70 eb 34 ce d2 62 34 03 93 98 bb 5a 5d ad 33
       4.3854195e-07 2.112458e-07 -0.004656197 8.072921e-08
000040 33 27 1b be 96 6d ef bd 45 63 c0 3c f5 b1 88 bd
       -0.15151672 -0.11690824 0.023484835 -0.066745676
000050 6e 5f 08 be 23 d6 05 3e 96 30 15 be 0b 52 32 b4
       -0.13317654 0.13069968 -0.14569315 -1.6607389e-07
000060 59 36 01 3e 49 ad af b9 29 d0 e1 31 79 0a ae bd
       0.12618388 -0.0003350771 6.572027e-09 -0.08498091
000070 85 85 bf bd 0c 65 16 be 9c 93 ec 3d 4a 4e 02 bb
       -0.09351639 -0.14686984 0.11551592 -0.001988309
000080 42 a0 f1 bd e4 8f ae bc 50 b9 d1 bd 0b 3e 9b 3d
       -0.11798145 -0.021308847 -0.10240424 0.07580193
000090 aa ac fb bd 85 d4 1f be 08 51 8b b3 c0 89 18 be
       -0.122887924 -0.15608414 -6.4874314e-08 -0.14896297
0000a0 da 68 7e bd 2e 87 28 b3 89 1f ff 3d 1a b4 db 3c
       -0.062111713 -3.9238493e-08 0.12457187 0.026819278
0000b0 2b 45 e8 3c 7d e9 00 be d7 75 01 3b fa 89 86 bc
       0.028353294 -0.12589069 0.0019754076 -0.016423214
0000c0 02 ad 84 31 c8 eb 1d 3e d6 0f d9 36 77 3b e2 bd
       3.8613743e-09 0.15421975 6.4689475e-06 -0.11046498
0000d0 d0 e4 4c b5 9a 67 bb bd de b5 d8 3d 78 5f cd 3d
       -7.632889e-07 -0.0915062 0.105815634 0.10027975
0000e0 59 53 93 3d 2d 8b d3 bd 7f 69 46 bd f8 f7 bb bd
       0.07193632 -0.1032928 -0.048440453 -0.09178156
0000f0 ac 38 97 bc d6 da 8d 34 48 08 ce bd 73 2c 8f 3c
       -0.01845964 2.642252e-07 -0.10060173 0.01747725

embedding.embeddings.ken_20230618_denoised.poses.weight f4 [64, 63]
000000 0c 64 f3 3c 2c 65 13 3c 08 c4 b5 bc fc 9a e7 3c
       0.029710792 0.008996289 -0.022188202 0.028272144
000010 85 70 20 3c b7 48 9e bc fb c8 60 3c 82 0b 96 3b
       0.009792452 -0.019321783 0.0137197925 0.0045790086
000020 d9 06 16 bc 26 4c 51 bc 50 24 59 bc b3 05 1a bd
       -0.009156906 -0.012774503 -0.0132532865 -0.03760309
000030 05 84 ab bc f2 76 70 bc 8c 11 d8 bc dd 80 97 bc
       -0.020936975 -0.014676796 -0.026375555 -0.018494064
000040 bd 1a 13 3b 73 24 26 bc 90 88 09 3c 1e 65 e4 bb
       0.0022446357 -0.010140526 0.008394375 -0.006970062
000050 c8 54 83 bc a0 a8 01 3c cf a0 29 bb 29 2e b6 bb
       -0.016031638 0.0079137385 -0.0025883203 -0.005559702
000060 f3 c0 2b bc 92 56 01 3b d5 f9 4d bc d7 47 bf bc
       -0.010483014 0.0019735438 -0.012571772 -0.023349686
000070 21 2a a0 bb e1 3d 97 bc 56 89 9c bc e7 27 51 3b
       -0.0048878347 -0.018462123 -0.019108456 0.0031914653
000080 59 7a 26 3b 3e 99 fd bc d6 00 7d bb 85 55 13 3c
       0.0025402515 -0.03095686 -0.0038605235 0.008992557
000090 ca 7f cc bc 28 9a 52 3a 56 b3 b8 bb 74 eb dc bc
       -0.024963278 0.00080338353 -0.005636613 -0.026967742
0000a0 43 f5 98 3a e4 2a 14 ba cd 5a da bb ed dd a8 39
       0.0011669773 -0.0005652143 -0.0066636563 0.00032208805
0000b0 3b 05 bc bb 44 db 9a 39 3c a7 e7 39 a6 05 3a 3c
       -0.005737928 0.00029536535 0.00044184353 0.011353886
0000c0 b9 25 49 3c 78 61 6d 2f ab 06 f9 ae 0b 0b 48 bc
       0.01227706 2.1589652e-10 -1.13243935e-10 -0.012209664
0000d0 6c b4 dc ac 3e c5 cb 29 86 9d 5e bb 60 47 07 ba
       -6.272807e-12 9.049227e-14 -0.0033968403 -0.0005160477
0000e0 4f 86 fb 3c 70 df 21 3d ea 8d d5 bb b2 ba 58 3d
       0.030703692 0.039519727 -0.0065171616 0.05291242
0000f0 fe fe da 3a 5b 11 48 bc 92 a5 46 ae a6 91 8f 3c
       0.0016708074 -0.012211169 -4.5167044e-11 0.017525505
000100 5e f6 b5 3b e4 94 5a bc 0d 96 88 3c 6f b1 bf 3b
       0.005553051 -0.013341162 0.016673112 0.005850009
000110 4f 71 3d bc e3 f1 02 3c 18 13 27 3b 80 d7 bc bb
       -0.011562659 0.007992241 0.0025493558 -0.0057629943
000120 de 29 00 bc 03 34 fe bb f3 89 b7 bc a4 3c 49 bc
       -0.007822482 -0.007757665 -0.022404647 -0.012282524
000130 b0 e4 0e bc 44 9e 80 bc 53 19 32 bc d8 c7 bb 3a
       -0.008721516 -0.015700467 -0.010870296 0.0014326526
000140 a2 40 bf bb 20 56 ab 3b b9 95 85 bb dc a8 1f bc
       -0.0058365623 0.0052287728 -0.004076686 -0.009744849
000150 c2 fd 8b 3b 8e 5a 9b ba 24 b6 62 bb 36 95 d3 bb
       0.0042721936 -0.0011852549 -0.0034593428 -0.0064569963
000160 2f 1b 94 3a 10 8f fa bb 72 60 5f bc c1 35 34 bb
       0.0011299605 -0.007646449 -0.013633834 -0.002749786
000170 fd 97 37 bc 24 49 38 bc c2 59 fc 3a 96 0d b0 3a
       -0.01120567 -0.011247907 0.0019252824 0.0013431783
000180 96 93 96 bc 64 62 17 bb a4 60 a9 3b d6 65 72 bc
       -0.018380921 -0.0023099417 0.005168991 -0.014794787
000190 6b 40 b0 39 d0 6e 68 bb d0 97 7f bc 6c b0 19 3a
       0.0003361733 -0.003546644 -0.01560016 0.0005862776
0001a0 49 39 0a ba 0a 9b 50 bb 2b c2 6a 39 9a 00 5e bb
       -0.00052728184 -0.0031830692 0.00022388312 -0.003387487
0001b0 00 30 3a b6 3d ea fb 39 40 5d e4 3b bf 44 ed 3b
       -2.77441e-06 0.00048048972 0.006969124 0.007240861
0001c0 77 bb 04 30 e6 6b 09 30 6a 1b eb bb 3d 93 ca ac
       4.8287724e-10 4.999364e-10 -0.007174899 -5.757532e-12
0001d0 6a c1 dd 2b c4 95 10 bb 60 70 b2 39 c7 29 91 3c
       1.5756678e-12 -0.0022061924 0.00034034532 0.017720116
0001e0 8f a9 c1 3c 2c 65 7c bb 72 6e 01 3d 72 69 34 39
       0.023640422 -0.0038512452 0.03159947 0.00017205419
0001f0 44 03 e5 bb cd 6b ae ad 79 86 ba b0 9e ba 02 af
       -0.0069889147 -1.9829383e-11 -1.3571501e-09 -1.1889731e-10
000200 5a d9 7f 30 a9 3f a8 b0 ba 18 94 af ca 4a 1b 30
       9.3077335e-10 -1.2241702e-09 -2.6938612e-10 5.6494953e-10
000210 14 83 7f af 6c c9 d9 ae bc 71 d7 2f cb 08 c2 30
       -2.3238683e-10 -9.903797e-11 3.9189085e-10 1.4117857e-09
000220 bc 24 f2 2e ae cb 2e 30 3c 9f db 2e ca ff ee 2f
       1.1011411e-10 6.359028e-10 9.987253e-11 4.3473697e-10
000230 9e 9b 8f 30 7b b5 d8 30 4c 30 9c ae f2 cf 3f 2e
       1.0448848e-09 1.5767648e-09 -7.102638e-11 4.3613065e-11
000240 ec 57 f9 af fc 0d bc 2f fa 0e 90 30 da da 96 b0
       -4.5355308e-10 3.4206937e-10 1.0481636e-09 -1.0976138e-09
000250 c1 b9 75 ae 6a c1 87 2f 05 2f a0 30 b4 11 37 af
       -5.5871533e-11 2.4693786e-10 1.1654896e-09 -1.6650042e-10
000260 87 7e 21 30 97 db 5e 2e 56 3c c2 ae fa 3f 35 2f
       5.8751265e-10 5.067199e-11 -8.8328164e-11 1.6484583e-10
000270 5a d7 c4 2e 28 4b 20 af 43 bf 9d 2f 80 6c 85 31
       8.951302e-11 -1.4578616e-10 2.8694033e-10 3.8831445e-09
000280 64 ec a4 2f 68 07 24 ae a4 40 26 30 a8 fc 63 2e
       2.9999392e-10 -3.729586e-11 6.048231e-10 5.1838228e-11
000290 c0 30 5d ae ce bb 0f 30 5c f6 34 2e b0 b1 45 2f
       -5.029288e-11 5.2289983e-10 4.1146073e-11 1.7980173e-10
0002a0 a3 c3 d9 2e 7d 47 67 2d b0 00 97 2e bb 80 b7 ac
       9.9027696e-11 1.3146703e-11 6.866807e-11 -5.2154648e-12
0002b0 f6 fd cd ad 31 36 a0 ae 15 3e 33 b0 8b b4 0e aa
       -2.3418583e-11 -7.285584e-11 -6.5208045e-10 -1.2674772e-13
0002c0 08 08 55 27 91 45 02 2f 54 1e ab a6 03 3f c2 28
       2.9564042e-15 1.1848146e-10 -1.1873729e-15 2.1565654e-14
0002d0 a8 94 ab ad 41 4b 19 af 1c b6 68 af 0a aa e4 af
       -1.9506466e-11 -1.3942004e-10 -2.1164975e-10 -4.1593778e-10
0002e0 6c 10 80 2d ff 7a 0e b1 63 31 58 2e b2 09 80 2f
       1.4559208e-11 -2.0733635e-09 4.9156578e-11 2.3289953e-10
0002f0 3d 97 c2 a9 bc 65 83 3c f0 84 ad 3b ef 1d 48 bc
       -8.641566e-14 0.016039722 0.0052953884 -0.012214168
000300 bd 49 79 3c d1 09 b1 3b 77 f4 2d bc d5 66 ed 3b
       0.0152153345 0.0054027815 -0.010617367 0.0072449245
000310 ce 0c 11 3b a0 21 9f bb a2 57 e9 bb 8e 3a e7 bb
       0.0022132876 -0.0048563033 -0.0071210423 -0.007056541
000320 64 1e a8 bc e6 12 37 bc 4e c3 fa bb 5d d6 6b bc
       -0.020522304 -0.011173939 -0.0076526767 -0.01439437
000330 38 b1 21 bc af 1c c9 3a f7 a0 c0 bb e9 24 71 3b
       -0.009868912 0.0015343631 -0.0058785635 0.0036795682
000340 11 47 58 bb 56 9b 12 bc ef 69 6d 3b 9b ab 9c ba
       -0.0033001343 -0.008948168 0.0036226471 -0.0011952998
000350 58 b9 51 bb e9 94 c9 bb 56 0f 6c 3a d1 31 e6 bb
       -0.0032001343 -0.0061517847 0.0009004971 -0.0070249815
000360 cd 71 49 bc 1f 7d 22 bb 16 92 28 bc 50 19 27 bc
       -0.012295199 -0.0024793816 -0.010288736 -0.010198906
000370 9f ef f4 3a 0f 36 9b 3a 3e 3c 8b bc 4d 9a 14 bb
       0.0018687135 0.0011841672 -0.0169965 -0.0022674978
000380 93 6e 99 3b ce 82 75 bc 12 48 9a 39 14 ba 55 bb
       0.004682371 -0.0149848 0.00029426866 -0.0032612132
000390 d6 42 75 bc f2 1f 0b 3a 42 54 05 ba 21 dd 74 bb
       -0.014969548 0.00053071894 -0.0005086103 -0.0037363248
0003a0 80 85 28 39 07 45 5f bb 79 c6 da 39 a7 78 b7 39
       0.00016071461 -0.0034068243 0.00041728074 0.00034994373
0003b0 86 47 d0 3b 13 f7 d7 3b 87 69 37 2e 94 e3 76 ae
       0.0063561825 0.006590733 4.170311e-11 -5.6136054e-11
0003c0 67 01 d3 bb 45 cf 71 ac d2 88 8d 2c 8e 23 a6 ba
       -0.006439376 -3.4363218e-12 4.022651e-12 -0.0012675391
0003d0 22 81 3c 3a 98 36 84 3c 48 f5 b0 3c 13 c5 6b bb
       0.0007190873 0.016139314 0.021601334 -0.003597562
0003e0 b6 e9 e9 3c ac 8f 5d 3a 87 0b d7 bb 34 b8 b7 ad
       0.028553825 0.000845189 -0.0065626535 -2.0886494e-11
0003f0 6f 19 80 bc b5 19 9e bb 5f 95 43 3c 54 01 74 bc
       -0.015637128 -0.004824842 0.011937468 -0.014892895

embedding.embeddings.ken_20230618_denoised.poses.bias f4 [64]
000000 fa ad ff bd bb 88 97 bd ee ed 0d 31 1b d1 8a bd
       -0.12484355 -0.07399126 2.0653448e-09 -0.06778165
000010 bd 91 87 3d 36 3b 1a bb 50 41 bd b1 47 33 1e be
       0.06619594 -0.0023533828 -5.508049e-09 -0.15449248
000020 72 27 24 be bb cd 24 be dd e3 a9 34 98 9b 55 bd
       -0.16030672 -0.16094105 3.1644495e-07 -0.05215034
000030 2d 77 cd 34 a0 d6 d8 b4 b4 0f b9 bb 5b c5 67 34
       3.8270937e-07 -4.0389295e-07 -0.005647624 2.1585349e-07
000040 a5 b8 31 be e5 56 09 be 03 f7 e0 3c 90 4f 9d bd
       -0.17355593 -0.13412054 0.027461534 -0.07681191
000050 d8 58 1c be db 76 19 3e 81 f5 2a be 18 66 96 b4
       -0.15268266 0.14986746 -0.16695215 -2.801396e-07
000060 96 2e 14 3e 30 b7 ec b9 52 70 57 b1 c8 04 c8 bd
       0.14470896 -0.00045149913 -3.1350464e-09 -0.09766537
000070 3b fc db bd 82 51 2c be 4c b5 07 3e 22 85 27 bb
       -0.107414685 -0.16827968 0.13252753 -0.002556153
000080 72 99 0a be ce 6d cb bc c6 cc f0 bd 34 7f b2 3d
       -0.13535097 -0.024832632 -0.117578074 0.08715668
000090 2e 53 10 be 9a 12 37 be 4f 37 bb b2 31 c4 2e be
       -0.1409423 -0.1787819 -2.1794817e-08 -0.17067029
0000a0 c2 85 92 bd d6 6b 41 32 09 4a 12 3e 6a a3 ff 3c
       -0.071544185 1.1258598e-08 0.14286055 0.031205852
0000b0 12 14 07 3d c2 d1 13 be 57 e9 23 3b d0 43 9e bc
       0.032978125 -0.14435485 0.0025010908 -0.019319445
0000c0 c0 b3 75 2d db e2 34 3e d1 0a 2e 37 4b cc 01 be
       1.396655e-11 0.17664663 1.0373727e-05 -0.12675588
0000d0 f8 5a 58 b6 df 4b d7 bd 14 be f8 3d 99 bb eb 3d
       -3.223946e-06 -0.10512518 0.121456295 0.11510391
0000e0 2e 6c a9 3d 33 d9 f2 bd 28 e8 64 bd e7 e8 d7 bd
       0.08272587 -0.11857834 -0.055885464 -0.105424695
0000f0 f1 ab b1 bc 44 60 bd 34 3d 8c ec bd 75 6c a8 3c
       -0.021688433 3.5274036e-07 -0.11550186 0.020559529

core.core.fc.0.0.weight f4 [128, 64]
000000 a0 cc b8 0c 7d bf 75 8d bd e5 f3 8a 0e a6 f4 8c
       2.8472843e-31 -7.572695e-31 -2.3486467e-32 -3.7694093e-31
000010 fc 63 65 0e 70 5d 80 0c bc ce 10 89 35 3e 82 8e
       2.827457e-30 1.9777758e-31 -1.7430576e-33 -3.2107377e-30
000020 07 3d 57 8f ec 60 51 8f 8e 5c 56 8a 6b 3c ce 8d
       -1.0612072e-29 -1.0323162e-29 -1.0321133e-32 -1.2710275e-30
000030 96 ca 1d 0b f0 56 e3 8a 60 06 c9 0b bb 17 97 8a
       3.038951e-32 -2.1892007e-32 7.7431976e-32 -1.4549697e-32
000040 0a 21 28 8f 84 f9 79 8e dc 7c 3b 0c 16 b4 7b 8e
       -8.2894026e-30 -3.0811757e-30 1.444353e-31 -3.1024847e-30
000050 5b 6a 04 8e 80 c7 ef 8a 65 8b 0a 8f 16 7f a3 0a
       -1.6321464e-30 -2.3089906e-32 -6.830772e-30 1.5744133e-32
000060 c8 12 ff 8e cc 0b 8d 8b e7 2b 47 0b 86 20 0c 8f
       -6.288044e-30 -5.4328974e-32 3.8359034e-32 -6.908797e-30
000070 4e 21 a7 0d c2 87 64 8e b0 5c 6d 8e 7f c9 2a 8c
       1.0300187e-30 -2.8168535e-30 -2.9257133e-30 -1.3156959e-31
000080 44 3f 03 0f 14 29 8d 0b 77 f8 c0 8e 58 c3 70 0d
       6.470983e-30 5.437303e-32 -4.7570917e-30 7.4190846e-31
000090 d8 1c 99 0d e4 af 99 8e 26 54 e9 0a 14 26 da 8e
       9.436297e-31 -3.788679e-30 2.2468737e-32 -5.3777817e-30
0000a0 5a ff 11 8e b2 a9 3b 8b 2f ab a1 0e fe 10 e5 8d
       -1.7995577e-30 -3.6142555e-32 3.9854408e-30 -1.4117305e-30
0000b0 3f 5e 48 0e 08 fa 5c 8d 58 c0 ae 0a c7 68 df 8c
       2.4697281e-30 -6.80937e-31 1.6827942e-32 -3.442165e-31
0000c0 4e 52 64 8a b4 40 ed 0e 50 be 0b 8b 5e b0 29 0c
       -1.09932805e-32 5.8487318e-30 -2.69136e-32 1.307236e-31
0000d0 65 24 83 8a 98 e9 39 8e c0 50 9f 0e 81 10 4f 0e
       -1.2628531e-32 -2.2915482e-30 3.9274286e-30 2.5522666e-30
0000e0 7b f4 95 0e 22 f2 ca 8e a5 8f 0f 8d da 5b 9f 8e
       3.6966762e-30 -5.003001e-30 -4.4238183e-31 -3.9284976e-30
0000f0 46 88 00 8c e1 0c 2e 0b 4c 03 f8 8e e4 8b 1c 0d
       -9.90177e-32 3.352087e-32 -6.1139895e-30 4.82396e-31
000100 be 46 f1 8a 4a 8e 44 8a ab 02 68 0a de cf bb 8b
       -2.3234066e-32 -9.463818e-33 1.11708955e-32 -7.2342544e-32
000110 46 db 04 0b 4d 38 ea 89 68 15 30 09 ba 78 1f 8c
       2.5587238e-32 -5.6386396e-33 2.1195295e-33 -1.2285244e-31
000120 c7 17 15 0c c5 0c 02 8c 86 84 8b 0a 70 18 e2 0a
       1.1485698e-31 -1.0018678e-31 1.3435063e-32 2.1772201e-32
000130 88 69 16 0a d0 c7 46 08 a6 67 48 0b 12 38 a7 09
       7.2420855e-33 5.9818336e-34 3.8596575e-32 4.0256516e-33
000140 d4 f9 ce 8a c8 cb 6f 0b cb dd c0 0a 32 12 f5 89
       -1.9931053e-32 4.6183034e-32 1.8572357e-32 -5.8998715e-33
000150 59 3d 45 8b 10 81 fc 09 8a b8 83 8b ae 82 65 8a
       -3.7986973e-32 6.0788163e-33 -5.073703e-32 -1.1050527e-32
000160 ee 97 ce 8b d0 e9 4b 0a 5a e3 a6 8a 23 d2 ab 0b
       -7.957691e-32 9.81807e-33 -1.6070739e-32 6.618298e-32
000170 00 26 0f 8b 82 26 4a 0b 67 7c fc 8b 81 5e 81 8a
       -2.7569386e-32 3.8932755e-32 -9.725405e-32 -1.2457797e-32
000180 90 6a 7d 8b a8 73 db 0a b9 f1 c7 8a fd c2 3b 8a
       -4.8806196e-32 2.1132438e-32 -1.9253929e-32 -9.040396e-33
000190 bc 50 74 8b b2 c9 11 8b 44 00 62 0a dc 25 d8 8b
       -4.7053428e-32 -2.8077723e-32 1.0881554e-32 -8.325714e-32
0001a0 c5 71 85 8c fa 13 ae 0a 1a ba 12 0c c4 54 03 0b
       -2.0560367e-31 1.6763105e-32 1.1303434e-31 2.5293453e-32
0001b0 be 84 bb 0b 8a 2e b7 8b fb 1e 58 09 80 80 5a 88
       7.222951e-32 -7.055906e-32 2.6014621e-33 -6.575304e-34
0001c0 1e 87 c3 09 4e 14 3c 0c ad c5 14 09 95 cd 25 0c
       4.7071606e-33 1.4489103e-31 1.7907799e-33 1.2773003e-31
0001d0 79 68 2c 8a 49 17 c8 0a ae d0 16 8b d5 18 70 8b
       -8.301148e-33 1.9268058e-32 -2.9045942e-32 -4.6241e-32
0001e0 40 b1 93 08 d0 8c 20 8c 70 db 55 89 e1 df 9a 8c
       8.888912e-34 -1.2368326e-31 -2.5742121e-33 -2.38622e-31
0001f0 76 73 b4 0a cd a9 82 8a 87 1c 71 8b 1f 86 8f 0a
       1.7376801e-32 -1.2582417e-32 -4.6436373e-32 1.382085e-32
000200 c2 fa 19 8a 74 17 c2 09 d4 e3 92 8a 62 7c 75 8a
       -7.413844e-33 4.6725856e-33 -1.4144988e-32 -1.1819715e-32
000210 4d 9a bd 09 76 b5 56 0a 3c 11 12 8a 14 1d f4 88
       4.56452e-33 1.0337854e-32 -7.032886e-33 -1.4692052e-33
000220 ea ac 13 8b 50 2f 3d 0b 6b c1 3f 0a 23 af 32 8a
       -2.8441256e-32 3.643567e-32 9.232693e-33 -8.603328e-33
000230 6c 8c 47 8a fb 98 bc 89 48 f1 bc 0a 5a b7 95 0a
       -9.607912e-33 -4.5403216e-33 1.8194501e-32 1.4417147e-32
000240 46 fd 0b 89 ee 04 e2 0a 33 e8 92 0a 32 da 41 8a
       -1.6850605e-33 2.1764863e-32 1.4146632e-32 -9.33365e-33
000250 03 7e 20 0a f3 4e a7 0a 7d a4 15 0b f0 4e ef 88
       7.72742e-33 1.6111212e-32 2.8820103e-32 -1.4402847e-33
000260 0d 21 32 0b 78 99 95 87 6a 8c 38 89 e0 48 59 8a
       3.4306418e-32 -2.250923e-34 -2.2214217e-33 -1.0461876e-32
000270 0c 23 40 09 3d c9 d2 0a 54 00 c3 09 2a 13 5d 0a
       2.3127638e-33 2.0297962e-32 4.694485e-33 1.0644367e-32
000280 27 ad ef 0a 70 a1 1b 89 9c 97 7d 0a 56 84 2f 0a
       2.3079996e-32 -1.8733354e-33 1.22100215e-32 8.450833e-33
000290 6e 83 22 8a e8 ca 86 0a d0 44 80 89 12 6c f7 09
       -7.8247355e-33 1.2980055e-32 -3.087959e-33 5.9564716e-33
0002a0 cc 8d 93 0a ab 7a 85 8a 1b 01 14 8b d5 bc 8a 09
       1.4208923e-32 -1.2853577e-32 -2.8504595e-32 3.339987e-33
0002b0 ac 8a 08 89 e8 51 c8 0a b5 df 01 8a 02 bc 0e 0a
       -1.6435608e-33 1.9290109e-32 -6.253199e-33 6.872412e-33
0002c0 ce 5c 3a 0a 08 63 98 0a 6d 69 bb 8a 11 de 85 0a
       8.973029e-33 1.4674319e-32 -1.8047102e-32 1.2890966e-32
0002d0 80 84 48 09 de 08 a6 8a 5f 6d 83 8a ef 1a c7 0a
       2.4136426e-33 -1.5988554e-32 -1.2655982e-32 1.9173134e-32
0002e0 eb f4 c9 09 5d 7a 2d 8b 52 70 ca 0a 00 53 62 0b
       4.861931e-33 -3.3410644e-32 1.9494143e-32 4.358846e-32
0002f0 64 99 09 0a 77 31 97 89 c2 32 1f 89 a4 65 93 09
       6.6251596e-33 -3.6398444e-33 -1.9162795e-33 3.5484545e-33
000300 d1 61 8c 8c 05 c6 bd 0b 1b 9d 44 8a 1e bd e8 0c
       -2.1629286e-31 7.30981e-32 -9.466605e-33 3.585908e-31
000310 a5 17 d0 0b ae 32 62 8a 44 ea 5e 08 f6 b6 1c 8d
       8.015426e-32 -1.0891036e-32 6.7081073e-34 -4.8291443e-31
000320 11 cb c0 0d d4 d0 f8 0b 92 a2 3b 0a 45 2f bb 0c
       1.18818e-30 9.5840335e-32 9.0342986e-33 2.8840361e-31
000330 0e e0 1f 09 ee 2a 3c 0a 62 9c ac 0a 58 5b bf 08
       1.9244279e-33 9.059945e-33 1.6621822e-32 1.1516869e-33
000340 bb de b5 8c bc 0e 91 8a bb b9 41 0b aa 0c 73 0c
       -2.8021517e-31 -1.3968535e-32 3.7310176e-32 1.872385e-31
000350 a0 49 0c 8a 2c 54 6d 8c 84 49 b0 0b 9c 83 96 8a
       -6.754602e-33 -1.8283145e-31 6.790335e-32 -1.449398e-32
000360 5c 08 0d 8d 6c 7e 47 89 80 97 95 0a c5 f4 77 0c
       -4.345904e-31 -2.4013197e-33 1.4405166e-32 1.9101846e-31
000370 23 07 e5 0c d8 c5 df 0a ac a2 f4 8c 12 ac 9f 0a
       3.5287332e-31 2.154854e-32 -3.7692057e-31 1.5375869e-32
000380 ea 15 15 0c ec 1c 00 89 77 ef e4 0c 64 e9 4f 8d
       1.1485137e-31 -1.5421039e-33 3.5273085e-31 -6.4067734e-31
000390 e2 5e 1b 0c 42 4c 19 0c cb 46 4f 0a 58 a7 0c 0c
       1.1969318e-31 1.1809639e-31 9.980002e-33 1.0835566e-31
0003a0 a0 1b 72 0c 50 49 a7 09 0f 8b 48 8c c7 0a 37 0b
       1.8651315e-31 4.027273e-33 -1.5449286e-31 3.5252626e-32
0003b0 80 57 1c 8c 80 73 69 88 44 c4 1d 8a 8a e2 1c 8b
       -1.2044134e-31 -7.0251657e-34 -7.5961885e-33 -3.0214936e-32
0003c0 9d a7 ec 0a 24 68 8d 0b f4 d5 1c 8a 73 b2 9f 0c
       2.2789022e-32 5.446792e-32 -7.551367e-33 2.460523e-31
0003d0 95 43 8f 09 1d 93 0f 0c 73 fc b6 0c 22 e1 4e 8b
       3.448955e-33 1.106059e-31 2.8193477e-31 -3.9843528e-32
0003e0 ea 18 95 8b 64 d9 b4 0c 98 78 42 8b b8 46 0d 0c
       -5.74302e-32 2.7864228e-31 -3.7453766e-32 1.0883526e-31
0003f0 e8 2d 40 09 5e 6e 11 8a 4a 11 8d 0d e2 1c 14 0c
       2.3132744e-33 -7.002254e-33 8.693958e-31 1.1410197e-31

core.core.fc.0.0.bias f4 [128]
000000 f5 e9 18 10 db da 0c 0c c4 8f ca 0a 0d 85 51 0c
       3.0156948e-29 1.0851067e-31 1.9505971e-32 1.6140813e-31
000010 2b 32 12 0e eb 0d 4b 8d d6 3f 69 10 8a 4e 3b 0f
       1.8020044e-30 -6.257096e-31 4.6000325e-29 9.234938e-30
000020 6a 3b 17 0b cc f2 5c 10 52 7a 2e 0d 20 e3 20 0d
       2.912624e-32 4.3574394e-29 5.3765127e-31 4.95772e-31
000030 60 2b d5 0b f2 15 85 8f 98 36 12 0d f5 b2 56 8d
       8.210988e-32 -1.3123266e-29 4.505544e-31 -6.6159253e-31
000040 b6 82 a9 0c fd 94 b1 11 c8 e0 79 0a 60 a8 e5 10
       2.6117242e-31 2.8017497e-28 1.20311906e-32 9.0583996e-29
000050 0c cb 54 89 20 a7 71 8c a8 38 95 0e 28 8b 67 0b
       -2.5614044e-33 -1.8616257e-31 3.6785894e-30 4.459367e-32
000060 87 0d e9 0f 40 36 de 0a 62 9e 08 0c 4a 65 77 0d
       2.2980784e-29 2.1398229e-32 1.052472e-31 7.6234674e-31
000070 b8 e8 c7 0d a0 58 f9 08 24 eb b0 0c 5f 0c 94 10
       1.2320347e-30 1.5006978e-33 2.7258614e-31 5.839477e-29
000080 fc b2 81 8b 00 0d c1 8f dc 23 7e 8b 93 20 c9 8f
       -4.99583e-32 -1.9036277e-29 -4.8945598e-32 -1.9832677e-29
000090 db 66 2d 8c 1f e3 36 0d 04 5a 53 0e 06 28 65 0c
       -1.3358387e-31 5.6356467e-31 2.6051099e-30 1.7653562e-31
0000a0 44 a1 0f 10 ee e3 73 8b 67 bb 11 8b a3 99 53 0d
       2.8326012e-29 -4.6971573e-32 -2.806697e-32 6.520433e-31
0000b0 df 6a 14 0c a0 d0 54 8a 6c 13 1e 90 99 a6 8d 8d
       1.1433666e-31 -1.0246667e-32 -3.1174968e-29 -8.729903e-31
0000c0 7e 80 b7 0d ab d8 14 9b 47 3a 44 90 3a 8e 00 91
       1.1309179e-30 -1.2312282e-22 -3.869908e-29 -1.0141247e-28
0000d0 e2 7d 92 8d 78 ca 28 8d b3 5a df 0d 0c aa 68 8d
       -9.02825e-31 -5.201271e-31 1.3765271e-30 -7.1695206e-31
0000e0 9e 5a f4 8d 14 0c b0 0d 6f 59 47 91 1e 12 0b 8e
       -1.5059476e-30 1.0849745e-30 -1.5725891e-28 -1.7141796e-30
0000f0 6c 7f 64 0c 00 55 3a 8e 76 79 22 8c 33 4c ed 0c
       1.7602826e-31 -2.2967196e-30 -1.2516577e-31 3.6561492e-31
000100 8c 13 a3 91 55 fb 0b 0e 68 c8 b6 0d dc 8b 4b 94
       -2.5728912e-28 1.7254085e-30 1.1264862e-30 -1.0276463e-26
000110 80 c3 f3 0b f4 07 b0 90 59 37 92 8c 91 5d 8a 19
       9.389435e-32 -6.9432013e-29 -2.2528173e-31 1.4306657e-23
000120 6f 4c 1a 0c 14 16 82 10 c1 37 37 3f eb a4 3b 8e
       1.1886729e-31 5.1309976e-29 0.7156945 -2.3128935e-30
000130 29 91 6d 0c c4 01 46 0c 9e cd d3 8c 7d 30 f9 8e
       1.8301498e-31 1.5253896e-31 -3.2633449e-31 -6.142993e-30
000140 f8 b8 98 8b 96 67 00 8f bd a8 f0 8c 1a a0 18 8b
       -5.882658e-32 -6.330837e-30 -3.707941e-31 -2.9394582e-32
000150 ae 43 71 8e dc 58 ea 0c 47 50 19 0c a8 b0 f0 89
       -2.973813e-30 3.610689e-31 1.1810849e-31 -5.7944025e-33
000160 4a 17 d5 91 d2 55 5d 10 50 8d 58 8b 48 c2 77 8c
       -3.3619828e-28 4.365068e-29 -4.1706399e-32 -1.9086652e-31
000170 4b b7 21 8d fb ea 05 11 30 f5 7e 91 fe 26 92 0b
       -4.9832586e-31 1.0564259e-28 -2.0112621e-28 5.6295823e-32
000180 db 54 28 91 c3 82 09 8f f8 05 c5 90 31 f9 46 8c
       -1.3279011e-28 -6.779805e-30 -7.7711995e-29 -1.5328353e-31
000190 82 5b 80 0c 9e 3b 8a 8c 2e bc 17 0c 48 9d 79 8b
       1.9776597e-31 -2.1298147e-31 1.1689245e-31 -4.807398e-32
0001a0 20 0a f2 0b 90 38 92 8c e1 3e 0f 8f 23 67 11 91
       9.3230244e-32 -2.2528904e-31 -7.0625544e-30 -1.1470265e-28
0001b0 a1 92 9d 8a 1e 3e 4e 91 10 eb 5e 0a 39 01 6b 8d
       -1.5173706e-32 -1.6269676e-28 1.07331215e-32 -7.2416438e-31
0001c0 ee 5e 96 0c b1 eb 92 8e 54 d6 6d 0e 6a 8f f3 8b
       2.3168293e-31 -3.621874e-30 2.93157e-30 -9.381598e-32
0001d0 79 93 b0 8d c7 7f 45 0c 3c 32 13 0e 0e d5 f2 0a
       -1.088234e-30 1.521478e-31 1.8143336e-30 2.3383895e-32
0001e0 00 78 ad 89 74 c9 81 0c 9c 77 7b 0d a9 11 26 8c
       -4.1761083e-33 1.9996842e-31 7.748932e-31 -1.2793489e-31
0001f0 f4 54 53 8c f0 91 1d 8b 94 21 af 8b d2 98 83 8c
       -1.6280413e-31 -3.034689e-32 -6.745807e-32 -2.0275721e-31

core.core.fc.1.0.weight f4 [64, 128]
000000 b6 ee c9 0b b9 d5 44 0a 7e c8 7f 0a ae cb 85 8a
       7.7781556e-32 9.4772535e-33 1.2315512e-32 -1.288405e-32
000010 75 53 fa 89 bb b9 f5 8a 1f 80 4c 0d 44 4d 73 89
       -6.0263793e-33 -2.3662506e-32 6.3016574e-31 -2.9286391e-33
000020 ed de bb 89 4a ca 4a 0a 20 be 43 08 1c fd c9 09
       -4.522825e-33 9.7639926e-33 5.890417e-34 4.8627013e-33
000030 86 cd 85 8a 2d 90 53 8a 38 cc e4 08 bc 85 7d 8a
       -1.2884743e-32 -1.0186397e-32 1.3770262e-33 -1.22066595e-32
000040 fc 4b 19 89 6e 71 c3 09 52 e2 96 0a 27 6f 15 8b
       -1.8452433e-33 4.705121e-33 1.4529607e-32 -2.8779978e-32
000050 8c d7 03 09 c2 83 59 8a 0e ac b5 8b 46 30 0e 0a
       1.5869901e-33 -1.0472951e-32 -6.9977543e-32 6.8461305e-33
000060 d2 55 df 0a 44 bb 42 09 3a 34 8e 0a 78 73 96 0a
       2.1506401e-32 2.3439952e-33 1.3693748e-32 1.4487909e-32
000070 f4 dd c6 89 e3 86 f8 09 72 02 fb 09 27 04 67 0a
       -4.787549e-33 5.9830675e-33 6.042835e-33 1.11230264e-32
000080 d4 7a 92 8a f8 56 ec 8a a9 22 59 0a ea 23 21 89
       -1.4105491e-32 -2.2758687e-32 1.0454689e-32 -1.9396557e-33
000090 cf 92 59 0a 69 3a 3f 8a 53 35 81 0a 48 28 19 88
       1.04757816e-32 -9.207301e-33 1.2442306e-32 -4.6089113e-34
0000a0 36 79 65 0b 6a b9 18 0a 85 ad b5 09 ed 88 8b 0a
       4.4194985e-32 7.353406e-33 4.3737342e-33 1.3436719e-32
0000b0 d6 44 59 0a 76 3c e4 09 27 f3 2b 0a 26 95 8a 0a
       1.04611165e-32 5.494586e-33 8.2790824e-33 1.334502e-32
0000c0 84 46 54 0a 28 24 17 91 40 ae 3a 8b fc 93 7c 0a
       1.0220691e-32 -1.1922941e-28 -3.5953388e-32 1.21611914e-32
0000d0 82 f4 b0 09 9b 51 d9 09 7f fa 55 8a 5d e2 85 8a
       4.2600393e-33 5.231759e-33 -1.030269e-32 -1.2892583e-32
0000e0 c8 3e 04 0a ca 10 23 0a b4 63 ba 0a 26 a2 b3 0a
       6.367377e-33 7.851322e-33 1.7948653e-32 1.7298066e-32
0000f0 d0 c5 95 09 ee 37 4b 8a d5 31 8c 89 75 28 ab 88
       3.6056467e-33 -9.784614e-33 -3.3750636e-33 -1.03012e-33
000100 4c 62 97 0a 35 2c 35 0b 20 13 39 06 d6 1b 26 8f
       1.4577746e-32 3.489259e-32 3.4808684e-35 -8.189793e-30
000110 60 62 bd 87 07 2e 0e 8a 4c de 54 0a 96 c9 43 92
       -2.849538e-34 -6.845708e-33 1.0249238e-32 -6.1779624e-28
000120 8f 09 a7 89 62 25 68 8b ba 9b 3c 2d 7c da 1a 0a
       -4.0212776e-33 -4.4709698e-32 1.0721141e-11 7.4559226e-33
000130 5a 32 d1 89 98 04 5c 0a 98 35 4b 8a cc 20 45 09
       -5.036227e-33 1.0593479e-32 -9.784174e-33 2.3728433e-33
000140 73 42 85 89 0d 26 9a 0a 47 ae 7a 0a fc 06 88 89
       -3.2081074e-33 1.4843974e-32 1.206984e-32 -3.2747377e-33
000150 52 11 d2 8a 50 42 ad 09 48 39 56 08 a0 2d 82 88
       -2.022878e-32 4.1710595e-33 6.4465616e-34 -7.834817e-34
000160 76 b6 d9 0a 48 7e 4b 8a 21 72 ff 09 f8 55 e2 88
       2.0964974e-32 -9.797845e-33 6.1496343e-33 -1.3622091e-33
000170 05 54 d5 09 99 d6 85 8a 5c ef 45 0a c6 ae 63 0a
       5.1356896e-33 -1.2888157e-32 9.5302235e-33 1.0962524e-32
000180 f6 e0 48 8b 13 da a0 0d 64 5f 03 8a a4 77 49 8a
       -3.868784e-32 9.913261e-31 -6.3253616e-33 -9.7003e-33
000190 ff ee 93 0a 6c 9f 25 8a a1 c4 ba 89 15 89 0a 89
       1.4245485e-32 -7.974445e-33 -4.496278e-33 -1.6675601e-33
0001a0 3e 4f 10 09 68 c9 5a 8a 7e 6f d7 8a 96 35 37 8b
       1.7370629e-33 -1.05341985e-32 -2.0745686e-32 -3.5284832e-32
0001b0 08 fa 79 89 80 38 a6 09 fa ac ee 89 60 34 b9 09
       -3.0089849e-33 4.001618e-33 -5.7459082e-33 4.4586383e-33
0001c0 4f c8 85 8a 20 5a 04 8a fa f3 2f 89 66 74 3f 8a
       -1.2882782e-32 -6.3725194e-33 -2.1179576e-33 -9.2182076e-33
0001d0 ff b9 bf 89 40 8e d4 08 54 06 a4 89 a4 f5 d0 08
       -4.6156487e-33 1.2792729e-33 -3.9487515e-33 1.25762945e-33
0001e0 f5 5b b0 89 10 64 2c 0a 85 d6 9a 8a 24 09 b5 89
       -4.2456935e-33 8.3003184e-33 -1.4910354e-32 -4.358276e-33
0001f0 31 57 98 8a a6 c4 01 09 28 32 63 08 59 28 26 8a
       -1.4669865e-32 1.5620274e-33 6.8369286e-34 -8.000198e-33
000200 ed de c8 0c 1a c5 40 0b 4e fc 54 89 09 65 a5 8a
       3.0949048e-31 3.7126138e-32 -2.5637205e-33 -1.5926927e-32
000210 50 9a 01 8b 88 63 2e 8b ac 08 31 0d bc 11 e7 8c
       -2.4960588e-32 -3.358606e-32 5.4552774e-31 -3.560186e-31
000220 f0 bb 85 0a 56 e1 cc 0a da 1d fe 8a 95 9d 32 8a
       1.2878128e-32 1.9729247e-32 -2.4470539e-32 -8.600026e-33
000230 44 e7 52 8a 30 5c 6a 0b b5 b8 c2 09 f4 9b ee 0b
       -1.01546284e-32 4.5136115e-32 4.68775e-33 9.190892e-32
000240 e8 2a c5 8a c9 e0 f0 0b a5 80 84 0a 07 7a 10 8d
       -1.898655e-32 9.2782856e-32 1.2759528e-32 -4.452031e-31
000250 24 50 b8 89 f4 32 2b 8a 3a a7 0a 0c 04 7a 42 8a
       -4.4371753e-33 -8.242934e-33 1.0681456e-31 -9.363709e-33
000260 d8 f3 02 8d 9e 17 38 0a 2c 97 ee 88 f1 90 1e 0a
       -4.035286e-31 8.86372e-33 -1.4359644e-33 7.634684e-33
000270 1b 05 ea 8b 40 00 ec 09 e0 40 e9 09 cb f7 55 0d
       -9.0141203e-32 5.681517e-33 5.6153718e-33 6.5933962e-31
000280 9c 84 57 89 34 ca 46 8b 4c 92 12 8b 4c 47 90 0a
       -2.5942036e-33 -3.8285534e-32 -2.822864e-32 1.3893515e-32
000290 00 ff ea 88 22 cf 86 0b e2 68 2b 8b 34 97 67 8a
       -1.4143313e-33 5.192658e-32 -3.3012307e-32 -1.11506836e-32
0002a0 cc 13 bd 0b 4c a0 39 0a 4e e0 a2 8a 03 ac 83 8b
       7.282994e-32 8.9375745e-33 -1.5684407e-32 -5.071818e-32
0002b0 50 4d f7 0a 9e 1b a5 89 90 ec fd 0b 84 6d 6c 8b
       2.3814317e-32 -3.9748276e-33 9.7807995e-32 -4.5534337e-32
0002c0 e8 71 77 8b 79 98 9f 96 cd db 01 0d ae 13 13 8c
       -4.7656163e-32 -2.578406e-25 4.001577e-31 -1.133039e-31
0002d0 c6 48 ca 0b d6 7d fa 8a 73 50 b4 0a 4e ed 1a 8c
       7.7917067e-32 -2.4121459e-32 1.7363631e-32 -1.193514e-31
0002e0 8c be a4 0b 89 05 f1 0c 60 04 5e 8c fa e7 25 0c
       6.3457205e-32 3.713526e-31 -1.7103574e-31 1.2780946e-31
0002f0 48 c2 5a 89 7d 40 07 8b 70 5a 34 09 fc 83 61 0b
       -2.6332146e-33 -2.604857e-32 2.1709235e-33 4.3432718e-32
000300 14 80 25 8c c7 9e 7c 0b 04 24 91 8a 9f 57 1f 91
       -1.274968e-31 4.8652885e-32 -1.397654e-32 -1.2569889e-28
000310 4c e8 eb 8b 78 84 d9 8c fc b7 12 8c aa 81 86 95
       -9.086823e-32 -3.351387e-31 -1.1302797e-31 -5.432674e-26
000320 84 90 19 09 d8 e1 2a 0d 9d 3e 19 36 76 62 8c 8a
       1.8484656e-33 5.2657144e-31 2.2835222e-06 -1.3518546e-32
000330 32 12 9b 0a c7 26 44 8a f8 d4 37 8b 49 36 8d 0a
       1.4932801e-32 -9.44435e-33 -3.5404738e-32 1.3598226e-32
000340 dc 1b d7 8b b2 88 f8 0b e1 c9 1c 8b d4 26 8e 0a
       -8.2856906e-32 9.57318e-32 -3.0196384e-32 1.3688708e-32
000350 7d a8 fa 0b ae 26 02 0b c4 76 04 8c 66 31 0e 8b
       9.655001e-32 2.506619e-32 -1.020465e-31 -2.7385368e-32
000360 82 6d 95 8b 50 db 8c 0c 3e ef 65 8a 7f b2 4a 8b
       -5.755748e-32 2.170241e-31 -1.10709454e-32 -3.903807e-32
000370 04 be 49 8b 9b 78 c4 8a 20 6c 0c 0c 78 a2 58 8a
       -3.8854144e-32 -1.891948e-32 1.0817745e-31 -1.0430579e-32
000380 87 7a 13 0d fc 46 f5 0c ca fc fa 8a 00 2a a3 07
       4.544536e-31 3.779095e-31 -2.4169213e-32 2.45502e-34
000390 f4 55 24 0b 12 de dc 0a 1e 7a 41 0b 4e 79 ab 09
       3.1649915e-32 2.1268763e-32 3.726232e-32 4.1280827e-33
0003a0 34 fb 74 8b f0 1b ac 8a c4 f7 9c 8c 38 4f 67 0c
       -4.7181675e-32 -1.6573506e-32 -2.4184724e-31 1.7819432e-31
0003b0 81 0e 89 8a e6 a4 3e 8c 1c 66 57 09 a6 b6 3d 8a
       -1.3198076e-32 -1.468669e-31 2.5927695e-33 -9.134371e-33
0003c0 38 8e bb 0a c5 39 04 8a ee a3 46 8c 04 2e 7a 0a
       1.8060942e-32 -6.366434e-33 -1.5302696e-31 1.2045717e-32
0003d0 06 98 2b 8c 7e cb 11 0b 25 24 85 0b 4d ce ac 8a
       -1.3219109e-31 2.8079075e-32 5.128412e-32 -1.6640599e-32
0003e0 f3 86 e6 8b 0b 0a 88 0a 11 e1 f1 8b 44 e9 1e 8c
       -8.8795826e-32 1.3100101e-32 -9.3168466e-32 -1.2242073e-31
0003f0 39 31 88 09 94 d5 e5 88 10 e9 12 8b c0 6c d2 08
       3.2787098e-33 -1.3832648e-33 -2.8293914e-32 1.2664482e-33

core.core.fc.1.0.bias f4 [64]
000000 49 91 5d 2c 24 1e 87 35 1e f5 20 af c8 7b 1e b0
       3.1486638e-12 1.0067056e-06 -1.4638998e-10 -5.765597e-10
000010 94 6c 28 b1 02 96 02 2f 57 20 09 b0 b1 b8 9b 2f
       -2.4508937e-09 1.1876725e-10 -4.988627e-10 2.8325567e-10
000020 e9 25 d0 af f1 ad 13 b2 af 5b 93 2f 4e eb a4 3c
       -3.7861916e-10 -8.596076e-09 2.680429e-10 0.020131733
000030 8a bb e2 2d 42 69 05 ae bc 4b 0c b0 a2 88 f5 ae
       2.577651e-11 -3.0334187e-11 -5.103933e-10 -1.1165581e-10
000040 3a af b0 2b 8d 2c 8f 2e 27 2f b1 38 0c 2b a6 3e
       1.2554187e-12 6.510801e-11 8.4488005e-05 0.32454717
000050 39 49 53 ae 04 1c b5 ae 40 cf af 2f 30 7f 33 ab
       -4.804088e-11 -8.2359036e-11 3.1979575e-10 -6.3770083e-13
000060 d1 2d 64 af 00 21 84 ab b7 18 a9 2e 63 d3 5f 3e
       -2.0752756e-10 -9.388323e-13 7.6896205e-11 0.21857981
000070 3c 59 40 ac 18 bf ec ae ac 1a 58 3e 8c 6b 30 3e
       -2.7334376e-12 -1.07659825e-10 0.21103925 0.17228526
000080 39 23 09 b1 77 f4 64 2f 3b bc c7 2f 5b b3 c3 af
       -1.9956146e-09 2.082333e-10 3.6331635e-10 -3.5597733e-10
000090 64 09 65 3c 04 02 c9 b0 19 38 07 2f 8a ff 55 b0
       0.01397929 -1.4625248e-09 1.2298108e-10 -7.785209e-10
0000a0 0e bb 19 31 3d a1 29 3a 1d 4e 96 30 45 a0 28 2f
       2.2370759e-09 0.0006470865 1.0936138e-09 1.533645e-10
0000b0 f0 45 d0 2c 29 67 a1 30 66 2b 5e 2e 28 21 66 3b
       5.91948e-12 1.1743612e-09 5.05155e-11 0.0035114978
0000c0 be d5 2f 2f ce a9 a7 3a d9 ce 61 af 36 30 0f ad
       1.5992094e-10 0.0012791695 -2.0537118e-10 -8.139314e-12
0000d0 d9 72 45 ae 36 dd 83 af d7 38 36 38 5b 70 8a 32
       -4.489462e-11 -2.398594e-10 4.3445118e-05 1.6116408e-08
0000e0 b3 38 4a ad af a1 12 b0 d8 5e b7 2f eb 03 d1 b1
       -1.149496e-11 -5.3344257e-10 3.3354897e-10 -6.083146e-09
0000f0 a3 7f 0a 2f 6d d4 83 3e 16 d8 a7 2d 37 0a 02 af
       1.2596373e-10 0.25748006 1.9081663e-11 -1.182706e-10
