artifacts/poses_to_location/20250817010953/best_model.pt (torch, 20213 bytes, 18 tensors)

linear.bex_20230623_denoised.location.weight f4 [3, 63]
00000000: a6de 08bf 8ba6 3440 fdef f5bd 6cf0 81bf
00000010: ab34 dec0 72be cf3f 7c1a 36bf e795 2040
00000020: 41bd 64c0 5611 743e 1726 0ac0 e78b 1c3f
00000030: b0ab b4bf f936 9f40 4fd3 a2bf 883b e93f
00000040: 5153 c7c0 e3f0 31c0 9870 cfbd 37ff f8bf
00000050: c5af 92be b039 9cbf eb6b 0440 331e a93f
00000060: e7f9 a63f ba22 2140 0c7a a2bf c7bb 2bbf
00000070: a89e 153e 2bc3 78be 105e 4dbf 4b2d b73e
00000080: 6763 c1bf 470c e83f fa10 95bf e27d eb3e
00000090: 2daf 063f 1586 8abf f3f7 643f f873 2fbf
000000a0: 9126 0e3e 7279 42bf 1a92 c9bf cf32 2440
000000b0: 99b2 3b40 913d 2fc0 6bdf 7640 193b 5cc0
000000c0: 6ebf 2fbf a602 0dbf 0796 66bf 89f7 3e3f
000000d0: 7192 febd 265c 0e3e 6301 7fbf af06 b2be
000000e0: 4f42 da3e 5904 373f f690 5ebf 7d04 3cbf
000000f0: 432b 0b40 d240 453f 8121 45ba 269c 223f
00000100: fb96 a5be 574c 343c 4402 c2be ab98 863e
00000110: 433f 403f 1a7f 18c0 2d7c 34c0 ab72 3840
00000120: 72f7 1d3f 8286 9a3e 0fd3 293f ba25 433f
00000130: dcdd be3f 74ee 8cbf a140 8c40 5e94 8cc0
00000140: 19df 1440 ca42 96bf 10b1 c7be 585f e3be
00000150: 9df3 f1be e945 f53e 3dcf 263e 9cbb 5bc0
00000160: d0dd 8b3f f358 82be edf4 8bbf 4e9d 093f
00000170: 4ade 21bf 26d1 f83f 45d2 6abf a210 a83e
00000180: e57d 8540 12df d23f fcc6 4abf 00bd 923f
00000190: 6245 77bf 0842 45be 6911 32bf 87e8 853f
000001a0: 21d4 f23e 8064 8640 effd d2bf aba6 c63f
000001b0: e149 e940 ca20 1e41 c86c 12c1 7cb1 9ebf
000001c0: 65f4 283e df95 f03d 3b77 953f 6423 ca3d
000001d0: 93a6 cb3d 46c4 19c0 4161 b9bf 812f 03bf
000001e0: 8aed 3440 6660 06c0 67fb 8ebf 1a47 c8bf
000001f0: 4980 8f3f bf7d f9bd 671a 7a3d 5e9f 663d
00000200: 4838 6aba 4546 f73c 2064 4ebe 27cd cc3d
00000210: f134 7fbe d929 563d 2d9d 74bd 7739 983c
00000220: 8d62 e2bd e861 2f3d 9b77 b3bd 0f3c 753e
00000230: abdd 9abd 4b03 463e 2b7b b8be ed1c 91bd
00000240: a3f0 66bc b8f8 76bd be2d 31bd 8a59 2d3c
00000250: ed9d b73d b1b2 1f3d 7aa6 1ebe 54ac e03d
00000260: 6c86 c33b 1fe0 80bd af30 2d3d d93e 10bd
00000270: 3296 71bd 626d 90bc b429 97bd 46cd 583e
00000280: b416 a13a af84 dfbc ceae c13d e645 8dbd
00000290: 4b64 e63b 3048 67bd 5cf1 44bc 8c23 bbbb
000002a0: 3bcb ae3e c9e0 6d3d 0df7 733e 98af a83e
000002b0: 8a0d d53e a85c d2be 71e4 f8bd 9bdc 053e
000002c0: 7a23 1bbd 9762 383e 8ed9 303d 9e62 14bc
000002d0: 791a a2bd f1a4 adbc 045e ddbb 51f9 243d
000002e0: aa24 8abd 246d bdbd d5db b93c 4efc 9e3d
000002f0: 8304 bfbd
-0.53464735 2.822665 -0.12008665 -1.0151496 -6.943929 1.6229994 -0.7113416 2.5091493
-3.5740511 0.23834738 -2.1585748 0.61150974 -1.4114895 4.9754605 -1.2720736 1.8221292
-6.2289205 -2.7803276 -0.101288974 -1.9452885 -0.28649727 -1.2205105 2.0690868 1.3212341
1.3045014 2.5177445 -1.2693496 -0.670834 0.14611304 -0.242932 -0.80221653 0.35776743
-1.510846 1.8128747 -1.1645806 0.45994478 0.5261105 -1.0822169 0.8944084 -0.6853633
0.138819 -0.7596656 -1.5747712 2.565601 2.9327757 -2.7381327 3.8573864 -3.441107
-0.68651474 -0.55082166 -0.90072674 0.7459646 -0.12430275 0.1390234 -0.9961149 -0.34770724
0.42628714 0.7149101 -0.8693994 -0.7344435 2.1745155 0.7705203 -0.0007519946 0.63519514
-0.3234175 0.011004529 -0.37892354 0.2628835 0.7509653 -2.3827577 -2.820079 2.8819988
0.61705697 0.30180746 0.66337675 0.7622944 1.4911456 -1.101027 4.3828893 -4.393111
2.3261168 -1.1739132 -0.39002275 -0.4440868 -0.47256175 0.479049 0.16289993 -3.4333258
1.0927067 -0.25458488 -1.093412 0.5375565 -0.6322981 1.9438827 -0.91727096 0.3282519
4.171618 1.6474326 -0.79209876 1.1463928 -0.96590245 -0.1926347 -0.69557816 1.0461587
0.47427467 4.199768 -1.6483744 1.5519613 7.2902684 9.883005 -9.151558 -1.2397914
0.16499479 0.11747336 1.1677011 0.098700315 0.09943881 -2.4026046 -1.4482805 -0.5124436
2.8269982 -2.0996337 -1.1170472 -1.5646698 1.1211025 -0.12182187 0.061060335 0.05630433
-0.0008934778 0.030184874 -0.20155382 0.10000067 -0.2492254 0.052286003 -0.059720207 0.018582089
-0.11053953 0.04281798 -0.08763047 0.23948692 -0.07561811 0.19337194 -0.3603147 -0.07085595
-0.014095458 -0.06029579 -0.043256514 0.01058043 0.08965669 0.038988773 -0.15493193 0.10970369
0.005966952 -0.06292748 0.042282756 -0.035216186 -0.058981128 -0.017630283 -0.07381001 0.21172056
0.0012290091 -0.027284948 0.094571695 -0.06898098 0.007030999 -0.056465328 -0.012020435 -0.0057110246
0.34139428 0.0580757 0.23824711 0.32946467 0.41611892 -0.41086316 -0.12152947 0.13072436
-0.03787563 0.18006359 0.043176226 -0.009056715 -0.079152055 -0.021196814 -0.0067555923 0.04027683
-0.06745274 -0.092493325 0.022687832 0.07762967 -0.093270324

linear.bex_20230623_denoised.location.bias f4 [3]
00000000: c5dc 563f 7bbb 913f 2de6 36bc
0.8393062 1.138534 -0.011163277

linear.ken_20230614_denoised.location.weight f4 [3, 63]
00000000: 4473 003f 71e2 713f 3cff f63b 38bc 0fc0
00000010: 9cda 53c0 ccfb 193f 7850 74bf 812d 2f40
00000020: 0df2 df3f 4448 8ebe 9ca1 86bf 2653 aa3e
00000030: 136b 733d 5dd1 0840 1d41 493e 5b55 cc3f
00000040: 8e58 a6c0 95d1 3bc0 02b4 09be ce0f 8e3d
00000050: e54b 28be d059 e8bd dc33 8fbc e0f3 073f
00000060: db52 033f 8bc6 4f3e 1856 0abf 374a 213e
00000070: 6b20 d23d 260a 253d 03df 45bf 5bd2 693f
00000080: 6c7f 36bf 58ff 063f 3c3b 37bf 7d86 93be
00000090: 9220 0dbf 9481 9cbd 86e5 853e 3b81 843e
000000a0: 5ca9 48bd 9af7 0d3f 0766 8f3f 185a 24bf
000000b0: 5d53 e1bf b7bf 19c1 e1aa 8e40 d0d0 d93e
000000c0: c49a 42bf cef2 fc3e a007 20bf 580a 663f
000000d0: 313f dd3d b284 fc3c 19ec 40bf 2393 c13e
000000e0: acaf b33e 5a7b 09bf 0581 b13e c968 1ebf
000000f0: 9223 0440 28a3 4b3f 655e 1ebc 1675 73bc
00000100: eeb6 973f 7b58 83be 4300 97bf cd0b 20c0
00000110: 3389 903f c97e a6be a3cf bec0 3bd1 4540
00000120: 91be b2be dc0b 793f 3b2e 18be 5e33 a63f
00000130: 3ac7 d43f 0140 533e 3528 8440 27ea 29c1
00000140: 1f01 f1bd fdb3 b9bf bd14 8d3f 6d97 d73e
00000150: 1ab7 56bf 2a04 c7bf 9c95 50bf f281 12c0
00000160: 384c 0bbf 228b 803f 9ea1 873f 96b2 82be
00000170: 6476 c8be 37cd f5bf 87a6 ab3f 32ed 96bf
00000180: f8dc 5dbd 5619 0a40 8a9f c23d 384b 8040
00000190: 6a2a 133f d1b3 223e 882a ad3e df56 683f
000001a0: 02bd 07bf f09f df40 9946 7ac0 c11d 2341
000001b0: 5d69 1640 3959 36c0 b4be 3fc0 7329 0ec0
000001c0: 8261 483f e153 e23e 11aa 0d40 9dc6 cebd
000001d0: fcf5 cfbd 83cf 433c 3caf 69bf ea3b 7abd
000001e0: 14bb cebe a468 c7bf 7cce 86be 2146 8ebf
000001f0: 5786 0a40 2f88 9c3d 592e 0c3d def3 8a3d
00000200: d57c 0d3c 89eb ccbd ee41 08be 94fa b23c
00000210: 6788 3abd 3ad5 8dbd 02ac bb3d 9341 d9bb
00000220: 0c98 8cbc a5c8 cd3b fbe4 8abc b772 1f3e
00000230: d000 0e3d 548d 173f 53e8 6dbe d4f3 78bd
00000240: 0bbf e4bd 2fa0 963d 3f0a 6b3c d177 f23c
00000250: 7da5 51bc 446c 83bd eb1c 37be e62e c8bd
00000260: 128e a53d 2f2d 4dbd aa03 2b3b cfe7 bebc
00000270: 3fc7 54bd 8aaa 483d ee98 56bd 67e3 a73d
00000280: f022 143e 02d8 52bd 4559 623e 9b38 58bd
00000290: a710 393d 70ea 01bd f0fb 23bc 2560 b73c
000002a0: 534b ef3d 21e3 ddbe eb05 bb3e de7e 2bbe
000002b0: fd33 05bd 5130 94bd 60bd e23c e73c ba3d
000002c0: 8113 b8bd c39c 47bb abcb 083b f7c7 68bc
000002d0: db87 87bc 585d ca3a c9aa df3b 15bb 5ebc
000002e0: 037a e3bc d86e 00bd 65b8 9b3d a72f 1bbe
000002f0: 893b b7bc
0.5017588 0.9448615 0.0075377505 -2.245863 -3.3102179 0.60149837 -0.95435286 2.7371523
1.7495743 -0.2778951 -1.0518069 0.33266562 0.059428286 2.1377785 0.19653745 1.5963548
-5.19831 -2.9346669 -0.13447574 0.06936608 -0.16435201 -0.113452554 -0.017480783 0.531065
0.512983 0.20290582 -0.5403762 0.15750967 0.102600895 0.04029288 -0.77293414 0.913366
-0.7128818 0.52733374 -0.7157476 -0.28813544 -0.55127823 -0.076419026 0.26151675 0.25879845
-0.04898964 0.55455935 1.1203011 -0.6419997 -1.7603565 -9.609305 4.4583592 0.42542124
-0.76017404 0.49403995 -0.62511635 0.89859533 0.108030684 0.030824993 -0.75360256 0.3780757
0.35094965 -0.53703845 0.34668747 -0.6187864 2.064671 0.7954583 -0.00966606 -0.014859458
1.1852701 -0.25653443 -1.1796955 -2.5007203 1.129187 -0.32518604 -5.9628463 3.0908954
-0.34911016 0.9728372 -0.14861386 1.2984426 1.6623299 0.20629884 4.129908 -10.619666
-0.11767792 -1.4508053 1.1021954 0.42107716 -0.8387314 -1.5548146 -0.81478286 -2.2891812
-0.54413176 1.004246 1.0596197 -0.25526875 -0.39152825 -1.9203252 1.3410195 -1.1791136
-0.05416581 2.1577964 0.09503086 4.009182 0.57486594 0.15888907 0.3382151 0.90757555
-0.5302278 6.9882736 -3.910559 10.194764 2.3501809 -2.8491957 -2.9960146 -2.2212799
0.78273785 0.4420462 2.213505 -0.10096476 -0.1015434 0.01195133 -0.9128301 -0.061092295
-0.40377104 -1.5578809 -0.2632941 -1.1115152 2.1644495 0.076431625 0.034223888 0.06784795
0.008635719 -0.10005862 -0.133064 0.021848 -0.04554024 -0.06925435 0.09163667 -0.0066301315
-0.017162345 0.006280022 -0.01695489 0.15571104 0.034668744 0.59200025 -0.23233156 -0.060779408
-0.11169251 0.07354771 0.014345705 0.029598149 -0.012795803 -0.064171344 -0.17882125 -0.0977457
0.080837384 -0.05009192 0.0026094713 -0.023303894 -0.05194783 0.048990764 -0.05239194 0.081976704
0.14466453 -0.051475532 0.22104366 -0.05278836 0.045181897 -0.031717718 -0.010008797 0.022384712
0.11684289 -0.43337348 0.36527953 -0.16747615 -0.032520283 -0.07235778 0.027678192 0.090936475
-0.08988095 -0.0030458427 0.0020873349 -0.014207832 -0.016544273 0.0015439196 0.006825779 -0.0135944085
-0.02776814 -0.03135571 0.0760353 -0.15154897 -0.022367256

linear.ken_20230614_denoised.location.bias f4 [3]
00000000: 1fba 3c3f 907b 0740 3eed 32bb
0.737215 2.1169167 -0.0027302052

linear.ken_20230618_denoised.location.weight f4 [3, 63]
00000000: 3dc8 603e fc3e 3d3f 9984 c63d 2d79 1ac0
00000010: fd7a 82c0 187a 813f 9ced 30c0 8038 5d3f
00000020: f73c 3540 2f61 cdbc d7ea 03c0 25ab b73d
00000030: 3d71 52bf e971 8f40 d78a a1bf d7c7 3240
00000040: 5cf1 13c1 ead6 69be 95eb 923e c6e5 8cbd
00000050: d43b 803e 2a9b babe ea61 2e3d af25 cc3e
00000060: ca72 953e 808b 4d3f 1ca2 04bf 275a fe3e
00000070: ba15 1ebf 990c 5dbe 822b 9abf 2238 883f
00000080: 5b3c 3abf 84ce a0be 525c ad3e f11f 7dbf
00000090: 8dae 123f c126 28bf 0c32 ec3e ad15 a0bc
000000a0: 9d78 983e a23a 673d fa5d 7bbc 9f7a 4040
000000b0: 3e06 38c0 4021 18c1 b2f1 8e40 5f8d 883f
000000c0: 1895 0ebf a855 5ebe b645 a5be cf20 413f
000000d0: c508 27bd cff4 223d 3fc2 2cbf 8ac7 8d3e
000000e0: 67bd e73e 5272 08bf dd3e e93e de35 18bf
000000f0: 6886 4540 9726 2c3f cc61 78bc 55db 16bd
00000100: 57cd ad3c ed64 32bf cc88 d9bf 0d0c 17c0
00000110: ada5 3440 5dc8 d63e 6f0d 0fc1 8703 8840
00000120: f846 bcbd 8ed4 463f d43b e23d ce3a 483f
00000130: 2bbc a93f 8175 fbbe 997f 9f40 3456 72c1
00000140: a420 103e c328 14bf d574 cc3f ec64 663e
00000150: dfe2 dcbf 3cb5 9cbf 6116 61bf fd94 6bbf
00000160: 88a9 6fbe fdf2 693f 7692 e23f 13ea ad3f
00000170: 6e8a 2bbf ca04 0dc0 8fcf 013f 78d4 a2bf
00000180: 9171 91bc 3596 d63f 09d4 c0be 9175 3340
00000190: 07b8 58bf 0290 95bd 69fc 61bc 9560 983f
000001a0: 9408 873e 2457 9340 9746 dfc0 4060 2141
000001b0: 7dcc 4e40 b148 bfc0 0fa8 b5c0 5b28 0cc0
000001c0: 50bc d0be de4c 19bf 44cc 1140 d794 ba3d
000001d0: 4218 8cbd 4e26 db3c baea 0cbf 7341 45be
000001e0: 6e61 0dbf fcf5 64bf 2d74 2fbe 3d8c 43bf
000001f0: 1c97 1240 d7a3 b53d 18c9 4c3d 9ae7 473d
00000200: 8d56 933c ea11 b3bd 2c62 22be 4cef c93c
00000210: 4e0b b3be 13fb 6fbe a05d e03d 6e09 5ebd
00000220: a056 93bd 3608 14bd 3cc4 a5bc 20ff 623e
00000230: be01 123d 026c 193f 0a61 c9be c9b9 a13d
00000240: b3dd 16bd e234 bd3c 95e6 ec3c b28d 88bc
00000250: 8669 403d f9a3 e4bb d072 82be 0c85 4abd
00000260: 958b 37bd 7d46 61bd 169a c53b 20d4 0dbd
00000270: d220 12be 5dcb afbd afa5 0c3d 01cd 8ebd
00000280: 55c6 f33d 002b b4bd 3945 763e 7960 e4bd
00000290: 21af a33c f97d 3e3e 3ec4 ff3d 6292 4abc
000002a0: de0e 9f3e 2bc6 8bbe c10a d43e 42fd 27be
000002b0: c184 00be 42ba 233d 52ac d239 edcf d33d
000002c0: 9ab6 86bc f709 f6bb 7269 da3d f906 7e3d
000002d0: 0b1c 86bc 4b32 a53b 2292 203c 42c2 10bd
000002e0: b493 1fbc 26b6 89bc ad2b c13d 82c7 dabd
000002f0: f46e f6bd
0.21951385 0.7392423 0.0969326 -2.413646 -4.077513 1.0115385 -2.7645025 0.8641434
2.831846 -0.025070755 -2.0612085 0.0896819 -0.8220404 4.482655 -1.2620496 2.7934473
-9.246426 -0.2283589 0.2869536 -0.06879763 0.25045645 -0.36446506 0.042573847 0.398725
0.2918914 0.80290985 -0.5180986 0.49678156 -0.617519 -0.21586837 -1.2044528 1.064213
-0.72748345 -0.3140756 0.33859497 -0.98876864 0.57297593 -0.65684134 0.46131933 -0.019541586
0.2977952 0.0564524 -0.01534223 3.0074842 -2.875381 -9.508118 4.467004 1.0668143
-0.5569625 -0.21712363 -0.32279748 0.75440687 -0.040779848 0.03978425 -0.67483896 0.276913
0.4526169 -0.5329944 0.45555773 -0.59457195 3.0863285 0.67246383 -0.015160035 -0.036830265
0.021216078 -0.6968525 -1.6994872 -2.3601105 2.822612 0.4194974 -8.94078 4.2504306
-0.09193224 0.7766808 0.110465676 0.7821473 1.3260549 -0.49113086 4.984326 -15.146046
0.14074951 -0.578747 1.5973154 0.22499436 -1.7256736 -1.2242808 -0.8792477 -0.92024213
-0.23404515 0.91386396 1.7700946 1.3587059 -0.670081 -2.2034173 0.50707334 -1.272109
-0.017754348 1.676459 -0.3766177 2.8040507 -0.84655803 -0.07302858 -0.013793089 1.1904474
0.26373732 4.6043873 -6.977367 10.085999 3.231231 -5.9776235 -5.676765 -2.189963
-0.4076867 -0.59882915 2.2780924 0.0911042 -0.06840564 0.026751664 -0.55045664 -0.19263248
-0.5522679 -0.8943784 -0.17134161 -0.7638586 2.290473 0.088691406 0.049996465 0.048804857
0.017985607 -0.08743651 -0.15857762 0.024650238 -0.34969562 -0.23435621 0.109553576 -0.05420821
-0.07194257 -0.036140643 -0.020235173 0.22167635 0.035646193 0.5993043 -0.39331847 0.07896764
-0.036832523 0.023096506 0.028918544 -0.016669128 0.046975635 -0.006977555 -0.2547822 -0.04944329
-0.04481085 -0.054998863 0.0060303314 -0.034626126 -0.14270332 -0.0858371 0.034337696 -0.06972695
0.11903063 -0.08797264 0.24049844 -0.11151213 0.019980969 0.18602742 0.12488602 -0.012364002
0.3106603 -0.27299628 0.41414455 -0.16405204 -0.12550642 0.03997255 0.0004018271 0.10342393
-0.016444493 -0.007508512 0.10664643 0.06201837 -0.016370794 0.005041396 0.009800466 -0.03534151
-0.009739805 -0.016810488 0.094321586 -0.10682584 -0.120328814

linear.ken_20230618_denoised.location.bias f4 [3]
00000000: 751f 1c3f 6a68 0e40 051b 0e3a
0.609855 2.225123 0.00054208963

exp_avg f4 [3, 63]
00000000: 1251 56b8 a7b2 85b9 03bf 4eba aa98 17b9
00000010: 1607 2838 0156 a2ba b902 a4b8 5194 84b8
00000020: 38ae 14b9 2f8b 4e39 bc06 a338 db5a 87ba
00000030: 0802 6439 b9cd 85b9 41f3 11ba 1095 7639
00000040: c6ac 9e37 a1cb 6bb9 6a04 fcb7 401e 31ba
00000050: 92e5 ccba be94 1539 55eb 27ba d901 87ba
00000060: 7afc 1bb8 c09f 94ba d9e6 26ba 4b12 7b38
00000070: 7cae 1dba 0ac3 ceba 9fb1 0339 1d3f 39ba
00000080: 22d8 59ba 9956 3f39 c46e 26ba 2c89 13ba
00000090: 91a5 e038 886d 54ba ec1e 93ba 1431 c438
000000a0: 4359 3cba 64c3 15ba 5ec3 bcb6 7cde acb8
000000b0: f5de fdb8 8a4c e1b7 c49c 4038 57b4 4239
000000c0: 0c83 ccb8 3a46 102f 0c13 422f ef82 cc38
000000d0: d26b 712b fa30 61ac feea 1c38 e024 b8b6
000000e0: 2376 4539 7d72 b638 b801 e738 5566 f638
000000f0: c430 0938 eb82 cc38 ca47 f4ab 3889 acb9
00000100: 1b86 9239 4e30 e5ba 0673 00ba c9d5 8738
00000110: ddcd a4ba 3772 aab9 aade f838 70c3 03ba
00000120: d0a3 9f39 55e3 cf39 236e 0abb b01d 243a
00000130: d52d afb7 694e a4ba d323 a639 2a74 09b8
00000140: ccad bab9 f2ed 64b9 9f7a 63ba 4504 32bb
00000150: fc51 c2b9 f26c 5cba 04ba 07bb db66 03ba
00000160: 8128 a1ba 5371 a0ba 0959 3839 244f 6aba
00000170: 885d 25bb da6e 9639 2a6e 42ba 695b 1bbb
00000180: 051c f438 f81c c2ba b5d1 8bba 02a4 95b8
00000190: 103f aeba 20a6 1cbb add1 aa38 1793 70ba
000001a0: b569 a8ba 22b9 dc37 e6d3 b136 d12d a7b9
000001b0: 0ff0 b5b8 064d 0238 4732 163a 190f e5b9
000001c0: 7055 1f2e 8652 e7ae 1d0f e539 87a2 bb2b
000001d0: d580 ddab 1643 f9b8 bd06 2b39 3e73 d838
000001e0: f4f4 0f39 c7dc c839 b896 b338 60c7 6fb7
000001f0: 1f0f e539 2b77 052d 4ed0 c337 2c3c 26b8
00000200: c4e8 d338 e961 1138 cb37 a7b7 505e a638
00000210: d5c4 0738 0c99 ddb6 fedd e337 50f7 65b7
00000220: 8ae1 fdb7 60bc d238 314e 05b8 da4a 95b7
00000230: fd9b 9f38 eb66 edb7 19d3 a4b6 0bdc ac37
00000240: 1b15 9837 8d68 c937 8695 2d39 f412 c037
00000250: 5d34 e337 cbde 0f39 2636 9a37 96bd 6b38
00000260: f1f1 b338 1fb2 64b7 f01d 4e37 1dc9 2f39
00000270: 73e3 d1b7 86f3 ed37 40ed 0339 2a38 0cb8
00000280: fadb 5838 0444 ad38 0862 82b7 21ab 6d38
00000290: e590 0739 bb01 55b7 f8bf 7a38 0fff b038
000002a0: 9201 feb5 0fdd 6537 026c 2437 e196 4736
000002b0: 9dc5 8f36 3dba 86b7 9f2d e637 c6d8 a62b
000002c0: aece 3a2b c82d e6b7 b82c a229 19cd b7a9
000002d0: 9fe2 f836 e85e beb7 f336 0b35 ad7d a9b6
000002e0: db65 cbb7 7cdb a9b6 9227 e036 c92d e6b7
000002f0: cbb5 662b
-5.109708e-05 -0.00025500843 -0.00078867393 -0.00014457354 4.006092e-05 -0.001238525 -7.8206365e-05 -6.3218766e-05
-0.00014179281 0.00019697541 7.7737e-05 -0.001032676 0.00021744531 -0.00025521012 -0.00055675587 0.00023515918
1.8915522e-05 -0.00022487204 -3.0042796e-05 -0.0006756522 -0.0015632382 0.00014265158 -0.00064056116 -0.0010300233
-3.7190017e-05 -0.0011339113 -0.00063667964 5.98601e-05 -0.0006015075 -0.0015774679 0.00012559303 -0.00070665946
-0.00083100994 0.0001824744 -0.0006348903 -0.0005628045 0.000107119915 -0.00081034796 -0.0011224425 9.35515e-05
-0.0007184932 -0.00057130144 -5.6255803e-06 -8.24304e-05 -0.00012105509 -2.6857731e-05 4.5922367e-05 0.00018568464
-9.7518874e-05 1.3121673e-10 1.7650964e-10 9.751866e-05 8.577003e-13 -3.200161e-12 3.7412152e-05 -5.48792e-06
0.00018831393 8.6997614e-05 0.000110152585 0.00011749255 3.2708762e-05 9.7518634e-05 -1.7357168e-12 -0.00032908632
0.00027947206 -0.0017485709 -0.00048999523 6.477122e-05 -0.0012573559 -0.00032510023 0.00011867036 -0.0005026376
0.00030448893 0.00039651492 -0.0021122776 0.00062605273 -2.0882968e-05 -0.0012535575 0.00031688678 -3.277153e-05
-0.00035606173 -0.00021832416 -0.0008677635 -0.002716319 -0.00037063647 -0.0008408568 -0.002071024 -0.000501258
-0.0012295396 -0.0012240804 0.00017580776 -0.00089381845 -0.002523275 0.0002869282 -0.00074169284 -0.0023705608
0.00011640046 -0.0014809659 -0.0010667356 -7.1354225e-05 -0.001329394 -0.002390273 8.145287e-05 -0.00091771915
-0.0012848886 2.6312253e-05 5.2996793e-06 -0.00031886858 -8.675467e-05 3.106615e-05 0.0005729538 -0.00043689532
3.6228298e-11 -1.0519323e-10 0.00043689544 1.333226e-12 -1.5738753e-12 -0.00011885741 0.00016310341 0.00010321148
0.00013728795 0.00038311465 8.563459e-05 -1.4291931e-05 0.0004368955 7.586635e-12 2.334281e-05 -3.9633524e-05
0.0001010462 3.466188e-05 -1.9933932e-05 7.933064e-05 3.2369822e-05 -6.6041302e-06 2.7163882e-05 -1.3707046e-05
-3.0264975e-05 0.00010048668 -3.1782492e-05 -1.779704e-05 7.610766e-05 -2.8300527e-05 -4.912156e-06 2.0606463e-05
1.812964e-05 2.4009752e-05 0.00016554267 2.289701e-05 2.7084892e-05 0.0001372054 1.8383445e-05 5.620493e-05
8.58045e-05 -1.3631331e-05 1.2285527e-05 0.00016764221 -2.5020656e-05 2.8366001e-05 0.00012581516 -3.3430908e-05
5.1703282e-05 8.261952e-05 -1.5542857e-05 5.666458e-05 0.0001292858 -1.2696192e-05 5.978343e-05 8.439842e-05
-1.8924932e-06 1.3700933e-05 9.800309e-06 2.9741134e-06 4.2847373e-06 -1.6060769e-05 2.743938e-05 1.1855176e-12
6.63673e-13 -2.7439455e-05 7.202003e-14 -8.162411e-14 7.417358e-06 -2.269396e-05 5.1861497e-07 -5.051223e-06
-2.4246916e-05 -5.062144e-06 6.680327e-06 -2.7439457e-05 8.1964703e-13

exp_avg_sq f4 [3, 63]
00000000: adec 7837 18fc 9737 ee2e 0639 8a93 9837
00000010: a938 e836 ee58 9f38 939a 4837 d4dc 6035
00000020: 698e fa36 a1ca 6637 c73c 9437 7179 0839
00000030: 0c71 8c37 1124 2737 d677 9b38 3b5e 3a37
00000040: 9220 b335 ac4c dc36 8e26 fa37 38c6 fc37
00000050: 0674 a439 bd40 c137 8d60 ed37 4815 4339
00000060: 6324 b537 fd28 7c38 a4d5 a438 af84 e437
00000070: 8924 f537 6771 a539 a0c2 b237 6a9a e637
00000080: daca 4339 fe0c ba37 56a4 6738 5366 9438
00000090: af2c 1738 1cdf 9638 7177 6e39 bb9f 8937
000000a0: 53a8 8638 01ab 9f38 23af 8c35 f3e5 ef35
000000b0: 6a52 eb35 51d0 7134 f137 8734 4d16 4736
000000c0: adbe f836 f59d f41f 8ef9 8420 acbe f836
000000d0: 9a78 fc19 0828 161a 3f76 fb35 b0a9 9736
000000e0: c028 5b36 5daa 1936 df86 9436 b97e a135
000000f0: 7119 3e35 acbe f836 4418 891b ac46 6637
00000100: 77ed bb37 9c17 2539 71ee aa37 989a 0537
00000110: c455 bf38 ec19 9937 1dcf 8e35 d5b2 2237
00000120: 6e97 5037 921a c237 04e2 1d39 9ff8 c437
00000130: 7d24 5437 e592 b638 6725 b337 2788 1f36
00000140: 0df6 0d37 ee5e 0138 bcf9 f637 24ef c439
00000150: 4958 d637 51ce f737 16c8 6739 6224 cc37
00000160: 20fc 8e38 fe70 cd38 c465 dc37 5923 0238
00000170: 7a40 c539 1cfc d937 365a fa37 89b6 6c39
00000180: 4e49 1f38 7994 8838 4766 b338 414d 1538
00000190: 78ba aa38 a7ea 8f39 90ea a437 2d01 9c38
000001a0: ab85 b938 2698 cd35 c515 1136 ea25 0936
000001b0: 2973 e534 1e32 d234 30b6 8836 ea07 4937
000001c0: b20a 1d20 6462 f820 ec07 4937 9ff2 241a
000001d0: 07ec 281a 8d5a 4d36 065b 2f37 d9a9 be36
000001e0: d1f0 5336 5f88 1337 2da5 6936 fce8 9d35
000001f0: ec07 4937 5f34 eb1b fc5f e633 9086 a034
00000200: 1fc6 3a36 702e 4234 8aad d833 9c82 d735
00000210: 1fb2 4534 0f89 6b32 b0f0 2f34 255f 2534
00000220: 5553 a534 f594 3036 a62b 8734 fbf1 0234
00000230: 7e6a ce35 f3d5 4e34 a9d5 9332 05e2 1134
00000240: d670 9e34 1657 0735 0ad0 e036 af37 8f34
00000250: c034 0735 714d 8536 d0b7 a034 26ec 9e35
00000260: 8785 e435 08eb 9f34 3150 0535 9852 e036
00000270: 615f 8f34 c856 0735 65f1 8536 ca61 a834
00000280: 1168 8b35 52af c935 c317 e834 8382 b335
00000290: 682d a036 3c30 5f34 994c a635 cc66 d735
000002a0: 41b6 2d32 a2ec 0333 caa8 fd32 e047 0f31
000002b0: 86b4 ef30 e41f 7e33 447c 0834 d684 ae1b
000002c0: 7cb8 ad1c 447c 0834 dbdb 1716 8561 1516
000002d0: bdd4 a032 ab02 5133 bf16 a832 fa74 c832
000002e0: cd91 6933 94bb 8232 ed55 e131 447c 0834
000002f0: ae43 d917
1.4837057e-05 1.8117993e-05 0.00012796719 1.8188515e-05 6.920735e-06 7.598275e-05 1.1956919e-05 8.376785e-07
7.4671593e-06 1.37562465e-05 1.7671277e-05 0.00013015211 1.6741942e-05 9.962373e-06 7.413297e-05 1.1108404e-05
1.3346018e-06 6.5654367e-06 2.9820276e-05 3.0133044e-05 0.00031366962 2.3037539e-05 2.8297562e-05 0.00018604577
2.1593825e-05 6.0119655e-05 7.859923e-05 2.7241504e-05 2.9223289e-05 0.00031555744 2.1309883e-05 2.7490041e-05
0.00018672217 2.2178978e-05 5.522774e-05 7.076249e-05 3.604282e-05 7.194115e-05 0.00022741944 1.6406053e-05
6.420971e-05 7.613563e-05 1.0481784e-06 1.7873812e-06 1.753285e-06 2.2520659e-07 2.5186412e-07 2.9666292e-06
7.4131735e-06 1.0359934e-19 2.252681e-19 7.413173e-06 2.61049e-23 3.105161e-23 1.8735371e-06 4.519905e-06
3.2657263e-06 2.289794e-06 4.426445e-06 1.2032316e-06 7.081754e-07 7.413173e-06 2.268043e-22 1.3725523e-05
2.2402715e-05 0.00015744421 2.0376612e-05 7.963412e-06 9.123565e-05 1.8251092e-05 1.0640102e-06 9.69759e-06
1.2433024e-05 2.3138975e-05 0.00015056884 2.3480794e-05 1.264468e-05 8.7057975e-05 2.135588e-05 2.3772097e-06
8.461543e-06 3.0844407e-05 2.9441777e-05 0.00037562207 2.5551899e-05 2.9540768e-05 0.00022104415 2.4335637e-05
6.8180496e-05 9.796208e-05 2.6273432e-05 3.1027335e-05 0.00037622807 2.5985813e-05 2.984433e-05 0.00022574714
3.7976824e-05 6.5126405e-05 8.554436e-05 3.5596317e-05 8.140964e-05 0.00027449915 1.965955e-05 7.438879e-05
8.846385e-05 1.5317971e-06 2.1619355e-06 2.043666e-06 4.2738364e-07 3.9152013e-07 4.0743253e-06 1.1982376e-05
1.3301956e-19 4.2077944e-19 1.1982378e-05 3.4110393e-23 3.4932247e-23 3.0600088e-06 1.0452006e-05 5.682214e-06
3.1581624e-06 8.793634e-06 3.481585e-06 1.1765219e-06 1.1982378e-05 3.8911333e-22 1.0727669e-07 2.990023e-07
2.7831481e-06 1.8084552e-07 1.00898504e-07 1.6056761e-06 1.8411855e-07 1.3709964e-08 1.6385707e-07 1.5401436e-07
3.0794277e-07 2.6312748e-06 2.5177468e-07 1.2195225e-07 1.5379189e-06 1.926308e-07 1.7210214e-08 1.3586403e-07
2.9511892e-07 5.0418146e-07 6.699939e-06 2.667634e-07 5.036818e-07 3.9727242e-06 2.9936064e-07 1.1840646e-06
1.7026185e-06 2.9787066e-07 4.9663055e-07 6.6853354e-06 2.6705223e-07 5.04177e-07 3.991811e-06 3.136359e-07
1.0386594e-06 1.5026692e-06 4.3230656e-07 1.3374523e-06 4.7736576e-06 2.0786041e-07 1.2390257e-06 1.6048666e-06
1.0111365e-08 3.071603e-08 2.9529833e-08 2.0850095e-09 1.7440847e-09 5.9167988e-08 1.2711195e-07 2.8871729e-22
1.1495868e-21 1.2711195e-07 1.2267057e-25 1.2066896e-25 1.8723194e-08 4.866403e-08 1.9568118e-08 2.333626e-08
5.4382145e-08 1.5219292e-08 6.5581305e-09 1.2711195e-07 1.4040381e-24

exp_avg f4 [3]
00000000: f8a3 7f3a 9329 8f3b 9edc 8fb9
0.0009751911 0.0043689697 -0.00027439458

exp_avg_sq f4 [3]
00000000: 0955 423a 250e 9d3a 3942 5537
0.0007413184 0.0011982365 1.2711208e-05

exp_avg f4 [3, 63]
00000000: 537e adb9 8ce7 eb39 1895 74ba 49b6 d8b9
00000010: 440d aa39 a931 56ba 2fdb dcb9 1919 8338
00000020: fe02 83b9 131a 3a39 1884 ec39 2c32 86ba
00000030: d4a8 b039 deb3 7239 12cd 4dba c40c b339
00000040: f48a b038 a763 3eb9 9aa8 40b9 c68b 0cb7
00000050: 5e8a e4ba 95cc 67b9 602f ecb8 431c cdba
00000060: 2963 93b9 9ffd cfb9 6e52 90ba ec48 5939
00000070: 2c7c 96b7 0f3f ffba 22dc 9d39 397b f8b8
00000080: fa5d a6ba 8a2b c139 409a c9b9 b281 96ba
00000090: b09d eeb8 a649 7ab9 a5f6 f3ba 6356 ad38
000000a0: 0052 ceb9 d922 a4ba 2d51 4537 ede0 3cb8
000000b0: fbf6 b2b8 8cfc 30b7 8606 1db8 598f 9239
000000c0: 867c a8b9 5581 1daf 590f 092f 8b7c a839
000000d0: b30c 82ab 90a6 9baa c70a b9b8 332c 1039
000000e0: 5a73 b1b9 c258 9bb7 fdf1 8039 07b6 03ba
000000f0: f657 63b7 8b7c a839 a73e 68ac 49e7 8cb9
00000100: ab4d 9139 b867 c7ba ea8d d9b9 45bb 4839
00000110: 9685 9aba f60e 11ba 862e 4338 e438 90b9
00000120: 059d 9239 ea9c be39 b5a0 bbba 81b6 d439
00000130: ae37 f338 6cb5 87ba c580 2d39 c659 a938
00000140: 385a 9db9 dfa5 36b9 6fcf f5b9 38eb 25bb
00000150: 79ab 81b9 405a dbb9 1995 c3ba 8c97 a2b9
00000160: 4b45 53ba b326 bdba dfed d138 d27f eeb9
00000170: f62e 1bbb b4ca 5139 bd8f 0aba b051 e2ba
00000180: 83bc c039 bcfa 90ba 36c8 8eba 1dc5 ccb8
00000190: 175b 51ba bbd2 12bb 3a2c ecb6 20dc 87ba
000001a0: f4b0 81ba d9bd c337 9ba2 46b8 f6d3 69b9
000001b0: a87b 54b5 a111 eb36 0c96 0b3a ecfb aab9
000001c0: 463d 3aaf c208 68af dffb aa39 c97d f52b
000001d0: 4ea3 ebab 46df 62b8 5d37 3f39 5131 8c38
000001e0: 3664 a038 575a 3839 12db 3db8 0dd5 1237
000001f0: e0fb aa39 3852 11ad 0857 0fb7 8124 3335
00000200: 4c16 adb5 496e 10b7 90e9 1535 d50a 77b6
00000210: 9bac 39b7 e5f2 afb4 5b59 aeb4 c547 2f37
00000220: 97ea 2537 a777 c036 d1d5 7637 1199 c436
00000230: 16b5 a036 32ac 4f37 536e 1536 4da5 6636
00000240: 54c2 4a37 c60e b2b6 776e b5b7 9a4d ca36
00000250: 8462 91b6 1285 9ab7 2ce7 4f37 de59 0bb7
00000260: 9b22 e7b6 afa4 c737 54ed 8135 a761 08b7
00000270: bdd4 ae37 0c10 fdb5 26c3 dfb6 9c39 f737
00000280: e961 dcb6 bc12 5bb7 173c cd37 bcff 12b7
00000290: b1df b1b7 0300 ca37 253e feb6 eab0 0fb7
000002a0: eecf 3636 c69d 1c34 3ddb b335 a3e2 9db5
000002b0: 9673 aeb4 59bb fa34 fd6f 1ab7 482e 22ad
000002c0: 9b47 452c 0d70 1a37 f18c ec28 d0a4 e6a9
000002d0: a37d 7c37 0e7b e337 1514 60b5 3cb6 3db7
000002e0: abfd 8f37 2252 1536 d51c 1cb6 0770 1a37
000002f0: 4b72 b8aa
-0.0003309125 0.0004499521 -0.0009330078 -0.00041334543 0.0003243481 -0.0008170852 -0.00042124974 6.2512416e-05
-0.00024988496 0.00017748056 0.00045111845 -0.0010238341 0.00033695123 0.00023145924 -0.0007850687 0.00034151052
8.418216e-05 -0.00018156935 -0.00018373356 -8.377194e-06 -0.0017436256 -0.0002210609 -0.00011262181 -0.0015648681
-0.00028111905 -0.0003967108 -0.0011010894 0.00020721898 -1.7939215e-05 -0.0019473749 0.00030109385 -0.000118485135
-0.0012692802 0.00036844268 -0.00038452633 -0.0011482744 -0.00011378096 -0.00023869294 -0.0018612935 8.2653736e-05
-0.00039352477 -0.0012522592 1.1761015e-05 -4.503217e-05 -8.533705e-05 -1.0549218e-05 -3.7437792e-05 0.00027954092
-0.00032136234 -1.4325015e-10 1.246553e-10 0.0003213625 -9.24058e-13 -2.7649107e-13 -8.823495e-05 0.00013749376
-0.00033846014 -1.8518771e-05 0.00024594358 -0.00050243776 -1.3550734e-05 0.0003213625 -3.3003962e-12 -0.00026875202
0.00027714422 -0.0015213406 -0.000414952 0.0001914325 -0.0011789079 -0.00055335404 4.653495e-05 -0.00027508207
0.0002796428 0.00036356534 -0.0014314862 0.00040571767 0.00011597514 -0.001035375 0.00016546536 8.0752696e-05
-0.00030012592 -0.00017418664 -0.00046884592 -0.0025317203 -0.00024732554 -0.00041838177 -0.0014921754 -0.0003101196
-0.00080593367 -0.0014431089 0.000100102036 -0.0004549013 -0.0023679114 0.00020007306 -0.0005285701 -0.0017266776
0.00036761546 -0.0011061053 -0.0010893408 -9.764193e-05 -0.0007986291 -0.0022403437 -7.0384967e-06 -0.0010365285
-0.0009894655 2.3334216e-05 -4.7358317e-05 -0.00022299573 -7.91561e-07 7.005598e-06 0.0005324788 -0.00032612623
-1.693837e-10 -2.1103388e-10 0.00032612585 1.7443209e-12 -1.674308e-12 -5.409054e-05 0.00018235804 6.684906e-05
7.64806e-05 0.00017581262 -4.5265137e-05 8.751883e-06 0.00032612588 -8.260552e-12 -8.543728e-06 6.6735817e-07
-1.2895994e-06 -8.608747e-06 5.5846704e-07 -3.6812173e-06 -1.1067047e-05 -3.277302e-07 -3.247504e-07 1.0447523e-05
9.889386e-06 5.7359753e-06 1.4712526e-05 5.8590745e-06 4.7894528e-06 1.2378254e-05 2.2266947e-06 3.4368888e-06
1.2085384e-05 -5.3065332e-06 -2.162832e-05 6.029103e-06 -4.3328055e-06 -1.8420196e-05 1.2391985e-05 -8.3059695e-06
-6.888365e-06 2.3799335e-05 9.68032e-07 -8.128968e-06 2.084148e-05 -1.8854639e-06 -6.668636e-06 2.9471521e-05
-6.567909e-06 -1.3057779e-05 2.4465886e-05 -8.761821e-06 -2.1204209e-05 2.4080282e-05 -7.5770245e-06 -8.564655e-06
2.7241144e-06 1.458603e-07 1.3400346e-06 -1.1763372e-06 -3.2494125e-07 4.6702442e-07 -9.20519e-06 -9.21891e-12
2.8035133e-12 9.205204e-06 2.6262387e-14 -1.0242642e-13 1.5049623e-05 2.711781e-05 -8.3475726e-07 -1.1307708e-05
1.7165052e-05 2.2250538e-06 -2.3262594e-06 9.205199e-06 -3.2764273e-13

exp_avg_sq f4 [3, 63]
00000000: d706 9c36 b421 fa36 eea1 9138 0ac5 0237
00000010: 42c8 0536 b71d 1e38 78a4 f436 491d 6234
00000020: 9196 5736 21a4 4236 e15c ed36 e27e 9338
00000030: c7de e436 c5f6 0a36 c3fc 2b38 1ce1 da36
00000040: 0f79 4634 59b6 9236 02c0 4336 8300 af36
00000050: a8ae 3a39 4e86 6236 0c3f ba36 6479 d338
00000060: 9ebf 8436 c566 9d37 9682 5a38 5857 2336
00000070: 1707 cf36 a6bf 4939 00db 7c36 a973 c936
00000080: d4ac dd38 c6ca d936 5835 ae37 d3f9 5038
00000090: 36f3 7d36 53d4 9937 f808 1e39 10b5 ec35
000000a0: ef9f ba37 c5d0 4f38 cf80 1a33 3ba5 4f34
000000b0: 35a5 1a35 f5fb 5533 a0ce 4633 8ead ba36
000000c0: d969 9936 7105 8c1f 3f73 8b20 d969 9936
000000d0: b57c 3c18 e7cf f618 d82a 0a36 b6bf 9036
000000e0: ecc2 1337 a743 9435 aaf1 8b36 9044 af36
000000f0: c7d8 1b34 d969 9936 767c 2f1b bc1a cb36
00000100: 41ee 2d37 a9c0 d738 a6af 1737 b7f7 3036
00000110: 4b66 6b38 ded1 1937 769d b534 dd2e a236
00000120: 78dd 8936 01a7 1537 d8ae df38 cb31 1437
00000130: d88d 0c36 0440 7f38 a10c 0f37 7807 a034
00000140: 09b7 d836 c822 8d36 46c8 0e37 dfe9 8639
00000150: 32c2 9736 82db 1037 f3bf 1a39 a886 d436
00000160: e3dd e537 677e 9a38 ba0f af36 209a 0b37
00000170: a9d7 8d39 96a7 d636 f2ab 0a37 561d 1939
00000180: 3a02 3f37 48a6 f837 a99a 8e38 930e 0f37
00000190: 2545 e037 112d 6039 146f ac36 852c 0638
000001a0: bd32 8f38 732e 2634 5af8 8934 fc24 8535
000001b0: af82 8733 028e 8833 196b 0e37 18ca c736
000001c0: 4efe dd1f 65c4 8520 25ca c736 d748 1019
000001d0: 8911 8619 4ccd e135 403d 8336 a10c b936
000001e0: 976a e135 9f3f ac36 0444 ae36 6854 3934
000001f0: 25ca c736 d4ce 031c e10d a233 def4 4234
00000200: f1bf 1536 a5e6 1434 4fc6 3933 b9ff a035
00000210: c6b9 3034 9425 c731 49a3 d933 3c88 5833
00000220: e6a5 2934 46ef 1636 0fbb 0134 3461 0a33
00000230: b6a5 ae35 467e 0f34 f061 9531 bd5a 1334
00000240: 8b43 7e33 70a7 1934 2db4 b536 e72c a033
00000250: 68ed 3234 ef9b 4b36 e921 f133 30ec 1a35
00000260: 8405 ca35 f590 dc32 9cac 3934 903a c436
00000270: dd4a 6633 e180 3834 0e62 5336 b2ac da33
00000280: 2464 2f35 4ebd bd35 8917 dd33 3eb1 1435
00000290: 8301 9536 c545 1d33 8616 3835 2fb4 bd35
000002a0: f298 0d30 ac41 c631 2925 a032 aa3e fa2f
000002b0: 0e4c b72f 10e6 3f34 efde d533 a23a 931b
000002c0: 02fe 001c eede d533 09ef 3c14 df33 4215
000002d0: c954 2b32 214e e032 af30 4033 b9fb 5132
000002e0: a630 2833 8fae d332 44e1 1430 efde d533
000002f0: c246 7117
4.6499586e-06 7.454504e-06 6.9443005e-05 7.794481e-06 1.993511e-06 3.769781e-05 7.2909133e-06 2.1058544e-07
3.2125138e-06 2.9003788e-06 7.073963e-06 7.03314e-05 6.820864e-06 2.0707241e-06 4.100498e-05 6.5231125e-06
1.8484228e-07 4.372367e-06 2.9169028e-06 5.215466e-06 0.00017803407 3.37548e-06 5.5505716e-06 0.00010083875
3.9562137e-06 1.8763714e-05 5.2096868e-05 2.4339733e-06 6.169906e-06 0.00019240248 3.76784e-06 6.0037314e-06
0.00010570293 6.49071e-06 2.0767257e-05 4.982373e-05 3.7841505e-06 1.8337892e-05 0.00015071395 1.7636066e-06
2.2247403e-05 4.9547078e-05 3.597307e-08 1.9338488e-07 5.760988e-07 4.982208e-08 4.6288392e-08 5.5634364e-06
4.5720776e-06 5.930131e-20 2.362378e-19 4.5720776e-06 2.4361391e-24 6.3799437e-24 2.058854e-06 4.3138525e-06
8.807267e-06 1.1046549e-06 4.170656e-06 5.223388e-06 1.4514363e-07 4.5720776e-06 1.4515876e-22 6.0529837e-06
1.0367076e-05 0.00010287885 9.041198e-06 2.6370233e-06 5.6123634e-05 9.168374e-06 3.3828445e-07 4.833432e-06
4.1087005e-06 8.919976e-06 0.00010666036 8.833081e-06 2.094419e-06 6.0856357e-05 8.526405e-06 2.9807757e-07
6.4586097e-06 4.2061765e-06 8.510489e-06 0.0002573272 4.522758e-06 8.634177e-06 0.00014758091 6.3337684e-06
2.7402251e-05 7.3668365e-05 5.2172372e-06 8.320931e-06 0.00027054295 6.3972066e-06 8.265475e-06 0.00014602146
1.1385006e-05 2.9641335e-05 6.799895e-05 8.5268575e-06 2.6735079e-05 0.00021379093 5.1389306e-06 3.198955e-05
6.828222e-05 1.5476853e-07 2.5698938e-07 9.920036e-07 6.3101986e-08 6.3588246e-08 8.488795e-06 5.954189e-06
9.401785e-20 2.266104e-19 5.954195e-06 7.4593354e-24 1.3862358e-23 1.6823556e-06 3.9112347e-06 5.5149e-06
1.6794828e-06 5.133406e-06 5.193522e-06 1.7260174e-07 5.954195e-06 4.3611583e-22 7.5462374e-08 1.815674e-07
2.2314455e-06 1.3867482e-07 4.325403e-08 1.1995354e-06 1.6458861e-07 5.7959344e-09 1.0134551e-07 5.0415323e-08
1.5799705e-07 2.2491017e-06 1.2082113e-07 3.2219035e-08 1.3012238e-06 1.3363851e-07 4.347605e-09 1.3723452e-07
5.9200413e-08 1.4310149e-07 5.4151956e-06 7.458748e-08 1.666391e-07 3.0340123e-06 1.1228605e-07 5.771317e-07
1.5051778e-06 2.567729e-08 1.7292263e-07 5.8480728e-06 5.3619136e-08 1.7183221e-07 3.1498525e-06 1.0182829e-07
6.5338304e-07 1.4136692e-06 1.02953955e-07 5.539222e-07 4.440722e-06 3.6617866e-08 6.857812e-07 1.4134038e-06
5.151285e-10 5.7700245e-09 1.864335e-08 4.551926e-10 3.3341546e-10 1.7871957e-07 9.959137e-08 2.4357e-22
4.2679945e-22 9.959136e-08 9.538716e-27 3.9218907e-26 9.972788e-09 2.6112561e-08 4.474776e-08 1.2222636e-08
3.9159794e-08 2.4643013e-08 5.416221e-10 9.959137e-08 7.796061e-25

exp_avg f4 [3]
00000000: b79b 523b d9ba 553b ec0b c138
0.003213627 0.003261259 9.205178e-05

exp_avg_sq f4 [3]
00000000: 5bb5 ef39 d615 1c3a 1a16 2737
0.00045720753 0.00059541815 9.959122e-06

exp_avg f4 [3, 63]
00000000: a3e6 c4b9 6645 1e3a 2a79 91ba cfe7 0fba
00000010: b75f b839 e41f 6bba 3300 d1b9 3a76 9d38
00000020: 46b2 9db9 4f8a 2939 2d32 e339 2b20 b4ba
00000030: ef7f e439 07c0 3539 a67e 79ba b1a4 c539
00000040: 52b8 bf38 dd78 bab9 3b6d e3b8 7b15 30b9
00000050: c81b 09bb dd83 50b9 6d4f 8cb9 ef99 ddba
00000060: 20ae 56b9 4b25 15ba 3a03 a5ba 649d af39
00000070: 79dd c6b8 ff0e 0fbb 9b88 f439 26c4 1db9
00000080: 9204 c4ba 92db 1f3a f88b 22ba 1cac 90ba
00000090: ab4c f3b7 e3fe e2b9 6bef 0abb a88c 2a39
000000a0: be6a 1cba 595d a2ba 0526 8836 756f 93b8
000000b0: 8cd2 c6b8 0cb5 e335 7b4a 15b7 6149 af39
000000c0: 89ab cfb9 bfbc 902e 7eed eb2e 83ab cf39
000000d0: 60dd 182b 79e2 bfa8 4f16 3c39 b145 7338
000000e0: b6d5 7eba c165 4939 bb83 9a39 a084 f5b7
000000f0: 46f5 0bb8 85ab cf39 ec95 d52c 248a 2e39
00000100: d7c3 edb9 878c 8e3a e740 7e39 2eaa 4db9
00000110: be8c 413a e3e9 f938 b56c 95b8 66ed 8139
00000120: 070a ebb8 595b 01ba 96e8 623a 45fc 0cb9
00000130: ba06 86b9 2695 7c3a d69b 06ba 3ac2 12b7
00000140: 650c ba39 e51f d239 5633 c3b8 f2bb d93a
00000150: 6a58 d139 ef87 9038 aa97 bd3a e685 c839
00000160: 8a58 bf39 b4e9 8d3a 52ef 3839 55ef 3a39
00000170: d553 0f3b 0646 a038 26cf 1139 262f ad3a
00000180: cba7 3f39 50e5 c039 4bfe 923a 2244 063a
00000190: 70e8 aa39 c587 d33a 7930 9439 7c7a d539
000001a0: 650e 943a a08b 7738 94c5 a138 5071 9238
000001b0: cf0b 2fb8 0608 9837 dbc4 16b9 4059 6939
000001c0: 5b16 ef2e 775d 692f 4859 69b9 adf0 0bab
000001d0: 3926 a02b fbc0 e6b8 0bde 5839 0754 3e3a
000001e0: dd7b dbb8 6234 4c38 0c59 f539 36ed 21b8
000001f0: 4b59 69b9 5801 bb2b 5b8d a2b7 e3aa 2a38
00000200: a19f b6b8 e4a3 e5b7 904e a637 de0e 94b8
00000210: f6cd 0ab8 03c2 6436 c4d5 b0b7 6ac5 0037
00000220: 227a cf37 434c d9b8 a3df d437 51e6 2637
00000230: 1d77 9ab8 a26b 0d38 c89d cb36 e441 aab7
00000240: 1a08 6b37 b112 25b8 b1fe 39b9 6c36 5437
00000250: b2ec 17b8 f0a5 0fb9 0ad2 8a37 d51a 85b8
00000260: 28ef c0b8 edc9 2d38 b948 6ab7 6a7b 27b9
00000270: 170f 3a38 2f82 cdb7 37ca 04b9 87c3 8438
00000280: cfb1 79b8 1842 c2b8 f29d 2e38 18a7 76b8
00000290: 292e 25b9 398a 2f38 b347 86b8 af90 c4b8
000002a0: 7fa1 4c36 6d6a b5b6 d257 02b7 3e42 3ab4
000002b0: 7ee7 0835 4068 dd37 5f24 e1b7 fb06 0bad
000002c0: e656 9cac 3724 e137 886b bb27 96d7 3e29
000002d0: c7d8 0738 3de1 e035 969b bfb8 c00c 18b7
000002e0: 169e 0d37 bedb 19b7 724f 81b7 3624 e137
000002f0: fb4f d32a
-0.0003755587 0.0006037563 -0.0011098732 -0.0005489559 0.00035166528 -0.00089692906 -0.00039863735 7.508365e-05
-0.00030078198 0.0001616862 0.00043334198 -0.0013742497 0.00043582867 0.00017333041 -0.0009517468 0.00037697473
9.141922e-05 -0.00035566735 -0.00010844549 -0.0001679267 -0.00209211 -0.00019885549 -0.00026762058 -0.0016906838
-0.00020473497 -0.0005689456 -0.0012589463 0.00033495866 -9.482628e-05 -0.0021829007 0.00046641086 -0.00015045758
-0.0014954975 0.0006098087 -0.00062006665 -0.0011037621 -2.9003559e-05 -0.00043295985 -0.0021199833 0.00016264862
-0.00059668336 -0.0012387439 4.057542e-06 -7.030267e-05 -9.480593e-05 1.696551e-06 -8.898433e-06 0.00033433273
-0.0003960992 6.58189e-11 1.072875e-10 0.00039609903 5.430847e-13 -2.1303477e-14 0.00017937388 5.800062e-05
-0.00097211765 0.0001920676 0.00029471316 -2.9268034e-05 -3.336861e-05 0.0003960991 6.0704688e-12 0.00016645394
-0.00045350075 0.0010875621 0.00024247506 -0.0001961372 0.0007383338 0.0001191681 -7.125122e-05 0.00024781673
-0.00011207541 -0.00049345713 0.0008655874 -0.00013445418 -0.00025563483 0.0009635262 -0.00051349157 -8.7475e-06
0.0003548592 0.00040078085 -9.307887e-05 0.0016611798 0.0003992946 6.891775e-05 0.0014464755 0.00038246735
0.00036496326 0.0010827095 0.00017636761 0.000178275 0.0021870036 7.6424374e-05 0.00013905446 0.0013212904
0.00018277687 0.00036791945 0.0011214701 0.0005121847 0.00032598106 0.0016138485 0.00028264875 0.00040717784
0.0011295794 5.9019425e-05 7.71388e-05 6.9829286e-05 -4.173425e-05 1.8123548e-05 -0.00014378449 0.0002225386
1.0872433e-10 2.1224432e-10 -0.00022253871 -4.9716725e-13 1.1379293e-12 -0.000110032 0.00020682083 0.0007260446
-0.00010465805 4.8686175e-05 0.00046796387 -3.860631e-05 -0.00022253876 1.3287522e-12 -1.9377729e-05 4.069031e-05
-8.7081695e-05 -2.7375245e-05 1.9825326e-05 -7.059959e-05 -3.309358e-05 3.4087577e-06 -2.1080377e-05 7.675359e-06
2.4733195e-05 -0.00010361571 2.5376508e-05 9.947996e-06 -7.365479e-05 3.371726e-05 6.0682396e-06 -2.0296262e-05
1.4008978e-05 -3.9356473e-05 -0.00017737855 1.2648856e-05 -3.6221645e-05 -0.00013699359 1.6548689e-05 -6.346932e-05
-9.19982e-05 4.1434472e-05 -1.3964419e-05 -0.00015972336 4.435991e-05 -2.4498526e-05 -0.00012663832 6.33067e-05
-5.9531823e-05 -9.262952e-05 4.163193e-05 -5.880659e-05 -0.00015752822 4.185198e-05 -6.402973e-05 -9.372958e-05
3.0492372e-06 -5.40661e-06 -7.769051e-06 -1.7346699e-07 5.1000814e-07 2.6393798e-05 -2.6839027e-05 -7.902785e-12
-4.4434343e-12 2.6838954e-05 5.201951e-15 4.2375466e-14 3.2388398e-05 1.6754854e-06 -9.13657e-05 -9.062875e-06
8.441062e-06 -9.170673e-06 -1.5414993e-05 2.6838952e-05 3.7536627e-13

exp_avg_sq f4 [3, 63]
00000000: 5ce6 9f36 f845 bf36 a4f2 1438 16fb e636
00000010: d0ce d935 7bc1 a437 18a2 bf36 bceb 0b34
00000020: b45d e435 36d4 2636 360a bd36 e1ee 1738
00000030: d0ef bd36 8050 d635 3d19 b337 01f0 ac36
00000040: 048a 0834 f339 1e36 b55e 0d36 4c98 4436
00000050: 7755 d238 7951 2036 cac4 4f36 7047 7138
00000060: a224 3336 f25f 3f37 69a9 0938 93ba 7036
00000070: 59de 5d36 1ba2 e938 ea53 9b36 312d 5e36
00000080: e2b9 7f38 4c32 e736 127a 5037 3f15 0438
00000090: d3c6 4736 c747 2e37 42b6 b938 81f1 0936
000000a0: 4ba5 6737 f7b4 0138 0df0 1f33 850d e933
000000b0: 6ad0 c134 264b 0533 75e9 0233 77be 3f36
000000c0: 09b8 7136 c63b 291f d237 1920 0ab8 7136
000000d0: 210f 2d18 e35f b818 07e3 8737 6320 b136
000000e0: 4e39 b237 6033 b336 79a3 6836 d16a db36
000000f0: fdcd 6e35 0bb8 7136 1d9f 3f1b 3975 0337
00000100: 9677 0637 4cfc 7838 b967 3037 5fd8 1336
00000110: fac4 0838 4ab1 0937 292e 8234 c89b 3f36
00000120: 7b42 7936 5c26 0737 8731 7838 180e 0337
00000130: de68 2336 ceee 1238 7c1a f636 a4f7 7634
00000140: 0ae5 8636 7ce3 a436 ee0c ba36 fbe0 2139
00000150: e75b aa36 2a9b bb36 36ec b638 8129 d036
00000160: 417f 9c37 d304 4f38 7c7a cb36 4bba bb36
00000170: 465c 3439 bc68 ea36 7549 c136 ca74 c238
00000180: 4415 3237 898d a837 2205 3c38 8ac7 1837
00000190: e2b5 9037 03ce 0a39 98af b836 5bfb bb37
000001a0: ab13 3a38 3521 0b34 c9d3 5934 cb22 2e35
000001b0: 0451 4033 c5da 4333 a23b a436 6bd2 ad36
000001c0: a916 a81f f73c 6120 67d2 ad36 1295 a518
000001d0: f7a9 0219 944f 0337 159f cf36 37a6 b937
000001e0: 3f7d ec36 34be b936 4950 ea36 390e f634
000001f0: 68d2 ad36 bae8 a41b 3848 9533 37f3 2234
00000200: dff2 b535 a003 0b34 734a 2133 d280 4435
00000210: 65dd 0d34 9b98 8f31 f9ff 8333 324f 3733
00000220: 7cf7 1534 dcc0 af35 bc13 d133 773f 0c33
00000230: 45a5 4d35 c613 e033 d938 4d31 b3ca b433
00000240: c5ab 7f33 93a6 d333 95a4 6b36 b333 9233
00000250: 1677 f633 dfbb 0436 93fd d033 1bf4 df34
00000260: c2ee 9035 51ab 1133 f127 f433 f362 8236
00000270: 1ca2 6e33 26c0 f333 26a6 0b36 f0c0 d033
00000280: fc46 f634 d62e 8635 109e e133 2daf ca34
00000290: 884d 4836 bdce 3b33 098f 0635 9fe5 8335
000002a0: 61ae 3530 ee71 8131 08b1 5032 419c be2f
000002b0: 80fc ba2f 1f14 e933 eb69 a433 e536 4f1b
000002c0: c48e ce1b e969 a433 e6bb 3914 1f81 b614
000002d0: 00f3 9733 0f9f 2b33 53ca 4734 21af 1333
000002e0: 8ffe 0b33 4a94 8533 df72 7531 e969 a433
000002f0: b32d 3a17
4.7653866e-06 5.700389e-06 3.5511926e-05 6.8837644e-06 1.622795e-06 1.964042e-05 5.7111138e-06 1.3031143e-07
1.7014595e-06 2.485945e-06 5.6338276e-06 3.622368e-05 5.660557e-06 1.5967671e-06 2.1350215e-05 5.1539396e-06
1.2716197e-07 2.3577566e-06 2.1065764e-06 2.9294924e-06 0.000100294994 2.3889281e-06 3.095995e-06 5.752541e-05
2.6694402e-06 1.1406826e-05 3.282112e-05 3.5871387e-06 3.306099e-06 0.000111405 4.629129e-06 3.3106883e-06
6.0969855e-05 6.890192e-06 1.2426188e-05 3.149104e-05 2.9769042e-06 1.038792e-05 8.8554356e-05 2.0555165e-06
1.3807158e-05 3.0924533e-05 3.7238397e-08 1.0852367e-07 3.6100693e-07 3.1034823e-08 3.048031e-08 2.8572083e-06
3.601892e-06 3.5836585e-20 1.2978073e-19 3.6018923e-06 2.2367364e-24 4.7659706e-24 1.6198972e-05 5.2787814e-06
2.1245938e-05 5.3405965e-06 3.4665848e-06 6.5391437e-06 8.896166e-07 3.6018926e-06 1.5850562e-22 7.8355015e-06
8.014866e-06 5.9362777e-05 1.0514567e-05 2.2030652e-06 3.2608375e-05 8.207115e-06 2.4247973e-07 2.8551895e-06
3.7142588e-06 8.055558e-06 5.9173934e-05 7.81149e-06 2.4349933e-06 3.5031517e-05 7.3344545e-06 2.3000626e-07
4.020175e-06 4.9140635e-06 5.544737e-06 0.00015437968 5.0770936e-06 5.5910978e-06 8.722434e-05 6.2037147e-06
1.8655906e-05 4.935714e-05 6.0641305e-06 5.5947216e-06 0.00017200512 6.985936e-06 5.7603997e-06 9.2723945e-05
1.0614578e-05 2.0093068e-05 4.4827473e-05 9.106365e-06 1.7250833e-05 0.00013237451 5.504069e-06 2.2409184e-05
4.4364173e-05 1.2957464e-07 2.0286747e-07 6.487068e-07 4.4777167e-08 4.5600945e-08 4.894523e-06 5.1802976e-06
7.1188256e-20 1.9078413e-19 5.180296e-06 4.2802023e-24 6.7551666e-24 7.826737e-06 6.1876003e-06 2.2131118e-05
7.0479286e-06 5.535572e-06 6.98309e-06 4.583142e-07 5.1802963e-06 2.728192e-22 6.95149e-08 1.5175907e-07
1.3556236e-06 1.2946703e-07 3.7553445e-08 7.320315e-07 1.3212191e-07 4.179197e-09 6.146724e-08 4.2680036e-08
1.396674e-07 1.3094646e-06 9.7359106e-08 3.265401e-08 7.660895e-07 1.04344096e-07 2.986374e-09 8.418774e-08
5.9528038e-08 9.855753e-08 3.5113528e-06 6.808059e-08 1.1476929e-07 1.9778888e-06 9.73188e-08 4.1714597e-07
1.0798324e-06 3.3916255e-08 1.1369401e-07 3.885821e-06 5.556113e-08 1.1350521e-07 2.0809325e-06 9.72085e-08
4.587272e-07 9.997409e-07 1.05061304e-07 3.775289e-07 2.9847452e-06 4.3727358e-08 5.0127034e-07 9.827089e-07
6.6095224e-10 3.7673464e-09 1.2147446e-08 3.4671824e-10 3.4012615e-10 1.0853568e-07 7.6561115e-08 1.7140376e-22
3.4172101e-22 7.65611e-08 9.3771696e-27 1.8428233e-26 7.075687e-08 3.9958703e-08 1.8606924e-07 3.4385383e-08
3.259498e-08 6.220269e-08 3.571749e-09 7.65611e-08 6.015752e-25

exp_avg f4 [3]
00000000: 28cb 813b e2d7 11bb 8ab6 8c39
0.0039609857 -0.002225392 0.00026838883

exp_avg_sq f4 [3]
00000000: bcd7 bc39 77cc 073a c072 0037
0.0003601889 0.0005180309 7.656112e-06
