artifacts/poses_to_location/20250818182341/best_model.pt (torch, 376885 bytes, 48 tensors)

embedding.embeddings.bex_20230623_denoised.poses.weight f4 [64, 63]
00000000: fff4 9b3b dfe6 743d 4481 293d 24bb 983d
00000010: 0a99 7b3d f6b8 51bc 906f 1f3d 31d7 053c
00000020: 97c7 7fbd fac0 03bc e738 4e3d 274f 1ebc
00000030: 22a3 abbc 1294 023c 08bc d9bc 6dee 00bd
00000040: f612 873d 8bfc ffbb 53a4 83bb 57ab 413d
00000050: 1008 723c 921c a63c 7eec 093d 4200 a8bd
00000060: e5f5 d8bc 79bb bf3d b5e7 99bd d098 593d
00000070: 9d9e 3abc 8fcc 153b f714 b2bc 22ed f73c
00000080: 6fe6 603d 154c b9bd c40e 783d 2a90 ea3d
00000090: fe62 cabd 7498 f23d 3500 053e 455a 84bd
000000a0: e8ac 753d e340 853c 4cb6 e5bc 4d8e 113d
000000b0: 2167 59bd 0d5e 22bd a19c 4cbc ca94 47bd
000000c0: 858e ae3c f4fb 68b2 5d8a 14b3 b08d aebc
000000d0: aecc 2a2e f23c 642f 08d2 b13d 4180 22be
000000e0: 8133 edbd 5e7f 0b3c 15ac ebbd 6f5c 87bc
000000f0: 85fa 47bc 668e aebc 3ee7 86b0 a3e8 08bd
00000100: d5fd a63d 7c03 093b e20a 0cbd 8417 e3bd
00000110: cf5a b33c 7760 5abd 9521 313d e610 10be
00000120: cb1e 2cbc ef9f 18bd 0007 f33c 372a 92bd
00000130: 319a 353e 1e2b d8bd a362 6ebd eff4 7d3c
00000140: e69a 7cbd 064a 993b 0711 ecbc 8f3e 55bd
00000150: 5688 bcbc 61b0 7d3d 75d9 a83d b392 053d
00000160: 5c8d 083e 44ca 2fbe ff63 a13c 9516 17ba
00000170: 94d2 5ebd 42b7 82bd db44 543d 2b67 09be
00000180: 4d73 3bbd 075e 8ebc ea2c 133e 2978 1dbd
00000190: f8ca 983d f4ef b63d c214 cabc b89f 503d
000001a0: 472d cdbc bad0 f9bd cfa0 ae3d 7a1e 9bbc
000001b0: cf02 59bd f9b6 ca3c 0561 72bd 1070 493c
000001c0: 8f8b ecb2 df85 8cb3 456c 49bc 957a a6af
000001d0: 009e 442f fcc6 dc3c 417d afbd a464 76bc
000001e0: 4ce6 d33c a4fe 2ebd e550 9bbd 6df4 a53d
000001f0: 1a6b 49bc c0e7 6c2f a2c9 98bb b39c 663c
00000200: d6cf f03c 813a 01bc 3e77 94bd 0a15 303d
00000210: 1d86 06bd fc95 3fbd d1d2 9f3d d50e 263b
00000220: 2804 c53b 389c 153d cc99 f53b 5878 d13d
00000230: d041 27bd 7f44 623e 82c3 12be d8da 513e
00000240: 8090 24bd 3ae6 83bd db70 8a3c 1d36 26bb
00000250: efec ba3c ee70 923d f2af 38be 3b74 c73d
00000260: 82e2 3239 a3b3 a7bc e273 cb3b 06d2 65bd
00000270: a786 513c 9d37 2ebc f0c1 473c ab95 713e
00000280: 8271 4e3d c3c4 ffbd 86f3 223d 832f 26bd
00000290: 179a 58bd fbff 77bd 6244 ec3d 8e98 d83c
000002a0: a19b 453d bd68 8c3d 0f51 e03c ac3a fa3d
000002b0: 51c3 0a3e 194d 3fbe 6ac9 89bb 3ff9 cc32
000002c0: 90a8 50b4 221b 8d3b 3274 90ae 22d5 d82f
000002d0: e25c c6bd 5a14 14bd 8b6e e7bd f174 c43d
000002e0: 3307 32bd d4d6 3abe cdbc 403d aab7 4f3b
000002f0: 58d8 c1b1 ca84 dcbb a380 aabc 1f71 bdbc
00000300: a0b4 8cbc 52f7 563d 3ea0 bcbc 7b2a 4c3c
00000310: fe1d 3c3d 42af 8abd b3ca 3cbc c004 afbc
00000320: 2ffd a0bd 5a65 6abc 421c c5bd f180 6f3d
00000330: 4799 53be f99a 023e 0a1b 4dbe fdb0 1a3d
00000340: 4375 183d 3711 7f3d 4721 10bb 0126 d9bc
00000350: 60fb 28bd 14fd 383e 8099 d7bd 1085 c6bc
00000360: c737 cb3b 8ab2 a6bc 8813 773d e29c 87bc
00000370: 89ce 8d3c 43de ae3c 0ced 50be 1981 13bd
00000380: f294 063e 93fe 9abc 40ff 2cbb 3761 b2bc
00000390: 62bc 913d bef1 0dbe 8d1d d5bc 774e 48bd
000003a0: 2db2 88bd 2809 7ebc 17ea e3bd c45b 01be
000003b0: e008 3f3e bd5a 81ba c6c5 94b2 7583 9532
000003c0: 5aaa 9a39 1c62 012f 2629 0db0 f276 a23d
000003d0: a8fd 683d 9b20 f63d 8b9a bdbd 73cf 703d
000003e0: 9d77 313e 2ecb 25bd a06c 853a d88c e731
000003f0: 8992 dc3b b251 bfbc 5445 3c3c 9f54 343c
0.0047594304 0.05979049 0.041383043 0.07457569 0.061425246 -0.012800446 0.038924754 0.008168981
-0.062446203 -0.008041615 0.050347235 -0.009662426 -0.020951811 0.007969873 -0.026578918 -0.03147738
0.065954134 -0.007812088 -0.0040173917 0.047282543 0.01477243 0.020277295 0.033672802 -0.08203174
-0.02648444 0.093619294 -0.07514898 0.05312425 -0.011390355 0.0022857522 -0.021738512 0.03026444
0.05490726 -0.090477146 0.060560957 0.11453278 -0.098821625 0.118454844 0.1298836 -0.0646253
0.05997935 0.016266292 -0.028041027 0.0355361 -0.053076867 -0.039640475 -0.012488515 -0.04872588
0.021308193 -1.3561465e-08 -3.4584776e-08 -0.021307796 3.8835317e-11 2.0758131e-10 0.086826384 -0.15869237
-0.11582089 0.008514253 -0.115074314 -0.016523568 -0.012205725 -0.021308135 -9.815506e-10 -0.033424985
0.08153883 0.0020906618 -0.034190066 -0.110884696 0.021893887 -0.053314652 0.043244917 -0.14068946
-0.0105053885 -0.0372619 0.029666424 -0.07136958 0.177346 -0.10555099 -0.058199536 0.015500291
-0.06167116 0.0046780137 -0.028816713 -0.052061614 -0.023014229 0.061935786 0.08244602 0.032610606
0.13335174 -0.17167002 0.019701002 -0.0005763558 -0.05440004 -0.0638261 0.05182348 -0.13418262
-0.045764256 -0.01737882 0.14372602 -0.03844467 0.07460588 0.08932486 -0.024668101 0.05093357
-0.025046004 -0.121980146 0.085267656 -0.01893543 -0.052981194 0.024745451 -0.059174556 0.012294784
-2.753748e-08 -6.543609e-08 -0.01229388 -3.0282324e-10 1.7882229e-10 0.026950352 -0.08568812 -0.015038643
0.02586665 -0.042723313 -0.07583789 0.08103261 -0.012293601 2.1546409e-10 -0.0046627084 0.014075446
0.029395979 -0.007887484 -0.07249306 0.042988814 -0.032842744 -0.046773896 0.07803882 0.002533843
0.0060124584 0.036525935 0.0074951407 0.10228032 -0.040834248 0.22096442 -0.14332393 0.20493639
-0.04017687 -0.064403966 0.016899517 -0.0025361844 0.022818057 0.07150446 -0.18035868 0.09738966
0.00017059784 -0.0204714 0.0062088827 -0.056108497 0.012788451 -0.010633376 0.012192234 0.2359225
0.05040122 -0.12488701 0.039783023 -0.040572654 -0.052881327 -0.060546856 0.115364805 0.026439931
0.048244122 0.06855915 0.027382402 0.12218222 0.1355107 -0.18681754 -0.0042049186 2.386207e-08
-1.9432832e-07 0.004306213 -6.569002e-11 3.944161e-10 -0.09685685 -0.03615222 -0.11300381 0.09592617
-0.043463897 -0.18246013 0.047055054 0.0031695166 -5.6416347e-09 -0.006729697 -0.020813292 -0.02312523
-0.017175972 0.052481957 -0.023025628 0.0124613 0.04592704 -0.06771709 -0.011522937 -0.02136457
-0.07860791 -0.014306391 -0.096245304 0.058472577 -0.2066394 0.1275443 -0.20029846 0.037766445
0.037221204 0.062272277 -0.002199249 -0.02650738 -0.041255355 0.18065292 -0.10527325 -0.024233371
0.0062017175 -0.020348806 0.06032136 -0.0165543 0.017310398 0.021346217 -0.20402926 -0.03601179
0.13142756 -0.018920219 -0.0026397258 -0.021774871 0.07116009 -0.13861749 -0.026015067 -0.048902955
-0.06674609 -0.015505113 -0.111286335 -0.12632662 0.1865573 -0.0009868961 -1.7319405e-08 1.7405663e-08
0.0002950009 1.1767337e-10 -5.1353977e-10 0.07932843 0.05688253 0.12017938 -0.09257992 0.05879159
0.17330785 -0.04047697 0.0010179467 6.738997e-09 0.0067313355 -0.023354385 0.0114911385 0.011006503

embedding.embeddings.bex_20230623_denoised.poses.bias f4 [64]
00000000: cb36 55be fb0b afbd 4973 3a3d 1678 d9bc
00000010: 4bcc 973c 762e c6bd 12bc e2bb 4d84 ce3d
00000020: 4031 ebbc 5289 08be e49d 5b3d e13a 27bd
00000030: 3634 d0bc 29b5 ddbc 1b95 98bd a617 89bc
00000040: 2b67 9fbd 67ce e73d f7dd b5ba cd8c 71bd
00000050: 48f9 bb3b e7cd 2a3e cba2 07be bc61 4b3e
00000060: 0527 aa3d cd10 f7bc fb33 323e 1284 ec3d
00000070: 1e9e 303d 2dca cbbd 2605 93bd 196b f6bd
00000080: e1e3 22be 28d3 0f3d 08b1 80bd ec0e 543e
00000090: 30aa b43b 3575 27be 9252 94bd 83db 03be
000000a0: 342f 82bd afa1 883d 4392 bd3d 8e13 cabd
000000b0: cc17 313d 4644 ebbd d540 94bc 07e0 9abd
000000c0: 287f 463c 0268 223e 8c8b ed3d c825 1fbe
000000d0: 50c0 3d37 d59d 1bbe 3928 f53d c6bb ac3d
000000e0: c0fa d1bc c8e2 fabd 4c44 6abc 7535 eebd
000000f0: 8370 c33d 41ed 5d3c 263a 0cbd cfbb c83d
-0.20821683 -0.08547207 0.0455201 -0.02654652 0.018530032 -0.096768305 -0.0069193924 0.10083828
-0.028710008 -0.13333634 0.053617373 -0.040827636 -0.025415521 -0.027063923 -0.074503146 -0.01673491
-0.077833496 0.11318665 -0.0013875355 -0.05897217 0.0057365038 0.16680108 -0.13245694 0.19861501
0.08308224 -0.030159378 0.17402641 0.11548628 0.043119542 -0.09950671 -0.07178716 -0.12032146
-0.15907241 0.035113484 -0.06283766 0.20708817 0.005513452 -0.16353305 -0.072423115 -0.12876706
-0.063566595 0.06671464 0.09256413 -0.09867011 0.043235585 -0.114876315 -0.01809732 -0.07562261
0.012115277 0.15859988 0.11598882 -0.15541756 1.1310054e-05 -0.15196927 0.119705625 0.084342524
-0.025632262 -0.12250286 -0.01429851 -0.1163129 0.09542944 0.013545335 -0.034235142 0.09801447

embedding.embeddings.ken_20230614_denoised.poses.weight f4 [64, 63]
00000000: 82d1 123d ee0c debb fca7 3f3d 41ad d33c
00000010: c16f 5a3c 33b4 4c3d fd1f bd3c 65ef 04bc
00000020: d8a3 933b 0454 833c e006 0cbd 7a52 4a3c
00000030: 0863 1ebb 6090 933c 93b8 2e3c 0e26 51bc
00000040: b1ea 5b3b e199 0c3b 624e 24bc 9a52 923d
00000050: 8ebe eb3c 54ca 23bb 7e77 5f3d 6690 173d
00000060: f69a 69bb d612 533d 1359 b6bc f1a2 30bd
00000070: b88b ef3c 5401 82bb 0af3 d6bc ff33 d53c
00000080: 53d9 1c3c 408d ebbc e1c7 203d b666 53bc
00000090: b1ae 0e3c 1f94 733d 638c c3ba 6237 a1bc
000000a0: cd5b 3b3d e7b1 01bd 0542 b23b c132 ac3a
000000b0: 2dd1 25ba 5083 fe3b 2d04 26bb cd82 84bb
000000c0: 9791 aa3c 5939 ceb3 e8fe 4a31 4692 aabc
000000d0: 866b ac2f 2dbd 3d2f 003d 403d 2203 38bc
000000e0: 4e9f 30bd 4823 a1bc 761c 72bc 7a34 5bbe
000000f0: 4534 57bc 8f91 aabc c075 d92f e918 8cbc
00000100: 8805 4d3a a169 d93c 4f57 b63d 2e5e 7e3d
00000110: b6a7 c83c 7590 463d 13e4 46bd e518 46ba
00000120: 94a7 25bc 7650 173d a8eb 163a f126 193c
00000130: 23b7 34bd ccba 443d 6a91 08b9 02b1 d33b
00000140: 9f4d 953d 93f5 28bd 18c1 513d 1e71 cebb
00000150: 9aac acbc f283 403d af60 20bd 84e6 8cbb
00000160: 5129 4d3b ee92 433d c558 e1bc c146 0abc
00000170: a6ad a2bc fba0 12bc 3782 c6bc c5f9 513c
00000180: 7a13 853b 9a0f 613d 93ed 0c3b 54a6 be3d
00000190: 8aca f23c c830 60bc 80a8 8eb9 6f0a 553c
000001a0: 2cd7 04bd 3987 023d 466d 553b 60b0 7a3d
000001b0: 95b4 c73d bc9b 3bbd f7e1 0fbd 2d7e 423c
000001c0: 00ab 2ab3 3efd dc33 d67d 42bc 39fc 89af
000001d0: 8c82 d8af 4874 db3d 7707 db3b 73d6 04be
000001e0: 8b6f 253b cd1e c4bd de71 d73b b3cb 50bc
000001f0: d37d 42bc d412 e2b0 f390 c23c 2957 d83b
00000200: 04ec 843c 562f 64bd 7fc2 e8bd 6560 c43d
00000210: d263 123d 8e84 b3bd 77b1 cc3d 258a 8c3c
00000220: 6a89 043c 5c3e 4b3d 5240 e23c f357 183c
00000230: 0aaa 423d c1eb 1b3e 636b fcbd d8b9 6c3c
00000240: b985 a4bd 2ea4 433d b4d2 84bb a499 21bd
00000250: 0552 c4bc 72ea 61bd 1751 9cbd 1ba1 9ebc
00000260: 539c 273d 701a e63c 3bce 35bc 88b1 4fbd
00000270: a2d9 b2bd 7fc0 763d 05f7 debc 853f 263c
00000280: 2d01 d23d 4f22 893a 35fd 463e 86bf b13c
00000290: b477 223d fd73 98bc c24d f23c 1705 c6bb
000002a0: 7ddf 0e3e 4be7 97bd c78e 2c3e c246 cc3c
000002b0: 29d6 c3bd 626d 26bd b105 eabb 0cef 2d33
000002c0: c830 02b4 946a ec3b 95d0 8030 22f5 3b30
000002d0: c0f6 013d b938 283d 784e 99bd 714a 2dbd
000002e0: 7ce3 b53c 1069 1cbe eba4 2fbd c8d8 e03b
000002f0: 08eb c531 efb9 f9bc 4d03 e1bb b16a 63bd
00000300: b12a 593d 7002 df3d b2cc a7bd 780a 10bd
00000310: 7d90 ab3d 5acc c0bd ad55 bcbc fdf7 ffba
00000320: dbc3 23bd f2c5 debc bb65 64bc 6f39 85bd
00000330: 0d29 14be aaac f23d 2bb4 1bbc facc 993d
00000340: e704 5cbd 7d16 0abd 6fbf 153d b11b 973c
00000350: 0f96 6f3d e175 973d 69fd 313b e156 56bd
00000360: 403e bfbc df72 be3b 75c9 72bc 9735 b03d
00000370: 453d 7ebd 192b b63d d197 96bb e4a1 cfbd
00000380: 6232 223d e8bc 3abe aff8 c2bc 56ec ed3c
00000390: 0000 b03c 2d86 9bbc e5d9 e73c 84e4 09be
000003a0: f6a6 923d 7656 23be 76be abbc cafa ba3d
000003b0: 7951 0b3d 9bf6 7e3b 38c6 93b4 1288 3f34
000003c0: 5bed 7fbb 58d7 af2f 86fa 2e30 443e 1cbd
000003d0: 92c8 07bd c12d bf3d fb1c 373d 7c0e c0bc
000003e0: bf23 3a3e 56ac 303d 0dc2 7bbb 05a8 cc32
000003f0: be97 143c 0945 d3ba 76ba 5c3b 790c f9bc
0.035844333 -0.0067764437 0.04679106 0.02583945 0.013332308 0.04997654 0.023086542 -0.008113717
0.0045056157 0.016031273 -0.034186244 0.0123487655 -0.0024167914 0.01801318 0.010664123 -0.012765421
0.0033556635 0.0021454024 -0.010028454 0.07144661 0.028777387 -0.0024992423 0.054557316 0.037002943
-0.0035645342 0.051531635 -0.02225927 -0.043124143 0.029241428 -0.0039674435 -0.026238937 0.02602577
0.0095732985 -0.028753877 0.03925312 -0.012902906 0.008708642 0.05946743 -0.0014919158 -0.019679729
0.045741845 -0.0316638 0.005439999 0.0013137684 -0.000632542 0.0077671185 -0.0025332079 -0.004043913
0.020821376 -9.603054e-08 2.9539766e-09 -0.020821702 3.1363018e-10 1.7256659e-10 0.046933174 -0.011231216
-0.043120675 -0.019670144 -0.014777293 -0.21406737 -0.013135021 -0.02082136 3.9555736e-10 -0.017101722
0.00078209536 0.026539626 0.089033715 0.062101535 0.024494033 0.04847761 -0.048557352 -0.000755681
-0.0101107545 0.036941968 0.00057571614 0.009347663 -0.044119965 0.048029706 -0.00013024142 0.00646031
0.07290196 -0.041249823 0.05120954 -0.0063001057 -0.021078397 0.047000833 -0.039154705 -0.0042999405
0.0031305144 0.047747545 -0.027508149 -0.008439721 -0.019858193 -0.008949514 -0.024232013 0.012815897
0.0040611597 0.05494652 0.002150391 0.09309068 0.029637594 -0.013683505 -0.00027209893 0.013002976
-0.032431766 0.03186724 0.0032566353 0.06120336 0.0975124 -0.045802817 -0.035127606 0.011870903
-3.9736733e-08 1.0290613e-07 -0.011870822 -2.509937e-10 -3.938293e-10 0.10715538 0.0066842395 -0.12972431
0.0025243487 -0.09576187 0.0065748533 -0.012743878 -0.011870819 -1.6449015e-09 0.023750758 0.006602187
0.016225822 -0.055709206 -0.11365222 0.09588698 0.035739727 -0.08765517 0.09994786 0.017155716
0.008089403 0.049620017 0.027618561 0.0092983125 0.047525443 0.15226652 -0.1232517 0.0144486055
-0.08033318 0.047763996 -0.004053438 -0.039453164 -0.023964891 -0.055155225 -0.07632654 -0.01936393
0.040920567 0.028088778 -0.011096532 -0.050706416 -0.087329164 0.060242172 -0.027217397 0.01014698
0.102541305 0.0010462495 0.19432528 0.02169777 0.03966494 -0.018609995 0.029578093 -0.006043087
0.13952442 -0.074171625 0.1685134 0.024936084 -0.09562332 -0.04063166 -0.0071417917 4.0497113e-08
-1.212494e-07 0.0072148535 9.372508e-10 6.837856e-10 0.03172946 0.04106972 -0.0748567 -0.04230732
0.0222032 -0.15274453 -0.042881887 0.00686178 5.7601746e-09 -0.030484168 -0.0068668486 -0.05552167
0.05301923 0.10889137 -0.081933394 -0.035166234 0.08377168 -0.09413977 -0.022990072 -0.0019528862
-0.039981704 -0.027193997 -0.01394027 -0.06505095 -0.14468785 0.11849339 -0.009503405 0.07509799
-0.053715613 -0.033712853 0.03655952 0.018445821 0.058492716 0.073955305 0.00271591 -0.052328948
-0.023345113 0.0058120335 -0.014818539 0.086039715 -0.06207015 0.08894939 -0.0045957346 -0.101383
0.03959883 -0.18236125 -0.023800222 0.029043358 0.021484375 -0.018984878 0.028302142 -0.13466078
0.071607515 -0.15950951 -0.020964842 0.091298655 0.034013245 0.0038904313 -2.7525107e-07 1.7837763e-07
-0.0039051387 3.1985325e-10 6.3656846e-10 -0.03814532 -0.033150263 0.09334899 0.044705372 -0.023444407
0.18177699 0.043133102 -0.0038415224 2.3825132e-08 0.009069381 -0.0016118597 0.0033680475 -0.030401455

embedding.embeddings.ken_20230614_denoised.poses.bias f4 [64]
00000000: 9b4f 64be 8e36 ebbd a8ab fe3d 8c0b babd
00000010: 46c2 323d d64e bcbd 0845 633d b5e3 f33d
00000020: 1754 0cbd 5a5c 53be 35c7 453d 3170 0cbe
00000030: dbc5 a63d 70cb 933d 7616 3fbe faf4 69bd
00000040: 2f3b aa3c e9b0 073e f4c0 a63c fbc9 09be
00000050: d799 fcbc 6001 3b3e 95a2 f9bd 6d4c 503e
00000060: 1ae7 ba3d 729b 3abd ff66 393e 7007 f93d
00000070: f48e 0cbd 5c37 ebbd 5c9b acbd ac44 fbbd
00000080: 9e14 08be 724a b53c 07da ccbd 24c0 163e
00000090: c30d a9bd 6446 1dbe 34c3 86bd c26b 60be
000000a0: 8595 49bd 2a59 0c3e 0686 eb3d c2a2 ffbd
000000b0: 05d4 2c3d fd78 97bd 2a61 40bd 9dff 70bd
000000c0: 85ee 663d 8ba6 423e 3500 a43d e608 49be
000000d0: 8129 a63d ab88 2bbe ae45 063e 9c70 b43d
000000e0: 7ac5 7b3c 4094 f9bd 1f65 41bd 64e7 e1bd
000000f0: 81d5 573d c6c4 0abd f610 25bc 4654 d53d
-0.22295992 -0.11485015 0.124350846 -0.09084234 0.043642305 -0.09194724 0.055485755 0.11908666
-0.03425988 -0.20640698 0.04828568 -0.13714673 0.08143207 0.07216537 -0.18660912 -0.057118393
0.020780174 0.1325108 0.02035568 -0.13455956 -0.030835075 0.18262243 -0.12189213 0.20341654
0.091261104 -0.0455584 0.18105696 0.12159622 -0.03431602 -0.11485168 -0.0842807 -0.122689575
-0.13289115 0.022130225 -0.10002523 0.14721733 -0.08254578 -0.15358883 -0.06580201 -0.21916106
-0.04921486 0.13705888 0.11500172 -0.124822155 0.042194385 -0.073961236 -0.046967663 -0.05883752
0.056379814 0.19008844 0.08007852 -0.196323 0.08113385 -0.16751353 0.13112518 0.08810541
0.015366906 -0.121864796 -0.047215577 -0.110304624 0.052693848 -0.033879064 -0.010074845 0.104164645

embedding.embeddings.ken_20230618_denoised.poses.weight f4 [64, 63]
00000000: ff66 a03d 53ee bbbb 72dc 4e3d 1e5a b23c
00000010: 4fe5 953c 247f 793d 62e0 913c 18b3 39bc
00000020: 98c5 2439 fa88 74bc 16c6 61bd 223b 89b9
00000030: 8570 b1ba 9d88 3cbd 0b53 f33b 9257 8a3b
00000040: 8c5f 14bb ce0f 93bb bf52 d0bc 9ecd b93d
00000050: 7a32 133d 3fc4 7fbc 689a 973d 68ad 313d
00000060: c47a 99bc a9cd 8d3d 3988 24bd 680c 71bd
00000070: fda0 da3c e7e9 bf3c 1d97 33bd 13e9 0d3d
00000080: 75d3 8d3d 1fdd a5bb 59b2 8c3d abcf a43b
00000090: 629c 4d3d f2ca 973d 962f 1c3c 0e99 98bc
000000a0: 6511 a43d 592d cbbc 7741 833c 7d9b cfbb
000000b0: fc2c ad3b 504f a03c 3973 0dbc c6f3 37bc
000000c0: 0cf8 9d3c 2aa0 8531 9e58 2130 1cf8 9dbc
000000d0: 4b46 d22c 385a c42f f226 b93d 81a3 e33b
000000e0: c15f a6bd d569 c0bd ef32 95bc 96c6 30be
000000f0: b3cb e7bc 1df8 9dbc 986a 13b1 6f52 793d
00000100: 893b c4bc 75d9 db3b 2af1 bebd a6c9 92bd
00000110: da4a de3c 05dd 1dbd f4d7 853c d2b9 933c
00000120: ae59 e03c 4e37 cdbd 0d86 bdbc 0976 efbc
00000130: 221c 8e3d b583 1fbd d27d 2c3c 357a 14bd
00000140: 6425 37bd 10e5 083d a14a d63c 9bcf 303c
00000150: 8b56 b03b afe2 553c c6c0 953c 77e0 1abd
00000160: d64a 6d3d 144b a8bd e2be b7bb e3b7 a23c
00000170: fdf9 82bc c865 05bd 588e 6b3d c6e0 8a3b
00000180: 3c65 b5bc bc7e dd3c 42a3 98bc 05ae 6e3b
00000190: 8100 1f3d cd81 96bb f029 2abd 3b40 873d
000001a0: b635 ffbc 87ff edbc 6ea4 843c b802 bdbc
000001b0: a6df b8bd 1593 073d b78e 303d 082e 613c
000001c0: 647f 67b1 eaa6 1e33 072e 61bc f843 99af
000001d0: b6be 12af 7212 2b3b 9b7b 91bd 4063 ac3c
000001e0: 6b4d 69bd ab9b bf3d 948e 65be e3cc c13d
000001f0: df2d 61bc 77e0 0031 5a54 8a3d 51e7 0bbd
00000200: 2c18 1e39 0a85 fdbd 6364 fbbd 0059 203e
00000210: 0447 ea3c 8e46 cebd 2a7e 003e f130 543c
00000220: 351d 51bd a6d1 7a3d a9d9 c13c 5a29 363d
00000230: 7486 f53c 3467 363e b6fa 25be 650d 1e3c
00000240: 7e9a 00bd b5c9 673d b512 47bc 2be3 8ebd
00000250: ebe5 92bc 1bbd 89bc 2746 2ebd bc6f b13c
00000260: 5325 583d 0f91 313d e61c f93c 7f75 55bc
00000270: d18b cbbd 2ff5 c93c 0a8c 72bd fad7 cebc
00000280: 090e 883d f221 1fbd 5970 203e f73e e2bc
00000290: f371 dcbc 1d0c 02bc 7ddf 1b3d 92cc 41b9
000002a0: bd0c cf3d 34d0 9bbd 707d 003e e968 473b
000002b0: 7034 f6bd 593b 9cbd 5afb 22bc 7c1b 9bb3
000002c0: c09b 6830 17ef 233c 2e43 7739 adc1 53b0
000002d0: 96d7 2f3d 2fe4 cc3c 01a2 65bd 9c06 b8bd
000002e0: 951f d43d 890d 45be 1dea 69ba a4aa 213c
000002f0: 427e 8730 b374 93bd e0e5 f03c 54d1 6fbb
00000300: 023e e13d 777b e23d 6612 18be 5a66 07bd
00000310: 0215 cc3d b563 efbd 81e8 94bb 9442 4a3d
00000320: afa2 1cbd 02ac adbc 82e0 08bd a2cf 1cbd
00000330: 1172 2ebe 66e6 1e3e c7d3 0dbc 7f0a 123d
00000340: 5288 83bd 09ef 203c 768b 8d3d a173 0c3c
00000350: 5e37 e83c 6e30 2b3d 048b 59bc a9fe 05bd
00000360: a12d fabc e08d f2bc 7de4 2c3d 4b20 d13d
00000370: b07e b4bc bbd4 323d ba62 cb3c 3d0e 7dbd
00000380: 7ec2 573d cd99 20be b035 9a3c b85e 89bc
00000390: df8e 163c 84f8 f9bc 0f74 933c 3b76 cfbd
000003a0: eff7 9b3d 444a fabd a5eb 23bc c15b f43d
000003b0: 13cd 973d 2c79 e13b d118 cf33 7184 c233
000003c0: de4c e1bb cb12 9daf 7e30 9a2f 4a46 9dbd
000003d0: 34dd 05b9 5ca0 be3d 91ec cb3d a55f bdbd
000003e0: 6bd4 5f3e bfd2 e93b b2df e0bb e3e6 75b1
000003f0: 8820 33bc d7bf aa3b b29d 833b 5452 d43c
0.07832145 -0.0057351976 0.0505032 0.021771487 0.01829782 0.060912266 0.01780719 -0.011334203
0.00015713868 -0.014925236 -0.05512055 -0.00026174734 -0.0013537562 -0.046028722 0.007425671 0.004221865
-0.0022639958 -0.004487968 -0.025430081 0.090724215 0.03593681 -0.015610754 0.074024975 0.043378264
-0.018735297 0.06923992 -0.040168975 -0.058849722 0.026688093 0.023426963 -0.043845285 0.034646105
0.06925098 -0.00506176 0.068699546 0.0050296388 0.050197966 0.074117556 0.00953283 -0.01862767
0.0801113 -0.024801897 0.016022427 -0.0063356743 0.0052849036 0.01956907 -0.008633428 -0.011227554
0.019283317 3.889018e-09 5.869739e-10 -0.019283347 5.976363e-12 3.5716297e-10 0.09040631 0.0069469814
-0.08123732 -0.09395186 -0.018212764 -0.17263255 -0.028295374 -0.019283349 -2.1451907e-09 0.06086963
-0.02395417 0.0067092725 -0.09323342 -0.07167368 0.027135301 -0.03854086 0.016338326 0.018032942
0.027386513 -0.10020314 -0.02313521 -0.029231088 0.0693896 -0.038943965 0.010528045 -0.03624936
-0.044713393 0.033421576 0.026158633 0.0107916845 0.0053814105 0.013054534 0.018280398 -0.037811723
0.057932697 -0.08217445 -0.005607472 0.019863075 -0.015988344 -0.03256777 0.057508796 0.004238221
-0.022142999 0.02703797 -0.018632535 0.0036419642 0.03881884 -0.00459311 -0.0415439 0.06604048
-0.031153541 -0.029052509 0.016191687 -0.023072585 -0.090270326 0.033099253 0.043104853 0.013743885
-3.3687337e-09 3.693905e-08 -0.013743884 -2.7878833e-10 -1.3346377e-10 0.0026103524 -0.07103654 0.02104342
-0.056958597 0.09355863 -0.2241767 0.09462907 -0.013743847 1.8754045e-09 0.0675437 -0.034156147
0.00015077059 -0.12378891 -0.122750066 0.15658951 0.028598316 -0.10072051 0.12548128 0.012951122
-0.051053245 0.061235093 0.023663359 0.04447303 0.029971339 0.17812806 -0.1620892 0.009646748
-0.031397335 0.056588847 -0.012150456 -0.069769226 -0.017931899 -0.016813805 -0.04254737 0.021659724
0.05276997 0.04335123 0.030409288 -0.0130285015 -0.09938777 0.024653045 -0.059215583 -0.02524947
0.06643302 -0.038850732 0.15667857 -0.027617915 -0.026909804 -0.007937458 0.038054932 -0.00018482123
0.101098515 -0.07608071 0.1254785 0.0030427522 -0.120217204 -0.07628507 -0.009947622 -7.222749e-08
8.462244e-10 0.010005734 0.00023580782 -7.703658e-10 0.04293021 0.02501115 -0.056062702 -0.08985636
0.10357586 -0.19243445 -0.000892313 0.009867344 9.858427e-10 -0.07199993 0.029406488 -0.0036593275
0.10998155 0.11058705 -0.14850768 -0.033056594 0.099649444 -0.116889395 -0.004544318 0.0493799
-0.038241085 -0.021200184 -0.033417232 -0.03828395 -0.170357 0.15517578 -0.008656449 0.03565454
-0.064224854 0.009822615 0.06911366 0.00857249 0.028346714 0.041794233 -0.013277773 -0.032713566
-0.030539336 -0.029608667 0.04221009 0.102112375 -0.022033066 0.043659907 0.02482735 -0.061781157
0.052675717 -0.1568367 0.018824428 -0.016768798 0.009189337 -0.03051401 0.017999677 -0.101299725
0.07615649 -0.12221196 -0.0100049125 0.11931563 0.07412162 0.0068809 9.643703e-08 9.05792e-08
-0.0068756184 -2.8571487e-10 2.8046893e-10 -0.07679422 -0.00012766273 0.0930793 0.09957231 -0.09246758
0.21858375 0.0071357186 -0.006862604 -3.5783436e-09 -0.010933049 0.0052108574 0.0040166015 0.025918163

embedding.embeddings.ken_20230618_denoised.poses.bias f4 [64]
00000000: 30f6 3cbe 24ef 02be c18b d43d 7ad3 7fbd
00000010: 752f 293d a912 14be 8d1b 4c3d b491 d53d
00000020: 822e aebb a586 53be b28e 633d e753 09be
00000030: 87af cb3d 1169 cd3d ddbe 1cbe f5b0 73bd
00000040: 109c 983c e78d ef3d 9373 923a 143c 0dbe
00000050: 06bd 90bc ad74 1b3e 1318 12be 8102 3b3e
00000060: 393d ab3d 0ab5 05bd 9f6b 163e f94e 123e
00000070: ef20 77bd 9a47 babd 69b5 70bd 9e46 9cbd
00000080: 4e94 20be 59d5 273d aa07 06be f913 3f3e
00000090: 7f5e 03be ac88 f7bd c2e9 82bd 25bc 5dbe
000000a0: 6f7b 65bd 13e3 093e c27c 903d 4cb3 f8bd
000000b0: 8155 a03d 4d68 d2bd 5232 78bd 8fc7 c4bd
000000c0: d47c a53d 15e1 243e 2a79 d03d 39b6 3cbe
000000d0: 6d2e 093e bb6d 3cbe 2668 0b3e 4cd6 493d
000000e0: 1589 553c 9b9d f4bd 2e29 23bd 0629 eabd
000000f0: 1357 4e3d b25a e8bc eb69 a4bc 0043 cb3d
-0.18453288 -0.12786537 0.103782184 -0.06245754 0.041305024 -0.14460243 0.049830962 0.10428181
-0.0053156028 -0.20656832 0.055556007 -0.13410912 0.099455886 0.100298055 -0.15307184 -0.05949493
0.018629104 0.116969876 0.001117336 -0.13792449 -0.017668258 0.15181227 -0.14266996 0.18262674
0.08361287 -0.032643355 0.14689492 0.14287938 -0.060334142 -0.09095688 -0.058766756 -0.07630657
-0.15681574 0.04097495 -0.13088861 0.18659963 -0.12829016 -0.12086615 -0.06392242 -0.21653803
-0.05602592 0.13465528 0.07055046 -0.12143573 0.078288086 -0.102738 -0.060594864 -0.09608375
0.0808045 0.16101487 0.1017936 -0.18428887 0.13396616 -0.18401234 0.13613948 0.049276635
0.013033171 -0.11944123 -0.039834194 -0.11433606 0.05037601 -0.02836356 -0.020070037 0.099248886

core.core.fc.0.0.weight f4 [128, 64]
00000000: 6b6a 4a2b 0376 d22a d2b9 eaa9 dd9a 1229
00000010: 857b e4a9 da8a 022a 9bfd e7a9 5070 7daa
00000020: af14 83a9 3996 8b2a 6a72 9caa f0c8 152a
00000030: 78b8 43aa 278e 8eaa 0f97 aa29 6fc8 fb27
00000040: 4487 3f29 1df6 8eaa d6e9 2d2a 9a32 332a
00000050: cd7b 8528 a20c e2aa 955f 522a e8b3 0bab
00000060: 613f 43aa df27 bfa9 4453 efaa 6607 a5aa
00000070: 6195 4aa8 8449 372a 2f8b df29 0167 272a
00000080: 3710 842a 0187 8e28 fbf7 b429 efe2 3fab
00000090: 94cb 372a 9d10 832a b0b6 45a7 4306 0f2b
000000a0: 98cf 372a 65be 86aa d963 b7a9 c533 ec2a
000000b0: 9cd7 05aa b0c6 cc29 5b0b 172a bb31 1e2a
000000c0: 0609 a428 b946 94aa 4667 c2a9 1d1a b52a
000000d0: 2137 dcaa 4cca a62a 7212 b7aa d3ae 5baa
000000e0: a3af 012a c75b 892a e83a bb28 fa9c a92a
000000f0: ad62 85aa 2c8c b22a 3ec6 7129 e497 86aa
00000100: 8749 a485 dc45 9c85 1104 a485 cf81 9f05
00000110: 8fc3 a085 06f6 a105 5d4c 6c05 ac9e b085
00000120: 4106 9e05 1908 9c05 1dab a185 22a0 a085
00000130: 43b8 9a05 6ac7 ab05 3291 a605 c876 9905
00000140: 7965 9805 b724 9f05 7559 9505 c427 a005
00000150: 014b a605 4d89 a305 9104 a405 f1cf 9885
00000160: ec42 a505 f934 9785 d587 a385 7d2e a005
00000170: 2f5f a005 0716 9a85 6e9f 9c85 1b4c 9c85
00000180: 6670 a185 c98b 9d05 f048 a205 9d2a 9d85
00000190: f51a a285 5955 a305 af14 5885 e1c3 9405
000001a0: 4847 9485 3fb8 a105 f40d a405 1fb3 a005
000001b0: 8651 a505 39bf 9705 7861 a205 be1d af85
000001c0: 8046 a405 008d 9785 7bd7 9d05 5241 9305
000001d0: 9033 9e05 1ab5 9d85 cdc7 b305 0ef0 9805
000001e0: f455 aa05 0802 9985 8f7f a505 485e a385
000001f0: d3ff a205 11f9 9985 c0d2 a305 383c 9605
00000200: 9e33 bcb8 2627 8db8 3479 a1b9 91ae c639
00000210: fd9e c8b7 de3d f539 e4c8 6338 3083 2d39
00000220: f718 7e38 f319 92b6 5bc5 b2b9 a222 8db9
00000230: 3a59 34b9 3420 e2b8 1628 4838 7e4e 4a39
00000240: 0955 2f39 0e2c e738 4d3d 6039 f181 14b9
00000250: 234f 2038 a41d 5438 8fc1 a0b9 a968 c938
00000260: e17c b539 6719 fcb8 0900 c338 9774 2c38
00000270: 2695 74b9 b3be a5b9 ca6a 56b9 7720 e4b8
00000280: b04d 1cb8 0e99 78b8 205d 1236 4ec7 6139
00000290: 9ebe 4039 0b0c 7d38 c3c4 0238 1829 3e37
000002a0: a61b 4d39 0719 b639 f0a3 71b8 1fa3 7db8
000002b0: 1cd4 3638 22a4 c6b8 f9e4 b839 282e 29b9
000002c0: 1822 55b8 542c 0638 4cd2 0f39 64c0 3cb8
000002d0: 15e3 9e39 3b0d bab8 638a 5538 0935 8a39
000002e0: 1301 8fb8 7a9e e9b8 a12e 6039 0502 78b8
000002f0: 9172 7439 dfa3 d439 40b1 9fb5 a012 2539
00000300: 0752 9f85 089a 9c05 0b32 9605 8778 a205
00000310: abcb 9b85 76a6 a385 8b45 a385 dc6f 9d05
00000320: 8153 9985 214f 9985 e058 6c05 9509 a205
00000330: dc47 a205 4a17 9d85 6be1 0505 e24a 9605
00000340: dc7d 9d85 2c70 a285 06c3 a505 3adc a885
00000350: 30d5 5f05 2ee5 9a05 08d9 9b05 54a8 9805
00000360: 2ecb 9685 c8a5 9e05 0654 a205 1b34 a085
00000370: 0c55 a705 5c6c 9985 ea54 9f85 c8cb 9485
00000380: ec70 9485 ef54 9a05 3fd2 a385 cfc1 a205
00000390: 8165 a405 b008 9c85 fb56 9885 11c7 9a85
000003a0: e79c a605 8abc a785 6e32 1103 0913 9c05
000003b0: 2068 a105 96be 9885 a8be a285 3c2b a205
000003c0: 76d1 9705 df7e 9905 58a9 9705 7741 a505
000003d0: 21ac 9c05 f7b8 a005 5ed3 9d85 330d a005
000003e0: f7cf 9805 99a2 9a05 1bed 9685 3949 a605
000003f0: f4e2 a005 f39a b205 77e6 a485 cf7c a485
7.19125e-13 3.738538e-13 -1.0423922e-13 3.2552835e-14 -1.0146661e-13 1.1594493e-13 -1.0302454e-13 -2.250988e-13
-5.821157e-14 2.4795598e-13 -2.7790557e-13 1.3303573e-13 -1.738348e-13 -2.5322905e-13 7.575721e-14 6.9883805e-15
4.2527844e-14 -2.5395043e-13 1.5446615e-13 1.591595e-13 1.4819656e-14 -4.015443e-13 1.8684908e-13 -4.963239e-13
-1.7341468e-13 -8.4890204e-14 -4.2512706e-13 -2.9315022e-13 -1.1245644e-14 1.6279171e-13 9.927334e-14 1.4868316e-13
2.3459162e-13 1.5823716e-14 8.0366235e-14 -6.8171765e-13 1.6324295e-13 2.3281802e-13 -2.7438277e-15 5.0812495e-13
1.6325689e-13 -2.3935294e-13 -8.1441533e-14 4.1957944e-13 -1.1887578e-13 9.093887e-14 1.3415434e-13 1.4050473e-13
1.8211571e-14 -2.6339155e-13 -8.633246e-14 3.2170179e-13 -3.9118104e-13 2.9627895e-13 -3.252013e-13 -1.9511762e-13
1.1518438e-13 2.4399772e-13 2.0786717e-14 3.0129355e-13 -2.3694016e-13 3.1716416e-13 5.3684697e-14 -2.3908577e-13
-1.5449496e-35 -1.4695832e-35 -1.542398e-35 1.4999972e-35 -1.5118165e-35 1.5230742e-35 1.11106924e-35 -1.6609247e-35
1.4860546e-35 1.4673144e-35 -1.5203224e-35 -1.5105151e-35 1.4549777e-35 1.6154016e-35 1.5663901e-35 1.4431684e-35
1.4331286e-35 1.4965775e-35 1.4044754e-35 1.5060935e-35 1.5638117e-35 1.5378883e-35 1.5424163e-35 -1.4370397e-35
1.5541109e-35 -1.4219431e-35 -1.5378343e-35 1.5063405e-35 1.5081293e-35 -1.4490182e-35 -1.4728735e-35 -1.4698126e-35
-1.5181656e-35 1.4815558e-35 1.52612e-35 -1.4779863e-35 -1.5244309e-35 1.5359798e-35 -1.016007e-35 1.3989808e-35
-1.3944038e-35 1.5208049e-35 1.5427611e-35 1.5112126e-35 1.5546472e-35 1.4270216e-35 1.5270211e-35 -1.6467846e-35
1.5448383e-35 -1.4251767e-35 1.4843364e-35 1.3847808e-35 1.487719e-35 -1.4830735e-35 1.6906474e-35 1.4382193e-35
1.6018297e-35 -1.4388797e-35 1.5563383e-35 -1.536308e-35 1.5328382e-35 -1.4479543e-35 1.5405864e-35 1.4128053e-35
-8.974153e-05 -6.730696e-05 -0.00030798616 0.00037895565 -2.3915893e-05 0.00046776136 5.430811e-05 0.00016547437
6.058157e-05 -4.35416e-06 -0.00034097847 -0.0002691942 -0.00017199377 -0.00010782518 4.772105e-05 0.00019293462
0.00016720979 0.00011023144 0.00021385141 -0.00014162787 3.8220674e-05 5.0572344e-05 -0.0003066179 9.603921e-05
0.00034616052 -0.00012021028 9.298331e-05 4.111658e-05 -0.00023325215 -0.00031613334 -0.00020448412 -0.00010877934
-3.726565e-05 -5.927035e-05 2.1809901e-06 0.00021531919 0.00018381557 6.0331116e-05 3.1177664e-05 1.133445e-05
0.00019560623 0.00034732392 -5.7611556e-05 -6.047182e-05 4.3589724e-05 -9.471948e-05 0.00035265813 -0.0001613429
-5.081491e-05 3.1989373e-05 0.00013715884 -4.500187e-05 0.00030305298 -8.8716355e-05 5.091204e-05 0.00026360925
-6.8189715e-05 -0.00011139824 0.00021379675 -5.912969e-05 0.00023312333 0.00040557884 -1.189801e-06 0.00015742565
-1.498242e-35 1.4726752e-35 1.4124315e-35 1.5278682e-35 -1.4650946e-35 -1.5389594e-35 -1.5353992e-35 1.48053e-35
-1.4418725e-35 -1.4417118e-35 1.11129904e-35 1.5237927e-35 1.5260804e-35 -1.4772764e-35 6.295033e-36 1.413344e-35
-1.4810442e-35 -1.5275612e-35 1.5588166e-35 -1.5879543e-35 1.0524566e-35 1.4566278e-35 1.4655855e-35 1.4355845e-35
-1.4180569e-35 1.4919147e-35 1.5265272e-35 -1.5065468e-35 1.5735846e-35 -1.4427856e-35 -1.498348e-35 -1.399271e-35
-1.3959334e-35 1.451329e-35 -1.5405679e-35 1.5305601e-35 1.5459773e-35 -1.4673361e-35 -1.4325963e-35 -1.4555216e-35
1.5668202e-35 -1.5773863e-35 4.266956e-37 1.4677162e-35 1.5178617e-35 -1.4364022e-35 -1.5304443e-35 1.5250289e-35
1.4276916e-35 1.4434656e-35 1.4262179e-35 1.5540573e-35 1.47334e-35 1.5114273e-35 -1.4841853e-35 1.5051176e-35
1.4370406e-35 1.454182e-35 -1.4193031e-35 1.5637463e-35 1.5129697e-35 1.6795959e-35 -1.5507145e-35 -1.5468333e-35

core.core.fc.0.0.bias f4 [128]
00000000: 40ad a42c 56c3 a285 6cce 52b6 d749 9a05
00000010: 1088 a385 5a63 930c b387 492b cf96 8e05
00000020: 154b efae 875b 9305 6d43 5ab5 c54d 9805
00000030: 2105 a185 306d 2496 546e 9a05 a7c7 9a85
00000040: 3e30 e1ba f948 a505 b5a2 8585 7eab 9985
00000050: 6e07 9e85 a797 4638 ba25 a00a b57a 9a85
00000060: 9f0d 521f a895 63b9 3024 a185 207b edb7
00000070: 2e25 a185 2df5 a105 39c2 3a11 9914 980b
00000080: acba 0ab5 7a0f ed29 d6c7 683e e410 a8bb
00000090: d93c 9905 4a3b 9b05 039a 9f05 b5b8 a385
000000a0: 84c6 3f20 5004 9b85 f048 8005 561e 9785
000000b0: 823d a585 aeeb e5ba b860 9b85 12f7 9d05
000000c0: c093 9f85 2fc3 2112 2883 450d 46bd 9805
000000d0: 56f1 9d85 36e9 4e3e 749f 9c05 bc04 158f
000000e0: 2e37 2b05 4a2d a505 f55f 053a fc72 c3b9
000000f0: 5cca 8e24 76ee a105 1e63 00b9 f0c7 2dbb
00000100: 0b38 b13e 6712 9f05 94a0 6ead 4cb0 9985
00000110: 9328 9e85 79ce 1d1c 1d93 9f05 5716 a33e
00000120: 95f8 fbb8 585b 3b0f ad53 9985 8caf 9b85
00000130: 4289 9c05 36fa a385 9abb 9685 7620 9e05
00000140: 0d7a a305 f085 9d05 696d d33a 7362 ecb8
00000150: 7f68 9b85 98e9 8bb7 b7cb a485 7578 7305
00000160: 8136 9b85 8459 9c85 6deb 7a38 4465 babb
00000170: e1a0 9e85 de62 9c85 ce6a 9035 2d6f 9705
00000180: 9829 d63d 3caa 3008 90ef 3b3e a240 a105
00000190: e311 9885 24b9 e3b8 4ceb c210 8fd9 1433
000001a0: 8117 a485 2b7c 9a05 8d4c 9605 871b a185
000001b0: 5212 a005 3658 cf1c 1a00 d6ba 723a 51b9
000001c0: b33b 9e85 a10e 9d85 ce83 a285 6d7a a285
000001d0: f880 9c85 4bab 0332 3a6e 5014 3722 7785
000001e0: b3ee eb36 fe1a 2632 faf6 9f85 4aaf a085
000001f0: 1a0c 9985 90f6 9907 68b8 1b85 ce11 9805
4.680395e-12 -1.5306162e-35 -3.1412592e-06 1.4509215e-35 -1.5378428e-35 2.2708731e-31 7.1597865e-13 1.3409014e-35
-1.0881799e-10 1.3857435e-35 -8.1309446e-07 1.432258e-35 -1.5142251e-35 -1.3282268e-25 1.4522619e-35 -1.4555431e-35
-0.0017180515 1.5543331e-35 -1.2567029e-35 -1.4451047e-35 -1.4860978e-35 4.7348116e-05 1.542163e-32 -1.4527166e-35
4.4480497e-20 -0.00021704158 -1.515366e-35 -2.8309936e-05 -1.5154025e-35 1.523043e-35 1.4732662e-28 5.857926e-32
-5.168065e-07 1.0527599e-13 0.22732481 -0.0051289666 1.4410403e-35 1.459791e-35 1.5008863e-35 -1.5396297e-35
1.6244013e-19 -1.4577714e-35 1.2063855e-35 -1.4211115e-35 -1.553912e-35 -0.0017541551 -1.4611659e-35 1.4854968e-35
-1.5006563e-35 5.1043225e-28 6.0863185e-31 1.436354e-35 -1.4852862e-35 0.2020615 1.4728743e-35 -7.347179e-30
8.050516e-36 1.5533162e-35 0.0005087846 -0.00037278968 6.1925494e-17 1.5227964e-35 -0.00012243955 -0.0026516877
0.3461307 1.4959048e-35 -1.3564389e-11 -1.4452812e-35 -1.4873153e-35 5.22138e-22 1.5006329e-35 0.3185298
-0.00012014915 9.237404e-30 -1.4418788e-35 -1.4640616e-35 1.472059e-35 -1.542036e-35 -1.4174846e-35 1.4870173e-35
1.537328e-35 1.481341e-35 0.0016130629 -0.000112716945 -1.4614516e-35 -1.6678867e-05 -1.5497319e-35 1.14479296e-35
-1.4596152e-35 -1.4703052e-35 5.9823902e-05 -0.0056883413 -1.4917346e-35 -1.4706488e-35 1.075992e-06 1.4240811e-35
0.10457152 5.3163183e-34 0.18353105 1.516411e-35 -1.4300582e-35 -0.000108586886 7.688204e-29 3.4656804e-08
-1.543112e-35 1.4527703e-35 1.4134053e-35 -1.5150479e-35 1.5053058e-35 1.3720913e-21 -0.0016326935 -0.00019953566
-1.4880179e-35 -1.4769583e-35 -1.5282824e-35 -1.5279379e-35 -1.4717545e-35 7.664151e-09 1.0523055e-26 -1.16201685e-35
7.031334e-06 9.668609e-09 -1.5043013e-35 -1.5110719e-35 -1.4392496e-35 2.3165798e-34 -7.321935e-36 1.4300552e-35

core.core.fc.1.0.weight f4 [64, 128]
00000000: a23d 4e26 5a15 9785 0029 20b7 03fc a205
00000010: fe99 a385 4010 3808 7ae7 ec24 abe3 9b05
00000020: 16a5 c52b 55d2 a605 ca42 1c32 170f 9b85
00000030: e53f a205 4bcc 8e13 46c4 a005 1dc8 a905
00000040: f919 ddb7 849f a905 278b a285 ca22 a085
00000050: dad6 a005 f14c e331 0bdf c286 c057 9a85
00000060: 5447 4918 b808 ac38 11a1 a685 7c51 4936
00000070: 7a7c a105 5f14 9a05 10a3 5d0a 26ab 7888
00000080: 080a ffb2 dd2f 8e23 1f7d d539 38bd 23b7
00000090: 55ed 9905 fca1 aa85 86ac a105 f1ad a705
000000a0: d28f 9c19 da7c 9a05 eb4d a485 41f8 b105
000000b0: 9bc9 a605 a955 1438 a892 9585 946e 9e85
000000c0: 19b1 a185 d836 008a ee98 038b 40d6 9885
000000d0: e4a4 9c85 f3a7 3239 cf01 a685 949d fb0a
000000e0: 6aca 9c85 c1c1 9b05 f425 4633 9e9a 86b5
000000f0: 84f1 a1a1 83df 9d05 685f fab4 6404 a438
00000100: f61a 2cb8 6f61 a085 c81b aca9 b006 9f05
00000110: 5427 9d05 36b2 5d13 e88e a385 be5c 8e37
00000120: c5c7 8735 f7b1 c58a 20fd a185 a37f a505
00000130: 3f5e a685 4f34 9e05 73a6 a385 b530 aa85
00000140: 67de a705 a635 b705 7e6e 23b8 502e d8b4
00000150: d8c7 a385 144f f2b5 64b3 a405 6244 a185
00000160: 0ad3 a705 9500 a705 5330 5835 9481 9db8
00000170: 0bcf a405 6b66 a685 d9c9 052f cb74 a605
00000180: 8e38 6e37 180f a485 84c1 e637 d0ff a705
00000190: 7761 9805 7a6c 9ab6 e72d 830e 4082 bcaf
000001a0: 2633 9b05 1e1a 9505 dcd5 ac05 bbb3 a285
000001b0: c923 9c05 bb44 5e15 ca6d dfb7 5f7b b438
000001c0: 82c7 a505 4221 a685 6e31 a605 7ad1 b105
000001d0: d73b a505 bddf 892b 7ec4 bb8f ab7f 9c05
000001e0: 3b53 80b6 9656 c52e 64aa a885 dc92 9d84
000001f0: 1042 a705 b570 b205 0f38 a105 206f a285
00000200: 000c 6923 8192 9b05 2636 a237 4374 a385
00000210: ee6f a385 d526 ae8c 3f78 3a25 154d a285
00000220: dd7d f9ad 86f7 a285 61ad ffb4 6d88 9685
00000230: a274 9d85 84d3 9714 9064 9805 e658 a685
00000240: fa2b ef39 091b a105 dd97 9d85 cf63 a305
00000250: b659 9405 1cd5 0f33 6de5 ef88 32a0 8b85
00000260: 88a5 f498 d969 edba c7eb 9805 a043 f7b4
00000270: bd8d a505 0a86 9f05 64dc a18d 48f7 c388
00000280: 73e4 7a34 fd41 5623 37f7 03bc a308 8c38
00000290: 0543 9f05 8127 9585 9be8 a405 d0ba a005
000002a0: 16c4 109b 2e87 9a85 7f19 a105 4a7a 9505
000002b0: 7297 ae85 8bd5 4239 701a 9505 8ef6 a085
000002c0: ede4 9b05 a046 c38c d3a4 778c b7e8 a105
000002d0: 5636 ad85 d110 5dbb c602 8685 b62e b18d
000002e0: 5797 a385 07b2 9f05 65ce d834 712e 84b7
000002f0: 60e0 71a0 3c9c 9e85 cab7 e2b7 6ee2 fbb9
00000300: 6380 843b eb0b 9705 dcf8 232c 8880 a685
00000310: efd3 9685 a337 6e96 a38c 9b05 be9e fa3a
00000320: c0b5 41b7 932a 3b8c 335e 9305 f51a a505
00000330: 5ed4 9985 2de7 9c85 be8a a405 5e2a 9685
00000340: 5544 9785 5427 a585 e10f 0a3a 3264 6638
00000350: 58ce a005 ee64 3a37 e6dd a485 b72b a205
00000360: 8c28 a585 4bb9 9485 d241 6eb6 f0fa 7138
00000370: 23db 9f85 b61e a385 75f9 5d30 fdb6 9b85
00000380: 0813 bbb6 d6f1 9786 47bf 153b 8c8a 9c05
00000390: 972b 9a85 bfa4 b4b7 28e5 338f c130 33b3
000003a0: a990 9405 60ee 9d05 d2f2 9905 2669 9a05
000003b0: 2db5 a305 e410 e296 790d a637 bbe5 bcba
000003c0: b084 9b85 8747 9505 6de1 9485 5796 a305
000003d0: 9305 9b05 0f58 a72c e3fc f48f ea9c 9a05
000003e0: 3534 95b7 6295 0a32 dc0e 9b85 3c1b a285
000003f0: 1969 9885 31ea 3c05 44f3 9c85 8113 9705
7.1554135e-16 -1.4207815e-35 -9.546289e-06 1.5326981e-35 -1.5385014e-35 5.5389588e-34 1.0274082e-16 1.4659762e-35
1.4043512e-12 1.5687829e-35 9.095581e-09 -1.4581673e-35 1.5257878e-35 3.6047288e-27 1.5118427e-35 1.5966194e-35
-2.6357347e-05 1.595128e-35 -1.5285523e-35 -1.5059107e-35 1.5125252e-35 6.6153167e-09 -7.330242e-35 -1.4514325e-35
2.6014653e-24 8.203223e-05 -1.5669731e-35 2.9998764e-06 1.5186093e-35 1.4489574e-35 1.06714316e-32 -7.483097e-34
-2.9690469e-08 1.5415942e-17 0.00040719748 -9.759613e-06 1.4475233e-35 -1.6046227e-35 1.5203742e-35 1.57685e-35
1.618811e-23 1.4527954e-35 -1.5451108e-35 1.6736194e-35 1.5684623e-35 3.5365727e-05 -1.4065766e-35 -1.4898869e-35
-1.5205423e-35 -6.173291e-33 -2.5344734e-32 -1.4372714e-35 -1.4730741e-35 0.00017037969 -1.561123e-35 2.4229695e-32
-1.4744525e-35 1.4647304e-35 4.6134986e-08 -1.0028778e-06 -1.0973713e-18 1.4846314e-35 -4.6635546e-07 7.820947e-05
-4.1033105e-05 -1.5082119e-35 -7.643154e-14 1.4954745e-35 1.4778656e-35 2.7981986e-27 -1.5380942e-35 1.6970906e-05
1.0116424e-06 -1.9037353e-32 -1.523335e-35 1.5563412e-35 -1.5645186e-35 1.4877464e-35 -1.538959e-35 -1.6004615e-35
1.5786302e-35 1.7228945e-35 -3.8965132e-05 -4.0266832e-07 -1.5401857e-35 -1.805342e-06 1.5488384e-35 -1.5165487e-35
1.5782128e-35 1.5704818e-35 8.053659e-07 -7.510479e-05 1.5498541e-35 -1.5648187e-35 1.216799e-10 1.5653468e-35
1.4199073e-05 -1.542803e-35 2.750825e-05 1.5798575e-35 1.4329814e-35 -4.602186e-06 3.2338196e-30 -3.428955e-10
1.4594919e-35 1.4021487e-35 1.6253362e-35 -1.530043e-35 1.4683315e-35 4.4886762e-26 -2.6634796e-05 8.6060485e-05
1.5589813e-35 -1.5622782e-35 1.5628723e-35 1.672195e-35 1.5538507e-35 9.796535e-13 -1.851531e-29 1.4717067e-35
-3.8243866e-06 8.9739036e-11 -1.5861236e-35 -3.704539e-36 1.5728872e-35 1.6780442e-35 1.516096e-35 -1.5275228e-35
1.2633496e-17 1.4629947e-35 1.933712e-05 -1.5371154e-35 -1.5369563e-35 -2.6832316e-31 1.6173669e-16 -1.5262722e-35
-2.8363917e-11 -1.5325333e-35 -4.76236e-07 -1.4156047e-35 -1.4807053e-35 1.5330532e-26 1.4330952e-35 -1.5643221e-35
0.00045618397 1.5150298e-35 -1.4819995e-35 1.536511e-35 1.3950808e-35 3.3488604e-08 -1.4438227e-33 -1.3130344e-35
-6.3239666e-24 -0.001811321 1.4380622e-35 -4.605654e-07 1.5568592e-35 1.5001526e-35 -9.975448e-31 -1.1794271e-33
2.3366174e-07 1.1614937e-17 -0.008054546 6.677329e-05 1.4976907e-35 -1.4026404e-35 1.5507932e-35 1.5114952e-35
-1.197476e-22 -1.4531748e-35 1.5149733e-35 1.4056815e-35 -1.6418514e-35 0.00018580833 1.4021604e-35 -1.5136898e-35
1.4660224e-35 -3.0087013e-31 -1.9077788e-31 1.5225853e-35 -1.6288802e-35 -0.0033731947 -1.2602318e-35 -1.0919712e-30
-1.538404e-35 1.5017685e-35 4.0383307e-07 -1.5757252e-05 -2.0487733e-19 -1.491564e-35 -2.7026883e-05 -0.00048043154
0.004043625 1.420435e-35 2.3301838e-12 -1.565778e-35 -1.4183784e-35 -1.9243043e-25 1.4627792e-35 0.0019120795
-1.1546013e-05 -1.4418768e-31 1.3858417e-35 1.5526428e-35 -1.4466062e-35 -1.475509e-35 1.5473452e-35 -1.4121495e-35
-1.4225073e-35 -1.5530972e-35 0.00052666484 5.4929587e-05 1.5122126e-35 1.1109963e-05 -1.5503998e-35 1.5250465e-35
-1.553142e-35 -1.3985919e-35 -3.5503076e-06 5.769258e-05 -1.5032786e-35 -1.5339728e-35 8.075383e-10 -1.4643349e-35
-5.57525e-06 -5.7155233e-35 0.0022849606 1.4721064e-35 -1.4498103e-35 -2.1534388e-05 -8.869515e-30 -4.1721027e-08
1.3970993e-35 1.4851774e-35 1.4477249e-35 1.4520716e-35 1.5395e-35 -3.6522929e-25 1.9795016e-05 -0.0014411727
-1.4624872e-35 1.4038168e-35 -1.4000661e-35 1.5383672e-35 1.4578178e-35 4.756202e-12 -2.4157666e-29 1.4539732e-35
-1.7786495e-05 8.066623e-09 -1.4581588e-35 -1.5244411e-35 -1.4332618e-35 8.882732e-36 -1.4759531e-35 1.4207136e-35

core.core.fc.1.0.bias f4 [64]
00000000: e40c 8f38 902f c63a 796a b438 5125 f037
00000010: c31b 76bb ff5b 8237 f522 2f38 50c6 803a
00000020: 5143 abbc d6f7 e5b6 d339 fa38 7c7f b93d
00000030: cbda cd3d 38c1 a836 3f42 843d 1c30 6b33
00000040: 160c 4837 a9af f836 e8b4 473b 8ddf e93d
00000050: 3e7c 0e38 4672 c03c 9153 db3d 2684 4838
00000060: e64e e839 ee35 123a 6784 b8b8 8c86 c63d
00000070: 810f 6637 5ec5 e236 b23d ad3d a51a a53d
00000080: e72b 0a39 0188 b4b9 7815 b538 80b5 4f37
00000090: 8f58 4d3d f221 043e f785 0639 cc55 10b8
000000a0: fc34 d83d f756 3b3d 59f3 fc37 0958 cf3d
000000b0: 255e 953b 4973 0d3b 264b e33d 7915 b13c
000000c0: 07ab 2d3a 491a f33d cc78 253c be2a f6b7
000000d0: 6dc1 e33d e5b1 1a39 863a 693c 72d2 f43d
000000e0: 69d1 a93d 76eb 8b39 db68 c93d 9993 b939
000000f0: a359 02ba ee42 973d cfdf 0a39 a82d 19bd
6.8211724e-05 0.0015120376 8.602901e-05 2.8627606e-05 -0.0037553168 1.5540047e-05 4.1755808e-05 0.0009824727
-0.020906122 -6.8535837e-06 0.000119316996 0.09057519 0.10051497 5.029284e-06 0.06457948 5.4758956e-08
1.1923743e-05 7.4114255e-06 0.0030472819 0.11419592 3.3971148e-05 0.02349199 0.107092984 4.780679e-05
0.00044309272 0.0005577494 -8.7984656e-05 0.096936315 1.3712678e-05 6.7583014e-06 0.08459033 0.08061723
0.0001317706 -0.00034433606 8.6347514e-05 1.238042e-05 0.050133284 0.12903574 0.00012829142 -3.441218e-05
0.10556981 0.045737233 3.0154059e-05 0.10124213 0.004558342 0.0021583608 0.11098318 0.021616684
0.00066249113 0.11870248 0.010099601 -2.9345389e-05 0.111208774 0.00014752855 0.0142351445 0.11954202
0.08291895 0.00026687578 0.09834453 0.00035395919 -0.00049724634 0.07385813 0.00013244081 -0.037397057

readout.readouts.bex_20230623_denoised.location.weight f4 [2, 64]
00000000: 1108 e9b8 2c37 623c d396 3839 1e9b 7938
00000010: 4e4a b0bc 1189 3538 5878 0039 73d2 473b
00000020: 47e0 4fbf 5ee3 d5b6 1910 cc39 7ed2 753e
00000030: c950 ae3e b260 0e37 ea11 b73d 8446 8534
00000040: 43c2 8538 c451 0938 023b 0bbe 3d9f cb3e
00000050: dd0e d538 565a 083e 9b7a cd3e 01ac 1d39
00000060: 1933 a53a d3ef af3a 58bc a536 6369 5b3e
00000070: 708d 4938 8737 a337 caff 173e 074a 5f3e
00000080: cd4a a439 6a0c 04ba 016d da38 def4 3e38
00000090: cdb4 2e3e e54a f03e 1fa8 cf39 9454 cf38
000000a0: 3a67 023d c046 1d3e c510 4d38 1c01 063e
000000b0: 541a 3d3d 985d cd3c bf1d 893d 56e9 12be
000000c0: a59a 3a3b 3fe2 c73e cda5 ee3c 1689 9a38
000000d0: 1a29 c63e 51a6 96b8 b90b 0ebf 15c4 cb3e
000000e0: a112 9c3e aea7 c639 64b5 e03b b9c0 053a
000000f0: 2dfa a4ba f2bf 82bb 2f48 7e3a f656 6dbf
00000100: 8ddb cab9 e201 683c 28d0 f7ba 4b5d b6b9
00000110: 6414 8e3d 5533 1ab9 215f 11ba 730d 8ebc
00000120: 5d76 933e d2e0 0c38 a5a6 01bb f183 a03e
00000130: 2765 473e c218 0eb8 c426 a33e e67a b3b4
00000140: 909f d5b8 eee8 a2b8 43fe 7f3e 96d8 ad3e
00000150: 4d85 06ba dc56 5bbd 6dcc 573d 831d 57ba
00000160: 844d 0ebc 6607 53bc 8809 3d3a 23dd d73e
00000170: b68f 07b9 7f5e 83b8 77c3 ec3e 6e2e 823e
00000180: e20a 24bb a50e a23b 8763 06bb ea55 15b9
00000190: 1baa 4a3e a47c 1c3c d0d2 16bb 09e5 0539
000001a0: 220c c2be 234d 2a3e 361b d3b9 8204 adbe
000001b0: a637 c63d 007e 113d 0341 cabe cfd9 aa3e
000001c0: 39c7 24bc 39bb 8b3e fa4b aabd 9f12 1a3a
000001d0: 0c2e 233e a162 acbb fb19 483f 933b e0bd
000001e0: 61aa f23d 42be e7bb 4d04 b2be ff07 18bc
000001f0: 8d20 2c3c e6cf 083f 8c8d b539 14fb 8a3e
-0.00011111808 0.013807099 0.00017603794 5.951069e-05 -0.021519806 4.3281416e-05 0.00012251863 0.0030490428
-0.81201595 -6.3743637e-06 0.00038921906 0.24006078 0.3404601 8.486373e-06 0.08938964 2.4824487e-07
6.378118e-05 3.2739496e-05 -0.13596728 0.39769927 0.000101594 0.1331571 0.40132603 0.00015036763
0.0012603729 0.0013422914 4.9393093e-06 0.2142692 4.805386e-05 1.9456971e-05 0.1484367 0.21805583
0.00031336249 -0.000503725 0.000104153536 4.552758e-05 0.17061158 0.4693214 0.00039607377 9.886283e-05
0.031836726 0.1535902 4.8891427e-05 0.1308636 0.046167687 0.025069043 0.06695127 -0.14346823
0.0028473523 0.390398 0.029131794 7.3688265e-05 0.38703233 -7.183536e-05 -0.5548664 0.39798036
0.30482963 0.00037890434 0.006857561 0.0005102265 -0.0012586765 -0.003990167 0.0009700087 -0.92710817
-0.0003869202 0.014160605 -0.001890664 -0.00034783254 0.06937483 -0.00014705707 -0.00055454863 -0.017340397
0.28801242 3.358798e-05 -0.0019783166 0.31350663 0.1947218 -3.3878496e-05 0.31865513 -3.3430769e-07
-0.00010186352 -7.7681485e-05 0.24999337 0.33954304 -0.00051315577 -0.053549632 0.05268519 -0.0008205997
-0.008685473 -0.012880182 0.0007211198 0.421609 -0.0001292814 -6.264168e-05 0.46242878 0.25426048
-0.00250309 0.0049455934 -0.00205061 -0.00014241753 0.19791453 0.009551201 -0.0023013838 0.0001276919
-0.37899882 0.16630988 -0.0004026533 -0.33792502 0.09678583 0.035520554 -0.39502725 0.333693
-0.010057264 0.27291277 -0.08315273 0.00058774085 0.15935534 -0.005260781 0.78164643 -0.10948863
0.118489034 -0.007072241 -0.34768906 -0.00927925 0.010505808 0.5344223 0.0003462847 0.27144682

readout.readouts.bex_20230623_denoised.location.bias f4 [2]
00000000: b47f a03e e201 e33c
0.3134743 0.027710859

readout.readouts.ken_20230614_denoised.location.weight f4 [2, 64]
00000000: a657 9d39 b690 cbba 1b51 68b9 3542 2fb8
00000010: 28ad 513d 491a a8b7 8206 a9b8 8a86 dcba
00000020: 664a 213f b3bf 1437 16cd 8fb9 7999 833b
00000030: 894f eabd 9b30 15b7 eebd ef3d e517 c9b3
00000040: 440c c1b7 5b8c 84b7 7bf2 223e 8eed bbbd
00000050: 22e6 a1b8 9139 11bd 91b9 1cbe 441b e8b8
00000060: ce67 69ba 64c1 88ba fb7f 9539 3ba6 f53d
00000070: b6f0 cdb7 c4d7 1ab7 31cc 9d3d 3e28 06bd
00000080: ddaa a4b9 640a 403c db59 72b9 5888 d4b7
00000090: f148 a53c 7685 7dbe 29b0 9ab9 3aa5 8db9
000000a0: d0f5 153d 6ce0 343d 9328 54b8 92a8 1cbd
000000b0: 3ef1 2a3d da3d 4bb8 378b a13c 4230 5c3e
000000c0: c65f 9fba ee9f e4bd efaf 26bc eaa2 4e38
000000d0: 9c32 17be 9a65 f8b9 16f7 f63e 9e51 0ebe
000000e0: 541f c6bd 31e5 26ba 0618 8a3d e9aa 54ba
000000f0: f3e4 123b 2cc8 453e d615 7a38 f354 1a3f
00000100: 4838 9bba 8146 8e3c 0918 86ba 6084 aab9
00000110: 9bc6 413d 4947 1ab9 4ff9 cbb9 a336 20bc
00000120: a3b7 2abd fcd7 ef37 6423 80ba 329e ae3e
00000130: e4e7 9f3e 3858 01b8 c4ba 903e 9b57 44b4
00000140: 5c26 34b8 23a4 33b8 ba8b 203e 8399 f53e
00000150: 22cc 97b9 8a2a c33b 6d63 663e 4e9d f3b9
00000160: 21df a1bb 1719 f3bb 494e 093b b538 d33e
00000170: 76a1 a9b8 de4c 5db8 9b6c c73e 2a90 a13e
00000180: f1b0 beba f948 913c ba85 a0ba 4fff a7b8
00000190: 4a2e 343e a74d 853e f3f4 9eba 1938 153a
000001a0: 95ef bcbe ae1e 3e3e 62e6 b1b9 cad0 8ebe
000001b0: c359 3f3d 7a14 ca3c 79ae babe 68fc 3a3e
000001c0: 7977 a5bb 7286 df3e f2b8 4fbd 3239 0f3a
000001d0: 8817 a13e 3ed2 3abb 8f21 c33e c018 b23c
000001e0: bf28 643e 4263 86bb 6a8f b5be 67de aebb
000001f0: f2cc 9e3b cac8 c73e 0c74 3539 0de5 e5bc
0.00030010677 -0.0015530798 -0.00022155458 -4.178491e-05 0.051190525 -2.00394e-05 -8.05976e-05 -0.0016824764
0.6300415 8.866121e-06 -0.00027427886 0.004016098 -0.114409514 -8.892409e-06 0.11706148 -9.364138e-08
-2.3013105e-05 -1.5800984e-05 0.15912811 -0.09176169 -7.719944e-05 -0.03545529 -0.15305163 -0.00011067701
-0.0008903713 -0.0010433611 0.00028514848 0.119945966 -2.4549994e-05 -9.229352e-06 0.07704962 -0.03275322
-0.0003140782 0.011721227 -0.00023112392 -2.533586e-05 0.020176383 -0.24757943 -0.00029504418 -0.0002701672
0.03661138 0.044159338 -5.0582526e-05 -0.0382467 0.041733973 -4.8456575e-05 0.019719703 0.21502784
-0.001215928 -0.11163317 -0.010173782 4.9265953e-05 -0.147654 -0.00047377945 0.48235387 -0.13898322
-0.09673944 -0.00063665496 0.06742863 -0.0008112626 0.0022414296 0.19314641 5.962498e-05 0.6028587
-0.0011842335 0.017367603 -0.0010230552 -0.00032523554 0.047308546 -0.0001471314 -0.00038904927 -0.009778651
-0.041679036 2.8591596e-05 -0.0009776172 0.34105068 0.31231606 -3.0838157e-05 0.2826749 -1.8285793e-07
-4.295107e-05 -4.282979e-05 0.15678301 0.47968683 -0.00028953055 0.005955999 0.22498865 -0.00046465773
-0.004939929 -0.0074187624 0.0020951203 0.41254202 -8.0886224e-05 -5.2762094e-05 0.38950047 0.315553
-0.0014548582 0.017734991 -0.0012246885 -8.0107355e-05 0.17595783 0.26035807 -0.0012127444 0.0005692258
-0.36901537 0.18566391 -0.0003393172 -0.27893668 0.046716463 0.024667967 -0.36461237 0.18260348
-0.0050496426 0.4365726 -0.050713487 0.000546354 0.31463265 -0.0028506662 0.3811154 0.021740317
0.22281168 -0.004101188 -0.3546098 -0.005336571 0.0048462087 0.39020377 0.00017304736 -0.028063321

readout.readouts.ken_20230614_denoised.location.bias f4 [2]
00000000: 7279 1f3e 899f 51bd
0.15573671 -0.051177535
