artifacts/poses_to_location/20250820141948/best_model.pt (torch, 17973 bytes, 18 tensors)

linear.bex_20230623_denoised.location.weight f4 [2, 63]
0	0xbf153b1e	-0.5829333
1	0x3de4e3b5	0.11176244
2	0x3cadb176	0.021202784
3	0xbf1b1817	-0.60583633
4	0x3da2fb34	0.079580694
5	0xbe208480	-0.15675545
6	0xbeb35034	-0.35022128
7	0x3e5ea99b	0.21744387
8	0xbdc511a2	-0.09622504
9	0xbe16cdb4	-0.14726907
10	0x3e8d11ae	0.2755255
11	0xbdde67cd	-0.10859642
12	0xbd428bbb	-0.04749654
13	0x3f0fbff1	0.56152254
14	0xbde3a0ec	-0.11114678
15	0x3f00a595	0.5025266
16	0x3dcb1065	0.099152364
17	0xbe0127c9	-0.12612833
18	0xbeefcb9b	-0.46835026
19	0xbddffa29	-0.10936386
20	0xbcb44c3d	-0.02200901
21	0xbee3b3b6	-0.44473046
22	0xbd727a3c	-0.059198603
23	0xbd893692	-0.066998616
24	0xbeac5439	-0.33658007
25	0xbd456f2a	-0.048201717
26	0xbe2326fb	-0.15932839
27	0xbef7e4d2	-0.48416764
28	0x3e29d1bc	0.16583914
29	0xbca6f9bd	-0.020382756
30	0x3e2fb754	0.17159778
31	0xbd7305b3	-0.059331607
32	0xbe0e592d	-0.13901205
33	0x3f06880e	0.5255135
34	0xbe0442a1	-0.12916042
35	0xbcd6789b	-0.026180556
36	0xbe4e7ac2	-0.20164016
37	0xbd40f0ec	-0.04710476
38	0xbde2bb3b	-0.11070868
39	0x3dea6a39	0.114460416
40	0xbe77b39a	-0.24189606
41	0xbcb48c81	-0.022039654
42	0xbe9db615	-0.3080298
43	0x3ea36884	0.31915677
44	0xbd31d1ac	-0.04341285
45	0x3e3c6a98	0.18400037
46	0x3f48967b	0.78354615
47	0x3dff905b	0.124787055
48	0xbeeda01d	-0.4641122
49	0xb80a0b83	-3.2912485e-05
50	0xb86836e9	-5.536425e-05
51	0x3e8b596d	0.27216664
52	0xb50bf531	-5.2138336e-07
53	0x352de84a	6.478555e-07
54	0x3ddc5373	0.10758104
55	0x3edd1f48	0.43187928
56	0xbe555d67	-0.20836411
57	0x3ef04916	0.4693076
58	0x3eec0364	0.46096337
59	0xbf2007d7	-0.6251196
60	0x3f3dd864	0.7415831
61	0x3eed287f	0.4631996
62	0x35d9b19c	1.6219451e-06
63	0xbefab769	-0.48968056
64	0x3e1eaa24	0.15494591
65	0xbc3042b3	-0.01075809
66	0xbf1db860	-0.6160946
67	0x3e183dfb	0.14867394
68	0x3d340767	0.043952372
69	0xbf22d42b	-0.6360499
70	0x3e83f084	0.25769436
71	0x3e502d0c	0.20329684
72	0x3e82b93a	0.25531942
73	0x3ef22acc	0.47298276
74	0x3d49abcc	0.049236104
75	0x3ef59a88	0.4796946
76	0x3f147cf2	0.5800315
77	0xbd99e40b	-0.07514199
78	0x3eec22b4	0.46120226
79	0xbd9046f4	-0.07044783
80	0x3e69899e	0.22806403
81	0xbf4126d8	-0.75449896
82	0x3e17e708	0.14834225
83	0xbdaf4275	-0.085575975
84	0xbf05f0e3	-0.5232069
85	0x3e2611cb	0.16217725
86	0xbd9a8a2e	-0.07545887
87	0xbee04a64	-0.43806756
88	0xbe00d71e	-0.1258206
89	0xbdf0c973	-0.117571734
90	0x3eb41f0d	0.3517994
91	0x3e19554b	0.14973943
92	0xbdecd8b6	-0.11564772
93	0x3f1ab637	0.6043429
94	0x3e1566ae	0.1458995
95	0xbdec027a	-0.1152391
96	0x3f113d40	0.56734085
97	0xbe18012f	-0.14844202
98	0xbe8e5870	-0.27801847
99	0x3ef252f3	0.4732891
100	0xbe0cc3f7	-0.1374663
101	0xbd6d3feb	-0.057922285
102	0x3f1bc96e	0.6085423
103	0xbe3b434d	-0.18287392
104	0xbaad6181	-0.0013227911
105	0x3f47ec00	0.7809448
106	0x3dcadeb7	0.09905761
107	0x3e2475fb	0.16060631
108	0x3f27347c	0.6531446
109	0x3f557eb3	0.8339645
110	0xbd2ce43a	-0.04220984
111	0xbf00e99a	-0.5035645
112	0x3703f5cb	7.865437e-06
113	0xb6b47b60	-5.3787808e-06
114	0x3f18d753	0.5970356
115	0xb5501887	-7.752173e-07
116	0x34baf7ca	3.482549e-07
117	0xbe98a338	-0.29812026
118	0x3f2004b1	0.6250716
119	0xbf1c6ca1	-0.61103255
120	0x3eb5af6e	0.35485405
121	0x3f03b0fc	0.5144193
122	0xbf5b9d22	-0.8578664
123	0x3eaf645b	0.34256253
124	0x3f20d9a4	0.62832093
125	0xb727bd10	-9.997995e-06

linear.bex_20230623_denoised.location.bias f4 [2]
0	0x3e8eccf2	0.27890736
1	0x3ee8ba04	0.4545442

linear.ken_20230614_denoised.location.weight f4 [2, 63]
0	0xbeca26e1	-0.39482787
1	0x3ca3553e	0.019938108
2	0x3dac36a8	0.08408862
3	0xbefca516	-0.493447
4	0x3ddf1df0	0.10894382
5	0xbd93606e	-0.07196127
6	0xbece9293	-0.40346202
7	0x3eb9e32c	0.3630613
8	0x3d0748b2	0.033028312
9	0x3eb271d0	0.34852457
10	0x3e84edf6	0.259628
11	0x3d15d52d	0.036580253
12	0x3e8cb348	0.2748053
13	0x3ecb377e	0.39690775
14	0xbe0b180e	-0.13583395
15	0x3ee91dad	0.45530453
16	0x3e199c54	0.1500104
17	0xbe4815d2	-0.19539574
18	0xbecafc9b	-0.39645848
19	0x3c938899	0.01800947
20	0xbdded343	-0.10880139
21	0xbeb20a77	-0.3477361
22	0xbe15cff4	-0.14630109
23	0x3cc313c2	0.023813132
24	0xbea103e8	-0.31448293
25	0xbd883e6e	-0.066525325
26	0xbe205fe0	-0.15661573
27	0x3ed04b0d	0.4068226
28	0x3dfe3066	0.12411575
29	0xbdaf6744	-0.08564618
30	0x3eb9e0f2	0.36304432
31	0x3dd5e859	0.104447074
32	0xbd70a7f1	-0.05875391
33	0x3eac4ac7	0.336508
34	0xbdd41cfc	-0.10357091
35	0xbce49b90	-0.02790621
36	0xbea52764	-0.32256615
37	0xbce7927c	-0.028268091
38	0xbc5443d0	-0.012955621
39	0x3cb45ead	0.022017801
40	0x3dd85509	0.10563094
41	0xbce69bc4	-0.028150447
42	0x3e7a2ea7	0.24431859
43	0xbc8cbca9	-0.017179804
44	0xbb9b1946	-0.0047332374
45	0xbf66f459	-0.90216595
46	0xbe2cb517	-0.16865955
47	0xbc8c8384	-0.017152555
48	0xbeed5ddd	-0.46360675
49	0x37801d5a	1.5272457e-05
50	0xb877b76d	-5.9060218e-05
51	0x3e87cf04	0.26525128
52	0x348df29f	2.6439827e-07
53	0x348d22b8	2.6288558e-07
54	0xbf225b98	-0.6342101
55	0x3f17979b	0.59215707
56	0x3f11e52b	0.5699031
57	0xbf0559c4	-0.52090096
58	0x3ecfa560	0.4055586
59	0xbf03fbaf	-0.51555914
60	0xbf0fb9ee	-0.5614308
61	0x3e9cf1fc	0.3065337
62	0x35878531	1.0097048e-06
63	0xbf0fde15	-0.56198245
64	0x3e11454f	0.14186595
65	0x3c36c270	0.011154756
66	0xbf08f7e9	-0.5350328
67	0x3e721ac5	0.23643024
68	0x3dbd836f	0.092535846
69	0xbf0dc735	-0.5538209
70	0xbdb1b32e	-0.08676754
71	0x3d0fe574	0.035130933
72	0x3f0f80fc	0.5605619
73	0x3ec45785	0.38348022
74	0x3e323a06	0.17404947
75	0x3f1a53ae	0.60283935
76	0x3edf3987	0.43598577
77	0x3dc0645c	0.09394142
78	0x3ee9883e	0.45611757
79	0x3e7fac3f	0.2496805
80	0x3d17ad84	0.03703071
81	0xbf2feddc	-0.6872232
82	0x3eb6e26b	0.35719618
83	0xbe59eea1	-0.21282436
84	0xbf1e441f	-0.61822695
85	0x3d893d26	0.06701116
86	0xbe2b6973	-0.16739444
87	0x3b07a8e0	0.0020700023
88	0xbe4da02c	-0.20080632
89	0xbe15da9f	-0.14634179
90	0x3f354ee5	0.7082351
91	0x3e265430	0.16243052
92	0xbc91a32a	-0.017777998
93	0x3f221d43	0.633259
94	0xbdcf784d	-0.101303674
95	0xbe6f7a4f	-0.23386501
96	0x3f31df1c	0.6948106
97	0xbd246ec6	-0.040144704
98	0xbe87824c	-0.26466596
99	0x3f388154	0.7207234
100	0x3d26d13c	0.040726885
101	0xbe3c3a89	-0.18381704
102	0x3f2bd54f	0.6712236
103	0xbc4aeda8	-0.012385763
104	0xbd0996e0	-0.03359115
105	0x3f570937	0.83998436
106	0x3de66e0b	0.11251458
107	0x3ea4abab	0.32162222
108	0xbed8be0a	-0.42332488
109	0xbf2f60e9	-0.6850725
110	0xbda4e2ad	-0.080510475
111	0xbef0d1fe	-0.4703521
112	0x378cb6a9	1.6774358e-05
113	0xb8dd0ca6	-0.00010540457
114	0x3f0b0ed1	0.54319483
115	0xb43bac7f	-1.7478486e-07
116	0x3461474c	2.0980696e-07
117	0x3f07a284	0.52982354
118	0x3f346fed	0.70483285
119	0xbf0e31a8	-0.5554452
120	0xbf298f32	-0.66234124
121	0x3f3b8987	0.73256725
122	0xbf3d7db1	-0.74019915
123	0xbf4b5632	-0.794284
124	0x3f04986a	0.51795065
125	0xb55a704b	-8.1374736e-07

linear.ken_20230614_denoised.location.bias f4 [2]
0	0x3ee282a9	0.4424031
1	0x3f0bbda3	0.5458624

linear.ken_20230618_denoised.location.weight f4 [2, 63]
0	0xbf0e6e2f	-0.55636877
1	0xbd6d73d6	-0.057971798
2	0xbdd96804	-0.106155425
3	0xbf2ca2d7	-0.67435974
4	0xbe84d479	-0.25943354
5	0x3ded65f9	0.11591715
6	0xbf0f3707	-0.5594334
7	0x3d3b55b9	0.04573605
8	0x3dbd71b2	0.09250201
9	0x3f0f9075	0.560798
10	0x3e349bb4	0.17637521
11	0xbc4d05f0	-0.012513623
12	0x3f0126e0	0.50449944
13	0x3ef66790	0.48125887
14	0xbc313eed	-0.010818225
15	0x3f0385aa	0.5137583
16	0xbe84c3f3	-0.25930747
17	0xbd51f011	-0.051254336
18	0xbf0fc074	-0.56153035
19	0x3e038918	0.12845266
20	0xbdd8f00e	-0.10592662
21	0xbee666bd	-0.45000258
22	0xbd37cef4	-0.0448751
23	0xbdc0d31f	-0.09415268
24	0xbef267cc	-0.47344816
25	0xbdafff3a	-0.085936025
26	0x3bb8d1d9	0.00564025
27	0x3efba833	0.49151763
28	0x3e4e7b74	0.20164281
29	0xbd566c8a	-0.052349605
30	0x3ec0afec	0.37634218
31	0x3e324992	0.17410877
32	0xbd740895	-0.059578497
33	0x3f0dbe5a	0.5536858
34	0xbdcfd762	-0.10148503
35	0xbc8d2cc3	-0.017233258
36	0xbe3f9fc1	-0.18713285
37	0x3e2f9ede	0.17150447
38	0xbd15e710	-0.03659731
39	0x3ebfcf8c	0.37463033
40	0x3d0a00e0	0.03369224
41	0x3cb230b4	0.02175174
42	0x3e178d13	0.1479991
43	0x3e45ba48	0.19309342
44	0x3e7eb0fa	0.24872199
45	0xbf6629be	-0.89907444
46	0x3e61bb16	0.22044024
47	0xbd698cb6	-0.057018958
48	0xbeca60a7	-0.39526865
49	0xb6912d62	-4.32662e-06
50	0x377ed476	1.5189047e-05
51	0x3eb01997	0.34394524
52	0x33d519d3	9.923283e-08
53	0xb4676b4b	-2.1552584e-07
54	0xbf7a1ddf	-0.9770183
55	0x3efbe390	0.49197054
56	0x3f0df16b	0.554465
57	0xbf2fdc43	-0.6869547
58	0x3eef9abe	0.46797746
59	0xbf3ac907	-0.72962993
60	0x3f7bf609	0.98422295
61	0x3eb84c0d	0.35995522
62	0x362373ad	2.4356225e-06
63	0xbf5814c2	-0.84406674
64	0x3d8eb400	0.06967926
65	0x3dbdf36b	0.09274944
66	0xbf3ed5de	-0.74545085
67	0x3dd3ca93	0.10341372
68	0x3e67039f	0.22559975
69	0xbf41b1f3	-0.75662154
70	0xbe69a4e7	-0.22816812
71	0x3e9e6b85	0.30941406
72	0x3f4bec9f	0.7965793
73	0x3f010bc5	0.50408584
74	0x3e6ddb90	0.23228288
75	0x3f35886f	0.70911306
76	0x3f3b8155	0.7324422
77	0x3e6d1493	0.2315238
78	0x3f5cfef8	0.8632655
79	0x3d96752d	0.07346568
80	0x3eb3a5c6	0.35087413
81	0xbf774f3c	-0.9660528
82	0x3ef64719	0.48101118
83	0x3d27c2c4	0.040957227
84	0xbf4974b1	-0.7869368
85	0x3d78e2a0	0.060763
86	0xbe0ad7aa	-0.13558832
87	0xbd5fb607	-0.054616954
88	0xbeb0d6d6	-0.34538907
89	0x3d131ed0	0.035918057
90	0x3f4526c0	0.7701225
91	0x3eac283b	0.33624443
92	0x3c054b6c	0.008135658
93	0x3f384994	0.7198727
94	0xbeafd187	-0.34339544
95	0xbd3407f6	-0.043952905
96	0x3f309ead	0.6899212
97	0xbe14ae83	-0.14519696
98	0xbe2ecf60	-0.17071295
99	0x3f5e98ad	0.86951715
100	0x3cea1f86	0.028579485
101	0xbdd18c6e	-0.10231863
102	0x3f3b9ab5	0.7328294
103	0xbea213c9	-0.3165572
104	0xbcd530d6	-0.026024263
105	0x3f65039e	0.89458644
106	0xbd81d922	-0.06340243
107	0x3ee24efd	0.44200888
108	0xbe683f9a	-0.22680512
109	0xbf03452f	-0.5127744
110	0xbeea3b43	-0.45748338
111	0xbf27c581	-0.6553574
112	0xb745bcf9	-1.1786114e-05
113	0x388320b5	6.252659e-05
114	0x3f1c6b8e	0.61101615
115	0x357e1a8e	9.4661016e-07
116	0xb46cba8b	-2.2047077e-07
117	0x3f1bf828	0.6092553
118	0x3f275415	0.65362674
119	0xbf3199e3	-0.6937544
120	0xbf784aa2	-0.9698888
121	0x3f2dcbe9	0.6788927
122	0xbf30a9f3	-0.6900932
123	0xbf3cea76	-0.7379526
124	0x3f490147	0.78517574
125	0x36a50a27	4.918565e-06

linear.ken_20230618_denoised.location.bias f4 [2]
0	0x3ed0e6ae	0.40800995
1	0x3f53b2fd	0.8269499

exp_avg f4 [2, 63]
0	0x3ce1121b	0.027474454
1	0x3afbfac5	0.0019224515
2	0xbc4f70d2	-0.012661176
3	0x3cfdd770	0.030986518
4	0x3c1986c6	0.009370511
5	0xbbf2f2a6	-0.00741418
6	0x3c84d309	0.01621391
7	0x39417bac	0.00018451986
8	0xba552001	-0.0008130074
9	0x3b59fc6b	0.0033262025
10	0x387a2da0	5.9647136e-05
11	0xbbdfbad7	-0.006827693
12	0x3bd1dc55	0.0064044395
13	0xbc7e90d4	-0.015537459
14	0x3ba1a09a	0.0049324753
15	0xbc5a6930	-0.013330743
16	0x3b503f19	0.003177589
17	0xb8c42490	-9.3528186e-05
18	0x3ca01dc5	0.019545445
19	0x3c0f70f6	0.008754959
20	0xb911f560	-0.00013919687
21	0x3c799052	0.015232163
22	0xbb08450a	-0.0020793104
23	0xbc740f32	-0.014896201
24	0x3adf49f5	0.0017035591
25	0xbb65fdcb	-0.00350939
26	0xba515928	-0.00079860026
27	0x3bf96b20	0.0076116472
28	0xbb37ed66	-0.0028065084
29	0xbbdd7d41	-0.006759316
30	0xbb72bfa2	-0.0037040492
31	0xbb83917b	-0.0040151454
32	0xbb0e75f2	-0.0021737781
33	0xbcb60f0f	-0.022223977
34	0x3a897147	0.001048603
35	0xb9a831d0	-0.0003208057
36	0xb99f1820	-0.00030344818
37	0xbaa91f24	-0.0012902957
38	0xbbd78d85	-0.0065781497
39	0xbc13b426	-0.009015119
40	0xbb3bc6d2	-0.0028652442
41	0x3a50f930	0.0007971702
42	0x38072218	3.221826e-05
43	0xbb74613b	-0.00372894
44	0xbb7c1a10	-0.0038467683
45	0xba807696	-0.0009800966
46	0xbb5a495a	-0.003330788
47	0x3ab17464	0.0013538715
48	0x3c1edc4c	0.009696078
49	0xae7bf659	-5.7289593e-11
50	0xae928a08	-6.6638306e-11
51	0xbc1ee458	-0.009697996
52	0x28f89e40	2.7602161e-14
53	0x2abdc058	3.370661e-13
54	0x3a762422	0.00093895395
55	0xbc75cc42	-0.015002312
56	0xbafa025b	-0.0019074188
57	0xbc088a77	-0.008333794
58	0xbc4eceb1	-0.012622521
59	0x3c25f1b6	0.010128429
60	0xbbdf21b4	-0.0068094376
61	0xbc1edc55	-0.009696086
62	0x2c96b369	4.283175e-12
63	0x3ce8eeed	0.028434241
64	0x3c1b1bac	0.009467047
65	0xbcf5dfef	-0.030014006
66	0x3d21812d	0.039429832
67	0x3b82c75e	0.0039910516
68	0xbce10ec2	-0.027472857
69	0x3d1c474b	0.038153928
70	0x3b0952d4	0.002095391
71	0xbc855ef1	-0.016280623
72	0xbb94b2ef	-0.004537932
73	0xbbfacb18	-0.007653605
74	0xbcf3d1d7	-0.029763145
75	0xbd00b6c6	-0.031424306
76	0xbcb4b315	-0.02205805
77	0xbbe97dc2	-0.007125587
78	0xbd2f6722	-0.042822964
79	0x3bd7f4eb	0.006590476
80	0xbc590a21	-0.013247044
81	0x3d3f3022	0.046676762
82	0xbb439bae	-0.002984743
83	0xbcc0d182	-0.023537401
84	0x3d1755bc	0.036946997
85	0xbb62f09f	-0.0034628285
86	0xbcbf0814	-0.023319282
87	0x3ca09763	0.019603437
88	0x3ab92b3d	0.0014127266
89	0xbc7fd1b4	-0.015613962
90	0xbb257057	-0.0025243962
91	0x3b0800d0	0.0020752437
92	0xbc9569e2	-0.018238965
93	0xbd04bdfa	-0.03240774
94	0x3ab34fb5	0.0013680371
95	0xbc335636	-0.010945847
96	0xbd7f8eb1	-0.06239194
97	0x3b0debfc	0.002165555
98	0x3c30fa6e	0.010801895
99	0xbc5d7605	-0.013516908
100	0x3c1bcd7c	0.0095094405
101	0x3c1260fa	0.008934254
102	0xbca44ae7	-0.020055247
103	0xbb8e49de	-0.0043423017
104	0xbb30ac5e	-0.0026958208
105	0xbc290c00	-0.010317802
106	0x3a111fd0	0.00055360515
107	0xbbec1a00	-0.007205248
108	0xbbc3779d	-0.0059651867
109	0xbbb29992	-0.005450436
110	0x3b2aa233	0.002603662
111	0x3ce60047	0.028076304
112	0x2e1e9486	3.6056956e-11
113	0xad9eae9c	-1.8040062e-11
114	0xbce5fe51	-0.02807537
115	0xaadafca7	-3.8899892e-13
116	0x2b285cf4	5.981459e-13
117	0x3c3c9a1b	0.011511351
118	0xbd0b6d85	-0.034039993
119	0x3d00d036	0.031448565
120	0xbc13a125	-0.009010588
121	0xbd050829	-0.032478485
122	0x3ccd91e2	0.025093976
123	0xbb123b92	-0.0022313339
124	0xbce5fda9	-0.028075056
125	0x2d05acf0	7.5985745e-12

exp_avg_sq f4 [2, 63]
0	0x3b1729fe	0.00230658
1	0x3a7010e8	0.00091577927
2	0x3bc7c351	0.0060962816
3	0x3b4b6218	0.003103381
4	0x396969ff	0.00022260098
5	0x3b66d90d	0.0035224587
6	0x3acf528a	0.0015817445
7	0x380d915e	3.3752403e-05
8	0x39af21e5	0.00033403854
9	0x39357e45	0.00017308544
10	0x3a9ed680	0.0012118369
11	0x3bc61781	0.0060452824
12	0x39e7ac2a	0.00044188026
13	0x3a9a97fd	0.0011794564
14	0x3b8f6692	0.004376241
15	0x3a8c1d5a	0.00106899
16	0x381e014b	3.767134e-05
17	0x39b720ce	0.0003492892
18	0x3b0a6176	0.002111522
19	0x3a066fad	0.00051283353
20	0x3c892553	0.01674143
21	0x3aefac3f	0.0018285586
22	0x3a21a2f6	0.00061659457
23	0x3c187500	0.009305239
24	0x3a82c650	0.0009977315
25	0x3b0013b1	0.0019542987
26	0x3b8cdc97	0.0042987573
27	0x39da5ff2	0.00041651685
28	0x3a07418a	0.00051596074
29	0x3c8387b9	0.016055929
30	0x39213c87	0.00015376705
31	0x3a25ce89	0.00063250266
32	0x3c29339f	0.010327249
33	0x3a6b2511	0.0008970062
34	0x3b11fc15	0.0022275497
35	0x3b74ace4	0.0037334496
36	0x39ba02e4	0.00035478838
37	0x3b0a4850	0.002110023
38	0x3c5197c8	0.012792535
39	0x3923dbe2	0.00015626804
40	0x3b2339d8	0.0024906304
41	0x3b7c3bb3	0.0038487732
42	0x3711fa32	8.700927e-06
43	0x3850860b	4.97159e-05
44	0x3891ec7a	6.958186e-05
45	0x3685e75f	3.990644e-06
46	0x37372280	1.0915683e-05
47	0x3907b413	0.00012941686
48	0x3a4ea291	0.00078825006
49	0x2824e60f	9.153715e-15
50	0x280c9a2c	7.804992e-15
51	0x3a4ea6f2	0.0007883153
52	0x2822cc4e	9.037108e-15
53	0x27b6d9ba	5.0751207e-15
54	0x3816d2d9	3.5959154e-05
55	0x3a51fea1	0.000801066
56	0x38507561	4.9700382e-05
57	0x39aaf137	0.00032604646
58	0x3a33ba50	0.0006856071
59	0x393cf56e	0.00018020507
60	0x38e3e5c9	0.00010867004
61	0x3a4ea29c	0.0007882507
62	0x27a8d1e9	4.685695e-15
63	0x3b0035a2	0.0019563218
64	0x3a9a5437	0.0011774366
65	0x3bc429f0	0.0059864447
66	0x3b6af1ba	0.0035849647
67	0x39d1b5a1	0.0003999891
68	0x3b726df7	0.0036991814
69	0x3b5afcf0	0.0033414923
70	0x381eb1db	3.7835776e-05
71	0x3a0b7906	0.0005320463
72	0x3a04356a	0.00050433597
73	0x3b00b30c	0.001963797
74	0x3bb7052f	0.0055853347
75	0x3b4828fa	0.0030542002
76	0x3b10db99	0.0022103547
77	0x3b74a640	0.0037330538
78	0x3b75ef78	0.0037526768
79	0x386cb3ea	5.6434343e-05
80	0x39cb5638	0.00038783415
81	0x3b4b0de8	0.003098363
82	0x3a052942	0.0005079695
83	0x3c8101ee	0.01574799
84	0x3b1e0a58	0.0024115052
85	0x3a0e9365	0.00054388336
86	0x3c1e59c2	0.009664955
87	0x3a778f75	0.0009443679
88	0x3ae43e05	0.0017413503
89	0x3b95303e	0.00455287
90	0x39fdcc08	0.00048407936
91	0x39f3e91e	0.00046522258
92	0x3c7f75ca	0.015592048
93	0x3b246aae	0.0025088
94	0x3a0b3dba	0.0005311627
95	0x3c1f2cf1	0.009715305
96	0x3bd4dfda	0.0064964117
97	0x3afa309d	0.0019087974
98	0x3b91a324	0.0044444967
99	0x3a1b2d26	0.00059195084
100	0x3aed86c3	0.0018121827
101	0x3c5bc8c6	0.013414567
102	0x3a4f8add	0.00079171156
103	0x3b0e9487	0.002175601
104	0x3b8b8c43	0.004258664
105	0x38e0faab	0.00010727843
106	0x38201a41	3.8171424e-05
107	0x38cbcfd5	9.718506e-05
108	0x380205f2	3.0999952e-05
109	0x37d6f1b7	2.5623345e-05
110	0x38f993f3	0.00011900803
111	0x3b03711e	0.0020056437
112	0x27351f5b	2.5135794e-15
113	0x27aced9e	4.7997215e-15
114	0x3b037010	0.0020055808
115	0x27c636af	5.5015328e-15
116	0x25a3220c	2.8299064e-16
117	0x399c3d50	0.0002980032
118	0x3b246f3e	0.002509072
119	0x3ac193a1	0.0014768728
120	0x3a0927f4	0.0005232089
121	0x3b15e435	0.0022871618
122	0x3a658ef1	0.00087569567
123	0x391bb59e	0.0001484961
124	0x3b036fc7	0.0020055638
125	0x282edece	9.707253e-15

exp_avg f4 [2]
0	0xbdc6aa36	-0.09700434
1	0xbe8fc62c	-0.2808088

exp_avg_sq f4 [2]
0	0x3da1741d	0.07883475
1	0x3e4d658f	0.20058273

exp_avg f4 [2, 63]
0	0x3b2d2a6e	0.0026422995
1	0x3ae6748f	0.0017582345
2	0xbaf6c464	-0.001882684
3	0x3c01c9a6	0.007921612
4	0x3b039ae7	0.0020081343
5	0xbb42304a	-0.0029630833
6	0x3b85df5c	0.0040854644
7	0xb982183c	-0.00024813588
8	0xbaaaef14	-0.0013041222
9	0xbac35538	-0.0014902717
10	0x3b1cd1d9	0.002392879
11	0xbaf1d21d	-0.001844946
12	0xbb51f6de	-0.0032038013
13	0xba009f02	-0.00049065065
14	0xbb052929	-0.0020318723
15	0xbb861f0b	-0.004093056
16	0x3a7e7894	0.00097072986
17	0x38faabf4	0.00011952958
18	0x3b286a48	0.0025698114
19	0x3b31633e	0.002706721
20	0xbb8729c4	-0.004124852
21	0x3b4f398e	0.0031619999
22	0x3b0cc212	0.002147798
23	0xbb522c96	-0.0032070032
24	0x3b416d9f	0.0029514802
25	0x39174042	0.0001442442
26	0xbb85a94b	-0.004079019
27	0x381106b8	3.457695e-05
28	0xb977e946	-0.00023642657
29	0xbbea8478	-0.007156905
30	0xb956ff2c	-0.0002050369
31	0xb8045998	-3.1554693e-05
32	0xbb39e75a	-0.0028366656
33	0xbaf77238	-0.0018878644
34	0xb97aa264	-0.00023902353
35	0xbb7cbebd	-0.0038565837
36	0x3ae77878	0.0017659804
37	0x3a2d66f6	0.00066147686
38	0xbbb39b36	-0.005481149
39	0x392671a7	0.00015873332
40	0xb9145ebc	-0.00014149671
41	0xbb9fc5b2	-0.004875862
42	0xb9e28d76	-0.00043211476
43	0x39325cae	0.00017009929
44	0xba24fed6	-0.0006294077
45	0x3ae73990	0.0017641056
46	0xba1a4767	-0.00058852736
47	0x3a20d386	0.0006135035
48	0x3b4abdfc	0.0030935993
49	0xab6baa60	-8.3725214e-13
50	0x2e18cd8a	3.4743354e-11
51	0xbb4adf3f	-0.003095582
52	0xaa435b68	-1.7351192e-13
53	0xaa1afe14	-1.3766099e-13
54	0x3b99943f	0.0046868618
55	0xbaca7c50	-0.0015448425
56	0x39592d38	0.00020711578
57	0x3b412c5b	0.00294759
58	0xbb9b4b2a	-0.004739185
59	0x3c16dcea	0.009207943
60	0x3a862dfb	0.0010237092
61	0xbb4ad852	-0.003095169
62	0x2b78cf48	8.839496e-13
63	0x3cd75b25	0.026288578
64	0x3b4084c6	0.0029376014
65	0xbc62b98d	-0.013838184
66	0x3cefc627	0.029269291
67	0x3b44faa2	0.0030056615
68	0xbc6196d7	-0.013768873
69	0x3c9ebf38	0.01937829
70	0x3b1eea70	0.0024248622
71	0xbbd5b278	-0.0065215193
72	0xbc18d578	-0.009328239
73	0xbc5051c9	-0.012714812
74	0xbcccb1ad	-0.024987066
75	0xbcc40f36	-0.023933034
76	0xbc00f713	-0.007871407
77	0xbc981913	-0.018566644
78	0xbcbaccb1	-0.022802683
79	0x3a8911b8	0.0010457551
80	0xbbdae327	-0.0066799107
81	0x3c9aabd6	0.018880766
82	0xbb4b5018	-0.0031023081
83	0xbc78111e	-0.0151408
84	0x3c7e473c	0.015519913
85	0xb9b37e99	-0.00034235863
86	0xbbf0c642	-0.007347853
87	0x3b38631a	0.002813524
88	0x3ba85d63	0.0051380857
89	0xbc7e3fb9	-0.015518122
90	0xbc5f3aaa	-0.013624826
91	0x3b678288	0.0035325605
92	0xbc57a7c0	-0.013162553
93	0xbc799b79	-0.0152348215
94	0x3bab62d3	0.0052302866
95	0x389b3a00	7.401779e-05
96	0xbce13014	-0.027488746
97	0xbaaf80e1	-0.0013389849
98	0xbb7e97f0	-0.0038847886
99	0xbc5b0dd6	-0.013369998
100	0x3b1dea51	0.0024095962
101	0xbc16d82c	-0.009206813
102	0xbc882515	-0.016619245
103	0x3b8e8488	0.004349295
104	0xbc3d6cf0	-0.011561617
105	0xbbb9da34	-0.005671764
106	0xb91bc110	-0.00014853873
107	0xbbda5063	-0.006662415
108	0x3955f238	0.00020403496
109	0x3a646d80	0.00087138265
110	0x3bf857fd	0.0075788484
111	0x3c8ab6c5	0.016932854
112	0x2de2a68c	2.5767187e-11
113	0xaeee8cf8	-1.0848028e-10
114	0xbc8ab53e	-0.016932126
115	0x2a69921a	2.0745246e-13
116	0xaad5bca6	-3.7967302e-13
117	0xbc1859b2	-0.009298729
118	0xbc0e1804	-0.008672718
119	0x3c60afec	0.013713818
120	0x3c65b78f	0.014020815
121	0xbc8dfdd2	-0.017332945
122	0x3ccd88c9	0.025089638
123	0x3ba157aa	0.0049237804
124	0xbc8ab5c5	-0.016932378
125	0x2d04a4b9	7.539907e-12

exp_avg_sq f4 [2, 63]
0	0x3973460f	0.00023200385
1	0x396d09e3	0.00022605764
2	0x3ac9a2e3	0.0015383627
3	0x39e57735	0.000437671
4	0x388e8f39	6.797765e-05
5	0x3a5b5bda	0.0008367874
6	0x3997c53c	0.00028947915
7	0x372a1156	1.0136826e-05
8	0x38967dc2	7.1759816e-05
9	0x3911eb53	0.00013915943
10	0x395bea69	0.00020972792
11	0x3ace4eb0	0.0015740003
12	0x3984e072	0.00025344227
13	0x389ba293	7.421258e-05
14	0x3a80133a	0.0009771355
15	0x39803957	0.00024456784
16	0x36ad9446	5.173063e-06
17	0x38f33cd6	0.000115984745
18	0x38b0ac5a	8.424437e-05
19	0x3894fbf0	7.104117e-05
20	0x3b81208c	0.0039406475
21	0x390a335a	0.00013179836
22	0x38a0e120	7.671327e-05
23	0x3b0fa3ed	0.0021917776
24	0x391cc934	0.00014952273
25	0x399ede89	0.0003030191
26	0x3aa9545b	0.0012918817
27	0x386d55f7	5.6585264e-05
28	0x38e052bb	0.00010696562
29	0x3b8d9f33	0.0043219565
30	0x38da0ca5	0.00010397405
31	0x38c54f5c	9.408474e-05
32	0x3b1768b2	0.0023103175
33	0x39277a74	0.00015971978
34	0x39c1d176	0.0003696789
35	0x3a958dd8	0.0011410071
36	0x38f5b38f	0.00011715956
37	0x39926ff8	0.00027930713
38	0x3b5de9b1	0.0033861215
39	0x37992360	1.8255494e-05
40	0x39c0ad87	0.00036750382
41	0x3aa04371	0.001222713
42	0x352edd80	6.5142376e-07
43	0x3658fd3e	3.2333915e-06
44	0x379299f1	1.747624e-05
45	0x36a79800	4.994683e-06
46	0x35a5ba4b	1.2347676e-06
47	0x390bb23c	0.0001332247
48	0x3939d021	0.00017720509
49	0x25517d31	1.8170277e-16
50	0x24fe3e60	1.1026061e-16
51	0x3939d786	0.00017723264
52	0x26358e4d	6.2989843e-16
53	0x27074545	1.8772565e-15
54	0x38aa6124	8.1243255e-05
55	0x399273bc	0.0002793352
56	0x38987c69	7.271098e-05
57	0x389a8440	7.367926e-05
58	0x398e696e	0.00027162902
59	0x39c95025	0.0003839742
60	0x371bc37e	9.2842365e-06
61	0x3939d5f8	0.00017722684
62	0x2688b399	9.485576e-16
63	0x3af6070d	0.0018770412
64	0x3a6448d3	0.00087083614
65	0x3bb95428	0.005655784
66	0x3b17d4cd	0.002316761
67	0x3979ddc9	0.00023829112
68	0x3b550ccf	0.0032508855
69	0x3ad626f7	0.0016338517
70	0x37a9b77f	2.0231817e-05
71	0x3997b7a0	0.00028937776
72	0x3a50932a	0.00079564995
73	0x3ad46eb8	0.0016207313
74	0x3bc2abfb	0.005940912
75	0x3b16e063	0.0023021929
76	0x3a1bc8bb	0.0005942692
77	0x3b65397b	0.0034976888
78	0x3af9e85e	0.0019066443
79	0x380504f2	3.1714277e-05
80	0x39c0dfe7	0.00036787914
81	0x399ac4ce	0.000295198
82	0x39ccb421	0.0003904412
83	0x3c88acb4	0.016683914
84	0x39ab189b	0.00032633994
85	0x39bc0145	0.000358591
86	0x3c2199ad	0.009863299
87	0x393b5216	0.00017864289
88	0x3ac0eb6c	0.0014718599
89	0x3bacf3cb	0.005278086
90	0x3acd1445	0.00156463
91	0x39c3b575	0.00037328494
92	0x3c8c3753	0.017116224
93	0x3af693a9	0.0018812317
94	0x39b4b4d3	0.00034467
95	0x3c22a137	0.009926132
96	0x3b694ee2	0.0035599996
97	0x3ac83022	0.0015273134
98	0x3bb23b4a	0.0054391967
99	0x3a763c4d	0.0009393141
100	0x3a9d13fa	0.0011984103
101	0x3c767283	0.01504195
102	0x3aa1d89f	0.0012347883
103	0x3ae28353	0.0017281569
104	0x3baa3071	0.005193763
105	0x3867d3c0	5.52719e-05
106	0x375eecc7	1.328736e-05
107	0x38a3eadf	7.816194e-05
108	0x367d27f7	3.77232e-06
109	0x372caabc	1.0291751e-05
110	0x3a018936	0.00049414055
111	0x3a95622d	0.0011397057
112	0x229674ba	4.078117e-18
113	0x223ba120	2.5428525e-18
114	0x3a9560fc	0.0011396701
115	0x208d08f9	2.3892267e-19
116	0x25ac3858	2.9875424e-16
117	0x3a1569e3	0.0005699677
118	0x3a5cf575	0.000842891
119	0x3b14892d	0.002266477
120	0x39e17bd0	0.00043007592
121	0x3ab8ee92	0.0014109185
122	0x3b23409f	0.0024910343
123	0x388b6736	6.647261e-05
124	0x3a956177	0.0011396845
125	0x26e0c7c1	1.5597266e-15

exp_avg f4 [2]
0	0xbcfdc553	-0.03097788
1	0xbe2d6f56	-0.16937003

exp_avg_sq f4 [2]
0	0x3c913264	0.017724223
1	0x3de96f14	0.113981396

exp_avg f4 [2, 63]
0	0x3b8cf9b9	0.00430223
1	0x3b1a039e	0.0023500691
2	0xbb35541e	-0.0027668546
3	0x3c0630a9	0.008190312
4	0x3b2c31ce	0.0026274803
5	0xbb6174bb	-0.0034401852
6	0x3b6cedb9	0.0036152436
7	0x39af43f8	0.00033429242
8	0xbac1a133	-0.0014772773
9	0xbb299032	-0.00258733
10	0x3b0fd790	0.0021948554
11	0x39ed8b24	0.0004530783
12	0xba1e0a72	-0.0006028778
13	0xbb219a57	-0.0024658644
14	0xb97c2a6c	-0.00024048396
15	0xbb379292	-0.0028010947
16	0x3abf888c	0.0014612838
17	0xb9cdc2cb	-0.0003924578
18	0x3a2b0f67	0.00065254275
19	0x3aa964d0	0.0012923721
20	0xbad91ae6	-0.0016563802
21	0x3b25a83e	0.0025277282
22	0x3aabd1d9	0.0013108804
23	0xba3a3690	-0.00071034674
24	0x3b20c663	0.002453231
25	0xb9c20e2e	-0.00037013128
26	0xbad0d45d	-0.001593243
27	0x3ac34595	0.0014898056
28	0xba03ec95	-0.0005032507
29	0xbb90c446	-0.004417929
30	0x3a978ef4	0.0011562989
31	0xb9d2670e	-0.00040131103
32	0xba7e88fe	-0.00097097445
33	0xbaa0160c	-0.0012213602
34	0xba1e3005	-0.0006034377
35	0xba8cae56	-0.0010733109
36	0xbaa6d84a	-0.0012729254
37	0x395adaae	0.00020871565
38	0xbb1f1ee0	-0.0024279878
39	0x3a9f06c5	0.0012132755
40	0xba8b710e	-0.0010638551
41	0xba9f1965	-0.0012138305
42	0x38ba2d7a	8.877642e-05
43	0xb81ee5fa	-3.7884318e-05
44	0xba2fdfa9	-0.0006709048
45	0x3a7e2f1d	0.00096963515
46	0xba1abf05	-0.0005903098
47	0x39f75184	0.00047172245
48	0x3b02890d	0.0019918114
49	0x2cfc477f	7.1702084e-12
50	0x2e2aec46	3.8863378e-11
51	0xbb0291ad	-0.0019923255
52	0x2ab56ff1	3.2229734e-13
53	0x2a4551eb	1.7525536e-13
54	0x3b8ed35d	0.0043586926
55	0x3b71bbe4	0.0036885673
56	0x3b474e15	0.003041153
57	0x3acad9bf	0.001547627
58	0xb9c71b89	-0.00037976753
59	0x3bca06e7	0.0061653736
60	0xbbab35a1	-0.005224899
61	0xbb028efc	-0.001992165
62	0x2c191bd3	2.1758053e-12
63	0x3d29bac5	0.041437883
64	0x3bd601d4	0.0065309796
65	0xbc31632d	-0.010826868
66	0x3d2c2676	0.042028867
67	0x3bc41fd7	0.005985241
68	0xbc7c4454	-0.01539715
69	0x3cd38b19	0.025823163
70	0x3b41b973	0.002956
71	0xbbd3700d	-0.0064525665
72	0xbc5485d2	-0.012971358
73	0xbc6c108c	-0.014408242
74	0xbc588bd9	-0.013216936
75	0xbcea0220	-0.028565466
76	0xbc48e827	-0.012262381
77	0xbc21118a	-0.009830842
78	0xbce9d93a	-0.028545965
79	0x3b3eb935	0.0029102091
80	0xbb9b5b9f	-0.0047411467
81	0x3ccb5579	0.02482103
82	0x39c8d784	0.00038307544
83	0xbc5e0d67	-0.013553
84	0x3cbc7925	0.023006985
85	0x3b81e7ee	0.0039644158
86	0xbbfbe12e	-0.0076867556
87	0x3b99577f	0.00467962
88	0x3be04ba1	0.006844953
89	0xbca9168d	-0.020640636
90	0xbca4bc76	-0.020109396
91	0x3be41ee6	0.006961691
92	0xbc85eabf	-0.016347287
93	0xbcb39292	-0.021920476
94	0x3c1fbc44	0.009749476
95	0xbb1c6450	-0.0023863502
96	0xbd0d3b1b	-0.034480195
97	0x3b5a67d9	0.0033326058
98	0xbbc8dd79	-0.006129917
99	0xbb90b5f4	-0.0044162218
100	0x3bff0d33	0.007783556
101	0xbc526c2e	-0.012843175
102	0xbc80bcbd	-0.015714997
103	0x3bb2fc12	0.005462178
104	0xbc527b16	-0.012846729
105	0xbba3884c	-0.004990613
106	0x3a938967	0.0011256159
107	0xbbbfab17	-0.005849253
108	0xba236313	-0.000623272
109	0x3a24eebb	0.0006291677
110	0x3bfd1547	0.0077234837
111	0x3cbc5f0f	0.022994546
112	0x2baf7bd3	1.2468866e-12
113	0x2e26b2a4	3.7902695e-11
114	0xbcbc6000	-0.022994995
115	0x2a05238e	1.1825108e-13
116	0x2ba711ba	1.1870984e-12
117	0xbc46bd1e	-0.01213005
118	0x3b9640ee	0.004585377
119	0x3c9abe43	0.018889552
120	0x3d3150b7	0.043289866
121	0xbcaa0410	-0.02075389
122	0x3cd46f35	0.025931934
123	0x3b99a8e8	0.0046893246
124	0xbcbc5c59	-0.022993254
125	0x2c3ce43c	2.6843102e-12

exp_avg_sq f4 [2, 63]
0	0x39f2bcd5	0.00046298528
1	0x38cd5d79	9.7925724e-05
2	0x39ffd6a2	0.00048797304
3	0x3a1f1157	0.00060679525
4	0x3809e7b8	3.287915e-05
5	0x398d0e3e	0.00026904227
6	0x39973cb4	0.00028846192
7	0x366890c4	3.4654959e-06
8	0x37c935cb	2.3986117e-05
9	0x39424283	0.0001852606
10	0x39215708	0.00015386578
11	0x39e4d693	0.0004364742
12	0x3987e1f6	0.0002591756
13	0x38e935b0	0.00011120306
14	0x398d2cdd	0.00026927041
15	0x397880fe	0.00023699176
16	0x366ce75f	3.5301416e-06
17	0x380d9538	3.375599e-05
18	0x38bd2847	9.0197245e-05
19	0x37e5d6fd	2.7399039e-05
20	0x3aad70d5	0.0013232479
21	0x39089f56	0.00013029328
22	0x37d5ffe7	2.5510742e-05
23	0x3a4353ac	0.0007451128
24	0x38ab444a	8.166635e-05
25	0x38e34c6a	0.00010838437
26	0x39fb005c	0.00047874718
27	0x38e3ccbb	0.000108623375
28	0x380602c5	3.195067e-05
29	0x3ac3cb85	0.0014937973
30	0x393b4b72	0.00017861815
31	0x37f13b26	2.8756982e-05
32	0x3a4d71ab	0.0007837067
33	0x397c8ede	0.00024085815
34	0x39031c1d	0.00012503607
35	0x39db96b2	0.00041883212
36	0x386a56c8	5.587077e-05
37	0x38be3335	9.069444e-05
38	0x3a9c66da	0.0011932508
39	0x376b5439	1.4026701e-05
40	0x390d97f7	0.00013503419
41	0x39e299ee	0.00043220766
42	0x34a5708a	3.0815528e-07
43	0x359996c7	1.144327e-06
44	0x36ce37ac	6.1457595e-06
45	0x35fd211b	1.8859604e-06
46	0x352b2873	6.3761325e-07
47	0x3829cb2b	4.0481955e-05
48	0x39363199	0.00017375349
49	0x27acf35f	4.8003454e-15
50	0x27b6a1d5	5.0690606e-15
51	0x39363389	0.00017376071
52	0x27f30e57	6.7461596e-15
53	0x28075293	7.511911e-15
54	0x393603b4	0.00017358252
55	0x39cbc5b1	0.0003886647
56	0x3986bf97	0.00025701217
57	0x39c4ca2f	0.00037534672
58	0x39bb0eb7	0.00035678383
59	0x39b42aba	0.0003436411
60	0x38043d69	3.1528445e-05
61	0x393632f2	0.00017375851
62	0x258281ce	2.2639364e-16
63	0x3ba7423b	0.005104331
64	0x3a1415eb	0.0005649018
65	0x3af127c9	0.0018398698
66	0x3badd1ae	0.005304537
67	0x3941f22e	0.00018496133
68	0x3a9a3505	0.0011765069
69	0x3b3824ed	0.0028098181
70	0x37873985	1.6120039e-05
71	0x39062631	0.00012793463
72	0x3adea1af	0.0016985441
73	0x3aee6185	0.0018187022
74	0x3b0c41a6	0.0021401434
75	0x3b8b291c	0.004246844
76	0x3a841633	0.0010077417
77	0x3a9e3896	0.0012071307
78	0x3b513baf	0.0031926443
79	0x37a6a376	1.986486e-05
80	0x3924af72	0.00015705617
81	0x3a400a19	0.00073257234
82	0x3995235c	0.0002844584
83	0x3bb0deab	0.005397638
84	0x3a55f7eb	0.0008162248
85	0x38fd27ef	0.00012071418
86	0x3b510f0e	0.0031899842
87	0x39112f6c	0.00013845944
88	0x39d83acb	0.00041242535
89	0x3b18f8dc	0.002334169
90	0x3b668604	0.0035175094
91	0x396d6e3c	0.00022643147
92	0x3bc4f674	0.006010825
93	0x3b8009a4	0.0039073993
94	0x391850e3	0.00014525982
95	0x3b5d0549	0.0033725074
96	0x3bce4f05	0.006296041
97	0x39e24477	0.0004315709
98	0x3b0d979f	0.0021605266
99	0x3a117270	0.00055483636
100	0x39abf5b1	0.00032798716
101	0x3baca93b	0.0052691973
102	0x3ae91c01	0.0017784835
103	0x3a016773	0.00049363746
104	0x3b0b95ef	0.0021299084
105	0x3880eaa0	6.147218e-05
106	0x3686fe02	4.0230816e-06
107	0x3861a03e	5.3793417e-05
108	0x35e50f7b	1.7066335e-06
109	0x3708f860	8.164061e-06
110	0x395c0a64	0.00020984706
111	0x3b08977e	0.002084225
112	0x27de3b5b	6.168173e-15
113	0x27f20888	6.7177743e-15
114	0x3b08980e	0.0020842585
115	0x2689abb9	9.55283e-16
116	0x24b8027d	7.9801495e-17
117	0x3b91f719	0.004454505
118	0x3b07de64	0.002073192
119	0x3b9b0a60	0.0047314614
120	0x3ba15b53	0.004924217
121	0x3b62ec13	0.0034625574
122	0x3b3fe983	0.002928347
123	0x390e7216	0.00013584676
124	0x3b089605	0.0020841372
125	0x26e2bdc7	1.573334e-15

exp_avg f4 [2]
0	0xbca37599	-0.019953536
1	0xbe6b85d3	-0.23000269

exp_avg_sq f4 [2]
0	0x3c8e5c03	0.017377859
1	0x3e5572ed	0.20844622
