artifacts/poses_to_location/20250818191442/best_model.pt (torch, 376885 bytes, 48 tensors)

embedding.embeddings.bex_20230623_denoised.poses.weight f4 [64, 63]
00000000: fc4b 6702 c6a4 a301 a2bb 1a82 dd7d c100
00000010: c070 9d01 d33c 8000 432f ad81 7214 6602
00000020: cee6 4a82 073b 9002 a794 4d02 0e10 6182
00000030: 5a37 1202 79d4 5d81 b3a6 9681 0149 dc83
00000040: 6de1 7082 162a 6402 f2b0 6d02 23fc f702
00000050: d051 ab03 53d3 5e82 c6ba 5a02 6bbb 7482
00000060: c611 fa81 20f2 5c02 f272 3282 759d 9c82
00000070: 8a19 9301 2d97 cc82 99e4 3382 c6db d401
00000080: 822a 5e02 6ebe 2e02 3f69 8402 5631 aa01
00000090: bbf4 7002 327c 2202 f436 6302 fdef 4e82
000000a0: e497 0e86 6720 9780 47e1 6a82 52a3 7e82
000000b0: 791a 9d03 b621 5d81 dc31 0b81 1f35 3182
000000c0: 4b53 e781 46a3 0781 4906 1101 0f6a a602
000000d0: 821c 1301 ff28 cb82 2184 6282 5f88 3c02
000000e0: 655a 7081 99f3 2782 3cf5 7002 1df3 e601
000000f0: 5511 5581 bafb 9702 21d3 9202 53c6 8b00
00000100: 81c6 8182 e2d9 6681 be29 ff81 2dd1 3f02
00000110: 766c 9802 3a2d 1781 d2cb 5281 f0ee 3d82
00000120: a461 6a02 47bd c403 f5bb 6802 779f 7402
00000130: ee38 1602 b10a 6d02 5e23 0081 7527 0e81
00000140: 8537 6602 12d5 5482 0ff6 5d02 94aa 4202
00000150: df37 2e02 069a 7d82 af2f 3d82 96f5 7182
00000160: fafc 3e82 590d 5281 0c10 5f82 244b 6481
00000170: 223e 1902 13ba 3702 47b1 5d03 4472 5e02
00000180: e2d7 e401 dc6a 5f82 127a 8f02 8bdf 5082
00000190: b8e8 6082 dd02 bf84 4160 1582 1b16 3802
000001a0: 4cbd 8a81 29ee 6282 a49e 8004 4736 8a02
000001b0: 9a4b 5a82 bc2b 5d01 9641 a982 bea7 6582
000001c0: 808a f401 ac27 4302 5a3a 0301 cd27 0001
000001d0: 20b8 7602 90a0 da02 5c0e 7a82 12fe 6f81
000001e0: 2467 ac83 d478 9281 c110 fe82 bda4 5d82
000001f0: d08a 7b82 ead6 0d82 e041 5d02 9328 2d02
00000200: d906 6402 3c4a 6f02 2ed7 2d02 3d0c 5a82
00000210: 0efe 5d82 2150 0b02 2816 0e02 625a 7082
00000220: 6b78 6d81 8291 5702 3cb2 eb01 a2ab 8402
00000230: 28d8 a181 fb64 5782 6cb5 6b04 f60b 8802
00000240: 5d26 3104 0010 0e03 3aa9 4b01 6be5 ba02
00000250: cf3a a881 0613 8602 a8f1 6f02 735d f701
00000260: a22e bf82 175c 6003 8ebc fe81 8824 2d82
00000270: 2f8d a101 2413 c903 27b6 f701 4a85 2b82
00000280: fda5 1481 1799 0402 58cc 6a82 1598 6702
00000290: fa2a f901 7921 6602 5099 5502 2d6f e001
000002a0: 03eb cb01 a6e8 5f82 94d3 1502 4e65 8502
000002b0: 678c 8582 33ec 9c02 94ac 6d02 30d8 8f02
000002c0: 94a5 6102 92bc 3082 9d28 0783 fb34 9481
000002d0: 1413 2e86 2a01 1b82 027a 0a81 d641 5383
000002e0: c410 6302 ad4b 6982 aa6f b304 5f03 1f82
000002f0: c47a 8182 cdfb 2082 607f 5481 9562 3d82
00000300: 2c26 b401 5be9 6002 307c 5582 62bf 9702
00000310: 376b 2602 75fb 8c82 af73 6e82 5bd6 6882
00000320: 2cdd 0403 2805 8e82 c93a 8202 953b 5282
00000330: ddb4 0802 8f9b b402 14d8 0901 98d9 cb82
00000340: de5d c502 9887 6882 5531 6a82 8c84 a880
00000350: cea3 6c02 a425 4701 d493 4d02 f07b 1d82
00000360: 0f91 7202 cc76 9002 7f30 4702 1e24 4b02
00000370: 67fb 3802 3aaf 3902 8361 6d83 6730 ac81
00000380: 9c94 b201 1618 0081 b8c9 0001 de74 3582
00000390: 26b0 b381 748b 9900 ae6f da82 2cb2 f282
000003a0: bf9e b781 e80d 5e82 368c 5a82 e2e5 7382
000003b0: f5a8 6b01 89de 0d82 b2e5 7102 d806 1d82
000003c0: 6a26 d181 8f73 a181 b263 f581 3cf0 3e86
000003d0: a0aa c703 5a3d 0c81 e406 6402 0892 2802
000003e0: 5d45 6502 6217 1902 fcbd a182 0000 0000
000003f0: 2430 6302 769b 6d02 a7cd 4103 54e3 0c85
1.6993006e-37 6.011318e-38 -1.1367981e-37 1.7769402e-38 5.783448e-38 1.1776763e-38 -6.361798e-38 1.6903599e-37
-1.4906854e-37 2.1192778e-37 1.5103683e-37 -1.6534997e-37 1.0742271e-37 -4.074373e-38 -5.53405e-38 -1.2947199e-36
-1.7697109e-37 1.6762873e-37 1.7462791e-37 3.6438107e-37 1.006926e-36 -1.6370631e-37 1.6069712e-37 -1.7980075e-37
-9.1861e-38 1.6232534e-37 -1.3110362e-37 -2.3012516e-37 5.403592e-38 -3.0061877e-37 -1.3216447e-37 7.819186e-38
1.6322183e-37 1.2838152e-37 1.9456065e-37 6.251893e-38 1.770265e-37 1.1937523e-37 1.6693097e-37 -1.5203363e-37
-2.6818823e-35 -1.3878784e-38 -1.7256256e-37 -1.8707843e-37 9.2337085e-37 -4.0615476e-38 -2.556604e-38 -1.3019151e-37
-8.497552e-38 -2.4912727e-38 2.6636803e-38 2.4452382e-37 2.702009e-38 -2.98517e-37 -1.6641777e-37 1.3851195e-37
-4.4145893e-38 -1.2339131e-37 1.7702794e-37 8.4837507e-38 -3.9134356e-38 2.233194e-37 2.1573954e-37 1.2836279e-38
-1.9068782e-37 -4.2400651e-38 -9.3732103e-38 1.4092494e-37 2.2396646e-37 -2.7766768e-38 -3.8717142e-38 -1.3954099e-37
1.7219626e-37 1.1563301e-36 1.7098609e-37 1.7972053e-37 1.1036598e-37 1.7415078e-37 -2.3535262e-38 -2.610959e-38
1.6913665e-37 -1.5636448e-37 1.6307131e-37 1.4301823e-37 1.2799535e-37 -1.8631707e-37 -1.3899212e-37 -1.7776363e-37
-1.4031596e-37 -3.8580485e-38 -1.6388058e-37 -4.1930897e-38 1.1258496e-37 1.3498117e-37 6.5149567e-37 1.6342777e-37
8.406375e-38 -1.641412e-37 2.1082026e-37 -1.534558e-37 -1.6523708e-37 -4.4906514e-36 -1.0974415e-37 1.3524529e-37
-5.096482e-38 -1.6672206e-37 3.0238344e-36 2.0308431e-37 -1.6037807e-37 4.0622667e-38 -2.4869963e-37 -1.6872403e-37
8.983018e-38 1.4337723e-37 2.4102765e-38 2.3538443e-38 1.8126067e-37 3.212438e-37 -1.837122e-37 -4.4079654e-38
-1.0132931e-36 -5.380531e-38 -3.7331562e-37 -1.6283793e-37 -1.8480405e-37 -1.0420721e-37 1.6255421e-37 1.2721677e-37
1.675276e-37 1.7580251e-37 1.2771786e-37 -1.6019623e-37 -1.6309426e-37 1.0235103e-37 1.0438871e-37 -1.7658354e-37
-4.361642e-38 1.5837464e-37 8.658112e-38 1.949417e-37 -5.945223e-38 -1.5824685e-37 2.7707422e-36 1.999027e-37
2.0823866e-36 4.1748417e-37 3.7406626e-38 2.7461923e-37 -6.179784e-38 1.970045e-37 1.7628299e-37 9.0867563e-38
-2.8091694e-37 6.5933398e-37 -9.3575427e-38 -1.2720517e-37 5.934465e-38 1.1818113e-36 9.0994846e-38 -1.2601348e-37
-2.7302398e-38 9.741763e-38 -1.7250249e-37 1.7014845e-37 9.152982e-38 1.6907337e-37 1.5692767e-37 8.2444134e-38
7.490765e-38 -1.6450219e-37 1.1007511e-37 1.960074e-37 -1.962318e-37 2.3057712e-37 1.7461538e-37 2.1136047e-37
1.6577908e-37 -1.2984555e-37 -3.9719556e-37 -5.4442637e-38 -3.273978e-35 -1.1387936e-37 -2.5434133e-38 -6.2082903e-37
1.6682138e-37 -1.7139854e-37 4.2185245e-36 -1.1682443e-37 -1.902531e-37 -1.1827207e-37 -3.9029637e-38 -1.3913819e-37
6.617633e-38 1.6523891e-37 -1.5684409e-37 2.2297304e-37 1.2226523e-37 -2.071548e-37 -1.7518678e-37 -1.7106185e-37
3.9045206e-37 -2.0867984e-37 1.9135524e-37 -1.5445463e-37 1.0043607e-37 2.653791e-37 2.5317954e-38 -2.9953062e-37
2.9000426e-37 -1.7083582e-37 -1.7205762e-37 -1.5475912e-38 1.7385551e-37 3.6577533e-38 1.5103446e-37 -1.1570107e-37
1.7820982e-37 2.1227084e-37 1.4634129e-37 1.492445e-37 1.3590334e-37 1.3641941e-37 -6.975998e-37 -6.3252275e-38
6.560012e-38 -2.3527168e-38 2.3654613e-38 -1.3331319e-37 -6.6006976e-38 1.4100857e-38 -3.2096322e-37 -3.566097e-37
-6.745137e-38 -1.6313975e-37 -1.6056349e-37 -1.7918794e-37 4.3283904e-38 -1.0422908e-37 1.7771803e-37 -1.1536502e-37
-7.6829596e-38 -5.930788e-38 -9.014184e-38 -3.5911525e-35 1.1735342e-36 -2.5757957e-38 1.6752772e-37 1.23846e-37
1.6844169e-37 1.1247375e-37 -2.376587e-37 0.0 1.6691142e-37 1.7456625e-37 5.695368e-37 -6.624522e-36

embedding.embeddings.bex_20230623_denoised.poses.bias f4 [64]
00000000: 0000 0000 39fc 7082 cb5e 7282 1d62 1c82
00000010: 6d96 5302 1d03 8902 04f7 6e02 abe5 6f82
00000020: 2597 6302 6e24 f001 2997 5902 5344 0502
00000030: db76 6583 25d0 4082 e424 4802 c1ec 5102
00000040: cbbb d384 9091 8b02 d197 9702 6938 8182
00000050: 9405 6f02 d0aa 9b81 eda2 1202 8ea5 1481
00000060: 1dd2 4782 244d 4082 a217 a901 9e51 2002
00000070: fb86 d102 1427 8486 606f 5b02 ee1e 2e82
00000080: 99a5 6386 4afd 5b02 b11c 5902 e5b3 c700
00000090: c055 5e82 4255 a503 9107 d801 93f4 5e02
000000a0: 77be a801 8411 1f82 31b6 9002 9023 0782
000000b0: 87c6 6702 3421 8202 185d 4882 de1a 9e82
000000c0: 7a25 5602 2028 c980 6c4f 0903 d701 3881
000000d0: d6b0 2701 6a8c d582 e72e 1582 7918 8082
000000e0: ca0d cb81 9230 7181 514a 0f82 edc1 e482
000000f0: 34b3 c981 53ab d282 8ed2 d602 60ad 9781
0.0 -1.77048e-37 -1.7806556e-37 -1.1489227e-37 1.5545002e-37 2.0132128e-37 1.7556368e-37 -1.7624858e-37
1.6720702e-37 8.821435e-38 1.5986023e-37 9.790905e-38 -6.743349e-37 -1.4165667e-37 1.4704266e-37 1.542284e-37
-4.9778322e-36 2.0507763e-37 2.2274594e-37 -1.8987224e-37 1.7560548e-37 -5.718311e-38 1.0773143e-37 -2.7302087e-38
-1.468051e-37 -1.412807e-37 6.2114707e-38 1.1778366e-37 3.0787265e-37 -4.97103e-35 1.6121542e-37 -1.2792377e-37
-4.2815617e-35 1.6162269e-37 1.5950876e-37 1.8339798e-38 -1.6334593e-37 9.717403e-37 7.9356726e-38 1.6380173e-37
6.1986757e-38 -1.1686502e-37 2.126347e-37 -9.92844e-38 1.7028174e-37 1.912084e-37 -1.4720396e-37 -2.3231434e-37
1.5732992e-37 -1.8473329e-38 4.0351853e-37 -3.3796783e-38 3.079993e-38 -3.137813e-37 -1.0960251e-37 -1.8821956e-37
-7.459021e-38 -4.4299557e-38 -1.0527309e-37 -3.3612897e-37 -7.409288e-38 -3.0955062e-37 3.1565326e-37 -5.571742e-38

embedding.embeddings.ken_20230614_denoised.poses.weight f4 [64, 63]
00000000: c0d1 fa81 0c28 9d82 c80c 0001 cb80 2102
00000010: cfbb 7582 58ca 6202 8cd5 d401 5c0e 8f02
00000020: 8465 7e82 5516 9c01 0000 0000 bffd fd01
00000030: 2031 6c02 da49 ee01 0e0f 1882 2ece 6102
00000040: 0997 0681 ae7a 8f82 3f20 1d82 6779 8d82
00000050: 3ae3 1c02 a7ae 0082 a6f0 a201 c5c3 5e02
00000060: ca88 1302 16c0 6802 3043 5b02 57cf cb82
00000070: 405f 5202 363d 1002 654a 6582 fdfa 6902
00000080: 1220 d581 369c 5382 6899 b501 59c0 6102
00000090: 6881 5f02 cbdd 5802 e489 6182 0ca2 5f02
000000a0: b78d 8a82 621a 4a02 c672 0d82 0000 0000
000000b0: a04f 5802 c5fb 7d82 c9ec b502 4ead 6982
000000c0: 2386 6d82 7a57 5f82 3375 3e02 f383 0203
000000d0: a66e 7102 80f5 6682 0018 ea80 dc87 5282
000000e0: bebb e681 2488 3602 1762 6102 28f3 4e82
000000f0: 1eeb 1d82 62f6 5e82 f8ac 5d02 b87b cf81
00000100: 28a3 5182 e08f 4001 cd12 8382 0af4 2682
00000110: 78a0 6382 2619 1882 e920 6382 0776 1282
00000120: e0e9 5701 5e6a 0382 cfbe 0982 b261 6302
00000130: 6696 e581 d3eb 6a81 88a4 7502 ceaa 0e02
00000140: 4565 9282 5814 6802 f49b 7d02 0000 0000
00000150: 6a0c 2002 c627 5a82 56d5 a081 39a4 4f02
00000160: d6b4 6802 4727 4c02 9d6d 1b82 2f11 2182
00000170: f00c 0081 1ecc 9802 5392 4782 ffb5 5482
00000180: 0000 0000 58af 4481 de9c 3302 6458 1b82
00000190: a9a9 5e02 3ea9 4882 7369 ba82 6b3c 0b82
000001a0: 6705 3f02 589b 6382 94da 5302 df18 cd82
000001b0: 1737 5582 67e2 5702 cf6f 7082 0b7a 1f02
000001c0: 2743 a901 4115 6002 9ebb 6602 8c76 7202
000001d0: b979 3002 50e3 e001 56e6 6702 611b 6302
000001e0: 2fcd 0502 d8c3 9502 de88 b702 d40a 6082
000001f0: 7e86 9680 187f 5982 3cab b482 45c6 2f02
00000200: 1232 0482 ea30 4e02 3913 dc82 14f2 2402
00000210: c4cf 6a02 fc7a 6782 3d7b 5302 4e95 0b82
00000220: 93b6 c701 a618 0982 636d c081 8031 6902
00000230: aad9 9a81 30cc 6e82 7830 8f02 e0a4 9d02
00000240: 829c 0b01 95a1 5b02 77d4 4202 0443 9102
00000250: aab1 eb02 a02c 6302 6e95 d481 2646 1101
00000260: ea4d 0682 ee41 0202 0000 0000 b558 0882
00000270: 9b94 0302 829f 7202 ae4c 9381 05ba 6302
00000280: 3c46 4b82 6f05 2382 06d5 0f82 1c66 6882
00000290: 39e9 cd81 0210 2482 a78d 7502 4848 8502
000002a0: 1e59 1002 0000 0000 6087 4402 d469 ef01
000002b0: 33cd e801 b567 7102 f37f 5a82 0000 0080
000002c0: 61be fb01 4037 af81 fcc4 7002 ed9e 9a02
000002d0: 3755 4602 4adc 8902 88ae 1002 ecb5 e201
000002e0: d301 2082 aa4f 8802 6d9f 6882 7272 1081
000002f0: 67ec 3a82 21f2 2f82 6875 4b02 2a56 7001
00000300: 816d 6302 1041 ae01 d874 6702 0000 0000
00000310: 1e45 7602 3223 7502 6962 2702 aa5c 4802
00000320: 41e3 4e02 36ae 2782 4c9d 6782 3dac f781
00000330: 4d96 0581 1640 9681 740f 8302 d674 5081
00000340: 5c96 ea01 d113 4c82 32db 5c02 88a8 0f01
00000350: 6210 5301 d71d af82 c9b2 6f02 a60c 7002
00000360: 6768 c381 aef6 af01 63c8 9202 aeef 6282
00000370: 10e5 3702 f698 0081 0357 7c02 37c4 6202
00000380: a271 a601 184a 5d81 b194 5982 9a2b a182
00000390: a154 6282 8060 2581 33c5 6402 7223 6c02
000003a0: a189 9a01 a234 0d01 0098 b001 2aae 4281
000003b0: f07e 5b82 fa61 6602 aca5 6482 c933 8202
000003c0: 12fc 5f82 ee1d 4501 ee4b 5f02 40f2 1882
000003d0: 322d 0001 e47a f901 f800 5e02 8c3b 9202
000003e0: 7d4c 4402 e4df 3782 e7c8 3882 de58 6f02
000003f0: 6693 e081 90d2 f381 ae13 cb02 b09c f681
-9.213647e-38 -2.3092062e-37 2.3519057e-38 1.1865374e-37 -1.8053656e-37 1.6661928e-37 7.8182925e-38 2.1020203e-37
-1.8690106e-37 5.7337394e-38 0.0 9.330163e-38 1.735264e-37 8.7533364e-38 -1.1171517e-37 1.658956e-37
-2.4720275e-38 -2.1082376e-37 -1.1543792e-37 -2.078777e-37 1.1526281e-37 -9.454078e-38 5.9854715e-38 1.6366167e-37
1.0839111e-37 1.7099794e-37 1.6108861e-37 -2.9947176e-37 1.5455699e-37 1.0597016e-37 -1.6845613e-37 1.7190167e-37
-7.828986e-38 -1.5546662e-37 6.6709026e-38 1.658559e-37 1.642059e-37 1.5932825e-37 -1.6569962e-37 1.6429958e-37
-2.0358618e-37 1.4848188e-37 -1.0391982e-37 0.0 1.5892025e-37 -1.8659759e-37 2.6731468e-37 -1.7167872e-37
-1.7450505e-37 -1.6408557e-37 1.399263e-37 3.8355037e-37 1.7737638e-37 -1.6968186e-37 -2.1498116e-38 -1.5467353e-37
-8.4758053e-38 1.3410319e-37 1.655854e-37 -1.5204272e-37 -1.1602014e-37 -1.6380693e-37 1.6286155e-37 -7.621732e-38
-1.5401719e-37 3.5368056e-38 -1.925951e-37 -1.226579e-37 -1.6723378e-37 -1.1174414e-37 -1.6686771e-37 -1.0760258e-37
3.965706e-38 -9.654886e-38 -1.011993e-37 1.6705363e-37 -8.4337126e-38 -4.3148208e-38 1.8046975e-37 1.0481531e-37
-2.1510898e-37 1.7050506e-37 1.8632261e-37 0.0 1.1758506e-37 -1.6027525e-37 -5.908084e-38 1.5255088e-37
1.7096565e-37 1.4998825e-37 -1.1419059e-37 -1.1833343e-37 -2.351917e-38 2.245155e-37 -1.4662204e-37 -1.562753e-37
0.0 -3.6125317e-38 1.3195862e-37 -1.1412968e-37 1.6358674e-37 -1.474225e-37 -2.7390769e-37 -1.0229446e-37
1.4034014e-37 -1.6721908e-37 1.5564561e-37 -3.0136318e-37 -1.5664579e-37 1.586068e-37 -1.7664503e-37 1.17165e-37
6.2177154e-38 1.646302e-37 1.6951575e-37 1.7813373e-37 1.296537e-37 8.261078e-38 1.7037303e-37 1.6685183e-37
9.830182e-38 2.200599e-37 2.6967991e-37 -1.6460028e-37 -1.3823571e-38 -1.5979116e-37 -2.6546907e-37 1.291387e-37
-9.712198e-38 1.5148527e-37 -3.2337128e-37 1.211829e-37 1.7251231e-37 -1.7006494e-37 1.5537199e-37 -1.0254956e-37
7.3363036e-38 -1.0072244e-37 -7.0686623e-38 1.7132342e-37 -5.6883e-38 -1.7544077e-37 2.1039781e-37 2.316371e-37
2.5642557e-38 1.6135951e-37 1.4313843e-37 2.13443e-37 3.463212e-37 1.6690133e-37 -7.809092e-38 2.6682623e-38
-9.867125e-38 9.569812e-38 0.0 -1.001716e-37 9.667008e-38 1.7825129e-37 -5.41093e-38 1.6730711e-37
-1.4934241e-37 -1.1976908e-37 -1.0567115e-37 -1.7073972e-37 -7.5639765e-38 -1.2053411e-37 1.804041e-37 1.958408e-37
1.0605025e-37 0.0 1.4438657e-37 8.794659e-38 8.5517787e-38 1.7735646e-37 -1.605283e-37 -0.0
9.247602e-38 -6.4364127e-38 1.7688947e-37 2.2719485e-37 1.4571198e-37 2.025678e-37 1.0629537e-37 8.3280334e-38
-1.1755467e-37 2.002913e-37 -1.7090421e-37 -2.6530733e-38 -1.3732966e-37 -1.2926457e-37 1.4947779e-37 4.4142858e-38
1.6708752e-37 6.4010865e-38 1.7004732e-37 0.0 1.8093061e-37 1.8009858e-37 1.2297465e-37 1.4720273e-37
1.5199708e-37 -1.2319218e-37 -1.7016342e-37 -9.098062e-38 -2.4536078e-38 -5.5193257e-38 1.925759e-37 -3.8287392e-38
8.617378e-38 -1.499324e-37 1.6225953e-37 2.6385867e-38 3.8766333e-38 -2.5731066e-37 1.7610256e-37 1.7636045e-37
-7.1781497e-38 6.4638815e-38 2.1567788e-37 -1.6672642e-37 1.3510454e-37 -2.361963e-38 1.8539007e-37 1.6660169e-37
6.1141825e-38 -4.064445e-38 -1.5985314e-37 -2.368185e-37 -1.6628145e-37 -3.037495e-38 1.6807388e-37 1.7348714e-37
5.6768153e-38 2.5935372e-38 6.48703e-38 -3.575713e-38 -1.6126008e-37 1.6925849e-37 -1.679834e-37 1.9131506e-37
-1.6455793e-37 3.620466e-38 1.6405243e-37 -1.1236719e-37 2.3542313e-38 9.1644494e-38 1.6310262e-37 2.148695e-37
1.4421757e-37 -1.350897e-37 -1.3575841e-37 1.758445e-37 -8.249611e-38 -8.9566245e-38 2.9839465e-37 -9.0590964e-38

embedding.embeddings.ken_20230614_denoised.poses.bias f4 [64]
00000000: e250 1c02 ad87 0981 ccc5 2802 c671 3b82
00000010: db3f 1201 f26c 6902 ce0b e501 7b2a 0e82
00000020: 60c6 6e02 f26b f880 01f2 de01 427c 0902
00000030: 408e 8080 8af0 4e82 ce0d 2002 6e11 7182
00000040: 80d0 7902 4189 8402 00c6 6382 be65 ac82
00000050: 841c 0001 487b 6202 7262 3202 e454 2782
00000060: 50b7 5a02 69cd 1382 8aa8 6102 366d 8002
00000070: fec7 4082 cd32 8c01 f839 1401 44c3 5582
00000080: 6abf 7182 a140 9f81 0ad2 6202 d402 cd01
00000090: 0ed1 b382 ac66 3402 7624 a582 fdea ad01
000000a0: 3f0a 8002 9e94 3902 c00d 1b02 50e6 3d02
000000b0: e655 7382 9853 8a82 be1e 3802 df86 b902
000000c0: 8f92 2802 cb38 4082 40d0 c101 9432 8c82
000000d0: 5900 4e82 f0de 4202 253e 3b02 0823 fc01
000000e0: b63b 1902 dc10 8e82 a739 9b82 653f 3182
000000f0: b868 8182 7277 3802 c832 6382 1bc2 5e82
1.1484282e-37 -2.5260269e-38 1.2399456e-37 -1.3771242e-37 2.686178e-38 1.7149402e-37 8.4138253e-38 -1.0444704e-37
1.7542409e-37 -2.2813927e-38 8.189718e-38 1.0100831e-37 -1.1805973e-38 -1.5203521e-37 1.1758905e-37 -1.7710886e-37
1.8353467e-37 1.9474437e-37 -1.6734149e-37 -2.5331526e-37 2.3530346e-38 1.6639238e-37 1.3105627e-37 -1.2293585e-37
1.6068719e-37 -1.0858804e-37 1.6578758e-37 1.8870594e-37 -1.4163327e-37 5.1500773e-38 2.7224897e-38 -1.5704807e-37
-1.7760817e-37 -5.8500113e-38 1.6664136e-37 7.5309165e-38 -2.6421678e-37 1.3253777e-37 -2.4265499e-37 6.3887355e-38
1.881379e-37 1.3634304e-37 1.1391548e-37 1.3951623e-37 -1.7877472e-37 -2.0325258e-37 1.3527008e-37 2.726072e-37
1.2384751e-37 -1.4122231e-37 7.1195827e-38 -2.0600182e-37 -1.513459e-37 1.4316849e-37 1.3756425e-37 9.262045e-38
1.1257801e-37 -2.0874702e-37 -2.2808294e-37 -1.30221e-37 -1.9014952e-37 1.3552464e-37 -1.66919e-37 -1.636569e-37

embedding.embeddings.ken_20230618_denoised.poses.weight f4 [64, 63]
00000000: 00c2 6002 d668 d602 94e5 6282 d150 8401
00000010: 60d4 3682 7963 1f82 e178 dc01 f3d0 4302
00000020: 741d a602 cc14 4202 b650 e981 f60a 6f82
00000030: b030 6102 a0a1 6502 35ea 3282 0be3 5802
00000040: 7a52 2602 b81e 5b82 26b5 7302 b20f 0081
00000050: 3c28 0081 d96b 9e02 a425 4001 11ec 1382
00000060: f702 7302 717b 8701 9692 6082 8132 6302
00000070: e03c 0d81 4540 8c82 9145 ab02 4a9b 2e82
00000080: 5620 8502 809d ec81 ba28 6c82 f849 4782
00000090: 7086 9c81 0000 0000 4fc5 5e02 a0e3 2882
000000a0: ab08 7482 e809 4182 66cc 9c82 901e 4081
000000b0: a923 1c82 8022 4d82 4504 7182 19c9 6902
000000c0: 7e20 8501 aa48 6902 dc10 0001 2d14 6802
000000d0: 2c40 8d80 0b23 6c02 3c1d 6382 7c36 1802
000000e0: 00c6 d181 c272 1d82 b48a 6c02 c8d3 6782
000000f0: 1a6b 1f02 d29f 8382 c056 7202 02b3 ce81
00000100: ea01 2282 3a04 6382 1e2f 4d81 21ee 0982
00000110: 3833 8401 4352 9182 9ff5 1002 6865 7582
00000120: 7495 5e82 cbe6 0182 36da 9102 b995 8a02
00000130: 0d26 0802 0d1e 0001 775c 2282 ffa4 3402
00000140: 06a1 8902 22be 1f02 55eb 8282 bff0 1382
00000150: a13a 3782 74fc 5982 aac7 b601 5c5b 2802
00000160: fabc 9082 fd70 6b02 f5ce 1d02 153e 5882
00000170: 431f 4001 0000 0000 5fa9 1181 fcef 6d02
00000180: c05c d481 1d1b 0081 c31b 0102 d925 0581
00000190: 69e4 0102 74e9 1502 3c2c bc81 969c 7c82
000001a0: 53ee 0302 9bd3 4f02 d337 af00 371f 8d82
000001b0: 5153 6582 1526 6c02 cb5e 4802 683f 8082
000001c0: b036 3102 1419 4482 ace7 eb01 35e0 5f02
000001d0: f0a7 7282 98df 3a02 d801 8282 2c79 6602
000001e0: 59fa 5d82 2a86 a601 e3fb 6902 7d68 2202
000001f0: f2c2 6202 72dc 6002 de84 6e02 831a 0081
00000200: 5aad 1502 1362 6b82 308d 5802 be19 b801
00000210: 667e 3282 9279 b281 f88b 4682 4c4d 6c82
00000220: 96d2 3c02 23a1 4002 0814 0001 1b54 2282
00000230: c86a 2a82 ebb0 6502 8c1f a601 cd23 0081
00000240: 60b2 1082 ca54 0102 26a7 8482 9628 6f82
00000250: bb07 9b00 6b71 5e82 f285 5a82 f084 a501
00000260: 57e1 f501 1a27 c802 74b2 6802 3078 5602
00000270: 688f 8781 0000 0000 1f7d 3882 93a0 7382
00000280: d391 8282 7302 6d82 32ad 6002 1549 de81
00000290: 9a28 7301 a25e 1b82 5126 5202 d872 7282
000002a0: 75bc ac02 b4c4 4e02 47e2 1182 0620 0001
000002b0: c567 9082 fd1c 0001 7147 4082 a4c1 8281
000002c0: c660 2282 dd47 bf82 ae90 5782 71d0 6902
000002d0: 72f9 5e02 9b3f 8901 0aa6 5c82 0918 0001
000002e0: 1734 8302 2823 1e82 0096 3282 bc11 5f82
000002f0: f20b de01 2b39 5c82 2b48 5b82 0b7f 2a02
00000300: 0b90 b681 e3b6 6582 a5de 0282 e58d 8702
00000310: 78d1 5c02 3074 e701 98d7 6482 5096 3802
00000320: ac33 7482 9262 2282 2236 3982 394c b281
00000330: 345e 7302 99fe 5f82 7101 6302 43ad 6182
00000340: aa58 2282 fdbb 3902 183d 5802 6123 1c82
00000350: 625d 6182 7c1b 8502 e564 7382 7ed7 5d02
00000360: 6c1b d981 cb49 6482 3b15 ad01 676f 4e82
00000370: 3e45 7e02 441e 5182 e0c1 4b82 59e1 5182
00000380: 4487 3b82 140b 8602 3963 4202 9b19 4081
00000390: 0447 5b02 c018 2102 7b60 e481 7e41 2202
000003a0: 5d37 a801 c9b8 0402 3f93 c002 21ed 6202
000003b0: 4d0d 3002 7a24 4001 221a 1a82 5e2c 1682
000003c0: bfcb 2c02 9c2b 9c01 0023 4001 7d1b 3e82
000003d0: 02d7 5482 f758 3802 7284 5c02 e853 6782
000003e0: 6a9f 8182 cc1c 4081 de07 cd01 e124 a701
000003f0: ef9f ac81 b6f0 b001 a6dd 9601 e6c3 1b02
1.6512596e-37 3.1504647e-37 -1.6669743e-37 4.860511e-38 -1.3432197e-37 -1.1710022e-37 8.098869e-38 1.4386303e-37
2.4408413e-37 1.4258837e-37 -8.5706497e-38 -1.7562093e-37 1.6544362e-37 1.6870647e-37 -1.3144589e-37 1.5934332e-37
1.2219424e-37 -1.6098395e-37 1.7904808e-37 -2.3521148e-38 -2.3538754e-38 2.3277915e-37 3.5291836e-38 -1.0867602e-37
1.7853671e-37 4.97683e-38 -1.6498989e-37 1.669182e-37 -2.5941286e-38 -2.060804e-37 2.516612e-37 -1.2828067e-37
1.9561154e-37 -8.691871e-38 -1.735023e-37 -1.4641439e-37 -5.749826e-38 0.0 1.6366609e-37 -1.2408016e-37
-1.7928776e-37 -1.4182244e-37 -2.3039459e-37 -3.5286758e-38 -1.1471304e-37 -1.5070922e-37 -1.7707109e-37 1.7175849e-37
4.890311e-38 1.713899e-37 2.3521983e-38 1.7050458e-37 -1.2971825e-38 1.7348599e-37 -1.6685716e-37 1.1182833e-37
-7.705859e-38 -1.1567472e-37 1.7378348e-37 -1.7031978e-37 1.1712212e-37 -1.9340452e-37 1.7804248e-37 -7.592931e-38
-1.190243e-37 -1.6678539e-37 -3.7686358e-38 -1.013351e-37 4.856264e-38 -2.135305e-37 1.0649939e-37 -1.8028859e-37
-1.6352875e-37 -9.543658e-38 2.1431082e-37 2.0363214e-37 1.0002622e-37 2.3531447e-38 -1.1928416e-37 1.3271663e-37
2.0222764e-37 1.173604e-37 -1.9236857e-37 -1.0868945e-37 -1.3461542e-37 -1.6015093e-37 6.7142745e-38 1.236891e-37
-2.1267366e-37 1.7297499e-37 1.1593932e-37 -1.588699e-37 3.528726e-38 0.0 -2.6753812e-38 1.7480882e-37
-7.800959e-38 -2.352934e-38 9.48539e-38 -2.4455396e-38 9.542974e-38 1.1013789e-37 -6.9123766e-38 -1.8558974e-37
9.692756e-38 1.5268686e-37 1.6091238e-38 -2.0736004e-37 -1.6848174e-37 1.7349471e-37 1.4720884e-37 -1.8844303e-37
1.3019601e-37 -1.4407003e-37 8.66578e-38 1.6447797e-37 -1.7827548e-37 1.372929e-37 -1.9102841e-37 1.6932506e-37
-1.6308362e-37 6.1171285e-38 1.7190424e-37 1.1931867e-37 1.6659804e-37 1.6520186e-37 1.752361e-37 -2.3528908e-38
1.0996541e-37 -1.7293219e-37 1.5909693e-37 6.7627863e-38 -1.3113649e-37 -6.556132e-38 -1.4586912e-37 -1.7360725e-37
1.3872494e-37 1.4152176e-37 2.352426e-38 -1.1926017e-37 -1.2520272e-37 1.6875036e-37 6.1024037e-38 -2.3535573e-38
-1.063064e-37 9.501756e-38 -1.9491595e-37 -1.7570594e-37 1.4237275e-38 -1.6342533e-37 -1.6054551e-37 6.0802183e-38
9.0322133e-38 2.9409802e-37 1.7095882e-37 1.5756729e-37 -4.9796946e-38 0.0 -1.3554093e-37 -1.7898903e-37
-1.9185482e-37 -1.7412713e-37 1.6506626e-37 -8.165479e-38 4.466118e-38 -1.141476e-37 1.543936e-37 -1.7812311e-37
2.5381298e-37 1.5190941e-37 -1.0717856e-37 2.3532863e-38 -2.121846e-37 2.3530685e-38 -1.4126435e-37 -4.803232e-38
-1.1929653e-37 -2.8106175e-37 -1.5837226e-37 1.7177956e-37 1.6381571e-37 5.041712e-38 -1.6210698e-37 2.352713e-38
1.9278618e-37 -1.1618096e-37 -1.3120423e-37 -1.6388542e-37 8.156706e-38 -1.6179454e-37 -1.611029e-37 1.2526087e-37
-6.706293e-38 -1.6876749e-37 -9.614787e-38 1.991791e-37 1.6223162e-37 8.502272e-38 -1.6812667e-37 1.3561323e-37
-1.7941118e-37 -1.1930169e-37 -1.3607189e-37 -6.549625e-38 1.7879855e-37 -1.6456518e-37 1.667774e-37 -1.6580113e-37
-1.1927326e-37 1.3645603e-37 1.5886707e-37 -1.1471223e-37 -1.6557189e-37 1.9558369e-37 -1.7881776e-37 1.6298359e-37
-7.975256e-38 -1.6771972e-37 6.358063e-38 -1.5166461e-37 1.8680844e-37 -1.5363581e-37 -1.4969724e-37 -1.5419567e-37
-1.377741e-37 1.969589e-37 1.4281345e-37 -3.5283202e-38 1.6109959e-37 1.1835515e-37 -8.3892415e-38 1.1920676e-37
6.1792896e-38 9.750859e-38 2.829638e-37 1.667191e-37 1.2934255e-37 3.5291e-38 -1.1321633e-37 -1.1032992e-37
1.2695037e-37 5.7367926e-38 3.5289942e-38 -1.3966884e-37 -1.5637004e-37 1.3543717e-37 1.6201057e-37 -1.699528e-37
-1.9046346e-37 -3.528549e-38 7.5316396e-38 6.139903e-38 -6.3412315e-38 6.499759e-38 5.541935e-38 1.1443822e-37

embedding.embeddings.ken_20230618_denoised.poses.bias f4 [64]
00000000: f0b2 5082 3054 7502 0f2f 2202 ce60 4d02
00000010: 9197 5382 61c0 1a82 5ebb 3582 3498 6402
00000020: 2c2d 8482 2645 c182 97da 2c02 3688 e501
00000030: 6f6a 5981 280f 4802 2c10 0701 8fde 4602
00000040: c1be 4202 ad0a 5d02 0000 0000 88fb e581
00000050: 86ca 5102 fafc 5f02 e3fe 3882 d12a 5e02
00000060: 1488 6182 e960 2202 ea24 ac01 9b2d fa01
00000070: 7c24 4381 36b9 3e02 7640 4382 1f4a a901
00000080: 9db2 e801 dcbf ff81 4e29 9880 046b fa01
00000090: ed21 1e82 b7ba 5c82 f2b1 6402 b02b 4082
000000a0: c212 4081 d760 0682 2b6b 4b82 fc32 8781
000000b0: fe5f 2602 f5d1 6802 59d8 8782 3232 4802
000000c0: 4190 a481 eeda d981 b559 bb82 0e13 8001
000000d0: 6114 4081 5890 6681 c6b5 3202 62d6 6482
000000e0: c8d6 5e02 4736 2102 ff50 6a02 0ec7 6202
000000f0: c6af b302 0000 0000 412d 6382 d480 2102
-1.5332779e-37 1.8023918e-37 1.1915385e-37 1.5088803e-37 -1.5545329e-37 -1.1369343e-37 -1.3351552e-37 1.6794475e-37
-1.9421584e-37 -2.839849e-37 1.2699296e-37 8.431677e-38 -3.9932968e-38 1.4698029e-37 2.4807187e-38 1.4610614e-37
1.4307613e-37 1.623958e-37 0.0 -8.4482244e-38 1.5413016e-37 1.6456053e-37 -1.3591334e-37 1.6322272e-37
-1.6569442e-37 1.1929692e-37 6.323579e-38 9.1900937e-38 -3.584202e-38 1.4012148e-37 -1.4344837e-37 6.2187154e-38
8.547964e-38 -9.394751e-38 -1.3973813e-38 9.1989056e-38 -1.1617743e-37 -1.6216632e-37 1.6801862e-37 -1.411847e-37
-3.5278289e-38 -9.872557e-38 -1.494484e-37 -4.9664327e-38 1.2223302e-37 1.7104923e-37 -1.9960645e-37 1.4708085e-37
-6.045108e-38 -8.002736e-38 -2.752867e-37 4.7047116e-38 -3.5279452e-38 -4.234789e-38 1.3129541e-37 -1.6812319e-37
1.6371623e-37 1.1843989e-37 1.721485e-37 1.6660984e-37 2.6402575e-37 0.0 -1.6690313e-37 1.1865384e-37

core.core.fc.0.0.weight f4 [128, 64]
00000000: a323 6602 a604 4782 2845 5382 a34f 6382
00000010: 67be 7402 8854 5102 747e 6782 3564 5e02
00000020: 68af 6202 e8e1 5b02 18d7 4082 c6a7 6f02
00000030: f7f2 6302 bd37 6602 2f3a 5682 907e 6102
00000040: f593 8182 fea5 6102 3297 6a02 90f1 6902
00000050: 040e 4f02 f2dc 5c02 b514 5082 c07a 6282
00000060: f453 6f82 4a49 4e82 8ec5 5382 5332 5a02
00000070: e773 6582 85aa 6b02 d46d 7002 b827 6a82
00000080: 2801 7002 9a31 5a02 1240 6282 9d78 6002
00000090: 7f9f 6202 d453 6382 4b31 5a82 3676 5302
000000a0: 2ad8 5102 2e84 6a82 ce52 5102 8ab5 6e02
000000b0: d413 5302 386c 5e82 2c65 6f82 3c43 6202
000000c0: f63d 5802 e663 5702 ebed 6202 4ebc 6c82
000000d0: d5ce 6402 50ba 5682 3d5b 6102 280e 5d02
000000e0: b8d2 5102 a0f0 6602 7653 5602 8762 6202
000000f0: 6634 5282 b11a 6202 3af0 5282 0c19 4902
00000100: 30f5 4802 2007 6f82 db8d 6282 266a 6382
00000110: 710d 6002 ab77 5b02 482c 6e82 b660 7002
00000120: 3eaf 6282 ed5e 5a82 e29c 5d82 5ca4 6082
00000130: e1b2 5a82 d3f7 6682 b317 5482 e53b 6e82
00000140: cea6 6a82 8b40 5d02 68cb 7302 b617 5202
00000150: ac4c 6282 346f 6502 04bc 7382 a26c 6382
00000160: e691 6182 589e 6282 597b 6282 e500 6582
00000170: 2950 5902 8f93 6202 fd9a 6282 f4b0 5482
00000180: 614a 6282 ea95 6582 26b9 6082 1c98 6202
00000190: d644 5d82 8f54 6602 8c8d 5302 eab6 5f82
000001a0: 5afc 6c02 be27 7402 f483 4b82 ff76 6182
000001b0: ef94 5f02 f07d 6202 6cd9 5b02 95a2 6282
000001c0: f873 6882 f01f 7482 a3ab 7282 20ca 7502
000001d0: 2271 5e82 13e0 6602 a660 4282 2bfe 5982
000001e0: e867 6282 6438 6202 cfbc 5b02 732a 5902
000001f0: 5122 7182 3c4b 6282 c0ea 5e02 8699 7202
00000200: 1e08 5b82 e2f6 5b82 8ab5 4c02 5dc8 4e02
00000210: d8d3 5102 0892 6682 28c6 6882 5955 6f02
00000220: 64e6 6002 1fe8 5b82 ee38 5902 c6a7 5182
00000230: 5a34 4b82 b618 5802 3040 6482 02f0 5102
00000240: e2a7 6282 dfec 6d82 46b7 7282 505e 5d02
00000250: ca78 4182 b12a 6202 2132 6202 2e42 5a82
00000260: 40e7 5382 94a8 6282 9230 6002 ab14 5882
00000270: f31e 6382 f5c8 5702 8aed 6602 5431 4b82
00000280: 313a 5a02 2aff 6182 1326 5b82 de62 6282
00000290: 8c28 6a82 9b61 7002 f39c 7002 f46a 4f82
000002a0: 41a5 4782 b961 7502 4d9f 4402 a2a1 4a82
000002b0: b048 5682 6bb2 5782 9081 6202 e5d0 5182
000002c0: 0865 4f02 e5b3 5182 33d9 6202 d96a 5382
000002d0: 3d5b 6382 1fc8 5282 0592 6282 d46e 5e82
000002e0: 45c9 6082 dbba 4d02 c1be 5302 08a6 6402
000002f0: 27b8 5f82 9eb5 6202 1b96 5f82 42da 7082
00000300: fec5 6782 9f8a 4d82 850b 6a82 2e61 6782
00000310: f109 6182 77a7 6202 e6c3 6582 02a2 5082
00000320: fef4 5202 a9f2 6082 8814 7382 82ba 5182
00000330: 3748 6202 4ea7 6282 6727 5a02 cff8 5602
00000340: 0c31 6a82 653c 5082 368c 4f82 b059 5682
00000350: b534 6902 9675 6302 7c62 6502 154f 5b02
00000360: edcb 6702 543f 5a82 4135 5382 424b 6202
00000370: e033 4482 6f94 5f02 b4b1 6202 6769 5302
00000380: 35b8 6c02 4a6f 5402 11fe 6182 93f8 7382
00000390: cdc2 7502 1262 6082 76fb 5e02 a24a 7382
000003a0: 5775 6382 a050 5502 1894 6382 1072 6582
000003b0: 2d8a 5302 2ddb 5182 4027 5102 963e 5702
000003c0: 0279 5382 e055 6082 9dba 5682 2745 5982
000003d0: d1ae 5482 febb 6482 0c48 5402 76d6 4e82
000003e0: 9221 6282 2663 5982 cae5 7282 9595 5202
000003f0: fa6b 6282 3ff9 5d02 6048 7102 3c44 7482
1.6907959e-37 -1.4621545e-37 -1.5521679e-37 -1.6700181e-37 1.7980932e-37 1.5379154e-37 -1.700749e-37 1.6338742e-37
1.6654197e-37 1.6154411e-37 -1.4167661e-37 1.7607095e-37 1.6747054e-37 1.6913727e-37 -1.5738935e-37 1.6566711e-37
-1.903977e-37 1.6578027e-37 1.7234996e-37 1.7187462e-37 1.521198e-37 1.6226456e-37 -1.5287369e-37 -1.6639085e-37
-1.758304e-37 -1.5155523e-37 -1.5558527e-37 1.6030553e-37 -1.6857525e-37 1.731401e-37 1.7663934e-37 -1.7203004e-37
1.7632747e-37 1.6030345e-37 -1.6622245e-37 1.6491535e-37 1.6649631e-37 -1.6701384e-37 -1.6030257e-37 1.5535757e-37
1.5416931e-37 -1.7229539e-37 1.5378659e-37 1.7537578e-37 1.5507522e-37 -1.6341041e-37 -1.7587982e-37 1.6623153e-37
1.5886956e-37 1.5824375e-37 1.6672137e-37 -1.7392582e-37 1.6810152e-37 -1.5775706e-37 1.6556573e-37 1.6240578e-37
1.5415368e-37 1.6966787e-37 1.5746189e-37 1.6632134e-37 -1.5443401e-37 1.6611518e-37 -1.5497305e-37 1.4774336e-37
1.4764045e-37 -1.7560992e-37 -1.6644568e-37 -1.6707789e-37 1.6460778e-37 1.6123922e-37 -1.7498187e-37 1.766017e-37
-1.665415e-37 -1.6043353e-37 -1.6281539e-37 -1.650409e-37 -1.6067446e-37 -1.6968853e-37 -1.5582101e-37 -1.7502667e-37
-1.7239475e-37 1.6255039e-37 1.7911195e-37 1.5435168e-37 -1.6625861e-37 1.6856177e-37 -1.7906778e-37 -1.6708502e-37
-1.657226e-37 -1.66493e-37 -1.6639257e-37 -1.682452e-37 1.5965647e-37 1.6646205e-37 -1.6648337e-37 -1.5626083e-37
-1.6625203e-37 -1.6867286e-37 -1.6510056e-37 1.6647511e-37 -1.6256271e-37 1.6921998e-37 1.5542454e-37 -1.6435946e-37
1.7410963e-37 1.7937694e-37 -1.4951953e-37 -1.656454e-37 1.6426194e-37 1.664e-37 1.6151976e-37 -1.6650516e-37
-1.707795e-37 -1.7935454e-37 -1.7828609e-37 1.8057764e-37 -1.6342452e-37 1.6962037e-37 -1.4280606e-37 -1.6015585e-37
-1.6633677e-37 1.6620041e-37 1.6143764e-37 1.5954824e-37 -1.7715732e-37 -1.6625449e-37 1.6377354e-37 1.7823411e-37
-1.6091908e-37 -1.6160431e-37 1.5039652e-37 1.5191991e-37 1.5415691e-37 -1.693964e-37 -1.7101536e-37 1.758344e-37
1.652304e-37 -1.6156194e-37 1.595898e-37 -1.5403044e-37 -1.4929109e-37 1.5876265e-37 -1.6769215e-37 1.5423774e-37
-1.6652038e-37 -1.7479989e-37 -1.7831949e-37 1.6263582e-37 -1.4214065e-37 1.661611e-37 1.6618244e-37 -1.6035103e-37
-1.5568197e-37 -1.6652237e-37 1.647086e-37 -1.5875105e-37 -1.6686208e-37 1.5853377e-37 1.6965902e-37 -1.4928241e-37
1.6032811e-37 -1.6603618e-37 -1.6100506e-37 -1.6632231e-37 -1.7203241e-37 1.7660427e-37 1.7677457e-37 -1.5238652e-37
-1.4667637e-37 1.8027802e-37 1.4445523e-37 -1.4887003e-37 -1.5743097e-37 -1.5846909e-37 1.664104e-37 -1.5414845e-37
1.5236953e-37 -1.5406522e-37 1.6666191e-37 -1.5532496e-37 -1.670351e-37 -1.5485795e-37 -1.6645763e-37 -1.634179e-37
-1.6514682e-37 1.5114646e-37 1.5556575e-37 1.6798443e-37 -1.6436302e-37 1.6655979e-37 -1.6426531e-37 -1.7695052e-37
-1.7028021e-37 -1.5100804e-37 -1.7194911e-37 -1.6999089e-37 -1.6533242e-37 1.6651918e-37 -1.6880483e-37 -1.532792e-37
1.5498673e-37 -1.6526561e-37 -1.7858713e-37 -1.540842e-37 1.6624582e-37 -1.6651872e-37 1.6027418e-37 1.5793642e-37
-1.7205681e-37 -1.5298759e-37 -1.5248197e-37 -1.5747976e-37 1.7133263e-37 1.6711072e-37 1.6852527e-37 1.6112274e-37
1.7029724e-37 -1.6034285e-37 -1.5517115e-37 1.6625456e-37 -1.4414693e-37 1.6426051e-37 1.6654856e-37 1.5532081e-37
1.7391406e-37 1.5607239e-37 -1.6603303e-37 -1.7924158e-37 1.8055662e-37 -1.6485066e-37 1.638215e-37 -1.7874239e-37
-1.6711001e-37 1.5671907e-37 -1.6719827e-37 -1.6856997e-37 1.5541486e-37 -1.5417795e-37 1.5366159e-37 1.5813667e-37
-1.5536559e-37 -1.6481566e-37 -1.5775792e-37 -1.5962488e-37 -1.562547e-37 -1.6804746e-37 1.5595977e-37 -1.5196037e-37
-1.6613492e-37 -1.5971096e-37 -1.7845298e-37 1.5471291e-37 -1.6634845e-37 1.6308046e-37 1.7726654e-37 -1.7945871e-37

core.core.fc.0.0.bias f4 [128]
00000000: c2f5 6102 9e1b 5d02 c49f 6282 1b69 5302
00000010: 7ecc 4a82 2ab3 6482 0ac3 5b82 a838 4902
00000020: ac9c 5202 f693 4802 c9ce 6482 a5c3 6302
00000030: 3aff 5d02 6e4e 5382 cd63 5c02 d4e5 5182
00000040: 44f2 5c82 2988 5c82 c53c 6802 26d3 6202
00000050: 7458 6202 dbf2 6282 4eba 5682 e4b7 6282
00000060: f7f1 5b02 7647 4902 93c1 6202 4a44 4b82
00000070: df9c 5902 3883 4d82 8e63 6282 2ef5 6682
00000080: f629 6002 f2c5 5c02 214b 5182 3fdf 5c02
00000090: 4ac0 6402 cc9b 6202 1c78 4e02 ed60 6282
000000a0: 7298 6202 5c32 5882 d9ad 6202 80a0 5782
000000b0: ca3b 5602 8b0a 6302 62bb 5582 7224 5b82
000000c0: d2f4 5e82 d7d3 4c02 65d5 6082 ec7e 6202
000000d0: 948b 5582 33ae 5c82 9061 5382 85d3 6882
000000e0: d09c 4f02 8bc6 5d82 8df2 5c82 4bd7 5102
000000f0: 864a 6282 3390 5882 d6e1 6602 24bd 6182
00000100: c0f7 7a02 eeb1 5182 0ea3 4b82 c201 5182
00000110: d846 5302 dbc1 6402 cab3 6982 5b67 6282
00000120: 9a61 6282 96cb 5082 7b71 5c02 de42 5c82
00000130: 538d 4f02 4086 5982 6f7f 6282 7de2 4602
00000140: 9b62 5f02 79bc 5182 48b0 5282 d674 5d02
00000150: 2e11 6102 0105 6082 ece2 4e82 70d9 4982
00000160: 15b6 6f82 5760 5482 b499 6f02 61c9 7402
00000170: dc2d 5202 7100 5682 d5ad 6482 7f8e 5e02
00000180: a7a7 6202 4ca4 6082 cbc6 5682 052d 6082
00000190: b889 5e82 db59 5c02 c253 5982 1f31 6882
000001a0: 86eb 5e82 c553 5b82 b7cc 5102 f172 5a82
000001b0: 9c6b 6382 23da 5182 3d2e 5382 6b28 5d02
000001c0: 4711 5482 6e7f 6282 1281 4e02 9d5c 6702
000001d0: ef20 5682 82a5 6902 be31 6702 0fc7 5c02
000001e0: 6257 6202 59cf 6f02 50b9 5c82 8797 5f02
000001f0: 81cc 4d02 eaa4 4e82 341c 5c82 0c67 6302
1.6600918e-37 1.6244441e-37 -1.6649708e-37 1.5531996e-37 -1.4899303e-37 -1.6802212e-37 -1.6145552e-37 1.4783407e-37
1.5473326e-37 1.4736142e-37 -1.6810139e-37 1.6733473e-37 1.6309762e-37 -1.552434e-37 1.6191689e-37 -1.5420852e-37
-1.6232574e-37 -1.6202123e-37 1.7062108e-37 1.6664454e-37 1.6629243e-37 -1.6673554e-37 -1.5775704e-37 -1.6656632e-37
1.6159019e-37 1.4787656e-37 1.6659411e-37 -1.4933683e-37 1.5987662e-37 -1.5098679e-37 -1.6632428e-37 -1.6968094e-37
1.6468963e-37 1.6219855e-37 -1.5376456e-37 1.6227116e-37 1.6805979e-37 1.6648569e-37 1.516896e-37 -1.6631674e-37
1.6647607e-37 -1.5883626e-37 1.665375e-37 -1.5841767e-37 1.5739396e-37 1.6680352e-37 -1.5702545e-37 -1.6100038e-37
-1.6380244e-37 1.5048348e-37 -1.6518162e-37 1.6640282e-37 -1.5688826e-37 -1.621304e-37 -1.5529831e-37 -1.7105371e-37
1.5252961e-37 -1.6293495e-37 -1.6232656e-37 1.5416681e-37 -1.6625245e-37 -1.5910557e-37 1.6962543e-37 -1.658467e-37
1.84382e-37 -1.5405958e-37 -1.4960879e-37 -1.5355399e-37 1.5522163e-37 1.6806428e-37 -1.7169733e-37 -1.6633519e-37
-1.6631868e-37 -1.5339853e-37 1.6195615e-37 -1.6182237e-37 1.5248516e-37 -1.598117e-37 -1.6640429e-37 1.4611742e-37
1.6411751e-37 -1.5408984e-37 -1.5478954e-37 1.6270046e-37 1.653532e-37 -1.6458357e-37 -1.5199613e-37 -1.4829549e-37
-1.7611202e-37 -1.5602948e-37 1.7603057e-37 1.7984082e-37 1.5441524e-37 -1.5722364e-37 -1.6800682e-37 1.6350878e-37
1.6651972e-37 -1.6504072e-37 -1.5779288e-37 -1.6469841e-37 -1.6349507e-37 1.6188835e-37 -1.596668e-37 -1.7058765e-37
-1.6377576e-37 -1.611362e-37 1.5413645e-37 -1.6049097e-37 -1.6708208e-37 -1.5417497e-37 -1.5515101e-37 1.6248115e-37
-1.5580259e-37 -1.6640428e-37 1.5171531e-37 1.6997778e-37 -1.5731688e-37 1.7165635e-37 1.6985475e-37 1.6220174e-37
1.6628935e-37 1.7618453e-37 -1.6216229e-37 1.6426939e-37 1.5119711e-37 -1.5181818e-37 -1.6171141e-37 1.6706899e-37

core.core.fc.1.0.weight f4 [64, 128]
00000000: 5c93 4502 6bbc 5f82 c520 4a82 ffb2 6c02
00000010: ee35 6f82 7a3a 5f82 7b07 6182 8ae0 7382
00000020: ec95 6f82 ce8d 6682 2c2f 6302 3bd0 6382
00000030: 0acb 6702 41ef 6382 200f 6402 8877 6102
00000040: 370d 6502 d374 4c82 e7d4 6102 5399 7482
00000050: f2f3 6282 e251 6282 c392 7482 84a5 5c02
00000060: 5263 7282 269e 6c82 23ee 6082 acac 5482
00000070: d03f 4d82 aa98 6602 fd93 6b02 08aa 4d82
00000080: 5987 5082 2279 5782 0f5f 5082 4d71 5702
00000090: 633e 4e02 0c4e 5202 6b2f 7282 7947 5a82
000000a0: aa86 5682 406b 6382 14a9 7202 a723 5382
000000b0: d586 6202 7182 6582 5e18 4c82 9d81 5d82
000000c0: 14ae 6202 0f72 5d82 3ad1 6a02 c290 5c02
000000d0: 893b 6682 58d6 7102 47f8 4802 2d14 6a82
000000e0: 3a73 5d02 be62 5202 537c 5982 1ba8 5e82
000000f0: 11b8 6202 f9ad 5702 b2bf 6102 432b 5e02
00000100: b99d 6202 86c0 6502 7aa0 7482 4e4b 6c82
00000110: 567d 5682 67fe 5c02 027f 6202 3ce0 7182
00000120: bcc4 5b02 f4b5 4d02 98d0 5382 f95a 5082
00000130: 11e2 6a02 7d42 4e02 eed1 5c02 0dc5 5802
00000140: 8899 6282 4d51 5002 8c1a 5982 c4f7 4e02
00000150: 7052 7302 8e56 6c82 5b3e 6682 1150 6b02
00000160: 5078 7182 36a1 6202 4ad4 6202 b48c 6282
00000170: b529 4f02 6a66 7302 f744 6202 3897 6282
00000180: 09ad 6282 3a0a 6802 c28a 6282 bd23 5d82
00000190: c123 5202 fbad 5b02 dc97 5b82 d8ea 5f82
000001a0: 9bde 5202 9abc 6e02 eee9 4f02 12b5 5a82
000001b0: d024 5982 6585 6882 00b4 6382 4cb0 6982
000001c0: 93e3 5d02 4274 6202 8aa5 6282 8390 6282
000001d0: c6e0 6802 6640 7202 56e5 5f02 12f1 5a82
000001e0: b5ef 6202 3e44 7082 5a0c 6602 a4a7 7302
000001f0: 622a 5202 c8ab 6202 85d3 6402 e311 5a02
00000200: aff6 5f02 38eb 5582 891f 6282 0ac4 5f82
00000210: e811 5782 35f3 6282 e088 6282 fee8 6682
00000220: 0129 7382 a651 6982 c268 6902 cb97 6202
00000230: 124c 5b82 ebb7 6b02 7887 5402 eb71 7382
00000240: 6f51 6202 b4ef 6082 fe1d 6382 34e0 5a02
00000250: b166 5a02 915f 5d02 4ec2 6002 1b2d 5e02
00000260: 0d30 7282 00f1 5302 b6ef 5b82 a5f0 5802
00000270: 684f 6b82 9c08 4f82 9278 5882 88d6 6282
00000280: 278d 7182 84dc 6f82 6858 5382 9d18 5282
00000290: ff7f 7502 504d 6682 221d 5782 41a9 6282
000002a0: b3a4 4782 8389 6802 9a85 6602 176c 5d02
000002b0: 78ed 6282 bfe9 6082 fa61 4f02 d485 6202
000002c0: 0d75 5f02 5496 5002 2a1a 5102 88b3 5082
000002d0: 16e7 7082 5f08 6802 99d0 6482 77fb 7202
000002e0: 4c8b 5a82 39fb 6182 aac8 5f82 3386 7102
000002f0: 9431 6202 67cf 6382 cb00 5882 5ca8 7382
00000300: ea61 5d02 5140 6082 5e6d 5382 7c96 5382
00000310: 5038 5702 8c59 7402 4414 7182 4a01 7382
00000320: 5453 6802 d088 5382 42ec 4782 8129 7482
00000330: 1399 6602 d32e 4a02 c11c 6302 d42e 5282
00000340: 6660 6c02 0d82 7002 7674 6102 1424 5e02
00000350: ee52 6082 4d47 6502 d2ee 5902 c479 6502
00000360: a7a7 5402 df98 6282 d282 5382 94da 4982
00000370: 50b5 7102 686a 6702 1f8a 5482 7895 6d02
00000380: 0dd0 6c02 dd38 6d02 1241 6282 3255 6102
00000390: da84 6602 3fd2 7202 d493 6b82 3674 6682
000003a0: 4bc0 5c02 9e69 6502 3b1c 6702 1fc8 6a02
000003b0: 29c6 7102 efc4 5082 3b19 6702 eee5 7102
000003c0: 6bc7 6202 ee3a 6302 4a7d 5f02 9634 6c02
000003d0: cc42 7182 2e84 5182 07a8 5502 372a 5202
000003e0: 262c 7402 c426 6a82 d8b4 5f82 0aea 7102
000003f0: 9ff5 5682 bda8 6082 3c95 6202 b0bf 6202
1.4515564e-37 -1.6437526e-37 -1.4850021e-37 1.7389911e-37 -1.7574424e-37 -1.6400234e-37 -1.6532536e-37 -1.791726e-37
-1.7601972e-37 -1.6938427e-37 1.6690864e-37 -1.6737085e-37 1.7029469e-37 -1.6745989e-37 1.6755135e-37 1.6564693e-37
1.6828055e-37 -1.502108e-37 1.6591489e-37 -1.7970291e-37 -1.6673867e-37 -1.6627357e-37 -1.7968407e-37 1.6210548e-37
-1.7807856e-37 -1.7383928e-37 -1.6525263e-37 -1.5624855e-37 -1.5079335e-37 1.6941544e-37 1.7307544e-37 -1.5109818e-37
-1.5320269e-37 -1.5830469e-37 -1.5308707e-37 1.5828221e-37 1.5152394e-37 1.5450762e-37 -1.779296e-37 -1.6036622e-37
-1.5760884e-37 -1.6708105e-37 1.7827875e-37 -1.5512063e-37 1.6642553e-37 -1.6861698e-37 -1.4994546e-37 -1.6273713e-37
1.6653816e-37 -1.6269249e-37 1.725165e-37 1.6204591e-37 -1.6914817e-37 1.7767397e-37 1.4764931e-37 -1.7197395e-37
1.6269584e-37 1.5456701e-37 -1.5978321e-37 -1.6358228e-37 1.6656682e-37 1.5845633e-37 1.6585403e-37 1.63224e-37
1.6649122e-37 1.6879514e-37 -1.7972343e-37 -1.7360153e-37 -1.5758207e-37 1.6236057e-37 1.6640307e-37 -1.7770236e-37
1.6146039e-37 1.5113239e-37 -1.5561695e-37 -1.5307534e-37 1.7256483e-37 1.5153571e-37 1.6223294e-37 1.5925725e-37
-1.6647919e-37 1.5304759e-37 -1.5950261e-37 1.5205595e-37 1.7876479e-37 -1.7363382e-37 -1.6915626e-37 1.7288051e-37
-1.7740412e-37 1.6650123e-37 1.6664782e-37 -1.6644238e-37 1.5219927e-37 1.7882212e-37 1.662365e-37 -1.6647255e-37
-1.6653516e-37 1.7047603e-37 -1.6643679e-37 -1.6246772e-37 1.5438624e-37 1.6139509e-37 -1.613316e-37 -1.6450849e-37
1.5492248e-37 1.7539604e-37 1.5275093e-37 -1.6068075e-37 -1.5953207e-37 -1.708295e-37 -1.6728984e-37 -1.7168731e-37
1.6301826e-37 1.6637222e-37 -1.6651365e-37 -1.664533e-37 1.7109175e-37 1.7797834e-37 1.6449269e-37 -1.6085294e-37
1.667265e-37 -1.7652e-37 1.6901276e-37 1.7900931e-37 1.5440527e-37 1.6653157e-37 1.6811498e-37 1.6021244e-37
1.6454247e-37 -1.5716273e-37 -1.6612908e-37 -1.6439713e-37 -1.5800844e-37 -1.6673655e-37 -1.6643139e-37 -1.6964597e-37
-1.7864588e-37 -1.7141568e-37 1.71482e-37 1.664742e-37 -1.611141e-37 1.7317855e-37 1.5614178e-37 -1.7885513e-37
1.6627228e-37 -1.6525712e-37 -1.6685933e-37 1.6080454e-37 1.6045582e-37 1.6263942e-37 1.6512684e-37 1.6322929e-37
-1.7793142e-37 1.5570995e-37 -1.6158373e-37 1.5938235e-37 -1.7287862e-37 -1.5210429e-37 -1.5903776e-37 -1.6665425e-37
-1.7746392e-37 -1.7622232e-37 -1.5527203e-37 -1.5435427e-37 1.803649e-37 -1.6919919e-37 -1.5804066e-37 -1.6652431e-37
-1.4667477e-37 1.7084132e-37 1.6936073e-37 1.6267536e-37 -1.6672008e-37 -1.6524003e-37 1.5236076e-37 1.6642264e-37
1.6417044e-37 1.5324569e-37 1.5362404e-37 -1.533295e-37 -1.7698734e-37 1.704707e-37 -1.6810659e-37 1.7851519e-37
-1.6056087e-37 -1.6602487e-37 -1.644104e-37 1.7744397e-37 1.6618086e-37 -1.6736848e-37 -1.5869401e-37 -1.7901137e-37
1.6264616e-37 -1.6475379e-37 -1.5533219e-37 -1.5545019e-37 1.5811866e-37 1.7951988e-37 -1.77117e-37 -1.785319e-37
1.7068582e-37 -1.5541095e-37 -1.4688014e-37 -1.79382e-37 1.6941661e-37 1.4854054e-37 1.6685578e-37 -1.5441802e-37
1.7366207e-37 1.7669738e-37 1.6563812e-37 1.6320338e-37 -1.6480721e-37 1.6844725e-37 1.601118e-37 1.6859208e-37
1.5623414e-37 -1.664773e-37 -1.5539375e-37 -1.4829877e-37 1.7757918e-37 1.7001737e-37 -1.5614939e-37 1.7454905e-37
1.7398249e-37 1.7428329e-37 -1.6622532e-37 1.6554839e-37 1.6935858e-37 1.783969e-37 -1.7307498e-37 -1.6931082e-37
1.6218233e-37 1.6854574e-37 1.6979301e-37 1.7249037e-37 1.7762753e-37 -1.5337944e-37 1.697844e-37 1.777187e-37
1.6661088e-37 1.6694238e-37 1.6419409e-37 1.7353633e-37 -1.7725053e-37 -1.5392829e-37 1.569699e-37 1.5440478e-37
1.7938959e-37 -1.720273e-37 -1.6435352e-37 1.777305e-37 -1.5792727e-37 -1.6505346e-37 1.6646686e-37 1.6658869e-37

core.core.fc.1.0.bias f4 [64]
00000000: beea e72b 25c9 6d34 03fc ca8d 7a43 5212
00000010: 2f6e 9026 7ce2 2489 79c2 5402 a6ae 9904
00000020: 943e c60f aa4c ff19 4537 019f 76f5 cc38
00000030: fc65 200d 8cbb 3902 92c2 cf07 6912 9485
00000040: 7372 8a82 e0f8 f785 67c0 c132 d76e 943f
00000050: 56be 4482 0251 3806 4341 6f8a 1759 4882
00000060: 73c2 0508 78da 2481 36a1 f504 4f31 a330
00000070: c6a0 359c 5364 7207 e62d b738 dd0b b93c
00000080: 689b 269c 555a c708 a92e 8302 172f 5817
00000090: 4d12 e437 d2fd 0027 36bf 2384 1cd3 7aa1
000000a0: 5f6a aea2 ee81 e736 f10d 1fac fc88 4582
000000b0: 16dc 110a 8d76 c703 e49b 4982 1e8b d637
000000c0: b2d3 a887 40b4 922d 6c19 5ca9 5d3c 6f0b
000000d0: a145 d607 b74f 169a f4e5 222f 0d2d f58e
000000e0: 969b 6303 e89f 5c90 1a2b 7284 35ef 3aa3
000000f0: 2e83 7f02 b46a 9f2f 4aed 630a 5827 6282
1.6478691e-12 2.2145521e-07 -1.2509881e-30 6.6347487e-28 1.0021873e-15 -1.9847274e-33 1.5631111e-37 3.6130516e-36
1.9548412e-29 2.6397346e-23 -2.736253e-20 9.773199e-05 4.9426566e-31 1.3645477e-37 3.1260256e-34 -1.3924616e-35
-2.0342968e-37 -2.331919e-35 2.2555652e-08 1.1596326 -1.445443e-37 3.466607e-35 -1.1519706e-32 -1.4719247e-37
4.0251806e-34 -3.0278786e-38 5.7747272e-36 1.1873825e-09 -6.009567e-22 1.8235539e-34 8.734669e-05 0.022588665
-5.512565e-22 1.1998114e-33 1.9275502e-37 6.98528e-25 2.718824e-05 1.7901165e-15 -1.9248358e-36 -8.4982696e-19
-4.727542e-18 6.8994623e-06 -2.2602998e-12 -1.4512587e-37 7.0228896e-33 1.1723387e-36 -1.4811886e-37 2.557557e-05
-2.5402254e-34 1.6678325e-11 -4.8871863e-14 4.6075138e-32 3.2240065e-34 -3.1083666e-23 1.481551e-10 -6.0440545e-30
6.688791e-37 -4.3510537e-29 -2.8466755e-36 -1.0133734e-17 1.8772088e-37 2.899775e-10 1.09742815e-32 -1.6615149e-37

readout.readouts.bex_20230623_denoised.location.weight f4 [2, 64]
00000000: 8376 6a2b 8829 0534 291f 858d 64e5 6c11
00000010: 70a9 b127 cccb e18a 90d1 1905 3a8e 4887
00000020: f1f2 e60e 45d4 1919 1886 4d9e d2b6 8238
00000030: 1747 570f 159f 9985 6c50 a309 9155 c286
00000040: a39f 4b02 3d6b 3887 c10b 2433 d210 163f
00000050: afa4 ae03 4062 8808 ec54 d00a bf06 6305
00000060: e2d5 9a08 60f2 3a07 df5e d186 8446 5930
00000070: 9f79 989b 340d d387 623e 9038 98d2 a33c
00000080: b088 d79b ccf5 0b08 c47c a584 4d30 8416
00000090: 0f4c 8137 3973 9426 88a9 2d06 ceee b1a0
000000a0: 76d8 83a2 60cc 5036 743b 5eab 4210 0f85
000000b0: 96d7 890a 5a63 4187 ef41 3a04 d8b5 4738
000000c0: 80cd 3e89 b2a8 192d 84e1 0aab 892c c50c
000000d0: 6248 6509 7608 5799 c290 9e30 340a 1f8e
000000e0: 87cb 1c05 9756 8a91 0308 9604 cc56 84a2
000000f0: 8840 2d81 4780 0d31 c981 bb09 3290 4e02
00000100: 4553 1d2d 142e ad35 7bc7 098f c751 9913
00000110: 2c1a 0e27 a63f f489 2528 af82 10c7 5607
00000120: 468e 1311 06a2 341b 50fa 8d9e 9c3a 0e3a
00000130: dc15 f18e f2bc b484 3c2a 5d08 e23f 1786
00000140: 2818 5a81 c578 0087 6f87 f533 3a19 513f
00000150: 0fbb 2a85 7937 5588 8d6a e10a 7124 9505
00000160: 5aed 1309 28db fb86 8c02 0007 b0de 5531
00000170: 9fea 0a9c 3a71 0109 b758 f039 76c6 4d3d
00000180: e833 819c dc50 fc09 efcd 5a05 b41a a418
00000190: f53b 2e38 5bdb 6427 bf52 4a85 005d bfa2
000001a0: e0dd eba3 d045 3338 94f9 85ad 4679 0f86
000001b0: f1fc c70a fa64 f606 73e2 0e84 4bf4 aa38
000001c0: 979c 3e88 af9c ad2d b4bb 08a9 41fa 330b
000001d0: 3d13 6707 bc41 c699 db5d ea2e 1295 1290
000001e0: 98fc a484 c505 0b92 4fc2 6686 1b5c 6aa4
000001f0: e32b cf85 4d63 aa2f 8095 ac0b 4af1 9082
8.329797e-13 1.2401699e-07 -8.204259e-31 1.8687804e-28 4.9311073e-15 -2.1743372e-32 7.232516e-36 -1.5088124e-34
5.693332e-30 7.952782e-24 -1.08803396e-20 6.232936e-05 1.061401e-29 -1.4446488e-35 3.931645e-33 -7.310042e-35
1.4959898e-37 -1.3874136e-34 3.8194916e-08 0.58619416 1.026461e-36 8.208301e-34 2.0061615e-32 1.0674728e-35
9.3188215e-34 1.4064312e-34 -7.875646e-35 7.904435e-10 -2.5224886e-22 -3.1755512e-34 6.878075e-05 0.01999788
-3.5657099e-22 4.2117724e-34 -3.8905893e-36 2.1356232e-25 1.5413416e-05 1.0300794e-15 3.2662236e-35 -3.0142994e-19
-3.573681e-18 3.1113377e-06 -7.895275e-13 -6.726814e-36 1.3273715e-32 -1.4548903e-34 2.189447e-36 4.7614652e-05
-2.2967044e-33 8.734501e-12 -4.9340415e-13 3.037946e-31 2.7598907e-33 -1.1116948e-23 1.1537156e-09 -1.9603176e-30
7.372467e-36 -2.1825926e-28 3.5272188e-36 -3.587057e-18 -3.182138e-38 2.0591118e-09 4.514066e-33 1.5175872e-37
8.942906e-12 1.2902915e-06 -6.79304e-30 3.870327e-27 1.9720646e-15 -5.8800718e-33 -2.573698e-37 1.615807e-34
1.1640097e-28 1.4941604e-22 -1.5032483e-20 0.00054256036 -5.9432137e-30 -4.2491315e-36 6.6554415e-34 -2.8446877e-35
-4.0057608e-38 -9.665141e-35 1.1433337e-07 0.8167912 -8.027719e-36 -6.4162564e-34 2.1706792e-32 1.4025279e-35
1.7806084e-33 -9.473773e-35 9.630398e-35 3.1122163e-09 -4.596361e-22 1.5581049e-33 0.00045842465 0.050238095
-8.549921e-22 6.0742833e-33 1.0288135e-35 4.241997e-24 4.1540672e-05 3.176027e-15 -9.5131924e-36 -5.186912e-18
-2.5572719e-17 4.2741944e-05 -1.5231184e-11 -2.6984408e-35 1.9258149e-32 9.2683287e-35 -1.6796e-36 8.151735e-05
-5.7360116e-34 1.9737404e-11 -3.0360873e-14 3.4662416e-32 1.7384162e-34 -2.049927e-23 1.065776e-10 -2.8908263e-29
-3.8788185e-36 -4.386778e-28 -4.3400948e-35 -5.0818678e-17 -1.9482308e-35 3.0993377e-10 6.647693e-32 -2.1297391e-37

readout.readouts.bex_20230623_denoised.location.bias f4 [2]
00000000: f047 fc3e 77ed 2b3f
0.49273634 0.6715922
