artifacts/poses_to_location/20250820210428/best_model.pt (torch, 820853 bytes, 54 tensors)

embedding.embeddings.bex_20230623_denoised.poses.weight f4 [128, 34]
000000 be da cb bd 59 d0 30 be 25 78 99 be e4 2e 0a bd
       -0.09953831 -0.17266978 -0.29974476 -0.033736125
000010 3a 81 24 3e ce 8d 0c bd d1 07 c1 bd 91 1f a1 3e
       0.16064921 -0.034314923 -0.09425319 0.31469396
000020 5e 4d 91 bd 22 1f 22 3f d3 7a 1c 3e be db d6 3e
       -0.07094835 0.63328755 0.15281229 0.41964525
000030 18 b7 07 bf bf c2 55 3e 4c 72 77 3e ca 3c 1c 3f
       -0.53013754 0.20875071 0.24164695 0.61030257
000040 b3 14 dd 3e b8 76 90 be 07 6f ab 3e b5 4a 46 3e
       0.43179855 -0.28215575 0.33483145 0.19364436
000050 0d 0c 0d bd 3c 92 0a 3f fa 7e e1 be b7 70 69 bd
       -0.03443532 0.54129386 -0.44042188 -0.05699226
000060 6b 15 33 3e 7d 91 7d bf 60 a4 0b 38 4b 50 50 b7
       0.17488639 -0.9905012 3.329327e-05 -1.2416461e-05
000070 48 f2 eb 35 65 fc bd 34 de 9a 46 34 8f 6f 52 b7
       1.7579378e-06 3.5387635e-07 1.8496527e-07 -1.254295e-05
000080 af 50 28 b8 45 60 70 be 3e 7b a5 3d 52 e3 8e 3e
       -4.0129464e-05 -0.23474224 0.08080147 0.27907807
000090 13 d3 9d 3e e6 a0 18 3e 43 81 c1 be 33 30 95 be
       0.308251 0.14905128 -0.3779393 -0.29138336
0000a0 25 e2 8b be e1 9c a9 3c d8 f3 cd 3e 24 bd 20 3f
       -0.27320972 0.020704689 0.402251 0.62788606
0000b0 b5 1e 52 be 1e 7b 32 bf 76 30 79 be 7d 2d 42 3e
       -0.20519526 -0.6971911 -0.24334893 0.18962665
0000c0 b2 79 92 be 00 40 1d 3e fc b3 b9 3e ca 04 19 bf
       -0.2860847 0.15356445 0.3627013 -0.5977293
0000d0 fb 20 fc 3d 5e 88 bc 3e 3e f5 4f 3e 65 14 16 3f
       0.12310978 0.3682279 0.20308396 0.5862487
0000e0 da e7 10 3e 2f 9c d6 3e 32 6b cd bd 4e 55 94 bc
       0.14150944 0.41916034 -0.100302115 -0.018107083
0000f0 05 51 c2 b7 1e a0 fc 36 87 21 25 b4 e3 bc 94 33
       -2.316433e-05 7.5288253e-06 -1.537902e-07 6.926145e-08
000100 10 49 9f b4 df e9 f1 37 12 84 41 b9 e8 dc f2 3d
       -2.9669218e-07 2.8838343e-05 -0.00018455114 0.11858541
000110 a2 67 a8 be 9f 7f 98 bc f5 92 90 3e f2 d5 f7 be
       -0.32891566 -0.018615542 0.2823712 -0.48405415
000120 f4 85 13 3d 83 dc f3 3d 2a 7c fa be b1 09 15 bf
       0.03601642 0.11907294 -0.48922855 -0.5821791
000130 af b9 34 bc 9a ac dc 3e 2f 3c 63 be 41 e7 d1 3c
       -0.011030599 0.43100435 -0.22190927 0.025622966
000140 ad d9 27 3f d3 d9 c4 3c ab 22 78 3b 27 5b 1e bf
       0.6556652 0.024029648 0.003786246 -0.6185784
000150 15 7e a3 be 84 12 34 3f 6a e0 f3 3e 37 bd bd 3d
       -0.3193213 0.7034075 0.47632152 0.092646055
000160 e6 33 0f bf fc a0 79 be 27 8c 24 3e c2 83 a4 3e
       -0.55938566 -0.24377817 0.16069089 0.32131773
000170 ff 88 18 bf b3 0b a6 3e fc 4d 78 b8 a4 b3 38 b7
       -0.5958404 0.324308 -5.9200436e-05 -1.10090805e-05
000180 bd 30 40 b6 97 56 68 b4 7b 70 d5 b4 23 2b 36 38
       -2.86386e-06 -2.1638185e-07 -3.9756182e-07 4.3432356e-05
000190 6f 14 ad b8 7d 9a 2f bf 0a f5 91 be fc cf d8 be
       -8.253089e-05 -0.68595105 -0.28507262 -0.4234618
0001a0 7c 15 c8 3e 96 f8 32 3e f3 85 10 3e 68 ee e5 bd
       0.3907889 0.1747764 0.14113598 -0.11227113
0001b0 32 01 6b 3e 7f eb b6 3d 94 cb 2a be 0b 0e 5a be
       0.22949675 0.08931636 -0.16679221 -0.2129442
0001c0 8f 52 80 3c 7f aa 99 bd 01 04 1b be e5 01 d0 3e
       0.015664367 -0.07503223 -0.15138246 0.40626445
0001d0 84 63 90 be d6 27 83 3e d9 8b 94 3e 03 a2 ca 3e
       -0.28200924 0.2561633 0.29012945 0.3957673
0001e0 1c b6 88 be ae 59 85 be 3a 4f 95 be 83 59 13 be
       -0.26701438 -0.26044983 -0.29162008 -0.14389615
0001f0 aa 42 32 3f 90 30 c4 3e 75 73 86 3e 3d 0d 4c bf
       0.6963297 0.383183 0.26259962 -0.797077
000200 fe 0e c0 38 dd f3 96 36 b3 a8 8a 35 21 be b3 34
       9.158066e-05 4.498738e-06 1.0330899e-06 3.3479685e-07
000210 89 98 07 34 b3 ec 43 b8 8c a3 02 b7 0b a0 4e be
       1.2628347e-07 -4.6712066e-05 -7.7866825e-06 -0.20178239
000220 af 28 2e 3e 7f 64 a0 be d0 cb e1 be 04 8f 3e 3e
       0.17007707 -0.31326672 -0.4410081 0.18609244
000230 3e a8 7b bd 5d 9b 1c 3e 21 52 fe 3e b4 af 8c 3e
       -0.061439745 0.15293641 0.49672034 0.274778
000240 8d 61 8b 3e 82 ea 9b 3d 27 af 69 bf 2d ae f3 3d
       0.27222863 0.07613088 -0.91282886 0.11898456
000250 ae 6d 02 3f 12 75 b7 3e 30 e2 88 3e f4 40 18 bd
       0.5094861 0.35831505 0.26735067 -0.03717132
000260 3d 71 22 bf d5 d3 a8 3e 04 e4 d2 bd d9 8a 0e 3f
       -0.6345404 0.32974115 -0.10297397 0.55680615
000270 44 cb 35 3e 07 1b 61 3f 98 5c 08 bd d8 0d a5 be
       0.17753321 0.87931865 -0.03329143 -0.32237124
000280 f1 98 7b 3e c1 6a ae be 72 b1 1a 38 19 5e a7 b7
       0.24570061 -0.34065822 3.688172e-05 -1.9951769e-05
000290 f4 3b 86 36 f5 15 19 b4 ac c9 99 b4 be 77 9f b8
       4.0004907e-06 -1.4257223e-07 -2.8645206e-07 -7.6040145e-05
0002a0 d3 bd 7f 39 6d cc 9a bd 5b eb 31 3d a6 a7 72 be
       0.0002438941 -0.075585224 0.043437343 -0.23696765
0002b0 ce 53 4d 3e df 6e 0b 3f 95 fd 67 be 54 01 77 be
       0.200515 0.5446605 -0.22655328 -0.241216
0002c0 83 83 2c 3f b7 ca cd 3e cb 3c ec 3e 1e 97 be bd
       0.6738817 0.40193722 0.4614013 -0.09306167
0002d0 6b e4 04 bf 59 53 21 be b6 fe a4 be 44 d7 4b bd
       -0.5191104 -0.15754451 -0.3222558 -0.04976584
0002e0 3a 33 6f 3e 8b df 1f be d7 7d 01 3d 42 8a d9 3e
       0.23359385 -0.15612619 0.03161415 0.42488295
0002f0 74 03 9a 3d ff 5f 64 3c db a7 d2 be 31 be ba 3d
       0.0752019 0.013938903 -0.4114369 0.091183074
000300 39 6e 36 3e 7a 6f 37 3f 58 a1 64 3d ac 38 88 be
       0.17815484 0.71654475 0.055817932 -0.26605737
000310 80 70 9a 37 11 70 5a b7 95 84 a5 35 37 41 62 33
       1.8410617e-05 -1.3019905e-05 1.2332044e-06 5.2679038e-08
000320 66 74 20 34 0b ac 6e b8 97 63 58 39 f8 07 c3 3d
       1.4943507e-07 -5.690385e-05 0.00020636465 0.09523004
000330 25 ec 5c 3e 9d ba b0 3e 4f 9f ec bd d2 af 61 3e
       0.21574457 0.34517375 -0.11553823 0.22039726
000340 cb 44 c4 bd e5 e0 9c be 29 a5 c9 bd d6 95 58 be
       -0.09583434 -0.3064033 -0.09845955 -0.21150908
000350 95 0b 59 be 77 81 02 3e fb 86 f5 be 39 b4 16 be
       -0.21195824 0.127447 -0.47954544 -0.14717187
000360 20 b8 d1 bd 80 c5 60 be 72 9e c7 3d d2 9e 19 3d
       -0.10240197 -0.2195034 0.09747018 0.03750498
000370 e0 cf 06 3e 04 a4 75 bf 1d ea 22 3f 2d e5 5a 3f
       0.13165236 -0.95953393 0.6363848 0.85505944
000380 4c 18 6e 3e ac 7f 04 3f be 77 27 bf ff cd 83 bf
       0.23251456 0.5175731 -0.6541709 -1.029724
000390 0e 45 14 bf 8b 90 61 bf 93 04 9d 37 45 68 2b b6
       -0.5791787 -0.8811118 1.8717988e-05 -2.5541678e-06
0003a0 ef 4a 58 36 0e c1 27 35 95 e7 c0 b3 47 8a 48 38
       3.2230125e-06 6.249328e-07 -8.982821e-08 4.7812497e-05
0003b0 19 9b 9e b8 ec 1e 97 be 29 fd 97 3d 41 2c 2a 3e
       -7.562916e-05 -0.2951578 0.07421333 0.16618444
0003c0 82 dd 90 3c 53 c8 e2 bb d2 4e c3 3c be ec 7e bd
       0.017683748 -0.006920853 0.023841295 -0.062237494
0003d0 17 a7 fb 3e 28 2e b9 3e ab 52 e3 be 63 eb 0f 3e
       0.49150917 0.36168027 -0.44399008 0.14054637
0003e0 f7 95 5b 3f 98 1c 00 3e d0 d5 77 be 5e dd 02 bf
       0.85775703 0.12510908 -0.24202657 -0.5111903
0003f0 45 d0 f1 3e 33 27 16 bf d8 33 ad 3e ce 3b 43 bd
       0.4722921 -0.58653563 0.33828616 -0.047664456

embedding.embeddings.bex_20230623_denoised.poses.bias f4 [128]
000000 1d c1 94 bd 21 f0 6b bd 69 2c 22 bb 92 ff 83 bd
       -0.07263396 -0.05760205 -0.0024745709 -0.064452305
000010 8e 20 37 bb 8c 84 b1 bd 63 c0 51 3c ec f7 24 3c
       -0.0027942988 -0.086678594 0.012802216 0.010068875
000020 8b 3f bf bc 4d 60 f7 bd 9e 1e 87 3b 9c 09 7c 3d
       -0.02334573 -0.12078915 0.004123523 0.0615326
000030 c2 f0 04 be 42 9d 12 bd 75 ed 1f bd 02 ea e7 bb
       -0.12982467 -0.035794504 -0.039044816 -0.0070774565
000040 9c 69 d4 bd 5f f8 c9 3d 46 6a 09 3d 9e e5 13 bc
       -0.10371706 0.09861826 0.033548616 -0.009026913
000050 79 e9 66 bb 09 2a 22 3d b2 e3 de bd fd 42 90 3d
       -0.0035234375 0.03959087 -0.10883273 0.07044027
000060 c6 c7 b7 3b 86 5a 1f bd ec 88 01 3e 4e 56 a5 3c
       0.0056085316 -0.03890469 0.12649888 0.020182755
000070 df a8 bc 3d 66 74 fa bd 39 74 f9 3a 30 e9 9b bd
       0.09211897 -0.122292325 0.001903183 -0.07612836
000080 08 e2 07 be 7f 3b 0e 3d a7 12 04 3c 91 22 cd 3d
       -0.13269818 0.03472471 0.008061088 0.10016359
000090 f8 44 2f 3d b5 d7 08 be ce 3e b7 bd 49 54 55 bd
       0.042790383 -0.13363536 -0.08947526 -0.052082334
0000a0 b1 ad ad bd b6 11 71 3d 1d 72 ac 3d 0c bf 2b bd
       -0.08480395 0.05885478 0.08420203 -0.041930243
0000b0 fd 50 db bc 19 5f 00 be 32 9a 7d bd 86 7b 52 bd
       -0.026772017 -0.12536277 -0.06191463 -0.051387332
0000c0 03 82 af bc 0c d4 1f 3e c8 c7 e6 3d cf 8e c2 bd
       -0.0214243 0.15608233 0.11268574 -0.09499895
0000d0 9d d4 c4 bd ef f5 bb bd ab bd 83 3d 7c dc 16 bc
       -0.09610865 -0.091777675 0.06432661 -0.009207841
0000e0 32 d4 ef bc ea 01 95 bd 6a 08 8e ba 4b 62 0a be
       -0.029275987 -0.07275756 -0.0010836248 -0.13514058
0000f0 f7 9c d2 3d 20 39 a0 3d 5c e2 91 bd 2e 34 8e 3d
       0.10283845 0.07823396 -0.07123253 0.06943546
000100 b7 cc cf bc 78 76 01 3e f8 38 21 bd ef ba e8 bd
       -0.02536617 0.12642848 -0.03936097 -0.1136378
000110 7f 0e 36 bd 5b 6c 71 3d bd c3 d6 3d 5e ea fe 3d
       -0.04444742 0.058941226 0.10486553 0.12447046
000120 cc 38 9b bd 4b 3c d3 bc ca a3 af bd de 4f 63 3d
       -0.075791925 -0.025785586 -0.08576162 0.05549609
000130 fb 04 ca 3c ac 5d 5e 3d cb 63 73 3d af 19 2d 3d
       0.024660578 0.05428855 0.059421342 0.042260822
000140 88 30 04 be a1 ad 8f bd 08 a0 1d 3d 02 86 16 bd
       -0.12909138 -0.07015539 0.038482696 -0.036748894
000150 4e b5 44 3b ae 39 6f 3b e0 7b 74 bd e4 eb c4 bc
       0.0030015293 0.0036502886 -0.05968845 -0.024038263
000160 77 89 5c bd 6d 92 0e 3d 5a 38 af bc 1f dc 15 3d
       -0.053842034 0.03480761 -0.021389175 0.036586877
000170 97 de cf 3c ee 67 9d 3d 5b 8e b1 bd 6f b3 a5 3c
       0.025374694 0.07685839 -0.0866973 0.020227162
000180 64 73 04 3d 27 23 b1 3b d8 72 dd bb 39 d7 9c 3d
       0.032336608 0.005405802 -0.006758075 0.07658238
000190 13 4e 9a 3d be 6b ea bd bb e5 b5 b9 a5 5d 1d bc
       0.07534423 -0.114463314 -0.00034694173 -0.009604846
0001a0 ba 1f 19 bd e2 50 be bd 3a 88 9d bd e5 90 84 3d
       -0.037383772 -0.09292771 -0.07691999 0.06472949
0001b0 47 04 96 bd cc 46 d5 bd d9 1e cc 3c 2d 58 c4 3b
       -0.073250346 -0.10413894 0.024917053 0.0059919567
0001c0 4c c0 84 bd a2 d4 bd bd e3 c9 f5 bc 73 f5 9c 3c
       -0.0648199 -0.09269072 -0.030003494 0.019160008
0001d0 37 af 12 3e 2b 04 df 3d ae ff e4 bd d1 d2 a9 3d
       0.14324652 0.10889467 -0.111815795 0.08292163
0001e0 61 04 49 3d ea 9d 00 3e dc 1d 65 3d 73 e8 54 3d
       0.04907644 0.1256024 0.05593668 0.051979493
0001f0 69 7d 8c bd 50 6b 27 bd 84 1d a1 bb a0 7b 0b 3d
       -0.068598576 -0.040873826 -0.0049168486 0.034053445

embedding.embeddings.ken_20230614_denoised.poses.weight f4 [128, 45]
000000 88 15 0a 3e 10 ee 88 be 4c b4 ea bd 7b 7f 50 3e
       0.13484776 -0.26744127 -0.1146017 0.2036113
000010 4e fa 5a bd d4 c3 4d 3e b5 94 b4 3d 13 80 90 be
       -0.053461365 0.20094234 0.08817426 -0.28222713
000020 a6 ce 5c be 64 12 be bd ea e2 87 3d 88 eb 14 be
       -0.21563205 -0.092808515 0.06635077 -0.14542973
000030 64 c7 f1 3d dd a8 af 3d c4 cd 65 3d 9a 7a d7 bd
       0.11805609 0.0857713 0.056104437 -0.10521431
000040 e5 7e ce 3e b5 6b a2 be 16 0d ec bd 3d 5d 29 3e
       0.40331188 -0.317228 -0.115259334 0.16539474
000050 da 0f f2 3c b4 7c a0 3d ff 5b 5d bc 9d 51 66 bd
       0.029548574 0.07836285 -0.013510703 -0.056230176
000060 23 d0 81 be 40 af 93 be 99 4f a2 bd fd f6 ce 3d
       -0.25354108 -0.28844643 -0.07925338 0.10105703
000070 0b f5 0f be b0 9d 56 3e 49 a9 e1 bc 7f 85 a5 3d
       -0.1405832 0.2095859 -0.027546542 0.08082103
000080 cd b2 8e 3d 41 52 f2 3c c4 89 60 bc 3d 94 64 bd
       0.06967697 0.029580237 -0.013704721 -0.055805434
000090 ce 6c 9e 3e 43 42 07 3a 5e 53 2b b9 5e 36 94 b7
       0.30942386 0.0005159715 -0.00016338888 -1.7668292e-05
0000a0 e2 e6 8e b5 fa 4f be 34 b4 a6 a3 b4 d4 12 3f b8
       -1.064702e-06 3.5448448e-07 -3.0482408e-07 -4.5555484e-05
0000b0 1b ab d2 bf 32 6e 93 be a4 03 85 be f1 70 d4 3d
       -1.6458467 -0.2879501 -0.2597934 0.10373104
0000c0 c5 c9 2c bd 64 8b 8e bd 0b 69 2b 3c 6d 91 2a 3e
       -0.04218461 -0.069601804 0.010462056 0.16657038
0000d0 79 73 2c bf a0 f0 06 3e c3 89 a5 3e eb a3 68 be
       -0.673637 0.13177729 0.32331666 -0.2271878
0000e0 e8 fc 44 be 5e 49 11 3f 4e 30 57 3e 64 12 88 bd
       -0.19237101 0.56752574 0.2101452 -0.06644133
0000f0 33 39 a4 3d f9 52 34 3f cd 22 97 be fe 5f 47 bf
       0.080187224 0.70439106 -0.29518738 -0.7788085
000100 59 95 aa bc 65 0f bd 3e 73 93 91 bb 81 9e bd 3e
       -0.020823168 0.36925808 -0.004442626 0.3703499
000110 ae b5 81 bd dd bc 89 be 59 16 06 bf b4 72 7d be
       -0.06333481 -0.26901904 -0.5237785 -0.24750787
000120 0a 25 f7 3e de c7 cb bd a9 ba e4 3d 51 75 1e be
       0.48270446 -0.09950231 0.11168415 -0.1547444
000130 51 8d e9 3e 5a a2 1f 3f e8 78 4f bf a8 a5 3a bd
       0.45615628 0.62357104 -0.81043863 -0.04556814
000140 d8 fd c7 3e 2a c2 94 3e 2e 58 e6 b9 87 0c c2 36
       0.39060855 0.29054385 -0.00043934718 5.783109e-06
000150 2a 0c c5 37 60 9f 8b 35 e0 0c 84 34 4e ff 48 b3
       2.3489894e-05 1.0402691e-06 2.4596284e-07 -4.6798327e-08
000160 bb eb cf 37 95 e1 e8 3e 64 3d 00 bd a5 8b 1b 3d
       2.4786093e-05 0.45484605 -0.031308547 0.037974972
000170 e8 02 72 3e 08 28 18 3e b3 5b 3f 3e 2c 4d 2c be
       0.23633921 0.1485902 0.18687324 -0.16826314
000180 1e 26 4f 3e cb ba bc bc 1a 19 83 be 94 7f 26 be
       0.20229384 -0.023038289 -0.25605088 -0.16259605
000190 c3 03 29 3d 75 ce 5e 3e 6c bc 61 3e 88 b3 d4 be
       0.041263353 0.21758445 0.22044533 -0.4154322
0001a0 ea 7c 76 be a0 ec b6 3e a3 b1 f2 be 26 67 55 be
       -0.24071088 0.35727406 -0.4740115 -0.2084013
0001b0 c3 19 f2 bd 9b c2 c8 3d 8f 2f 2f bc a3 d2 f9 3a
       -0.1182132 0.09802743 -0.010692491 0.0019059967
0001c0 29 12 27 bf 79 29 b2 3e e4 2a 2c bf 1f 4b 31 bd
       -0.65262085 0.34797266 -0.67252946 -0.04328453
0001d0 60 13 d9 be 82 fb d1 be 25 e7 d2 3c 57 39 01 bf
       -0.42397594 -0.41012198 0.025744984 -0.5047812
0001e0 d1 19 00 bf 3e 3f 61 3e dd 2c da 3d 7c ee 89 3f
       -0.5003939 0.21996781 0.10653088 1.0775905
0001f0 b4 ef ce 3e 6e a0 63 bc cb f7 47 bd 48 35 36 b9
       0.40417254 -0.01389323 -0.0488203 -0.00017376721
000200 99 0d 3c 37 94 37 bc b6 90 92 fa 31 a4 f4 24 b5
       1.1208839e-05 -5.6093068e-06 7.29262e-09 -6.145076e-07
000210 66 9d 8d b3 17 e9 c3 36 76 67 dc 3e 78 af 62 be
       -6.594455e-08 5.838588e-06 0.43047684 -0.22137249
000220 69 67 59 be 61 75 99 3d 0b 24 6d be 0c dd 43 3d
       -0.21230854 0.074930914 -0.2315828 0.04781823
000230 d4 e3 f9 bd 27 02 11 bd fa ca 11 bd 4b 11 96 3e
       -0.12201658 -0.035402443 -0.035593964 0.29310068
000240 90 1c 45 bc ce 42 0d be 92 aa 15 be 4d 0f ac bc
       -0.012030736 -0.13795015 -0.14615849 -0.02100339
000250 95 63 da 3e f0 f3 bb be d3 92 44 bc 39 72 ca bd
       0.426541 -0.36709547 -0.011997896 -0.098850675
000260 ef 14 54 3d d8 52 e0 3c 7f df 84 3d 9a 6a b6 be
       0.051777776 0.027383253 0.06487941 -0.35628206
000270 ba 38 ce 3e fd c1 d7 3d 7b 6d 98 be d7 f4 c9 3d
       0.40277654 0.10535047 -0.29771027 0.098611526
000280 45 ef c6 be ec ba f6 3b ed 94 a2 3e 6e c2 9d 3c
       -0.38854423 0.007529607 0.31754246 0.01925775
000290 9b 4b fb 3e c1 72 6d 3d 81 f7 3d 3f 51 ad 03 3f
       0.4908112 0.057970766 0.74205786 0.51436335
0002a0 39 90 cd 3d 56 8e ee 3c ed f8 dc 3d 82 af 9b 3d
       0.10037274 0.029120605 0.10789666 0.07601835
0002b0 59 b0 c6 39 32 1c 98 b8 1a 61 cf b5 d5 27 16 b5
       0.00037896892 -7.2531766e-05 -1.5450962e-06 -5.593732e-07
0002c0 a4 af 55 33 ec 86 4b 31 c5 af 0c 38 d6 2d 8a bf
       4.975267e-08 2.9617082e-09 3.35423e-05 -1.0795238
0002d0 cf 4e 62 be 61 85 3a 3e 8d 57 3a be 48 c5 12 bb
       -0.22100376 0.18214943 -0.1819746 -0.002239542
0002e0 4f 35 10 3d f5 c4 d3 3d cf e8 d7 3d 2d 7e 1c be
       0.03520709 0.10340301 0.105424516 -0.15282507
0002f0 23 de 61 3d d8 4e 84 3e 5e cb f0 be 4d f0 4e bc
       0.055143487 0.25841403 -0.47030157 -0.012630534
000300 73 ad f2 3d e6 3d 62 3d 9f ab 9d 3e e6 a9 49 3e
       0.11849489 0.055234812 0.30795 0.19693717
000310 23 53 1a 3e b5 85 c0 3e 28 96 e6 bc 74 b7 88 3e
       0.15070777 0.3760201 -0.028147772 0.26702464
000320 59 1b 13 3d 41 df 52 3f e8 be 27 bd dd 5d 90 3d
       0.035914753 0.8237191 -0.040953547 0.07049153
000330 a8 a1 a7 bd f2 ef d3 3c 3f 9b a0 3e c5 6b 4a 3e
       -0.0818513 0.02587125 0.31368443 0.19767673
000340 c1 01 cc 3e c9 4f fe bd 01 70 94 bf cd df e3 3e
       0.39845088 -0.124175616 -1.1596681 0.44506684
000350 34 3e 40 3f 88 73 2d be 13 09 0b bf 87 b3 61 3e
       0.75094914 -0.16938603 -0.5431072 0.2204114
000360 6d 8a 4d be c5 72 f3 b9 52 c3 b1 38 b0 0d 28 37
       -0.20072336 -0.00046434082 8.476399e-05 1.0016767e-05
000370 d2 53 22 b6 7f 5e 94 34 92 d2 c4 33 5a 11 a1 38
       -2.418867e-06 2.7635903e-07 9.165264e-08 7.68031e-05
000380 f9 cc 79 3f 2d 4d 36 3e 3c 04 fd bd 08 c9 93 3d
       0.9757839 0.17802878 -0.12354323 0.07216078
000390 40 79 2d be 8d 73 da 3e 31 ae 6e bc 5d 0b 00 3e
       -0.16940784 0.42666283 -0.014567898 0.12504335
0003a0 66 ec e7 bc 90 86 70 3e e6 9c ce 3d c3 1f 66 be
       -0.028310966 0.23488832 0.1008852 -0.22473054
0003b0 01 a6 b1 bd ef a1 bd be 08 4e 30 3e 96 77 a0 3d
       -0.08674241 -0.37037608 0.17217267 0.07835309
0003c0 74 01 33 be 51 7a 68 3e a0 1b f6 3e c1 d6 5c be
       -0.17481023 0.2270291 0.4806795 -0.21566297
0003d0 cc 8b 9f 3d 84 45 82 3e f6 5b 93 3e bd c5 0b bf
       0.07790336 0.2544366 0.28781098 -0.545986
0003e0 97 1f b4 3d b4 4b 73 3c 86 39 d4 3d 35 75 e8 3e
       0.08795088 0.014849592 0.10362534 0.45401922
0003f0 29 89 cd 3e 31 a7 fe 3e 39 a0 a2 3e 48 62 01 be
       0.40143707 0.49736932 0.31762865 -0.12635148

embedding.embeddings.ken_20230614_denoised.poses.bias f4 [128]
000000 bc 62 92 bc dc f3 99 bd 08 b0 63 3d e4 ab 5c bc
       -0.017869346 -0.075172156 0.0555878 -0.013468716
000010 ea 9a 8c 3d 48 fa 62 3b 8c 4b 28 3d de f2 99 bd
       0.06865485 0.0034634043 0.041087672 -0.07517026
000020 0b 51 8e bb 22 0c e6 bd 9e 72 8c 3c 22 ea 30 bd
       -0.004343157 -0.11232783 0.017144497 -0.043192036
000030 18 99 be 3d e1 c3 3b 3b 36 d4 89 bd 4f 19 e1 3a
       0.09306544 0.0028650688 -0.06729929 0.001717368
000040 ae 0d f3 3c 8a b4 f4 3c 20 dc bd 3b c3 93 1d bd
       0.029669609 0.029871244 0.005794063 -0.038470995
000050 61 41 b6 bc a8 15 47 bc 12 10 24 bd 2a 0d 0b 3d
       -0.022247972 -0.012151159 -0.04005439 0.0339481
000060 0f cd 9f 3a ae 2a 9e 39 46 3a e6 3c 2a e4 17 bd
       0.001219185 0.00030167907 0.028103959 -0.03708283
000070 c3 a6 a1 bc 84 4e 63 bd da b9 a7 3d 6d 1d b1 bc
       -0.019732838 -0.0554948 0.08189745 -0.021620477
000080 e1 52 ba bc d8 77 aa bd ed 72 0b 3c 09 7a 46 bd
       -0.022744598 -0.0832364 0.008511287 -0.048456226
000090 a6 5b 53 bd 7a 24 08 bd 52 6a 2b 3d 16 0f 85 bd
       -0.051601075 -0.03323791 0.04184944 -0.06497018
0000a0 84 49 b7 bc 16 fc 91 3c f0 b4 f6 3c a1 f8 0c bd
       -0.022373922 0.0178204 0.030115575 -0.0344168
0000b0 eb d2 2c bd 77 ca 4f 3d 59 d2 b6 bd 18 9b ba 3d
       -0.042193335 0.050730195 -0.089268394 0.09111613
0000c0 b2 71 bb bc 46 fc 90 3d 33 d7 bf bd ee 9c 9d bd
       -0.022881363 0.07079367 -0.09367218 -0.076959476
0000d0 61 5e e1 bb e4 e7 27 3d d1 f0 52 3c ab 4f 77 3d
       -0.006877706 0.040992633 0.012874798 0.06037871
0000e0 a5 f5 99 bc ef 1e 0e 3d b6 57 87 3b 3c c8 d3 3c
       -0.01879389 0.03469747 0.004130329 0.025852315
0000f0 2a 99 ba bb 04 52 85 bd 6b 5e b8 3c 24 65 18 3c
       -0.005694528 -0.06509784 0.02250596 0.009301458
000100 d8 e1 8e 3d 63 29 e2 bc 7c 6f c1 3c fa fb b6 3d
       0.0697667 -0.027607625 0.02361273 0.089347795
000110 1e ef a9 3c 4f 6b a7 bd f3 ef 24 3b 45 15 fa 3c
       0.020743903 -0.08174764 0.0025167435 0.03052772
000120 88 40 97 3d 6e 21 0d 3e ae ee 03 3d 44 6e 48 bd
       0.07385355 0.13782284 0.032210045 -0.048933282
000130 cf 88 a0 3c ce f3 55 3d 68 fc d4 3c df af 8f 3b
       0.019596485 0.052234463 0.025999263 0.004384979
000140 72 92 5c bc 25 ce 85 3c 84 91 0b bd 59 fc cd bd
       -0.01346265 0.016333649 -0.03407432 -0.10057897
000150 65 c4 ab bc 30 50 2b bd 8c 31 75 bd b7 2b 9a bd
       -0.020967672 -0.04182452 -0.059861705 -0.07527869
000160 16 63 96 bd c8 04 aa 3c 06 a1 bf 3c 8d 7f 1c bd
       -0.07343118 0.020754233 0.023392212 -0.03820758
000170 b0 25 f7 3c 15 4f b6 3d df 13 9c 3d 14 0d 9d bc
       0.030169338 0.089018025 0.076209776 -0.019171275
000180 c6 98 bc 3d e7 46 ef 3c e7 42 5f 3d 79 7d 88 bc
       0.09208827 0.029208614 0.054507162 -0.016661393
000190 63 07 41 bd 6b 8d 7f bd a9 bc 89 bd b6 7e 83 bd
       -0.047126185 -0.062390726 -0.06725437 -0.064206526
0001a0 58 9c 13 bd 21 e4 84 3d 54 fb 12 bd 5c 99 86 3d
       -0.036037773 0.06488825 -0.035884216 0.0657222
0001b0 4c 2f a3 3c 79 d7 a6 bd a6 4e 46 3c 63 31 ee bc
       0.019920014 -0.08146567 0.012103712 -0.029076284
0001c0 78 a1 b8 bc e0 9e 27 bd a7 37 6b 3d a0 2d 7a bd
       -0.022537932 -0.040923 0.05742612 -0.061078668
0001d0 52 fe ce bd aa 19 1e bc cf af 71 3d 7b 4d 91 bc
       -0.101071015 -0.0096496735 0.059005555 -0.01773714
0001e0 6e 93 51 bd f4 a8 23 3d 2e d5 dd 3c 34 98 0a bd
       -0.05116599 0.039956048 0.027079191 -0.03383656
0001f0 a6 ff d7 bd e6 d2 8c bd 74 b2 93 3c 24 7c f6 bc
       -0.10546808 -0.06876163 0.018029429 -0.030088492

embedding.embeddings.ken_20230618_denoised.poses.weight f4 [128, 41]
000000 93 ea 96 3d a7 3c 30 3e de 9c 0a be ca 78 ad be
       0.0736896 0.17210637 -0.13536403 -0.33881217
000010 2f 1b 58 3e c2 c2 48 be 17 cf 76 3c 06 ca c6 3e
       0.2110412 -0.19605544 0.0150640225 0.38826007
000020 23 53 0d 3f fa af ec bc 62 2d ee 3d f9 19 e3 be
       0.5520498 -0.028892506 0.1162975 -0.44355753
000030 7a 42 e0 3d 62 4b 6a be 98 db 89 3e 31 2b 03 3e
       0.109501794 -0.22880319 0.2692535 0.12809445
000040 28 89 5b bf 8f 0e b9 be 7d ea 1b 3e 15 1a c6 be
       -0.8575616 -0.3614392 0.15226169 -0.38691774
000050 2c ab 35 3e e5 29 3f bf 23 81 0d 3f 0e 3b 0d bf
       0.17741078 -0.746733 0.5527517 -0.55168235
000060 2b 7c 86 3e 17 8b 68 be 51 64 a1 3e eb af 50 3f
       0.26266608 -0.22709309 0.31521848 0.8151843
000070 52 23 e6 3e b9 0c 29 bf d8 a0 80 be 64 cc d0 3e
       0.44948822 -0.6603504 -0.25122714 0.40780938
000080 36 2f b2 3e 87 19 08 b8 96 75 f0 b6 38 b6 39 37
       0.34801644 -3.24487e-05 -7.166246e-06 1.1069285e-05
000090 01 e9 e4 b5 99 02 c4 34 4d 06 c7 34 5d 8b 53 b8
       -1.7055137e-06 3.6509735e-07 3.7071223e-07 -5.0436112e-05
0000a0 70 e9 fe 3d b9 bc 43 bd c0 7d 6c 3e d7 43 9f 3d
       0.124468684 -0.0477874 0.23094845 0.07776611
0000b0 90 6c e3 3d 1f b1 99 3d 30 83 d9 bd f8 be 7c 3e
       0.11104691 0.07504486 -0.10620725 0.24682224
0000c0 e2 c2 10 3e 6e 1d f8 3d 6a 38 4f 3f 98 ce 5a bd
       0.14136842 0.12114988 0.80945456 -0.05341968
0000d0 e8 78 09 3f a2 3c 56 bd 01 da d4 3d c6 96 93 bd
       0.53700113 -0.052303918 0.103931434 -0.07206492
0000e0 a5 cf b4 be 8e 13 25 3e eb 8a 13 3d d6 ee 76 bf
       -0.3531467 0.16120741 0.036021154 -0.96458185
0000f0 13 90 59 bd e5 f3 e1 be d5 ae d9 be ae f5 7f 3e
       -0.053115916 -0.4413139 -0.425162 0.24996063
000100 36 96 05 bf 4f f4 3c 3f 23 82 90 3e fd a9 df bd
       -0.5218233 0.73810285 0.28224286 -0.109210946
000110 82 58 c0 3e 03 75 ee 3c e9 ad 9e 3d e7 be db be
       0.37567526 0.02910853 0.077480145 -0.42919084
000120 f1 96 32 3f 47 c8 6a 3e 2d 69 8f 39 76 95 de 35
       0.6976157 0.22927962 0.00027353448 1.6583788e-06
000130 a0 ad 5b 37 5b e1 b6 b4 1e 0c b9 34 3d 27 d1 33
       1.3093842e-05 -3.406411e-07 3.4467752e-07 9.739458e-08
000140 cb bf b5 37 10 a2 8b bf a7 b8 c4 bd 6a 24 34 3e
       2.1666192e-05 -1.0908833 -0.09605532 0.17592016
000150 5e 83 24 be d6 c6 99 3e c3 6e 11 bf 3e 5a f5 3e
       -0.16065738 0.30034512 -0.56809634 0.47920412
000160 a8 6e 45 bf 4e cf 1f 3e 3a bd 0e bf 09 85 7a be
       -0.77121973 0.15606424 -0.55757487 -0.24464811
000170 99 e0 de be 76 f9 5f bb 99 01 45 bf ba 1a 8f bf
       -0.4353073 -0.003417579 -0.7695556 -1.1180031
000180 73 ac 53 3f c8 df 0d bf 82 f2 f3 3e bb ac c3 bd
       0.8268501 -0.5541959 0.47645956 -0.0955443
000190 b6 bd dc be be 2d e2 bd 5e 79 17 3f 83 b4 f6 3d
       -0.43113488 -0.11043881 0.59169567 0.12046149
0001a0 21 86 03 3e c7 3b 47 3e 73 83 c4 be 9b 71 00 bb
       0.12844135 0.19456397 -0.38381538 -0.0019598964
0001b0 8a 23 3c be eb 03 a1 3e ac 3e a7 3e 22 24 be bc
       -0.18372932 0.31448302 0.32665002 -0.023210589
0001c0 c1 1a 87 3e d1 ff ac 3e 11 23 8d bd 4b 59 52 b9
       0.263876 0.33788922 -0.06891454 -0.00020060425
0001d0 e8 e9 d8 b8 e2 5e cb 37 c0 df dd b5 36 f5 d2 34
       -0.00010343251 2.4243669e-05 -1.6530903e-06 3.9293963e-07
0001e0 d5 45 f5 33 00 af 00 38 6a 71 22 3f 3c c0 4d 3e
       1.1421404e-07 3.068056e-05 0.63454306 0.20092863
0001f0 4d d6 37 3e 99 cd 93 3d 08 c2 5f be f6 b4 0c 3f
       0.17952843 0.07216949 -0.21851361 0.54963624
000200 4c 12 85 be 8f dc bf 3d 45 8e 92 3e fb d5 51 3e
       -0.25990522 0.0936824 0.28624168 0.20491783
000210 5c 31 f5 be 00 c3 8b be a6 61 dc be cc 07 57 be
       -0.4788922 -0.2729721 -0.4304325 -0.20999068
000220 ab 72 47 bf ca 64 30 bc ae c7 55 3f 45 49 8e 3e
       -0.77909344 -0.0107662175 0.8350781 0.27790275
000230 f1 f3 b9 be d6 5f 08 3e 2f 82 12 bf 74 dc 91 bf
       -0.36318925 0.13317809 -0.57229894 -1.1395402
000240 d2 4c 39 bf ef ad 03 bf 28 d8 0c 3f 11 07 2c 3e
       -0.72382843 -0.51437277 0.5501733 0.1679957
000250 15 e4 ad 3e 6a bc 11 bf f6 69 42 3f 78 f4 17 3e
       0.33963075 -0.5692812 0.75942934 0.14839351
000260 f9 30 6c 3c 45 e9 fb 3e 1a 91 21 3f fc 9a 6c 3f
       0.014415973 0.49201408 0.6311203 0.9242399
000270 e4 96 64 38 fe 59 17 b8 93 98 f3 37 1a 80 ba 35
       5.4499964e-05 -3.6085017e-05 2.9038905e-05 1.3895362e-06
000280 50 ad e5 b2 cb 0d 20 35 32 90 57 b7 39 d2 34 be
       -2.6737922e-08 5.9624716e-07 -1.2848572e-05 -0.17658319
000290 e3 76 41 bf dc 4d ca be f7 1e 01 3f 34 73 e7 3d
       -0.7557203 -0.39512527 0.50437874 0.1130127
0002a0 42 95 7e 3e 71 a4 bb be c8 ac 4e 3d 90 ab ee bd
       0.24861625 -0.36648896 0.050457746 -0.11653817
0002b0 8b 7b 25 be b4 92 d2 be eb 73 87 be 50 7d 8c be
       -0.16160409 -0.4112755 -0.26455626 -0.27439356
0002c0 2d 6d f6 3e 3a ba 27 3f f9 3d 50 3f 57 f3 da bd
       0.4813017 0.65518534 0.8134456 -0.10690945
0002d0 bc 7b 3b bf f7 d8 eb 3e 1a bc 8a bf cc 0b 11 3f
       -0.7323568 0.4606397 -1.0838654 0.56658626
0002e0 e0 e2 ab be 4e a8 63 bf 5c ee 51 3f f9 41 fc 3d
       -0.3357153 -0.8892869 0.8200433 0.12317271
0002f0 ad 5e 34 3e 90 78 29 3d d3 1f 16 3e 85 2e 2a bf
       0.17614241 0.041374743 0.14660577 -0.66477233
000300 06 e3 b1 be d3 82 3a 3e 88 c7 ca be cf 30 0e bf
       -0.34743518 0.18213968 -0.39605355 -0.55543226
000310 03 f4 86 3e 10 88 b8 39 ef ad 82 38 00 49 9c b5
       0.2635804 0.0003519659 6.231281e-05 -1.1644152e-06
000320 a7 9e 02 35 f5 33 6e 34 a4 07 6d b2 4d 71 d1 38
       4.8659643e-07 2.2184379e-07 -1.3796953e-08 9.9870005e-05
000330 49 7d 4b bf 50 3c c3 3d 38 19 0f bd 99 51 dc 3e
       -0.79488045 0.09532988 -0.03493616 0.43031004
000340 a1 78 59 3e c0 d6 e2 3d 1d cf 6b be b7 9c c2 3b
       0.21237423 0.110761166 -0.23028226 0.005939092
000350 55 01 a5 be c7 ec 3e 3e 01 3f 45 bf bd b1 08 3f
       -0.3222758 0.18645011 -0.7704926 0.5339621
000360 60 8b f7 be 2e e9 55 3c b1 a0 ee 3d 7f 1c 83 be
       -0.48348522 0.013056083 0.11651743 -0.25607678
000370 f3 94 b8 3e 50 9e a4 be e0 41 10 3e 83 9d 5d be
       0.3605114 -0.32152033 0.1408763 -0.21642117
000380 15 b3 13 3f fe 7f 6f bd 0f 50 fe be d2 17 54 3e
       0.5769513 -0.058471672 -0.49670455 0.20712212
000390 f3 19 a6 bd bc 16 44 3e 55 df 28 3e 5b ca 63 be
       -0.08110418 0.19149297 0.16491444 -0.22245161
0003a0 31 ea f3 bc 01 6c 11 bf a5 a4 45 3e 75 96 81 be
       -0.029774757 -0.56805426 0.19301088 -0.25310102
0003b0 ce 0d 30 3f 42 60 86 3f c2 e8 57 39 e8 fc 71 b6
       0.68771064 1.0498126 0.00020590707 -3.605901e-06
0003c0 1c 50 84 36 8f ad e4 b3 4c ac 73 b4 1c cd a6 34
       3.9432325e-06 -1.06486475e-07 -2.269382e-07 3.1069146e-07
0003d0 d1 b5 cf 37 32 de 1d bf ce 14 b4 3e 45 5b 9f 3e
       2.4760988e-05 -0.6166717 0.35172123 0.3112432
0003e0 b1 4c 0e bd 07 24 7b be c5 56 7f 3e c4 70 e2 3d
       -0.034741107 -0.24525462 0.24935444 0.110566646
0003f0 c9 0d 3d be 65 1e 81 3e ed bb 77 3e e8 e9 bf 3e
       -0.1846229 0.25218502 0.24192782 0.37483144

embedding.embeddings.ken_20230618_denoised.poses.bias f4 [128]
000000 3f 02 ce 3c ba 33 14 3c e9 14 39 3d 21 74 19 bc
       0.025147555 0.009045536 0.045185957 -0.009366066
000010 e5 5d b8 bc af 02 f3 bd 56 98 5e bc 81 f0 2e 3b
       -0.02250571 -0.11865746 -0.013586124 0.0026693644
000020 b2 a7 1a 3b e2 e7 02 be 3b 76 6a bc a7 25 c5 bc
       0.002359849 -0.12783769 -0.014310415 -0.024065806
000030 44 cd 84 3d 9c 92 88 3c 7e 1c 8d bd a8 58 6b 3c
       0.06484464 0.016671471 -0.068902 0.014364399
000040 b1 20 6c bb 11 66 e4 3c 1d 50 0b 3e d6 88 7e bd
       -0.0036030228 0.0278807 0.1360478 -0.062142216
000050 62 c4 e1 bc 34 9e b6 bc 04 ef 15 bd 92 a7 96 bc
       -0.027559463 -0.022292234 -0.036604896 -0.01839045
000060 dd db 49 bc 04 15 9f 3b cf e0 a2 bd 98 bd 0f 3d
       -0.012320486 0.0048548 -0.07953035 0.03509292
000070 da d1 8c bd 40 ee 90 3b 2d 24 77 bb 7d dc af bd
       -0.068759635 0.004422933 -0.0037710771 -0.08586977
000080 cc 02 f2 bd 40 f4 9e 3d d2 bc 9a bd b6 f7 81 3d
       -0.1181694 0.07761431 -0.07555546 0.06346075
000090 8c 9a b8 bd b5 16 14 bc 35 1b 22 bc 93 ee 18 be
       -0.090138525 -0.009038617 -0.009894182 -0.14934759
0000a0 7a 3b 91 3d 02 1b 87 3d dd bc 13 bd dc 0e a0 3d
       0.070914224 0.06596948 -0.036068786 0.07815334
0000b0 a5 e9 36 3d 3d ed 0e bd 0a 62 25 bd 7d 18 99 bc
       0.044656415 -0.034894217 -0.0403767 -0.018688435
0000c0 0a 0f 85 3d 35 9d 07 3e 47 bc 6b 3d 71 16 00 be
       0.06497009 0.13243563 0.057552602 -0.1250856
0000d0 6d 48 af 3d 6f b4 ee bd a9 cd 6a bd fb d7 0d 3c
       0.08558736 -0.11655509 -0.05732504 0.008657451
0000e0 ef f2 37 3d 16 5f db bc 65 ee 51 bb a8 a9 c4 3c
       0.044909414 -0.026778739 -0.0032032963 0.02400668
0000f0 d4 ba 40 bd 40 d3 10 3e fa f2 15 bb 71 b2 50 bd
       -0.047053173 0.14143085 -0.002288042 -0.050951425
000100 dd d4 74 bd 46 e9 23 bd e3 8b 66 bc c1 9e b8 bc
       -0.059773315 -0.04001739 -0.0140714375 -0.022536637
000110 69 63 b2 3c 87 b4 5f 3d 51 74 9d bd 3e 92 27 3d
       0.021775918 0.054615524 -0.07688201 0.04091095
000120 0a 95 b3 bd f1 84 4d bd 63 7e 02 bd f0 48 ef bc
       -0.08768661 -0.05017561 -0.031858813 -0.029209584
000130 5e 48 01 3e 61 9e 16 3d 80 51 14 bd 69 db 59 3d
       0.12625262 0.036772136 -0.036210537 0.05318776
000140 95 04 d1 3d b5 7f 26 3c ed f7 a6 bd df 50 7c 3d
       0.10205952 0.010162284 -0.08152757 0.061600562
000150 cc 1e cf 3d a2 99 76 3c 68 06 af 3c cd 77 f3 bd
       0.10113296 0.015051277 0.02136536 -0.118880846
000160 52 1e b1 bd 61 40 98 bc d1 0f 45 bc e3 b5 18 bd
       -0.08648361 -0.018585386 -0.012027697 -0.037282836
000170 70 b1 21 3d 06 6d cf 3c 58 ff f4 bc a2 76 43 3d
       0.03947586 0.025320541 -0.029906914 0.04772056
000180 2f 66 db bc 4c 20 d9 bc 58 9c 1c bd a1 17 d1 3d
       -0.026782123 -0.026504658 -0.03823504 0.10209585
000190 80 2e 9c 3d 5d 6b 02 bd 7b b6 4f 3d 9a 9d d6 3c
       0.07626057 -0.03184067 0.050711136 0.026198197
0001a0 26 9e ac 3a 4a bd 27 3d 21 54 63 bd cf 85 60 bd
       0.001316969 0.040952004 -0.055500153 -0.05481511
0001b0 ad cb 14 bc 5f a7 79 3d 9d 14 d6 bd 77 00 cd bc
       -0.009081763 0.060950633 -0.104531504 -0.025024636
0001c0 2a 87 1c 3d 82 38 c7 3c 20 f9 f6 bd 7f dc d1 ba
       0.03821484 0.024318937 -0.120592356 -0.0016011148
0001d0 85 70 d1 3d 67 70 b7 3d 84 6e db 3c 34 99 7f 3d
       0.102265395 0.08956986 0.026786096 0.062401965
0001e0 26 18 bf 3b db c3 61 bd 91 60 a7 bd 64 f7 79 3d
       0.005831736 -0.055118423 -0.081727155 0.061026946
0001f0 75 0c 30 3c 44 f3 31 bd 78 18 04 3d 2c 8f 8e bd
       0.0107451575 -0.043444887 0.032249898 -0.069609016

core.core.fc.0.0.weight f4 [128, 128]
000000 c5 c9 49 be b2 fe fd bd fc 55 75 3e e9 bb 64 be
       -0.19705875 -0.12402095 0.23958582 -0.22337307
000010 1c e7 5e be 32 71 4c 3d 72 8d 4b 3f 92 30 99 3e
       -0.21767849 0.04991264 0.79512703 0.2991987
000020 12 a2 2b be 07 e9 0b bd 9c da 14 3f 5f 31 82 bd
       -0.16761044 -0.03415778 0.5814607 -0.06357073
000030 0e 62 4c bd 37 26 87 be 0d 1d ed be 90 1a 2f 3f
       -0.0498982 -0.26396343 -0.46311226 0.68399906
000040 3f 53 30 3d cf ca 1b 3e 13 9d e4 3d e6 ac df ba
       0.04304814 0.15214084 0.11162772 -0.0017065078
000050 9a b5 c4 be a8 26 3f 3e 49 d6 c5 bd 00 a7 2b be
       -0.384198 0.1866709 -0.09660012 -0.16762924
000060 5e 77 69 3e 29 df 19 3d 4b e9 95 bd 08 41 19 3d
       0.22799441 0.037566338 -0.07319888 0.037415534
000070 32 9f 88 bd c7 21 47 be 82 df e5 be 73 a5 94 bd
       -0.06670989 -0.19446479 -0.44897085 -0.072581194
000080 68 3c 70 3e f6 c9 10 be ca 44 83 be 14 e1 cb be
       0.23460543 -0.14139542 -0.2563842 -0.39820158
000090 09 0d 57 be 54 57 10 3d 85 74 8d 3e 90 86 15 bd
       -0.21001066 0.035239533 0.2762796 -0.036505282
0000a0 4c 72 ac 3d af cf 1e bd 74 72 5b ba f5 6f db 3d
       0.08420238 -0.03877228 -0.0008371242 0.107147135
0000b0 51 98 f2 3e e1 8f 7f be 5d 39 b1 3c a5 84 a9 3e
       0.47381833 -0.24957229 0.021633798 0.33109012
0000c0 cb a3 a7 be 82 0e 57 bd e9 ff 13 3e dc 24 2d be
       -0.32742152 -0.05250407 0.1445309 -0.16908592
0000d0 6a 8f 00 be 32 b3 be 3e fa 32 45 3d 2f d3 d3 3e
       -0.12554708 0.3724609 0.04814432 0.41372058
0000e0 5f 66 b8 3e 16 27 cc 3d 21 05 c5 3d 2e 07 9d 3e
       0.36015603 0.099683926 0.09620119 0.3066954
0000f0 f6 de f5 be f5 80 20 be b8 c2 51 3e ee 7d 85 bc
       -0.48021668 -0.15674193 0.20484436 -0.0162954
000100 2e 96 a3 3e 0a dc b9 be b2 df 5b be c2 fa 59 3e
       0.31950516 -0.3630069 -0.21472052 0.21287063
000110 1a ba 0e 3c 39 44 20 be 09 8e a8 3b 73 11 87 be
       0.008711362 -0.15651025 0.005143885 -0.263805
000120 6d c5 16 3e 6b d7 37 be 7b 1d d2 be 1a 67 b3 be
       0.1472375 -0.17953269 -0.41038117 -0.35039598
000130 98 1c d6 3d af 5c f5 3e ae 8f af be 53 28 32 bf
       0.104546726 0.47922274 -0.34289306 -0.6959278
000140 30 6f 63 bd 93 e3 9c be dc 9f ab 3d a6 b5 d0 be
       -0.05552596 -0.30642375 0.083801 -0.40763587
000150 47 4e 86 bd bf 2c 7f be 4a 46 b1 be 77 54 6c bc
       -0.06557899 -0.24919413 -0.3462394 -0.014424435
000160 39 5e 02 bf 9b 0a 88 3e 1c c5 86 3e c3 0b e9 be
       -0.5092502 0.2657059 0.26322258 -0.45516786
000170 03 46 b1 3e d3 cc b6 3d 76 76 d1 3b 67 66 98 3e
       0.34623727 0.08925786 0.0063922955 0.29765627
000180 c2 2c 8e 3d b9 1e 98 be bc 54 a3 be 34 91 e4 3b
       0.069421306 -0.2971094 -0.31900585 0.0069753174
000190 8b 3e 70 3e 8f 57 a1 be 0f b6 8d bd e8 5c 0f 3f
       0.23461358 -0.31512114 -0.069194905 0.5600114
0001a0 ed 36 a1 3e 58 97 8d be 69 28 fd be 1b 03 12 3f
       0.31487218 -0.2765453 -0.49444893 0.5703599
0001b0 60 dc 10 3e a1 40 e7 bd e7 86 8b bd 7a 6e 49 3e
       0.14146566 -0.11291624 -0.0681284 0.1967105
0001c0 db 4e c7 3d db 26 8c bd 1c c6 1d be 6d 21 18 bf
       0.09731837 -0.068433486 -0.15407604 -0.59426004
0001d0 bf 7e 12 be 65 fd bf 3d 12 69 c9 3e b4 33 23 3e
       -0.14306162 0.09374503 0.39337975 0.15937692
0001e0 84 d9 b5 3e f2 a2 dd 3d 54 50 a3 3d 0a 97 d4 bc
       0.35517514 0.10822095 0.07974306 -0.025950927
0001f0 4a 17 fa bd ac 9d 8c be 2f 78 7e 3e 7a f8 99 be
       -0.12211473 -0.27464044 0.24850534 -0.30072385
000200 71 ef ef 3d ba 8c 79 3d ff 61 5b be cf 62 b6 be
       0.11715592 0.060925223 -0.21424101 -0.3562226
000210 1a 5b 23 bd 1d 37 a9 be 6d fc 3e 3f 23 3d 56 be
       -0.039881803 -0.3304986 0.7460392 -0.2092176
000220 62 8c 85 bd 1c 5f 60 bd 55 64 e7 3e b5 cd 9b be
       -0.065209165 -0.054778203 0.45193735 -0.3043038
000230 71 af 39 3e c6 d2 d5 3e 2c cf df be 31 7e 66 3e
       0.18133332 0.4176237 -0.43712747 0.22509076
000240 3f b7 17 be 60 e1 eb 3e 0a da e0 3d a9 c8 04 be
       -0.14815997 0.46070385 0.10979088 -0.12967171
000250 dc d6 37 3f 03 53 31 3e c6 95 4e be 30 4d 02 be
       0.71812224 0.17316823 -0.20174322 -0.12724757
000260 9c ee 95 be 8f bb c4 3e 98 90 d7 bd e0 ce 38 be
       -0.29283607 0.38424346 -0.10525626 -0.18047667
000270 9c 1c 8e 3e 4d 31 e4 be 0f b4 db bd df a7 99 be
       0.27756202 -0.44568864 -0.10727703 -0.30010888
000280 69 42 e0 bd 6c e8 56 3c 29 77 8c be c4 70 dc bd
       -0.10950167 0.013116937 -0.27434662 -0.10763696
000290 2b 62 4c 3e 4a 00 8b be c7 53 77 3d e0 0e 4a 3e
       0.19959323 -0.27148658 0.06038263 0.19732237
0002a0 48 84 28 3d 79 e5 74 3e eb e6 57 3d 9a 14 60 3e
       0.04114178 0.23915662 0.052710455 0.21882859
0002b0 0c 2f 2c 3e 65 af ee 3d f3 6b eb bb d1 f4 44 3e
       0.16814822 0.116545476 -0.0071844994 0.19234015
0002c0 71 24 91 be 7f 79 a9 3e 23 79 51 bd e9 c9 ad 3d
       -0.28348115 0.33100507 -0.051140916 0.08485777
0002d0 74 a8 bd bd 6d b9 74 bd 03 34 77 3e 15 27 6d 3e
       -0.092606455 -0.05974715 0.24140935 0.2315944
0002e0 fc 2e 1e 3d f9 97 8d bd 4e f8 a8 3e fc d2 78 3d
       0.038619027 -0.06913752 0.3300194 0.060748085
0002f0 ee 30 95 3e 85 b0 6c 3e b8 f2 68 bd 69 09 d2 bc
       0.29138893 0.23114212 -0.0568721 -0.025639253
000300 ed 26 86 3d 97 11 89 bd 0b e7 d8 3b 91 97 90 3e
       0.06550393 -0.06692808 0.0066193393 0.28240636
000310 a8 9f ad 3d c4 a9 be be af c2 8a 3e 54 7d c1 bd
       0.08477718 -0.37238896 0.27101657 -0.094477326
000320 a0 50 9c bd 63 9f 85 bd 6f 0b 39 bd 0a 62 9f 3e
       -0.076325655 -0.06524541 -0.04517692 0.31129485
000330 a0 4d 9e bc 63 59 94 3d e8 b1 d1 3d 04 8a 26 be
       -0.019324124 0.07243612 0.10239011 -0.16263586
000340 e6 be 28 3d 25 9d 28 bc 43 de e2 be 4e f9 93 be
       0.04119768 -0.010291372 -0.44310197 -0.28901142
000350 1c 61 16 bd 60 52 50 bd cd 17 67 3e 8b 9c 3e 3e
       -0.036713704 -0.05085981 0.22567673 0.18614404
000360 0e e3 4e be 6c ba c8 bc 1b ee 05 bf 96 26 43 be
       -0.20203802 -0.024502955 -0.52316445 -0.19057688
000370 6d 6d 85 3e 5c 76 13 3f f2 96 b6 bd 76 6d cb be
       0.26060048 0.5760248 -0.08915509 -0.3973195
000380 4b 0f be 3d b8 ac 8b bd 46 83 82 be 5f 84 ac 3d
       0.09280261 -0.06820053 -0.2549078 0.08423685
000390 36 7f 62 be 55 37 89 be 31 9d 45 3e aa 90 45 3e
       -0.2211884 -0.26800027 0.19298245 0.19293466
0003a0 92 f2 91 be da 42 e4 bd c8 fd 16 bf 09 83 ce 3e
       -0.2850538 -0.111455634 -0.5898099 0.40334347
0003b0 f1 48 11 be ea 2f 91 bd fb 71 a4 be 30 ce 0a 3f
       -0.14187981 -0.07089217 -0.3211821 0.5422087
0003c0 39 ff 48 be 1c d9 c1 3d 99 10 44 bd c1 08 88 be
       -0.1962861 0.094652385 -0.04786739 -0.2656918
0003d0 54 e8 4b bd 9e 2b 34 3e 92 97 07 3e fa 46 0e 3f
       -0.049782112 0.17594764 0.13241413 0.5557705
0003e0 5b 8e be 3e d9 95 dc 3d ca a3 18 3e 8e 6e 09 be
       0.37217984 0.10770769 0.1490623 -0.1342108
0003f0 5f 9e 86 be d1 d6 0b bf 36 5c ad be 1d b7 4a be
       -0.26292703 -0.5462466 -0.33859414 -0.19796415

core.core.fc.0.0.bias f4 [128]
000000 da d0 e5 bc 83 be 24 3b 78 c4 0c 3e f5 bc a6 3c
       -0.02805369 0.0025137968 0.13746822 0.020353774
000010 3c 45 a4 bc 99 29 ad 3d 3a 2c e3 3d 96 e5 d5 3d
       -0.020052545 0.084552 0.1109242 0.10444181
000020 52 b0 0e be d0 54 15 3e 61 18 64 3d b6 4f 39 3c
       -0.13934448 0.14583135 0.055687312 0.0113105085
000030 67 94 47 be 74 7a a3 3b ba fb 3b bd 0d 50 43 3e
       -0.19490205 0.004988963 -0.045894362 0.19073506
000040 2f e6 a1 3a 57 95 17 3d 97 6d 29 3e 15 34 96 3d
       0.0012351925 0.037007656 0.16545711 0.073341526
000050 8c fd 5a 3d 53 47 b8 bc bf 42 51 3e 56 eb ba 3d
       0.053464457 -0.022494948 0.20435618 0.09126918
000060 8c 40 79 3d ff 84 01 be e7 2c 99 3d e7 6c 31 3e
       0.060852572 -0.1264839 0.074792676 0.17326699
000070 6d 8e fe 3c 14 ed de 3d df 73 ef 3d b5 95 35 bd
       0.031073773 0.10885063 0.116920225 -0.044332225
000080 14 b2 d5 3d db 3f 28 3e f7 27 de 3d 67 8b ec 3d
       0.10434356 0.16430609 0.108474664 0.115500264
000090 a1 61 ac 3d 41 e2 11 3d 07 88 98 3a f1 16 f3 3c
       0.08417059 0.035616163 0.0011637219 0.029674025
0000a0 30 41 b5 3d 14 c1 ea 3d 20 fa 0d 3d 19 34 b8 3d
       0.08850324 0.11462608 0.034662366 0.08994312
0000b0 d2 8e a7 3b 5a 3d b4 3d 3c 0e 23 3e 51 c9 38 3d
       0.005113461 0.088007644 0.15923399 0.045113865
0000c0 db e9 06 3c d0 45 51 3e de 04 e8 3d 40 0b 03 3c
       0.008234466 0.20436788 0.11329053 0.007998288
0000d0 22 2d 26 be 27 84 93 bd 2c 82 e6 bd 99 3b c9 3d
       -0.16228154 -0.072029404 -0.11255297 0.098258205
0000e0 cd 6f bf bb d9 e9 aa 3d 04 64 ba 3b 6e 29 b8 3d
       -0.005842185 0.08345384 0.0056881923 0.08992277
0000f0 e7 36 3c bc 5a be a1 3d 27 b2 05 bd 26 41 42 3d
       -0.011487699 0.07897635 -0.032640602 0.04742541
000100 17 6e 6d 3e aa b8 b0 3d ee d0 25 3d cc b3 66 3d
       0.23186527 0.08628972 0.040482454 0.05632381
000110 ca db f9 3d 98 8f db 3c f1 d5 66 3e b5 ff 92 3e
       0.122001246 0.02680187 0.2254255 0.28710714
000120 b8 a9 9f 3d 34 4b a9 3d c0 f6 b7 3d 0f fa 2d 3e
       0.07796043 0.08266297 0.08982611 0.16989921
000130 0f 25 88 3d 5c 7c 82 bd 6e 6f 3c 3d e4 01 59 3c
       0.06647693 -0.06371376 0.046004705 0.01324508
000140 14 1d 7e bd a5 5f d9 bd fd 02 4c 3d 9f bd bc 3d
       -0.06203945 -0.10613946 0.049807537 0.09215855
000150 f5 4b 65 3d 9e be 6c 3b be 46 8a 3d 24 47 f2 3d
       0.05598064 0.003612436 0.06751774 0.11829975
000160 1d 0f a8 3d fd 96 a8 3d 9d 49 e7 3d ca 58 b1 bd
       0.08206008 0.08231924 0.112933375 -0.08659513
000170 da e8 92 3d 0e a2 1c 3e 8e cb 26 3e 70 7b 78 3d
       0.07173319 0.15296194 0.16288587 0.060664594
000180 a1 5b 64 3d da 7f 2d 3e 03 32 b7 3d 68 13 8d 3c
       0.055751447 0.16943303 0.08945086 0.017221168
000190 db 7f 01 be 55 a1 75 3d 6b ae 66 3d d4 44 60 3d
       -0.12646429 0.05996831 0.05631868 0.05475314
0001a0 64 80 de 3d 2c 9d a0 bc fc bc a9 3d 42 e5 47 bd
       0.10864332 -0.019606195 0.08287999 -0.04880262
0001b0 ad 34 9b bc 0d dc d4 3d ba 28 40 3d 59 26 f4 3d
       -0.018946016 0.10393534 0.04691384 0.11921377
0001c0 36 59 8a bd dc 4c 9d bc a6 e5 09 be 24 9e 46 bc
       -0.06755297 -0.019201688 -0.1346651 -0.012122665
0001d0 af 0e 5f bc 4f 53 4b 3e 9e f9 ed 3d c5 af 3e bd
       -0.013614341 0.19855998 0.11619876 -0.046554346
0001e0 e9 e4 6f bd a3 cc 1b 3c 83 24 84 3d 41 a5 87 3d
       -0.058567915 0.009509238 0.064522766 0.066233166
0001f0 cb 2e 3e be 5c 85 54 bb d5 e5 25 bd 3a 83 b3 3d
       -0.18572538 -0.0032428121 -0.040502388 0.08765264

core.core.fc.1.0.weight f4 [128, 128]
000000 14 00 80 be 98 ee 92 bc 6a ce 03 be 91 2a 08 be
       -0.2500006 -0.017936036 -0.1287171 -0.13297488
000010 02 89 01 be 5a d1 3e bd 7b cd 37 be 0d b3 30 be
       -0.1264992 -0.046586372 -0.17949478 -0.17255802
000020 69 fa f7 bd 5f 8a 54 3e bc a7 eb be 96 8a 27 be
       -0.12108309 0.2075591 -0.4602641 -0.1636146
000030 12 1e 80 be bd 77 7b be 5a 71 63 3d 6f 83 4b be
       -0.25022942 -0.24557395 0.055528022 -0.19874357
000040 77 b3 6f be 08 cb 7c be cf 64 8c 3e a6 49 2b 3e
       -0.23408304 -0.24686825 0.2742066 0.16727313
000050 ff 35 91 3c 4f 7c b7 be f6 8c 53 3e f7 34 3e bd
       0.017725943 -0.35837027 0.20659241 -0.04643723
000060 98 3e c1 bd f5 41 9d be 21 db 8a 3c 61 8d 91 bd
       -0.09435767 -0.30714384 0.016950192 -0.07107044
000070 68 23 74 3d 3b 7d c4 3e 68 d4 aa bc 5b 26 44 be
       0.05960408 0.38376793 -0.020853236 -0.19155256
000080 c0 5f d2 be 82 2f 67 be 36 d7 8d 3d 7a 6c 47 be
       -0.41088676 -0.22576717 0.06925814 -0.19474974
000090 b6 f0 99 be 26 da 83 3e 7e 94 0d 3e 4b e6 96 be
       -0.3006646 0.25752372 0.13826177 -0.29472575
0000a0 8d 46 17 3e f9 25 cf be 25 11 de 3c 23 5a ee 3c
       0.14773007 -0.40458658 0.027107785 0.029095715
0000b0 d1 d8 09 bf 4a b5 2d 3d 34 3f 00 3e 83 c2 a4 3e
       -0.5384646 0.04240922 0.1252411 0.3217965
0000c0 b1 cd 69 3e e0 35 0a 3f 1b e4 11 bf 2a 29 df bc
       0.22832371 0.53988457 -0.56988686 -0.027241308
0000d0 29 89 d2 3c b0 b8 19 3e 15 f3 87 be 0a ee da bd
       0.025700169 0.15011859 -0.26552644 -0.106899336
0000e0 dc bd 9a bd a1 c8 71 be 80 ed d5 be 42 d6 97 3e
       -0.07555744 -0.2361169 -0.4178276 0.29655653
0000f0 47 63 82 be 71 03 70 3e 60 60 af be 9e d6 aa 3d
       -0.25466368 0.23438813 -0.34253216 0.08341716
000100 1d 92 af 3b 64 f8 19 bf d7 95 05 3e 1f 83 ff 3c
       0.005357994 -0.6014464 0.1304544 0.031190453
000110 42 39 86 3e 4a 8d 1c 3e 4a 49 e3 bd 8b aa e0 bd
       0.2621556 0.15288273 -0.11097963 -0.109700285
000120 ef 20 0f bd 69 6e 6a bc 36 70 c9 3d 02 8e 8b 3e
       -0.034943517 -0.01430855 0.09835856 0.2725678
000130 d2 ed 1d be e0 98 a8 be 3c be 42 3d 4e df 6b be
       -0.15422752 -0.32929134 0.047544703 -0.23034403
000140 0d 06 f3 be 2b 89 2f 3e c7 d9 be 3d 67 be e6 3c
       -0.47465554 0.17142169 0.093188815 0.028166963
000150 fa 5f 37 be 85 48 79 bd d3 96 16 3e 1a b1 3c 3c
       -0.17907706 -0.060860176 0.14705972 0.011516834
000160 fb 52 f1 3d 22 d7 10 be 43 cc f4 bd f2 e1 0e 3e
       0.117834054 -0.14144567 -0.11953022 0.13953379
000170 56 e2 e5 3d f6 38 95 be d4 ba a1 be 0e 8b 70 3e
       0.11224811 -0.2914502 -0.3158785 0.23490545
000180 9d e7 7d 3d 93 f8 1f bf 03 ed e5 3d 58 53 ba be
       0.06198846 -0.6248867 0.11226847 -0.3639171
000190 a3 74 be 3e 29 7d 47 be 24 60 47 3e 1c 26 4b be
       0.37198362 -0.19481339 0.19470268 -0.19838756
0001a0 72 e1 6b bd 26 c6 ae bc 2a da 7b 3d 81 4e 4b 3b
       -0.05758805 -0.021334719 0.061487354 0.0031022134
0001b0 f5 5e 98 3d 38 25 32 be 36 73 22 bf 64 d4 ec bd
       0.074399866 -0.1739701 -0.6345705 -0.11563948
0001c0 8d f7 8d be 85 ea 6c 3e 75 3a 24 be 39 be 82 be
       -0.2772793 0.23136337 -0.16037925 -0.25535753
0001d0 c7 f6 be be 2b 98 96 bc c0 12 d0 3d 85 e4 07 be
       -0.3729765 -0.018383106 0.10159826 -0.13270767
0001e0 2a fc a8 be 24 6e 27 be e5 4a 06 be 13 8a ef bd
       -0.33004886 -0.16350609 -0.13114507 -0.116962574
0001f0 97 67 8e 3d e9 60 db 3d 84 e8 50 bf 44 d6 f7 bd
       0.06953352 0.107118435 -0.8160479 -0.12101415
000200 2d 0b ba 3b 60 73 91 be 0e 92 9f 3b 04 36 13 be
       0.005677602 -0.28408337 0.004869706 -0.14376074
000210 66 43 1e be cb 93 43 be 04 9b 82 3e 45 c8 92 3e
       -0.15455398 -0.19099347 0.25508893 0.2866842
000220 7c 6b 3d be 1b ce 48 3e 70 c2 84 bd 18 7a 92 3d
       -0.18498033 0.19609873 -0.064823985 0.07152194
000230 bc be a0 3c 11 87 ac be 81 e1 dd bd 1f 26 8e 3d
       0.0196222 -0.33696797 -0.10834027 0.06940865
000240 bc 5c 2a be 34 33 c4 3d 18 49 f9 3c cd 83 61 be
       -0.16636938 0.09580079 0.030430362 -0.22022934
000250 d2 ed ac 3d 5a 96 9d bd 22 8d 08 3e da 90 15 be
       0.08443798 -0.07694693 0.13335088 -0.14606038
000260 f2 ae 2a bd 55 10 7c be d8 39 5a 3e 82 6d 86 be
       -0.041670747 -0.24615605 0.21311128 -0.26255423
000270 e2 a7 8f 3d 73 7f 33 be 1b 88 11 bf d9 6b 87 bd
       0.07014443 -0.17529087 -0.56848305 -0.06612367
000280 82 41 82 bd cc 91 94 3e 6e 24 19 3c 17 dd e8 3d
       -0.06360151 0.29017484 0.009347064 0.113702945
000290 cf bf 4d bd a3 99 6c bd 04 cd 64 bf ce 57 1a 3e
       -0.05023175 -0.057763707 -0.8937533 0.15072557
0002a0 36 eb 8c be 8a 75 b3 3d 39 44 05 3e fc 6a 24 3d
       -0.27523202 0.08762653 0.13014306 0.04014109
0002b0 81 54 b5 bd fd f6 a7 3c 30 92 35 3c 12 37 5e 3e
       -0.088540085 0.020503515 0.011082217 0.21700695
0002c0 03 7a 7c bd 6a 73 bb 3d ba 4d d7 bc fd 15 89 bf
       -0.061639797 0.09152873 -0.02628218 -1.0709835
0002d0 bd 68 2e be 4b 61 ed be 4b eb 47 be 20 02 c6 bc
       -0.17032142 -0.4636329 -0.19523351 -0.024170935
0002e0 65 e3 5f be 43 af ce bd e8 f2 04 3b b8 f1 a2 3c
       -0.21864088 -0.10092022 0.0020286385 0.019890651
0002f0 1c 39 af be fb 55 ac 3e 51 c2 d7 3d 2d 68 11 bf
       -0.34223258 0.33659348 0.1053511 -0.56799585
000300 eb 73 3e 3e eb 30 59 3e d2 66 c7 bd 97 7f 83 bd
       0.18598907 0.21210067 -0.09736408 -0.0642082
000310 b3 37 8a be cd e9 f9 3d 89 04 f8 3d 83 37 83 3e
       -0.2699562 0.12202797 0.1211024 0.2562829
000320 68 d5 19 bd 43 8e 12 3e ed a8 ed 3d 0a f9 11 bd
       -0.037557036 0.14312081 0.11604486 -0.035637893
000330 f4 ef 31 3e 9f 0a 2e 3a 72 5f cc bc ba 22 9c 3d
       0.17376691 0.0006639156 -0.024947856 0.07623811
000340 11 60 e6 bd ab 12 d1 be 42 5f a5 3e 78 08 f6 be
       -0.11248792 -0.40834555 0.32299238 -0.48053336
000350 50 c6 64 be 7e ea 07 bf fb 95 f8 bd d9 6a a1 3d
       -0.22341275 -0.5309218 -0.121379815 0.07881708
000360 5d 76 ce bd c5 3e 0a be 3d 86 2b 3e 3b 02 18 bf
       -0.1008117 -0.13500507 0.16750427 -0.59378403
000370 11 4b 1b 3d 11 30 d2 3e be 08 fc 3e 13 1c ec 3d
       0.037913386 0.41052297 0.4922542 0.11528792
000380 a8 50 a4 be 65 f0 f2 3d 41 ff 9c ba 29 f7 db bd
       -0.32092786 0.11862258 -0.0011977927 -0.107405014
000390 e8 8b 5e be bb 6b fe 3d 92 66 5e 3e 72 96 6e 3d
       -0.21733057 0.12422892 0.21718815 0.058248945
0003a0 12 2b 8d 3e a9 08 19 be 0f d3 be bd b9 c2 97 be
       0.27571923 -0.1494471 -0.093176 -0.2964075
0003b0 ec 10 54 3e ad 55 63 3e 4e 63 30 3c 1c d5 23 3e
       0.2070958 0.22200651 0.010765864 0.15999264
0003c0 00 1d d3 bd 78 a3 9a 3d af 95 e8 be bf 40 4c be
       -0.10308266 0.075507104 -0.454267 -0.19946574
0003d0 23 65 a9 bd 12 50 5f 3e 42 86 87 3e 6d 1d d4 bd
       -0.082712434 0.21807888 0.26469618 -0.10357175
0003e0 5e 10 ff bd a6 ef f4 be 64 59 a2 bd 4c 32 a0 3d
       -0.12454294 -0.47839087 -0.07927206 0.07822093
0003f0 ea e2 6d bd a3 51 0c bc 2d 6b 57 be c1 b4 cd bc
       -0.05807773 -0.008564386 -0.21036978 -0.025110604
