artifacts/poses_to_location/20250818183921/best_model.pt (torch, 376885 bytes, 48 tensors)

embedding.embeddings.bex_20230623_denoised.poses.weight f4 [64, 63]
000000 3b 05 88 0d 05 1c 59 94 9b e6 60 8e c7 6f ef 90
       8.382906e-31 -1.0961226e-26 -2.7721164e-30 -9.44411e-29
000010 f8 ca d7 0f ae 76 26 11 a6 9b 32 0f 64 20 68 8d
       2.1278818e-29 1.3131662e-28 8.806054e-30 -7.152951e-31
000020 1d ed a6 8d 0d d9 53 8e c4 50 8e 8d f5 87 5c 8c
       -1.0287623e-30 -2.6112264e-30 -8.770869e-31 -1.6989097e-31
000030 1f 1c 15 12 79 7b b0 8f 92 cc c8 8f 24 98 a5 96
       4.705077e-28 -1.74025e-29 -1.980032e-29 -2.6753202e-25
000040 ea 5b 8b 0b c0 00 59 0c 8b 10 11 0c 7c 2f e3 93
       5.367915e-32 1.6717298e-31 1.1175372e-31 -5.734968e-27
000050 10 d1 00 95 00 3a 08 8b 43 ac 6a 0c 24 d8 c7 0b
       -2.6014315e-26 -2.6236282e-32 1.8078542e-31 7.6977224e-32
000060 dc cc ab 8f c3 9e 24 0d b1 22 e4 8d 33 f1 43 8e
       -1.6940811e-29 5.0727504e-31 -1.40599365e-30 -2.4151739e-30
000070 42 1f c0 94 86 11 7d 91 08 3c 08 0e 7e f4 02 91
       -1.9399375e-26 -1.9963581e-28 1.6792198e-30 -1.0330532e-28
000080 e6 c8 82 0c d4 77 8f 8e a5 9a 98 0c 60 cc 4d 13
       2.0150583e-31 -3.5367612e-30 2.3512381e-31 2.5975402e-27
000090 33 bf 3c 12 96 cd 36 0e db 9f 6d 0d 47 3d b7 91
       5.955801e-28 2.2532218e-30 7.3223683e-31 -2.8910074e-28
0000a0 3c d3 e1 18 6a f3 6d 13 f4 22 8c 8b 70 6f 23 15
       5.837443e-24 3.0033618e-27 -5.397863e-32 3.3005497e-26
0000b0 96 26 85 16 e5 03 6c 12 b3 43 c8 10 d0 79 36 8d
       2.151166e-25 7.447327e-28 7.89904e-29 -5.6229706e-31
0000c0 86 8b b7 92 aa a3 4b 14 35 cf 21 92 e2 cb 8c 12
       -1.1583319e-27 1.0281158e-26 -5.1058045e-28 8.885503e-28
0000d0 b1 77 30 14 d9 54 81 91 17 ec 87 0c de b7 b4 90
       8.909334e-27 -2.0404903e-28 2.0942135e-31 -7.1280774e-29
0000e0 a3 41 8b 10 61 d6 41 8e 78 0c e8 8b 9e ce a7 8d
       5.492696e-29 -2.3892306e-30 -8.938191e-32 -1.0341911e-30
0000f0 65 00 69 13 c2 df aa 12 83 86 98 10 1f 9f 33 10
       2.940893e-27 1.0783669e-27 6.0160677e-29 3.5424108e-29
000100 3d bd 83 8d 58 88 73 11 b3 2f b9 8e 50 c1 2c 12
       -8.119056e-31 1.9211334e-28 -4.5651954e-30 5.4511906e-28
000110 7a 7f 00 0e 9e 0f c8 12 16 09 6a 13 bf a4 78 0e
       1.5838596e-30 1.2625624e-27 2.9539432e-27 3.0647682e-30
000120 5d 97 09 8c fb 5e db 95 d8 21 2c 8d 20 66 8f 89
       -1.0599645e-31 -8.860325e-26 -5.304233e-31 -3.4522036e-33
000130 c1 d1 74 8d f5 96 74 8c 88 ec 87 11 23 e7 2d 90
       -7.5440787e-31 -1.8842503e-31 2.1445018e-28 -3.4296295e-29
000140 71 cc 3a 8d ac 57 38 10 fb f9 64 0c 02 af 7a 8d
       -5.7561763e-31 3.6355142e-29 1.7639707e-31 -7.7247856e-31
000150 4c d9 61 0f 82 10 95 93 75 c6 dd 0d 04 30 fa 0d
       1.1135206e-29 -3.7629166e-27 1.3667953e-30 1.5418999e-30
000160 0f 86 4a 8e 84 87 45 90 c2 47 61 0c c9 56 66 11
       -2.496297e-30 -3.8955797e-29 1.7354963e-31 1.8170544e-28
000170 30 84 97 8e 58 9b eb 0d c2 c9 80 16 68 f9 2b 0b
       -3.7351666e-30 1.4520391e-30 2.0806842e-25 3.3121034e-32
000180 35 e2 c3 8e 94 67 af 8c 7a bf 1e 90 3d 4f c3 92
       -4.828904e-30 -2.7025358e-31 -3.1307514e-29 -1.2325764e-27
000190 ca 46 34 0c 6f 9d 00 98 30 f7 17 0c 5f 76 27 90
       1.3887998e-31 -1.6623096e-24 1.1707002e-31 -3.3026133e-29
0001a0 bc 72 17 13 d6 1a f9 8c 26 92 b1 98 c6 64 96 90
       1.9115448e-27 -3.8380676e-31 -4.5901e-24 -5.9319834e-29
0001b0 6c 0c 47 8b 7a db 25 10 7c 0f b2 0c 22 37 fc 8c
       -3.833535e-32 3.270959e-29 2.7434562e-31 -3.885993e-31
0001c0 76 87 ab 0f 52 ac 5b 90 5e 05 59 90 4e 02 d2 91
       1.691408e-29 -4.3322885e-29 -4.279984e-29 -3.3133578e-28
0001d0 31 70 ec 0d 53 b1 da 11 77 06 4f 0d a9 e8 bb 91
       1.4571632e-30 3.450362e-28 6.379458e-31 -2.9646786e-28
0001e0 46 62 8b 16 3d b8 09 90 00 34 ce 95 5f c2 76 8c
       2.251868e-25 -2.7160418e-29 -8.328478e-26 -1.9009642e-31
0001f0 37 b8 2c 15 e2 5b 95 92 52 69 38 8c 64 84 4e 0d
       3.4880443e-26 -9.425873e-28 -1.4206538e-31 6.363801e-31
000200 34 0e 26 0c 60 06 2b 8d 6c ef 03 8e 41 f7 4e 0c
       1.2792449e-31 -5.2701117e-31 -1.6262274e-30 1.5944068e-31
000210 35 f6 2f 0d c2 37 3b 8e 01 3d bb 90 a6 49 a5 0c
       5.42224e-31 -2.3076376e-30 -7.3852486e-29 2.54666e-31
000220 fc 84 58 10 e8 87 dd 8b 73 a0 b1 90 d6 98 8b 8d
       4.2700936e-29 -8.533059e-32 -7.00614e-29 -8.60333e-31
000230 d2 d4 93 14 e9 a4 a7 8d fe dd b1 98 80 ac 17 95
       1.492715e-26 -1.033187e-30 -4.5977582e-24 -3.0630286e-26
000240 a6 f5 25 17 b9 58 11 15 06 86 8b 0e b3 bb 1e 12
       5.3624427e-25 2.9352507e-26 3.4395205e-30 5.0087366e-28
000250 ee 32 eb 91 81 b5 10 8e fd 7f 3b 8d 10 56 a5 0e
       -3.710785e-28 -1.7836761e-30 -5.7777884e-31 4.0758516e-30
000260 9c a5 9b 92 80 9b a7 15 38 b7 19 8d 3b 5c 1d 8e
       -9.822701e-28 6.76961e-26 -4.7367307e-31 -1.9396151e-30
000270 af b4 a1 90 81 1a 23 96 2f 28 d1 90 2e 99 21 8f
       -6.378169e-29 -1.3175398e-25 -8.249788e-29 -7.967414e-30
000280 2f 2e 5f 11 07 eb 47 0f 32 e1 b3 0b 83 93 fb 0b
       1.760583e-28 9.856722e-30 6.928713e-32 9.6903634e-32
000290 80 5f 3a 0c bd 2e ad 8d 40 b8 e0 8a 50 01 07 8e
       1.4357657e-31 -1.06732e-30 -2.1639723e-32 -1.6640667e-30
0002a0 d2 5f 8e 0f 6d 05 0d 8d 12 e6 4e 8e 2c 9b 5e 8d
       1.403919e-29 -4.345551e-31 -2.5502235e-30 -6.8595813e-31
0002b0 30 d0 0e 8d 4c 8b bc 0d 7b bb 27 0c 69 83 08 0e
       -4.4007725e-31 1.1619929e-30 1.292163e-31 1.6826566e-30
0002c0 ca d3 16 8c 2c 2f 88 0c b7 16 95 14 08 57 7c 14
       -1.1619313e-31 2.0982508e-31 1.5054115e-26 1.27399126e-26
0002d0 38 1a dd 18 88 17 d4 8d a8 8b 91 10 d9 c5 bd 16
       5.7153635e-24 -1.3071174e-30 5.740759e-29 3.0659456e-25
0002e0 1d 5f 49 8d 29 f1 94 8c ae 95 f0 17 fa 3a ad 0e
       -6.2052395e-31 -2.2948154e-31 1.5547421e-24 4.2704585e-30
0002f0 ba fe 94 8e 40 3e 10 0e 23 79 f9 8e e0 b4 8e 0d
       -3.673011e-30 1.7779343e-30 -6.149989e-30 8.79497e-31
000300 f5 da f5 90 be af f6 8b fc a1 c3 0d 7b 0f 6f 95
       -9.697282e-29 -9.502018e-32 1.2056799e-30 -4.8277878e-26
000310 fc 13 41 0e 17 53 57 91 27 f8 6b 8c c4 2f 37 0d
       2.3798709e-30 -1.6986113e-28 -1.8178417e-31 5.6448725e-31
000320 2c 6c 79 94 15 b8 ec 0d f2 27 c6 8d 59 5a 62 0d
       -1.25926205e-26 1.4588939e-30 -1.2212309e-30 6.975038e-31
000330 04 4f c4 0d a5 d1 8f 12 90 51 3f 14 d7 2d 77 90
       1.2098455e-30 9.07625e-28 9.659121e-27 -4.8747475e-29
000340 0a 6c 35 11 86 6e 0f 92 10 cc ac 0c b4 49 4d 14
       1.4311674e-28 -4.5259074e-28 2.6623612e-31 1.03643905e-26
000350 0c 1f 9c 8e 1c 79 4e 10 24 5a 9a 0e 8f e9 32 0d
       -3.8486866e-30 4.0719636e-29 3.8050733e-30 5.513162e-31
000360 9d 58 21 0d 06 ac 38 12 8f b8 e0 0d a9 20 a3 0f
       4.971862e-31 5.82722e-28 1.3849497e-30 1.6085621e-29
000370 b0 f0 a9 90 77 9d b3 0d 6a 7d dc 96 8e 72 4b 8e
       -6.7029584e-29 1.1069635e-30 -3.5622064e-25 -2.5076838e-30
000380 33 4b 25 94 78 75 c5 11 4a c6 f6 90 42 ee 48 0f
       -8.3452016e-27 3.1153515e-28 -9.7335404e-29 9.906648e-30
000390 21 c8 57 14 9e 50 b6 11 d4 ca 1f 13 a1 e9 15 92
       1.08941945e-26 2.876422e-28 2.0168623e-27 -4.730408e-28
0003a0 5e c9 e9 8d 2c b3 bb 0d ec 80 15 8c 32 45 88 8c
       -1.4408211e-30 1.1567899e-30 -1.1517338e-31 -2.0995763e-31
0003b0 66 b3 1e 14 f9 bf ab 0d c8 f4 dc 8c ce 66 60 0d
       8.0123416e-27 1.0584904e-30 -3.404369e-31 6.9149076e-31
0003c0 0e b6 60 0e 4c 96 20 8f 46 ee 1c 0f ac fb d7 18
       2.7697788e-30 -7.917555e-30 7.7372836e-30 5.583032e-24
0003d0 29 a5 53 96 9c 62 33 94 b1 54 af 12 86 ec 5a 0d
       -1.709656e-25 -9.056638e-27 1.1064931e-27 6.746114e-31
0003e0 89 0a 73 8d c4 8e 1b 12 54 3b b5 0e bb 95 59 12
       -7.4892837e-31 4.908535e-28 4.4677076e-30 6.8657684e-28
0003f0 5c 8e 2f 8c 9c fa 78 8e 22 2a 81 16 1b b3 b8 18
       -1.3524349e-31 -3.0689024e-30 2.0867664e-25 4.7743736e-24

embedding.embeddings.bex_20230623_denoised.poses.bias f4 [64]
000000 c0 e5 0c 11 0c 1c 76 0d ca 06 87 0c a6 4a 08 91
       1.111485e-28 7.5838363e-31 2.080413e-31 -1.0751511e-28
000010 32 52 5a 8d bb 5f 51 8f ea 20 37 8d 30 bd cb 0c
       -6.7275375e-31 -1.03229326e-29 -5.6430848e-31 3.1390965e-31
000020 ea 9f cf 8c d3 9c 22 91 1d fc 76 0d 4d bf d6 0d
       -3.1989645e-31 -1.2827872e-28 7.6108073e-31 1.3234822e-30
000030 3d 52 40 16 32 b2 04 8e 4e 7a fd 0d 0b 5c db 0d
       1.5535586e-25 -1.6356054e-30 1.5621773e-30 1.3519076e-30
000040 12 02 4a 18 4c 01 9e 90 47 76 1a 8e 15 ac 76 0d
       2.6108933e-24 -6.232201e-29 -1.9038914e-30 7.601174e-31
000050 94 6d b7 0b 79 8a c2 8f 82 17 17 14 b6 19 9f 10
       7.065391e-32 -1.9183215e-29 7.628188e-27 6.2754056e-29
000060 ce 6a 0e 8e a8 12 ea 8d 66 0b 0f 15 4c 0d 28 8e
       -1.7554276e-30 -1.4425855e-30 2.8887612e-26 -2.0714001e-30
000070 73 ad 0e 91 76 c8 da 18 ee cc 2e 0d 85 4d 1f 8f
       -1.1255273e-28 5.6554093e-24 5.3864565e-31 -7.854235e-30
000080 5e 0c db 18 d6 50 4e 8d b4 29 8f 8c 42 59 f8 12
       5.662266e-24 -6.3575954e-31 -2.2057738e-31 1.5673004e-27
000090 a1 e8 e5 0d c4 20 fc 95 38 2a 8d 93 f2 a0 7b 8d
       1.4169218e-30 -1.01833684e-25 -3.5635035e-27 -7.7539077e-31
0000a0 58 d0 d7 0e 77 df 87 8e 91 52 2f 93 32 31 4a 0e
       5.320222e-30 -3.349526e-30 -2.2128814e-27 2.4922109e-30
0000b0 90 44 ac 0c 54 10 bd 14 a7 b3 5d 8f 8f 84 d1 12
       2.654206e-31 1.9090563e-26 -1.0930741e-29 1.3222433e-27
0000c0 b7 bb 37 8d 12 b2 4a 16 12 cb 1c 95 42 b7 64 12
       -5.661718e-31 1.6373619e-25 -3.1664143e-26 7.2169997e-28
0000d0 9a cb 44 94 93 a7 06 11 c9 35 84 0f 74 6c 32 8d
       -9.9356245e-27 1.0622374e-28 1.3036922e-29 -5.498103e-31
0000e0 66 24 d5 8e 56 11 83 11 1f 8c c8 8d b8 4c a8 91
       -5.2543604e-30 2.067884e-28 -1.2359685e-30 -2.6553008e-28
0000f0 e0 a2 2b 0e ba d8 d8 0f f1 fe 85 11 f0 59 56 8e
       2.1155799e-30 2.1382724e-29 2.114082e-28 -2.642084e-30

embedding.embeddings.ken_20230614_denoised.poses.weight f4 [64, 63]
000000 41 62 27 85 41 85 f5 89 3a c4 b5 89 b5 ef 06 85
       -7.870349e-36 -5.9106916e-33 -4.3758696e-33 -6.344677e-36
000010 2f 42 81 83 2c be 49 82 74 4e ef 08 92 8d 06 86
       -7.597134e-37 -1.4821724e-37 1.44027335e-33 -2.5306608e-35
000020 a0 60 46 86 d8 b1 50 07 07 8c 59 0b 19 70 42 06
       -3.731065e-35 1.5700444e-34 4.1898025e-32 3.65697e-35
000030 6e 19 5f 03 80 02 fe 09 83 c3 05 0c 38 ba 14 01
       6.5563e-37 6.1150627e-33 1.0304782e-31 2.7316912e-38
000040 96 a2 bd 09 63 4a 34 06 3c 61 b4 87 88 cb f9 84
       4.565299e-33 3.3908888e-35 -2.714054e-34 -5.8726533e-36
000050 be 39 04 05 01 a6 45 84 7c 3e 2d 8e 5b 81 eb 02
       6.217216e-36 -2.3233464e-36 -2.1353981e-30 3.4604393e-37
000060 56 08 a7 06 f4 4b 78 02 dc 49 3a 04 6a 0d db 89
       6.2830667e-35 1.824196e-37 2.189811e-36 -5.2734947e-33
000070 14 b1 f3 02 52 1b d3 05 74 e3 05 06 f5 cb 96 02
       3.5807279e-37 1.985238e-35 2.5181626e-35 2.2157585e-37
000080 44 87 92 89 f0 b5 b8 82 04 9b 6d 07 81 c6 02 85
       -3.5275425e-33 -2.7140797e-37 1.7875453e-34 -6.14903e-36
000090 36 ec f5 82 39 43 02 85 cc d2 0c 03 d4 14 2f 81
       -3.6135093e-37 -6.1249175e-36 4.1384285e-37 -3.2157367e-38
0000a0 06 c1 57 86 d9 8a b7 84 ee 6d 7e 84 47 92 78 0b
       -4.0578817e-35 -4.3150605e-36 -2.9908034e-36 4.787311e-32
0000b0 d7 ce 11 03 2a 19 a4 04 66 93 cd 0a 0a 5d 78 83
       4.284911e-37 3.8579324e-36 1.9796227e-32 -7.2987453e-37
0000c0 4e d1 36 83 fb c3 00 83 c6 3f 8c 04 cc 4d ec 8e
       -5.3725263e-37 -3.7840794e-37 3.297241e-36 -5.8253407e-30
0000d0 66 04 ea 02 ec 78 e2 04 3b 45 d3 8c d5 3b 28 05
       3.4385734e-37 5.3243394e-36 -3.2551364e-31 7.9103114e-36
0000e0 6e a9 04 86 70 f4 0c 81 14 91 c3 03 02 d2 e0 83
       -2.4950918e-35 -2.5889314e-38 1.1494378e-36 -1.3213752e-36
0000f0 c6 0d 1f 8a ee 67 d7 83 c3 f4 6e 03 68 9d 98 86
       -7.658162e-33 -1.2660425e-36 7.0222887e-37 -5.7407333e-35
000100 64 99 e9 03 88 d6 31 0e d6 ef ce 05 de d2 d9 04
       1.3729726e-36 2.1920227e-30 1.9460249e-35 5.1210106e-36
000110 24 96 de 83 78 c9 26 04 04 a8 ac 83 6f a4 1e 04
       -1.3082458e-36 1.9605716e-36 -1.0147826e-36 1.8648315e-36
000120 14 f3 06 08 43 fe de 04 63 e2 7f 0a 66 2a 9e 83
       4.0609895e-34 5.242545e-36 1.2320382e-32 -9.29614e-37
000130 f9 18 39 86 9a 8c 82 0c f4 11 03 03 93 b1 0a 85
       -3.481298e-35 2.0114293e-31 3.851805e-37 -6.521344e-36
000140 8c 5c 70 06 14 b1 43 02 54 24 ad 06 35 24 85 8c
       4.5206976e-35 1.4377156e-37 6.5128747e-35 -2.0513686e-31
000150 cd 5e 03 86 f4 6d ec 81 f0 0c 67 87 07 a0 1d 04
       -2.470801e-35 -8.6850483e-38 -1.738231e-34 1.8528742e-36
000160 ca b1 60 86 53 dd 8b 09 55 c6 b7 84 18 62 57 04
       -4.2260336e-35 3.3671165e-33 -4.3205232e-36 2.5318171e-36
000170 8c 55 0f 09 a2 b0 28 85 40 37 26 04 9a 11 4c 84
       1.7253223e-33 -7.9317644e-36 1.9538576e-36 -2.3988167e-36
000180 04 57 52 89 27 cf c5 8c ab 85 fe 84 e5 d3 03 06
       -2.5318745e-33 -3.0477331e-31 -5.9837868e-36 2.4794037e-35
000190 19 24 d9 83 3b 69 2c 04 af b0 90 0c be 5e 9f 05
       -1.2762401e-36 2.0266822e-36 2.229305e-31 1.4987091e-35
0001a0 34 28 41 84 3a 97 29 03 8d 88 43 84 20 35 f4 09
       -2.2705501e-36 4.9838236e-37 -2.298484e-36 5.879082e-33
0001b0 58 36 2a 05 f8 ce 39 02 d0 b5 fe 80 ed 67 53 85
       8.003343e-36 1.365105e-37 -2.3391438e-38 -9.9402605e-36
0001c0 53 31 39 07 c8 08 87 83 f2 b5 09 04 e7 82 aa 85
       1.3932348e-34 -7.936603e-37 1.6187818e-36 -1.6034809e-35
0001d0 e6 7c 00 03 82 87 a1 04 d1 dd bb 84 08 3c d9 03
       3.7759196e-37 3.7975362e-36 -4.4167195e-36 1.2767896e-36
0001e0 e2 3e ff 04 3f 25 96 08 3e 32 59 86 63 db 92 02
       6.000796e-36 9.036553e-34 -4.0850076e-35 2.1578694e-37
0001f0 7a 46 84 8c 29 a9 3f 84 9c 10 1c 8b 5e 5d 95 04
       -2.0380237e-31 -2.2529617e-36 -3.0057003e-32 3.5115476e-36
000200 24 40 b3 85 74 af 88 0a 42 dd 91 8b e9 db 45 86
       -1.685664e-35 1.3162322e-32 -5.618488e-32 -3.7213146e-35
000210 a8 2d c4 83 de b6 b5 02 37 b7 f7 09 97 26 ec 83
       -1.1530327e-36 2.670052e-37 5.963538e-33 -1.3879693e-36
000220 2b 49 1d 07 93 8b 9d 04 c1 dd 1b 8c 3c 1b de 03
       1.1832869e-34 3.70387e-36 -1.2007497e-31 1.305424e-36
000230 d1 d7 64 87 ed 2e c0 03 72 e2 e3 86 2d 00 13 87
       -1.7216236e-34 1.1295519e-36 -8.572064e-35 -1.1059103e-34
000240 dc 17 d3 08 a5 aa 0a 83 b9 f2 8e 84 13 7d 39 83
       1.270471e-33 -4.0750445e-37 -3.3606945e-36 -5.451019e-37
000250 d9 25 fa 8e fd 88 95 85 47 0a 6f 86 cb 55 ba 8c
       -6.1666204e-30 -1.4062214e-35 -4.4958455e-35 -2.8709472e-31
000260 46 62 c4 85 8d a6 6e 06 a8 16 1c 8b 42 f9 76 8b
       -1.8467851e-35 4.4885187e-35 -3.0061552e-32 -4.7565397e-32
000270 64 7b 7b 85 cf a2 b4 02 10 e3 11 88 8d 43 31 04
       -1.18246266e-35 2.654207e-37 -4.390126e-34 2.0837268e-36
000280 03 df 70 84 5c 44 b4 06 5e 0e 30 05 b9 b7 84 83
       -2.8314266e-36 6.780892e-35 8.278119e-36 -7.800443e-37
000290 ae 43 06 85 8a e3 1c 84 ea 6c 2f 83 64 4e 52 04
       -6.3130805e-36 -1.8442193e-36 -5.1552905e-37 2.4721377e-36
0002a0 bd e5 c7 07 55 9c 1d 0b ac 5c a8 83 25 28 bf 05
       3.007722e-34 3.035471e-32 -9.895429e-37 1.79763e-35
0002b0 96 27 b1 06 52 e4 00 84 02 23 c6 83 6c d4 be 0c
       6.6638166e-35 -1.5151167e-36 -1.16454315e-36 2.9401982e-31
0002c0 b6 b4 0b 84 03 a7 06 87 f9 6a 51 03 89 3d 0b 0a
       -1.642235e-36 -1.013012e-34 6.154238e-37 6.70418e-33
0002d0 76 06 f5 8d b6 8f 48 85 80 45 6b 83 2d 73 63 06
       -1.5100846e-30 -9.43035e-36 -6.9140075e-37 4.2778573e-35
0002e0 5a 12 fe 03 32 b5 56 84 e0 e1 db 02 32 ad 0b 0c
       1.4932992e-36 -2.523878e-36 3.2308804e-37 1.076029e-31
0002f0 56 3e 33 04 cc c5 01 85 c4 c3 8b 09 4b 4f bf 08
       2.1069972e-36 -6.1018804e-36 3.364713e-33 1.1514036e-33
000300 1b 85 14 83 05 a1 76 08 c0 6f 9e 02 5d 2f 25 8b
       -4.364609e-37 7.421721e-34 2.3280155e-37 -3.1813476e-32
000310 7b 7f 8f 86 81 17 80 02 dd 2f 53 84 77 47 cc 84
       -5.397794e-35 1.88214e-37 -2.4824909e-36 -4.80258e-36
000320 5c c0 2d 84 a1 a3 2c 0c 8a 1f 43 82 68 49 d6 83
       -2.042438e-36 1.3299638e-31 -1.4335389e-37 -1.2594643e-36
000330 37 5a 52 08 ac 32 8b 87 10 00 ae 84 3f fe c5 87
       6.3300623e-34 -2.0944178e-34 -4.090726e-36 -2.9790698e-34
000340 d2 eb aa 06 5a 5d f6 05 84 e0 7e 82 67 e1 b3 8a
       6.42934e-35 2.3168021e-35 -1.8725406e-37 -1.732186e-32
000350 96 df 80 08 ce 9d 26 07 07 95 8e 85 8d 30 e1 0a
       7.756285e-34 1.2534827e-34 -1.340836e-35 2.1684975e-32
000360 12 6d 38 87 7b 25 8a 8e f6 6b a9 85 02 33 12 84
       -1.3874674e-34 -3.405572e-30 -1.5932342e-35 -1.718564e-36
000370 b8 dc 97 04 93 6d 56 09 9f 25 9b 85 e9 9e f5 03
       3.5702628e-36 2.5810835e-33 -1.458995e-35 1.443629e-36
000380 5a 71 85 8c 2e ea 06 88 80 0a 9b 00 c0 16 4b 89
       -2.0560116e-31 -4.0599435e-34 1.4238269e-38 -2.4445933e-33
000390 a8 d4 39 83 1e 7c 86 8c 3d 41 af 03 8c bf 95 03
       -5.461073e-37 -2.072067e-31 1.03005535e-36 8.80141e-37
0003a0 87 b5 4d 07 19 f3 b1 08 da 0b e7 09 1a 02 b2 8c
       1.5475832e-34 1.0709952e-33 5.5622372e-33 -2.7426507e-31
0003b0 79 6b 68 83 69 ea b3 03 de ac e0 82 da 52 e2 84
       -6.8302045e-37 1.0574492e-36 -3.3013063e-37 -5.3208432e-36
0003c0 f8 29 44 81 95 9a c8 0c 4b 81 7a 83 53 6c ad 05
       -3.6029626e-38 3.0907915e-31 -7.361682e-37 1.6308634e-35
0003d0 32 80 74 8a ef 54 f8 05 70 c2 1a 83 fc 31 99 8a
       -1.17722835e-32 2.3353008e-35 -4.5479736e-37 -1.4752166e-32
0003e0 73 c0 5c 84 5c 02 01 05 fa 2a 06 0e a5 84 e5 02
       -2.5949244e-36 6.065984e-36 1.6537468e-30 3.372466e-37
0003f0 96 0c f8 0a 7a 05 37 88 a8 9f ac 0a 72 7d d6 86
       2.3886266e-32 -5.5075997e-34 1.6623054e-32 -8.068218e-35

embedding.embeddings.ken_20230614_denoised.poses.bias f4 [64]
000000 a7 60 d5 84 e7 da ea 88 30 62 5f 07 59 0b c0 04
       -5.016482e-36 -1.4134826e-33 1.680551e-34 4.5149404e-36
000010 c1 0d 48 8c cc f2 0e 04 aa 91 0b 06 47 99 fc 0b
       -1.5411578e-31 1.6803507e-36 2.625001e-35 9.7297495e-32
000020 b4 a3 b8 03 46 de d8 8c cb 42 16 86 2a 3b aa 85
       1.0852132e-36 -3.3413845e-31 -2.8260936e-35 -1.6008457e-35
000030 ac be bb 8b b4 76 13 82 51 8d e4 87 70 f5 7d 83
       -7.231667e-32 -1.083392e-37 -3.4388685e-34 -7.4631766e-37
000040 37 e2 0f 05 91 2e c2 84 2f a5 8d 84 f8 63 d0 05
       6.765377e-36 -4.5651945e-36 -3.3300638e-36 1.9596949e-35
000050 ac b1 73 8a c0 5b 00 03 d6 7c f2 84 40 41 19 85
       -1.1733441e-32 3.7721143e-37 -5.700857e-36 -7.20601e-36
000060 0c 8e fb 00 78 0a aa 03 c2 00 84 82 a0 29 42 84
       2.3101666e-38 9.9941055e-37 -1.9396092e-37 -2.2823704e-36
000070 19 98 cd 83 43 ef 86 07 19 78 cd 07 67 24 10 04
       -1.2083737e-36 2.0302705e-34 3.0915559e-34 1.6943834e-36
000080 f9 c5 a4 04 ce e3 bf 0a 38 f1 93 81 a1 b8 46 06
       3.8738024e-36 1.8478322e-32 -5.4345404e-38 3.7375305e-35
000090 96 b8 3b 87 bb 95 ff 84 87 fa ba 04 5a e1 2e 8a
       -1.4122561e-34 -6.0087718e-36 4.3958463e-36 -8.420179e-33
0000a0 dd 4b b6 83 4e 78 b8 04 51 ba 13 06 08 d9 56 07
       -1.0714416e-36 4.3368675e-36 2.778451e-35 1.616335e-34
0000b0 48 5d d1 81 e3 28 9c 06 fe 11 de 09 9e d2 0d 06
       -7.6908327e-38 5.8740756e-35 5.3461476e-33 2.667389e-35
0000c0 c5 99 f3 85 9b 9f 87 87 cc 75 22 07 a5 46 e3 87
       -2.2908096e-35 -2.040635e-34 1.2222143e-34 -3.4196685e-34
0000d0 7a 12 3b 04 f6 58 ba 84 4c 68 d5 84 32 ae 85 04
       2.1990228e-36 -4.3810088e-36 -5.017184e-36 3.1428123e-36
0000e0 15 c2 82 05 3c e5 eb 84 67 52 60 03 bb 4a b4 84
       1.2296436e-35 -5.5458753e-36 6.5922277e-37 -4.2386426e-36
0000f0 82 9e 35 04 43 01 c1 84 33 be 2a 03 b0 20 23 85
       2.1349231e-36 -4.537524e-36 5.017685e-37 -7.670227e-36

embedding.embeddings.ken_20230618_denoised.poses.weight f4 [64, 63]
000000 38 10 32 02 39 4d c7 02 2e 67 35 02 00 00 00 00
       1.3082029e-37 2.9284746e-37 1.3327391e-37 0.0
000010 f9 ea 2e 82 40 96 e3 81 6c 25 fa 01 bb 22 31 02
       -1.2850935e-37 -8.360223e-38 9.1889194e-38 1.3013873e-37
000020 c7 32 a4 81 ec 0e 1c 02 f1 ad 54 81 ea 4a 42 02
       -6.031695e-38 1.1465352e-37 -3.9063047e-38 1.4274368e-37
000030 ba 49 40 02 b6 18 73 02 cd 23 33 82 c8 43 46 02
       1.4127091e-37 1.7859912e-37 -1.3161117e-37 1.4566195e-37
000040 be 59 25 02 64 3e 45 82 fb 99 3c 02 d9 5f 84 01
       1.214804e-37 -1.4491179e-37 1.3856249e-37 4.8626677e-38
000050 96 cd 35 01 16 87 a1 02 b9 61 35 81 51 3a 10 82
       3.339195e-38 2.373436e-37 -3.3314562e-38 -1.0596185e-37
000060 3e 8b 43 82 7e c8 14 01 e1 4f 46 02 46 3e 40 02
       -1.4366298e-37 2.7327153e-38 1.4569667e-37 1.4123804e-37
000070 5a 1d 0d 81 8b 3c 62 82 76 9d b9 02 3d 6e 39 82
       -2.591867e-38 -1.6621233e-37 2.7273685e-37 -1.362329e-37
000080 e0 a0 58 02 67 a7 e4 81 b6 a4 37 82 ee 36 19 82
       1.5915343e-37 -8.3994183e-38 -1.3491986e-37 -1.1256429e-37
000090 5a 05 76 81 36 5f ff 82 08 8c 32 82 3c 61 cd 81
       -4.5186904e-38 -3.752353e-37 -1.3117562e-37 -7.544463e-38
0000a0 4d 69 80 82 a4 4d 2f 82 05 2d 94 82 b0 43 ba 00
       -1.886835e-37 -1.2879251e-37 -2.1772485e-37 1.7105684e-38
0000b0 5f 53 a4 01 a0 b0 3d 82 79 e5 49 82 62 52 3c 82
       6.0363717e-38 -1.3936216e-37 -1.4833003e-37 -1.3835701e-37
0000c0 9f 1b 8a 00 ef d7 4c 02 00 00 00 80 2a c7 34 82
       1.2683207e-38 1.5049523e-37 -0.0 -1.3281469e-37
0000d0 44 c0 b7 03 0e 3d 27 82 32 dc 2e 82 35 78 13 02
       1.0799915e-36 -1.2286744e-37 -1.2846694e-37 1.0834352e-37
0000e0 81 c4 80 04 29 60 e8 81 69 06 71 02 ad 5b 5a 82
       3.0273116e-36 -8.5361323e-38 1.7707723e-37 -1.604242e-37
0000f0 97 dc 2c 02 07 d2 2d 02 ba fb 47 02 e8 0a 00 81
       1.269987e-37 1.2770308e-37 1.4692453e-37 -2.3517712e-38
000100 5c c6 8c 02 db d8 55 82 38 7d 58 81 30 ce 99 81
       2.0685004e-37 -1.5711003e-37 -3.9762774e-38 -5.649919e-38
000110 52 10 0e 01 8d cc 64 82 76 9c f7 01 89 c1 39 82
       2.609299e-38 -1.6809498e-37 9.095798e-38 -1.3647195e-37
000120 a2 1e 3c 82 2a 10 90 81 7f 6e 27 02 92 61 d6 81
       -1.382085e-37 -5.292044e-38 1.2300933e-37 -7.875119e-38
000130 1a 53 17 02 00 00 00 00 50 4b ef 81 91 fc 2a 02
       1.1117577e-37 0.0 -8.79028e-38 1.256211e-37
000140 c7 77 7f 02 0d 88 2e 02 b5 30 75 82 d8 ef 1f 02
       1.8768816e-37 1.2822546e-37 -1.8013735e-37 1.1750307e-37
000150 1c 6e fa 81 9b 9d 2e 82 20 36 01 01 fb 28 36 02
       -9.1993495e-38 -1.2828732e-37 2.373239e-38 1.3383009e-37
000160 1f 6c f6 03 92 52 42 82 3c 03 27 02 dc 47 54 82
       1.4483404e-36 -1.4276566e-37 1.227015e-37 -1.5595923e-37
000170 28 3f df 80 65 aa 2b 03 e9 be 87 80 66 fb e5 01
       -2.0501972e-38 5.0447987e-37 -1.2466278e-38 8.4482054e-38
000180 03 a9 0f 81 c3 6d b2 02 54 8b 7a 01 2e ae 84 80
       -2.6386212e-38 2.621775e-37 4.601771e-38 -1.218477e-38
000190 3c cf 9b 01 f2 48 c8 81 9e 84 15 81 62 84 1e 02
       5.7235374e-38 -7.357307e-38 -2.7462126e-38 1.1645999e-37
0001a0 c0 46 48 01 3c a0 17 02 14 9d 41 03 1b f4 89 82
       3.678496e-38 1.1139713e-37 5.689792e-37 -2.027045e-37
0001b0 21 27 42 02 0f 7f 4a 82 9e 1c 38 02 a0 78 61 82
       1.4264098e-37 -1.487708e-37 1.3526398e-37 -1.6565007e-37
0001c0 6f 43 1a 02 ae 9c 39 82 03 03 5e 01 e8 2e 3d 02
       1.1333486e-37 -1.3636618e-37 4.077712e-38 1.3898988e-37
0001d0 cd 9c 71 82 c0 d9 3e 02 f6 e6 63 82 74 0d 3b 82
       -1.7750883e-37 1.4021487e-37 -1.6743609e-37 -1.3742451e-37
0001e0 c7 37 55 02 85 21 9d 01 26 2f 8c 02 1e 20 ee 01
       1.5664776e-37 5.772079e-38 2.0598213e-37 8.747348e-38
0001f0 56 44 42 82 8f 5c 5f 02 87 83 02 82 00 00 00 00
       -1.427248e-37 1.6410016e-37 -9.588638e-38 0.0
000200 c2 ad 30 02 5a 7a 0d 02 a6 79 3b 02 2b 1a 0a 01
       1.2980304e-37 1.0394157e-37 1.3773502e-37 2.5365372e-38
000210 28 e6 eb 81 88 61 00 81 c2 a2 2f 82 d4 06 37 02
       -8.6655624e-38 -2.3579862e-38 -1.2903679e-37 1.3446676e-37
000220 92 ea 20 02 9d 5d 19 02 0e 62 6f 81 10 92 f9 81
       1.1822262e-37 1.126753e-37 -4.3967718e-38 -9.1677744e-38
000230 a4 cc 38 82 db b2 38 82 80 12 00 01 da 9d 2f 01
       -1.3576914e-37 -1.3569514e-37 2.352316e-38 3.2255677e-38
000240 da 04 00 82 46 42 0a 82 80 8a a4 01 57 32 3e 82
       -9.405347e-38 -1.0157658e-37 6.0442823e-38 -1.3973442e-37
000250 41 02 44 03 c3 6a 35 02 18 8e 49 02 01 92 71 84
       5.760181e-37 1.3328419e-37 1.4807927e-37 -2.8396456e-36
000260 0a b5 b7 01 47 a4 01 83 3e 25 6d 02 24 13 1e 02
       6.748336e-38 -3.8098274e-37 1.7422698e-37 1.16135e-37
000270 ce dc 8d 80 77 18 94 03 ee 01 97 82 6a 34 35 02
       -1.3028015e-38 8.704275e-37 -2.2188563e-37 1.3312822e-37
000280 60 9a 64 82 78 a5 3d 82 47 b7 3a 02 80 c1 de 81
       -1.6795098e-37 -1.3933014e-37 1.371772e-37 -8.182758e-38
000290 79 89 a7 01 3e e0 c1 81 39 76 35 02 58 6a 38 82
       6.1543375e-38 -7.1218775e-38 1.3331708e-37 -1.3548704e-37
0002a0 87 ae a5 02 62 88 21 02 fa 06 15 82 70 2e 27 81
       2.4344745e-37 1.1867552e-37 -1.0948793e-37 -3.0706373e-38
0002b0 77 0e d9 01 c6 0e 93 82 6e 05 1b 82 1d 53 f6 00
       7.9733967e-38 -2.1608188e-37 -1.138916e-37 2.2621347e-38
0002c0 29 a7 d7 81 fe e6 d2 82 d8 f4 29 82 63 2d 39 02
       -7.921839e-38 -3.098931e-37 -1.2486426e-37 1.3604679e-37
0002d0 99 f6 2a 02 36 74 5d 01 e0 0f 64 82 c3 71 3b 83
       1.2560398e-37 4.0674667e-38 -1.675535e-37 -5.5084953e-37
0002e0 64 04 11 82 fe 18 d1 81 85 c6 03 82 d1 b2 2e 82
       -1.0654178e-37 -7.6810337e-38 -9.681332e-38 -1.2834819e-37
0002f0 52 68 56 01 c6 08 4b 02 fc 8f 40 02 b7 ce af 02
       3.9380439e-38 1.4916602e-37 1.4147254e-37 2.5832587e-37
000300 0e 75 78 81 14 55 7e 82 33 49 ab 02 34 03 30 82
       -4.563439e-38 -1.8685389e-37 2.5168206e-37 -1.2931357e-37
000310 f5 7f 3d 82 a4 54 01 01 32 74 3c 82 bc 43 5c 02
       -1.3922249e-37 2.3754285e-38 -1.3845405e-37 1.6182486e-37
000320 e5 12 47 82 2b 1c ef 81 ce 0c 0b 82 85 99 64 81
       -1.4625633e-37 -8.7835153e-38 -1.0215782e-37 -4.198713e-38
000330 5d b8 24 02 6e 18 4d 82 5b c7 3f 82 a5 7b 47 02
       1.2101727e-37 -1.5068032e-37 -1.4089676e-37 1.4655695e-37
000340 45 d3 c8 81 f8 41 6a 82 52 33 28 02 52 d5 d9 81
       -7.3771554e-38 -1.7210537e-37 1.2357419e-37 -8.001931e-38
000350 62 17 40 02 15 e9 40 02 42 e9 3c 82 1b 2a 36 02
       1.4112643e-37 1.4172823e-37 -1.3879e-37 1.3383332e-37
000360 71 b1 81 04 b4 d1 4c 82 51 c9 53 02 2d 43 40 82
       3.049071e-36 -1.5047735e-37 1.5559607e-37 -1.4125211e-37
000370 52 94 65 02 d5 95 3c 02 eb 21 1e 82 b0 50 2e 82
       1.6866829e-37 1.3855058e-37 -1.1617741e-37 -1.2806657e-37
000380 85 c6 19 02 90 bf 2a 82 2a 83 04 02 f0 b2 d0 02
       1.1297637e-37 -1.2544603e-37 9.735471e-38 3.0665558e-37
000390 f3 29 3f 02 af 11 7b 02 60 96 a9 81 5a 26 b4 01
       1.4044503e-37 1.8445643e-37 -6.2296573e-38 6.617659e-38
0003a0 30 38 a5 01 c8 88 ec 01 2d 34 31 83 93 b0 3d 02
       6.069205e-38 8.688898e-38 -5.207552e-37 1.3936201e-37
0003b0 54 a1 33 02 64 c7 23 81 33 b0 dd 81 e8 32 b2 81
       1.3197142e-37 -3.0081428e-38 -8.143541e-38 -6.545992e-38
0003c0 2e 40 18 02 82 69 c8 82 21 04 c4 80 be 96 59 82
       1.1185615e-37 -2.9447917e-37 -1.8001238e-38 -1.5985903e-37
0003d0 3c cd 4a 02 9a 48 03 02 0e 1c 39 82 f9 5c 47 82
       1.4899516e-37 9.645196e-38 -1.3599705e-37 -1.4646893e-37
0003e0 ae ce f5 01 3a 9b 33 01 6c 0d 00 01 02 92 8e 80
       9.0295357e-38 3.2988477e-38 2.3519517e-38 -1.3093018e-38
0003f0 a1 16 9f 81 7a bd 74 01 f6 09 00 01 ef 2a 94 82
       -5.8439846e-38 4.4951665e-38 2.3517034e-38 -2.1771288e-37

embedding.embeddings.ken_20230618_denoised.poses.bias f4 [64]
000000 6d 06 32 02 99 38 38 02 1d 2f bf 81 56 59 5c 82
       1.3079219e-37 1.3534428e-37 -7.0229923e-38 -1.6188685e-37
000010 df ad 61 02 c0 16 7a 04 3b cc 7b 02 7d 2c 3c 82
       1.6580288e-37 2.9397805e-36 1.8499179e-37 -1.3824826e-37
000020 ee 30 25 02 84 b4 a2 82 2d 25 e3 01 aa bf 17 02
       1.2136328e-37 -2.3907371e-37 8.3439975e-38 1.1148733e-37
000030 72 13 87 80 bf 1d 18 82 fa 5f 85 00 79 81 30 02
       -1.2404768e-38 -1.1175733e-37 1.2248551e-38 1.2967595e-37
000040 cb 0f 1c 82 9c 4d 2f 82 32 6d 23 82 e8 56 f7 81
       -1.1465602e-37 -1.2879242e-37 -1.2006686e-37 -9.0858175e-38
000050 02 59 22 82 f2 49 4b 02 c0 12 21 82 13 84 40 02
       -1.1927424e-37 1.4935306e-37 -1.1833793e-37 1.4143836e-37
000060 2c cb 43 02 e3 77 82 82 d3 f5 05 03 e8 68 ae 81
       1.4384645e-37 -1.9170595e-37 3.936738e-37 -6.406804e-38
000070 8b f7 2e 01 b0 48 0e 82 7a db 5b 02 66 9c b0 01
       3.2136356e-38 -1.0453373e-37 1.6152566e-37 6.487661e-38
000080 df e9 65 01 c0 80 56 01 65 ce b0 82 11 5c 80 82
       4.2228452e-38 3.9397966e-38 -2.597934e-37 -1.8860753e-37
000090 e6 e9 73 81 a4 a3 47 02 73 69 3b 02 22 4f 91 01
       -4.4799865e-38 1.4667174e-37 1.3768853e-37 5.337814e-38
0000a0 8d fc c0 02 d0 9c e2 81 f0 80 2c 82 2c aa 9d 82
       2.8356821e-37 -8.3244303e-38 -1.2673568e-37 -2.316675e-37
0000b0 c4 04 e3 81 88 80 42 81 7e 11 21 82 00 4c 0c 02
       -8.339347e-38 -3.572439e-38 -1.1833432e-37 1.0307387e-37
0000c0 ca 86 73 01 d7 52 a2 81 13 ab a5 01 98 e7 d4 81
       4.4728758e-38 -5.962827e-38 6.0856907e-38 -7.820882e-38
0000d0 4b eb b1 00 fe fe ff 81 c0 df f9 81 62 82 3b 02
       1.633929e-38 -9.40381e-38 -9.178922e-38 1.3776008e-37
0000e0 ee 3e 15 02 dc 07 4d 02 02 52 42 82 9b 5f f1 01
       1.0964851e-37 1.5063277e-37 -1.4276404e-37 8.8666605e-38
0000f0 00 00 00 00 b2 d4 d0 02 81 d2 3d 02 c6 e7 a3 01
       0.0 3.0684934e-37 1.3945939e-37 6.020932e-38

core.core.fc.0.0.weight f4 [128, 64]
000000 32 f6 3d 02 50 39 10 82 32 11 00 82 34 b0 4a 02
       1.3956182e-37 -1.0595897e-37 -9.40889e-38 1.4891184e-37
000010 be b5 41 02 2f c0 41 02 96 34 3e 02 e1 6f 31 02
       1.4231558e-37 1.4234555e-37 1.3974087e-37 1.3036014e-37
000020 b0 fd 41 82 7d e1 38 82 00 1b fb 81 8c 93 22 82
       -1.4252205e-37 -1.3582897e-37 -9.224158e-38 -1.1944224e-37
000030 9e eb 44 02 54 30 1b 82 12 80 5e 82 87 9c 21 82
       1.4467425e-37 -1.1401471e-37 -1.6346738e-37 -1.1873333e-37
000040 7c 89 06 82 91 3b 42 02 f8 69 40 02 72 a9 46 82
       -9.884221e-38 1.4269964e-37 1.4136344e-37 -1.4595371e-37
000050 06 5b 36 82 af d5 41 02 58 18 27 82 d0 f6 34 02
       -1.3397371e-37 1.4240725e-37 -1.2276209e-37 1.3295143e-37
000060 14 dd 33 02 18 e8 32 02 28 2e 02 82 fe e4 3f 82
       1.3214289e-37 1.3143982e-37 -9.564138e-38 -1.4098181e-37
000070 e9 a3 33 02 73 77 42 82 4c b4 3a 82 06 1f 44 02
       1.3197883e-37 -1.4287149e-37 -1.3716864e-37 1.4408709e-37
000080 5b b4 3f 02 32 1a 32 02 ac f5 19 82 ae 58 38 82
       1.4084223e-37 1.3084892e-37 -1.1311169e-37 -1.3543635e-37
000090 ef 7f 34 82 40 8e 2b 02 10 f9 41 82 fe cc 31 82
       -1.3261027e-37 1.260392e-37 -1.4250878e-37 -1.3062736e-37
0000a0 c3 d5 0f 82 f6 bb 38 02 f8 43 08 82 f8 21 41 82
       -1.0567327e-37 1.3572127e-37 -1.0011208e-37 -1.4189149e-37
0000b0 f6 72 43 02 a9 dc 5b 02 3e 9c 42 02 1e 52 21 82
       1.435933e-37 1.6152905e-37 1.4297708e-37 -1.1851978e-37
0000c0 39 e2 18 82 ac 33 45 02 68 f6 4b 82 70 e3 1c 02
       -1.1232119e-37 1.4488103e-37 -1.49848e-37 1.1526341e-37
0000d0 57 6c 3b 02 67 4e 2f 02 5c b4 41 82 b2 d5 17 02
       1.3769682e-37 1.287947e-37 -1.4231161e-37 1.1155055e-37
0000e0 5c 10 21 02 8d 69 25 82 34 47 3b 82 b4 fb 0e 02
       1.1833107e-37 -1.2152577e-37 -1.3759025e-37 1.0504748e-37
0000f0 5f 66 11 02 2b 24 36 82 68 78 40 82 27 71 20 82
       1.0682297e-37 -1.3381628e-37 -1.4140487e-37 -1.1787417e-37
000100 62 d3 42 82 d5 fd 41 02 13 dd 37 02 8b 52 4c 02
       -1.4313533e-37 1.4252247e-37 1.3508162e-37 1.5011242e-37
000110 d8 57 11 02 ef d9 41 82 eb 7d 2f 82 d6 ec 41 82
       1.0678127e-37 -1.4241944e-37 -1.2893106e-37 -1.4247369e-37
000120 f0 d0 36 02 9c 42 4d 02 de eb 2b 82 a0 4d 41 82
       1.343121e-37 1.5080137e-37 -1.2630786e-37 -1.4201678e-37
000130 dd d5 1d 82 62 74 43 82 53 af 0b 82 bc f4 45 82
       -1.1595914e-37 -1.4359738e-37 -1.0262423e-37 -1.454351e-37
000140 54 af 8d 00 c2 cb 47 02 cc e4 13 02 45 ef 07 82
       1.3011701e-38 1.4678687e-37 1.0865516e-37 -9.986901e-38
000150 7c d2 62 82 30 6c 46 82 57 30 37 02 30 b7 29 02
       -1.6664264e-37 -1.4577791e-37 1.345859e-37 1.2468731e-37
000160 df b5 38 02 8f e8 41 82 b8 8a 21 82 52 01 42 02
       1.357038e-37 -1.4246142e-37 -1.1868222e-37 1.4253248e-37
000170 3e 32 1d 82 78 c0 39 82 86 a5 39 02 dd b0 31 02
       -1.1548957e-37 -1.3646889e-37 1.3639156e-37 1.3054664e-37
000180 a6 f3 1e 82 b6 42 2a 02 c6 95 21 82 0d b2 3c 82
       -1.167793e-37 1.2508773e-37 -1.1871395e-37 -1.3863157e-37
000190 38 8a 2f 02 93 b8 36 02 eb 12 39 82 d9 79 02 82
       1.2896636e-37 1.3424218e-37 -1.3597083e-37 -9.58586e-38
0001a0 0a 4d 13 02 75 49 3f 02 b3 1f 09 02 c4 0d 32 82
       1.0821963e-37 1.4053545e-37 1.0074268e-37 -1.3081325e-37
0001b0 af 39 40 82 b2 b6 41 82 ef 72 4d 82 6b ac 29 02
       -1.4122487e-37 -1.4231832e-37 -1.5094006e-37 1.2465641e-37
0001c0 10 7e 47 82 a6 45 33 82 bf f5 3f 02 1b 27 36 82
       -1.4656389e-37 -1.3170831e-37 1.410299e-37 -1.3382471e-37
0001d0 5b 27 40 82 7f b0 27 82 fb f7 10 82 81 13 42 82
       -1.4117227e-37 -1.2319874e-37 -1.0650616e-37 -1.4258466e-37
0001e0 ce d1 11 82 f6 63 51 02 44 ca 47 02 93 7a 4c 02
       -1.0713129e-37 1.5383582e-37 1.4678258e-37 1.502273e-37
0001f0 59 fe 49 82 a4 a2 2f 82 94 a8 26 02 90 1c 43 82
       -1.4840142e-37 -1.2903645e-37 1.2244133e-37 -1.4334534e-37
000200 df 13 1e 82 3b ae 3e 82 40 f9 31 02 7a cc 49 82
       -1.1613709e-37 -1.4008997e-37 1.3075437e-37 -1.482583e-37
000210 8a fd 11 82 4b e8 2d 02 24 e4 41 82 58 11 4a 02
       -1.072568e-37 1.2776697e-37 -1.4244874e-37 1.4845594e-37
000220 74 4d 3c 02 91 39 04 02 e8 e0 38 02 06 40 55 02
       1.3834287e-37 9.714349e-38 1.358273e-37 1.5667142e-37
000230 c2 73 2e 02 89 2a 23 02 f1 05 0b 02 bd 59 28 02
       1.2816722e-37 1.1987556e-37 1.0213812e-37 1.2368444e-37
000240 fb 74 30 82 10 f7 15 02 b9 77 48 02 19 f3 47 02
       -1.296401e-37 1.1017695e-37 1.4728038e-37 1.4689977e-37
000250 ea f9 00 02 83 6d 1b 02 6f b7 3f 02 32 fa 41 02
       9.475677e-38 1.141903e-37 1.4085107e-37 1.4251203e-37
000260 2e 07 09 82 82 63 37 02 11 fd 2d 02 9f 02 3a 82
       -1.0067231e-37 1.3473274e-37 1.2782659e-37 -1.3665874e-37
000270 8a a6 17 82 98 47 3d 02 1f d0 3b 02 9d 25 27 02
       -1.1141522e-37 1.3906073e-37 1.3798318e-37 1.2280017e-37
000280 25 f2 1d 02 bb 69 36 02 fa 43 26 02 3d b7 30 82
       1.160403e-37 1.3401591e-37 1.2215262e-37 -1.2983025e-37
000290 36 c2 16 82 bb ce 2d 82 0e 32 42 02 3f 02 4c 02
       -1.1075995e-37 -1.2769361e-37 1.4267234e-37 1.4988198e-37
0002a0 ea f7 14 02 f8 62 2c 02 8c 2e 4e 02 e4 8a 21 82
       1.0944471e-37 1.2664967e-37 1.5147848e-37 -1.1868272e-37
0002b0 eb 7d 11 82 83 b4 3c 02 19 f5 48 82 82 29 2c 02
       -1.0689054e-37 1.3863863e-37 -1.4764019e-37 1.2648476e-37
0002c0 fc c0 41 02 b2 a0 42 02 b0 e8 1d 82 f3 07 28 02
       1.4234784e-37 1.4298986e-37 -1.1601316e-37 1.2344972e-37
0002d0 d6 34 42 82 9e 0f 00 82 3d 11 28 02 1b 09 4b 82
       -1.4268032e-37 -9.408437e-38 1.2347638e-37 -1.4916698e-37
0002e0 4b 57 3a 02 67 b6 04 02 8b f1 24 02 4a ae 33 02
       1.3690174e-37 9.750175e-38 1.2118137e-37 1.3200862e-37
0002f0 ed fc 42 82 fd 4a 44 02 a2 9a 3f 02 c1 84 4c 02
       -1.4325455e-37 1.4421326e-37 1.4076841e-37 1.5025651e-37
000300 c5 0c 49 02 da ae 21 02 a2 09 2f 82 aa d2 41 02
       1.4770812e-37 1.1878592e-37 -1.2859734e-37 1.4239858e-37
000310 fc 36 1e 82 6e 7b 0b 82 81 52 49 82 3d 5d 39 82
       -1.1623786e-37 -1.024753e-37 -1.4790825e-37 -1.3618412e-37
000320 2c 6c f6 01 98 a1 40 82 c1 e3 35 02 09 d8 75 82
       9.052135e-38 -1.4152307e-37 1.3363142e-37 -1.8061756e-37
000330 3a 35 45 02 85 db 41 02 63 44 38 82 be 7b 0e 02
       1.448855e-37 1.42424e-37 -1.3537811e-37 1.0468025e-37
000340 9b fa 41 82 49 9c 5f 82 43 3e 2b 02 0c 4b 15 02
       -1.4251321e-37 -1.6428304e-37 1.2580964e-37 1.0968329e-37
000350 8a 98 4a 82 b8 66 35 02 1e 41 39 02 52 53 1f 02
       -1.4884393e-37 1.3327259e-37 1.3610341e-37 1.1705387e-37
000360 3c ee 40 02 c1 c2 3e 02 28 12 00 82 f3 8a 1a 82
       1.4174302e-37 1.4014887e-37 -9.409165e-38 -1.135401e-37
000370 e4 fc 27 02 52 fe 37 02 50 f4 41 02 6b 4c 52 02
       1.2341798e-37 1.3517703e-37 1.4249515e-37 1.5450294e-37
000380 6e 0d 48 82 b9 18 2c 02 5d 62 07 82 7b d2 4b 82
       -1.4697534e-37 1.2643659e-37 -9.946462e-38 -1.497449e-37
000390 c0 59 25 82 c0 de 31 02 82 a2 3f 02 6f d9 3e 02
       -1.2148042e-37 1.3067832e-37 1.4079101e-37 1.4021396e-37
0003a0 3e c9 4b 02 19 56 2e 82 81 4c 42 02 21 d1 3c 82
       1.4971838e-37 -1.280821e-37 1.4274825e-37 -1.3872076e-37
0003b0 ac 01 11 82 a4 11 22 02 8c ea 31 02 fe 47 3f 82
       -1.0653397e-37 1.1906943e-37 1.3071218e-37 -1.4053125e-37
0003c0 80 53 02 82 80 0f 3b 02 d3 aa 32 82 e8 bd 4c 02
       -9.574855e-38 1.3743039e-37 -1.3126399e-37 1.5042053e-37
0003d0 df e7 41 82 42 79 29 02 5a 58 34 02 d5 d6 34 02
       -1.4245944e-37 1.2450958e-37 1.3249667e-37 1.3285965e-37
0003e0 5c d7 26 82 6a fb 10 82 a9 4e 3e 82 af 89 21 02
       -1.2257559e-37 -1.0651601e-37 -1.398157e-37 1.1867925e-37
0003f0 87 e1 45 02 26 1a 44 82 24 db 4a 82 65 55 42 82
       1.4537997e-37 -1.440731e-37 -1.4903506e-37 -1.4277376e-37

core.core.fc.0.0.bias f4 [128]
000000 b3 61 21 02 c5 f6 41 02 69 0e 36 02 89 77 33 82
       1.185645e-37 1.425022e-37 1.3375384e-37 -1.3185148e-37
000010 66 fa 5d 02 70 f1 42 02 c2 49 2b 82 dc 4c 21 02
       1.6308377e-37 1.4322158e-37 -1.2584263e-37 1.185047e-37
000020 b7 c2 41 82 de eb 0d 82 97 a3 43 82 8e 0e 1f 02
       -1.4235281e-37 -1.0426735e-37 -1.4373285e-37 1.1685652e-37
000030 11 1b 0a 02 c2 14 20 02 9a cb 2d 82 56 1d 0a 82
       1.0146406e-37 1.1760901e-37 -1.2768463e-37 -1.0147058e-37
000040 32 36 49 02 34 02 36 02 1f b8 41 02 30 ab 35 02
       1.4782701e-37 1.337188e-37 1.4232241e-37 1.3346908e-37
000050 28 75 39 02 c1 65 37 82 98 90 18 02 a3 88 44 82
       1.3625276e-37 -1.3473919e-37 1.1208693e-37 -1.4439019e-37
000060 a2 f5 41 02 4e 74 19 82 e4 05 40 02 f9 98 1c 82
       1.4249894e-37 -1.1274043e-37 1.4107623e-37 -1.1504971e-37
000070 e0 8f 3f 82 dc a3 21 82 37 9f 61 02 94 88 3a 82
       -1.4073754e-37 -1.1875437e-37 1.6576082e-37 -1.3704318e-37
000080 22 3e 3e 82 91 11 42 82 db d0 33 02 c2 28 11 02
       -1.3976827e-37 -1.425791e-37 1.3210782e-37 1.0664614e-37
000090 88 a9 41 02 95 a7 29 02 29 0a 11 82 a8 4b 4c 02
       1.4228054e-37 1.2464253e-37 -1.0655833e-37 1.5009265e-37
0000a0 b1 d9 3e 82 43 0c 1d 82 ff b8 43 02 46 c6 3a 82
       -1.402147e-37 -1.1538057e-37 1.4379429e-37 -1.3722024e-37
0000b0 f4 e1 31 02 32 fd 41 82 bb b8 03 02 c4 a0 3f 02
       1.3068752e-37 -1.4252064e-37 9.677375e-38 1.4078601e-37
0000c0 75 e2 30 82 cb 2b 05 02 2d fe 44 82 9e df 37 82
       -1.2995428e-37 9.783865e-38 -1.4472751e-37 -1.3508892e-37
0000d0 80 05 21 02 2b 6b 28 02 72 00 48 02 d2 b3 21 02
       1.182999e-37 1.2373446e-37 1.4693807e-37 1.1880018e-37
0000e0 7a d9 2f 02 73 86 41 02 26 5f 2b 02 48 52 01 82
       1.2919382e-37 1.4217986e-37 1.2590402e-37 -9.501037e-38
0000f0 5e 30 3a 02 53 3b 23 02 70 01 37 82 b9 8e 42 02
       1.3679003e-37 1.1992374e-37 -1.3445129e-37 1.4293828e-37
000100 df 45 1b 82 f9 fb 38 82 6b bb 31 02 25 41 31 82
       -1.1407654e-37 -1.3590498e-37 1.3057693e-37 -1.3022602e-37
000110 4e b5 2a 82 94 67 29 82 61 26 19 02 63 86 1e 82
       -1.2541659e-37 -1.2445885e-37 1.1251679e-37 -1.1646574e-37
000120 9e 9f 23 82 1b fb 2b 82 3f 87 38 82 c5 27 07 02
       -1.2021157e-37 -1.263516e-37 -1.3556999e-37 9.929647e-38
000130 98 7b 37 82 b3 e6 3a 02 5c 16 3d 02 e8 4f 2b 82
       -1.3480186e-37 1.3731329e-37 1.3891944e-37 -1.2586028e-37
000140 b4 ad 2e 82 6d 85 41 82 5c 32 19 02 ec 3b 36 82
       -1.2833351e-37 -1.4217692e-37 1.1255117e-37 -1.3388445e-37
000150 82 94 30 02 90 8d 39 02 86 99 30 02 78 e1 2c 82
       1.2973058e-37 1.363228e-37 1.2974497e-37 -1.2701271e-37
000160 0a eb 19 02 3e 01 11 02 9d bb 42 02 d3 bc 44 02
       1.1308118e-37 1.0653274e-37 1.4306711e-37 1.4453996e-37
000170 60 e7 26 82 89 a7 20 02 c9 15 36 82 32 01 38 82
       -1.2262155e-37 1.1803024e-37 -1.33775e-37 -1.3518528e-37
000180 ba c4 41 82 34 00 1d 02 91 92 3b 02 97 11 37 82
       -1.4235858e-37 1.1534597e-37 1.3780653e-37 -1.3449765e-37
000190 3c dd 28 82 67 e8 38 02 d4 17 41 82 00 d4 41 02
       -1.2406182e-37 1.3584881e-37 -1.4186239e-37 1.4240242e-37
0001a0 e6 a2 39 82 8f 8a 41 82 8a 88 1a 02 1c 31 3b 02
       -1.3638403e-37 -1.4219165e-37 1.1353318e-37 1.3752684e-37
0001b0 db a6 45 02 d3 47 3a 82 0d 33 3c 02 7e 24 41 02
       1.4521159e-37 -1.3685734e-37 1.382671e-37 1.4189873e-37
0001c0 82 c0 f5 81 06 f9 2d 82 d3 c1 15 82 be 6c 48 82
       -9.027502e-38 -1.2781499e-37 -1.1002416e-37 -1.4724887e-37
0001d0 b5 fe 30 82 3c d4 41 82 d5 72 37 02 75 ed 41 02
       -1.3003535e-37 -1.4240309e-37 1.3477672e-37 1.4247547e-37
0001e0 99 06 0b 02 ab 39 4a 02 c0 a5 06 02 2d bf 49 82
       1.0214001e-37 1.4857166e-37 9.892333e-38 -1.4822013e-37
0001f0 00 43 3b 82 0f e5 47 82 ab 97 30 82 c5 6a 36 02
       -1.3757818e-37 -1.4685948e-37 -1.2973964e-37 1.340189e-37

core.core.fc.1.0.weight f4 [64, 128]
000000 7c 6c 35 02 3f d4 3a 02 1e 49 39 82 f7 ec 2b 82
       1.3328913e-37 1.3726033e-37 -1.3612637e-37 -1.2631101e-37
000010 6a 03 42 02 b1 94 49 82 c1 d1 41 82 83 ba 35 82
       1.4253849e-37 -1.480982e-37 -1.4239597e-37 -1.3351306e-37
000020 98 a6 3f 02 60 a1 45 82 98 2e 34 02 56 41 4d 02
       1.4080274e-37 -1.4519587e-37 1.3237683e-37 1.5079772e-37
000030 c3 73 29 82 f2 50 44 02 bf 7d 35 02 6e f4 45 02
       -1.2449381e-37 1.4423036e-37 1.3333867e-37 1.4543422e-37
000040 72 c6 48 02 c6 34 31 02 bf ec 27 02 46 77 42 02
       1.475063e-37 1.3019051e-37 1.2337165e-37 1.4287099e-37
000050 46 ba 2e 82 d0 c1 21 02 e2 3b 49 82 5c 83 28 02
       -1.2836959e-37 1.1884033e-37 -1.4784333e-37 1.2380389e-37
000060 70 f3 3f 02 3a 3e 36 02 31 1d 33 02 9f e8 15 82
       1.4102327e-37 1.3389106e-37 1.3159221e-37 -1.101355e-37
000070 d6 1a 47 82 04 2b 48 82 54 b5 41 02 51 4c 36 82
       -1.4627913e-37 -1.4706024e-37 1.4231439e-37 -1.339315e-37
000080 17 b4 30 82 8c df 39 02 59 22 27 02 8d c7 1e 02
       -1.2982121e-37 1.3655808e-37 1.227908e-37 1.1665275e-37
000090 b8 5f 33 82 00 fe 23 02 0a f0 43 02 c6 ff 39 02
       -1.3178313e-37 1.2048243e-37 1.4395225e-37 1.3665057e-37
0000a0 c5 8e 39 02 2a de 41 82 40 6c 3a 02 60 9d 20 82
       1.3632626e-37 -1.4243159e-37 1.3696188e-37 -1.1800108e-37
0000b0 a0 48 2e 02 64 2e 4b 82 84 de 37 82 e3 ee 34 02
       1.2804343e-37 -1.4927398e-37 -1.3508575e-37 1.3292869e-37
0000c0 14 c4 45 02 9c 78 33 82 92 bb 41 02 5d dd 2b 02
       1.4529546e-37 -1.3185456e-37 1.4233231e-37 1.2626624e-37
0000d0 82 77 2f 82 69 34 46 82 cc be 2d 82 a0 b7 3e 82
       -1.2891267e-37 -1.4561784e-37 -1.2764789e-37 -1.4011693e-37
0000e0 a6 e1 47 82 b0 83 33 02 e5 98 31 82 92 ad 4d 82
       -1.4684969e-37 1.3188636e-37 -1.3047785e-37 -1.5110834e-37
0000f0 6f 0f 3d 02 a2 47 41 02 d5 05 2e 02 26 de 3e 02
       1.3889956e-37 1.4199958e-37 1.2785175e-37 1.4022749e-37
000100 70 d5 2f 02 d8 03 3e 02 94 41 48 02 9b 05 46 82
       1.2918223e-37 1.3960099e-37 1.4712499e-37 -1.4548351e-37
000110 4e c4 41 82 a0 a8 21 02 41 b0 2f 02 64 9f 3e 02
       -1.4235737e-37 1.1876805e-37 1.2907552e-37 1.4004738e-37
000120 ef 85 31 82 97 4f 38 02 90 d9 1e 02 73 98 1e 82
       -1.3042343e-37 1.3541026e-37 1.1670444e-37 -1.1651757e-37
000130 a5 98 40 82 cd 7d 2a 82 11 c7 3a 82 cc 14 30 82
       -1.4149739e-37 -1.252573e-37 -1.3722251e-37 -1.2936406e-37
000140 31 9d 21 02 ba b2 42 02 52 05 22 82 8a 87 21 02
       1.1873524e-37 1.4304161e-37 -1.1903407e-37 1.186731e-37
000150 50 ae 41 02 13 d8 3d 02 ba e8 3b 82 c2 22 3a 82
       1.4229426e-37 1.3947537e-37 -1.380538e-37 -1.3675097e-37
000160 0b e2 3d 02 40 17 36 82 e8 fa 41 02 af 22 35 82
       1.3950398e-37 -1.3377921e-37 1.4251407e-37 -1.3307734e-37
000170 86 ca 2f 02 e3 dd 41 82 e4 d4 1c 82 23 c5 41 82
       1.2915091e-37 -1.4243079e-37 -1.1522167e-37 -1.4235976e-37
000180 be 39 34 02 a1 12 3f 82 6c a3 21 02 96 cb 41 02
       1.3240883e-37 -1.403781e-37 1.1875312e-37 1.4237827e-37
000190 cd 3b 53 82 62 84 53 02 1a 6c 3f 02 73 3f 40 02
       -1.5518994e-37 1.5539824e-37 1.4063487e-37 1.4124141e-37
0001a0 f9 7e 20 82 36 08 3e 02 62 f1 23 82 40 a4 28 82
       -1.1791383e-37 1.3961352e-37 -1.2044622e-37 -1.2389828e-37
0001b0 82 f2 4b 02 a8 95 42 02 02 8a 2f 82 f4 e6 37 02
       1.4983681e-37 1.4295818e-37 -1.2896576e-37 1.3510997e-37
0001c0 3a f3 46 82 83 2f 26 02 8d a2 41 82 3a bd 21 02
       -1.4616545e-37 1.2209389e-37 -1.422605e-37 1.1882717e-37
0001d0 4b 77 3b 82 0e ab 3d 82 22 37 35 82 c9 51 48 02
       -1.3772826e-37 -1.3934617e-37 -1.3313602e-37 1.4717151e-37
0001e0 be 05 48 02 60 4c 37 82 e5 ce 41 02 13 bc 3d 82
       1.4695327e-37 -1.3466635e-37 1.4238776e-37 -1.3939502e-37
0001f0 d8 5a 42 02 a4 69 3e 82 72 f9 3d 02 9d 07 42 02
       1.427894e-37 -1.3989313e-37 1.3957114e-37 1.4255054e-37
000200 ec 48 46 82 57 21 35 02 e2 be 42 82 33 62 44 82
       -1.456767e-37 1.3307348e-37 -1.430765e-37 -1.4427988e-37
000210 f1 f0 32 02 26 a7 4d 82 46 e9 32 82 83 f5 34 02
       1.3146521e-37 -1.5108991e-37 -1.3144321e-37 1.329477e-37
000220 d7 48 4a 82 ba 2f 4d 82 07 b8 3c 02 3e ba 41 82
       -1.486152e-37 -1.5074718e-37 1.3864872e-37 -1.423285e-37
000230 a2 d2 5f 82 26 e4 63 82 a3 ad 30 82 3b f7 31 02
       -1.6443901e-37 -1.6742801e-37 -1.2980269e-37 1.3074858e-37
000240 df 91 21 82 7b 19 3c 02 de 4e 5e 82 c2 fe 46 02
       -1.1870275e-37 1.3819371e-37 -1.6332618e-37 1.4619854e-37
000250 28 f1 41 82 98 c7 2c 82 e8 31 1b 82 d0 8f 21 02
       -1.4248609e-37 -1.2693845e-37 -1.1401924e-37 1.1869684e-37
000260 98 ef 3a 02 1c 7e 44 82 87 d8 41 02 78 63 39 82
       1.3733882e-37 -1.4435997e-37 1.4241541e-37 -1.36202e-37
000270 53 11 39 02 fd 2b 35 82 c1 84 33 02 08 02 4a 82
       1.3596625e-37 -1.3310404e-37 1.3188942e-37 -1.4841199e-37
000280 e6 d3 39 02 56 97 39 82 c8 6c 2a 82 bc 48 27 82
       1.3652465e-37 -1.3635085e-37 -1.2520846e-37 -1.2290096e-37
000290 a6 15 46 02 80 f4 47 82 f3 96 4a 02 b2 a1 38 82
       1.4552955e-37 -1.4690379e-37 1.4883936e-37 -1.3564589e-37
0002a0 42 1a 2b 82 46 6a 3f 82 05 76 31 82 c8 ff 3e 82
       -1.2570631e-37 -1.4062963e-37 -1.3037776e-37 -1.4032401e-37
0002b0 c1 83 21 82 8c 61 3f 82 0a dc 3e 82 36 3c 50 82
       -1.1866223e-37 -1.4060458e-37 -1.4022144e-37 -1.5298706e-37
0002c0 9d 80 39 82 97 88 41 02 3e 8c 47 02 fb 95 21 82
       -1.3628564e-37 1.42186e-37 1.4660459e-37 -1.1871454e-37
0002d0 08 1a 39 02 dc 77 4b 82 9f d1 34 02 64 20 41 02
       1.3599124e-37 -1.4948483e-37 1.328447e-37 1.4188696e-37
0002e0 c4 ad 48 02 86 46 44 82 0d 71 48 02 e2 a8 48 02
       1.4743548e-37 -1.4420045e-37 1.4726123e-37 1.4742146e-37
0002f0 55 13 2f 02 09 f5 3b 82 ca f7 2b 02 9f 72 28 82
       1.2862517e-37 -1.3808912e-37 1.2634208e-37 -1.2375585e-37
000300 06 44 26 02 3d a5 49 02 f8 e3 28 82 84 e8 41 02
       1.2215276e-37 1.4814569e-37 -1.2408115e-37 1.4246129e-37
000310 16 e6 41 82 5b f8 41 82 b1 b8 3a 82 b8 36 36 82
       -1.4245432e-37 -1.4250675e-37 -1.3718126e-37 -1.3386952e-37
000320 e3 15 4a 02 03 bf 31 02 d6 9b 21 82 92 db 41 82
       1.4846897e-37 1.3058724e-37 -1.1873135e-37 -1.4242414e-37
000330 86 41 3f 02 54 d2 32 02 ef cb 45 82 8b 71 43 82
       1.4051268e-37 1.3137736e-37 -1.45318e-37 -1.4358923e-37
000340 d6 ef 41 02 86 ce 3b 82 c5 6c 3b 82 b6 e8 3f 02
       1.424823e-37 -1.379786e-37 -1.3769806e-37 1.4099249e-37
000350 b3 dc 49 02 d7 d8 3b 82 a2 0d 3d 02 d6 43 4d 82
       1.4830485e-37 -1.380082e-37 1.388944e-37 -1.5080489e-37
000360 84 29 2e 82 22 7b 35 02 9c 37 28 02 ae b0 35 82
       -1.2795415e-37 1.3333117e-37 1.235865e-37 -1.3348484e-37
000370 86 2f 34 82 80 2b 2f 82 68 d0 41 02 18 07 36 02
       -1.323795e-37 -1.2869453e-37 1.423921e-37 1.3373284e-37
000380 67 d5 51 82 12 1e 44 02 55 8d 21 02 78 73 47 02
       -1.5416138e-37 1.4408436e-37 1.1868972e-37 1.4653349e-37
000390 f7 85 48 82 f8 56 4d 02 1f 2b 36 02 28 a0 5a 02
       -1.4732125e-37 1.508598e-37 1.3383623e-37 1.6062073e-37
0003a0 c5 a9 4c 02 35 8b 2a 02 a9 fc 35 82 ec 18 34 02
       1.5036274e-37 1.2529578e-37 -1.337029e-37 1.3231464e-37
0003b0 23 3c 39 82 3b 06 45 02 8d 8e 35 02 29 2f 3b 82
       -1.3608912e-37 1.4475062e-37 1.333869e-37 -1.3752125e-37
0003c0 0a 41 40 02 11 05 27 02 6c 8a 3c 02 74 69 42 02
       1.4124598e-37 1.2270676e-37 1.3851784e-37 1.4283133e-37
0003d0 67 e8 41 02 66 c4 31 02 df b5 41 02 fd 26 1f 02
       1.4246097e-37 1.306027e-37 1.4231595e-37 1.1692664e-37
0003e0 f7 b8 48 82 8e d3 3e 02 4c 29 44 82 01 dd 49 82
       -1.4746762e-37 1.4019709e-37 -1.4411657e-37 -1.4830573e-37
0003f0 bc b6 38 82 4d fc 34 02 04 10 3b 02 b6 d1 41 82
       -1.3570627e-37 1.3296718e-37 1.3743186e-37 -1.4239585e-37

core.core.fc.1.0.bias f4 [64]
000000 3a e3 8b 2c 22 7e 54 36 37 53 01 9a cc 64 2a 97
       3.975845e-12 3.166388e-06 -2.6743795e-23 -5.5057186e-25
000010 12 4e b5 23 92 ec 03 95 0b 86 7f 12 f6 8a 2b 96
       1.9657123e-17 -2.664186e-26 8.0629033e-28 -1.3857118e-25
000020 18 1d 52 1e c8 dd 00 99 e7 13 f3 a1 f5 a6 3b 3b
       1.1123324e-20 -6.662233e-24 -1.6471589e-18 0.002863345
000030 14 b7 7d 1f 08 57 d0 14 9c ea ee 18 a4 dd e3 12
       5.3726273e-20 2.103696e-26 6.1758453e-24 1.4380353e-27
000040 fd e6 2c 11 12 07 ef 10 5f 2b df 33 71 44 91 3f
       1.3639586e-28 9.427977e-29 1.0392136e-07 1.1349012
000050 a8 64 0e 12 81 06 a8 96 53 8c d5 99 f6 e5 01 12
       4.493137e-28 -2.7145968e-25 -2.208036e-23 4.098867e-28
000060 c5 e9 f1 94 fd 51 89 17 a4 62 16 15 72 9d 0f 2f
       -2.4426987e-26 8.874114e-25 3.0370072e-26 1.306171e-10
000070 ea df 65 a1 7e e1 88 96 bb a8 c7 3a 14 14 28 3d
       -7.7884566e-19 -2.211429e-25 0.0015232781 0.041034773
000080 af 94 15 19 16 b0 8c 99 3a ce 36 92 14 69 4c 9d
       7.733146e-24 -1.4546781e-23 -5.768327e-28 -2.70535e-21
000090 2a 1f c5 39 5a c9 2f 29 d3 33 14 93 18 de a0 a9
       0.00037597987 3.903245e-14 -1.8705778e-27 -7.1439545e-14
0000a0 2b 7f 80 a4 30 79 6f 38 44 ce 75 af b1 d4 3f 10
       -5.572658e-17 5.7094905e-05 -2.23559e-10 3.783196e-29
0000b0 38 02 31 1c e3 e0 9e 91 86 ce 0b 14 cb 2c e2 37
       5.8567255e-22 -2.5066602e-28 7.058436e-27 2.6962158e-05
0000c0 e8 42 c4 95 d0 b2 35 2e 6f 0e 3b ad f7 e3 af 1b
       -7.926933e-26 4.1313453e-11 -1.0632924e-11 2.909864e-22
0000d0 a9 b9 a2 97 5a ea 6d a3 c6 1c a2 2a f6 df 66 1b
       -1.0515872e-24 -1.2897422e-17 2.8796946e-13 1.909752e-22
0000e0 d4 51 0a 96 d0 34 58 16 c0 c3 0b 1d 02 c1 40 21
       -1.1173372e-25 1.7465006e-25 1.8497697e-21 6.5307574e-19
0000f0 c9 c5 53 93 73 d4 2b 30 68 0c 6a 19 e2 11 ea 90
       -2.672946e-27 6.2511346e-10 1.2100022e-23 -9.232428e-29
