artifacts/poses_to_location/20250818174221/best_model.pt (torch, 376885 bytes, 48 tensors)

embedding.embeddings.bex_20230623_denoised.poses.weight f4 [64, 63]
0.012606024 0.040469617 0.04739145 0.10361171 0.07455255 0.010399617 0.028572727 0.01726941
0.019412003 0.0020846818 0.044666857 -0.014114822 0.0133009665 -0.037896458 0.058363304 -0.02043127
0.05103198 0.00074070133 -0.008191007 0.05245054 0.052995726 0.02757364 -0.010976855 -0.06759228
-0.0049064276 0.03569423 -0.022818021 0.016876133 -0.003381462 0.05199657 -0.016525012 0.0058954665
0.071468666 -0.040265385 0.01672408 0.041248456 -0.036001742 0.031295445 0.0062827244 -0.020493258
0.012072874 0.0234308 -0.0027844962 0.0028987378 -0.022411989 -0.030693945 -0.018698992 0.020513047
0.015231024 -2.01816e-09 5.0121923e-08 -0.015247729 -3.6830172e-10 -1.4140014e-10 0.0579534 -0.12762992
-0.089330085 -0.024778666 -0.11696904 -0.0078020706 -0.034974452 -0.015231081 1.1062586e-09 -0.109306835
0.1046423 0.044378553 -0.1261155 -0.11927508 0.10710953 -0.11090329 0.00853813 -0.06718705
-0.06909047 -0.026010793 -0.06543599 -0.19294971 0.24643812 -0.20508017 -0.0055037336 0.040686503
0.034346003 -0.039344706 -0.07088976 -0.039443206 -0.028351994 0.088034354 0.23463827 0.00031475478
0.13547337 -0.1443548 -0.029620603 -0.042554073 -0.009385424 -0.112970226 0.03255667 -0.15016948
0.09051886 -0.05713246 0.17549582 0.03583614 0.012962031 -0.055129763 0.009967617 0.082479395
0.04169422 -0.14809807 0.14802621 -0.017740753 -0.041139442 0.090710536 -0.111964926 0.010586705
-4.4232223e-08 -2.6075751e-08 -0.010586758 -5.051331e-11 6.2031874e-10 0.016850563 -0.11639511 -0.0518527
0.08841081 -0.100528166 -0.12060154 0.10602438 -0.01058674 6.413265e-11 -0.025408447 0.04163403
0.022384824 -0.023292424 -0.057026107 0.042750977 -0.05750364 -0.062411923 0.11036679 0.00021865717
0.033398967 -0.0011044128 -0.034289397 0.13156542 -0.059995964 0.27046466 -0.2181556 0.27204776
-0.056710638 -0.05787776 0.019486291 0.0035586676 0.04177691 0.08847342 -0.2073411 0.06519592
-0.025946664 -0.027820483 -0.013154158 -0.04231259 -0.036010034 -0.012071112 0.036801368 0.29340076
0.03274215 -0.15725996 0.052467663 -0.065398365 -0.086745866 -0.05483576 0.123759 0.07467421
0.04217606 0.10922648 0.01297315 0.12009904 0.15870951 -0.2617143 0.00064184156 1.6878843e-07
-1.5705356e-06 -0.00018565136 3.1703977e-09 2.440437e-09 -0.10214629 -0.033029705 -0.09917472 0.10796699
-0.021599649 -0.18899511 0.062378146 -0.004547554 -1.3162355e-08 -0.011294937 -0.023734659 -0.011044891
-0.051987223 -0.0064664204 -0.0036353394 0.00058409554 0.048147473 -0.11494318 -0.019256053 -0.046043675
-0.04591269 -0.030926041 -0.03535427 0.037936248 -0.21441944 0.17347766 -0.21670969 0.03677379
0.004883228 0.0664328 -0.019145507 0.0015080746 -0.013616769 0.1703834 -0.037534606 -0.05190845
0.0055212267 -0.01617029 0.026617313 0.003218697 0.0417048 -0.029586628 -0.20356943 0.00032269154
0.17666225 -0.019683288 0.023581047 -0.008672151 0.0548388 -0.12243213 -0.07910344 -0.06863414
-0.054427136 -0.0070727235 -0.0989493 -0.10311985 0.18107867 -0.005446342 3.3689858e-07 -1.7992227e-07
0.004100897 -2.804115e-09 -1.350608e-09 0.06949654 0.0405021 0.09552411 -0.058812596 0.03125367
0.12718011 -0.015260408 0.005506579 8.2437275e-09 0.016076997 -0.009989442 -0.002111895 0.0283211
00000000: 7f89 4e3c 78c3 253d 891d 423d 6032 d43d
00000010: 02af 983d 2863 2a3c 5a11 ea3c 9478 8d3c
00000020: ec05 9f3c 289f 083b 98f4 363d db41 67bc
00000030: 4cec 593c 5139 1bbd 5c0e 6f3d 7b5f a7bc
00000040: e906 513d a02b 423a 9333 06bc 61d6 563d
00000050: 0c12 593d 1de2 e13c 44d8 33bc d26d 8abd
00000060: 19c6 a0bb 1d34 123d dcec babc d13f 8a3c
00000070: 859b 5dbb 5bfa 543d 765f 87bc c22e c13b
00000080: 2a5e 923d 51ed 24bd f000 893c 24f4 283d
00000090: 9076 13bd a72f 003d 50df cd3b 7ae1 a7bc
000000a0: 4ecd 453c f3f1 bf3c 187c 36bb c0f8 3d3b
000000b0: 5999 b7bc de71 fbbc a12e 99bc fa0a a83c
000000c0: 8b8b 793c d9af 0ab1 a345 5733 9cd1 79bc
000000d0: dc79 caaf 9a78 1baf 8b60 6d3d 6bb1 02be
000000e0: b1f2 b6bd a1fc cabc 778d efbd 83a8 ffbb
000000f0: 5f41 0fbd c98b 79bc 040b 9830 43dc dfbd
00000100: b44e d63d 49c6 353d 6c24 01be 7e46 f4bd
00000110: 3e5c db3d 4421 e3bd 83e3 0b3c 5d99 89bd
00000120: 4e7f 8dbd 9614 d5bc 4e03 86bd 9c94 45be
00000130: 465a 7c3e 8900 52be aa58 b4bb e4a6 263d
00000140: 65ae 0c3d ea27 21bd a72e 91bd 338f 21bd
00000150: 7142 e8bc 5b4b b43d 0445 703e ac05 a539
00000160: 88b9 0a3e bfd1 13be e8a6 f2bc 2e4d 2ebd
00000170: 52c5 19bc ef5c e7bd 255a 053d 07c6 19be
00000180: f461 b93d ba03 6abd 2db5 333e ebc8 123d
00000190: b35e 543c bfcf 61bd 374f 233c f5ea a83d
000001a0: 8fc7 2a3d 05a7 17be 2f94 173e 0e55 91bc
000001b0: d581 28bd 72c6 b93d de4d e5bd dc73 2d3c
000001c0: d8f9 3db3 2ffd dfb2 1574 2dbc ee28 5eae
000001d0: 0d83 2a30 310a 8a3c 8f60 eebd 7f63 54bd
000001e0: ba10 b53d b6e1 cdbd f1fd f6bd 4f23 d93d
000001f0: 0274 2dbc 7907 8d2e 6025 d0bc 7288 2a3d
00000200: 6160 b73c c1cf bebc 3594 69bd a61b 2f3d
00000210: f088 6bbd a5a3 7fbd fc07 e23d 5647 6539
00000220: 5bcd 083d f2c1 90ba 0a73 0cbd 16b9 063e
00000230: 54be 75bd 587a 8a3e 2e64 5fbe d849 8b3e
00000240: 6a49 68bd 3b11 6dbd b7a1 9f3c 8938 693b
00000250: 441e 2b3d 8d31 b53d 3a51 54be 7085 853d
00000260: 198e d4bc c8e7 e3bc 8a84 57bc f74f 2dbd
00000270: 427f 13bd eac5 45bc 08bd 163d a038 963e
00000280: a21c 063d c108 21be 55e8 563d 94ef 85bd
00000290: d1a7 b1bd 769b 60bd 5c75 fd3d cbee 983d
000002a0: cec0 2c3d 22b2 df3d 568d 543c 7cf6 f53d
000002b0: bf84 223e 6bff 85be 4241 283a 363c 3534
000002c0: 31cb d2b5 68ab 42b9 3ade 5931 9fb4 2731
000002d0: 1332 d1bd 284a 07bd 1e1c cbbd cc1d dd3d
000002e0: bff1 b0bc ef87 41be 3a80 7f3d a603 95bb
000002f0: a620 62b2 660e 39bc 306f c2bc a1f5 34bc
00000300: 8ef0 54bd 44e4 d3bb e03e 6ebb fd1d 193a
00000310: 4936 453d 5467 ebbd dfbe 9dbc 4b98 3cbd
00000320: f20e 3cbd 9c58 fdbc a4cf 10bd 0a63 1b3d
00000330: c590 5bbe 21a4 313e 25e9 5dbe 1da0 163d
00000340: 7c03 a03b eb0d 883d 0ad7 9cbc 96aa c53a
00000350: de18 5fbc fc78 2e3e e3bd 19bd f49d 54bd
00000360: 68eb b43b 8e77 84bc 8d0c da3c c6f0 523b
00000370: a7d2 2a3d a85f f2bc 8174 50be ed2e a939
00000380: f3e6 343e d93e a1bc 0a2d c13c a315 0ebc
00000390: a69e 603d b2bd fabd fc00 a2bd 0e90 8cbd
000003a0: fdee 5ebd 4ec2 e7bb eea5 cabd 8030 d3bd
000003b0: b06c 393e 3a77 b2bb fdde b434 a830 41b4
000003c0: d160 863b 83b2 40b1 4ba0 b9b0 3454 8e3d
000003d0: 88e5 253d 25a2 c33d 7ae5 70bd d903 003d
000003e0: 813b 023e ca06 7abc 8870 b43b 4ca0 0d32
000003f0: e8b3 833c c2aa 23bc b867 0abb a701 e83c

embedding.embeddings.bex_20230623_denoised.poses.bias f4 [64]
-0.15572363 -0.09930997 -0.0038403226 0.01611533 -0.0046981387 -0.054467928 -0.048498828 0.14818437
-0.0053797984 -0.10183343 0.0035183886 0.017862987 -0.07960005 -0.06324916 -0.036080603 0.023622537
-0.0988828 0.21359481 0.03857765 -0.021173153 0.019797584 0.15992276 -0.096423656 0.24783227
0.03766908 0.007634284 0.10792901 0.14488813 0.09798593 -0.04267705 -0.0077884123 -0.17156784
-0.13472526 0.010319171 -0.021763409 0.2434925 0.054564886 -0.12532791 -0.039773595 -0.086898744
-1.5132226e-05 0.009296903 0.047707677 -0.048294462 0.007358971 -0.06620087 -6.298874e-05 -0.049444333
-0.019153176 0.08950155 0.09154119 -0.1247197 0.0646323 -0.115251526 0.017820876 0.117856644
0.0027935565 -0.041444704 0.024030672 -0.21957313 0.14029877 0.0038682777 -0.008375858 0.048681386
00000000: 0476 1fbe 0763 cbbd ecad 7bbb 4c04 843c
00000010: d8f2 99bb c319 5fbd b5a6 46bd a5bd 173e
00000020: 0549 b0bb 0c8e d0bd c494 663b 6655 923c
00000030: 5a05 a3bd c788 81bd 41c9 13bd 0d84 c13c
00000040: 1183 cabd 99b8 5a3e 9903 1e3d 5273 adbc
00000050: 8b2e a23c cbc2 233e c479 c5bd bec7 7d3e
00000060: e54a 1a3d 0429 fa3b e309 dd3d 8e5d 143e
00000070: d9ac c83d 21ce 2ebd f035 ffbb 7baf 2fbe
00000080: 6bf5 09be bd11 293c 2d49 b2bc 1956 793e
00000090: 6e7f 5f3d f655 00be a3e9 22bd f8f7 b1bd
000000a0: 6ae0 7db7 0a52 183c 2069 433d 6ad0 45bd
000000b0: 8623 f13b 5294 87bd d318 84b8 2486 4abd
000000c0: 1fe7 9cbc 974c b73d f379 bb3d 0b6d ffbd
000000d0: f05d 843d fe08 ecbd 16fd 913c d35e f13d
000000e0: 1a14 373b ecc1 29bd f9db c43c c7d7 60be
000000f0: 7baa 0f3e ee82 7d3b e53a 09bc 2266 473d

embedding.embeddings.ken_20230614_denoised.poses.weight f4 [64, 63]
0.046197068 -0.02248823 0.03607604 0.006713868 -0.0030031959 0.034295827 0.0087526245 0.0012015569
-0.00205755 0.011608105 -0.053454325 0.010078031 -0.0042078993 0.038786784 0.010743367 -0.02041277
0.0135751655 0.006756355 0.006204321 0.027652698 0.012344473 0.0029609324 0.027784681 0.041288875
0.017742911 0.026744017 -0.025504552 -0.041869037 0.015158007 -0.0036951944 -0.017259637 -0.015677573
-0.018586136 -0.017734364 -0.0022316237 -0.010312512 -0.0033893362 0.028504444 -0.0031331668 -0.0011809126
0.013677877 -0.006138394 -0.0055606416 0.01302407 -0.021812655 -0.020094747 0.027191605 0.0034023984
0.018764233 1.5408943e-07 -2.519522e-08 -0.018764293 -3.790157e-10 7.896832e-11 -0.018657228 -0.029313857
0.007142225 -0.005046201 0.035209063 -0.14105296 -0.005706127 -0.018764295 -1.0069663e-08 -0.03200331
-0.024357349 0.033948142 0.11869446 0.10789449 0.007406933 0.06994461 -0.069346234 -0.00060686737
-0.040754084 0.07686042 -0.037867334 0.009008248 -0.10028871 0.10989607 0.004260619 0.02178003
0.12042482 -0.043027334 0.045736536 -0.0043651774 -0.03991082 0.04804093 -0.083360724 -0.013614995
-0.009432638 0.085626006 -0.058786497 -0.02773355 -0.041830096 -0.022652123 -0.07510576 0.02660171
0.00019923429 0.06588477 -0.00940388 0.14917186 0.014259859 -0.025245052 0.017613955 -0.006882527
-0.047114756 0.044002943 0.01716147 0.07686763 0.14454143 -0.06425328 -0.0779865 0.0071417894
-8.216888e-08 -5.751129e-08 -0.007141694 -3.7281234e-10 -1.8239034e-09 0.10754096 0.03530746 -0.13991545
0.013407484 -0.19379328 0.12063563 -0.044163585 -0.0071416795 4.8201674e-09 0.019416464 0.013035797
0.00015022024 -0.010743864 -0.10816753 0.09977625 0.0721996 -0.11194667 0.08688091 -0.002888939
0.053869113 0.033856638 0.02897195 -0.026370097 0.042325113 0.17406097 -0.12482672 0.030452924
-0.072283745 0.042933498 -0.008702809 -0.072441176 -0.03540587 -0.07524325 -0.070619434 -0.046718385
0.08317655 0.013167481 -0.027850851 -0.061428584 -0.12124347 0.01674987 -0.022468751 -0.004605564
0.15051487 -0.02215584 0.25112653 -0.00048294576 0.051096674 -0.0041044136 0.06926742 -0.025664642
0.12800412 -0.08848488 0.26589698 0.090665825 -0.16560465 -0.033292532 -0.004151981 1.4568716e-08
-1.5306992e-07 0.004430276 -1.4460451e-09 1.4903179e-09 0.054654486 0.042496774 -0.08414253 -0.031013312
0.038151305 -0.10695517 -0.09363551 0.0033372985 3.61322e-08 -0.037510954 -0.0100909695 -0.04158722
0.035673168 0.115316 -0.07550546 -0.044297792 0.075203545 -0.0665278 -0.011209325 -0.010281891
-0.020354722 -0.021372775 -0.014397511 -0.03792895 -0.13584362 0.103378646 0.004922398 0.04573104
-0.03118757 -0.033727255 0.048739783 0.03682399 0.054005697 0.049749825 0.018714817 -0.072449066
-0.011948352 0.012718348 -0.01454906 0.09769611 -0.022286989 0.10028057 0.008689917 -0.11681428
0.0626996 -0.1653735 0.0023873732 0.022618221 0.007757194 -0.047100708 0.037154824 -0.09317325
0.07305847 -0.1929296 -0.03414461 0.1126633 0.0036779882 -0.0007300828 -1.908627e-06 -1.1693149e-07
0.00071489415 -1.4004606e-10 8.728267e-10 -0.013523849 -0.017152842 0.033034027 0.030007303 -0.091734715
0.16006261 0.06828147 0.0007765269 -6.77673e-08 0.010143967 0.002078877 -0.00038755505 -0.0179877
00000000: 2339 3d3d 3d39 b8bc 78c4 133d 0200 dc3b
00000010: 44d1 44bb c879 0c3d 2b67 0f3c 8f7d 9d3a
00000020: f6d7 06bb ec2f 3e3c ecf2 5abd 531e 253c
00000030: 6be2 89bb e4de 1e3d f204 303c ae38 a7bc
00000040: 5f6a 5e3c 6a64 dd3b 9e4d cb3b e987 e23c
00000050: 7940 4a3c 340c 423b b39c e33c 861e 293d
00000060: 9559 913c 4516 db3c ecee d0bc de7e 2bbd
00000070: 4a59 783c 132b 72bb 1564 8dbc 416e 80bc
00000080: f441 98bc a847 91bc 6f40 12bb cff5 28bc
00000090: a01f 5ebb 2782 e93c d155 4dbb dac8 9aba
000000a0: 2d19 603c 9524 c9bb 0b36 b6bb e962 553c
000000b0: 74b0 b2bc bd9d a4bc eec0 de3c c6fa 5e3b
000000c0: 73b7 993c c873 2534 e06c d8b2 93b7 99bc
000000d0: b85d d0af 36a7 ad2e 0bd7 98bc 9d23 f0bc
000000e0: 5309 ea3b 9a5a a5bb 6137 103d 3070 10be
000000f0: 76fa babb 94b7 99bc d9fe 2cb2 e715 03bd
00000100: 1089 c7bc 350d 0b3d 1516 f33d c9f7 dc3d
00000110: dbb5 f23b 1f3f 8f3d 6605 8ebd 2e16 1fba
00000120: c1ed 26bd ff68 9d3d c71a 1bbd 5597 133c
00000130: 2b64 cdbd 3111 e13d aa9c 8b3b 096c b23c
00000140: 4aa1 f63d 6e3d 30bd 3c56 3b3d c309 8fbb
00000150: 8779 23bd 91c6 443d 07b9 aabd 6e11 5fbc
00000160: 5a8b 1abc b05c af3d 1cca 70bd 7831 e3bc
00000170: 0956 2bbd f290 b9bc 0cd1 99bd d4eb d93c
00000180: 8ce9 5039 98ee 863d bb12 1abc 82c0 183e
00000190: 2fa2 693c b6ce cebc 244b 903c d286 e1bb
000001a0: 67fb 40bd 6e3c 343d 3696 8c3c c76c 9d3d
000001b0: ab02 143e 3997 83bd 63b7 9fbd ac05 ea3b
000001c0: d274 b0b3 5502 77b3 df04 eabb acf4 ccaf
000001d0: e5ac fab0 6f3e dc3d 8e9e 103d ff45 0fbe
000001e0: 10ab 5b3c bf71 46be d00f f73d e0e4 34bd
000001f0: c004 eabb a49e a531 470f 9f3c 1894 553c
00000200: 7084 1d39 0807 30bc f086 ddbd 7e57 cc3d
00000210: 62dd 933d 4c44 e5bd 9eee b13d 5b54 3dbb
00000220: dca5 5c3d 42ad 0a3d 9556 ed3c 1a06 d8bc
00000230: 195d 2d3d 0a3d 323e 27a5 ffbd 6978 f93c
00000240: 8009 94bd 09db 2f3d 3a96 0ebc 0a5c 94bd
00000250: bf05 11bd 2219 9abd eca0 90bd c75b 3fbd
00000260: 7858 aa3d 6bbc 573c 7827 e4bc 8a9c 7bbd
00000270: 7f4e f8bd 0637 893c 6310 b8bc 45ea 96bb
00000280: 9220 1a3e 2a80 b5bc a893 803e e233 fdb9
00000290: bf4a 513d 517e 86bb 14dc 8d3d a83e d2bc
000002a0: 8313 033e 9037 b5bd a623 883e 01af b93d
000002b0: 4494 29be c05d 08bd 570d 88bb e449 7a32
000002c0: 8a5b 24b4 d92b 913b 30be c6b0 e6d3 cc30
000002d0: 62dd 5f3d 1911 2e3d eb52 acbd a10f febc
000002e0: 8b44 1c3d 500b dbbd f9c3 bfbd 94b6 5a3b
000002f0: c62f 1b33 16a5 19bd 9854 25bc 5c57 2abd
00000300: 071e 123d cc2a ec3d 9ba2 9abd 9a71 35bd
00000310: 5104 9a3d ba3f 88bd 51a7 37bc 6075 28bc
00000320: f2be a6bc f515 afbc 8ae3 6bbc 635b 1bbd
00000330: 971a 0bbe 2fb8 d33d 114c a13b 7950 3b3d
00000340: 137d ffbc 9725 0abd 5ea3 473d c1d4 163d
00000350: 1435 5d3d 79c6 4b3d d14f 993c 2d60 94bd
00000360: 05c3 43bc 9e60 503c 2e5f 6ebc e614 c83d
00000370: 3493 b6bc e65f cd3d 2760 0e3c 533c efbd
00000380: a668 803d ac57 29be 7a75 1c3b d949 b93c
00000390: 0f30 fe3b acec 40bd a82f 183d 9ed1 bebd
000003a0: ae9f 953d 568f 45be 38db 0bbd 04bc e63d
000003b0: 670a 713b 0763 3fba f615 00b6 c41b fbb3
000003c0: bc67 3b3a 76fb 19af b8eb 6f30 2293 5dbc
000003d0: 1e84 8cbc b04e 073d e0d1 f53c 69df bbbd
000003e0: 74e7 233e 28d7 8b3d d78f 4b3a 7887 91b3
000003f0: e232 263c c53d 083b c230 cbb9 f15a 93bc

embedding.embeddings.ken_20230614_denoised.poses.bias f4 [64]
-0.20813659 -0.0850629 0.09588712 -0.035786457 0.002235136 -0.044367556 0.037613656 0.17530103
-0.037070185 -0.20341745 -0.027933141 -0.10170394 0.08992722 0.04214978 -0.17406848 -0.017751709
0.031707495 0.25997427 0.07150025 -0.11282566 0.011181759 0.21445373 -0.0839456 0.2699877
0.045328878 -0.019128146 0.13486117 0.15701412 -0.016948365 -0.043153338 -0.043750577 -0.22563696
-0.095178545 0.02722101 -0.07639988 0.17906514 -0.046636973 -0.14149438 -0.037950773 -0.2212117
0.03363381 0.08833636 0.06935243 -0.029383741 0.0062900716 -0.024618812 0.0042585153 -0.025136365
0.042562217 0.13793327 0.100573465 -0.18404156 0.10434782 -0.15187956 0.0025703392 0.1473116
0.07887216 -0.022418447 -0.022745708 -0.19603513 0.11343687 -0.010644619 0.035906073 0.04590197
00000000: c221 55be 7535 aebd 7760 c43d d294 12bd
00000010: 5c7b 123b c1ba 35bd c710 1a3d 1d82 333e
00000020: e8d6 17bd aa4c 50be 0bd4 e4bc 284a d0bd
00000030: c32b b83d 3fa5 2c3d 023f 32be 086c 91bc
00000040: b8df 013d 591b 853e b96e 923d 2411 e7bd
00000050: b233 373c c299 5b3e aceb abbd d43b 8a3e
00000060: c6aa 393d a1b2 9cbc 0c19 0a3e 4fc8 203e
00000070: 4cd7 8abc 8ec1 30bd ce33 33bd 600d 67be
00000080: f8ec c2bd 98fe de3c 8a77 9cbd da5c 373e
00000090: 6906 3fbd e7e3 10be 4572 1bbd 5285 62be
000000a0: 9bc3 093d b2e9 b43d a608 8e3d 2cb6 f0bc
000000b0: f21c ce3b 64ad c9bc 048b 8b3b c7ea cdbc
000000c0: b855 2e3d 613e 0d3e 76f9 cd3d 6475 3cbe
000000d0: 4fb4 d53d 5186 1bbe 2373 283b dad8 163e
000000e0: ba87 a13d e4a6 b7bc 3555 babc 6fbd 48be
000000f0: 9751 e83d c566 2ebc 3f12 133d b403 3c3d

embedding.embeddings.ken_20230618_denoised.poses.weight f4 [64, 63]
0.03246382 -0.019779895 0.05759353 0.05166322 0.021358721 0.033718064 0.013006791 -0.0026959914
-0.012399903 -0.037819006 -0.030598715 0.0052559837 -0.0015368323 -0.059775192 0.02727681 -0.00770548
0.0290708 0.022586389 -0.032885455 0.034820665 0.018249275 -0.016660584 0.042478662 0.011875611
-0.005630958 0.00353249 -0.014193935 -0.07683875 -0.0059656394 0.031738773 -0.026471997 -0.035788782
0.03879131 0.0064112274 0.002472637 -0.038106624 0.05843372 0.016614564 -0.0073014763 0.025901338
-0.011980037 -0.0313623 0.025486277 0.006045364 -0.0035598918 0.029991196 0.017804086 -0.020298315
0.01904412 -1.2242897e-07 3.2277985e-08 -0.01904419 -9.220588e-11 2.2124746e-11 0.061529364 -0.0101392865
-0.08103649 -0.032338995 -0.052570518 -0.020388264 -0.028110778 -0.019044187 6.3191568e-09 0.11596486
-0.036437143 -0.0027761639 -0.14029476 -0.107173376 0.048392195 -0.057595305 0.007010593 0.0362749
0.04949353 -0.14955018 -0.0088252155 -0.016468752 0.09277652 -0.04870178 0.033388406 -0.06270275
-0.06140311 0.036959156 0.003161616 0.016215226 0.0069718077 3.9990955e-05 0.0255338 -0.0652454
0.063803986 -0.087393336 0.017191693 0.016766213 0.0060186265 -0.035784885 0.04619777 -0.029503345
-0.007260626 0.026735548 -0.042480096 0.015936708 0.018986402 -0.011989463 -0.056296244 0.08859997
-0.025508067 -0.037468113 0.0052141463 -0.028876843 -0.11287813 0.046816908 0.06843233 0.009347739
8.732003e-08 -8.615554e-08 -0.009347637 -3.6640486e-09 -5.3001026e-10 -0.090741195 -0.05895989 0.10085889
-0.034671262 0.15109426 -0.26659226 0.12969242 -0.009347642 7.618033e-09 0.098509595 -0.042280283
-0.016721403 -0.1584113 -0.1441627 0.15739305 0.04648333 -0.13010505 0.12493988 0.00509566
-0.055962216 0.06220065 0.036100868 0.04464998 -0.015047001 0.23647277 -0.1969219 -0.0022370834
-0.020310508 0.042803995 -0.022727467 -0.074047 -0.03630039 -0.0083911 -0.043679245 0.05192764
0.07406808 0.039017033 0.034487624 -0.01521251 -0.09874928 0.0011045481 -0.07816247 -0.046385277
0.10108577 -0.07270861 0.17730948 -0.039284885 -0.01786675 -0.012452603 0.051102996 -0.011262283
0.10108333 -0.1056686 0.1780079 0.022969902 -0.173569 -0.063567065 -0.0063519743 -2.964519e-07
-6.189783e-07 0.0066038463 -1.9228658e-08 3.1197653e-09 0.014821388 0.023592167 -0.03010026 -0.081219606
0.16369723 -0.20230392 -0.00889096 0.0060126414 1.6724545e-08 -0.061456125 0.03026213 -0.0031163055
0.07921326 0.08507855 -0.121705085 -0.055316422 0.10935878 -0.0873445 0.019134052 0.017029785
-0.02682839 -0.033380643 0.003895093 -0.012753795 -0.18465742 0.13804604 -0.018594578 0.035918456
-0.042560063 0.021795698 0.06719784 0.016321806 0.024822278 0.02191237 -0.011019902 -0.06455339
-0.004269175 -0.017711034 0.038622137 0.07822389 0.026139699 0.039260466 0.03323161 -0.0683433
0.08150447 -0.15738122 0.028169325 -0.03959739 -0.011804523 -0.0028827898 0.025436128 -0.10014443
0.086599074 -0.15152568 -0.054949183 0.14874147 0.071191445 0.002305922 5.065877e-07 2.7542154e-07
-0.0022998797 -3.7083064e-10 6.1828154e-10 -0.052499052 -0.030550448 0.07377018 0.068022326 -0.08273677
0.10866851 0.046769444 -0.0022853545 -8.090307e-09 -0.011481807 0.0024253703 0.005067693 0.021282865
00000000: c8f8 043d 7209 a2bc 31e7 6b3d d09c 533d
00000010: 7cf8 ae3c f41b 0a3d 6f1a 553c 3baf 30bb
00000020: f628 4bbc 1ae8 1abd 28aa fabc 633a ac3b
00000030: 896f c9ba d5d6 74bd 9e73 df3c 407e fcbb
00000040: e325 ee3c 1707 b93c e6b2 06bd 1da0 0e3d
00000050: 817f 953c c77b 88bc 1bfe 2d3d ec91 423c
00000060: e683 b8bb 5981 673b ae8d 68bc a25d 9dbd
00000070: 697b c3bb 8400 023d cddb d8bc 4297 12bd
00000080: a3e3 1e3d 4615 d23b f70b 223b b115 1cbd
00000090: 3258 6f3d 441b 883c 3941 efbb 0b2f d43c
000000a0: eb47 44bc c175 00bd 99c8 d03c 3018 c63b
000000b0: 134d 69bb 19b0 f53c e0d9 913c a748 a6bc
000000c0: 6a02 9c3c 0575 03b4 05a2 0a33 9002 9cbc
000000d0: 4cc3 caae 809c c22d 3706 7c3d 401f 26bc
000000e0: 76f6 a5bd e575 04bd 2f54 57bd 4a05 a7bc
000000f0: 9348 e6bc 8e02 9cbc e41f d931 fc7e ed3d
00000100: 1d3f 15bd 4df0 35bb 6ea9 0fbe b77d dbbd
00000110: e536 463d 0ee9 6bbd 1eb9 e53b fd94 143d
00000120: bab9 4a3d af23 19be a397 10bc 7ae9 86bc
00000130: 9e01 be3d 857b 47bd 48c2 083d 4d6a 80bd
00000140: d481 7bbd 7c62 173d 1d33 4f3b cbd5 843c
00000150: c373 e43b f6bb 2738 422c d13c 619f 85bd
00000160: aaab 823d 47fb b2bd 98d5 8c3c 4c59 893c
00000170: e637 c53b 2c93 12bd df39 3d3d 00b1 f1bc
00000180: 8cea edbb 8204 db3c 9cff 2dbd b38d 823c
00000190: 5f89 9b3c 746f 44bc e496 66bd e773 b53d
000001a0: 4bf6 d0bc 2a78 19bd 6edb aa3b 218f ecbc
000001b0: a62c e7bd 16c3 3f3d 4026 8c3d 4227 193c
000001c0: b284 bb33 8204 b9b3 d526 19bc a0ca 7bb1
000001d0: 28b0 11b0 85d6 b9bd ed7f 71bd 1b8f ce3d
000001e0: 7403 0ebd 74b8 1a3e c87e 88be 17ce 043e
000001f0: da26 19bc 77e0 0232 66bf c93d 172e 2dbd
00000200: 53fb 88bc 9236 22be 639f 13be a52b 213e
00000210: 4e65 3e3d 423a 05be 7be0 ff3d 7ff9 a63b
00000220: a338 65bd 1cc6 7e3d 81de 133d e6e2 363d
00000230: b287 76bc eb25 723e e5a5 49be 089c 12bb
00000240: 3962 a6bc 3e53 2f3d f42e babc f4a5 97bd
00000250: b8af 14bd d37a 09bc 02e9 32bd 14b2 543d
00000260: 01b1 973d 53d0 1f3d e542 0d3d e43d 79bc
00000270: 103d cabd 7cc6 903a a513 a0bd 7dfe 3dbd
00000280: 0e06 cf3d 40e8 94bd 9e90 353e 30e9 20bd
00000290: 4a5d 92bc 0106 4cbc 6051 513d 7085 38bc
000002a0: c704 cf3d c768 d8bd b447 363e 602b bc3c
000002b0: 12bc 31be 732f 82bd 3924 d0bb 0a28 9fb4
000002c0: dd27 26b5 1465 d83b 442c a5b2 7e63 5631
000002d0: 68d5 723c 5c44 c13c d294 f6bc 7756 a6bd
000002e0: 3fa0 273e c228 4fbe 64ab 11bc b105 c53b
000002f0: aaa9 8f32 6bb9 7bbd 49e8 f73c ee3a 4cbb
00000300: 903a a23d aa3d ae3d 8440 f9bd 7993 62bd
00000310: 7ff7 df3d ace1 b2bd 04bf 9c3c 0c82 8b3c
00000320: 36c7 dbbc 24ba 08bd d144 7f3b 4bf5 50bc
00000330: d616 3dbe f15b 0d3e a853 98bc 3b1f 133d
00000340: 7653 2ebd e48c b23c 059f 893d 4fb5 853c
00000350: 1758 cb3c 9281 b33c d28c 34bc 9134 84bd
00000360: 70e4 8bbb bb16 91bc 3f32 1e3d d933 a03d
00000370: ec22 d63c 95cf 203d de1d 083d 92f7 8bbd
00000380: d1eb a63d 8b28 21be 5bc3 e63c df30 22bd
00000390: c267 41bc 30ed 3cbb 6d5f d03c 8618 cdbd
000003a0: db5a b13d 8c29 1bbe 6512 61bd af4f 183e
000003b0: d2cc 913d f41e 173b 71fc 0735 a6dd 9334
000003c0: 94b9 16bb c6dd cbaf b2f3 2930 3f09 57bd
000003d0: ef44 fabc d214 973d 4a4f 8b3d e571 a9bd
000003e0: 998d de3d 5191 3f3d e3c5 15bb 8cfd 0ab2
000003f0: 301e 3cbc f6f2 1e3b e40e a63b 6759 ae3c

embedding.embeddings.ken_20230618_denoised.poses.bias f4 [64]
-0.1669115 -0.09487326 0.07781532 -0.016975917 -0.0009888975 -0.10212652 0.016580878 0.1713306
-0.0015334619 -0.21039806 -0.02444086 -0.10088038 0.09442038 0.053516652 -0.13399109 -0.026348293
0.020251546 0.24584705 0.063376516 -0.11210334 0.016822258 0.19306542 -0.11448719 0.26490894
0.04056035 -0.0058616125 0.11207214 0.17429152 -0.04876301 -0.009737507 -0.02240151 -0.19069906
-0.12655991 0.02938633 -0.11625889 0.20310321 -0.087721296 -0.11871713 -0.028967047 -0.22828558
0.023166971 0.08853873 0.016708845 -0.037957985 0.02551865 -0.06633531 -0.008356849 -0.047025375
0.06385147 0.107448675 0.107232556 -0.1764839 0.15922472 -0.17758562 0.00021245162 0.123933986
0.060461055 -0.030836526 -0.0120235495 -0.22149701 0.11817551 -0.0046034977 0.024531206 0.04221894
00000000: d9ea 2abe e94c c2bd a35d 9f3d 1411 8bbc
00000010: e59d 81ba b527 d1bd 9fd4 873c 4a71 2f3e
00000020: 71fe c8ba 9772 57be 3338 c8bc 5f9a cebd
00000030: 795f c13d 4734 5b3d f634 09be 60d8 d7bc
00000040: 92e6 a53c 54bf 7b3e 8ccb 813d 7096 e5bd
00000050: d5ce 893c f1b2 453e 4378 eabd 25a2 873e
00000060: 9c22 263d c512 c0bb 1486 e53d 7a79 323e
00000070: b9bb 47bd 118a 1fbc 5f83 b7bc 9d46 43be
00000080: ec98 01be 9abb f03c 2419 eebd 4afa 4f3e
00000090: 39a7 b3bd f721 f3bd 4d4c edbc b2c3 69be
000000a0: a9c8 bd3c cb53 b53d fde0 883c d579 1bbd
000000b0: 7d0c d13c cfda 87bd 2aeb 08bc ae9d 40bd
000000c0: 8fc4 823d 0d0e dc3d be9c db3d 32b8 34be
000000d0: ce0b 233e 01d9 35be 8cc5 5e39 1ad1 fd3d
000000e0: 03a6 773d e29c fcbc 6cfe 44bc 1dd0 62be
000000f0: 0006 f23d f0d8 96bb abf5 c83c c4ed 2c3d

core.core.fc.0.0.weight f4 [128, 64]
3.2057536e-35 3.1565717e-35 3.2348887e-35 3.2024768e-35 2.2113175e-36 3.3893666e-35 3.3702324e-35 2.9987934e-35
3.405984e-35 -3.014929e-35 -2.4149335e-35 3.348999e-35 -3.316085e-35 -3.2608276e-35 3.1635707e-35 3.082315e-35
3.284946e-35 3.0025426e-35 3.4526795e-35 3.1656534e-35 3.4720688e-35 -3.153715e-35 3.05905e-35 -3.115008e-35
-3.3091302e-35 3.5233035e-35 -3.1693354e-35 -3.0803812e-35 3.417098e-35 3.3164082e-35 3.1401162e-35 3.1332486e-35
-3.2246404e-35 3.3416308e-35 2.8863988e-35 -2.8704525e-35 3.1949104e-35 3.150097e-35 -3.2194446e-35 3.1420028e-35
-3.4073018e-35 3.400273e-35 -3.2261635e-35 1.7825379e-35 3.4233664e-35 3.1840139e-35 -3.2495213e-35 -3.5301203e-35
3.28352e-35 3.254365e-35 3.1959258e-35 3.0273422e-35 3.2113607e-35 3.2470486e-35 3.4272212e-35 3.1713658e-35
3.1869357e-35 3.2796123e-35 3.1257296e-35 3.1807792e-35 3.1505542e-35 3.1972066e-35 -3.3744787e-35 3.3287472e-35
-8.718114e-09 6.5639725e-09 -1.3526401e-09 -3.2290848e-10 3.8488823e-10 -3.936131e-09 -5.0887223e-09 8.411368e-09
-1.0261534e-09 -6.0101284e-09 -1.7289121e-09 1.5150594e-09 -5.3892593e-09 -3.5602234e-09 3.7725782e-09 -7.783331e-09
-2.7271363e-09 1.0148081e-08 -1.1633688e-09 4.681997e-09 -4.423031e-10 9.850728e-09 5.3406346e-09 1.0313837e-08
-3.977962e-09 -7.0734942e-09 4.402515e-09 8.130318e-09 -5.9326184e-09 3.9717127e-09 -5.656232e-10 -9.474234e-09
2.4957605e-09 2.218441e-09 1.5242516e-09 9.910434e-09 5.429056e-09 -7.1202986e-09 -1.1812287e-09 -9.444598e-09
-2.4311133e-09 -4.7721604e-09 -1.0506951e-09 5.8408816e-09 -1.2315509e-09 3.0701242e-10 1.9108903e-09 2.9514338e-09
3.840009e-09 1.3780956e-09 -2.6195668e-09 -6.9229458e-09 4.861395e-09 -6.781209e-09 -1.8935542e-10 9.459145e-10
-1.08394294e-10 1.5648035e-09 2.7736597e-09 -9.113605e-09 4.232479e-09 5.6665828e-09 -2.874961e-09 -7.1502644e-09
2.0560287e-10 -6.5065264e-10 -1.0786885e-10 3.4794972e-11 -4.2688596e-11 3.40717e-10 2.210227e-10 -1.7126313e-10
7.307749e-11 1.3905894e-10 1.249118e-10 -1.5266788e-11 2.6968952e-10 1.0203851e-10 -1.805534e-10 5.5978555e-10
1.5525702e-10 -2.898286e-10 1.9237391e-10 -1.0217526e-10 -8.419539e-12 -2.2151041e-10 -2.6566915e-10 -3.4696052e-10
2.9791156e-10 4.9564924e-10 1.8460178e-11 -2.1920006e-10 5.332494e-10 -1.017286e-10 5.244629e-11 1.7548034e-10
-2.3592672e-10 -1.8817119e-10 -1.97726e-11 -2.8048636e-10 -9.28534e-11 1.3782203e-10 1.3088322e-10 3.8569328e-10
1.5016308e-10 3.0231528e-10 1.3016072e-10 -6.47249e-10 -6.2298916e-12 3.6938237e-11 -2.003663e-10 -1.6575188e-10
-2.812494e-10 1.0803913e-11 1.9124216e-10 1.7079262e-10 -8.69832e-13 1.454353e-10 -1.06041585e-10 2.3697994e-10
1.11685286e-10 3.4230688e-11 -1.578089e-10 2.946159e-10 6.907026e-11 -4.028134e-10 2.3657223e-10 4.931726e-10
-0.0004063833 7.82697e-05 7.2829076e-05 9.800129e-05 4.729684e-05 -0.00014101432 -0.0001351255 0.00036824858
-0.00010782087 -0.00043974785 -0.00010809091 3.3593195e-05 -0.00014419289 -0.00011986427 -0.00015028394 -0.00017830587
-9.4423835e-05 0.00044737986 -8.50363e-07 1.1399497e-05 1.8489156e-05 0.00045047535 -3.3100077e-06 0.00044427204
-0.00012851383 -0.00020552197 0.0003480098 0.00034798897 -0.00014148807 0.00016329292 -8.702567e-05 -0.00042422628
-0.00022171097 0.00011055721 -1.7250735e-05 0.00038899554 0.00011955895 -0.00040581918 -5.066678e-05 -0.00046643094
6.3948683e-06 -0.00010214038 -3.1977732e-05 0.0003022981 -3.2019634e-05 -0.00013881973 0.00015114761 5.0423972e-05
0.00012604136 0.00044869803 0.0003338732 -0.00040728893 0.00015227344 -0.00041532092 8.887449e-05 0.00026447183
6.670093e-05 4.527392e-06 7.861327e-05 -0.0003817527 0.00026533552 0.0003857398 -5.600336e-05 -0.00023117257
00000000: 7572 2a06 07d5 2706 06ff 2b06 db45 2a06
00000010: 3b1e 3c04 ab35 3406 3a31 3306 7671 1f06
00000020: da17 3506 164d 2086 5f66 0086 3610 3206
00000030: 3650 3086 1660 2d86 4b34 2806 4ce2 2306
00000040: 5ea8 2e06 7ea4 1f06 7093 3706 a450 2806
00000050: 5a9b 3806 25ae 2786 a2a5 2206 4b9f 2586
00000060: 8cf1 2f86 b954 3b06 c282 2886 fac7 2386
00000070: 21af 3506 9c54 3006 0cf5 2606 9297 2606
00000080: 8873 2b86 ecab 3106 a077 1906 939e 1886
00000090: dede 2906 e67c 2706 cf2c 2b86 ba0e 2706
000000a0: ca29 3586 1eca 3406 4388 2b86 4c8d bd05
000000b0: 7304 3606 8d4a 2906 31c6 2c86 82b1 3b86
000000c0: f594 2e06 1f08 2d06 b0ec 2906 0cf6 2006
000000d0: c7be 2a06 89a4 2c06 eb38 3606 659e 2806
000000e0: 5272 2906 c55f 2e06 3a31 2606 861e 2906
000000f0: 1f83 2706 1ffe 2906 066b 3386 8ffc 3006
00000100: acc6 15b2 5089 e131 cbe7 b9b0 5485 b1af
00000110: 3498 d32f 933e 87b1 e0d8 aeb1 9681 1032
00000120: 9008 8db0 a681 ceb1 b09e edb0 6a3a d030
00000130: 6d2c b9b1 1da8 74b1 f39f 8131 74b7 05b2
00000140: 4a68 3bb1 bb57 2e32 67e4 9fb0 48df a031
00000150: a128 f3af f63b 2932 b880 b731 bc30 3132
00000160: 86ae 88b1 1d0b f3b1 ee44 9731 84ad 0b32
00000170: ddd7 cbb1 8e77 8831 327a 1bb0 1fc4 22b2
00000180: e281 2b31 3a73 1831 d67d d130 8d42 2a32
00000190: 7b8a ba31 cfa6 f4b1 ca58 a2b0 c841 22b2
000001a0: 9910 27b1 5ef8 a3b1 0c68 90b0 f0b0 c831
000001b0: 5843 a9b0 28c8 a82f bd50 0331 2cd2 4a31
000001c0: 14f1 8331 6e67 bd30 e803 34b1 e0de edb1
000001d0: 4809 a731 2500 e9b1 d032 50af 6801 8230
000001e0: 905c eeae a110 d730 bd9a 3e31 0f92 1cb2
000001f0: 476d 9131 cab3 c231 d990 45b1 64ae f5b1
00000200: 1010 622f 9cd9 32b0 c434 edae a807 192e
00000210: 16bf 3bae a84f bb2f 5c04 732f 494e 3caf
00000220: f8b2 a02e 9de5 182f 8c57 092f c049 86ad
00000230: 6d43 942f 9362 e02e 4485 46af 68df 1930
00000240: f7b4 2a2f c055 9faf 7184 532f 8faf e0ae
00000250: 3c1e 14ad a38d 73af 9c0d 92af 5abe beaf
00000260: 53c7 a32f 373e 0830 a060 a22d 5503 71af
00000270: 1794 1230 1cb4 dfae 46a9 662e 53f1 402f
00000280: bcb3 81af 7be5 4eaf f0eb adad f232 9aaf
00000290: d12f ccae 7489 172f 5ae8 0f2f 8109 d42f
000002a0: 261b 252f 1833 a62f fc1c 0f2f 19ea 31b0
000002b0: e031 dbac c274 222e 1a4e 5caf 023f 36af
000002c0: 569e 9aaf 8010 3e2d e245 522f d9c9 3b2f
000002d0: 00d6 74ab 66e8 1f2f 1b30 e9ae f647 822f
000002e0: 3a99 f52e 548c 162e 4283 2daf 80f7 a12f
000002f0: 1ae3 972e f272 ddaf 950e 822f f08f 0730
00000300: d80f d5b9 ba24 a438 d0bb 9838 0b86 cd38
00000310: 9860 4638 3edd 13b9 7ab0 0db9 7d11 c139
00000320: e41d e2b8 f58d e6b9 deae e2b8 6be6 0c38
00000330: 7c32 17b9 a45f fbb8 8a95 1db9 9ef7 3ab9
00000340: 6905 c6b8 4f8e ea39 8044 64b5 7840 3f37
00000350: 2919 9b37 c72d ec39 8021 5eb6 2fed e839
00000360: abc1 06b9 6281 57b9 1675 b639 4a72 b639
00000370: 6a5c 14b9 9c39 2b39 8d81 b6b8 b06a deb9
00000380: 167b 68b9 f3da e738 acb5 90b7 19f2 cb39
00000390: b9bb fa38 21c4 d4b9 0a83 54b8 4d8b f4b9
000003a0: 8093 d636 3334 d6b8 d41f 06b8 c47d 9e39
000003b0: d24c 06b8 2390 11b9 617d 1e39 547e 5338
000003c0: f829 0439 3b3f eb39 b40b af39 6589 d5b9
000003d0: 97ab 1f39 6ebf d9b9 2162 ba38 cfa8 8a39
000003e0: cae1 8b38 00ea 9736 2edd a438 fb25 c8b9
000003f0: bb1c 8b39 1f3d ca39 26e5 6ab8 ea66 72b9

core.core.fc.0.0.bias f4 [128]
3.108545e-35 1.7141073e-08 -7.7293927e-10 0.00063292804 -0.0003734896 1.9773938e-17 2.9153594e-35 1.6095815e-05
-0.00019103829 0.0017163141 -7.485291e-10 0.00010135561 -8.169324e-12 0.00036044902 7.971559e-12 -1.667868e-35
1.541863e-19 -1.3505925e-19 -0.003959387 -2.1262908e-06 3.655979e-18 2.0680253e-17 2.1952996e-35 0.003103253
2.986195e-35 0.0006036318 -0.0001909942 -2.5926889e-05 -5.953432e-10 -0.0037981756 2.2641265e-13 3.1604265e-35
-1.5031181e-19 1.1568779e-35 0.08206262 1.9019367e-17 -0.00049996865 6.341765e-14 2.7251794e-05 -5.0992803e-05
-3.1271674e-35 -2.8287556e-07 -1.6757407e-07 8.300386e-05 -4.5347756e-13 2.9457075e-05 1.9650925e-35 1.8642884e-07
-9.5176145e-11 -0.0016349078 9.513803e-06 -5.4094365e-08 1.242809e-14 3.0382712e-35 -0.0009595413 9.892696e-21
7.957598e-05 5.419288e-10 1.798507e-35 0.00017642482 0.00034993482 3.1870203e-35 7.15515e-16 4.864398e-37
0.4456821 -2.1149846e-07 2.9472387e-16 -3.4909734e-35 -0.0008256055 -6.2135794e-26 1.5358983e-13 0.44054118
4.9525106e-11 -1.1988913e-35 -2.8521597e-35 4.2757315e-13 3.0559768e-20 -1.4379423e-16 -5.720458e-07 -8.644452e-22
-1.6931866e-17 0.001212893 0.00010954285 0.21972616 1.2794332e-19 -0.0010164274 -1.670459e-17 -8.977504e-09
-1.7808805e-11 -3.093749e-07 2.5638006e-11 -0.00038601816 5.420244e-06 -1.3805669e-12 0.00049142423 4.308542e-21
9.007171e-36 -2.7187764e-35 -3.2007603e-35 1.6118263e-12 -1.1997811e-07 -3.389923e-05 -2.7385768e-18 -0.00035575288
-1.6817627e-11 1.5466968e-08 -1.5326195e-05 2.111857e-11 -1.3021015e-07 1.885734e-05 -1.0529773e-06 -2.0318714e-11
3.5498522e-13 3.8879256e-12 -0.000739951 -9.059021e-15 2.7922138e-07 -2.1699527e-35 -2.9468143e-07 2.2013806e-09
2.246511e-08 -4.8712628e-14 -6.276726e-11 -0.0007440254 -7.406686e-14 -4.495129e-19 -1.0951806e-06 -9.512828e-19
00000000: 5247 2506 9e3d 9332 c476 54b0 15eb 253a
00000010: edd0 c3b9 e461 b623 d101 1b06 8005 8737
00000020: 7351 48b9 f2f5 e03a 0ec1 4db0 e18e d438
00000030: 5db7 0fad a6fa bc39 b63c 0c2d b05b b185
00000040: f307 3620 2773 1fa0 bfbd 81bb 66b1 0eb6
00000050: bfe1 8622 debd be23 bd71 e905 f25f 4b3b
00000060: fbc5 1e06 0b3d 1e3a 9d45 48b9 927d d9b7
00000070: 8ea5 23b0 d0ea 78bb 01eb 7e2a 7f09 2806
00000080: f574 31a0 6d0a 7605 7210 a83d 366c af23
00000090: 5410 03ba c9cd 8e29 c89a e437 1be1 55b8
000000a0: cc44 2686 1fde 97b4 69ee 33b4 5c12 ae38
000000b0: 0149 ffaa 961a f737 e8f6 d005 2b2d 4834
000000c0: 684b d1ae 674a d6ba 799d 1f37 6255 68b3
000000d0: 73e2 5f28 ce8a 2106 ba89 7bba 24de 3a1e
000000e0: 07e2 a638 d9f6 1430 0440 bf05 adfe 3839
000000f0: 7577 b739 7973 2906 b03b 4e26 e286 2503
00000100: 7230 e43e 4118 63b4 91e5 a925 ab9c 3986
00000110: 726d 58ba 3dd7 9995 41ed 2c2a 9d8e e13e
00000120: 50d0 592e daf9 7e85 96a5 1786 c9b3 f02a
00000130: 7e50 101f 91c8 25a5 b08e 19b5 9ba1 829c
00000140: 3d2b 9ca3 f0f9 9e3a 5fba e538 e5ff 603e
00000150: 7f0c 1720 a539 85ba 9912 9aa3 7b3b 1ab2
00000160: dda5 9cad 2a18 a6b4 a883 e12d 7b62 cab9
00000170: 8bdf b536 2a4c c2ab ecd2 003a a9c5 a21d
00000180: b48f 3f05 118e 1086 7e2e 2a86 2ad8 e22b
00000190: 55d3 00b4 052f 0eb8 4112 4aa2 5884 bab9
000001a0: eeed 93ad 39dc 8432 c190 80b7 cbc2 b92d
000001b0: e5cf 0bb4 d42f 9e37 0654 8db5 adb9 b2ad
000001c0: c3d6 c72a 52cb 882c 45f9 41ba 5c31 23a8
000001d0: e5e7 9534 bbbf e685 b534 9eb4 1947 1731
000001e0: 4df9 c032 d661 5ba9 d306 8aae b30a 43ba
000001f0: a3c8 a6a9 3cac 04a1 1efe 92b5 7362 8ca1

core.core.fc.1.0.weight f4 [64, 128]
3.4175662e-35 5.5610594e-13 7.225747e-14 -1.570363e-08 9.934743e-09 -3.5506395e-22 -3.5071706e-35 4.9102905e-10
9.993109e-10 5.8947144e-08 -1.1512496e-13 -1.5232646e-09 -2.7867993e-17 6.26255e-08 -7.961316e-18 2.974445e-35
-9.902106e-25 2.6993424e-24 3.2556258e-08 2.2631574e-11 -9.404444e-23 -3.1353472e-22 -3.229492e-35 1.4703537e-07
3.206943e-35 6.1241634e-09 -9.396453e-10 1.4764147e-09 -1.0767224e-14 5.597599e-09 -2.8068877e-18 -3.207267e-35
-3.614672e-24 -3.5047295e-35 -7.980566e-07 1.4259243e-22 -7.4125035e-09 2.335928e-18 9.584411e-11 -1.1650647e-09
3.2206938e-35 -8.185903e-12 -3.877936e-12 -1.4564172e-08 1.3604314e-17 -1.5202011e-09 3.0436123e-35 -3.714231e-12
8.504289e-14 1.4114544e-08 2.8607433e-10 5.820912e-13 4.341778e-20 3.2392782e-35 -2.162082e-09 3.3716026e-24
1.399828e-09 1.0092389e-15 -3.4602286e-35 -8.262848e-10 -2.9179546e-08 3.4450327e-35 1.4498365e-20 3.178713e-35
1.2612979e-06 1.8130423e-12 -1.3570856e-20 -3.1303208e-35 2.3772544e-09 -5.016516e-33 4.126278e-18 1.300195e-06
1.6183765e-15 3.148015e-35 3.2398352e-35 -4.2875253e-19 -5.667852e-25 7.385204e-21 -2.4612208e-11 2.2287394e-26
1.6577721e-22 -2.985817e-08 6.4660877e-09 4.1067565e-06 3.1783288e-23 -1.6573818e-08 -5.2097424e-22 -8.6087984e-14
7.297504e-17 6.0282673e-12 -5.314995e-16 1.8192576e-08 -1.1994239e-10 -1.9775453e-17 2.3209592e-09 -1.9486713e-25
-3.3999682e-35 3.218701e-35 3.191177e-35 5.0411215e-17 1.2581115e-12 -2.7724334e-10 -1.046826e-22 -2.0797546e-09
-4.5349233e-16 -3.8948987e-14 -1.8052637e-10 -2.34759e-16 -6.8911543e-12 9.4944184e-11 -3.0009155e-11 1.3707168e-16
4.54412e-18 1.10063726e-17 1.9391699e-08 -1.5208792e-19 -3.4046184e-12 3.412472e-35 -9.625278e-12 6.541714e-14
1.2368766e-12 4.892941e-18 9.67886e-16 -1.9543789e-10 2.967221e-19 9.142654e-24 -1.00775655e-11 1.4112753e-23
-3.3626815e-35 1.3685367e-10 -7.9362315e-12 2.4904915e-07 1.4457008e-05 7.314505e-19 3.329184e-35 2.6418996e-07
-1.491672e-06 2.3663033e-05 7.5415264e-11 7.141438e-07 -1.1697266e-13 4.9101304e-06 2.7693546e-14 2.9266845e-35
-3.5551702e-23 -5.800821e-22 -5.8230213e-05 -3.274598e-08 -8.674708e-21 2.4661227e-19 3.2775012e-35 -1.1653691e-05
-3.0996256e-35 1.20398e-05 4.32835e-07 2.3216934e-07 5.38522e-12 7.0223423e-06 2.9843548e-15 3.2119646e-35
-3.0189291e-21 3.262685e-35 -0.00015489275 7.205185e-20 -1.2851208e-05 6.7211376e-16 -9.35251e-09 -8.0531595e-07
3.249027e-35 -3.5046166e-09 -2.3612952e-09 -4.560166e-06 -3.957726e-15 -4.594313e-08 3.0458847e-35 1.520839e-11
-7.036867e-11 -4.6473448e-05 7.685679e-08 -1.9558106e-09 3.0161692e-17 -3.2168542e-35 -6.364638e-06 3.925796e-21
-2.3884405e-07 1.8915362e-11 -3.2550985e-35 2.5916984e-06 4.146053e-06 1.5890728e-35 2.3216892e-17 -3.346043e-35
0.00012247288 -2.7253888e-09 4.6271325e-19 2.916678e-35 9.626101e-07 -1.8077628e-28 -6.66928e-15 0.00011641933
1.4088806e-12 -3.1848125e-35 -3.183527e-35 3.0829403e-15 1.0731214e-22 6.1148494e-19 -2.2681395e-09 -1.2025412e-23
-1.4243872e-19 6.2548133e-06 -4.2080833e-06 -0.00045292964 1.0681417e-20 4.7306057e-06 -1.8855663e-19 6.626864e-11
-1.892383e-13 5.2200055e-10 6.1537757e-15 2.1621363e-06 4.050115e-08 1.8202362e-14 -1.0171813e-06 2.892842e-23
-3.176687e-35 -2.9847785e-35 4.6691082e-36 2.7761142e-14 -1.6507686e-09 7.1299655e-07 -9.355243e-20 1.468535e-06
-2.1833133e-13 -9.212516e-11 -1.762574e-07 3.162503e-13 -1.4087846e-10 -6.411042e-08 -1.2100666e-08 -1.68544e-13
1.3538519e-15 5.6000907e-13 -1.0245085e-06 -7.802232e-18 2.2604922e-09 3.3029302e-35 -2.8922575e-09 4.535231e-11
-3.5085443e-10 -5.531589e-16 -6.1166783e-13 -6.314238e-06 -7.2341537e-16 -1.2785229e-19 1.0665126e-08 -1.5945934e-21
00000000: 80b5 3506 a887 1c2b 98b5 a229 a6e4 86b2
00000010: 76ad 2a32 7c9f d69b 2279 3a86 19f9 0630
00000020: 2058 8930 122d 7d33 839e 01aa 1c5b d1b0
00000030: b884 00a4 bc7c 8633 40dc 12a3 0c26 1e06
00000040: 483a 9997 fcd9 5018 fcd3 0b33 c611 c72d
00000050: b062 e39a 2685 bd9b 91b5 2b86 c6e0 1d34
00000060: a582 2a06 b66c d231 d424 81b0 b9ea ca30
00000070: 0ef7 41a8 0055 c031 9c1c 4fa2 0e87 2a86
00000080: fad5 8b98 e857 3a86 083a 56b5 3862 2c1b
00000090: 12b1 feb1 6f5c 2c22 70c3 d22e 1220 a0b0
000000a0: d03d 2b06 0802 10ad 5871 88ac e835 7ab2
000000b0: 8ef4 7a23 52ef d0b0 81d3 2106 d2ae 82ac
000000c0: e37f bf29 6c7c 7232 6245 9d2f 17d8 232b
000000d0: e008 4d1f c53a 2c06 c093 14b1 bc6e 8218
000000e0: 1264 c030 5872 9126 31fa 3786 a020 63b0
000000f0: 80a6 fab2 5b2b 3706 e5ee 881e 6602 2906
00000100: de49 a935 bc29 ff2b 512c 809e b86f 2686
00000110: 1a5d 2331 c060 d089 983b 9822 5c82 ae35
00000120: 8e3b e926 8f60 2706 5a42 2c06 4017 fda0
00000130: 5a69 2f97 a880 0b1e c47d d8ad 42b9 dc14
00000140: 9069 481b 683d 00b3 4f2c de31 c5cc 8936
00000150: ceb1 191a 365e 8eb2 6e74 1d9c 58da c1a9
00000160: dc44 a824 ce19 d42c be31 19a6 e645 9c32
00000170: c8e0 03af 7865 b6a3 bf7e 1f31 dc3b 7196
00000180: f8c5 3486 b022 2b06 0dac 2906 0f7b 6824
00000190: 3e10 b12b 886a 98af 641b fd9a 6eeb 0eb1
000001a0: d4b5 02a6 2069 2fa9 a87d 46af 5054 87a5
000001b0: 0076 f2ac d3c8 d02e 4efb 03ae 6b08 1e25
000001c0: 00a6 a722 2008 4b23 cc92 a632 c18d 33a0
000001d0: 2794 6fac 2970 3506 6654 29ad 6a4e 9329
000001e0: 2d13 ae2b 8584 b422 b17c 8b26 e0e2 56af
000001f0: 6027 af20 3bd8 3019 5249 31ad 7c7d 8819
00000200: 73ca 3286 e278 162f 9c9d 0bad 0eb5 8534
00000210: 608c 7237 d6e2 5721 8102 3106 fed5 8d34
00000220: 7635 c8b5 fa7f c637 05d7 a52e 97b3 3f35
00000230: 13b3 03aa b3c1 a436 f870 f928 f79b 1b06
00000240: e0ea 2b9a ae51 2f9c 373c 74b8 96a4 0cb3
00000250: 50dc 239e fe92 9120 0943 2e06 3984 43b7
00000260: ebcd 2486 8cfe 4937 6460 e834 394a 7934
00000270: c079 bd2c 76a1 eb36 a10b 5727 ffc6 2a06
00000280: 951a 649d 5e79 2d06 b56a 22b9 ac20 aa1f
00000290: 859b 57b7 3eb9 4126 c6ac 20b2 e42c 58b5
000002a0: 77bf 2c06 ded5 70b1 5844 22b1 8703 99b6
000002b0: 9497 8ea7 0153 45b3 6ff2 2106 40c6 852d
000002c0: 0abe 9aae 7cec 42b8 780c a533 fc66 06b1
000002d0: a418 0b24 8d09 2b86 d38f d5b6 f84f 941d
000002e0: 7a3a 80b4 9c61 a62d 1b12 2d86 0aed 2d36
000002f0: 531e 8b36 adfa a805 5623 d623 fae7 3186
00000300: 106c 0039 8c49 3bb1 a091 0821 c413 1b06
00000310: 0833 8135 4229 6591 4049 f0a7 2726 f438
00000320: 4648 c62b 6c55 2986 ed43 2986 3626 5e27
00000330: 80bb 011b 7f7a 3421 88dd 1bb1 f59a 6899
00000340: 7629 28a0 70e0 d136 2933 8db6 3077 edb9
00000350: 2ac4 491e 98bb 9e36 bf9b 5ea0 eeb9 912e
00000360: 3a10 55aa 867c 0f30 90b6 dd27 3819 1136
00000370: 7cf3 2d33 caf3 a328 1586 88b5 a6e3 0b1a
00000380: d3e6 2886 b3b2 1e86 169a c604 d60c fa28
00000390: 42e1 e2b0 c064 3f35 f9e4 dc9f 7a1a c535
000003a0: b9d1 75aa db95 caae 4441 3db4 7908 b22a
000003b0: c3e5 1aaf 13ad 89b3 4be3 4fb2 80c3 3daa
000003c0: 521c c326 e8a0 1d2b d881 89b5 00ed 0fa3
000003d0: 0057 1b31 289d 2f06 22c1 46b1 2976 472e
000003e0: 5fe2 c0af ec6f 1fa6 502b 2cab e4de d3b6
000003f0: a282 50a6 fcf0 16a0 b839 3732 d8f7 f09c

core.core.fc.1.0.bias f4 [64]
1.9137808e-06 -2.115463e-05 0.00011671574 2.1618302e-05 0.0005970304 2.5518677e-06 4.7081653e-07 3.474335e-05
0.07406413 1.3541808e-07 9.9940815e-05 0.06569884 0.00060743943 -9.900066e-06 0.022990072 -3.917663e-09
-0.00026762177 2.0763375e-05 0.00014089816 0.06046708 1.99892e-05 0.0012605637 0.14924572 4.5697438e-05
1.27509265e-05 2.8612998e-05 -7.938615e-05 0.05347422 2.4706891e-05 1.2758983e-06 0.074886024 0.04328054
3.265276e-05 0.0004654082 9.538979e-05 2.7561955e-06 0.07672831 0.093107134 2.3168555e-05 -1.05054005e-05
2.2877686e-05 0.054453183 4.6549492e-05 1.5190471e-07 0.017092453 0.00048069036 -3.6827118e-11 -0.002099416
5.7263173e-07 0.1519161 0.00011126238 -1.8894738e-05 0.0058815335 8.802519e-05 0.0766502 0.21835881
0.01943742 -6.842356e-05 1.7437704e-10 3.973847e-05 -0.00021938341 0.022847306 0.0016223625 0.0004950936
00000000: 816e 0036 3975 b1b7 49c5 f438 f358 b537
00000010: 0882 1c3a c140 2b36 88c4 fc34 63b9 1138
00000020: efae 973d 7067 1134 5197 d138 1d8d 863d
00000030: 923c 1f3a 7618 26b7 ad55 bc3c 219c 86b1
00000040: 964f 8cb9 022d ae37 10be 1339 54ac 773d
00000050: 7bae a737 8039 a53a dfd3 183e 40ab 3f38
00000060: d0ec 5537 f205 f037 1d7c a6b8 c907 5b3d
00000070: a541 cf37 883f ab35 d85d 993d ef46 313d
00000080: a2f4 0838 0802 f439 010c c838 14f7 3836
00000090: bb23 9d3d f4ae be3d 185a c237 5a40 30b7
000000a0: 75e9 bf37 4d0a 5f3d 233e 4338 401b 2334
000000b0: 7905 8c3c 2b05 fc39 a6f7 21ae 5b96 09bb
000000c0: f4b6 1935 e58f 1b3e 8955 e938 2480 9eb7
000000d0: e1b9 c03b 2a9a b838 c8fa 9c3d 7499 5f3e
000000e0: 393b 9f3c 9e7e 8fb8 c6ba 3f2f dbac 2638
000000f0: 490a 66b9 462a bb3c 74a5 d43a 2bc9 013a

readout.readouts.bex_20230623_denoised.location.weight f4 [2, 64]
3.5408897e-07 0.0016088022 -0.0007526325 -6.171509e-05 0.0010360017 -7.008421e-06 -1.5850957e-06 -0.00010566651
-0.5618883 1.789359e-07 -0.0005245741 0.21114428 0.010222805 -5.418171e-06 0.078973666 -3.2723568e-10
-8.951592e-06 -6.7413355e-05 0.0003748418 0.25319707 -8.113573e-05 0.014402479 0.40707183 -0.0001721329
-0.0026608508 -8.792002e-05 -3.243425e-05 0.16867834 -7.9218036e-05 -4.690986e-06 0.14761402 0.1486321
-0.0026463796 0.0005085207 -0.002203903 -1.5835376e-05 0.22448236 0.29908505 -0.0025806387 -2.8888887e-06
-8.447864e-05 0.18982191 -0.00021206345 -4.7806714e-07 0.09408968 0.009075767 7.5175395e-12 -0.021801641
-1.4082899e-06 0.34784248 -0.0007762834 -9.545829e-06 0.04982061 -0.0023396 -1.2787107 0.570393
0.10391576 -0.0039919596 -9.5159984e-11 -0.003077092 -7.3117876e-06 0.022701565 0.020227753 -0.00061718194
-1.1383936e-06 0.00061979843 -0.00013784348 -1.3152543e-05 0.006178897 2.7061589e-07 2.0219701e-07 -4.1731386e-05
-0.04823026 -3.28864e-09 -0.00040502232 0.314667 0.005547948 -1.6734155e-06 0.13633919 2.9814835e-09
-8.296556e-06 -5.4026664e-06 0.0012261631 0.39483643 6.3648968e-06 -0.0014638418 0.048756275 -4.919412e-05
-0.0056872945 -3.6216312e-05 0.00012520142 0.40020385 -6.3030243e-06 5.622962e-07 1.3107412 0.14675894
-0.0042012874 0.0009808398 -0.0016519019 1.3620137e-06 0.16339454 0.03432781 -0.0053278897 1.5126404e-06
-5.869216e-07 0.11704116 5.1450384e-06 5.579056e-08 0.07719573 0.008110742 1.0334838e-11 0.0645216
6.680851e-08 0.18196248 -0.0017550532 3.058989e-05 0.014271324 -0.0014471661 0.119634084 0.06992081
0.041487116 -0.0047949185 -9.383151e-11 -0.0023076362 0.008451602 0.51713556 0.0075782537 -3.2316384e-06
00000000: 9e19 be34 72de d23a 504c 45ba 096d 81b8
00000010: 73ca 873a e129 ebb6 79bf d4b5 4799 ddb8
00000020: e9d7 0fbf 8721 4034 9283 09ba 3536 583e
00000030: 8d7d 273c bccd b5b6 f2bc a13d 54e6 b3af
00000040: cb2e 16b7 4560 8db8 6a86 c439 0ca3 813e
00000050: 6a27 aab8 60f8 6b3c b86b d03e 937e 34b9
00000060: ab61 2ebb b461 b8b8 030a 08b8 04ba 2c3e
00000070: dc21 a6b8 4367 9db6 2128 173e 0333 183e
00000080: e26e 2dbb 3f4e 053a 5b6f 10bb 36d6 84b7
00000090: b4de 653e ad21 993e ef1f 29bb bbde 41b6
000000a0: 202a b1b8 ad60 423e 595d 5eb9 8654 00b5
000000b0: 17b2 c03d 87b2 143c fd3f 042d 5b99 b2bc
000000c0: 7904 bdb5 6918 b23e 7f7f 4bba 0627 20b7
000000d0: b210 4c3d f953 19bb cbac a3bf 4705 123f
000000e0: c9d1 d43d fcce 82bb 4f42 d1ae 0aa9 49bb
000000f0: c757 f5b6 a2f8 b93c acb4 a53c 61ca 21ba
00000100: e8ca 98b5 f879 223a 148a 10b9 bea9 5cb7
00000110: 5878 ca3b 2a49 9134 7e1b 5934 bc08 2fb8
00000120: 188d 45bd 5efe 61b1 2d59 d4b9 081c a13e
00000130: 90cb b53b 1e9a e0b5 809c 0b3e d0e2 4c31
00000140: 7031 0bb7 8d48 b5b6 35b7 a03a 0028 ca3e
00000150: 0c92 d536 61de bfba a9b4 473d c955 4eb8
00000160: 7c5c babb f8e6 17b8 8048 0339 85e7 cc3e
00000170: 917e d3b6 b3f0 1635 5ec6 a73f fa47 163e
00000180: f4aa 89bb 868f 803a a184 d8ba 6fce b635
00000190: e650 273e 519b 0c3d 9495 aebb ee05 cb35
000001a0: f28c 1db5 47b3 ef3d 8ba3 ac36 5f9e 6f33
000001b0: cb18 9e3d ebe2 043c f9cf 352d e723 843d
000001c0: 5e78 8f33 5f54 3a3e d009 e6ba a54d 0038
000001d0: 45d2 693c d6ae bdba b702 f53d a432 8f3d
000001e0: 65ee 293d b11e 9dbb 7256 ceae b63b 17bb
000001f0: 9778 0a3c ff62 043f 0053 f83b 20df 58b6

readout.readouts.bex_20230623_denoised.location.bias f4 [2]
0.4487425 0.14331256
00000000: 94c1 e53e 87c0 123e

readout.readouts.ken_20230614_denoised.location.weight f4 [2, 64]
-3.0308405e-09 -0.00017400848 3.226117e-05 7.4541276e-06 0.01017051 1.3115098e-06 4.1422305e-07 9.101956e-06
0.85737956 -1.0008501e-08 -1.7555416e-05 0.037647106 0.0007324981 1.029995e-05 0.05708571 -1.5645845e-09
0.00015183928 8.7583785e-06 0.004246579 -0.0055714594 1.110843e-05 -9.650435e-05 -0.058595616 1.3248613e-05
-0.00096921506 7.3859487e-06 5.2415944e-05 0.11837931 1.02280355e-05 9.4057657e-07 0.033722617 0.0027513306
-0.0006744698 0.0060804943 -0.00019628511 5.599183e-06 0.07706904 0.025200132 -0.0008879742 -2.7859269e-06
1.0776691e-05 0.061981868 2.197533e-05 1.4558138e-07 0.03940177 0.0017726087 -2.779874e-11 0.043984145
3.2816243e-07 0.100772634 -0.00025160526 9.861237e-06 0.0036148804 -0.00016314776 0.9625184 0.2004623
-0.0051530353 -0.00077206275 3.3750272e-10 -0.00030595562 0.0029178613 0.12126988 0.0012538465 0.0026850558
5.3326545e-07 0.0014550855 -0.00011684858 -1.7562139e-05 0.00916356 -1.5261157e-06 -2.753281e-07 -3.0252042e-05
-0.075482965 9.905353e-08 -0.00014086312 0.31364563 0.00083441177 -2.071944e-06 0.083553396 4.6267217e-09
-5.6150566e-05 -1.3625894e-05 0.01457508 0.52164763 -1.2343543e-05 0.0005583817 0.11759472 -3.9919625e-05
-0.00079384993 -2.6585827e-05 0.00041934545 0.43019515 -1.6083808e-05 -8.941542e-07 1.0401111 0.14047593
-0.0006799507 0.0069328593 -0.00044920325 -2.0520586e-06 0.071350545 0.09074963 -0.0007138651 2.409574e-06
-1.5108692e-05 0.08699482 -3.259658e-05 -7.457566e-08 0.015427156 0.0027538796 -1.0156332e-12 0.050207652
-2.8482305e-07 0.21627483 -0.0003569247 3.197333e-05 0.0023387142 -0.00040295045 0.059691463 0.016082611
0.052192196 -0.00091035693 -1.3610883e-11 -0.00059554784 0.001826307 0.42466438 0.0008939302 -0.00063247903
00000000: 1c47 50b1 0c76 36b9 2b50 0738 781e fa36
00000010: 36a2 263c 2207 b035 6262 de34 9ab4 1837
00000020: 3a7d 5b3f daf1 2bb2 f843 93b7 da33 1a3d
00000030: 1e05 403a f3cd 2c37 b5d2 693d ec08 d7b0
00000040: 0c37 1f39 f3f0 1237 e326 8b3b ca90 b6bb
00000050: 585e 3a37 6162 cab8 f501 70bd 5c46 5e37
00000060: ec12 7eba d1d4 f736 31d9 5b38 da70 f23d
00000070: 1499 2b37 ee7b 7c35 ba20 0a3d ab4f 343b
00000080: e7ce 30ba e23e c73b e2d1 4db9 9ee0 bb36
00000090: 5fd6 9d3d 8270 ce3c f1c6 68ba dcf5 3ab6
000000a0: 89cd 3437 b3e0 7d3d a957 b837 1b51 1c34
000000b0: c063 213d e156 e83a 3385 f4ad b828 343d
000000c0: 4d2e b034 e261 ce3d e3e9 83b9 b171 2537
000000d0: a1e7 6c3b a512 2bb9 9b67 763f fd45 4d3e
000000e0: cbda a8bb 4164 4aba 498b b92f ab68 a0b9
000000f0: 9739 3f3b 585c f83d 1b58 a43a c3f7 2f3b
00000100: b925 0f35 91b8 be3a 9b0c f5b8 6852 93b7
00000110: c222 163c f0d4 ccb5 ced0 93b4 c4c5 fdb7
00000120: d096 9abd 41b7 d433 a8b4 13b9 2996 a03e
00000130: 6dbc 5a3a ba0b 0bb6 0b1e ab3d 13f9 9e31
00000140: 3683 6bb8 c59a 64b7 51cc 6e3c b38a 053f
00000150: 1d17 4fb7 5d60 123a 80d5 f03d 5f6f 27b8
00000160: 5e1a 50ba a104 dfb7 98db db39 8a42 dc3e
00000170: b7eb 86b7 cf05 70b5 5c22 853f ecd8 0f3e
00000180: b83e 32ba 0a2d e33b 0a83 ebb9 19b6 09b6
00000190: 3c20 923d f1da b93d ad22 3bba 2bb4 2136
000001a0: 577b 7db7 572a b23d 50b8 08b8 6726 a0b3
000001b0: 2fc2 7c3c 6f7a 343b 0bf0 8eab 8aa6 4d3d
000001c0: c8e9 98b4 2677 5d3e 9f21 bbb9 1a1b 0638
000001d0: 1d45 193b 1843 d3b9 097f 743d aebf 833c
000001e0: 7cc7 553d 05a5 6eba f871 6fad 8a1e 1cba
000001f0: b260 ef3a 9c6d d93e a456 6a3a f3cc 25ba

readout.readouts.ken_20230614_denoised.location.bias f4 [2]
0.18678313 0.08449865
00000000: 1444 3f3e a10d ad3d
