artifacts/poses_to_location/20250818184951/best_model.pt (torch, 376885 bytes, 48 tensors)

embedding.embeddings.bex_20230623_denoised.poses.weight f4 [64, 63]
0	0xbe21d530	-0.15803981
1	0xbd180d71	-0.037122194
2	0x3de12cb6	0.10994856
3	0xbcc0da0f	-0.023541478
4	0xbd914454	-0.07093111
5	0xbb551ea2	-0.003251948
6	0x3d74a3fe	0.059726708
7	0x3d09c813	0.03363807
8	0xbd581a79	-0.05275962
9	0xbe079136	-0.13238987
10	0xbdbdfb16	-0.092764065
11	0xbce49a59	-0.02790563
12	0xbe38839b	-0.18018954
13	0x3d70d764	0.058799163
14	0x3da99e9e	0.08282207
15	0xbc0189f9	-0.00790643
16	0x3d96206b	0.07330402
17	0xbca69465	-0.020334432
18	0xbdc05c40	-0.09392595
19	0xbd801ad2	-0.062551156
20	0x3e08ad73	0.13347416
21	0xbd4c9f32	-0.049956508
22	0xb9fb4ab3	-0.00047930106
23	0x3d058410	0.032596648
24	0xbd14f573	-0.03636689
25	0x3d0ea05a	0.034820892
26	0xbd248655	-0.04016717
27	0x3c777807	0.0151043
28	0x3bebec24	0.007199781
29	0x3dc480e0	0.095948935
30	0xbdaf1c48	-0.08550316
31	0xbdb914e2	-0.09037186
32	0x3c75e56b	0.015008311
33	0xbde17bb7	-0.11009925
34	0x3cc0a05f	0.02351397
35	0x3e399672	0.18123797
36	0x3d87ca67	0.06630402
37	0x3d78579f	0.060630437
38	0x3d72f34a	0.05931405
39	0xbd085bb0	-0.033290565
40	0xbdff5a6e	-0.1246842
41	0x3dd2893a	0.1028008
42	0x3b88f334	0.0041793827
43	0x3e0dcaf4	0.13846952
44	0x3c9c74a6	0.019098591
45	0x3bc11b1b	0.005893124
46	0x3dac86aa	0.08424123
47	0x3c692fbc	0.014232572
48	0x3bf409dc	0.0074474644
49	0x3469a171	2.1758548e-07
50	0x33f45a10	1.1378518e-07
51	0xbde75532	-0.112955466
52	0xb11565ea	-2.1740285e-09
53	0xb09a80a9	-1.1241542e-09
54	0x3d1c1932	0.038109966
55	0xbe05d5f6	-0.13069901
56	0xbd8dd40d	-0.06925211
57	0x3ce027b9	0.027362691
58	0xbe363204	-0.17792517
59	0xbc84b36d	-0.016198838
60	0x3d0612ed	0.032732893
61	0xbc0241c3	-0.007950249
62	0x31af23c0	5.0972346e-09
63	0xbc940891	-0.018070491
64	0x3e132dfb	0.14373009
65	0xbd8704a1	-0.0659268
66	0xbe5c4850	-0.2151196
67	0xbe72866e	-0.23684093
68	0x3da39130	0.07986677
69	0xbe32fa2f	-0.1747825
70	0x3caa6875	0.020801762
71	0xbea49ed4	-0.32152426
72	0x3cd4180b	0.02589037
73	0xbd4961dc	-0.04916559
74	0xbd8ddf37	-0.069273405
75	0xbe1d75ee	-0.15377018
76	0x3ea003c8	0.31252885
77	0xbe2c8dda	-0.16850987
78	0xbe013b83	-0.12620358
79	0x3e36570d	0.17806645
80	0xbe1479b8	-0.14499557
81	0xbda32490	-0.07965958
82	0xbd29e146	-0.041474603
83	0xbd17b1a4	-0.037034646
84	0xbcce0179	-0.025147187
85	0x3e8e09f9	0.27741984
86	0x3dc6e17b	0.09710976
87	0x3d41baca	0.047297277
88	0x3d58a286	0.05288937
89	0xbe550b8d	-0.20805188
90	0x3ced4f87	0.028968586
91	0x3d49c0c2	0.049256094
92	0xbd999038	-0.07498211
93	0x3d375c0e	0.044765525
94	0x3dd2c1a6	0.10290842
95	0xbe00b0e7	-0.12567483
96	0xbdbf40be	-0.093385205
97	0xbb115a2e	-0.0022178995
98	0x3dc98548	0.098398745
99	0xbdd29ebc	-0.102841824
100	0x3d5c7289	0.053820167
101	0x3d857f3a	0.06518407
102	0xbc9410d9	-0.01807444
103	0xbd87b67f	-0.06626605
104	0x3da4c069	0.08044512
105	0xbe6b1cad	-0.22960158
106	0x3e92ff25	0.28710285
107	0xbcf3bb3e	-0.02975237
108	0xbe0f8867	-0.14016877
109	0x3d9ccdbf	0.076564305
110	0xbdbb9c27	-0.09160643
111	0xbcb96df6	-0.022635441
112	0x34ce3670	3.8410099e-07
113	0x3433cb80	1.6744707e-07
114	0x3d998645	0.07496313
115	0xb1969a96	-4.383149e-09
116	0xb137e748	-2.6761473e-09
117	0xbcdd64f1	-0.027025672
118	0xbd4fe438	-0.050754756
119	0x3d111702	0.035422333
120	0x3c9db4c0	0.019251227
121	0xbd94a4b5	-0.07257978
122	0xbda376a7	-0.079816155
123	0x3e3b3180	0.18280602
124	0x3dbd64ba	0.09247728
125	0x32568809	1.248737e-08
126	0xbd023bb1	-0.031795207
127	0x3d537a6d	0.051630426
128	0x3b714fa7	0.0036821158
129	0xbd5f31b9	-0.05449078
130	0xbdfb2802	-0.1226349
131	0x3cf9e625	0.03050525
132	0xbd908351	-0.070562966
133	0x3c922f04	0.017844684
134	0xbd3b3d55	-0.045712788
135	0x3b993964	0.004676031
136	0x3d778870	0.06043285
137	0xbb150ff8	-0.0022745114
138	0xbdb08d49	-0.08620698
139	0x3e3115d2	0.1729348
140	0x3ceb27cc	0.0287055
141	0x3e38654e	0.18007395
142	0xbe0ecb31	-0.13944699
143	0x3e898308	0.2685778
144	0xbe037de9	-0.12841
145	0xbe2a0992	-0.16605213
146	0x3d6c9eef	0.05776876
147	0x3d8ac6ba	0.06776185
148	0x3e07adda	0.13249913
149	0x3dbd1e56	0.09234302
150	0xbe1a1327	-0.15046369
151	0x3dd6cc56	0.10488193
152	0xbdea23f5	-0.114326395
153	0xbd6eca70	-0.05829853
154	0xbd91c354	-0.07117334
155	0xbd6b76d3	-0.057486366
156	0xbd4b1901	-0.049584392
157	0x3d95ca52	0.0731398
158	0x3d736152	0.059418984
159	0x3e18553d	0.14876266
160	0x3d9bde4b	0.076107584
161	0xbdf3c836	-0.119034216
162	0x3d55edb8	0.05222866
163	0xbd432cc1	-0.047650103
164	0xbde96c59	-0.11397619
165	0x3cae1fd6	0.021255415
166	0x3d9ba36a	0.07599528
167	0x3d805749	0.06266648
168	0xbd97b008	-0.07406622
169	0x3e400e97	0.18755566
170	0x3d611493	0.05495126
171	0x3e1069a2	0.14102796
172	0x3e52af2b	0.20574634
173	0xbe356b37	-0.1771668
174	0xbd2c2662	-0.042028792
175	0xb38dd2ba	-6.604155e-08
176	0x338df8bb	6.611068e-08
177	0x3d5401eb	0.05175964
178	0x318fefdb	4.189116e-09
179	0x31012bb7	1.879682e-09
180	0xbe0fa3fb	-0.14027397
181	0x3ca182ac	0.01971563
182	0xbe6043cc	-0.21900862
183	0x3c152f79	0.009105557
184	0x3d825054	0.063629776
185	0xbe7f1cfd	-0.24913402
186	0x3e032f1d	0.12810941
187	0xbd1bae50	-0.038008034
188	0xb203443b	-7.640717e-09
189	0xbd08fc3c	-0.033443674
190	0xbdcbc3ee	-0.0994948
191	0xbc8c7fd8	-0.017150804
192	0x3bb8a7b7	0.0056352275
193	0x3dd76b9e	0.10518573
194	0xbc493c71	-0.012282477
195	0xbe27918a	-0.16364112
196	0xbcaa4067	-0.020782663
197	0xbd05d4ac	-0.032673523
198	0x3c65cf27	0.01402644
199	0x3d4ba574	0.049718335
200	0xbe19e9c4	-0.15030581
201	0x3da41378	0.08011526
202	0xbd57c9b3	-0.05268259
203	0x3cc7e5a7	0.024401499
204	0xbdd24292	-0.102666035
205	0x3e9f2b92	0.3108793
206	0xbead9df4	-0.3390957
207	0x3d6f7632	0.05846233
208	0x3dec719f	0.11545109
209	0x3d829968	0.06376916
210	0xbd7204dd	-0.05908667
211	0xbe1f8955	-0.15579732
212	0xbdf37544	-0.11887601
213	0x3c9243e3	0.017854637
214	0xbe296ff2	-0.1654661
215	0xbdb49b53	-0.08818688
216	0xbd7799c6	-0.060449384
217	0xbdc45386	-0.09586243
218	0x3c82dc19	0.015974091
219	0xbcb569c8	-0.022145167
220	0x3daa23a6	0.08307581
221	0xbc006e59	-0.007838809
222	0xbd580acf	-0.052744683
223	0x3d0a33eb	0.03374092
224	0x3e0e1c79	0.13878049
225	0x3c22c496	0.009934565
226	0xbd98029c	-0.07422373
227	0xbd91329a	-0.070897296
228	0xbd6f1f39	-0.058379386
229	0xbe4bbdd0	-0.19896626
230	0xbe1eaae0	-0.15494871
231	0xbd1e3088	-0.0386205
232	0xbe169ea5	-0.14708956
233	0xbdaa27a1	-0.0830834
234	0xbe7f3f63	-0.24926524
235	0xbe487026	-0.19574031
236	0x3e2582e4	0.16163212
237	0xbdd50feb	-0.10403427
238	0xb36229ca	-5.2657732e-08
239	0x34824bf4	2.426965e-07
240	0x3c2d910c	0.010593664
241	0xb1f383f7	-7.0872335e-09
242	0xb12fd830	-2.558874e-09
243	0xbd8b11ef	-0.0679053
244	0x3e4e20f2	0.20129755
245	0x3e7f5881	0.24936105
246	0xbe09b2c2	-0.13447097
247	0x3da5cc90	0.08095658
248	0x3e653351	0.22382857
249	0xbe12da72	-0.14341143
250	0x3dddadad	0.10824142
251	0x32636985	1.3237131e-08
252	0x3d55f7e5	0.052238364
253	0xbd533a8a	-0.0515695
254	0x3e0c5470	0.13704085
255	0xbc882766	-0.01662035

embedding.embeddings.bex_20230623_denoised.poses.bias f4 [64]
0	0xbe2db271	-0.16962601
1	0xbc2081ef	-0.009796604
2	0x3cd73750	0.026271492
3	0xbbaaddf8	-0.005214449
4	0xbd28b0ea	-0.041184343
5	0xbdf0d35d	-0.11759064
6	0xbd9cef2c	-0.07662806
7	0x3e187916	0.1488994
8	0xbd54f6b5	-0.05199309
9	0xbdf46888	-0.11934
10	0x3cb972f6	0.022637825
11	0x3c9bd9e4	0.019024797
12	0xbdde2d57	-0.10848492
13	0xbd8c7bb6	-0.068595335
14	0xbd8905e7	-0.06690579
15	0x3cb3801f	0.021911679
16	0xbe343b0f	-0.17600654
17	0x3dc17154	0.09445444
18	0x3d379a0e	0.044824652
19	0xbd0913ea	-0.033466257
20	0x3d45b856	0.0482715
21	0x3e11e535	0.14247592
22	0xbdfa6d71	-0.122279055
23	0x3e91dae2	0.28487307
24	0x3da463ac	0.080268234
25	0xbd425fc9	-0.04745463
26	0x3e3de7ad	0.18545409
27	0x3dd40350	0.10352194
28	0x3de616ec	0.11234841
29	0xbe0a19d5	-0.13486417
30	0xbd8d6e59	-0.06905813
31	0xbe130786	-0.14358339
32	0xbe2242a0	-0.15845728
33	0x3dc30ea8	0.0952428
34	0xbd2f570a	-0.042807616
35	0x3e5a959c	0.21346134
36	0x3d9e161d	0.077190615
37	0xbe23075a	-0.15920773
38	0xbe016018	-0.12634313
39	0xbd852302	-0.06500818
40	0xbd8c6019	-0.06854267
41	0x3cbf6356	0.023362797
42	0x3dbf81bd	0.093509175
43	0xbca93575	-0.020655373
44	0x3ce01880	0.027355433
45	0xbe10f785	-0.14156921
46	0x3c54fa93	0.012999195
47	0xbdd990de	-0.10623334
48	0xbad54b46	-0.0016273044
49	0x3e16ac42	0.14714149
50	0x3e354922	0.17703679
51	0xbe115e9b	-0.14196245
52	0xbe185ed2	-0.14879921
53	0xbdf2061b	-0.11817571
54	0x3ddb049e	0.1069424
55	0x3d9f02ad	0.07764182
56	0xbb9d115a	-0.0047933282
57	0xbe028719	-0.12746848
58	0x3cac5ad1	0.021039398
59	0xbdbe4c72	-0.092919245
60	0x3e13ee36	0.14446339
61	0x3dcc5e25	0.09978894
62	0xbdcb77f8	-0.099349916
63	0x3d9ac922	0.07557894

embedding.embeddings.ken_20230614_denoised.poses.weight f4 [64, 63]
0	0x3dcef323	0.101049684
1	0xbb70f763	-0.0036768548
2	0xbcd5ed9c	-0.026114278
3	0x3dc802ec	0.09766182
4	0x3e4dbd0f	0.20091651
5	0x3bb712f5	0.0055869767
6	0x3d926fd0	0.07150233
7	0xbe02263a	-0.12709895
8	0x3a6e2a8d	0.000908532
9	0xbcc6f8ee	-0.02428862
10	0x3dda76d6	0.106671974
11	0xbd7fa480	-0.06241274
12	0x3c9df785	0.019283066
13	0xbd6d9ac1	-0.058008913
14	0x3e2249a9	0.15848412
15	0xbd87469a	-0.06605263
16	0x3db0e0e8	0.086366475
17	0x3e054fd3	0.13018732
18	0x3d31a058	0.043365806
19	0x3e4bb6ac	0.19893903
20	0xbd8dd283	-0.069249175
21	0x3cafdf34	0.021468736
22	0x3d2766a4	0.04086937
23	0xbd8dfee2	-0.06933381
24	0xbcefd5b4	-0.029276706
25	0xbc1dc0ef	-0.0096285185
26	0xbd7c01c8	-0.061525136
27	0xbd9414ca	-0.07230528
28	0x3d27efe1	0.04100025
29	0xbdaf9f30	-0.085752845
30	0x3cffddda	0.031233717
31	0xbc80d8e5	-0.015728423
32	0xbda929d2	-0.0825993
33	0xbb2f6160	-0.002676092
34	0xbcd735f1	-0.026270838
35	0xbda67049	-0.081268854
36	0x3e516be7	0.20451318
37	0x3cbc86fd	0.023013586
38	0xbc651e6b	-0.013984303
39	0x3d861b2f	0.065481536
40	0xbd715a67	-0.058924105
41	0xbdd58779	-0.1042623
42	0x3da9f50d	0.08298693
43	0x3cd173a6	0.02556784
44	0xbc1540c1	-0.009109677
45	0x3d9418cd	0.07231293
46	0xbb9f6b5a	-0.004865092
47	0xbe15624f	-0.14588283
48	0x3ca365fa	0.019946087
49	0xb50e8600	-5.309412e-07
50	0xb468a69f	-2.16673e-07
51	0x3d00f93d	0.031487692
52	0x30ce4773	1.500878e-09
53	0xb10d64b3	-2.0575441e-09
54	0x3c9f699f	0.019459544
55	0xbbc4a882	-0.006001533
56	0xbeb57b35	-0.35445562
57	0xbe1cb99d	-0.15305181
58	0xbe3d68d4	-0.1849702
59	0xbe8b16e7	-0.2716591
60	0xbd95ffa2	-0.07324149
61	0xbd0be0a5	-0.034149785
62	0xb2b519b1	-2.1082856e-08
63	0xbe1cfb56	-0.15330252
64	0xbc9c5baf	-0.019086687
65	0x3dc36296	0.09540288
66	0x3c86e4c4	0.016466506
67	0x3e38eeb6	0.18059811
68	0xbda54daa	-0.08071454
69	0x3d94bbaa	0.072623566
70	0xbdc71513	-0.097208165
71	0xbd16b5ff	-0.03679466
72	0x3d145f77	0.036223855
73	0x3e45fa90	0.19333863
74	0xbe10ccd8	-0.14140642
75	0x3c5c063d	0.013429222
76	0xbe1bca85	-0.15213974
77	0x3dfdb017	0.12387102
78	0xbc0f45bc	-0.008744653
79	0x3dc45e0e	0.09588252
80	0x3db64e2b	0.08901628
81	0xbd540534	-0.051762775
82	0x3d997ceb	0.07494529
83	0x3da40c97	0.08010214
84	0xbdc2ee32	-0.095180884
85	0x3cdfda27	0.027325703
86	0xbe293b72	-0.16526583
87	0xbdfb515b	-0.12271377
88	0xbd5c4ee4	-0.053786173
89	0xbd912b29	-0.0708831
90	0xbb4aa608	-0.0030921716
91	0x3cfb9ede	0.030715402
92	0x3d8de05d	0.069275595
93	0x3d2e6079	0.042572472
94	0xbd3c6857	-0.045997944
95	0xbcc2b902	-0.02376986
96	0xb9162b58	-0.00014321262
97	0x3c76cdfd	0.01506376
98	0x3aab507b	0.001307025
99	0xbdaa55b1	-0.083171256
100	0x3d455a0d	0.048181582
101	0x3c603a08	0.013685711
102	0x3d151a4b	0.036402028
103	0x3dc36b8a	0.09541996
104	0xbc9ba68f	-0.01900032
105	0x3c4d2a1b	0.012522246
106	0x3ccf4344	0.02530063
107	0x3de22a30	0.11043203
108	0x3e6f4ffa	0.23370352
109	0xbda7b465	-0.081887044
110	0xbd9146a0	-0.07093549
111	0x3ae71544	0.0017630239
112	0xb4e201bd	-4.2097045e-07
113	0xb4b8574c	-3.4336188e-07
114	0x3d0de6fc	0.034644112
115	0xb1b1c43b	-5.173687e-09
116	0x2eec04d8	1.0732898e-10
117	0x3c5c18d6	0.013433656
118	0x3daea046	0.085266635
119	0xbe13ea74	-0.14444906
120	0x3d107a57	0.035272922
121	0xbe57effd	-0.21087642
122	0x3e6a28e8	0.22867167
123	0x3c58cf37	0.013232998
124	0x3d9a74fd	0.07541845
125	0xb0a30acc	-1.186288e-09
126	0x3d99668e	0.07490264
127	0x3d5ac37b	0.05340908
128	0xbd78f975	-0.060784776
129	0x3c7df506	0.015500313
130	0xbe05278c	-0.13003367
131	0x3de373a6	0.111060426
132	0x3d7d8f81	0.061904434
133	0xbdeecc8a	-0.116601065
134	0x3df784d8	0.12085885
135	0xbd0bff46	-0.034178995
136	0xbc7bee0e	-0.015376581
137	0x3d5685a4	0.052373543
138	0xbd835e12	-0.06414427
139	0xbc8857b4	-0.016643383
140	0xbd6f0f56	-0.058364235
141	0x3e020aa2	0.12699369
142	0xbde04490	-0.10950577
143	0x3da27cda	0.0793397
144	0xba912760	-0.0011074357
145	0x3c7637f8	0.015027992
146	0xbcb5468a	-0.022128362
147	0xbc931107	-0.017952455
148	0x3da71bc0	0.0815959
149	0xbdc34f3e	-0.095365986
150	0xba0d7189	-0.0005395641
151	0xbdcd0041	-0.10009814
152	0xbb7843fb	-0.0037882316
153	0x3d840a9b	0.06447335
154	0xbd9e0d67	-0.077174
155	0xbdeafd2c	-0.1147407
156	0xbc790798	-0.015199564
157	0x3c0823ea	0.008309344
158	0x3d4b3675	0.04961248
159	0x3c04ece0	0.008113116
160	0x3dc7751b	0.09739133
161	0x3d253808	0.04033664
162	0x3df0ce8d	0.117581464
163	0x3cc7405d	0.024322683
164	0x3daaceaf	0.08340203
165	0x3d66fb6b	0.056392115
166	0x3dd93178	0.106051385
167	0x3cc8ebca	0.024526495
168	0x3da2b35b	0.079443656
169	0xbdf4960a	-0.1194268
170	0x3eb37e0d	0.35057107
171	0x3e6468a3	0.2230554
172	0xbe7c134a	-0.24616733
173	0xbc378aab	-0.011202495
174	0xbd5ab5a9	-0.0533959
175	0x343e4b78	1.7722584e-07
176	0x33de5247	1.0352647e-07
177	0x3db70aa4	0.089375764
178	0xb05329b6	-7.682063e-10
179	0x31c6743f	5.775774e-09
180	0xbd5d01f4	-0.05395694
181	0x3de3e769	0.11128122
182	0xbe155d52	-0.1458638
183	0x3ca6e63c	0.020373456
184	0x3b7146a7	0.0036815794
185	0xbe685084	-0.22686964
186	0xbdd07930	-0.10179365
187	0xbd50b996	-0.05095824
188	0x335ee02f	5.1892297e-08
189	0xbe1c0f65	-0.15240248
190	0xbdb5389b	-0.08848687
191	0xbde906a0	-0.11378217
192	0x3c578eac	0.013156574
193	0x3dd2ffa8	0.10302669
194	0xbd9cadee	-0.07650362
195	0xba107be8	-0.00055116275
196	0x3df7c408	0.12097937
197	0xbd9220e9	-0.07135183
198	0x3c3e0719	0.011598372
199	0x3cfda69b	0.030963233
200	0xbd5278c8	-0.051384717
201	0x3d8b2561	0.06794239
202	0xbca96dbd	-0.02068221
203	0xbdda0287	-0.10645013
204	0xbe4a9f43	-0.19787316
205	0x3ddaa871	0.10676659
206	0xbdb8e50d	-0.09028063
207	0xbd344bca	-0.04401759
208	0xbe06b00e	-0.13153097
209	0xbde19e74	-0.11016551
210	0x3c39d80d	0.011343014
211	0xbdd62d8d	-0.10457907
212	0x3dc8677f	0.09785365
213	0xbcc92c92	-0.024557386
214	0xbd9195c7	-0.07108646
215	0xbe365a8c	-0.17807978
216	0xbd383fb8	-0.044982642
217	0x3d9d1635	0.07670251
218	0xbd8c260a	-0.06843193
219	0x3d9400c0	0.072267056
220	0xbd5654fa	-0.052327134
221	0x3ddc6d4b	0.107630335
222	0x3c819798	0.015819356
223	0xbe1276fa	-0.14303198
224	0x3e014ebe	0.12627694
225	0xbe20d197	-0.15704952
226	0xbd0449cf	-0.03229695
227	0x3d6a2402	0.057163246
228	0xbc9d8126	-0.019226622
229	0x3c71ad7f	0.014750837
230	0x3c900393	0.01757983
231	0xbd70e3d7	-0.058811035
232	0x3e1682b7	0.14698301
233	0xbeb70eec	-0.35753572
234	0xbe41cb62	-0.1892524
235	0x3e8cbde7	0.27488634
236	0x3cb5b136	0.022179227
237	0xbc6200b9	-0.013794118
238	0x36320de6	2.6532157e-06
239	0xb486e35f	-2.512488e-07
240	0xbc3f9c6e	-0.011695011
241	0xb0d8137c	-1.5721606e-09
242	0xb198f9e8	-4.4521933e-09
243	0xbdb884cd	-0.09009705
244	0xbe194849	-0.14968981
245	0x3e609d4c	0.21935004
246	0x3da4ce80	0.08047199
247	0xbe28192a	-0.1641585
248	0x3eace387	0.3376734
249	0x3e35e62e	0.17763588
250	0x3db8718f	0.090060346
251	0xb3cba16c	-9.4822866e-08
252	0x3ccb278d	0.024799133
253	0xbde05bf2	-0.10955037
254	0x3dbe4045	0.09289602
255	0xbd2b314d	-0.041795064

embedding.embeddings.ken_20230614_denoised.poses.bias f4 [64]
0	0xbd8d1434	-0.06888619
1	0xbd85dd68	-0.065363705
2	0x3dfcdd82	0.12346937
3	0xbd44333f	-0.047900435
4	0x3db6e3d0	0.089301705
5	0xbd06789e	-0.032829873
6	0x3daea602	0.08527757
7	0xbd98c86f	-0.07460105
8	0x3b5170df	0.0031958146
9	0xbe2dc3a3	-0.1696916
10	0xbc946a64	-0.018117137
11	0xbdc89650	-0.09794295
12	0x3e243608	0.16036236
13	0x3d561f2e	0.05227583
14	0xbe09bb12	-0.13450268
15	0xbb8f73ca	-0.004377817
16	0x3d8a772a	0.0676101
17	0x3a23a062	0.00062418554
18	0x3ce54d29	0.027990894
19	0xbe027791	-0.12740923
20	0xbe0abb10	-0.13547921
21	0xbab545cb	-0.0013830004
22	0xbda5a186	-0.08087449
23	0x3df87bef	0.121330135
24	0x3db88a8b	0.090108
25	0x3d5ad780	0.053428173
26	0x3b9f865d	0.0048683123
27	0xbd564ce4	-0.052319422
28	0xbd777a3e	-0.060419314
29	0xbdf74c7d	-0.12075136
30	0x3dd3dac7	0.10344463
31	0xbc8e6ba8	-0.017385319
32	0xbdc19b27	-0.09453421
33	0xbdba9092	-0.09109606
34	0xbd96aced	-0.07357202
35	0xbd8cc371	-0.06873215
36	0xbdb5c9b9	-0.08876366
37	0xbdcf69c1	-0.10127593
38	0xbc9d3306	-0.019189369
39	0xbe4290b9	-0.1900052
40	0x3d3891ce	0.045060925
41	0x3d640321	0.055667046
42	0x3d8fd567	0.07023125
43	0xbcf4a665	-0.0298645
44	0x3d6bdc28	0.057583004
45	0x3d09ea74	0.033670858
46	0xbdb779c1	-0.089587696
47	0x3d278ada	0.040903904
48	0x3d1b006d	0.037842203
49	0x3dfc0da8	0.12307292
50	0xbcfa2c3c	-0.03053867
51	0xbe380bf3	-0.17973308
52	0x3cb6080b	0.022220632
53	0xbc441e4c	-0.011970114
54	0x3dc46e12	0.09591307
55	0x3d4eaf70	0.05046028
56	0xbd3f6f29	-0.04673687
57	0x3c3a904b	0.011386941
58	0x3ca1f122	0.019768301
59	0x3d8a9141	0.06765986
60	0x3c591579	0.013249748
61	0xbd65ec19	-0.056133363
62	0xbcb17060	-0.02166003
63	0x3d285f63	0.041106593

embedding.embeddings.ken_20230618_denoised.poses.weight f4 [64, 63]
0	0x3d4416ad	0.047873188
1	0xbd80e301	-0.062932976
2	0x3db2fcb9	0.08739609
3	0xbe0de8fa	-0.13858405
4	0xbd85ac0a	-0.065269545
5	0x3d650249	0.055910382
6	0x3d01dea2	0.03170646
7	0xbc377f91	-0.011199848
8	0x3dd4b5f4	0.10386267
9	0x3d202837	0.039100852
10	0xbd860a27	-0.06544905
11	0x3de5b776	0.11216633
12	0x3ddc994e	0.10771428
13	0x3d876927	0.06611853
14	0x3e0cba77	0.13743006
15	0x3d1ba0a2	0.03799499
16	0xbcbad3df	-0.022806106
17	0x3d9dc79c	0.07704088
18	0xbdb7bfbf	-0.089721195
19	0x3d8eaf93	0.06967082
20	0x3d6db86d	0.05803721
21	0xbdbf665f	-0.093456976
22	0x3dbb0f64	0.09133795
23	0x3d150053	0.036377262
24	0xbd86aba7	-0.06575709
25	0x3d03eaf2	0.032206483
26	0xbdab1eea	-0.08355506
27	0xbd53a796	-0.051673494
28	0x3d95514d	0.072908975
29	0xbca7961c	-0.02045732
30	0xbdc0ed89	-0.09420306
31	0xbc58f0b6	-0.013240984
32	0xbd2ad9df	-0.041711684
33	0x3d3de92e	0.046364956
34	0xbd5c8007	-0.053833034
35	0xbe1b1972	-0.15146425
36	0x3dec2a11	0.11531461
37	0x3d97200b	0.073791586
38	0xbd83cc9c	-0.064355105
39	0x3b896a41	0.0041935747
40	0x3baad77f	0.0052136774
41	0xbe17f9e0	-0.14841413
42	0x3dd4d22f	0.10391652
43	0xbadc6033	-0.0016813338
44	0xbbe136d3	-0.0068729906
45	0xbd99a76a	-0.07502635
46	0x3b9c8c70	0.0047774836
47	0xbcd502e3	-0.026002353
48	0x3cd6792e	0.02618083
49	0x3486c497	2.5102483e-07
50	0x34645756	2.1265927e-07
51	0xbd4f8b83	-0.050670158
52	0xae8c702f	-6.386391e-11
53	0xafefbbde	-4.3607334e-10
54	0x3d99f0f2	0.0751666
55	0xbde33afa	-0.11095233
56	0xbeba4683	-0.3638192
57	0xbdff6701	-0.12470818
58	0x3dd17063	0.10226514
59	0xbea917ce	-0.33025974
60	0xbd28775a	-0.041129448
61	0xbd53d1fb	-0.051713925
62	0xb1efd32b	-6.9798225e-09
63	0x3d759e08	0.059965163
64	0x3d5b7067	0.053573992
65	0xbcc190f2	-0.023628686
66	0xbdc62b56	-0.096762344
67	0xbe0a052e	-0.13478538
68	0x3ddb8c16	0.10720079
69	0xbdc5628f	-0.09637939
70	0x3c7ed95d	0.015554753
71	0x3db9e88f	0.0907756
72	0x3d4a213f	0.049348112
73	0xbe1f4c6f	-0.15556501
74	0xbc42e5c1	-0.011895598
75	0xbc022148	-0.007942505
76	0x3e3a6db1	0.18205906
77	0x3c8b7034	0.017021276
78	0x3d62ab9d	0.055339444
79	0xbe1d619b	-0.15369265
80	0xbe1ec642	-0.15505317
81	0x3d8d312a	0.06894143
82	0xbd283507	-0.041066196
83	0xbd1c1901	-0.038109783
84	0xbb53ad0a	-0.0032299184
85	0x3bc6b132	0.006063604
86	0xbd135616	-0.03597077
87	0x3b970c81	0.004609645
88	0xbca47d77	-0.020079358
89	0xbccbdfd1	-0.024886997
90	0x3d874f69	0.06606943
91	0x3d8f2fb7	0.06991523
92	0xbddb9965	-0.10722617
93	0xbd492d01	-0.049115185
94	0x3d33f5f9	0.04393575
95	0xbe08f591	-0.13374926
96	0x3d2d3049	0.042282376
97	0x3de9cd68	0.11416131
98	0xbdafdad7	-0.08586662
99	0x3d89c92b	0.06727823
100	0x3d2ddd9b	0.042447668
101	0x3d480779	0.04883525
102	0xbc73e17f	-0.014885305
103	0x3dc17934	0.09446946
104	0xbd9667aa	-0.07343991
105	0xbd638a56	-0.05555185
106	0x3aa0cc55	0.0012267927
107	0xbbb00c96	-0.005372594
108	0xbe2fc5c6	-0.17165288
109	0x3cb67b2b	0.022275528
110	0x3de48a1f	0.11159157
111	0xbd4e8c82	-0.050426967
112	0xb4322ca1	-1.6593778e-07
113	0xb4c648ec	-3.6933432e-07
114	0xbd087a6e	-0.033319883
115	0x301e49d6	5.758499e-10
116	0xaff3c5d2	-4.4342002e-10
117	0xbdc8b06b	-0.09799274
118	0xbd4f8ccb	-0.05067138
119	0x3e1409f4	0.14456922
120	0xbc75d657	-0.015004716
121	0x3e7cf728	0.24703658
122	0xbea46b03	-0.32112893
123	0x3de11870	0.10990989
124	0xbc1e620e	-0.009666933
125	0xaf542b55	-1.9296682e-10
126	0x3c61a5e3	0.013772461
127	0x3d806231	0.062687285
128	0xbd74b3ac	-0.05974166
129	0xbe1cc54b	-0.15309636
130	0xbe0c2368	-0.13685381
131	0x3e192856	0.14956793
132	0xbc6e4d98	-0.014544867
133	0xbdf8c662	-0.121472135
134	0x3e127031	0.1430061
135	0xbcafa307	-0.021440042
136	0xbdde93dc	-0.10868046
137	0x3dfa2ed2	0.122159615
138	0x3df58eb3	0.11990108
139	0x3dc2007a	0.09472747
140	0xbd846eac	-0.064664215
141	0x3e6e91ad	0.23297758
142	0xbe82e0f8	-0.25562263
143	0xbda55f81	-0.080748565
144	0xbd7f8904	-0.062386528
145	0xbbbaff0f	-0.005706675
146	0xbd454593	-0.048162054
147	0xbd6efb7e	-0.05834531
148	0xbdf367a5	-0.11885003
149	0x3bbdb6dc	0.005789621
150	0xbcdb65e8	-0.026781991
151	0x3e108f77	0.14117227
152	0x3e01b2ca	0.12665859
153	0x3d87e824	0.06636074
154	0x3df88b8a	0.1213599
155	0xbccf5402	-0.025308613
156	0xbe0adca3	-0.13560729
157	0x3dc3a21b	0.095524035
158	0xbdbb5468	-0.091469586
159	0xbd88bd3e	-0.0667672
160	0x3e0d5ee1	0.13805725
161	0xbba8f5a1	-0.0051562344
162	0x3dffa8bd	0.12483356
163	0xbdd64673	-0.10462656
164	0xbda4d41b	-0.080482684
165	0x3d97724d	0.07394848
166	0x3da4cc96	0.08046834
167	0xba939201	-0.0011258723
168	0x3dc94d4c	0.09829196
169	0xbe22cdf2	-0.15898874
170	0x3e96429e	0.293477
171	0x3d59ac74	0.05314298
172	0xbe668d6a	-0.22514883
173	0xbdf810b8	-0.12112564
174	0xbd37fc53	-0.04491837
175	0xb5288268	-6.2774643e-07
176	0xb52516c6	-6.150043e-07
177	0x3dc9f89d	0.09861872
178	0xb10d7f29	-2.0590483e-09
179	0x2fa84c38	3.061318e-10
180	0xbc0ce457	-0.008599362
181	0xbd233477	-0.039844956
182	0xbe1d9978	-0.15390575
183	0x3c96a663	0.018389886
184	0x3e114666	0.14187011
185	0xbe63e1cd	-0.22254105
186	0x3b96fa46	0.0046074716
187	0xbcde1884	-0.0271113
188	0x31cff860	6.05273e-09
189	0xbe0c7a4f	-0.13718532
190	0x3d9fcef2	0.078031436
191	0x3c7f374d	0.01557715
192	0x3dd28b0a	0.10280426
193	0x3dee6244	0.116398364
194	0xbe49fae8	-0.1972462
195	0xbdc2aec1	-0.09505988
196	0x3e2bd4aa	0.16780344
197	0xbd787e51	-0.06066734
198	0x3d7c3af7	0.06157967
199	0x3c19a832	0.00937848
200	0xbda488bc	-0.080338925
201	0xbd7146c6	-0.058905385
202	0x3d935061	0.071930654
203	0xbe0f81ec	-0.14014405
204	0xbe50270d	-0.20327397
205	0x3e57e5fc	0.21083826
206	0xbdc6eea2	-0.09713484
207	0xbbba842e	-0.0056920266
208	0xbd195cd5	-0.037442047
209	0xbc7fd3f5	-0.015614499
210	0x3ce2afbe	0.027671691
211	0xbd7ef2da	-0.06224332
212	0xbca97bc2	-0.020688895
213	0xbd4f2063	-0.050567996
214	0xbd3958d4	-0.04525073
215	0xbe0161cc	-0.12634963
216	0xbc588634	-0.01321559
217	0xbd605f7a	-0.054778554
218	0x3d759343	0.059954893
219	0x3e182c22	0.14860585
220	0xbc821c5b	-0.015882662
221	0xbc94aaa4	-0.018147774
222	0x3e076302	0.13221362
223	0xbe12941c	-0.14314312
224	0x3c818473	0.015810227
225	0xbe419f86	-0.1890851
226	0xbd110987	-0.035409477
227	0xbe201195	-0.15631707
228	0xbd169da9	-0.03677145
229	0xbbf740b5	-0.0075455555
230	0x3d2da151	0.04239017
231	0xbe21dfb8	-0.15807998
232	0x3e67c308	0.22632992
233	0xbea13600	-0.3148651
234	0xbe11b924	-0.14230782
235	0x3e90eaf5	0.28304258
236	0x3db0cc58	0.086327255
237	0x3cef7f30	0.029235452
238	0x3546fb47	7.4126405e-07
239	0x3538c5fb	6.883344e-07
240	0x3bf85cc0	0.007579416
241	0xb0ce5606	-1.5012922e-09
242	0x30a1212a	1.1723718e-09
243	0xbdb50c65	-0.08840255
244	0xbd4ce7b4	-0.050025657
245	0x3e83e3f1	0.25759843
246	0x3de8680b	0.113479696
247	0x3d1cb1d2	0.03825552
248	0x3e752564	0.23940045
249	0x3dbeb167	0.093111806
250	0x3dcabe99	0.09899635
251	0xb2319b21	-1.0338028e-08
252	0x3e20069a	0.15627518
253	0xbd3b2445	-0.045688886
254	0x3d83427d	0.06409166
255	0x3e1891a5	0.14899309

embedding.embeddings.ken_20230618_denoised.poses.bias f4 [64]
0	0xbd0a3f0e	-0.03375154
1	0x3cfd7a0a	0.030941982
2	0x3d91646d	0.07099233
3	0x3cb8380b	0.02248766
4	0xbe03fb40	-0.12888813
5	0xbe162adb	-0.14664786
6	0xbc0f9796	-0.008764168
7	0x3d877ca1	0.06615568
8	0x3bea2f2e	0.0071467375
9	0xbdea1d25	-0.1143134
10	0xbdec0c63	-0.115258
11	0xbde90481	-0.11377812
12	0x3e48e8f2	0.19620112
13	0x3d1603e5	0.036624808
14	0xbe05449f	-0.13014458
15	0x3a879914	0.0010345303
16	0x3ccba8ad	0.024860704
17	0x3ce3a002	0.027786259
18	0x3e001b21	0.12510349
19	0xbe04f95c	-0.12985748
20	0x3933006f	0.00017070932
21	0x3d5f57a7	0.05452695
22	0xbd0f8d2e	-0.03504675
23	0x3dc69d22	0.096979395
24	0x3d97037a	0.0737371
25	0x3da0ec54	0.07857576
26	0xbd1fed68	-0.039044768
27	0x3d3b5567	0.045735743
28	0xbdf039cf	-0.11729776
29	0xbc2a835c	-0.010407295
30	0xbd341cbd	-0.04397272
31	0xbda0eda4	-0.07857826
32	0xbe172143	-0.14758782
33	0x3db169f3	0.08662786
34	0xbe2be226	-0.16785488
35	0x3ddc007a	0.107422784
36	0xbe14064b	-0.14455526
37	0xbcfccfb1	-0.030860754
38	0xbcb21aa9	-0.021741228
39	0xbe43d74b	-0.19125096
40	0x3e270f99	0.16314544
41	0x3daeb05a	0.0852973
42	0xbddb2878	-0.10701078
43	0x3db8a232	0.09015311
44	0x3dfb4e93	0.12270846
45	0xbdd52970	-0.10408294
46	0xbd724ba1	-0.059154157
47	0xbde6f108	-0.11276442
48	0x3e17e8f3	0.14834957
49	0x3daf3d58	0.08556622
50	0x3dedc49b	0.11609765
51	0xbe4b23dc	-0.19837898
52	0x3de6b191	0.11264337
53	0xbda434f7	-0.08017915
54	0x3d379277	0.044817414
55	0xbb8eaf76	-0.0043544127
56	0x3dbb345d	0.09140847
57	0xbdb9fe6b	-0.090817295
58	0x3d63708a	0.055527247
59	0x3cf12c39	0.029440032
60	0xbd82e101	-0.06390572
61	0x3ddb2d17	0.107019596
62	0xbd3436b9	-0.0439975
63	0xbdb295fa	-0.08720012

core.core.fc.0.0.weight f4 [128, 64]
0	0xbdc4af05	-0.09603695
1	0xbc1e6bbc	-0.009669241
2	0x3c0a39f6	0.0084366705
3	0x3c0c88b8	0.008577518
4	0x3b81419a	0.003944588
5	0xbd13707e	-0.035995953
6	0xbd6154d5	-0.055012543
7	0x3def7ff9	0.11694331
8	0x3d7460a3	0.059662472
9	0xbd308208	-0.043092757
10	0x3dedf4ef	0.11618983
11	0x3c630bd1	0.013857798
12	0x3c53e6ed	0.012933475
13	0xbcd0e973	-0.025501942
14	0xbbb223ed	-0.0054364116
15	0xbccacceb	-0.024755916
16	0xbb2f12fc	-0.0026714196
17	0x3ce025ed	0.027361834
18	0xbce99158	-0.028511688
19	0xbd0c55c7	-0.03426149
20	0x3d7ebc7e	0.06219148
21	0x3d70f66a	0.05882875
22	0xbdcb385c	-0.09922859
23	0x3d87d609	0.06632621
24	0x3d9ec271	0.077519305
25	0xbd1170da	-0.035508014
26	0xbd0985b2	-0.033574767
27	0x3d95128a	0.07278927
28	0x3d81e910	0.06343281
29	0xbdb64f99	-0.08901901
30	0xbca58749	-0.02020611
31	0xbc1373c7	-0.008999771
32	0xbddaa2a4	-0.106755525
33	0x3ca8af12	0.020591293
34	0xbdae70a6	-0.0851758
35	0x3d97dd90	0.074153066
36	0x37cc2187	2.4334307e-05
37	0xbdb79659	-0.089642234
38	0xbcc22561	-0.023699464
39	0xbc19c3b5	-0.009385039
40	0xbd5df679	-0.054190133
41	0x3a9fba4e	0.001218626
42	0xbcccf80b	-0.02502062
43	0xbc27284e	-0.0102024805
44	0x3cdc2829	0.026874619
45	0xbd96f7a6	-0.07371454
46	0xbc97ab25	-0.018514225
47	0xbdb1f039	-0.08688397
48	0x3cb6c7c5	0.022312054
49	0x3da67823	0.08128383
50	0x3c983f8c	0.018584989
51	0xbded4ecf	-0.11587297
52	0x3cd273d5	0.025689999
53	0xbd1e0527	-0.038579132
54	0x3de80195	0.11328427
55	0x3c3e5193	0.0116161285
56	0xbbcb55ab	-0.006205281
57	0x3c0bb5f5	0.008527269
58	0xbd5381d4	-0.051637486
59	0xbd2f3ef1	-0.042784635
60	0x3d970261	0.073735006
61	0xbcda723c	-0.0266658
62	0xbe3445a4	-0.17604691
63	0x3d5b73be	0.053577177
64	0xb5f13584	-1.7971474e-06
65	0x356964c3	8.694589e-07
66	0x35245b6c	6.12278e-07
67	0x34f61a68	4.5840284e-07
68	0xb591b674	-1.0856443e-06
69	0xb5bd84e8	-1.4120278e-06
70	0xb5ec5a6e	-1.7609689e-06
71	0x35f1bfbf	1.8011705e-06
72	0xb5e01b2e	-1.6697211e-06
73	0xb572ecf6	-9.049685e-07
74	0xb2df7ba0	-2.6016835e-08
75	0xb55b5f04	-8.1722123e-07
76	0x356558fe	8.543865e-07
77	0xb423cc70	-1.5254932e-07
78	0xb5ac7edf	-1.2851923e-06
79	0x35996852	1.142975e-06
80	0xb57a5ea8	-9.327e-07
81	0x35080ede	5.068558e-07
82	0x34980c90	2.8321347e-07
83	0xb5106028	-5.3784106e-07
84	0x35afa080	1.3085228e-06
85	0x3598591b	1.1350816e-06
86	0x3478d404	2.317393e-07
87	0x361e9036	2.3627776e-06
88	0x352c3afb	6.416082e-07
89	0xb58ee6cc	-1.0646995e-06
90	0x358efd4e	1.0653546e-06
91	0x35e6ad6b	1.7186807e-06
92	0x34577e20	2.006932e-07
93	0xb51cf9c0	-5.847796e-07
94	0xb5d08ecb	-1.5538766e-06
95	0xb5b0af0e	-1.316397e-06
96	0x3522de77	6.067343e-07
97	0x36350a5c	2.6977132e-06
98	0xb47cb2b8	-2.3534346e-07
99	0x35c57056	1.4710338e-06
100	0x35bf5042	1.4253967e-06
101	0xb53279b3	-6.6487263e-07
102	0xb6028c28	-1.9453091e-06
103	0x3453ec70	1.9736922e-07
104	0x351558e0	5.5636156e-07
105	0xb586c87c	-1.0042127e-06
106	0xb49150f0	-2.7067244e-07
107	0x35d4957c	1.5838737e-06
108	0x341e924c	1.4768119e-07
109	0xb5aadf0a	-1.27309e-06
110	0x35aba9e6	1.278994e-06
111	0xb6169d1f	-2.2443198e-06
112	0x3455288a	1.9851919e-07
113	0x3516dc56	5.6199985e-07
114	0x35c44512	1.462324e-06
115	0xb51676b2	-5.605208e-07
116	0x34d565b8	3.9748352e-07
117	0xb58fd56a	-1.0716442e-06
118	0x355d531d	8.244986e-07
119	0x35b8c286	1.3765682e-06
120	0x350a114b	5.143417e-07
121	0x331c0ff0	3.6336075e-08
122	0xb5088e82	-5.0871324e-07
123	0xb5840c86	-9.838411e-07
124	0x354cf78e	7.635616e-07
125	0x35d0a13e	1.5544135e-06
126	0x337f647e	5.946321e-08
127	0x3580341d	9.55191e-07
128	0x3a92ec8a	0.001120941
129	0xba65e921	-0.00087703957
130	0x3b28024b	0.0025636132
131	0xbb53c824	-0.0032315338
132	0xbb40a539	-0.0029395355
133	0x3a25df52	0.0006327528
134	0x3bedb7a9	0.00725456
135	0xbc108703	-0.008821252
136	0xbbae22db	-0.0053142137
137	0xbbb8e534	-0.0056425575
138	0xbc85b2c2	-0.01632059
139	0xbb537c9b	-0.0032270316
140	0x3c2ef291	0.0106779495
141	0x3b0178af	0.001975577
142	0xbb93f5ae	-0.0045153713
143	0xb80b3aba	-3.3194876e-05
144	0xba0fbc7a	-0.0005483102
145	0xbaf26af0	-0.0018495005
146	0x3b719e72	0.0036868122
147	0x39b23ca6	0.00033995992
148	0xbbc1bfb6	-0.0059127463
149	0x3b64426f	0.0034829637
150	0xb9be6d29	-0.00036320955
151	0x3c809c06	0.015699398
152	0x3ae92ac4	0.0017789234
153	0x3b490af8	0.0030676704
154	0x3be48259	0.0069735465
155	0x3b29881e	0.0025868486
156	0xbb9952b9	-0.0046790508
157	0x3bc16c32	0.0059027905
158	0x3ba873d6	0.005140762
159	0xbbd6661d	-0.0065429346
160	0x3a8e8cb1	0.001087567
161	0x3a1c60bb	0.00059653417
162	0x3b349dd0	0.0027559884
163	0xbb39fbac	-0.0028378768
164	0xbb11cb7c	-0.002224653
165	0xbb511ba9	-0.0031907356
166	0x3b227463	0.002478861
167	0xbc4be6ba	-0.012445146
168	0x3c60ee9e	0.013728766
169	0x3a3f593f	0.00072993705
170	0x38e57398	0.00010941102
171	0x3b14d643	0.0022710718
172	0x3b7f4d60	0.0038956031
173	0x3a9a94c7	0.0011793607
174	0x3a470124	0.00075914175
175	0x3b6f10b5	0.0036478464
176	0x3b8258e9	0.003977884
177	0xbbf475f8	-0.007460352
178	0x3bdd5b1e	0.006755247
179	0xbb422a3f	-0.0029627231
180	0xbb5320e1	-0.0032215642
181	0x3b2dd665	0.0026525494
182	0xb9fa48c8	-0.00047737942
183	0x3af3a471	0.0018588436
184	0x3af04884	0.0018332158
185	0xbb3e7383	-0.002906055
186	0x3a809700	0.0009810627
187	0x39a7e7e6	0.000320255
188	0x39dbf69e	0.0004195468
189	0x3afdc99e	0.0019362455
190	0x3c47cfdc	0.012195554
191	0xbb1651ae	-0.0022936868
192	0xbd38a5b5	-0.045079906
193	0x3c83f50e	0.016108062
194	0xbd97e98d	-0.07417593
195	0x3e053f6f	0.13012479
196	0xbd8ad063	-0.06778028
197	0x3da21210	0.079136014
198	0xbd805d2e	-0.062677726
199	0x3d443883	0.047905456
200	0xbc221edd	-0.009895054
201	0x3db7cf9d	0.08975146
202	0xbd0992f2	-0.033587404
203	0x3d817799	0.063216396
204	0xbc9f92e0	-0.019479215
205	0xbd5da36e	-0.054110937
206	0x3da4173a	0.080122426
207	0x3dcbe49e	0.09955715
208	0xbde1d189	-0.11026294
209	0xbdcb45de	-0.099254355
210	0xbb8eefdd	-0.00436209
211	0x3d141302	0.03615094
212	0x3d23b175	0.039964158
213	0xbce28a1d	-0.027653748
214	0x3d88ff24	0.06689289
215	0x3cd03843	0.025417453
216	0xbbf842e1	-0.007576332
217	0x3d9bdb12	0.07610144
218	0x3d1c54e2	0.038166888
219	0xbd8df31f	-0.06931137
220	0x3d96d625	0.073650636
221	0x3d4d946a	0.050190367
222	0xbafb56eb	-0.0019175684
223	0xbdded1fd	-0.10879896
224	0x3d998ec2	0.07497932
225	0xbd761c72	-0.06008572
226	0x3d9d0369	0.07666666
227	0x3df93e55	0.12170092
228	0x3d7f5a65	0.062342066
229	0x3d5589c6	0.052133344
230	0x3d8f5653	0.06998887
231	0x3d86f745	0.06590132
232	0x3d0a3e55	0.03375085
233	0xbdd13663	-0.102154516
234	0xbda40f11	-0.08010686
235	0xbd8fd9f9	-0.07023997
236	0xbd837aec	-0.0641993
237	0x3d35c303	0.04437543
238	0x3d7357be	0.05940985
239	0x3d8a6319	0.06757183
240	0xbd80f1fd	-0.062961556
241	0xbd80eb4d	-0.0629488
242	0xbcdb2abf	-0.026753781
243	0x3d0611b0	0.032731712
244	0x3bc3a83e	0.0059709838
245	0x3d716ba9	0.058940563
246	0xbbe896b5	-0.007098044
247	0x3dbcd77a	0.092207864
248	0xbdaa5f59	-0.08318967
249	0x3d9450d9	0.07241983
250	0x3d594304	0.053042427
251	0xbd896004	-0.06707767
252	0x3da69bb2	0.08135165
253	0x3bd0a8e9	0.006367792
254	0x3d47127b	0.04860161
255	0xbc35bd4d	-0.011092496

core.core.fc.0.0.bias f4 [128]
0	0x3e338082	0.1752949
1	0x35ace464	1.2881469e-06
2	0x3d50bcac	0.05096118
3	0x3cfe6f52	0.031058941
4	0x384770bc	4.755029e-05
5	0xb6067578	-2.0035932e-06
6	0x3e390a80	0.18070412
7	0x3e28aabe	0.16471383
8	0x3c26b8a9	0.010175862
9	0x3e2f638a	0.17127815
10	0x3d1bf532	0.038075633
11	0xbc90d4ea	-0.01767965
12	0xbc034eac	-0.008014362
13	0xb064d47e	-8.3247886e-10
14	0xbc3b9496	-0.011449
15	0x3e4f91ce	0.20270464
16	0x3d383cf0	0.04497999
17	0xbce656ac	-0.0281175
18	0x3d89c5ef	0.06727206
19	0x3da60441	0.0810628
20	0xbce89104	-0.028389461
21	0x3e215a24	0.15757042
22	0x3de9af22	0.11410357
23	0x3b915cc7	0.0044361087
24	0x3e04d655	0.12972386
25	0x3df820d2	0.12115635
26	0x3df11d4b	0.11773165
27	0x3cff66bb	0.031176915
28	0x3db48a52	0.08815445
29	0x3e8a8961	0.27057937
30	0x3e518c84	0.20463759
31	0x3e0741d8	0.13208711
32	0x3d7cc8b6	0.06171485
33	0x3e12d72d	0.14339896
34	0x3e6fd85c	0.23422378
35	0xbca0896f	-0.019596783
36	0x3873626d	5.802738e-05
37	0x3d80c34d	0.06287251
38	0xbc8642b5	-0.01638923
39	0xbd025e51	-0.03182823
40	0x3e29b880	0.16574287
41	0x3d96e541	0.073679455
42	0x3daabe41	0.08337069
43	0x34022f6c	1.2124445e-07
44	0x3d61effc	0.055160508
45	0xb7d31383	-2.5162246e-05
46	0x3da5cd5e	0.08095811
47	0x3da6ad1a	0.08138485
48	0x3e1a24c9	0.15053095
49	0x3e24e97b	0.1610469
50	0x390940e0	0.00013089506
51	0x3bbff7ec	0.005858412
52	0xbcb225e6	-0.021746587
53	0x3dcb7b3a	0.09935613
54	0x3d266d01	0.040631298
55	0x3c722f97	0.014781854
56	0x3b92dfaa	0.0044822292
57	0x3deee63e	0.11665009
58	0x3e7a3f26	0.24438152
59	0x34d55b03	3.974056e-07
60	0x3e376d91	0.1791289
61	0x3e1fe865	0.15615995
62	0x3db67172	0.08908357
63	0x3db444af	0.08802163
64	0x3e83a254	0.25709784
65	0x3e521d88	0.20519078
66	0x35f71d47	1.8411455e-06
67	0x3e1dddd0	0.15416646
68	0x3e410c17	0.18852268
69	0x3e5f45aa	0.21803918
70	0x3e70f5d7	0.2353128
71	0x3e5171ce	0.2045357
72	0x36e11139	6.7075275e-06
73	0x3e3c0499	0.18361129
74	0x3e0e438c	0.13892955
75	0xb5487ff8	-7.4692025e-07
76	0x3d84e2cc	0.064885706
77	0x32e537da	2.6684507e-08
78	0xb843b3a1	-4.6658915e-05
79	0x39d2c44f	0.00040200583
80	0x3cf9ee21	0.030509057
81	0xbc371c3e	-0.011176167
82	0x3cb2d208	0.021828666
83	0x3e20c7f7	0.1570128
84	0xb5306810	-6.571654e-07
85	0x3d14987a	0.036278225
86	0x3e2c0ce6	0.16801795
87	0xbcfc2803	-0.030780798
88	0x3e2b4edb	0.167293
89	0x3e4e0e8d	0.20122738
90	0x3d69cbde	0.05707919
91	0x3cde122e	0.027108278
92	0x3c909c30	0.017652601
93	0x3ddd4177	0.10803502
94	0x3e5a2013	0.21301298
95	0x3b56e30a	0.0032789134
96	0x3e6300d7	0.22168289
97	0x3e6681d1	0.22510459
98	0x3cc17272	0.023614142
99	0xb59f614d	-1.1874741e-06
100	0x348a0410	2.570746e-07
101	0xbc4fc51d	-0.012681273
102	0x3dd83ef6	0.10558884
103	0x3e5b262f	0.21401285
104	0x3e58113a	0.21100321
105	0x3d438e89	0.047743354
106	0x3e225bb4	0.15855294
107	0x3765ef44	1.3705172e-05
108	0x3e5ac52e	0.2136428
109	0x3e50f15e	0.20404574
110	0xbc84496a	-0.016148288
111	0x3da00731	0.07813872
112	0xbd3a19a9	-0.045434628
113	0x37ce46b7	2.4590043e-05
114	0xbb90e549	-0.004421864
115	0x3df5c789	0.12000949
116	0x3c864292	0.016389165
117	0x3e310dde	0.17290446
118	0x3e423792	0.18966511
119	0x3de42f93	0.111418866
120	0x3b41b06f	0.0029554626
121	0x3c1b9bb6	0.009497574
122	0x3e571ab6	0.21006283
123	0x3e842b4f	0.25814292
124	0xbcb81395	-0.022470275
125	0x3e294405	0.16529854
126	0xb47e857d	-2.3704156e-07
127	0x3de23520	0.11045289

core.core.fc.1.0.weight f4 [64, 128]
0	0x3cbf5414	0.023355521
1	0x351d1f7a	5.853286e-07
2	0x3c35d77a	0.011098737
3	0xbc40d988	-0.0117706135
4	0x3c19b6ce	0.009381963
5	0xb47d18cc	-2.3571482e-07
6	0xbded2984	-0.11580184
7	0xbb7aa5e1	-0.0038245844
8	0x3d6b55d8	0.057454914
9	0x3bc10f8e	0.005891747
10	0xbdff5ff9	-0.12469477
11	0xbbcb8c4b	-0.0062117926
12	0x3d04033c	0.032229647
13	0xb281db13	-1.51172e-08
14	0xbb76bfee	-0.003765102
15	0x3d42333c	0.047412142
16	0xbc6d441f	-0.014481573
17	0x3e931d5c	0.28733337
18	0x3cb54415	0.02212719
19	0x3d115207	0.035478618
20	0xbc01c359	-0.00792011
21	0x3ecfb966	0.40571135
22	0xbdd885bc	-0.10572383
23	0x3b3cc1b0	0.002880197
24	0xba0f85f6	-0.0005474979
25	0xbd768cf0	-0.060193002
26	0xbd992919	-0.07478542
27	0xbbd32683	-0.0064438
28	0xbd06ea32	-0.03293819
29	0x3e271bbb	0.16319172
30	0xbd8ead9f	-0.06966709
31	0xbd621a72	-0.055201
32	0x3e2056c4	0.15658098
33	0xbd33d382	-0.04390288
34	0xbf89f530	-1.077795
35	0x3ca7689f	0.02043563
36	0x37394c20	1.10445835e-05
37	0x3da1493b	0.07875296
38	0x3ce9271f	0.028461037
39	0x3e68a55b	0.22719328
40	0xbd3a1dfd	-0.045438755
41	0xbde7c486	-0.11316781
42	0x3cf2078d	0.029544616
43	0x32e9b444	2.7206745e-08
44	0xbd8d38f3	-0.06895628
45	0xb66d7676	-3.5384705e-06
46	0x3d014b46	0.031565927
47	0x3d99708d	0.074921705
48	0x3da8925a	0.08231039
49	0xbcc62fc7	-0.024192704
50	0x384b2d40	4.8441114e-05
51	0x3ad94249	0.0016575541
52	0xbbd59c9a	-0.0065189125
53	0x3ed2f96d	0.41205922
54	0xbd6674d5	-0.056263763
55	0x3d3a282b	0.045448463
56	0x3c2b8b61	0.010470242
57	0x3ce75371	0.02823803
58	0x3e16f467	0.1474167
59	0x335c41fb	5.128275e-08
60	0x3cf66a9f	0.030080138
61	0xbe0d0ab0	-0.13773608
62	0x3ddd8680	0.108166695
63	0x3e981225	0.29701343
64	0xbd8cc799	-0.06874008
65	0x3d9f4922	0.07777621
66	0x35de2bdd	1.6553055e-06
67	0x3d421a3d	0.047388304
68	0x3d911390	0.070838094
69	0x3dd7761b	0.10520574
70	0x3d923fe3	0.07141092
71	0xbcbbe06f	-0.022934167
72	0x3602121b	1.9382048e-06
73	0x3e18e9b0	0.14932895
74	0x3cdbc8bb	0.026829114
75	0xb3fe64ca	-1.184613e-07
76	0xbb7050d4	-0.003666927
77	0x3231410f	1.0317549e-08
78	0xbb054f8a	-0.0020341598
79	0x3d069528	0.03285709
80	0xbd50c024	-0.05096449
81	0xbb5dd061	-0.0033846127
82	0x3b9c84af	0.0047765593
83	0x3e2bfd72	0.167959
84	0xb41bafdc	-1.4499477e-07
85	0x3c49926f	0.012302979
86	0x3ca9bd39	0.020720111
87	0xbbd04fb5	-0.006357158
88	0xbd0e0941	-0.034676794
89	0xbca51a49	-0.020154135
90	0xbd58a1d8	-0.05288872
91	0xbd7ee03f	-0.062225576
92	0x3d028cff	0.031872746
93	0x3cc9c3d7	0.024629517
94	0xbc1b7957	-0.009489379
95	0xbbed4b7b	-0.007241664
96	0x3d0c07ca	0.034187116
97	0x3e0fac6e	0.1403062
98	0xbcef3565	-0.029200265
99	0x35368b6e	6.800318e-07
100	0x333387b9	4.1800124e-08
101	0x3ccf2caa	0.025289852
102	0xbedee752	-0.43535858
103	0xbf34adff	-0.70577997
104	0x3ba72fe1	0.005102143
105	0xbddcbcf2	-0.10778226
106	0xbdea6ab9	-0.11446137
107	0x361f96fb	2.3780728e-06
108	0x3ede7c9a	0.43454438
109	0x3d99ddb4	0.0751299
110	0x3bc3ca0a	0.0059750127
111	0xbdad6982	-0.0846739
112	0x3b5b713a	0.0033484236
113	0x38508d2a	4.9722534e-05
114	0x3c8e3a6d	0.017361844
115	0xbe199848	-0.14999497
116	0x3ba60e3f	0.0050676162
117	0xbd94faa0	-0.072743654
118	0xbf144546	-0.579182
119	0xbdcac0d5	-0.09900061
120	0x3c030187	0.00799597
121	0x3b4b8698	0.0031055566
122	0xbe09ae47	-0.13445388
123	0x3f1e2c45	0.617863
124	0x3d1abea9	0.037779484
125	0xbe4a6405	-0.19764717
126	0xb3259ec2	-3.8561446e-08
127	0xbe22563c	-0.15853208
128	0xbc1e2e52	-0.009654598
129	0xb53f514b	-7.127134e-07
130	0x3b602953	0.0034204319
131	0xbcb00994	-0.021488942
132	0xbc170db2	-0.009219574
133	0xb3523dcc	-4.895064e-08
134	0x3b7bc36a	0.0038416036
135	0x3c70d2da	0.014698708
136	0xbc7e811b	-0.015533711
137	0x3c8e9b9f	0.01740819
138	0xbc23df03	-0.010001901
139	0xba47491a	-0.00076021405
140	0xbc866b24	-0.01640851
141	0xb148462c	-2.9143719e-09
142	0xb9d84deb	-0.00041256784
143	0x3cc4b0af	0.02401003
144	0xbcc3aa1f	-0.023884831
145	0xbca1aadc	-0.019734792
146	0x3ba53a8d	0.00504238
147	0x3c00b621	0.007855923
148	0xbadb8b3a	-0.0016749867
149	0xbd8350fb	-0.0641193
150	0xbbcafbc1	-0.006194562
151	0xbc1f6ee4	-0.009731028
152	0x3c24016a	0.010010103
153	0x3c0b2db9	0.008494788
154	0xbab81eea	-0.0014047299
155	0x3a130726	0.000560867
156	0x3b853a9a	0.0040658237
157	0xbbc0bf7e	-0.0058822026
158	0x3ca54e69	0.02017899
159	0x3c70c2f1	0.014694915
160	0x3c2cdf72	0.01055132
161	0x3c912e76	0.01772235
162	0xbcb9fada	-0.022702623
163	0xbc7fc5d5	-0.015611132
164	0x35997aa2	1.1435079e-06
165	0xbc662c8c	-0.014048707
166	0xbc54cd0d	-0.012988341
167	0xbc8269f7	-0.015919669
168	0x3b5913cc	0.0033123372
169	0x3b9b9e49	0.0047490937
170	0x3bff27a6	0.007786709
171	0x2fc7deec	3.6356285e-10
172	0xbbabdd21	-0.0052448665
173	0xb525f25b	-6.1819964e-07
174	0x3b8b1bbb	0.004245249
175	0x3ac72608	0.0015193829
176	0x3c9531cb	0.01821222
177	0xb90820ed	-0.00012982237
178	0x33c32540	9.087171e-08
179	0x3931a029	0.000169397
180	0xba87d9f6	-0.001036464
181	0xbd83ee34	-0.06441918
182	0xbd1e6206	-0.0386677
183	0xbc900918	-0.017582461
184	0xbc911436	-0.017709833
185	0x3c0e126d	0.008671385
186	0x3b7c5d7a	0.0038507865
187	0x3216c6fd	8.776394e-09
188	0x3c6df5dc	0.0145239495
189	0x3bd57b76	0.006514962
190	0xbc93d17d	-0.018044228
191	0xbce574a2	-0.028009716
192	0x3c92d7b3	0.017925119
193	0x3d125dad	0.035733867
194	0x3507c216	5.057385e-07
195	0x3b77e6b2	0.0037826714
196	0x3cbba23d	0.02290451
197	0x3cf5eb2f	0.03001937
198	0x37bb1502	2.230192e-05
199	0x3c28b874	0.010297883
200	0x34262538	1.5473495e-07
201	0x3b3e0783	0.0028996177
202	0x3c25dc38	0.010123305
203	0xb24bc028	-1.1859846e-08
204	0x3b80bae0	0.0039285272
205	0x30be1c36	1.3832337e-09
206	0xba64b504	-0.0008724483
207	0xbc7cec0c	-0.015437137
208	0xbca76ccb	-0.020437619
209	0xb9ba5574	-0.00035540352
210	0x3a97028f	0.0011521148
211	0xbcefe4c0	-0.029283881
212	0xb223c5ff	-9.532868e-09
213	0xbcc3e30d	-0.023911977
214	0x3cc19af0	0.02363345
215	0xbb81c870	-0.0039606616
216	0xb96e09c9	-0.00022701094
217	0x3cace88d	0.021106983
218	0xbc54980e	-0.012975706
219	0xbd24d9cf	-0.04024678
220	0xbc9d3e49	-0.019194739
221	0x3c18f3a4	0.009335432
222	0x3c78aedc	0.0151784085
223	0xb9299e39	-0.00016176038
224	0x3ce3a8d8	0.027790472
225	0x3cc48961	0.023991289
226	0xbb4e5a83	-0.0031487055
227	0x34b607f6	3.3905934e-07
228	0x31c7c69c	5.8142415e-09
229	0xbc34c506	-0.011033302
230	0xbc5e5a67	-0.013571358
231	0xbc3b586f	-0.011434658
232	0x3bc2fb24	0.0059503485
233	0xbcadca46	-0.021214616
234	0x3b3b176e	0.00285479
235	0x34bec034	3.5530104e-07
236	0xbb8efc26	-0.0043635545
237	0x3b4cfde7	0.0031279267
238	0xbbe82375	-0.007084305
239	0xbcb21e14	-0.021742858
240	0xbc3ff2ef	-0.011715635
241	0x36b775ec	5.467553e-06
242	0xbc65ce29	-0.014026203
243	0xbb7d7ad1	-0.003867794
244	0x3a452c81	0.0007521585
245	0x3b57146a	0.0032818564
246	0xbca77335	-0.020440677
247	0x3b8cd5cf	0.004297949
248	0xbce6bc6d	-0.02816602
249	0x39a3803e	0.0003118533
250	0x3c0f5614	0.00874855
251	0xbc325a6b	-0.010885815
252	0xbc824ae5	-0.015904853
253	0x3b8ed3d1	0.0043587466
254	0xb1ac4e62	-5.01477e-09
255	0xbb25c9f2	-0.002529737

core.core.fc.1.0.bias f4 [64]
0	0x3e3d246f	0.1847093
1	0x3daff812	0.085922375
2	0xbd1a9f50	-0.03774959
3	0xbd83929e	-0.064244494
4	0xbb32da83	-0.0027290888
5	0xbc4f9228	-0.012669124
6	0x3c7fabae	0.0156048965
7	0xbd15a3ae	-0.03653305
8	0x3da4818a	0.0803252
9	0x3dc028a5	0.09382752
10	0xbd36661b	-0.04453097
11	0x3e296c49	0.16545214
12	0x3dbbeed8	0.09176415
13	0x3d40d4ee	0.047078066
14	0x3d1e60d8	0.038666576
15	0xbd3b21bd	-0.045686472
16	0xb9c533f1	-0.00037613467
17	0xbd4690f4	-0.04847808
18	0x3d981a6d	0.07426915
19	0x3e350ed2	0.17681435
20	0xbcd5f24f	-0.026116518
21	0x3df0dfd3	0.11761441
22	0x3dbd81e5	0.09253291
23	0xbdfa8d04	-0.12233928
24	0xbd4678f9	-0.048455212
25	0x3bde945e	0.006792589
26	0x3d4de101	0.05026341
27	0x3d71b8af	0.05901402
28	0xbd4cae6a	-0.04997102
29	0xbd3f2a8a	-0.046671428
30	0x3e440cfa	0.19145575
31	0x3e2e8910	0.17044473
32	0xbd57d762	-0.05269564
33	0x3cd0f94d	0.0255095
34	0xbd3e4762	-0.046454795
35	0xbd296e85	-0.041365165
36	0x3dbc4aec	0.09193978
37	0x3df3abfb	0.11898037
38	0xbd440d0f	-0.047864016
39	0x3dc07a76	0.093983576
40	0xbd06729d	-0.032824147
41	0x3ddd0333	0.10791626
42	0xbd23342d	-0.03984468
43	0xbceea253	-0.029130137
44	0xbb19b5b2	-0.0023454246
45	0x3ca4a055	0.020095984
46	0xbc9c8f9e	-0.01911145
47	0x3de2d876	0.11076443
48	0x3b89529d	0.0041907565
49	0x3dc2ea98	0.095174015
50	0xbda33294	-0.079686314
51	0x3d258055	0.04040559
52	0x3cdb3697	0.026759429
53	0xbd00fa8f	-0.03148895
54	0x3e2782df	0.16358517
55	0x3e262431	0.16224743
56	0xbc6c58f7	-0.014425508
57	0xbd54ddcf	-0.051969346
58	0xbc5b0d1b	-0.013369824
59	0xbd37fd8d	-0.04491954
60	0xbc47c4bd	-0.012192902
61	0x3d91a002	0.07110597
62	0x3b9710c0	0.004610151
63	0x39313a1f	0.00016901687

readout.readouts.bex_20230623_denoised.location.weight f4 [2, 64]
0	0x3f3cfc97	0.7382292
1	0xbd8ce629	-0.06879837
2	0xbe4bc600	-0.1989975
3	0xbe86df8d	-0.2634243
4	0xbc72e029	-0.014823952
5	0xbd950180	-0.07275677
6	0xbe1bf9e8	-0.1523205
7	0xbe1a1d1f	-0.15050171
8	0xbf07e7b7	-0.53087944
9	0x3daf769f	0.08567547
10	0xbded5fa1	-0.115905054
11	0x3ca48a28	0.02008541
12	0x3d9774b4	0.07395306
13	0x3d29ae57	0.04142603
14	0x3d4fa09e	0.050690286
15	0xbd0092e8	-0.0313901
16	0x3d92c584	0.07166579
17	0xbe03ba23	-0.12863974
18	0xbe8a4fb8	-0.27013946
19	0x3e4e1b3c	0.20127577
20	0xbe55c984	-0.20877653
21	0x3e259153	0.16168718
22	0x3e77d563	0.24202494
23	0xbe4d0717	-0.20022236
24	0xbe0824ed	-0.13295336
25	0xbe2ce765	-0.16885145
26	0xbe893c87	-0.2680399
27	0x3e2d7156	0.16937765
28	0xbdacd9b3	-0.0843996
29	0xbeaf4b2d	-0.34237042
30	0xbc24728d	-0.010037077
31	0x3d8a4dc0	0.06753111
32	0xbe06469f	-0.13112877
33	0x3c8a5358	0.016885445
34	0xbe4d26f9	-0.20034398
35	0xbe107c5b	-0.14109938
36	0x3e043198	0.12909544
37	0x3e8eaaff	0.27864835
38	0xbdf7498c	-0.12074575
39	0x3e461b37	0.19346319
40	0xbd858b60	-0.06520724
41	0x3ce5de5d	0.028060133
42	0xbe637d68	-0.22215807
43	0xbd831332	-0.064001456
44	0x3e2581df	0.16162823
45	0x3d0dd5b1	0.03462762
46	0xbd6aab84	-0.057292476
47	0xbcaee980	-0.021351576
48	0x3d0891e1	0.033342246
49	0x3e07b749	0.13253511
50	0x3c930fa3	0.017951792
51	0xbed8f258	-0.42372394
52	0x3e1f10c1	0.15533735
53	0xbe4e02e4	-0.2011829
54	0xbecbad64	-0.39780724
55	0x3e3f88fb	0.18704598
56	0x3cdcc557	0.026949568
57	0xbe2cf24e	-0.16889307
58	0xbe26993d	-0.16269393
59	0xbe4062c7	-0.1878768
60	0x3cb72b0a	0.02235939
61	0xbd285bf5	-0.041103322
62	0x3d95f659	0.07322378
63	0xbe4cbe03	-0.19994359
64	0xbe160628	-0.14650786
65	0xbb045b25	-0.0020195928
66	0x3ae3f31f	0.0017391181
67	0x3d2c9c8e	0.04214149
68	0x3e0edf33	0.13952331
69	0xbdd20beb	-0.102561794
70	0x3d04c011	0.03240973
71	0xbda67a53	-0.081288
72	0x3e503184	0.20331389
73	0xbd5e0979	-0.054208253
74	0xbddc4570	-0.10755432
75	0x3dfd31b5	0.123629965
76	0x3e87f047	0.26550505
77	0x3a341372	0.00068693527
78	0x3e624f37	0.2210053
79	0xbd74878a	-0.059699573
80	0x3cb4ab0c	0.022054218
81	0xbdca4c30	-0.09877813
82	0x3d910aff	0.070821755
83	0x3e30b784	0.17257506
84	0x3bca79c0	0.0061790645
85	0xbddc718b	-0.10763844
86	0xbd497f8c	-0.049193904
87	0xbd8d67f8	-0.06904596
88	0xbe0dafa7	-0.13836537
89	0xbdf22855	-0.11824099
90	0xbdf1aa0b	-0.11800011
91	0x3e943a7a	0.28950864
92	0xbd4d3638	-0.050100535
93	0x3d86bddf	0.06579184
94	0x3e42eef2	0.19036463
95	0x3e60bae4	0.21946293
96	0xbdd2604b	-0.10272273
97	0xbe0c68f0	-0.13711905
98	0xbd68f8b9	-0.056877825
99	0x3c91c3e5	0.017793605
100	0x3e714ad9	0.23563708
101	0x3cb24f7c	0.021766417
102	0xbe0370a3	-0.12835936
103	0xbddfb512	-0.10923208
104	0xbd1cfdfc	-0.038328156
105	0xbd24afb2	-0.04020662
106	0x3d7b4060	0.06134069
107	0xbdfdd857	-0.12394779
108	0x3e358c2d	0.17729254
109	0x3d8ca368	0.06867105
110	0xbe20a42b	-0.15687625
111	0x3eb56513	0.35428676
112	0xbe07f7d5	-0.13278134
113	0x3e18403f	0.14868258
114	0xbe67c81c	-0.2263493
115	0x3cc94bd0	0.024572283
116	0x3d4efe19	0.050535295
117	0xbdca3391	-0.09873117
118	0x3e2e79bd	0.17038627
119	0xbd6b902f	-0.05751055
120	0xbc5b0a9f	-0.0133692315
121	0xbdd7e7a3	-0.10542228
122	0x3abe0057	0.0014495951
123	0xbd701d4e	-0.058621697
124	0x3e0a9e3c	0.13536924
125	0x3e9f5f77	0.3112752
126	0x3da41260	0.08011317
127	0xbc469db7	-0.012122563

readout.readouts.bex_20230623_denoised.location.bias f4 [2]
0	0x3cb14b03	0.021642214
1	0x3e01b24b	0.1266567
