artifacts/poses_to_location/20250820212632/best_model.pt (torch, 731765 bytes, 54 tensors)

embedding.embeddings.bex_20230623_denoised.poses.weight f4 [128, 14]
00000000: 66fa b63e 2518 20be 02e9 413e 1ce2 22bf
00000010: c971 5d3d d73f 203e 4df7 a638 7b26 8bb7
00000020: ac4d 9cb5 229b 3035 f46c cc32 4388 df38
00000030: 0a65 6fba 2512 98bf 4791 013f 8a46 ac3e
00000040: eb6b 90bd 09c6 f0be c329 3b3e e303 cc3e
00000050: fc87 9f38 f46d 98b7 c2bc 25b6 ce0b 4935
00000060: e707 1134 0779 6439 f27c 92ba dfd7 4dbf
00000070: 18f8 203e 07ad 963e 3bb1 d03e 868f cc3e
00000080: c3e8 81be 63fb 593f bd91 2d39 84c4 54b7
00000090: 1adc c735 f363 0336 d950 91b5 712c dc39
000000a0: 978f 4dbb 45d3 e9bf 0447 563e 3da7 663e
000000b0: 390a 54be ed3d 3dbf 9680 07bf f14d ad3e
000000c0: 4d09 c2b6 a402 fe35 12a5 2f35 8808 5835
000000d0: 0636 8635 2003 6cb7 ed12 71ba ee0e 99bf
000000e0: 87a8 06bd 47cd 9fbd b180 453e 69a7 c43e
000000f0: c1b7 b2be 597c aa3f ef7a 0138 4c87 4d38
00000100: 1010 2435 897b 2536 b4d7 e534 ee4a 8d38
00000110: 5b9d 61bb 88d6 d6bf 5358 213f 1b37 cdbd
00000120: 92f8 24be be64 c8bd bd70 993e 8695 54bf
00000130: 3c4b c238 d9f6 d8b8 1870 14b6 167f 83b5
00000140: d581 2fb5 ab9c 1e39 3758 a13a c74e 643f
00000150: 6345 903e 03f5 bb3b 7893 8fbf 0aaf e0be
00000160: 591e 6cbf 2970 523f b435 79b9 2355 b139
00000170: 0f2f 5cb6 90a4 8336 c459 2f36 ff9e aeba
00000180: c01c b5bb 0105 e5be bfbe 143e bb50 2fbe
00000190: dc2c a4bd 12b6 983a 97bc 103f 702a b4bf
000001a0: 9b01 4638 6a4e 33b9 067e 4eb5 9b92 83b6
000001b0: 7d21 b0b5 ff7b 0c38 0c7d 983b b095 c03f
000001c0: e42f 5cbe 58c7 c13e dae9 293f 834e a73e
000001d0: 1e87 0a3e 1acf 25be 5de9 8438 9c85 8337
000001e0: b084 b735 bd1f 9934 63cf d2b5 8ec7 0f3a
000001f0: e90d 97b9 c5b0 233f 405f 653e 3e30 5dbd
00000200: 97c1 3ebe 5097 dfbe f7b1 1e3e c9b0 46bf
00000210: da7c 8f36 71c2 09b8 15d3 beb5 803b 81b5
00000220: eb5b 8ab4 5742 d738 1832 833a 6d4f 993f
00000230: 32aa 94be 17e5 d8bd cf05 ec3e 6814 c23e
00000240: f786 7fbf f5ab 933f 9d6b e8b8 4bbb 2c39
00000250: 016d 0e36 dd38 8a36 5461 a535 d597 2d38
00000260: 3b51 6cbb b904 b1bf 7303 063f bed6 703d
00000270: 53d8 81be e264 003f 1f6b ec3e ef78 413f
00000280: b36f 3b39 05cb 81b8 d0e0 49b6 e79a 1f35
00000290: 8a6e 35b5 6279 a139 fcd6 efba 8df6 9dbf
000002a0: 421d f4be 48f5 9c3d 28ec a13e 934b 0b3f
000002b0: 9cea f83c 1aa1 06be c3e3 14b7 f74d bc37
000002c0: bf80 9035 8303 f9b3 dbbc a6b4 9446 c1b6
000002d0: d013 9e38 c556 373f da3b eabe 356b 60be
000002e0: d45d 7a3e 39ea 383f e668 b0bd 2a32 ebbe
000002f0: 50a6 9038 8fce 6fb8 58a3 1435 d879 ecb5
00000300: 73b0 bdb5 1cb3 4c39 8762 4e3a 801f 3e3f
00000310: 2362 ae3d cee3 573e 2c55 4cbe 5fb0 fcbe
00000320: 51c6 32bd 9b04 09bf 4b44 b0b7 24fb a3b7
00000330: 1517 1ab6 0155 a8b3 000c 09b1 5099 0238
00000340: 7392 353a 2b48 a43f d9f4 28bf 0690 a7be
00000350: f54d 7ebd 4179 363e e6cd e3be caa2 1bbf
00000360: 7158 f0b9 a8c4 8039 bab4 3137 8258 a6b5
00000370: 5dcb 6a35 1647 aeba 9f08 a13b 1121 bc3f
00000380: 27a0 ee3e 9328 7e3e 797d dfbe b777 efbd
00000390: bb6a a33e 932a 6ebf e880 5a38 eff6 ceb7
000003a0: e56d c6b5 c088 80b5 e466 20b5 58e2 e738
000003b0: 3bc1 063a 39fe 9c3f 9dd6 89be 278e 40be
000003c0: 2635 3dbe d8d5 033f 9676 213e bf67 3ebf
000003d0: 1e48 23b8 aeaa 7ab7 a41c 0f35 8052 e3b5
000003e0: c598 25b4 a3a7 2db9 e298 e13a e3f9 a13f
000003f0: 9809 d7be d9b1 8fbc f695 073f c68e ba3d
0.35737914 -0.1563421 0.18936542 -0.63626266 0.054063592 0.15649353 7.96156e-05 -1.658801e-05
-1.1645511e-06 6.579086e-07 2.3798272e-08 0.00010658849 -0.00091321825 -1.1880537 0.506123 0.33647567
-0.07051834 -0.4702609 0.1827765 0.39846715 7.60704e-05 -1.8171013e-05 -2.4696787e-06 7.4895513e-07
1.3507052e-07 0.0002178886 -0.0011176153 -0.8040752 0.1571964 0.29428884 0.40760216 0.3995325
-0.25372896 0.8514921 0.00016552857 -1.268194e-05 1.4890713e-06 1.95787e-06 -1.0826872e-06 0.0004199478
-0.0031366104 -1.8267599 0.20925528 0.22524734 -0.20707025 -0.73922616 -0.5293058 0.33848527
-5.7827333e-06 1.8925243e-06 6.543279e-07 8.0478685e-07 9.999501e-07 -1.4067424e-05 -0.00091962406 -1.1957681
-0.032875564 -0.078028254 0.19287373 0.38408974 -0.34905818 1.3319198 3.0870488e-05 4.9001814e-05
6.1118135e-07 2.4658823e-06 4.281152e-07 6.737361e-05 -0.0034426067 -1.678422 0.630254 -0.10020276
-0.16110447 -0.0978484 0.29968825 -0.83040655 9.264654e-05 -0.000103456616 -2.2118966e-06 -9.797247e-07
-6.538151e-07 0.00015126418 0.0012309615 0.89182705 0.28177938 0.005735995 -1.1216879 -0.43883544
-0.92233807 0.8220239 -0.00023766496 0.00033823503 -3.2809946e-06 3.923262e-06 2.6129283e-06 -0.0013322531
-0.005527109 -0.4473038 0.14525889 -0.1712064 -0.08016369 0.0011650941 0.56537765 -1.4075451
4.7208374e-05 -0.00017099982 -7.692437e-07 -3.9211714e-06 -1.3122768e-06 3.349408e-05 0.0046535786 1.5045681
-0.21502644 0.378474 0.66372454 0.32677087 0.13528106 -0.16192284 6.337718e-05 1.5678634e-05
1.367318e-06 2.8521563e-07 -1.5706577e-06 0.0005484753 -0.00028811328 0.63941604 0.22399616 -0.054001085
-0.18628536 -0.4367013 0.15497576 -0.776135 4.2762667e-06 -3.2844433e-05 -1.4217536e-06 -9.628566e-07
-2.5771382e-07 0.00010264356 0.0010009436 1.1977364 -0.290361 -0.105905704 0.46098182 0.37906194
-0.99815315 1.1536852 -0.000110826666 0.0001647297 2.1223098e-06 4.1193402e-06 1.2321784e-06 4.138782e-05
-0.003605916 -1.3829566 0.52349013 0.058798544 -0.25360355 0.50153935 0.46175477 0.75575155
0.00017875321 -6.189015e-05 -3.0082192e-06 5.945753e-07 -6.758861e-07 0.0003079875 -0.0018298323 -1.2340866
-0.47678572 0.07663971 0.31625485 0.5441219 0.030385308 -0.13147393 -8.874517e-06 2.2447652e-05
1.0766306e-06 -1.1595605e-07 -3.105732e-07 -5.7600646e-06 7.5377175e-05 0.71616775 -0.45748788 -0.21915896
0.24449855 0.72232395 -0.08613758 -0.4593671 6.897433e-05 -5.7174413e-05 5.5371993e-07 -1.7618831e-06
-1.4132951e-06 0.0001952168 0.0007872958 0.74266815 0.08514812 0.21082994 -0.19954365 -0.4935331
-0.04364616 -0.5352265 -2.1012636e-05 -1.954806e-05 -2.2961224e-06 -7.838572e-08 -1.9942945e-09 3.11372e-05
0.00069264247 1.2834524 -0.6599861 -0.3272707 -0.062086064 0.17819692 -0.44493026 -0.6079527
-0.0004584226 0.00024560583 1.0592101e-05 -1.2393723e-06 8.7467726e-07 -0.0013296332 0.004914358 1.4697591
0.46606562 0.24820165 -0.43650416 -0.11692756 0.31917366 -0.93033713 5.2095304e-05 -2.4672101e-05
-1.4784133e-06 -9.576543e-07 -5.975437e-07 0.00011057098 0.0005140488 1.2265083 -0.2692155 -0.18804227
-0.18477306 0.51498175 0.15767893 -0.74377054 -3.8929393e-05 -1.4940901e-05 5.331333e-07 -1.6936829e-06
-1.54224e-07 -0.00016561015 0.00172117 1.2654384 -0.41999507 -0.017540859 0.529632 0.09109263

embedding.embeddings.bex_20230623_denoised.poses.bias f4 [128]
00000000: dad9 30be 5220 dbbd c863 84bc 2e4b 1fbe
00000010: bb2f 393c 48f1 1ebe 02ed 9abc 03b2 de3c
00000020: 9b69 40bc 516c 33be 6377 823c 9afa 263d
00000030: 4445 3dbe 7bb7 75bd decb 48bd 869b 4bbb
00000040: 1f89 34be cc69 393e 3371 a03d 2f64 0dbc
00000050: 7c68 c4bb 67d5 193e e7e8 41be 9e90 2f3e
00000060: e2b1 513d 47c2 9ebd 13ab 5f3e d4d5 7f3d
00000070: 86df 233e 17b7 72be 16b4 05bd b316 d1bd
00000080: fc6d 57be 205f bf3c 77b4 40bc 6625 453e
00000090: 1257 6c3d aac6 63be 1ddf 3ebe f823 3dbd
000000a0: 14f5 00be adbb b53d 64c7 453e 660a 98bd
000000b0: 75fc abbc 74b3 2bbe 8859 b3bd a238 21be
000000c0: b876 24bd fa78 723e 44c3 353e 46d2 35be
000000d0: bb94 5bbe c93b 1fbe b1d9 ed3d 3ea2 a6ba
000000e0: 4de0 adbd a9f9 08be c0fc 8d3d 99e6 42be
000000f0: 19dd 113e 8de0 1b3e a975 06be 2658 093e
00000100: d2d6 ecbb f68d 603e cba6 55bd f685 4ebe
00000110: 37d9 12be 7007 ef3d 56a8 3a3e 281f 3e3e
00000120: 055f e9bd 15d5 c6ba e8c7 0fbe 557a c43d
00000130: 820f 943c 85ab b03d 8309 3d3e 0a2c 443a
00000140: f034 57be 3f76 fbbd 45ad 9d3d 9cde f3bd
00000150: 69a1 943c 7052 3d3c 0019 1dbe 466c 44bd
00000160: 3c5f 75bd 6165 8b3d efab 88bb d444 b43d
00000170: 816e 593d d64b 033e 6feb 22be f57b c43c
00000180: 04a2 093e eaf4 f6bb b363 c4bc 5b33 1c3e
00000190: 2e41 fe3d 116e 54be f6bd 89bc 3a15 f03a
000001a0: 6801 9dbd 57a2 32be 8134 01be 61e2 053e
000001b0: ac60 31be 278f 59be 8cb7 503d 7b41 32bc
000001c0: d48f 2cbe a4fd 2abe 2391 38bd 6027 443d
000001d0: f24a 503e 81a4 333e c684 29be 7742 df3d
000001e0: 37e9 f83d 5f88 783e 30fd 463e da58 cd3d
000001f0: 0820 07be 17ea a8bd 0a43 033d 178b e43d
-0.17270604 -0.10699524 -0.01616086 -0.15556023 0.011302884 -0.15521729 -0.018911842 0.027184492
-0.011743928 -0.17521788 0.015926069 0.040766336 -0.18483454 -0.059989434 -0.049022548 -0.003106804
-0.17630433 0.18106765 0.07834091 -0.008629843 -0.005993901 0.15022813 -0.18936501 0.17145011
0.051195033 -0.07751899 0.21842603 0.06245978 0.16003236 -0.23702656 -0.032642446 -0.10209408
-0.2103805 0.023360789 -0.011761776 0.19252548 0.057700224 -0.22243753 -0.18639798 -0.04617688
-0.1259349 0.08873687 0.19314343 -0.07423858 -0.020994404 -0.16767675 -0.08757311 -0.1574426
-0.04015228 0.23678961 0.17750269 -0.17755994 -0.21443455 -0.1555015 0.11613787 -0.0012713147
-0.084900476 -0.13376488 0.06932974 -0.19033279 0.14244498 0.15222378 -0.13130821 0.13412532
-0.007227757 0.21929154 -0.05216102 -0.2016829 -0.14340673 0.116713405 0.18228278 0.18566573
-0.11395077 -0.0015169705 -0.14041102 0.095936455 0.018073801 0.08626465 0.1846066 0.0007483369
-0.21016288 -0.12278413 0.07699064 -0.11907694 0.018143373 0.011555299 -0.15341568 -0.04795482
-0.059905276 0.06806446 -0.0041708867 0.088021904 0.0530839 0.12821898 -0.15910123 0.023984889
0.1344071 -0.0075365203 -0.023973322 0.15253966 0.12414776 -0.20745112 -0.016814213 0.0018316873
-0.07666284 -0.1744474 -0.12617685 0.13074638 -0.17322034 -0.21246015 0.050956294 -0.01087987
-0.16851741 -0.16698319 -0.04506029 0.047889113 0.2034109 0.17543222 -0.16554555 0.10901349
0.12153857 0.24270771 0.19432521 0.10026713 -0.13195813 -0.08247774 0.032046355 0.11159342

embedding.embeddings.ken_20230614_denoised.poses.weight f4 [128, 33]
00000000: 8afa cd3c bd99 9fbe 3255 f4bc 5db9 57bd
00000010: f691 5d3c c0a2 0d3e ba6c 893e a919 5bbd
00000020: 4cde c9be 12a7 293e ce07 5f3e f3c6 6dbe
00000030: 4343 c1bd 1694 d3be 97b7 383f 3f44 c53e
00000040: d8bf e93e ba5f d4bd 00f3 39be bfef 413f
00000050: 9a5b e53e 9f4f 253f b143 37be 425d 093e
00000060: 3823 bcbd 2dfd 30ba 138e 9eb8 546d 8037
00000070: 0f12 2c36 2578 12b5 0549 86b4 aafb d038
00000080: d621 6fbf 10e1 f5bd 9675 6bbe 6a4b 5d3d
00000090: 4bb7 1bbe 6d78 37bd c205 533e 0721 713d
000000a0: 8dc3 fabd bb41 fabe 6ea1 e93e bf93 653e
000000b0: 3323 babe a8f2 96bd 5b6e a5be 1938 1b3f
000000c0: ad92 3e3e bcee ed3c d968 873e c0f0 ec3e
000000d0: 609b 223f 5027 a13e 6a34 af3d 6396 ba3e
000000e0: 7930 813e f8d8 9abd 05ed 75ba 703a 9db8
000000f0: 1f05 08b7 4eb8 b6b4 58ad bdb4 b4e1 3bb4
00000100: 41ce 88b8 d3af 00bf 591d c9bd 2bac 38bd
00000110: 7222 83be 2fe3 4e3d 61fe f93d 50a5 6d3d
00000120: 06b1 abbd 90ee 443e 820e d1be 7b01 44bd
00000130: 3a55 b23d 1755 bc3e 72bc 5fbd 8f1e 12be
00000140: 3a92 40bf cab7 6cbe eb46 0b3e eabb 31bf
00000150: c61a 60bf 9503 833f 4c70 fe3d 3b57 06be
00000160: ee0e 51bf 8a27 87bd e871 bb3e d72d c8ba
00000170: 49be c237 3e1d 0c38 a460 3937 f239 05b6
00000180: 2419 b633 bf56 1d3a b2a8 773f f95b cbbd
00000190: 5c5f 9bbd 0113 6c3e e796 a23c cf93 8e3e
000001a0: c31a 533d 6e2d 9b3e db32 87bd c0d9 c43d
000001b0: ec13 463e c642 b7bd 007d f9bc 9058 68bd
000001c0: f91e b3be d217 ea3e 4161 173f fb65 4f3e
000001d0: 3abe e8bd 495d 26bf 7adb 1f3f 5163 193f
000001e0: 6bd3 173f 5cf2 f13c a447 b53e fffe f43e
000001f0: f42e 6eba 8a44 aab7 6f6e b437 9428 6e36
00000200: a12e bab4 f0c1 9eb4 8317 aa39 7b27 55bf
00000210: b7c9 7f3d b413 fe3c 2f57 c03b f1d2 60be
00000220: 5757 31bd d1ec b9bc 2aca 93be 86d3 843d
00000230: 6455 1bbf b98f 42bd 801a 5abd dc2f 923e
00000240: 96af 933d 3ac2 b03e 23dc 70be 79d7 b9bc
00000250: 6d4b 903e 6bf3 77bf 5a8a 2dbf afdc 9e3e
00000260: bcda 8b3e e6b5 813b 12f1 57bf e9c0 6bbe
00000270: 69a3 5c3e 15c1 8aba 2b6d abb8 c048 9c37
00000280: 22ad 2137 8731 a3b5 99ec 8fb2 4e63 3c3a
00000290: c4ca 093f ea1c 2bbd 67a0 653c dee4 9b3d
000002a0: db3c 86bb 68eb 1ebe 89d3 753e a4fa 9cbd
000002b0: 7be0 203c 900d 943d 2870 213d cb72 473e
000002c0: cd5a b4be aadc 5a3c 77d5 c1bd 2da1 cb3e
000002d0: 20d4 65bc e26f ba3e e6f8 383f 611b 043f
000002e0: a4fd ddbd 09f9 51bd 806b a43e 6794 f33e
000002f0: 8e07 2fbe 9117 bebe a65b d8b7 630e d137
00000300: 6001 0637 9db9 63b6 d2f3 3334 dd36 2733
00000310: 25c8 acb9 2945 f6be 3f2b 813e 450a a03e
00000320: f6d3 82be 7a57 313f 73c0 8dbe 37c6 223f
00000330: 6d1d aa3e 402f 94be 366b d5be 71b4 a1bd
00000340: 92cb b9bc 94ff 38be e8bf edbe 9705 c13f
00000350: ddd3 33be 0afa bd3e f123 fd3e 9116 aebf
00000360: f6d2 2bbf d1bc efbf a2a5 e63e 7e2f 703f
00000370: aa64 8bbe e4ce 91bc fc9e a13d 4297 873a
00000380: 42a2 10ba de46 5db8 a8bc bbb6 e444 9d35
00000390: bfb4 9eb5 5f8f 6339 25f1 6dbf 8c72 b1bc
000003a0: 2a62 a6bd 24ac 853e ad2d 77be c9dc b9be
000003b0: be74 003e bf34 933d 121e 15bd a9fa 223f
000003c0: 60fa 94bd 3555 933e 78e4 b4bc d54c 51be
000003d0: bd62 f9be 8d98 a23e 019f 6d3e 1d08 a1be
000003e0: c6f2 733f 37dc b53e 99f1 35be 9ec3 e2be
000003f0: f835 5dbe 30b2 063f 7d82 f5bd d411 30be
0.02514388 -0.3117198 -0.02982578 -0.05266701 0.013523569 0.13831615 0.26840764 -0.05349127
-0.39427412 0.16567639 0.21780321 -0.23220424 -0.09436657 -0.41323918 0.72155136 0.3852863
0.45654178 -0.10369821 -0.18159103 0.7575645 0.4479645 0.6457462 -0.17896916 0.13414481
-0.09186405 -0.00067515933 -7.5604905e-05 1.5309699e-05 2.5640509e-06 -5.456407e-07 -2.5012574e-07 9.965089e-05
-0.93411005 -0.12005818 -0.22994074 0.054027 -0.1520664 -0.04479258 0.20607665 0.058869388
-0.122443296 -0.48878273 0.45630974 0.22419642 -0.3635498 -0.07370502 -0.32310757 0.60632473
0.1861064 0.029044501 0.2644718 0.46277428 0.63518333 0.31475306 0.08554919 0.3644286
0.25232294 -0.07560915 -0.0009381327 -7.497228e-05 -8.107424e-06 -3.403424e-07 -3.5330117e-07 -1.7497842e-07
-6.523403e-05 -0.50268286 -0.09820051 -0.045086067 -0.25612217 0.050509628 0.12206722 0.058018982
-0.08383374 0.1923163 -0.4083138 -0.047852974 0.08707662 0.36783668 -0.054623075 -0.1426947
-0.75223124 -0.23116985 0.13601272 -0.6942736 -0.87540853 1.0235468 0.12423763 -0.13119213
-0.81663406 -0.06599338 0.3661034 -0.001527245 2.321521e-05 3.3405835e-05 1.104936e-05 -1.9852273e-06
8.4796085e-08 0.0006002001 0.96741784 -0.09929652 -0.07586548 0.23054124 0.019847346 0.27847144
0.051539194 0.30308098 -0.06601497 0.09611845 0.19343537 -0.08948283 -0.030455112 -0.056725085
-0.34984568 0.45721298 0.5913277 0.20253746 -0.11364408 -0.6498609 0.6244427 0.5991717
0.59306973 0.029534511 0.3540622 0.47850797 -0.0009085976 -2.0297495e-05 2.1509097e-05 3.5488383e-06
-3.4679127e-07 -2.9570901e-07 0.00032442444 -0.8326337 0.06244823 0.031015255 0.005869768 -0.21955468
-0.043296184 -0.02269593 -0.28865176 0.064856574 -0.6067717 -0.047500346 -0.05324793 0.2855214
0.07211225 0.34523183 -0.23521475 -0.022685753 0.28182545 -0.968558 -0.6778923 0.31027743
0.2731532 0.0039584516 -0.8435222 -0.23022808 0.21546711 -0.0010586107 -8.1742495e-05 1.8630526e-05
9.636658e-06 -1.2158861e-06 -1.6754983e-08 0.00071864284 0.5382502 -0.04177562 0.014015294 0.07612012
-0.00409661 -0.15519488 0.24006476 -0.076649934 0.009819145 0.07229149 0.0394136 0.19477384
-0.35225525 0.0133582745 -0.09464543 0.39771405 -0.014027625 0.36413485 0.7225479 0.51604277
-0.10839394 -0.05126289 0.32113266 0.4757416 -0.17092726 -0.37127355 -2.5791884e-05 2.492144e-05
7.9873425e-06 -3.3933677e-06 1.6759375e-07 3.8932615e-08 -0.00032955516 -0.4809964 0.25228307 0.31257835
-0.25552338 0.69274104 -0.2768589 0.635837 0.33225575 -0.289423 -0.41683358 -0.078957446
-0.022680078 -0.18066245 -0.46435475 1.5079831 -0.17561288 0.37104827 0.49441484 -1.3600637
-0.67118776 -1.8729497 0.45048243 0.9382247 -0.27225238 -0.017798848 0.07891652 0.0010344761
-0.00055173424 -5.2756506e-05 -5.5949968e-06 1.1717461e-06 -1.1824521e-06 0.00021701817 -0.9294608 -0.021661066
-0.08124192 0.26107895 -0.24138518 -0.36301258 0.12544534 0.07187795 -0.03640563 0.6366373
-0.07274318 0.28775945 -0.022081599 -0.20439465 -0.48708144 0.31757012 0.23205186 -0.31451502
0.9529232 0.35519573 -0.17767943 -0.4428987 -0.21602619 0.5261564 -0.11987779 -0.17194301

embedding.embeddings.ken_20230614_denoised.poses.bias f4 [128]
00000000: 1b0f 14bd 3084 c5bd 1de3 8a3d ee2c 0dbd
00000010: 0c0b ca3d cc3f bf3c 1296 7d3b c839 dcbd
00000020: 1b6d fb3b fd93 09be 44b6 bc3b 44f5 5fbd
00000030: cb1d f73d 0a8c 8f3b 0904 a2bd 707c fdba
00000040: 6f08 5e3d c72a 563d c4cd 32bc baa4 83bd
00000050: 7bce ccbd ae0a d7bc cb57 46bd 2775 333d
00000060: 64f2 a53c ff43 e53b 98a9 433d ab6b 3dbd
00000070: 29b3 94bd efbf bebd cc0c 983d 6555 013d
00000080: e399 48bd bef0 b2bd 796b 913b 6f24 aabd
00000090: 7a73 8bbd 2849 19bd d2f8 413d 8129 e7bd
000000a0: 1ffe e4bc 4f6c df3c 013b 943d 18ef 65bd
000000b0: 54c8 c9bc 699a c43d 8c84 d0bd 90ec 623d
000000c0: 813d 33bd 7977 a93d 61a1 b8bd 8694 cabd
000000d0: 5be5 263c a495 913d 7a06 1a3d 6acf 843d
000000e0: 05c2 40bd d7df 903d 2beb 243d b84b 223d
000000f0: 32e5 8abb de6c a6bd 814d 073c 90f1 7f3c
00000100: c8d0 773d 5032 cebd 2167 af3a 472c 153e
00000110: bd75 3c3d 2f9f babd ef70 39bc 0142 583d
00000120: b0fa 0a3e 3ace cf3d 86e4 9d3d 3abe 9cbd
00000130: 065e 0b3d 6d0e 713d cc9b 9abc 4268 0cbc
00000140: 461f 453b 8d64 0b3d 10c7 43bd 6cfa 08be
00000150: 600c acbc 00d9 96bd 847e 8dbd bcda 07be
00000160: 3778 08be 5016 433c b8f8 5a3d 38d7 79bd
00000170: 6d7b 8b3d 0931 0c3e 8822 ec3d 6f1a 38bd
00000180: 1fb6 fa3d 2d7b 333d b549 8e3d 75c1 7ebd
00000190: 5872 bdbd 24ce ccbd 452f b1bd 402b aabd
000001a0: 7b2c 82bd 08db 4d3d be22 5bbd 440b e73d
000001b0: 6e65 163d 0d8d fbbd c857 a5bc 4f6a 76bd
000001c0: e300 67bd f099 03bc 99a2 5f3d b0e1 cabd
000001d0: 6410 28be 3a00 d2bc 05aa cc3d 9c88 7ebc
000001e0: b33d 4fbd 9c93 473d b4dc 54bd 3a57 74bd
000001f0: 1bf5 0ebe 4bc8 cebd 0090 113d c6e7 81bd
-0.03614722 -0.096443534 0.067816 -0.034466676 0.09865388 0.02334585 0.0038694185 -0.107532084
0.0076729185 -0.1343536 0.0057590324 -0.054677263 0.120662294 0.0043807076 -0.07910926 -0.0019339453
0.05420726 0.05228689 -0.010913316 -0.064279035 -0.100003205 -0.02625021 -0.04842357 0.043812897
0.020257182 0.006996631 0.04776916 -0.04624526 -0.072607346 -0.09313952 0.07424316 0.03157558
-0.048974883 -0.08737324 0.0044378606 -0.083077304 -0.06809135 -0.037423283 0.047356434 -0.11287213
-0.027953206 0.027273325 0.072378166 -0.05613622 -0.024631657 0.09599764 -0.10181531 0.055401385
-0.043759827 0.08274741 -0.090151556 -0.0989161 0.010186519 0.0710862 0.037603833 0.064848736
-0.04706003 0.07073944 0.040263336 0.039622992 -0.004238748 -0.081262335 0.008258224 0.015621558
0.060501844 -0.1006819 0.0013382175 0.14567672 0.04601072 -0.09112393 -0.011318429 0.05279732
0.13572192 0.101467565 0.07709603 -0.0765347 0.034025215 0.058851648 -0.018873118 -0.008569779
0.0030078455 0.03403144 -0.047797263 -0.13376778 -0.021001995 -0.07365608 -0.069088966 -0.13267034
-0.13327108 0.011907175 0.053459853 -0.060996264 0.06810651 0.1369058 0.11530024 -0.044947084
0.12241768 0.04381864 0.06947652 -0.062196214 -0.09250325 -0.10000256 -0.08651594 -0.083090305
-0.0635614 0.050257713 -0.05349993 0.112814456 0.036717825 -0.12282763 -0.020183459 -0.060159978
-0.05639733 -0.008032307 0.054598425 -0.09906328 -0.16412503 -0.025634874 0.09993366 -0.0155355
-0.05059595 0.048724756 -0.05196829 -0.0596535 -0.13960688 -0.100967966 0.03553772 -0.063430354

embedding.embeddings.ken_20230618_denoised.poses.weight f4 [128, 15]
00000000: c521 f93e cdcc d63e 22d2 7b3d 209c 5ebf
00000010: e121 8abe ed5c b33d 11b2 b4bd b912 5abb
00000020: 770b 7cb8 5bf0 37b8 6b2e 4eb6 baf2 4134
00000030: 0df5 0b35 0493 993a d4c1 b73e 4c40 3a3e
00000040: ef70 1f3e ada6 413e c5fa 40bf 89dd e43e
00000050: c7b0 aebe ae68 b03e 7736 2039 76e7 f6b7
00000060: 33fc a7b8 f283 17b6 6d3c bdb4 5e56 a3b4
00000070: c220 7738 e493 a33b 61f2 97be d643 5dbe
00000080: 281a 023e 59c7 c33e e7d5 dbbf 4cec cf3e
00000090: 674a 5ebf 76d1 a1bb a8b5 7db7 ac32 8938
000000a0: b95a 0837 837c 2cb5 10e6 1335 189e 073b
000000b0: b9f4 cbbe c880 d33e 09a7 c13d 1620 2fbe
000000c0: 22f7 13bf c44b 06bf f676 063f 2e04 ba3d
000000d0: 472e 51bb 7ae6 d837 e165 1637 1cda a2b5
000000e0: 3a05 3835 17e4 1a35 7002 a73a 38e5 41be
000000f0: 423d 21be 6f7f 0c3f 329b 0ebe 6ebb 013d
00000100: 8e2a eabf 4796 483f 4cf3 bbbe cd1b 80bb
00000110: b1fa 4d38 7b25 63b8 434f 4e36 8205 acb4
00000120: dc0b 2034 de9a 123b de36 3fbf 23aa 113c
00000130: a14c 7e3e d5b1 ba3e b9c6 3fbf a851 9a3f
00000140: 42ff 95bf 0d99 d83e 8a00 baba 00be ddb8
00000150: 2779 ed36 ff59 56b6 1ee2 93b4 e865 8934
00000160: 5d23 0bb9 16cf 9a3f 56f4 06bf bce1 943f
00000170: 4cfe 49bf 8e6b 633e 47b1 83bc 806c d93e
00000180: aaaf 803f 0a7c 593c b7f3 9a39 161f dab9
00000190: bef8 28b7 e253 eab4 908d 4fb6 482f 21ba
000001a0: 4b2e 0cc0 bda5 a43d d569 dcbe 3003 dc3e
000001b0: 302e dfbe f737 0840 6c10 8abf db7a 173e
000001c0: 4a82 113a 97fc 2db9 4f2d ce38 f6b1 94b6
000001d0: c887 8c34 9b8b 8834 1c41 f4ba 6584 a83f
000001e0: d94f 8abe 514f 6a3b 65b0 cb3d 4b9e 8f3f
000001f0: 17f4 833e 4881 54bf c28e 16bd 4e2e 0f3c
00000200: 8e8e b338 74a3 cc38 610d 4737 7112 27b5
00000210: 84f2 97b5 d71a 4fbb 1dee c6be 8d50 80be
00000220: 5471 263e 8881 e13e d278 45be 7abc f93f
00000230: 9c6b 9ebf 119b 0d3f 2692 cb3a b8b7 bdb7
00000240: 2498 c7b6 5911 1eb6 01e3 9fb3 192b b2b4
00000250: fc8d 7eba 9ee1 2c3f 1f0f f9be fb0b 2c3f
00000260: 348c b7bd e06e 463f 92a6 f7be 4647 043f
00000270: acda e93d 3322 f93b 3612 8739 00fd a0b7
00000280: a485 4f37 2ec8 fbb4 2400 02b6 b860 a3ba
00000290: b934 e9bf 496d a6be f50c 163f 37fe 733f
000002a0: 109b f1be 6398 36be ae0d 19bf 379e 8dbf
000002b0: e803 67bb 528a e0b8 a1a8 4ab8 33bb e5b5
000002c0: ce86 c5b5 524b 03b5 31d3 9a3a 72a6 2d3f
000002d0: 57a4 033e 6d8e 23bf 0b27 8bbf c265 923f
000002e0: a068 9f3e 429f 803e 133e 6c3f a0ac 673b
000002f0: 2685 1938 4da2 e837 ff9d c135 2a8b d034
00000300: eb51 e033 20cf 89ba a760 a0bf 7e9d 3bbe
00000310: 328a 8bbe b544 333e c33d 363f e9b8 29bd
00000320: 3440 d3be f7ca a8be dba6 113b 87fe e2b6
00000330: 7749 0a39 a829 b836 3f53 c0b4 5e8c c433
00000340: f4b8 89ba 907f 0d3e 49fc c3be 69d2 fa3e
00000350: b6ff 8b3e b458 cbbe b331 f13f 13f2 94bf
00000360: e3b4 0b3f 3ebb 7b3b 226d 7b37 ba86 8cb8
00000370: 207c 3db6 9448 bfb4 245f 48b5 8c8e d9ba
00000380: d719 9b3e 6e3e 47be 1fdc cebe 25a4 07bf
00000390: 0924 963f 0d5e b13e 5c2e 163f ca94 693e
000003a0: 1723 793c 1e09 fa39 49ec 4f39 2908 3c37
000003b0: 4eeb 4436 4640 32b4 5aa1 94bb d206 3cbf
000003c0: 897e 8a3e 08a1 a5bd 93f0 29bf 06fe 2b3f
000003d0: 48f4 143f c9ca 22be 1b20 543f f716 3e3b
000003e0: 1696 57b8 02f4 d937 fead 4eb5 bc89 5434
000003f0: a08a 8c34 e6b4 8bba e38a 9cbe 7cf6 d83d
0.48658577 0.41953126 0.061479695 -0.8695698 -0.26978973 0.087579586 -0.08823026 -0.003327532
-6.009216e-05 -4.385445e-05 -3.072341e-06 1.8062829e-07 5.213813e-07 0.0011716788 0.35890067 0.1818859
0.15570424 0.18911238 -0.75382644 0.44700268 -0.34119245 0.34454864 0.00015279079 -2.9433268e-05
-8.010156e-05 -2.2577556e-06 -3.524796e-07 -3.0423956e-07 5.8919897e-05 0.004991995 -0.29677108 -0.21607909
0.1270529 0.38238028 -1.7174653 0.40609968 -0.8683228 -0.0049383 -1.512227e-05 6.5421074e-05
8.127355e-06 -6.425618e-07 5.509655e-07 0.0020693596 -0.39835146 0.4130919 0.094556876 -0.17102084
-0.5779897 -0.5245936 0.5252527 0.090828285 -0.0031918453 2.585653e-05 8.964417e-06 -1.2133419e-06
6.8552947e-07 5.7701385e-07 0.0012741815 -0.18935096 -0.15746024 0.5488195 -0.1392639 0.031672888
-1.8294237 0.78354305 -0.36709058 -0.003909564 4.9109283e-05 -5.4155924e-05 3.0742528e-06 -3.2041504e-07
1.4905476e-07 0.002237014 -0.74693096 0.008890661 0.24833919 0.364638 -0.749126 1.205617
-1.1718524 0.42304268 -0.0014190834 -0.000105734915 7.0772544e-06 -3.194087e-06 -2.7545406e-07 2.5592385e-07
-0.00013269247 1.2094448 -0.5271658 1.1631389 -0.7890365 0.22208998 -0.016075743 0.4246559
1.0053608 0.013274202 0.0002955475 -0.0004160336 -1.0071495e-05 -4.364693e-07 -3.0927804e-06 -0.0006148708
-2.1903255 0.080394246 -0.43049493 0.42971182 -0.43589926 2.1284158 -1.0786262 0.1479296
0.00055507256 -0.00016592663 9.831285e-05 -4.431461e-06 2.6175826e-07 2.543355e-07 -0.0018635127 1.3165404
-0.27014044 0.0035752843 0.09945754 1.1220182 0.25772163 -0.8300977 -0.03675724 0.008739067
8.561938e-05 9.7579235e-05 1.1864439e-05 -6.2239184e-07 -1.1320958e-06 -0.003160169 -0.3885354 -0.25061455
0.16254169 0.44044137 -0.1928437 1.9510643 -1.237659 0.5531474 0.0015531227 -2.2616106e-05
-5.9483737e-06 -2.3553932e-06 -7.445306e-08 -3.318644e-07 -0.00097104884 0.67531765 -0.4864435 0.6720578
-0.089622885 0.7751293 -0.4836927 0.51671255 0.114186615 0.007602954 0.00025762775 -1.9191299e-05
1.2369277e-05 -4.6898043e-07 -1.9371591e-06 -0.0012464738 -1.8219215 -0.32505253 0.5861352 0.95309776
-0.47188616 -0.17831568 -0.597865 -1.1063908 -0.003525013 -0.000107069165 -4.83176e-05 -1.7116312e-06
-1.4716877e-06 -4.891091e-07 0.0011812208 0.678321 0.1285566 -0.638892 -1.087129 1.1437304
0.3113451 0.25121504 0.9228222 0.0035350695 3.6602047e-05 2.7732132e-05 1.4425603e-06 3.8844274e-07
1.04457136e-07 -0.0010513999 -1.2529496 -0.18321797 -0.27253872 0.17506678 0.7118799 -0.04143611
-0.4125992 -0.3296735 0.0022224698 -6.7649557e-06 0.00013188073 5.4884767e-06 -3.5823356e-07 9.152494e-08
-0.0010507391 0.13818192 -0.38278416 0.48988655 0.2734353 -0.39716113 1.8843292 -1.1636375
0.54572886 0.0038411166 1.4986175e-05 -6.700815e-05 -2.8235445e-06 -3.562933e-07 -7.4644254e-07 -0.0016598268
0.30293152 -0.19457409 -0.40402314 -0.5298484 1.1729747 0.34642068 0.5866449 0.22810665
0.01520612 0.0004769051 0.00019829081 1.1207573e-05 2.9343241e-06 -1.6600924e-07 -0.004535836 -0.73447907
0.27049664 -0.08087355 -0.6638271 0.67184484 0.58185244 -0.15897669 0.8286149 0.0029005387
-5.1399773e-05 2.598204e-05 -7.699417e-07 1.9794146e-07 2.6177895e-07 -0.001065877 -0.30574712 0.10593888

embedding.embeddings.ken_20230618_denoised.poses.bias f4 [128]
00000000: 3ae1 6f3d e5c7 403d a575 7c3d bfba 2cbd
00000010: 1a13 81bd 2530 53be 0d7e 023c c72a 1d3c
00000020: 9ba9 363d 16df 50be c978 b4bd e3ae e9bd
00000030: 72b4 463e 518d 3e3d eac5 32be 7d3a 4d3c
00000040: 5370 bc3d 91dd 173d b836 453e 2f06 f7bd
00000050: 0a09 02bd 0b56 55bc c20e 66bd cc17 8fbd
00000060: ddd8 c0bc d618 da3c 8ed0 39be f967 ba3d
00000070: 72dc 30be 3726 8c3d d231 a43b 7c3a eabd
00000080: e49d 20be 6474 903d 9643 53be 97f3 af3d
00000090: f456 33be 1591 143d a91b b9bb dc84 51be
000000a0: da08 2d3e 1552 bf3d 8150 9fbd 6baf 0d3e
000000b0: e712 9d3d 231a 7abd 2ec4 a6bd 4711 c9bc
000000c0: c92d 173e 6346 283e 9e93 dd3d 86d2 39be
000000d0: 7c88 213e 5383 3bbe 26f3 e7bd bdde 953b
000000e0: 19ee c93d 7128 66bd 37e3 ef3b a0a4 b93d
000000f0: e1ba 19be 4d1d 5b3e 1758 f23a 0ef3 17be
00000100: a2a6 2fbd 14b6 13be b87c 9d3d e641 89bb
00000110: 5694 863b a1c6 273e 737e 65be f3b5 3e3d
00000120: e843 0abe d734 86bd 3f68 18bd f533 d7bd
00000130: cb59 493e adea 063d 3d28 8d3d 32ee 713d
00000140: 40d4 3d3e 4af1 d73c 8d89 54be e751 ee3d
00000150: 4089 483e 0a49 5f3b 7c80 15bd d714 57be
00000160: ad96 26be 6236 05be 5d68 8e3c ad6a 63bd
00000170: ac7e 493d 6333 2f3c 9367 b23b 210d c83d
00000180: 08bc 8ebd bef8 98bd 9010 21bc ec82 ee3d
00000190: a9f7 133e 99d1 8bbd 3e11 ac3d f39e cd3d
000001a0: e2e6 c63a 5351 683d 0900 e4bd 7e64 00be
000001b0: e621 38bc 468e b53d fbc1 52be bae3 7cbc
000001c0: c15e 9e3d 0287 9e3d fda3 41be bf8d 0e3e
000001d0: b52c f63d 9aa9 ee3d 76b4 c03d 6ea2 e33d
000001e0: fbea fc3c 3a4d 4ebe 1118 00be b1d3 d53d
000001f0: f282 063c 85c0 fbbd 050b b83d cb6d 1cbe
0.058564402 0.047065634 0.061635632 -0.042170282 -0.063024715 -0.20623834 0.007964623 0.009592718
0.044595342 -0.203976 -0.088121004 -0.1141031 0.19404772 0.04652149 -0.1745831 0.012526152
0.09201112 0.037076537 0.19259155 -0.12061726 -0.0317469 -0.0130210025 -0.056166418 -0.06986961
-0.023540908 0.02662317 -0.18145964 0.091018625 -0.17271593 0.068432264 0.005010822 -0.11436936
-0.1568523 0.0705345 -0.2063125 0.08591383 -0.17513639 0.036271174 -0.0056490493 -0.20460838
0.16897908 0.09341828 -0.07779027 0.13836448 0.07669621 -0.061060082 -0.08142887 -0.024544371
0.1476356 0.164331 0.10819171 -0.18146715 0.15774721 -0.18311815 -0.11325674 0.0045736716
0.09859867 -0.05619091 0.0073207873 0.09064603 -0.15012695 0.21397896 0.0018489388 -0.14838812
-0.042883523 -0.14424926 0.07689804 -0.004188764 0.0041070385 0.16384365 -0.22411518 0.04656024
-0.13502467 -0.06553047 -0.03720879 -0.10507957 0.1966316 0.032938648 0.068924405 0.05906505
0.18537998 0.026360173 -0.20755596 0.116367154 0.19583607 0.0034070634 -0.036499485 -0.21004044
-0.16268416 -0.13009027 0.017383749 -0.055521656 0.04919307 0.010693404 0.005444476 0.09768129
-0.06969458 -0.07469319 -0.009830609 0.11646065 0.14449944 -0.06827087 0.08401726 0.10040083
0.001517501 0.05671818 -0.11132819 -0.12538335 -0.011238551 0.08865027 -0.2058181 -0.015435154
0.077329166 0.077405944 -0.18910213 0.1392126 0.12020246 0.11653443 0.0940942 0.111149654
0.030873766 -0.20146647 -0.1250918 0.104407676 0.008209931 -0.122925796 0.08986477 -0.15276258

core.core.fc.0.0.weight f4 [128, 128]
00000000: baa3 d439 435c 27be f588 413e e9c1 e0bc
00000010: 1899 a83d f69d 66bd 9e7a 8cbd 3f0c 6eba
00000020: 1170 b03c 9223 82bd d7ad 103d 3381 1b3d
00000030: 85a7 4dbd f285 573e c557 1dbe 7e99 6f3e
00000040: 9a83 b83d c243 92bc e247 273c beab 0cbe
00000050: 757d 14be 2b98 943c 479e debd 94d6 703d
00000060: 79b7 403e 1265 d1bb f012 85bd 5dd4 813d
00000070: a0dc cabc 980d 80bd dd2e eabd ccfd 1cbd
00000080: 55de 61bd 48ba 5fbc f802 b8bd 0f5a 86bd
00000090: 7015 f3bc dc73 e2bd bfc6 3e3c ffb6 15bd
000000a0: ac96 863d 20c1 a83d e8e6 f4bc ced3 96bd
000000b0: a9ec f93d 0dd1 98bd 94b2 82bd 0f5f d5bd
000000c0: c4c0 b3bd 330b 3f3d 45fd 02bc 1261 0bbe
000000d0: cd00 9cbd c60d 853b 1496 c93d 9684 a13e
000000e0: fde0 f93b 6aba 493d fd7a 6c3c 4c24 d63d
000000f0: 34dd 523d d718 dabc e983 efbd 88fa 1f3c
00000100: 88bb 9bbd ca84 c1bc 5af5 4ebc dbae 993d
00000110: 24f2 063d 846a 27bd 3a44 10bd fed7 b03c
00000120: 389e 36bc ea93 27be d3d2 5a3c d7f5 213d
00000130: 7bce f2bb 6e81 823d d873 c1bd 62ef babd
00000140: 72fa 93bc b7ba 373c 1abe 823d cbfe 03be
00000150: c172 9dbc b6ef 0fbe 85ac db3c 7e79 72bd
00000160: b18a a1bd ef83 d43c a9d4 973e 334e 8ebc
00000170: 4182 2d3e 0cd5 e33d ce06 163d ecc8 4f3d
00000180: 78e8 d93d 0623 1ebd ed71 0ebe 7167 cdbc
00000190: fd38 bc3d fbba 6cbd 7d1c 23bd d2aa ef3d
000001a0: 3c80 e9ba 6f5e 97bc 8f72 7a3d e1ee 0a3e
000001b0: e7b7 7fbd 483b 61bd 7330 5abd ea52 01be
000001c0: f036 2dbd b80c 78bc 751e 57bb c57d 19bc
000001d0: 7779 75bc 5161 a0bc 5bde da3d 5af4 ca3d
000001e0: f7a3 1e3d e842 de3d d8e6 44bd acae 8abb
000001f0: f496 8dbd 0796 c3bd e530 313e 8e2d 1bbd
00000200: 52be f0bc 1fc4 2dbe 9203 a1bc dba4 b0bd
00000210: 41dd 2a3e 589f f4bd be14 883e 3542 a5bd
00000220: b855 3e3e 6ea4 733d d6f1 f93d 3eba 37be
00000230: f4ac d33d fe40 763e 0225 fcbd 05b3 3f3f
00000240: 34b8 dfbc 98c5 08bd 185e 4a3d 794f 59bd
00000250: f83c 6bbd 9d7b a1bc f7c5 43bb 3e8a 063d
00000260: 98ee d03d ea97 913e bd85 d2bd 7756 e63c
00000270: bd8e 2b3e 3447 a0bd a819 083d 6c14 17bd
00000280: 9e99 a3bd b93d ffbb 16c1 08bd 1009 86bd
00000290: 7d21 d63d 03f2 45bd 9469 4e3d f262 5abb
000002a0: 45b7 b43d a88a 8b3d 666b 41bd bd26 d8bd
000002b0: 951d 3c3e f17e 22bc c78a 72bb f542 d13d
000002c0: ada8 51be 3837 a13d eabf d6bd 8d5b 89bb
000002d0: 2540 c7bd a014 ffbd 0183 193e a73d c93d
000002e0: 688d eabc 7c0a 4bbd 65e8 5f3e 3456 d83d
000002f0: fc75 9abd 1b6b 2f3d ae01 27be ec89 d53d
00000300: 6359 f43d c79a 0a3d dbfc e8bd 7e5a c93d
00000310: c649 743d c17b 2fbe d82d 3d3d a164 08bb
00000320: f411 d9bd 8905 f93b 0db3 c53b 1e16 a73d
00000330: b2da 0d3e 9a40 123e 3435 a93d bc8a 08bd
00000340: 5be9 223d c7e9 1fbd 7e8b cbbd b71c 3ebe
00000350: f6c5 87bc 2203 afbd b60d c8bc 53ca 0f3d
00000360: 7fe3 ae3a 4a7a d53b 901a f43c f37f 37be
00000370: 0fdf 823e 8593 303c 1982 8f3c 53fa b13d
00000380: 5b93 8f3d 4b53 cf3d d1ee 00be 33dd 233d
00000390: 1d83 92bc 3b9f 67bc d285 e3bd 1bcf f33d
000003a0: d710 d2bc 5a64 ba3d 7838 b4bc 2208 ac3d
000003b0: d116 13bd 2280 703c a49a b13d 5b30 473d
000003c0: 968a e0bd c8b8 06bb 1d49 7cbc 0744 89bd
000003d0: 036b 24bd b4ab d43c ad79 4f3d 4f12 c53d
000003e0: ccad 83bd 3cce 9dbb f347 f13d d439 aabd
000003f0: 6883 febc dfb3 1ebd 225d 403e 374e ebbd
0.00040557777 -0.16343789 0.18899901 -0.027436214 0.08232325 -0.056302987 -0.06859325 -0.00090808043
0.021537812 -0.06354441 0.035322037 0.03796501 -0.050208587 0.2104719 -0.15365513 0.23398396
0.09009476 -0.017854575 0.010210009 -0.1373739 -0.14500983 0.018138966 -0.10870033 0.058798388
0.1881999 -0.0063902223 -0.06497753 0.06339333 -0.024763405 -0.06252593 -0.1143472 -0.038327977
-0.055143673 -0.013655253 -0.08984941 -0.06560146 -0.029673308 -0.11057255 0.011644064 -0.03655147
0.06571707 0.08239961 -0.02989526 -0.07364617 0.122033425 -0.07461748 -0.06381717 -0.104185216
-0.087770015 0.04664154 -0.0079949545 -0.13611248 -0.0761734 0.00406048 0.09843078 0.31546468
0.0076256976 0.049250044 0.01443362 0.10456142 0.051480487 -0.026623173 -0.11695082 0.009764321
-0.07604128 -0.02362289 -0.012631739 0.07504054 0.032945767 -0.040873066 -0.035221316 0.021587368
-0.011146121 -0.16365018 0.0133559285 0.03954109 -0.0074098683 0.06372343 -0.094459236 -0.0912769
-0.018063758 0.01121395 0.06383915 -0.12890165 -0.019219758 -0.14056286 0.026815662 -0.059197895
-0.078877814 0.025941817 0.29654434 -0.017371273 0.16944219 0.1112462 0.036627583 0.050728723
0.10640043 -0.03860762 -0.13910647 -0.025073739 0.09190557 -0.057795506 -0.03982209 0.11702503
-0.0017814706 -0.018477647 0.061144408 0.13567688 -0.062431242 -0.054988176 -0.05326886 -0.12629285
-0.04228872 -0.015139751 -0.003282455 -0.009368365 -0.014982573 -0.019577654 0.10686942 0.099098876
0.038730588 0.10852605 -0.048071712 -0.0042322483 -0.06913558 -0.095501 0.17303808 -0.03788524
-0.029387627 -0.16969346 -0.019655023 -0.08625194 0.16685964 -0.11944455 0.26578325 -0.080692686
0.18587387 0.059482984 0.1220433 -0.1794214 0.103357226 0.2404823 -0.12311746 0.7488254
-0.027309515 -0.033391565 0.04940614 -0.053054307 -0.05743119 -0.019712264 -0.0029872635 0.03284668
0.10201758 0.28436214 -0.10279415 0.028117402 0.16753669 -0.07826081 0.033227593 -0.03688471
-0.079882845 -0.0077893403 -0.033387266 -0.06544697 0.10455606 -0.048326503 0.050393656 -0.0033323136
0.088240184 0.06813556 -0.047221564 -0.10554264 0.1837066 -0.0099179605 -0.0037008987 0.10217849
-0.20474501 0.0787186 -0.104858235 -0.004191822 -0.097290315 -0.12455106 0.1499138 0.098262124
-0.02863188 -0.049570546 0.21865995 0.10563317 -0.07542035 0.042826753 -0.16309234 0.10426697
0.11931112 0.033839013 -0.11376353 0.09831713 0.05964067 -0.17137052 0.046186298 -0.0020811933
-0.105991274 0.007599537 0.0060333074 0.081585154 0.13852957 0.14282456 0.08262101 -0.033335432
0.039773326 -0.039041307 -0.099387154 -0.18565641 -0.016573887 -0.085455194 -0.0244206 0.03510506
0.0013342946 0.006514822 0.029797822 -0.17919903 0.25560805 0.010777359 0.01751809 0.08690324
0.07010528 0.10123309 -0.12591101 0.040005874 -0.017884785 -0.014137085 -0.111095086 0.119047366
-0.025642795 0.09101172 -0.021999583 0.08399989 -0.03591043 0.014678987 0.086720735 0.0486301
-0.10963933 -0.0020556916 -0.015398291 -0.06702428 -0.040141117 0.02596078 0.05065315 0.09622633
-0.064296335 -0.004815845 0.11781301 -0.08311811 -0.031068519 -0.038745757 0.18785527 -0.11489528

core.core.fc.0.0.bias f4 [128]
00000000: 78ef 393d ee46 bebc 78e9 063e 67fa a9bc
00000010: 68e8 863c 19dc e43d 7c77 bb3d 39ff a43c
00000020: 2678 44bd 27df d73d 9016 5d3d 5c54 aa3c
00000030: 4b27 03be 52c6 45bc 8eba 4fbd 5a7f 223e
00000040: 81de 0bbc b8f8 863d a75c 36bc 4273 a63d
00000050: b3c9 113d 8985 78bc b144 793d 818c 8f3d
00000060: bb9e 153d e793 2bbd 70d4 bcbc fdc6 ac3d
00000070: befe ae3a dcf8 963b f381 f03d 9cf2 f23b
00000080: ba32 ee3d 3c98 653d c807 a83c 7707 a0bc
00000090: 433d e23d 8ccf 863c c923 81ba 002f 87bc
000000a0: 3d28 203e 5b7c a9bc 8622 f8bc cb42 ae3d
000000b0: 78d2 913c 8e66 353d 209e 703d 5875 07bd
000000c0: b54a bebc d3ce f13d ea1a 81bc 7c5a 843d
000000d0: 8368 babd 9445 e2bc 5dc7 79bd d0a7 1e3b
000000e0: 02b5 e23b dcec a23d a0f9 853c abcf cb3d
000000f0: b227 52bc a41c fe3c 2af2 ea3b e781 5d3d
00000100: 06a9 0b3e 627c 8f3d fc2a ed3c 5739 a03d
00000110: 2efe 8e3d 8113 133e b661 813d a2f7 f33d
00000120: 3c43 933d ee2c 493d 6df5 b13d 8887 bbbd
00000130: 52f4 0c3d be8e e1bc f1b7 c53c d2cd 2cbd
00000140: 165e 92bd e241 53bd 410c 713c ec45 053e
00000150: 5bb8 e4bb 13c9 b33d f039 47bb c6cb 903d
00000160: 9caf 1a3e 24ef eb3d 8f46 5a3d b368 41bc
00000170: 57d1 243d d040 eb3d 57a5 3a3d 2fcc 11bb
00000180: 430e 873d 0302 233e 8183 343b a2ba 063d
00000190: 852d 45bc ecfc 2a3d ad84 5c3c 2d07 c1bc
000001a0: 1d08 e63d 0302 88bd 9007 963d 369a d1bc
000001b0: 5dd6 ce3b 127c 123d a58d 0e3d 7bc0 493d
000001c0: 6cbc 76bd 8106 abbc cc93 d5bc abd7 3fbb
000001d0: ac46 75bd 6f60 fc3d 3850 613b c3f4 01bc
000001e0: 3d79 eb3d e03e 03bc e1cd 303d 15f4 b5bc
000001f0: 75cf a9bd f3b5 8d3c 8bfa f73c 7595 f73d
0.04539439 -0.023227181 0.13174999 -0.020749284 0.016468242 0.11174793 0.09153649 0.02014123
-0.047966145 0.1054061 0.053976595 0.020792179 -0.12807958 -0.012071209 -0.05071502 0.15868893
-0.008536936 0.06590408 -0.0111304885 0.081274524 0.035592746 -0.015168556 0.060856525 0.07009221
0.03652833 -0.041889098 -0.023050517 0.084363915 0.0013351066 0.004607303 0.11743536 0.007414175
0.11630769 0.056053385 0.020511523 -0.01953481 0.11046841 0.016456388 -0.0009852584 -0.016501904
0.1564035 -0.02068918 -0.0302899 0.085088335 0.017800555 0.044287257 0.05874455 -0.033070892
-0.023228982 0.11807027 -0.015759904 0.06462571 -0.09101965 -0.027621068 -0.060981143 0.002420891
0.0069185505 0.079553336 0.016354382 0.09951719 -0.012826847 0.031019516 0.0071699815 0.054078963
0.13638696 0.07006146 0.02895116 0.07823437 0.06982075 0.14362909 0.06317465 0.119124666
0.07190558 0.049115114 0.086893894 -0.0915671 0.03441269 -0.027533885 0.024135562 -0.042188473
-0.07146852 -0.051576503 0.014712394 0.13014954 -0.0069799847 0.08778586 -0.0030399524 0.07070117
0.15106052 0.11520222 0.053289946 -0.011804747 0.040238705 0.114869714 0.045567837 -0.0022246947
0.06594517 0.15918736 0.0027544203 0.03289283 -0.0120347785 0.04174511 0.013459367 -0.023562992
0.11232016 -0.06641009 0.07325661 -0.025586229 0.006312175 0.035762854 0.03480305 0.04925583
-0.060238287 -0.020877125 -0.026071452 -0.0029272835 -0.05988185 0.12323081 0.003438009 -0.007931891
0.11497734 -0.008010596 0.04316509 -0.022211114 -0.082915224 0.017298674 0.030270835 0.120890535

core.core.fc.1.0.weight f4 [128, 128]
00000000: cd7a c03d 0781 0e3d 4472 33bd b0eb 48be
00000010: 92bc 9bbc 558b eabd c35b 3fbe 57e6 1a3e
00000020: 9602 2f3e 86fe a33d df22 14be f3ab 35bd
00000030: 1234 1fbd 9c78 2abe a790 d53d 539c 4ebd
00000040: 9a9b 04be b164 38be 756d 873d 4844 22bd
00000050: 1a0e 763e daf6 e7bc 9a0d 8bbe c752 83bd
00000060: 8da4 5bbe a1b5 28be e8a2 bf3d bd05 24be
00000070: dae1 dfbc f00b ee3d 74c2 88be 9379 63be
00000080: a0e8 43be ab28 a63c eda5 53be cd61 8cbe
00000090: 9ea1 64be a425 21be 8711 56be 64b0 b43c
000000a0: 64da 8a3d d5b5 55be 003b db3d 6218 7fbe
000000b0: baea 0abe 325a b6be 6342 d53d d163 543d
000000c0: 31c0 653d 617a 07be 1102 4a3b 6365 30be
000000d0: 578a 143c c913 35be 7243 a2bd 3ee1 4c3e
000000e0: 7514 f3bd 2c79 7bbe 4615 f3bc 4e45 d43d
000000f0: bc32 463b 5fc2 883d ef8c b93c e49e 7cbe
00000100: f08c 8dbd 0655 40be 8ebb c33d deb3 4bbe
00000110: 872a 1c3e 88e0 8a3e fb27 50bc aa21 44be
00000120: 9e47 69be 5745 183e 9d84 313d f7f6 1d3e
00000130: 3749 043e 7cdc efbd 08ef 663d f059 2cbe
00000140: 6220 dcbd 3d50 3f3e 7673 e43d 7819 8bbc
00000150: b956 0fbe d0d4 11be e6b1 0ebd ad1b 5f3e
00000160: bef0 d33b 7889 203d f1d2 02be ba68 ee3d
00000170: 7561 e43d f4c4 afbd a026 9dbd 40d0 aabc
00000180: 97f7 7abc fbc9 4bbe 0da3 40bd a76a 90bd
00000190: 8f48 973c 9598 343c 1d0f 0a3e 9251 683d
000001a0: 9126 c2bd 25cd 523c 11d3 7a3e 5ef6 9ebd
000001b0: e537 1f3d 93fc c93d 2e90 d0bc d7d8 993d
000001c0: 10f5 3dbe 187b 373e 62f4 2ebe 5a09 7fbc
000001d0: 1755 353c caf6 76be 0ea3 ec3d 5569 d63d
000001e0: 93b3 943d 0fa7 9b3d b77a d63c a22d 903d
000001f0: e391 ca3c a91e e13c 5b28 d9bd a560 2f3e
00000200: e4bc e9bc 82ae 39bd b482 61be dc07 2f3c
00000210: 847b a5bd 37a1 adbc 206b 253e 738d 3ebd
00000220: b822 293e a3af f73b a58b a6bd 8224 a63c
00000230: 3820 063e 111a 72bd 1a67 e83d fb18 a23e
00000240: fc33 b6bd 1938 2bbe 974e 9b3d d81c 48be
00000250: e0d4 0b3e 77d4 533e d9b3 febd 6674 ccbc
00000260: 9c2f d1bd 9a53 593d 1d15 303e 71c2 10be
00000270: bc49 cfbb 362d 2cbd da5d 1e3e e37a 2ebc
00000280: e430 cf3e cb1f 69bc 939e aebd b611 493d
00000290: 4aa8 8cbe ddd6 02be 2eb8 ac3d 2b4c 15be
000002a0: 6a41 b3be c01a ac3d febc 9e3d 9c9d c0bd
000002b0: 719d 953c 3c6b 4bbd 1c3c 97bd 2b87 2e3e
000002c0: 2bcb 0abb 74b4 2abd 0828 783e f51e 743d
000002d0: bd3f ef3d ab3f 2bbd e2bb 833d 4bd6 b1bc
000002e0: e6ac d7ba b820 a5bd f9ea 73bd f795 fb3d
000002f0: fddb cdbd 57fb 013c b356 d33d ad74 18be
00000300: 7dfd 66be 216c 89be d54d 86bd 5311 2fbe
00000310: 1762 87bd ec11 c9bd 69ec 27bd 480d e0bd
00000320: 08dd 363e 2602 193d eb30 cfbe 16c6 1a3d
00000330: 343a 56bd 2de6 763e 5398 20bc 925e 603d
00000340: 1f3c 863e b400 42be 1bd8 1b3d 4788 9fbd
00000350: 20c8 613d 093d c43e 0bff 34bc 6e5b 8cbe
00000360: c669 8fbe 90b2 c9be 2bd4 54be dc2a 43be
00000370: f1fd 613e 706b 773c f83d 9b3c 70b1 833e
00000380: ea27 37be ef42 113e 0da0 e2bd a920 b0bd
00000390: a604 06be cd79 b33b fe7b 8bbd 5949 cf3d
000003a0: 6836 a5bc eb23 2a3e 39f8 293d 0303 8b3c
000003b0: da87 113d e9b0 10be 9549 e3bc edb3 6d3d
000003c0: d924 8f3d f957 153e d7fd 19be 55d0 b8bb
000003d0: f48a ab3e 50c8 83be d3a2 3d3d 5cae c6bd
000003e0: 0f90 e43c f64e 00bd 96d7 95bd 9651 08bc
000003f0: 05e2 803d 01c3 c2bc 97a9 28bd 318c f6be
0.093984224 0.03479102 -0.043810144 -0.19621158 -0.019010816 -0.11452357 -0.18687348 0.1512693
0.1709083 0.08007531 -0.14466427 -0.044353437 -0.038868017 -0.16647571 0.10427981 -0.05044205
-0.12949982 -0.1800716 0.06612674 -0.0396159 0.24028817 -0.02831595 -0.27158815 -0.06412273
-0.2144949 -0.16475536 0.09357244 -0.16017814 -0.027329374 0.11623371 -0.26710856 -0.22214346
-0.19131708 0.020283064 -0.20668764 -0.27418366 -0.22327277 -0.15737015 -0.20905124 0.022056766
0.06779936 -0.20870145 0.10704613 -0.24911645 -0.13566104 -0.3561569 0.10413053 0.051853005
0.05609149 -0.13230278 0.0030823986 -0.17226176 0.009066186 -0.17683329 -0.079230204 0.20007798
-0.11869136 -0.24557942 -0.02967323 0.10364781 0.0030242642 0.06677698 0.02265021 -0.24669987
-0.06911647 -0.18782434 0.095572576 -0.19892833 0.15250598 0.2712443 -0.012704845 -0.19153467
-0.22781226 0.14870201 0.04333936 0.15426241 0.12918554 -0.11711976 0.0563803 -0.16831183
-0.10748364 0.18682952 0.11154835 -0.016979918 -0.13997926 -0.14241338 -0.034837626 0.21787901
0.0064679077 0.0391936 -0.1277578 0.11641069 0.11151401 -0.08582488 -0.07673383 -0.020851254
-0.015317819 -0.19901268 -0.047030497 -0.07051592 0.018467216 0.0110227065 0.13482328 0.056718417
-0.09480012 0.012866293 0.24494578 -0.077618346 0.038871665 0.09862628 -0.025459375 0.07512062
-0.18550515 0.1791805 -0.17085412 -0.015566194 0.01106765 -0.2411758 0.11554538 0.10469309
0.072608136 0.07600223 0.026181562 0.07039954 0.024727767 0.02748044 -0.106034 0.1712671
-0.028532453 -0.04533244 -0.22022516 0.010683026 -0.08080199 -0.021195037 0.16154146 -0.046521615
0.1651715 0.0075587793 -0.08132104 0.02028108 0.13098228 -0.05910689 0.1134779 0.31659684
-0.08896634 -0.16720618 0.07583349 -0.19542253 0.13655424 0.20686518 -0.12436647 -0.024957847
-0.10214159 0.053058244 0.17195554 -0.14136674 -0.0063259285 -0.042035304 0.15465489 -0.010649416
0.40466988 -0.014228771 -0.085263394 0.049089156 -0.27472144 -0.12777276 0.08433567 -0.14579837
-0.35010844 0.0840354 0.07750891 -0.094050616 0.01826355 -0.049662814 -0.07384512 0.1704375
-0.0021178226 -0.041676 0.2423402 0.059599835 0.11682079 -0.041808765 0.0643232 -0.021708628
-0.0016454726 -0.08062881 -0.05955026 0.12284463 -0.10051725 0.007933459 0.10319271 -0.14888258
-0.22557636 -0.26840308 -0.06557814 -0.17096452 -0.06610506 -0.098178715 -0.040996943 -0.10940033
0.17857754 0.037355565 -0.4046701 0.037786566 -0.0523016 0.24111243 -0.009801942 0.05477769
0.26217744 -0.1894558 0.03804789 -0.07789665 0.055122495 0.38327816 -0.011047135 -0.27413505
-0.28010386 -0.39394045 -0.2078406 -0.19059318 0.22069527 0.015101299 0.018950447 0.25721312
-0.1788632 0.1418569 -0.110656835 -0.085999794 -0.1308771 0.0054771663 -0.06810759 0.10121412
-0.020167544 0.16615264 0.04149649 0.01696921 0.03552995 -0.14129986 -0.027745048 0.05803292
0.0698945 0.1458434 -0.15038238 -0.0056400695 0.3350445 -0.25738764 0.04629786 -0.09701225
0.027900724 -0.031325303 -0.073165104 -0.008320233 0.0629311 -0.023774626 -0.04117736 -0.48153833

core.core.fc.1.0.bias f4 [128]
00000000: 4c84 583d 8a3c 203b 8403 353d 9537 22bd
00000010: 45d0 d03d 51dc e3bc 937e 1cbe 969b 663d
00000020: eccc ecbd 0867 16be 83e9 393c 0506 4e3d
00000030: 651a 15be 724c cb3c 2efe 44bd d7cf d43d
00000040: 6439 5bbd 9940 7fbd c0ad e9bd ece3 efbd
00000050: fc55 bd3d 8fdd 373e 4956 e9bd 2754 acbd
00000060: 9ab7 693d 149e 31be f2c5 8a3c d4c9 83bd
00000070: 55c5 df3d a794 8bbd 97c9 393d 07ef f4bc
00000080: e534 463b 7174 d13d e2b9 ffbd 6d70 133e
00000090: da4a c23d 6515 b4bd 3987 8cbd da1e 93bc
000000a0: 2b08 d3bd 3ba6 d13d 65d4 723c ca5c 893d
000000b0: 9d25 cf3c 3d0e fcbd 2bea ecbc 38a9 9a3d
000000c0: f009 ccbd 7a3e 2ebd 67dd abbd 9385 92bc
000000d0: ccd1 6e3d 5c31 2e3d a17c 883d 87db 9c3d
000000e0: c17b f6bc 18fa c13d 1512 063e bf30 a53c
000000f0: eb7a b63d c3d6 84bb 3aa3 56bd be26 7dbd
00000100: 1a23 003e 7ec7 383e 0d2e a93d 4158 94bc
00000110: 8224 9b3d f1ee ab3d cf48 543d d0a4 f4bd
00000120: 4863 e63d e640 993d b6f7 8c3d 28dd b63d
00000130: abd6 d53d fef3 00be 7672 153d 8bd2 0c3e
00000140: f117 6bbd c8df 81bd 7e68 d4bd d7d6 d13d
00000150: 1284 09bc 2b1a c93d 733e 05be bf7c 6a3c
00000160: e3d8 babd 7954 1e3d 6b12 a3bd 7c84 cebd
00000170: 5b84 08bd 2ef1 29be c790 3cbd 0086 ac3d
00000180: f588 0b3e 6eb7 c43d 71e7 0b3c ce35 d13b
00000190: 9c14 e6bd 4408 e2bd d0c2 a9bd 4576 f23d
000001a0: 1285 30bc 12b7 413b 5990 d5bd b523 31be
000001b0: 1045 413d b2eb 2e3e 8db1 873b b759 34bd
000001c0: 2cec ac3d 0146 ae3c 2e25 653d de0e 0e3d
000001d0: e423 aa3d 3e3f ff3d f95b 30bd 6579 0d3d
000001e0: 8f07 403d db7f d13d f146 26be d3a8 203e
000001f0: 6ec6 adbd c13a dd3c 1946 873d deec f4bc
0.052860543 0.0024450147 0.044192806 -0.03960379 0.10195974 -0.027815016 -0.15282659 0.056300722
-0.11562523 -0.14687741 0.011347177 0.05029871 -0.1456085 0.024816725 -0.048093967 0.10391205
-0.05352153 -0.062317465 -0.11410093 -0.117133945 0.09244916 0.17955612 -0.11393411 -0.08414488
0.05705986 -0.17345458 0.01694009 -0.0643498 0.1092631 -0.068154626 0.045358267 -0.029899133
0.003024393 0.102272876 -0.12486626 0.14398356 0.09486933 -0.08793143 -0.06861729 -0.017959047
-0.10304292 0.10236784 0.014821147 0.06707151 0.02528649 -0.12307403 -0.028920254 0.07551807
-0.09962833 -0.04254005 -0.083918385 -0.017885959 0.058305547 0.04252754 0.06664396 0.07659059
-0.030088307 0.0947153 0.13092835 0.020164846 0.089101635 -0.004053922 -0.05240176 -0.061804526
0.1251339 0.1804485 0.082607366 -0.018108489 0.07575323 0.08395184 0.05182725 -0.11945498
0.11249405 0.074830815 0.068831846 0.08928901 0.10441335 -0.12593076 0.03648611 0.13752191
-0.05739588 -0.06341511 -0.10371493 0.102460556 -0.008393304 0.09819444 -0.13012104 0.014311968
-0.09123399 0.03865478 -0.07962497 -0.10083863 -0.03332935 -0.16595909 -0.046036508 0.08423996
0.13626464 0.09605299 0.008539067 0.006384588 -0.112344 -0.11036733 -0.08289111 0.118389644
-0.010773914 0.0029558581 -0.10427923 -0.17298777 0.047185004 0.17082098 0.0041410387 -0.04403087
0.08443484 0.021273615 0.05594366 0.034682147 0.08307627 0.12463234 -0.043056462 0.0345396
0.04688221 0.102294646 -0.16238 0.15689401 -0.08485113 0.027005555 0.06605167 -0.029898103
