artifacts/poses_to_location/20250820203533/best_model.pt (torch, 926837 bytes, 54 tensors)

embedding.embeddings.bex_20230623_denoised.poses.weight f4 [128, 63]
000000 a6 68 ab bd 5c 14 8e be a1 2d 07 3e 0b 43 64 be
       -0.083695695 -0.27749908 0.13201 -0.222912
000010 65 74 2d 3e 73 af 1a be 0e 9d 3a 3e c9 ad 3a bc
       0.16938932 -0.15105991 0.18223974 -0.011393973
000020 3f b7 9b bd ca 40 92 bd 35 68 06 be 4d 5e 31 3e
       -0.07603311 -0.07141264 -0.1312569 0.17321129
000030 33 e6 3c bd d6 e1 76 bd 7d 98 85 be 48 f7 d1 3d
       -0.046117973 -0.060273968 -0.26092902 0.10252243
000040 75 c5 86 bd c6 53 9c 3e 43 43 a3 3d 0b bb 4a be
       -0.06580631 0.30532664 0.079718135 -0.19797914
000050 8a 6c e2 bd a5 40 81 be 7c a6 75 3e 7b 9a 1d be
       -0.110558584 -0.25244632 0.2398929 -0.15390961
000060 ad 51 d0 3d 2f 93 8b 3d 3e c4 89 3d d6 e4 c8 3d
       0.101718284 0.068151824 0.06726883 0.09809272
000070 96 76 82 be dd 63 54 3e 32 c5 5a 3d 5c 75 1f 3e
       -0.254811 0.2074122 0.053410716 0.15572113
000080 7b 95 a8 bd 4f 99 e3 bc c8 0b 0b be c7 29 f1 bb
       -0.08231636 -0.027783064 -0.13578713 -0.0073597166
000090 d2 bf e6 bd 77 38 67 bd cc a5 7a be 98 18 3a be
       -0.112670556 -0.056450333 -0.24477309 -0.18173444
0000a0 13 cc 97 3d 2e 89 12 be bd 7f 25 be c7 ab b1 bc
       0.07411971 -0.14310142 -0.1616201 -0.021688355
0000b0 1c 6a e3 3d 75 d6 39 3e 62 04 5b be ef 24 0b bd
       0.11104223 0.18148215 -0.2138839 -0.03397077
0000c0 dd 58 80 3e ca 12 79 3e 1c 0a ed be 97 f6 1f bf
       0.25067797 0.24323574 -0.46296775 -0.6248564
0000d0 29 a8 fe bd 59 28 27 3e 34 26 7f bd a2 01 7c b6
       -0.12434418 0.16323985 -0.062292293 -3.7551877e-06
0000e0 26 43 4f b5 12 de 95 b3 b9 1e 14 b2 7f b8 0b 31
       -7.7211223e-07 -6.9787475e-08 -8.621719e-09 2.0332036e-09
0000f0 56 4e a2 35 3b 9c df b6 d4 f1 e2 bb ca cb b2 3d
       1.2092739e-06 -6.6641055e-06 -0.006925801 0.08730276
000100 99 86 fa 39 cc 24 de bd cf 83 7e bd 75 78 dc bd
       0.00047784 -0.10846862 -0.06213742 -0.10765163
000110 cc e0 c3 bd 85 ff 5e bd 2a ae 3a 3e 6a 7c 49 3a
       -0.09564361 -0.0544429 0.18230501 0.00076860806
000120 dd e4 9b bd 02 e2 90 3e 0d 8d 2e 3d 91 f7 bb 3c
       -0.076120116 0.2829743 0.042614985 0.022945197
000130 7f 51 73 bd 9b 15 54 3d 36 7b ac bb 9b c9 a2 bd
       -0.059403893 0.051778417 -0.0052637113 -0.079486094
000140 4b 8a 49 3d ee fa 04 be 45 61 86 bc 63 18 96 bb
       0.049204152 -0.12986347 -0.016403804 -0.004580544
000150 dd 50 43 3e fb 7a fa 3c 07 39 20 bd 38 0f a4 bd
       0.19073816 0.03057622 -0.039116886 -0.08010715
000160 73 26 ea 3d 1d c9 19 be 41 01 4b be 4c ad 3a 3e
       0.11433115 -0.15018125 -0.19824697 0.1823017
000170 22 20 51 be 40 54 4f be e8 6a b5 bd 59 c1 e6 3c
       -0.20422414 -0.20246983 -0.088582814 0.028168367
000180 32 38 34 3d b3 42 82 bd b1 d0 ce bd fb a2 22 be
       0.043998905 -0.06360378 -0.100983985 -0.15882485
000190 64 58 b2 bd df 56 fd 3d 33 08 2c 3e 19 05 e4 bc
       -0.087082654 0.12370085 0.16800003 -0.027834462
0001a0 ab 8d 14 3e df b6 fb bd 48 79 02 3e 15 51 b1 bd
       0.14507167 -0.12290739 0.12741578 -0.08658043
0001b0 f5 09 c9 3d 97 e2 ce bd d2 52 f9 3c f3 4f e9 bc
       0.09816352 -0.10101812 0.030435 -0.028480506
0001c0 f9 8f 84 3e 85 94 69 3d 6a 7d 0d 3e 10 5b fc bc
       0.25891092 0.057026405 0.13817373 -0.03080514
0001d0 8e 49 e4 37 c6 65 a5 3d 0e 13 39 b6 76 23 0b b4
       2.721397e-05 0.08076052 -2.757824e-06 -1.2958284e-07
0001e0 4a ab 86 b4 43 96 f9 b2 39 d9 d1 32 20 90 ae 31
       -2.5084074e-07 -2.9055746e-08 2.4429584e-08 5.0804516e-09
0001f0 b4 97 d0 b5 90 68 8a bb f3 6a a6 3c 16 20 c5 3d
       -1.5541359e-06 -0.0042238906 0.02031467 0.096252605
000200 75 8f b9 bd f3 39 96 3d 12 7b ef bd a3 98 0f be
       -0.090605654 0.07335272 -0.11693396 -0.1402307
000210 99 e3 d2 bd 2f fd 10 bd 01 86 79 be 45 ba 3c 3e
       -0.10297317 -0.035397705 -0.24367525 0.18430431
000220 31 18 45 3d 9c 6b 38 be 7b aa 0e be dc 94 4b 3e
       0.048118774 -0.180098 -0.1393222 0.19881004
000230 2d ec 34 3e 5e 2b 1f be be 8b 24 bd 0c 4d 0f be
       0.17668219 -0.15543887 -0.04017233 -0.13994235
000240 13 ca 7f be fd d4 01 be 2e cf ed 3c 08 e9 c6 3d
       -0.24979429 -0.12678905 0.029029455 0.09712416
000250 cc 7c 0b be ca a0 af bc fb e4 57 bd 9c 83 db bd
       -0.13621825 -0.021438975 -0.052708607 -0.10718462
000260 4f ca 92 3d 05 81 0b 3d 32 11 26 3e ed 2c c1 bc
       0.071674936 0.03405859 0.16217497 -0.023580993
000270 14 f2 50 bd 6f ff 45 be 91 56 eb 3d 25 16 98 3c
       -0.051012114 -0.19335721 0.114911206 0.018565247
000280 fe 9e a8 3d 13 ae bc 3d f9 93 7e 3e 15 46 13 3e
       0.0823345 0.092128895 0.24861135 0.14382203
000290 d8 07 8e 3d fa 59 bc bd 16 ed b1 bb 72 23 76 3d
       0.0693509 -0.09196849 -0.005429874 0.060092397
0002a0 60 cc e4 3d bd 2a 65 be 0a a7 31 3e cc 79 93 be
       0.11171794 -0.22379585 0.17348877 -0.2880386
0002b0 15 46 26 bd 7c ba 39 bd fa 99 bd bc 6a a2 83 be
       -0.04059418 -0.04534386 -0.02314471 -0.2570985
0002c0 8e ce 4b bd 3a 81 41 3c 0b 82 12 3e 60 02 7c bd
       -0.049757533 0.011810595 0.1430742 -0.061525702
0002d0 f7 c4 c0 bd f3 23 b1 35 54 4f 34 34 96 3c 8d 33
       -0.09412568 1.319799e-06 1.6792666e-07 6.576845e-08
0002e0 15 7d 39 33 64 d8 e1 b2 0c 2a 45 b5 47 0c 51 b4
       4.318743e-08 -2.629185e-08 -7.3449405e-07 -1.9469108e-07
0002f0 70 00 4c 3b e9 7b a7 bd 2a 3e 4c be a7 ea 08 3e
       0.003112819 -0.08177931 -0.19945589 0.13370763
000300 e2 0e 94 3d d2 1c c0 3d 8d c7 70 3d 17 e4 86 3c
       0.07229401 0.09380497 0.058784056 0.016466184
000310 43 a1 a0 3d a4 9a 02 3e 97 0b 69 3d 45 4e cc 3e
       0.07843258 0.12754303 0.05689582 0.39903465
000320 97 ea c7 3c 0a 01 54 3e 8b 70 11 bd b5 32 3c 3d
       0.024403853 0.20703521 -0.03550772 0.045946795
000330 77 ef 1a be d4 57 74 3e 5d d0 02 3d 5e 37 33 bd
       -0.15130411 0.23861629 0.031936992 -0.043753974
000340 ca 2f 4d 3e 49 cf 05 3e 0f 3b 38 3e bc eb 0d 3e
       0.20037761 0.13067354 0.17991279 0.13859457
000350 17 5c ac 3d 59 b5 f4 3d 30 f3 e4 bd 5c 9b 6d be
       0.08416002 0.11948652 -0.11179197 -0.23203796
000360 1d 63 05 be 36 9e 57 bd fe 86 c8 bd 16 3f 26 be
       -0.1302609 -0.052641116 -0.09791373 -0.16235003
000370 22 ab 34 be a9 f2 a4 be 7c 19 6f 3d 8c 78 d8 bd
       -0.17643407 -0.32216385 0.058373913 -0.105698675
000380 c7 74 f9 bd f2 2d 0b bd a3 b2 bb be 30 5f 52 bc
       -0.12180477 -0.033979364 -0.36659727 -0.012840077
000390 2c a9 ac bd 41 7c c9 3c 79 da a4 bd 89 cd 40 bd
       -0.084307045 0.024595382 -0.08049483 -0.047071014
0003a0 4b 57 23 3c 8e 2b 91 bd 12 95 4a be c0 3e 69 3e
       0.009969543 -0.070883855 -0.19783428 0.22777843
0003b0 d3 99 7c be f0 ed a4 3d 36 ba 7d 3e 30 e3 c6 3d
       -0.24668054 0.080531955 0.24778065 0.09711301
0003c0 f6 f9 0f 3d 02 d9 75 3d 03 c6 91 3d 58 72 4b 3d
       0.03515049 0.060021408 0.07117846 0.049669594
0003d0 dc 6a 8d 32 ee ae 89 35 8b e8 b1 33 f8 70 8c b2
       1.6463154e-08 1.0258207e-06 8.284504e-08 -1.6349517e-08
0003e0 85 43 9f 32 79 f8 aa b5 c6 b1 e0 36 dc 5f 85 3a
       1.854074e-08 -1.2738302e-06 6.6964158e-06 0.0010175663
0003f0 a6 e8 77 3d 9e 5d 22 be c9 6e 3d 3e fd 86 59 bd
       0.060524605 -0.15856025 0.18499292 -0.05310725

embedding.embeddings.bex_20230623_denoised.poses.bias f4 [128]
000000 ab f1 46 bd 81 92 67 bd fa d8 02 b9 f2 6b fb bc
       -0.048570316 -0.0565362 -0.00012478596 -0.03069112
000010 0e 72 38 3d fb 0d c1 bd 7d b4 96 3b b7 ff b6 3b
       0.045030646 -0.09426495 0.0045991526 0.005584683
000020 4c ea 50 3c 50 ff af bd 93 a5 e8 3b 8b 6f 6e 3d
       0.012751173 -0.08593619 0.007099816 0.058211844
000030 05 88 0b be 05 6d b5 3c ee c5 15 bd 17 70 c2 bc
       -0.13626106 0.022146711 -0.036565714 -0.02373509
000040 04 38 bc bd 6a 7e 87 3d 74 e7 05 3d 55 00 a9 bc
       -0.09190372 0.066159084 0.032691434 -0.020630041
000050 92 df a3 3c 9f be 88 3d fc d2 a5 bd ea b4 af 3d
       0.020004068 0.06676983 -0.08096883 0.085794285
000060 a2 20 40 3c bf 02 81 bd f0 7d d9 3d 6a 63 22 3d
       0.01172653 -0.06299352 0.10619724 0.03964559
000070 f4 eb 3a 3d 5b c0 eb bd 48 05 cc bc 27 ea 96 bc
       0.04563518 -0.11511298 -0.024904862 -0.0184222
000080 ce 28 0c be 9d b9 d0 3b 0b b2 70 bb 88 c9 60 3d
       -0.13687441 0.006369783 -0.0036727216 0.054879695
000090 4a 78 43 3d 34 c7 eb bd ca c8 ec bd 45 6d e7 bc
       0.04772214 -0.11512604 -0.11561735 -0.028250346
0000a0 79 a4 b0 bc 09 15 83 3d 93 4f b1 3d e5 5b ae bd
       -0.021562802 0.064004965 0.08657756 -0.08513621
0000b0 c5 52 07 bd 02 1f c5 bd a3 9f 43 3b 5c fc a2 bd
       -0.03303792 -0.09625055 0.002984979 -0.0795829
0000c0 c8 84 15 bd 81 27 eb 3d 9e 0f bc 3d 8c 4b bc bd
       -0.036503583 0.11482144 0.09182666 -0.09194097
0000d0 7b fd ef bd 3f 69 9a bd 36 46 a9 3d fe 85 2a 3c
       -0.117182694 -0.07539605 0.08265345 0.010407923
0000e0 fe 8a c6 bc 1b 1d 9c bd 3e 5d 0b 3d 6a 13 ab 3c
       -0.024236199 -0.07622739 0.03402447 0.02088328
0000f0 b6 ae 9d 3d 6f f6 95 3d 04 f7 98 bd dc ce 52 3d
       0.07699339 0.07322394 -0.074689895 0.051466808
000100 43 eb d4 3c e0 2f f8 3d 53 9e f5 bb 09 71 d6 bd
       0.025991088 0.121185064 -0.0074956804 -0.104707785
000110 e5 cf 91 bd 3a 9e 73 3d b4 a4 d3 3d cf 50 e8 3d
       -0.07119731 0.05947707 0.10334149 0.11343538
000120 20 aa 3f bd d8 e4 5f bd 1b 72 cc bd 44 c4 42 3d
       -0.046793103 -0.0546616 -0.099827014 0.047550455
000130 ff 3f cc 3c 7a b6 3f 3d 20 7f e5 3d ad b8 6a 3c
       0.02493286 0.046804883 0.11205888 0.014326257
000140 c2 c7 0c be 76 f2 89 bd f3 39 89 3d 2e a5 76 bd
       -0.13748077 -0.06735699 0.06700506 -0.06021612
000150 13 3d 97 3c 4c 39 83 3c 26 45 9b bd 04 64 f7 bc
       0.01846174 0.016018532 -0.075815484 -0.030199058
000160 f0 3a 1b bc e2 2b 87 3d b8 5a 84 3c 59 38 3a 3d
       -0.009474501 0.06600167 0.01615654 0.045463894
000170 0a 61 19 3d d0 89 9c 3d ef 49 a1 bd e4 bf a3 3c
       0.03744606 0.07643473 -0.0787543 0.019988962
000180 fa 5a 94 3d c9 80 f9 ba 5e f9 f7 bc fc f8 8a 3d
       0.07243915 -0.0019035573 -0.030270275 0.06785771
000190 b1 07 59 3d 11 93 d9 bd bd c4 0e bd d4 2f 74 3c
       0.05298585 -0.10623754 -0.034855593 0.014903981
0001a0 06 c4 1d bd b0 72 c8 bd a6 43 7b bd 03 2c 2c 3d
       -0.03851702 -0.097875 -0.06134381 0.04203416
0001b0 57 f8 b9 bd 2e 66 84 bd cc c8 fc 3c 47 07 be bc
       -0.0908057 -0.06464802 0.030857466 -0.02319683
0001c0 02 9a 95 bd b6 9d 47 bd 9d d3 ec bc b5 e7 47 3d
       -0.07304765 -0.04873439 -0.028909499 0.048804957
0001d0 1f 74 de 3d a3 4c 90 3d c1 aa 8a bd df be 71 3d
       0.10861992 0.07045867 -0.0677085 0.05901992
0001e0 2c 3d 52 3d a9 aa e6 3d 16 2e b2 3d 24 73 eb 3c
       0.05132787 0.112630196 0.087001964 0.028741427
0001f0 40 50 5d bd d2 e0 7c bd a9 e8 f1 3c bc 73 50 3d
       -0.05403161 -0.061737843 0.029529886 0.050891623

embedding.embeddings.ken_20230614_denoised.poses.weight f4 [128, 63]
000000 8e 0c be 3d e8 db dd bd 95 99 55 be 90 70 48 3d
       0.09279738 -0.108329594 -0.20859368 0.048935473
000010 51 16 fe 3d 7d b4 9e bc 55 b7 8a 3e f0 85 56 bd
       0.124066 -0.019373173 0.27092996 -0.052373827
000020 da 8c 46 be 6e f2 c6 bd 8f 31 05 bd 88 6f b3 be
       -0.19389668 -0.097142085 -0.032517966 -0.3504603
000030 45 ef 81 bd 9b 91 08 bf 8f c7 9d 3e ce 2d 82 3e
       -0.06344465 -0.53347176 0.30816314 0.2542557
000040 54 9d 1c 3d dc f0 f0 bd c5 f1 5c be 74 14 85 bd
       0.038235977 -0.1176469 -0.21576603 -0.06498042
000050 db dc aa bd 39 c2 b1 3d 06 d4 b0 3d a4 3a 42 be
       -0.08342906 0.08679623 0.0863419 -0.18967682
000060 4a 9f 9d bd 49 07 02 be 30 d4 b2 3e 61 b5 f7 bd
       -0.076963976 -0.12698092 0.3492751 -0.12095142
000070 f6 5b ba bc a7 ec 9a 3d e2 f0 9f 3b 89 46 9d 3e
       -0.022748929 0.07564669 0.0048810104 0.30717877
000080 44 87 76 3e 97 cb ae bd f7 10 d3 3d b8 19 db bd
       0.24075037 -0.085349254 0.1030597 -0.10698265
000090 34 49 71 be 66 4c c7 3e 54 55 54 3e 60 a3 96 3b
       -0.23563081 0.38925475 0.20735675 0.0045971125
0000a0 4e 9f 03 3e 73 7c 71 be b5 28 cd bd b3 3c 8d 3e
       0.12853739 -0.2358263 -0.1001753 0.27585372
0000b0 dc ba f6 bd 2d ad 06 3e 27 de a9 3e 68 71 9b 3d
       -0.12047359 0.13151999 0.331773 0.0758999
0000c0 b5 62 94 3e 83 27 96 bd 48 28 25 3f 93 d6 d8 bd
       0.28981557 -0.07331755 0.6451459 -0.10587802
0000d0 b1 73 b5 3d e1 ce 8d 3d 6c 02 c3 bd b5 06 52 b7
       0.08859957 0.06924225 -0.09521946 -1.2518537e-05
0000e0 0e 39 41 b5 92 87 e3 b5 92 22 0b b4 1e a0 ee b2
       -7.198113e-07 -1.6952274e-06 -1.295796e-07 -2.777966e-08
0000f0 49 a2 3e b3 be 99 f6 35 31 e0 3d 3c 23 3c db bd
       -4.438542e-08 1.8373173e-06 0.011589096 -0.107048295
000100 ab 5d 08 bd 35 f6 82 3e 84 fd bb 37 c6 1f 18 3d
       -0.033292454 0.25578466 2.241019e-05 0.037139677
000110 9f f1 95 bd c4 3e 31 3e 65 2c 26 3e 45 bf d9 3c
       -0.07321476 0.173091 0.16227873 0.026580462
000120 58 62 07 3d 93 94 7b 3d f5 e0 12 be 67 9d cc 3d
       0.033052772 0.06142099 -0.14343627 0.099909596
000130 d6 43 f7 3b bd fa 33 3e de ca b9 bd 6d e3 d7 3c
       0.0075459285 0.17576118 -0.09071897 0.026353562
000140 bb 6e cc 3c 5e 90 65 bc 84 37 a8 3c f9 88 79 bc
       0.024955144 -0.014011471 0.020534284 -0.015230411
000150 57 e4 eb bd 86 60 98 bd 95 d6 b3 3c 13 1e 60 be
       -0.11518162 -0.074402854 0.021952907 -0.21886472
000160 08 c8 18 bd 84 65 80 be 05 68 b1 3d d5 3b 87 3c
       -0.03730014 -0.2507745 0.08662418 0.016508022
000170 66 36 41 3d 4e 2a 0f 3d ec 74 85 bd f7 d0 1e bc
       0.04717102 0.034952454 -0.06516442 -0.009693376
000180 39 a0 33 3d ae 66 7b 3c 20 42 4e 3e df f6 b3 3d
       0.043853972 0.015344305 0.20142412 0.08787321
000190 54 47 11 3b df ed 1b 3d de 9b 81 be 36 fc 2c 3c
       0.002216776 0.03806865 -0.2531423 0.010558179
0001a0 47 a7 dc 3d ec 76 aa bc cc 60 89 be 77 4f 3a bd
       0.10774093 -0.02080866 -0.26831663 -0.04548594
0001b0 11 61 9e bc cb 29 06 3e b8 80 5b be da 79 ea bd
       -0.019333394 0.1310188 -0.21435821 -0.114490226
0001c0 e3 1c 19 bd 9b 3c 8c be 16 ad c3 3e 2f 79 32 3e
       -0.037381064 -0.27389988 0.38217992 0.1742904
0001d0 e8 60 28 3e 43 42 45 3e 8c b9 1e 36 f2 25 87 b6
       0.16443217 0.19263558 2.3651837e-06 -4.027731e-06
0001e0 c9 06 27 b5 85 53 f4 b4 d2 b4 4c b3 ba cb 87 b2
       -6.222222e-07 -4.550931e-07 -4.7661906e-08 -1.5808713e-08
0001f0 e4 e6 00 b6 de 47 0d 3c 28 42 21 3e 09 cf b0 3d
       -1.9207882e-06 0.0086230915 0.15747893 0.08633239
000200 08 39 e7 bd 3b 62 da 3d 86 ed 93 be 7f 5d fb 3c
       -0.11290175 0.10663267 -0.28892154 0.03068423
000210 0c de dc bd bd b3 4d bd 34 3b c0 3e 09 66 db bc
       -0.107845396 -0.05022024 0.37545168 -0.026782053
000220 9e 17 4a be 93 97 4b 3d 12 c7 9d be 39 c2 3d 3e
       -0.19735572 0.0497051 -0.3081594 0.18531121
000230 32 e5 a5 be 4b c1 df be 18 fe a0 bd ae f3 36 be
       -0.32401425 -0.43702158 -0.078609645 -0.17866394
000240 47 c6 bd bd 8c 30 c2 3c 67 01 0d bd 93 2a cb 3e
       -0.09266334 0.02370479 -0.034425166 0.3968092
000250 6b 59 60 3c fb b8 a9 3d 58 63 a0 3d 16 50 e9 39
       0.013693194 0.08287235 0.07831448 0.00044500892
000260 8f 07 77 3d 4b 96 39 3d da 3f 02 3e af bd 10 be
       0.060309943 0.045309346 0.1271967 -0.14134859
000270 75 f3 e8 3c f1 1b 1b be 73 c8 89 be 90 3b f2 3d
       0.028436402 -0.15147378 -0.26910743 0.11827767
000280 5c e1 2d 3d c0 1c 20 3d 24 a6 03 bd ce f2 ab bd
       0.042451248 0.039089918 -0.032140866 -0.08395921
000290 fc a4 6d 3e 71 f2 c1 3d 92 f0 1d be 5f e4 91 3d
       0.23207468 0.0947007 -0.15423802 0.071236365
0002a0 5d ef 09 3e da 1a 44 3d af e7 7e 3e 7c 85 74 bd
       0.13470216 0.04787717 0.24893068 -0.059697613
0002b0 81 ba 26 3e 8b ea 51 bd bc 24 8a 3c 76 d6 1f 3d
       0.16282083 -0.05124907 0.01686322 0.039022885
0002c0 b3 fa 06 3d f0 4a 17 be f5 3d c6 3d bd 7e 99 3b
       0.03295393 -0.1477468 0.09679786 0.004684298
0002d0 f3 5c d1 bd 5a 80 37 37 4c 67 06 36 65 42 5c 34
       -0.10222807 1.0937534e-05 2.0027683e-06 2.0513251e-07
0002e0 09 1d ea 34 60 97 b0 32 7c 3b 43 33 04 57 3b b4
       4.3607022e-07 2.0557934e-08 4.5456076e-08 -1.7447388e-07
0002f0 66 31 40 bc 76 ab 06 be 93 72 00 be b4 7e 31 be
       -0.0117305275 -0.13151345 -0.12543707 -0.1733349
000300 51 ce ea 3d cc 50 7e 3e 5a e1 c4 ba cc 76 5e 3e
       0.11465133 0.24835509 -0.0015020773 0.21725005
000310 03 54 96 3d e6 bd ac bd dc a1 6b be 33 7e 35 3e
       0.07340243 -0.08434658 -0.23010963 0.17723922
000320 0d 3b ae be fc 86 78 3e 38 e5 9b be 8b e9 54 be
       -0.34029427 0.24270242 -0.30448318 -0.20792215
000330 8b 7f b0 3c fa a9 64 3e 82 34 25 3d 82 55 0a 3e
       0.021545192 0.22330466 0.04033328 0.13509181
000340 81 83 98 be e1 96 b0 bd 67 dd d5 be cb a9 0e be
       -0.2978783 -0.08622528 -0.4177048 -0.13931958
000350 42 05 b5 bd 95 7c 1b 3e f6 6a a1 be 4c 78 ad be
       -0.088388935 0.15184243 -0.31526917 -0.33880842
000360 6f 23 0e bd 7e bb 4a bb 63 da 4d 3d 62 76 9f bc
       -0.03470176 -0.0030934508 0.050257098 -0.019465629
000370 d6 4a 83 3e 7b 93 86 3e 6e 03 d3 bc 38 b6 fd bd
       0.25643033 0.26284394 -0.025758471 -0.12388271
000380 33 7e 11 3e bf 7d e8 bc ae ff 35 3e 5f 85 89 3c
       0.14208297 -0.028380273 0.17773315 0.01678723
000390 1a 28 8c bd cc 75 96 3d dd 06 fa 3d 1d 22 97 bc
       -0.06843586 0.07346687 0.1220834 -0.018448884
0003a0 be 30 96 3d 5d 29 c0 3d d2 0a cc 3c 44 18 91 bd
       0.073335156 0.093828894 0.024907503 -0.070847064
0003b0 2f 41 33 3e bb 3b 89 be 32 77 0b be 76 b8 26 be
       0.17505334 -0.26803383 -0.13619688 -0.16281304
0003c0 0f 6c 0d 3f c5 d0 99 bd 74 a2 e0 bd a3 52 4e 3e
       0.5524301 -0.07510523 -0.109684855 0.20148711
0003d0 07 99 0d b7 96 1c 83 b5 1c ac d0 34 5a 9b 7a b4
       -8.439884e-06 -9.76858e-07 3.8868245e-07 -2.3339581e-07
0003e0 89 6f 73 b2 bf 6d b6 b2 91 7b 90 b5 87 1c c2 3b
       -1.4169822e-08 -2.1237495e-08 -1.0764799e-06 0.005923811
0003f0 e7 98 92 bd 8b c9 68 be fd 8f 12 3e 29 48 ea bb
       -0.0715807 -0.22733133 0.1431274 -0.0071497154

embedding.embeddings.ken_20230614_denoised.poses.bias f4 [128]
000000 5e 05 52 3c dd b9 ca bd d0 5a a2 3d 39 eb 59 bd
       0.012818662 -0.09898732 0.07927477 -0.05320284
000010 96 0b bf 3d 58 39 a3 bc 92 ab 86 3d 7d 48 db bd
       0.09328382 -0.019924805 0.06575693 -0.107071854
000020 ca dd 5c 3d fc 4f f8 bd d3 ac 26 3d 74 a2 8f bd
       0.053922452 -0.12124631 0.04069216 -0.07013407
000030 55 64 b7 3d 78 a7 f4 3c e4 e6 bc bd 0c 2d 4a bc
       0.08954684 0.029865012 -0.092237264 -0.012339842
000040 e1 7b 07 3d 91 4a 1f 3d 48 3d 25 3d 57 2c a0 bd
       0.033077125 0.03888947 0.040341645 -0.07820957
000050 df c6 eb bd ee 54 37 3c a7 53 6d bd bd 11 8e 3d
       -0.11512541 0.011189682 -0.057941105 0.06936977
000060 85 3e 26 3c ed b9 a7 3c 22 ba d0 39 96 ca a9 3c
       0.010146742 0.020474399 0.0003981153 0.020726483
000070 65 af 1d bd de d0 83 bd 74 46 cb 3d 64 d2 5a 3b
       -0.038497347 -0.06436323 0.09925547 0.0033389563
000080 39 8c 5f bd f0 10 b3 bd 00 d6 0a bd 9f 91 ad bd
       -0.054577086 -0.08743465 -0.033895493 -0.08475041
000090 f0 18 99 bd 1f 11 41 bd eb 03 44 3d f8 8f d3 bd
       -0.074754596 -0.04713547 0.0478553 -0.10330194
0000a0 f5 66 52 b8 1d fb 7f 3d 0c 1d 86 3d 2d 80 c8 bd
       -5.0163788e-05 0.06249534 0.06548509 -0.097900726
0000b0 42 c0 80 bb 70 1d 52 3d 51 0a 83 bd ed 0f af 3d
       -0.003929169 0.051297605 -0.06398452 0.085479595
0000c0 f1 25 6f bd 5d e2 bc 3d 74 df b4 bc 79 fd a8 bd
       -0.058385793 0.09222863 -0.022079207 -0.08251471
0000d0 0e a7 1a bc 29 af 9a 3c 03 d9 5d 3d 48 b8 81 3d
       -0.009439243 0.018882351 0.054162037 0.06333977
0000e0 97 f6 47 bd 48 86 4b 3d 5c b7 4b bc 98 95 3c 3d
       -0.04881915 0.049688607 -0.012433853 0.0460411
0000f0 e8 c7 e6 bc 6a 1c 5c bc c9 1e 8e bb 21 67 0b 3d
       -0.028171495 -0.013434509 -0.004337166 0.0340339
000100 90 33 9a 3d cb 97 ad bd 1e 3f 0a 3c 94 f4 b9 3d
       0.07529366 -0.08476218 0.0084379 0.09079853
000110 97 70 eb 3c 78 fa ef bd 4b 6e ae 3c 2d 40 49 3d
       0.02874021 -0.11717695 0.021292826 0.04913347
000120 96 a4 ac 3d e4 0b 85 3d a6 dd 7c bb 8c 57 b4 bd
       0.0842983 0.064964086 -0.0038584261 -0.08805761
000130 3b dd b7 3d cc 54 94 3d 2c ea af 3c 04 cb a6 bc
       0.08977743 0.07242736 0.021473967 -0.020360477
000140 4f 64 9b 3b e3 fd 2f bc 1b 69 82 bd 4b a4 e2 bd
       0.0047421823 -0.010741684 -0.063677035 -0.11066493
000150 31 87 11 3c 9c cf 84 bd dc f2 1e bd 30 8e 08 be
       0.00888233 -0.06484911 -0.038805827 -0.1333549
000160 99 83 e9 bd 31 30 35 3d 40 6b 88 3c 55 21 7d bd
       -0.114020534 0.044235412 0.016652703 -0.061799366
000170 87 62 76 3d f8 92 bb 3d 4c bc 68 3d d8 24 46 bd
       0.060152557 0.091588914 0.0568202 -0.04837498
000180 b1 52 cc 3d 29 99 ea 3c 31 f9 15 3d 4c 64 c1 bc
       0.0997671 0.028637486 0.0366146 -0.023607396
000190 68 cc 48 bd d8 8c b6 bd 2b d2 bf bd b3 ea 29 bd
       -0.049023062 -0.089135826 -0.09366258 -0.041483592
0001a0 4b 73 32 bd a9 02 aa 3d 34 00 8f bd c7 ff 45 3d
       -0.043566983 0.08301289 -0.069824606 0.04833963
0001b0 43 a8 ab 3c 3a fc 47 bd c0 94 de bc 61 06 6f bd
       0.020954257 -0.048824526 -0.027170539 -0.058355693
0001c0 a9 ca c0 bc 9d 55 2a 3c dd 23 22 3a be 49 c2 bd
       -0.023534136 0.010396388 0.00061851536 -0.094867215
0001d0 cc 23 d0 bd 67 db 94 3c 52 2c b7 3d f9 7a 50 3c
       -0.10163078 0.018171025 0.08944 0.0127246315
0001e0 57 54 57 3b 02 03 49 3d c2 d2 9e bc 70 fb 32 bd
       0.0032856667 0.049075134 -0.019387607 -0.04369682
0001f0 bd 33 d6 bd dc 6a c4 bd ed b5 fd 3c db c4 32 bd
       -0.10459087 -0.09590694 0.030970538 -0.043644767

embedding.embeddings.ken_20230618_denoised.poses.weight f4 [128, 63]
000000 d7 97 c4 3c bf 93 be 3d 14 ec 94 bd c7 1b 0b be
       0.023998184 0.09305524 -0.07271591 -0.13584815
000010 39 ac 84 3d bd 59 01 be 83 34 3b 3e dc a0 0c 3d
       0.06478161 -0.12631889 0.1828175 0.034333095
000020 77 e6 48 bd 60 18 4f bc 36 8c 52 be f1 ae ef 3d
       -0.049047913 -0.012640089 -0.20561299 0.11703289
000030 c3 fd af 3c dc 8a 9c ba ce 2c 3d be 55 b2 8b bd
       0.021483308 -0.0011943239 -0.18474123 -0.068211235
000040 4d 0e 8c 3c 90 b8 32 bd 88 30 21 3e 06 0c bf 3d
       0.017096663 -0.043633044 0.1574117 0.09328465
000050 21 7d 9e be c5 46 ac 3d 39 12 83 bb b1 9a 0a 3e
       -0.3095484 0.08411936 -0.003999975 0.13535573
000060 bf 61 bc be 9d e0 0f be 66 b2 32 be 31 ae 5f 3e
       -0.36793324 -0.14050527 -0.17450866 0.21843792
000070 19 52 a7 3e a0 c8 e5 bd ec 19 47 3c 78 3d 64 3e
       0.32679823 -0.11219907 0.012152176 0.22289073
000080 bf 22 87 3d 98 2e 7f 3e 09 b4 84 3e b4 1e fb 3d
       0.06598424 0.24920118 0.25918606 0.122617155
000090 4e 85 fc bd a8 09 8a 3d fc 85 8c be 76 ef a4 bd
       -0.12330113 0.06740123 -0.27445972 -0.08053486
0000a0 b3 51 05 3f ac bd c4 bd 69 4c a8 3e 3d 74 e8 3d
       0.5207779 -0.096064895 0.32870796 0.11350296
0000b0 bf 5b d0 bd 5b 70 93 3e 25 d8 66 bd 43 d7 29 be
       -0.10173749 0.28796658 -0.056358475 -0.16586022
0000c0 59 c5 22 3e 59 c4 91 3d 2f 84 c8 3e 8b 88 e1 3e
       0.15895595 0.071175285 0.39163348 0.44049487
0000d0 f2 43 d3 bc 49 31 bb 3c 7d bb 40 be e9 f7 8e 36
       -0.025789235 0.02285065 -0.18821521 4.2607903e-06
0000e0 9b b9 c1 36 c3 f5 8e b5 e9 0b 0d b5 97 9b 21 b3
       5.7734555e-06 -1.065135e-06 -5.2543925e-07 -3.762724e-08
0000f0 72 dc 1c 33 21 5e ac b6 bf 60 b5 bc 48 e2 de bd
       3.6522074e-08 -5.1369575e-06 -0.022140859 -0.108830035
000100 b0 1b 30 3d 54 74 c2 3d ab 4f 49 3e 6d 65 a6 bd
       0.042995155 0.09494844 0.19659297 -0.08124814
000110 28 f5 53 3e 2b 89 b1 3b 9c d7 6e be 03 52 7d bc
       0.20698988 0.005417963 -0.23324436 -0.015461448
000120 c5 77 ec 3c c3 f6 dd 3c 4f c4 71 bd c9 2b 4f be
       0.028865704 0.027095204 -0.059025105 -0.20231546
000130 3a d5 48 be fd ae ef 3c 97 4b 77 bd 1e cd 22 bd
       -0.1961259 0.029258246 -0.060374822 -0.039746396
000140 df dc a2 bd 7b cf e7 3c 3b e5 0c be ec 75 69 3d
       -0.07952284 0.028297177 -0.1375932 0.056997225
000150 75 17 19 bd b6 2a d2 bc 34 4a 4c 3d c7 5a 2f 3c
       -0.037375886 -0.025655132 0.049875453 0.010702795
000160 5f 90 98 bd 2b 33 99 3d 9a d0 03 be e1 e9 ca bd
       -0.074494116 0.07480463 -0.12872544 -0.0990789
000170 ad 71 12 3e 8d ab a0 3d 47 cc 12 be a1 af dc 3d
       0.14301176 0.07845221 -0.14335738 0.10775686
000180 5a b8 71 bd 8a b8 80 bd c3 85 ab bd 7f 6c 4f bd
       -0.059013702 -0.06285198 -0.083751224 -0.05064058
000190 50 79 9c 3d 35 a0 ef bb 1f 6d 96 3c c1 50 0f bd
       0.07640326 -0.0073127993 0.01836258 -0.034989122
0001a0 01 ca 86 be 2b d6 1c be 11 12 09 bd be d6 f3 bd
       -0.26325992 -0.15316074 -0.033464495 -0.11906193
0001b0 47 08 71 be 6a 94 5c bd 78 1a 4d be 41 26 0c 3d
       -0.23538314 -0.053852476 -0.20029628 0.03421617
0001c0 c4 9c 36 bd 7a 04 3e 3e 8d 3d 4c 3d 54 5f cf 3e
       -0.044583097 0.18556395 0.049863387 0.40502417
0001d0 f7 ba fd 3d af 9e 72 3d 10 d5 22 b7 81 27 c7 b6
       0.12389176 0.059233364 -9.70556e-06 -5.935261e-06
0001e0 35 d9 cd b4 3f 3b 1e 32 9a f1 00 33 c1 c4 7b 32
       -3.8342264e-07 9.210281e-09 3.0022058e-08 1.46548595e-08
0001f0 5b 27 2c 36 cc 56 c0 3b 8d 03 83 bc d7 f5 04 3e
       2.5652905e-06 0.005869722 -0.015992904 0.12984405
000200 eb c7 c2 bd f4 e9 21 bc bd c5 f0 3c a5 fb d9 3c
       -0.095107876 -0.009882439 0.029391164 0.026609251
000210 ae 3f 0e be 3c d1 fd bd aa 36 95 3c 6e a9 76 3d
       -0.1389148 -0.12393424 0.018214542 0.060220174
000220 5c 46 31 3d ad 26 b7 3d 62 8f 4b 3d cc 05 47 3e
       0.04327999 0.08942924 0.049697287 0.19435805
000230 8a 23 28 3e e7 77 0e bd bf 6f a6 bd ad 2e 24 be
       0.16419807 -0.034782317 -0.081267826 -0.1603343
000240 1c e0 16 be 72 e1 c9 3d 05 43 fc 3d c0 f7 46 be
       -0.14733928 0.098574534 0.123174705 -0.19430447
000250 63 44 57 3d f9 73 b4 3d aa e5 03 3e f7 7d 89 3e
       0.052555453 0.088111825 0.12880579 0.26853916
000260 62 03 82 bc db ad 3e bd cb 18 67 bd 08 60 b4 bd
       -0.015870754 -0.04655252 -0.05642013 -0.08807379
000270 e9 3c 89 3b 0c 61 87 bd 09 8c 68 be e8 48 9a be
       0.0041881693 -0.06610307 -0.22709669 -0.30133748
000280 04 a8 31 3d 28 7f 9e 3d f6 00 a3 3c bc c2 4d be
       0.043373123 0.07739097 0.01989792 -0.20093817
000290 1d a7 c4 3d 75 b6 f8 3d 6e 03 e9 3c e3 75 72 3d
       0.09602187 0.12144176 0.028444018 0.059194457
0002a0 55 bc 54 3e 9c 51 9e bd 60 ff be 3d 76 d1 ad 3d
       0.20774968 -0.077304095 0.09326053 0.08487217
0002b0 a1 b7 62 3d 27 c7 b7 bb 1b 05 1a be 9d 26 d4 bd
       0.055350903 -0.0056084576 -0.1504101 -0.103589274
0002c0 f3 d3 f0 3d 6d f4 b2 be a6 d4 37 3e f4 5a de 3c
       0.11759176 -0.34952107 0.17952213 0.02714298
0002d0 2f a9 d8 3d ad 16 2f 37 ba 47 98 36 f0 e0 ed 35
       0.10579144 1.0436092e-05 4.538303e-06 1.7723341e-06
0002e0 67 01 8c 34 e3 df 62 32 13 63 d0 b2 60 e7 fb 35
       2.6078052e-07 1.3205837e-08 -2.425944e-08 1.8768296e-06
0002f0 80 f4 17 bc 6e 55 1e bd 75 41 ca bc 10 78 e3 3d
       -0.009274602 -0.03865569 -0.024689415 0.111068845
000300 ab 64 9b 3d 63 28 ed bc a8 61 87 3b d0 7e ac 3d
       0.0758756 -0.028949922 0.0041315146 0.08422625
000310 c1 d9 1d 3e eb 52 c1 bd 12 9c 2e be d3 58 13 be
       0.15415098 -0.094396435 -0.17051724 -0.14389353
000320 2f cd 92 3e 5e 13 ca bd 0f 82 a8 bc 78 39 87 be
       0.28672168 -0.09866975 -0.02056983 -0.26411033
000330 4d c9 02 bd 3b d8 2a 3e e8 44 a0 bc 30 f3 60 bc
       -0.031930257 0.16684048 -0.019564107 -0.013729855
000340 ba 98 1c be e1 28 85 bd 94 eb c4 3e d2 63 a3 3d
       -0.15292636 -0.06501938 0.38460982 0.079780236
000350 d5 d7 7c be b5 8b 9f bd a6 aa ab bd 6c 5f 0b bd
       -0.24691708 -0.07790319 -0.08382158 -0.03402655
000360 9b e1 af be af 97 35 be 4b c0 19 3e a6 5b 49 bc
       -0.3435181 -0.17733644 0.1501476 -0.012289917
000370 f8 a1 43 3e 84 7d c8 bb 2c d3 d5 3d 69 d7 e2 3c
       0.19104755 -0.0061184783 0.104406685 0.027690606
000380 6b 05 66 bd ff 04 51 3c 13 72 09 be 87 f6 26 be
       -0.05615751 0.012757539 -0.13422422 -0.1630498
000390 4f 74 9b be ac d2 2b 3d 13 27 d0 3d e7 d5 df be
       -0.30362174 0.04194896 0.10163703 -0.43717882
0003a0 a6 cf 20 be 77 05 ed bd 02 7b 08 be f5 3c 4e 3b
       -0.15704212 -0.11573308 -0.13328174 0.0031469439
0003b0 ce a0 bd 3e 3b 3a 9c 3d 02 27 e1 3d 76 28 0c bf
       0.37036747 0.07628294 0.10993768 -0.5474924
0003c0 c1 60 3b 3e 88 29 a5 3e 5f 25 ef bd 30 ff 13 3d
       0.18298627 0.32258248 -0.1167705 0.036132038
0003d0 c6 a0 a1 b6 a2 ed ce b6 96 db 66 33 ff ad 85 33
       -4.8168904e-06 -6.1669425e-06 5.375076e-08 6.224945e-08
0003e0 dc 31 5d 32 5b ce a5 32 53 e4 cf b6 0e fb 45 3c
       1.287523e-08 1.9302368e-08 -6.195661e-06 0.012083782
0003f0 f9 ae 2c 3e 15 ad ff bd d0 1f 8b 3e 35 c4 e6 bc
       0.16863622 -0.12484185 0.2717271 -0.02816973

embedding.embeddings.ken_20230618_denoised.poses.bias f4 [128]
000000 a7 8a fa 3b c8 61 83 3b 2c 5d 43 3d b5 f4 ea bc
       0.007645923 0.004009459 0.047696277 -0.028681139
000010 3d b3 30 3d da 33 ed bd f9 0e fc ba c8 4c 34 3c
       0.043139685 -0.115821555 -0.0019230536 0.011004634
000020 ef 41 5c 3d 33 a4 e0 bd d1 3d 53 bd 24 e3 b0 bd
       0.053773817 -0.109688185 -0.051572625 -0.08637074
000030 be 93 65 3d 6e 5e 4c 3d 54 7d c9 bd a2 65 05 3c
       0.0560491 0.049894743 -0.098383576 0.008141907
000040 d1 a3 47 3d 41 a6 88 3d 02 db f9 3d 6e 9d a9 bd
       0.048740212 0.066723354 0.121999756 -0.082819805
000050 e6 de db bc f5 9e a1 3b 66 8a 4a bd 50 df 78 3b
       -0.026839685 0.0049322792 -0.049448393 0.0037974901
000060 8e 37 e5 3a d9 7a 20 3d 13 60 e2 bd 60 4c 21 3d
       0.001748787 0.039179657 -0.11053481 0.039379478
000070 58 eb db bd 60 2e b9 3b ce c1 ff 3c ad ae 2e bd
       -0.10738248 0.0056512803 0.031220343 -0.042647053
000080 fb f5 da bd 0a 67 25 3d fd 25 fd bd 1c b1 17 bc
       -0.10691448 0.04038147 -0.12360761 -0.009258535
000090 95 fb f8 bd 47 56 25 bb b1 d0 a3 bc d3 ce 08 be
       -0.121573605 -0.0025228427 -0.019996973 -0.13360147
0000a0 c2 66 c1 3d cc 1e a4 3d 03 59 14 bd c4 3e 3e 3d
       0.094434276 0.080136865 -0.0362177 0.046446577
0000b0 5d f0 10 3d 9e 50 88 bc f2 df 5f bd 93 5b 64 bc
       0.03538548 -0.016640004 -0.05465693 -0.013937849
0000c0 68 ad 7e 3d c9 5f db 3d 1e 79 57 3d d9 a1 a9 bd
       0.06217709 0.10711629 0.05260574 -0.08282823
0000d0 f9 d3 02 3d 0e 9e d3 bd b2 23 8a 3c 0f cb 09 3d
       0.031940434 -0.10332881 0.016862724 0.033640917
0000e0 9c 1d 1a 3d a8 e6 0c bd e6 a9 2f 3c e0 43 c8 3d
       0.037625894 -0.03439966 0.010721659 0.09778571
0000f0 b2 84 b4 bd 45 2d e6 3d 69 72 bd bc aa 8a d1 bd
       -0.08814372 0.11239103 -0.023125844 -0.10231526
000100 11 60 26 3c 65 f0 be bd c8 a4 8b 3b 45 e9 8b 3b
       0.01015474 -0.09323195 0.004261587 0.0042697513
000110 c6 5e 40 3b f0 48 51 3d e8 bd b7 bd e7 09 27 3d
       0.0029353364 0.05109495 -0.089717686 0.040780928
000120 48 1e 8d bd 53 53 33 bd 42 70 6b bc 12 93 93 bd
       -0.06890541 -0.043780636 -0.014370026 -0.07205786
000130 95 9d f3 3d 6f 53 b6 3c 84 3e 36 bd 88 2a 29 3d
       0.11895291 0.022256581 -0.044493213 0.041300327
000140 15 ff 9c 3d 2e 92 92 3c 0d 28 e4 bd 1d 09 e4 3c
       0.076658405 0.01789197 -0.111404516 0.027836377
000150 d6 d5 d7 3d 58 31 f1 bc 66 9e 4d bb 96 c9 db bd
       0.10538833 -0.029442474 -0.003137493 -0.10731809
000160 f7 9e ce bd 8a d1 69 bd 1f c1 57 3d 94 b9 47 bd
       -0.10088914 -0.057084598 0.05267441 -0.048760965
000170 02 9c 3c 3d 5d f6 20 3c f7 9e a9 3b 90 0a ba 3d
       0.04604722 0.009824363 0.005176421 0.09084046
000180 1d fe 8b bc 58 6c 8f bd 00 d9 d5 3b f4 22 16 3d
       -0.017088944 -0.07003087 0.0065261126 0.036654428
000190 21 9c b6 3d 1c ee 37 bd a1 5c f5 3c 3e 82 8a 3d
       0.08916498 -0.044904813 0.029951395 0.06763123
0001a0 c8 f3 e6 3c db 93 35 3d 3d 08 9b bd 74 3a e9 bc
       0.028192416 0.04433046 -0.07569931 -0.028470255
0001b0 13 ef 06 bd ba 1f 60 3d f7 0f c6 bd 88 f9 d4 bc
       -0.032942843 0.054717757 -0.09671014 -0.025997892
0001c0 b0 6c 64 3c d2 5a c2 3c 2b 20 9e bd 80 fa 8c 3d
       0.013941929 0.023724947 -0.07720979 0.068837166
0001d0 01 ab 7d 3d dd 4a 6a 3d 3f f9 63 3d c6 bd b9 3d
       0.06193066 0.0572003 0.05565762 0.090693995
0001e0 13 84 61 bc fb 95 ae bd 7c b3 a2 bd a4 eb 34 3d
       -0.013764399 -0.085247 -0.0794439 0.044170037
0001f0 3c 8b a4 bc ec 61 bb bd 4e 03 47 3d 4f 4f a4 bd
       -0.020085923 -0.091495365 0.048587136 -0.080229394

core.core.fc.0.0.weight f4 [128, 128]
000000 f9 fc 33 3c ff 10 f4 bc cd fa 01 3c c9 c5 28 3c
       0.010985606 -0.02979326 0.007933331 0.010301062
000010 09 d9 68 3d 5a 04 a6 bd 85 f9 dd bc 3f 9f 09 3c
       0.056847606 -0.08106299 -0.02709652 0.008399784
000020 a6 82 a9 bc 63 49 19 bc 5d 5a 53 3d 10 05 e9 3b
       -0.02069218 -0.009355876 0.05159985 0.007111199
000030 92 07 b2 bd 81 88 13 3a bd ad be bc 22 7e 90 38
       -0.0869285 0.00056279456 -0.023276204 6.889949e-05
000040 85 66 25 3d e8 e3 1e bc 34 ef b5 3d 53 91 1c bc
       0.040380973 -0.009697892 0.08883515 -0.009556132
000050 4a 24 c5 3b d3 57 12 3c 3a a3 18 bc d7 18 00 bc
       0.006016289 0.008932072 -0.00931626 -0.007818422
000060 79 6f 58 bd 34 bc a3 3c a3 64 28 bd 89 f1 49 3c
       -0.052840684 0.019987203 -0.0411116 0.012325653
000070 62 fe 62 3d df 84 85 bd 99 b6 67 3c 26 2c 74 bc
       0.05541838 -0.06519484 0.014142656 -0.014903104
000080 45 12 75 bc 01 c1 82 bc 61 13 0c bd 2e 49 d2 3d
       -0.014957969 -0.015961172 -0.03419817 0.10267864
000090 86 88 a3 bd ab 23 1f 3d 02 dc d1 bc 04 cc 9e bd
       -0.07985024 0.038852375 -0.025617603 -0.07753757
0000a0 db 20 f7 bb f9 ff 5e 3c c0 06 42 3d 1f 08 80 3c
       -0.0075417585 0.013610833 0.04736972 0.015628872
0000b0 fd 2a 54 3d 7f c9 92 bd 51 53 d4 bc ef 2d af ba
       0.05179881 -0.071673386 -0.025918635 -0.001336513
0000c0 e8 36 85 bc a3 be 3d 3d f2 c5 04 bd f0 8f b3 bd
       -0.016261533 0.046324383 -0.032415338 -0.08767688
0000d0 5c 16 15 bd c9 1e 45 3c 23 9c 8d bd d9 8c 12 3d
       -0.036398277 0.012031266 -0.06914546 0.035778854
0000e0 91 2f d0 3c a5 13 35 bc 05 52 31 3c 6e dc dc 3c
       0.025413306 -0.011052047 0.010822778 0.026960578
0000f0 00 04 db 3c 3f 5a eb 3c c7 e1 15 bd 01 b1 a0 bc
       0.026735306 0.028729556 -0.03659227 -0.019615652
000100 b1 81 ce bc 15 78 13 3b 6b ea 64 3c 5e 68 f7 bb
       -0.025208326 0.0022501994 0.013971905 -0.0075502833
000110 17 80 12 bd 39 4d 5c 3d 2c 6b ae 3b ee e7 57 3d
       -0.035766687 0.053784583 0.0053228345 0.05271142
000120 4f a4 04 bc 01 52 8a bd 00 41 69 3d 88 00 82 bc
       -0.008095815 -0.06753922 0.056946754 -0.015869394
000130 93 c2 35 3b a2 8b 31 bd 42 3a 8c bb 2f fa 67 bd
       0.0027734383 -0.043346055 -0.004279406 -0.056635078
000140 bb 12 b8 bc f8 a0 59 bd 10 40 ad 3c 31 a2 c8 bd
       -0.022469869 -0.053132027 0.021148711 -0.097965606
000150 8b d6 71 b8 ba 0b 36 bd b3 b4 ea bd b2 58 0b bd
       -5.7658686e-05 -0.044444777 -0.11460247 -0.034020133
000160 13 5d af bc 7b 47 ca 3c bc d7 4e 3d 3b e5 a0 3d
       -0.021406686 0.024692288 0.05049871 0.07856222
000170 28 32 8f 3d ea ad 91 3d c4 38 3b bd c2 24 8a 3d
       0.069919884 0.071132496 -0.045708433 0.06745292
000180 ad d4 ca 3c 95 9e 99 bd 87 81 63 bd b7 1e 0a bd
       0.024759615 -0.0750095 -0.05554345 -0.0337207
000190 cd e2 b4 3c ba ef 2a 3c 57 07 82 bc a6 36 5b 3c
       0.022080803 0.010433132 -0.01587264 0.013379728
0001a0 8d 74 88 3d 50 aa 83 bd fd 45 4e 3c 04 30 a9 3c
       0.06662855 -0.06428969 0.012589929 0.020652778
0001b0 51 7d dd bc 23 b1 17 bd a1 63 be bc 19 18 aa 3a
       -0.027037295 -0.037034165 -0.023240866 0.0012977152
0001c0 ee 9a b1 bc 9e 10 0b bc 29 83 f4 b9 89 c1 09 bc
       -0.021680322 -0.008487849 -0.0004663703 -0.008407959
0001d0 5b dd 47 3d dc 0d 0a 3d 5c 79 15 3d 6b c6 5d b9
       0.048795085 0.033704624 0.03649269 -0.00021150119
0001e0 0d 62 09 3c 68 2a 51 bb 8b 44 9f 3c 5a 9b d3 3c
       0.0083851935 -0.0031916145 0.019441864 0.025830913
0001f0 7e 50 e5 3c 9d ea a8 bd 34 a2 6b 3d 6a 74 0a 3d
       0.027992483 -0.08247874 0.057527736 0.033802427
000200 1a a5 72 3c 25 0b a5 bc ae 64 ef bc a3 3f f7 3c
       0.014809871 -0.020146916 -0.029222813 0.030181712
000210 61 e1 80 3d 96 92 ea bb 14 e7 96 bc 37 0e a9 bb
       0.062929876 -0.0071585877 -0.018420734 -0.0051591652
000220 62 81 8e 3c 31 65 3f 3d 70 66 f8 3a 28 08 79 bc
       0.017395679 0.046727363 0.0018951427 -0.0151996985
000230 0c b4 b7 bc 36 12 37 3c de a4 1f 3a db 98 a5 3c
       -0.02242472 0.011173775 0.0006089936 0.020214489
000240 c6 b6 41 3d 47 7f 93 bc fb 31 82 3c 08 68 0a 3d
       0.047293447 -0.018005027 0.015892973 0.03379062
000250 f4 90 8e 3b 21 79 c9 bc dc 80 18 3c 6d fa 62 bc
       0.004350776 -0.024593892 0.009308066 -0.0138536515
000260 71 b4 02 bd 3f c2 26 3d 15 2a 73 3b 93 b1 97 3c
       -0.031910364 0.04071259 0.003710394 0.018517291
000270 11 84 a6 3c 7b cc b5 bc ba d0 d0 3c 3d 0d 90 3c
       0.020326646 -0.02219223 0.025490154 0.017584438
000280 67 af 07 3d 0a fc 57 bc e0 a1 96 3b fc 9f 8f 3d
       0.03312626 -0.013182649 0.0045969337 0.070129365
000290 cf 7f 12 3b 83 b6 25 3d 1d 8e 68 bb 4e 75 ed bc
       0.0022354012 0.04045726 -0.0035485097 -0.0289866
0002a0 b4 83 a3 3c c4 79 19 bc a6 3b 0d 3c 4f 1b e5 3c
       0.019960262 -0.00936741 0.008620178 0.027967123
0002b0 5b fa 85 bb 1f b2 9e bc da ff da 3b dc 67 a2 3c
       -0.0040886826 -0.019372044 0.006683332 0.019824915
0002c0 71 3d 0f 3d 4f 47 22 3d 4c 33 c8 bd e0 97 b2 bd
       0.034970704 0.039618786 -0.09775409 -0.08720374
0002d0 4d 2a 15 bd 9d 61 4c 3d e3 47 25 bd ca c4 e1 3c
       -0.036417294 0.04989778 -0.04035176 0.027559657
0002e0 e5 9e 05 3d 4d ae 96 3a 60 ca 7a 3c bc 79 31 3d
       0.032622237 0.0011496037 0.015307039 0.043328986
0002f0 b0 2a 4b 3c 54 39 8f 3c 5d a2 b8 bc ce 8d e9 bc
       0.012400314 0.01748339 -0.022538358 -0.02851
000300 4e ad ce bc 0d 77 e7 ba 54 3a ae 3b 94 c1 c6 3c
       -0.025229122 -0.0017659381 0.005317012 0.024262227
000310 f5 1b ef bc 68 a6 1a 3d 13 17 03 bc 20 05 a1 3c
       -0.029188136 0.037756354 -0.008001107 0.019655764
000320 00 35 77 bd 5d f1 28 bd 69 bc 9f 3d d2 9a a8 3c
       -0.06035328 -0.041245807 0.07799608 0.020581637
000330 f6 35 05 bd 3a 24 2d bd 07 af 6f bc 97 46 c7 bc
       -0.032522164 -0.042270876 -0.014629132 -0.024325652
000340 60 ad 89 bb a8 2a 78 bc 1e 1a 33 bb 0e f5 09 bd
       -0.004201576 -0.015146889 -0.00273288 -0.033680968
000350 79 ff ae bc ff 7e 1e bd d3 9b 41 bd 55 fc 9d 3c
       -0.021362053 -0.03869533 -0.047267746 0.01928536
000360 4f bb 36 bd 3c 69 0d 3d 12 78 91 3b be 6a e6 bc
       -0.044612225 0.034524187 0.0044393623 -0.02812707
000370 6a 54 97 3d 64 60 1f 3d f7 28 a2 bc 30 28 36 3d
       0.073891476 0.038910285 -0.019794924 0.04447192
000380 eb 72 e2 bc 41 8c 8a bb 7e 50 55 bb ea 14 33 bd
       -0.027642688 -0.0042281453 -0.0032549198 -0.043721117
000390 6d 50 8e 3b 6d 6a c2 3b 43 53 22 bd d9 ad 4e bc
       0.0043430836 0.005933097 -0.039630186 -0.012614691
0003a0 56 46 fb 3c 2a 2d 07 bc 61 81 3b 3d 5f 72 92 3c
       0.030673187 -0.008250514 0.045777682 0.017876802
0003b0 5c 9b e3 3c 41 a3 53 bd 0b 83 20 3d 22 3a 60 3d
       0.027784042 -0.051669363 0.039187472 0.05474294
0003c0 4a 11 ff bc b2 9c 57 bc d1 7c 12 bc 37 dc 88 3c
       -0.031136174 -0.013159918 -0.008940891 0.01670657
0003d0 bd 8c e2 3b 31 99 64 ba 9b 92 db bb a1 75 8f bd
       0.00691375 -0.0008720337 -0.0067008263 -0.07004858
0003e0 36 4e 94 bc 66 9d b6 bc 91 55 1f bc f7 ef 3b 3c
       -0.0181037 -0.02229185 -0.00972499 0.011470786
0003f0 e0 f4 07 bc a8 c3 11 bd 9b d6 0d 3a 36 bd 74 bc
       -0.008298129 -0.035586983 0.0005410702 -0.0149376895

core.core.fc.0.0.bias f4 [128]
000000 bd 3b e2 3d dc 5f 0b 3d 34 2d 86 3d f9 13 8b bd
       0.110465504 0.034026965 0.065515906 -0.06790919
000010 e8 2d 01 3e 13 a2 86 3d 2c 84 14 3e 91 41 3d 3e
       0.12615168 0.06573882 0.14503545 0.18482043
000020 7d aa c7 3c 6a eb 76 3d 1a ca 0b bc 58 3d c0 bd
       0.024373287 0.060283102 -0.0085320715 -0.093867004
000030 df ef 17 3d ff 92 b0 bd 4a 60 ee ba f3 80 03 3e
       0.037093993 -0.08621787 -0.0018186655 0.12842159
000040 7f 48 bd bd a5 9e f1 bd 3b 00 af 3d 4e e5 49 3d
       -0.09242343 -0.11797837 0.08544966 0.049290948
000050 16 2f b7 bd 07 ce 50 3e fa 00 ed 3d c1 d2 4d 3e
       -0.08944528 0.20391093 0.11572452 0.20099927
000060 79 6e 90 ba 82 3c 08 be fd a7 14 3e d7 56 d3 3d
       -0.0011019252 -0.13304332 0.14517207 0.10319298
000070 1b fe 85 3d e1 70 bd 3d 9f 8f 8a 3d e5 b8 8c 3d
       0.065426074 0.092500456 0.06765675 0.06871203
000080 6f 6f c8 bc 93 bd b4 3c f6 56 84 3b 37 ae a2 bd
       -0.024467198 0.022063052 0.004038687 -0.07943385
000090 fe 15 9d 3c 56 90 64 3b a1 52 9a bd 25 16 50 bd
       0.019175526 0.003487607 -0.075352915 -0.05080237
0000a0 22 9c 14 3e a4 54 f3 bd 79 d7 c5 b9 44 d0 88 3d
       0.14512685 -0.11881378 -0.00037735308 0.066803485
0000b0 fd d4 97 bd f0 46 37 bb e4 b7 b7 3d cf ab 01 3e
       -0.07413671 -0.0027965866 0.08970621 0.12663196
0000c0 f9 eb 9d 3d ae a8 09 3e e8 f6 40 3e 30 8b 8d bb
       0.07711024 0.13443252 0.18844187 -0.004319571
0000d0 4b b4 8f bd 68 cb 05 bd 5f 2a 0f be 13 ef 98 bd
       -0.0701681 -0.032664686 -0.13981007 -0.07467475
0000e0 4d 8e 56 bd fe 80 a7 3d e5 7a 1e 3d b3 75 d2 3d
       -0.052381802 0.081789 0.03869142 0.102763556
0000f0 ea f6 80 ba 75 b7 65 3d 0d 0d ad 3d 24 32 d8 3c
       -0.0009839211 0.05608316 0.08449755 0.026391096
000100 13 7c ba 3c 00 e9 bb bd b0 29 bc 3d d0 05 54 3e
       0.022764241 -0.091753006 0.09187639 0.20705342
000110 76 e3 d8 3d d0 c7 8e 3d a5 2c be 3d 0e db 32 3e
       0.1059026 0.06971705 0.09285859 0.17466375
000120 49 37 41 3e 2f 69 e7 3d b0 78 e7 3d b1 be 46 bd
       0.18868746 0.11299359 0.11302316 -0.0485217
000130 f1 66 39 3d 14 91 7a 3d 96 24 7b 3d f3 af 99 bb
       0.04526419 0.061173514 0.061314188 -0.0046901642
000140 f5 3f 86 3c 65 0c 8d bd cb ae b7 3c 5f 97 25 3e
       0.016387919 -0.0688713 0.022422215 0.16171025
000150 af 56 d8 bc 66 b3 95 3d c9 44 3b 3d b2 fd 1d bd
       -0.026408521 0.07309608 0.045719896 -0.03857202
000160 fc 98 f5 3d 43 28 4b 3b 5a 6d a9 bd fa 0e 9a 3d
       0.1199207 0.003099934 -0.0827281 0.07522388
000170 f2 f9 c4 bc 82 10 fc 3d a3 77 41 3e 9e c0 df 3d
       -0.024044964 0.12307836 0.18893294 0.10925411
000180 92 3a ca 3d 2c 13 57 3e aa cf 01 3e de 76 89 3c
       0.09874453 0.21003407 0.12676874 0.016780313
000190 f9 6f 96 3d ae 96 d9 bd 14 6d 26 3c 98 11 2a 3e
       0.07345576 -0.10624443 0.010157842 0.16608274
0001a0 23 d3 4e 3d 62 29 39 3e b5 51 12 3e c3 15 53 3d
       0.050494324 0.18082193 0.14288981 0.051534425
0001b0 16 70 72 3d 75 22 0c 3e 96 77 f0 bd c9 9f c1 ba
       0.059188925 0.1368502 -0.11741559 -0.0014772351
0001c0 e9 3b 0f be 1b 1a a2 3d 43 8c 22 be b6 7c c4 3d
       -0.13987698 0.079151355 -0.15873818 0.09594099
0001d0 7a 29 b5 3d 3c 46 11 bc 10 bf ac 3c 9f 5a e2 3d
       0.08845802 -0.008866843 0.0210872 0.11052441
0001e0 da 22 b8 bd 1b c1 1a 3d 5c a5 09 3e 21 e6 e0 b7
       -0.089910224 0.037781816 0.13441986 -2.6810043e-05
0001f0 f3 a3 a7 3c 4d 50 cc 3d e7 42 3c bc 1c 87 4b 3c
       0.02046392 0.09976254 -0.01149056 0.012422349

core.core.fc.1.0.weight f4 [128, 128]
000000 65 9e 2b bd a5 51 e4 bc 08 ca 01 3c fd c1 5f 3c
       -0.041899104 -0.027870962 0.007921703 0.01365709
000010 7a 41 7f bd 12 c3 b9 3d 5d f1 ef bc 24 3b cc bd
       -0.062318303 0.0907041 -0.029289896 -0.09972218
000020 fd 9c 40 bd 69 71 b6 bb ca 14 92 bc c9 72 78 ba
       -0.047024716 -0.0055677188 -0.017832179 -0.00094775535
000030 3b f8 94 be 91 78 bf 3b fe eb d5 3c eb ab 3f bd
       -0.29095635 0.00584323 0.026113506 -0.046794813
000040 f5 5c c0 3b 38 9a f1 3a f1 fe 96 3c fa 55 51 3c
       0.0058704563 0.0018432802 0.018432112 0.012776846
000050 c4 b2 aa bb ef 35 cb bd 3a 6a dc bd fc 0e 14 bd
       -0.005209299 -0.099223964 -0.107624486 -0.036147103
000060 b3 bc fe 3a a1 45 a3 3b d4 af f0 bd d9 ca 25 ba
       0.0019434899 0.0049826656 -0.117522866 -0.0006324477
000070 ac 98 80 bd 9d 7d d4 bc da be 33 3d 60 1f aa 3d
       -0.0627912 -0.025938803 0.043883182 0.083067656
000080 92 40 00 3e ad e0 b2 3c ad 00 a1 bc 12 24 ca 3a
       0.12524632 0.02183565 -0.019653643 0.0015422127
000090 73 f6 a5 bc a2 83 89 3b f3 6a 80 3d f9 14 be bc
       -0.020259118 0.0041966 0.06270399 -0.02320336
0000a0 f8 bd 35 3c f4 24 72 bc 94 20 9a b8 df 2b fc 3b
       0.011092655 -0.014779318 -7.3493604e-05 0.0076956595
0000b0 1c df 93 bb 5b ea 5e bd 07 ca ef bb c2 56 05 bd
       -0.0045126807 -0.054422718 -0.0073177847 -0.03255344
0000c0 6a 07 26 bc d3 60 a7 3c bc c6 ee 3c 62 a9 2c 3e
       -0.010133604 0.020431912 0.029147498 0.1686149
0000d0 1d 41 51 bd 4b 8a 13 3d e7 5c ad 3b aa d8 d8 ba
       -0.051087487 0.03602056 0.005290616 -0.0016544063
0000e0 01 5e 0c 3b c0 64 2d 3c dd 01 43 3d 08 dd 89 bd
       0.0021418335 0.010583103 0.0476092 -0.067316115
0000f0 93 b0 43 3b 44 b5 06 bc 97 c0 cb 3d a4 55 c5 bd
       0.0029859885 -0.008221928 0.09948843 -0.09635475
000100 39 07 a6 ba 51 73 36 3c a4 4f a3 bc 28 7b b9 bd
       -0.0012666947 0.011135892 -0.019935437 -0.09056693
000110 bc 98 b7 bd 95 5e 38 bd 89 59 8d bc e5 39 fe bd
       -0.08964679 -0.045012075 -0.017254608 -0.12413386
000120 3b 29 60 bd a8 64 2c 3d b7 60 8c bb f4 7b 1a 3d
       -0.05472682 0.04208818 -0.0042839902 0.037715867
000130 8d a6 d5 bb 8e 15 c0 3c c3 1a 68 3c a1 0b 84 bb
       -0.0065200985 0.023447778 0.014166537 -0.0040297066
000140 06 4f 08 3d 77 5f 07 bd 45 29 4d bc 76 6d d4 bd
       0.033278488 -0.033050027 -0.012522046 -0.103724405
000150 3d 12 35 3d 27 1e 87 3c 26 16 89 bc 65 6f 33 bc
       0.044206847 0.01649387 -0.016734194 -0.0109518515
000160 c6 68 57 bc f2 a0 7d 3a f6 ba 47 bc 89 dc 93 bb
       -0.0131475385 0.0009675167 -0.012190571 -0.004512374
000170 a4 97 9e 3b 34 fb 1b 3e 35 57 d9 bd 0a 83 eb bd
       0.0048398543 0.15232545 -0.106123365 -0.11499603
000180 c6 85 b3 bd 9b 35 e2 bd 79 bc 88 3c 47 1c b4 3b
       -0.0876575 -0.11045381 0.016691433 0.005496535
000190 ce 7f c8 3d d1 92 b7 ba 58 db d6 3b e2 3a 4b bc
       0.09790002 -0.0014005547 0.0065569095 -0.0124041755
0001a0 ac 68 19 bd ab 84 06 3b 34 b1 6a bc 9f dc b2 3a
       -0.03745334 0.0020525854 -0.014324475 0.0013646072
0001b0 dd f7 0e bc 4a 5b 0c bc 08 ad ad 3b 6a c9 2c bd
       -0.008726087 -0.008566687 0.005300168 -0.04218427
0001c0 47 86 29 3c f0 87 a5 bd 5b 87 5a 3c 70 0c 5e bd
       0.010346956 -0.08082569 0.013337935 -0.05421108
0001d0 11 5e f9 bd 2f e4 2c bc 4c 12 21 bc c6 f4 61 3c
       -0.12176145 -0.01055245 -0.0098310225 0.013791269
0001e0 03 4d 7d 3c 05 42 88 bc 70 f1 72 bd 73 c5 44 36
       0.015460256 -0.016633043 -0.059312284 2.9321207e-06
0001f0 6f 7a 7a 3d 59 cd d8 bc 92 b8 03 bd b0 43 97 bc
       0.061151918 -0.026465105 -0.03215844 -0.018464893
000200 19 fb 41 bb 5f 6a db ba c1 db 54 39 93 4b d8 bc
       -0.0029599129 -0.0016740075 0.0002029976 -0.026403224
000210 cf 79 2e 3b 0c c3 a9 bd 79 a7 69 3e c0 2c c9 3d
       0.0026622897 -0.08289155 0.22817792 0.098229885
000220 3a ed 2f 3c 6b 26 bb bc 69 05 cb bc 52 46 14 bc
       0.010737712 -0.022845468 -0.024782853 -0.009049969
000230 92 a7 bd 3e b3 a1 2a bb 79 1f 00 bb 4f f7 e7 3d
       0.37041909 -0.0026036322 -0.001955001 0.11326467
000240 4d c2 66 bc 70 7e 98 bc 59 59 1d bc 77 2e b9 bd
       -0.014084411 -0.018614978 -0.009603822 -0.090420656
000250 7c b6 82 3b a7 96 d2 bd f8 b2 05 be eb 3f 4c be
       0.003989039 -0.10282641 -0.13056552 -0.19946258
000260 b5 4d 07 bd 74 a1 b0 bc 00 8f 03 3e 7c 4b 02 3e
       -0.03303309 -0.021561362 0.12847519 0.12724108
000270 99 12 d3 bc b7 50 31 bd a6 57 da 3c ec a6 08 bc
       -0.025765704 -0.043289866 0.026653122 -0.0083405785
000280 ac d6 14 be 6a 49 fa 3d d5 c8 7f bd 26 f1 48 bb
       -0.14535016 0.12221034 -0.062447388 -0.0030661314
000290 1b dc fa bd fa 87 6d 3c 10 f5 ab bd 37 2d 6e bd
       -0.12249013 0.014497751 -0.08396351 -0.05814859
0002a0 42 5b 31 be dd 28 a3 bd 28 19 15 b9 7e b3 e6 bc
       -0.17319968 -0.079667784 -0.00014219119 -0.02816176
0002b0 d6 f1 cb bc 03 fd b2 3d 38 d4 d9 bc f5 98 ab 3d
       -0.02489559 0.087396644 -0.026590452 0.083787836
0002c0 65 d6 d0 3c 93 8b 0e 3e 73 fd 54 3e ad 90 22 be
       0.025492856 0.13920431 0.20799808 -0.15875502
0002d0 71 4e 92 3e 4d 13 a5 bd 84 dc 37 bc 8e 7f 85 bb
       0.2857547 -0.08060322 -0.011222009 -0.0040740436
0002e0 45 27 27 3a ff e9 0c bd 20 66 07 3d 2b 09 ff bb
       0.0006376396 -0.034402844 0.03305638 -0.0077830753
0002f0 ef ad 0e 3b 1f 7a 0c 3a 02 61 14 3e 96 60 91 bd
       0.0021771153 0.00053587736 0.1449013 -0.070985004
000300 f1 92 66 bb c3 31 8e bb 54 e4 48 3d 38 39 8c 3c
       -0.0035182799 -0.004339428 0.049045876 0.017117128
000310 64 40 36 bd 3e 60 31 bd a4 fe b9 bc 5d ac 2c be
       -0.044495 -0.043304674 -0.02270443 -0.16862626
000320 53 78 a1 3c 47 bf 7a 3d 4e 5f 6e bd e8 39 92 bc
       0.019710695 0.061217573 -0.05819636 -0.017849877
000330 a1 a8 e0 bc 56 e2 b2 3d 32 9a 96 bc 5a bd 18 3b
       -0.027424159 0.087345764 -0.018384073 0.0023306222
000340 e4 c8 70 be f1 3b 9c bd e2 dc 10 bc 5a 39 95 bc
       -0.23514134 -0.076286204 -0.008841725 -0.018215824
000350 6a 5d cc bd eb 1d 54 bd 35 77 f0 bd ac 33 81 bd
       -0.09978755 -0.051786344 -0.11741487 -0.06308684
000360 9c 07 60 bd bc 54 02 3b 4b a5 fe bb 27 62 cb bd
       -0.054694757 0.0019886931 -0.0077711693 -0.099308304
000370 6f 43 1d 3c 44 16 9a be bd 6c 6f 3c 0a d8 da bc
       0.009598597 -0.30095112 0.014613328 -0.026714344
000380 8a ff 3b be eb 3b b5 bc 87 dd 43 bc ad 2e ae bd
       -0.18359199 -0.022123298 -0.011954672 -0.085049964
000390 c7 d5 47 be 5a d6 ac bd 7f 1c 23 bc 95 88 12 3e
       -0.19515143 -0.08439322 -0.0099555245 0.14309914
0003a0 ac f7 05 3e 64 f6 0c 3d e5 49 ed 3d 99 63 18 3d
       0.1308276 0.034414664 0.1158636 0.03720436
0003b0 2f fa b6 3d 45 c9 89 bd 5e a7 8d bc a0 92 7f ba
       0.089344375 -0.06727842 -0.017291721 -0.0009749327
0003c0 7e e1 cd bc 9a 5b 8c 3e 16 2e 06 bd 85 60 cc 3d
       -0.025131937 0.27413636 -0.032758795 0.09979347
0003d0 4a 96 2d 3d 93 f4 04 bd c4 03 bd 3c 09 8f 84 3d
       0.042379655 -0.032459807 0.023073085 0.06472594
0003e0 27 49 bf bc 9d f1 ce bc 72 bb 1e 3a dc 9b 9f 36
       -0.023350311 -0.025261695 0.0006055153 4.7567137e-06
0003f0 c3 0b 20 3e a3 4a 17 bd 72 6a 42 3c 8b f4 a6 bc
       0.15629487 -0.036936413 0.011866199 -0.020380279
