artifacts/poses_to_location/20250818172636/best_model.pt (torch, 376885 bytes, 48 tensors)

embedding.embeddings.bex_20230623_denoised.poses.weight f4 [64, 63]
000000 e7 3b 4c be 2b 2d 50 bc d0 0c ef 3d 96 50 7f bd
       -0.19944726 -0.012706081 0.11672366 -0.062332712
000010 2a 99 3f bc 24 e5 e3 bb 8c cb 46 3d ca c2 2a 3d
       -0.011694232 -0.006954806 0.04853396 0.04168967
000020 14 99 5f bd 2f 78 19 be 0a 29 87 bd 04 7b 03 bd
       -0.054589346 -0.14987253 -0.065996245 -0.03209974
000030 7f fe 50 be e4 f6 83 3d 6e 94 87 3d d6 09 7e bd
       -0.20409583 0.06443575 0.066201076 -0.0620211
000040 cd d3 16 3e 2f 4e 8c bd c0 a2 bd bd 5c 17 05 bc
       0.14729233 -0.0685085 -0.09259558 -0.008123245
000050 88 8b 03 3e f4 dc f7 bc f8 59 a0 3b 86 a3 36 3c
       0.12846196 -0.030256726 0.0048935376 0.011147385
000060 ab 9d fa 3c eb 57 1e 3d c9 63 60 bd 3b 78 93 bc
       0.03059276 0.038658064 -0.054782663 -0.018001666
000070 46 3e ca 3c 56 97 c4 3d fe 6b ce bd 0f 81 37 bd
       0.024687897 0.095991775 -0.100791916 -0.044800814
000080 88 96 24 3c 0a d8 01 be f6 b5 01 3d 9a 51 38 3e
       0.010045655 -0.12680069 0.031667672 0.17999879
000090 e1 4b b4 3c 95 1e 92 3d e2 95 3b 3d 9c be ba 3c
       0.022008838 0.07134739 0.045797236 0.022795968
0000a0 a5 23 ff bd 97 3a b4 3d 8e ba 2b bd 3b 45 f0 3d
       -0.124579705 0.088002376 -0.04192596 0.11731955
0000b0 00 96 d7 3b e3 19 37 bd 4d 26 ad bb e8 28 72 3d
       0.0065791607 -0.044702422 -0.005284107 0.059121042
0000c0 f2 a4 60 3c 9c d0 e4 33 d3 0e 82 33 ce 74 d0 bd
       0.013711201 1.0655023e-07 6.056293e-08 -0.10178529
0000d0 76 a5 1f b1 55 c2 05 b0 ac ff 25 3d fc c4 44 be
       -2.3231599e-09 -4.866128e-10 0.04052703 -0.19215769
0000e0 6b ff 8f bd c9 69 3e bc 2c 81 3f be c0 0b 13 bd
       -0.07031139 -0.011621901 -0.18701619 -0.035899878
0000f0 f7 4e a4 3b 65 9b 67 bc 97 d4 c9 31 82 a5 89 bd
       0.005014296 -0.01413617 5.8740386e-09 -0.06721021
000100 87 ab e9 3d d2 ed 96 bd 0b 10 43 be 2e c2 37 be
       0.11409669 -0.073695794 -0.19049089 -0.17945167
000110 e6 29 0f 3d a0 0c 2f be 0c f0 9b 3d 80 84 85 be
       0.034952067 -0.1709466 0.07614145 -0.26077652
000120 47 6a 09 bd 96 eb 09 bd e5 ea 3d bd d9 01 20 be
       -0.03354862 -0.033671938 -0.04636659 -0.15625705
000130 63 80 92 3e ae 8e ec bd a6 4b 3c be c1 a5 6e 3e
       0.28613576 -0.115506515 -0.18388233 0.23305418
000140 6f e4 4e be 2f 6b 5f bd e0 c4 d4 bc b1 c0 19 bd
       -0.20204328 -0.054545578 -0.025972784 -0.03753728
000150 20 60 a8 bc b6 c4 70 3e 80 0e 61 3d 5e 1e 10 3e
       -0.020553648 0.2351254 0.05494547 0.14074084
000160 1e 2d ac 3c 2d 74 3d be 35 5e c6 3c 5e 2d f2 3c
       0.021017607 -0.18501349 0.024214843 0.029562648
000170 cb eb 88 bd 20 95 ca ba bf 1e d6 3d 38 87 f9 bd
       -0.06685599 -0.001545582 0.10455083 -0.12183994
000180 3d 97 00 be e6 92 8d bc d8 bc a5 3d 31 83 48 bd
       -0.12557693 -0.01728196 0.0809266 -0.04895324
000190 d8 0d 27 3d 2b 12 94 3d 35 00 ec 3c 6e 8c d7 bd
       0.040784687 0.07230028 0.028808692 -0.10524832
0001a0 e8 93 5d 3d cc 0e 4e be 07 88 27 3e be a7 13 bd
       0.054096133 -0.20122832 0.16360484 -0.036048643
0001b0 65 38 ee bd 82 04 05 3b e1 06 b5 3c 2f fd 83 bc
       -0.1163185 0.0020296876 0.022098007 -0.016111938
0001c0 5a 02 03 34 c3 f3 07 b3 4d e4 7c 3d 14 4f 4f b1
       1.2201181e-07 -3.1653837e-08 0.061741162 -3.0167415e-09
0001d0 f2 0f d4 b0 1f d6 c6 3c 3e f8 ee bc 69 0f 48 3d
       -1.5429562e-09 0.024272023 -0.029171105 0.04884282
0001e0 2e d2 cb 3c 65 18 71 bd 02 b6 a4 bd c8 82 1e 3e
       0.024880495 -0.058861155 -0.08042528 0.15479577
0001f0 2b b1 9d 3d 72 b9 2a 32 07 76 6e bd c4 e6 86 3d
       0.07699808 9.937468e-09 -0.05821803 0.06586984
000200 e8 44 13 3c 6c 46 b4 bd 26 ea e5 bd c1 bd 2e 3d
       0.0089885965 -0.088024944 -0.11226301 0.042661432
000210 a6 30 b0 bd a5 a6 3d 3b 59 50 db bc 4c 20 17 bd
       -0.08603029 0.002893844 -0.026771711 -0.036896035
000220 13 f7 4a 3d d4 ea 37 ba 0c 2f e1 bd 51 43 34 3e
       0.049552035 -0.0007015888 -0.109953016 0.17603804
000230 e1 ef bd 3c 9b 1e 27 3e d4 d4 fb bd d5 fe 83 3e
       0.023185672 0.16320269 -0.12296453 0.2578036
000240 dd 1c f1 bd 64 45 1f be 6e 7c 5d 3d aa b5 15 3d
       -0.11773083 -0.15553814 0.054073744 0.0365502
000250 4a 69 12 3e fa 97 d5 3d 06 6b ff bd ff 72 cf 3d
       0.14297977 0.10429378 -0.12471585 0.10129356
000260 e0 10 d4 bd 87 c4 80 bd 76 36 81 bd 92 ea 64 bd
       -0.10354781 -0.062874846 -0.06309216 -0.055887766
000270 dc 97 9e bd 18 9f 99 3d 77 4f 4c 3d cc 2c 0f 3e
       -0.077438086 0.07501048 0.04988047 0.13981932
000280 af 99 92 3d 05 7b de bd 69 9e 5a 3d 53 e3 3b bd
       0.07158219 -0.10863308 0.053373728 -0.04587109
000290 11 8b f2 bd 5a c8 f6 37 b8 a1 9b 3d b2 55 83 3d
       -0.11842931 2.9418781e-05 0.07599205 0.064128295
0002a0 06 e0 cc bd 44 83 30 3e ae ac 11 3d e5 06 c6 3d
       -0.100036666 0.17237574 0.03556507 0.09669284
0002b0 99 18 5b 3e 11 15 42 be 2d 85 23 bd ab 99 a9 b3
       0.21396102 -0.18953349 -0.03992193 -7.897628e-08
0002c0 98 c8 2e b3 fc f9 44 3d 7e 8a 65 31 6c f5 c9 30
       -4.069497e-08 0.048089966 3.340261e-09 1.4694428e-09
0002d0 d7 2f fc bd 99 4f 00 bc 98 e7 07 be ce ff ea 3c
       -0.12313812 -0.007831478 -0.1327194 0.02868643
0002e0 8f 00 f9 3c 0d 79 4b be 91 d8 c2 3d 5c 7a df bc
       0.030395774 -0.19870396 0.09513963 -0.027280025
0002f0 60 55 02 b2 00 bb c3 3c ac 52 a2 bd 7b 59 ea bc
       -7.586408e-09 0.02389288 -0.07925925 -0.02860712
000300 4f 1a 2a 3d 24 2e f0 3d 17 94 f7 bc 19 44 fb bd
       0.041528996 0.117275506 -0.030221982 -0.12268848
000310 01 5b 96 3c 5d 38 3d bd 3e a0 17 3d 5a d9 2d 3d
       0.01835394 -0.04619633 0.037018053 0.04244361
000320 3f bd 16 be 65 49 f3 3d 27 72 d3 bd a0 79 e5 3c
       -0.14720629 0.11879233 -0.10324507 0.028012097
000330 33 73 d8 bd c0 ec 7d 3e 6c 15 ac be 3e 0f 8c 3d
       -0.105688475 0.24797344 -0.33610094 0.06838845
000340 dc 2a d8 3d 3c 10 83 3d a9 c7 27 bd d3 0b 30 be
       0.1055505 0.06399581 -0.040961895 -0.1719201
000350 e6 f7 07 be e1 04 74 3c 8d 75 28 be e7 0c aa bd
       -0.1327816 0.014893741 -0.16451092 -0.08303242
000360 5b e3 e3 bc b1 28 ac bd 3c d6 92 3c ae b9 20 3c
       -0.027818372 -0.08406199 0.01792442 0.0098098945
000370 4c c8 85 3d 03 d9 d4 ba 46 66 9b bd 46 93 ab 3c
       0.06532344 -0.0016238991 -0.075878665 0.020944249
000380 4d 56 09 3e 87 fc e3 bb e9 e9 97 bd 6c 37 73 bd
       0.13411827 -0.006957594 -0.07417662 -0.059379026
000390 5f 71 24 bd 74 a3 4f be 32 3b 17 be 17 00 30 bc
       -0.04014718 -0.20277196 -0.14768675 -0.010742209
0003a0 8b 7c 1d be 46 7f 80 bd 48 43 29 be 17 d2 6a be
       -0.1537954 -0.062742755 -0.16529572 -0.22931705
0003b0 48 5f 46 3e 9a e3 ba bd d2 c2 44 32 c9 09 a4 33
       0.19372284 -0.09125443 1.14529985e-08 7.638625e-08
0003c0 00 e6 52 3c dd 0f 8f b1 87 18 01 b1 58 d8 78 bd
       0.012872219 -4.163651e-09 -1.8785913e-09 -0.060753196
0003d0 f6 f0 44 3e 20 9f 63 3e 9d 1b 26 be e3 3b b6 3d
       0.19232544 0.2222867 -0.16221471 0.08898141
0003e0 53 40 7c 3e 42 d2 18 be 49 1d c2 3d 36 13 2d 32
       0.24633913 -0.14923957 0.09478242 1.0074293e-08
0003f0 e9 2d 14 3d cd 0d 81 bd 2c 36 08 3e 58 49 ef bc
       0.036176596 -0.063014604 0.13301915 -0.029209778

embedding.embeddings.bex_20230623_denoised.poses.bias f4 [64]
000000 08 28 2e be fa 46 66 bc 60 aa 02 3d a6 ec 50 bb
       -0.17007458 -0.014055008 0.031900764 -0.0031879335
000010 6d 51 28 bd e5 35 00 be 5e 65 92 bd ce 99 35 3e
       -0.04109328 -0.12520559 -0.071482405 0.17734453
000020 39 b0 6d bd d3 fb ee bd 87 d0 fd 3c 1e 82 4e 3c
       -0.058029387 -0.116691254 0.030983223 0.012604265
000030 fd 09 f0 bd ea 96 89 bd 16 27 92 bd f0 a5 6c 3c
       -0.11720655 -0.06718238 -0.07136361 0.014443859
000040 dd d6 45 be a0 de 99 3d 83 69 d1 3c f4 db 31 bd
       -0.19320245 0.075131655 0.025563007 -0.043422654
000050 7c b2 60 3d 86 7d 1a 3e ef d1 02 be 38 2f 95 3e
       0.054857716 0.15086946 -0.12775396 0.29137588
000060 05 f5 b0 3d 11 7d 38 bd d3 37 70 3e 59 42 e2 3d
       0.08640484 -0.045041148 0.23458795 0.11047811
000070 6f f8 d8 3d f9 85 12 be df 0e a8 bd 25 a9 1c be
       0.1059426 -0.14308919 -0.082059614 -0.15298899
000080 1d 14 2b be 31 5f ad 3d e7 19 63 bd 46 a8 75 3e
       -0.16706891 0.08465422 -0.055444624 0.23989972
000090 cf cb 8c 3d 3a 8f 20 be c8 13 06 be f4 6b 93 bd
       0.06874811 -0.15679637 -0.13093483 -0.07198325
0000a0 3b d8 a7 bd 7a 09 9e 3b 5d a4 b9 3d 7b 21 0a bd
       -0.081955396 0.004822907 0.09064553 -0.033723336
0000b0 bf 0a 09 3d 32 6a 1a be 61 64 31 3c d5 86 e7 bd
       0.033457514 -0.15079573 0.010827155 -0.11305014
0000c0 08 5f 28 3b b3 75 1e 3e 3f b8 36 3e 05 4a 1d be
       0.0025691409 0.15474586 0.17843722 -0.15360267
0000d0 23 56 ce bd 7f e1 fc bd 32 79 f1 3d 40 e9 ad 3d
       -0.10075023 -0.123476975 0.11790694 0.084917545
0000e0 ae cb e5 bc 61 55 11 be a8 98 a4 3c cd 9e 1f be
       -0.028051224 -0.14192726 0.020092323 -0.15587921
0000f0 a4 0d 1c 3e b0 e0 ba 3d 3f 62 e1 bd f1 1d a9 3d
       0.15239578 0.09124887 -0.11005067 0.08257664

embedding.embeddings.ken_20230614_denoised.poses.weight f4 [64, 63]
000000 f3 7b 42 3d 06 6d b5 3c 9a a2 c9 3c 54 82 d0 3d
       0.04748149 0.022146713 0.024613667 0.10181108
000010 b9 c8 19 3e a8 93 f3 3c 5c eb 83 3d 13 0e 5e bd
       0.15017976 0.029733494 0.064413756 -0.05421264
000020 4c 98 19 bc 96 bb 9d 3c b8 91 6f 3d 96 f9 fc bc
       -0.009374689 0.019254487 0.058488578 -0.03088073
000030 7f d0 77 3b 03 35 85 bd a5 fa 02 3e 9a 97 c8 bd
       0.0037813482 -0.06504252 0.12790926 -0.09794541
000040 07 02 7e 3d c0 69 d2 3d 79 95 91 3c 83 3e 41 3e
       0.062013652 0.102740765 0.01777147 0.18871503
000050 bf 43 68 bd f8 40 a9 bb c8 5e e0 3d 93 e3 fc bc
       -0.056705233 -0.0051652156 0.10955578 -0.030870235
000060 f8 0f b8 3c eb 76 62 3d 5b e9 68 bd 53 84 0a bd
       0.022468552 0.05528919 -0.05686317 -0.0338176
000070 29 ce b7 3d 10 7e 85 bd 7c 2d c8 3c 7b 9e 42 3c
       0.08974869 -0.06518185 0.024435751 0.011878605
000080 03 1b 6d bd 2c f4 8d 3b bc 0e a5 3a e1 f9 8d bd
       -0.05788709 0.004332086 0.0012592892 -0.06932426
000090 60 b2 bc 3d 8d 32 b2 3d e9 8c 23 bc 6a ea 19 3d
       0.0921371 0.08701048 -0.009982326 0.03757707
0000a0 6d e3 e6 bb 9d 4f b4 bd ef 0d c0 3c f4 67 6c 3d
       -0.0070461542 -0.088042475 0.023444144 0.057716325
0000b0 a8 d7 2e bd 5d 0c aa 3d 9b a8 2b 3d 95 1e e9 bd
       -0.042686135 0.08303139 0.04190884 -0.11382786
0000c0 c3 9d 30 3d bc 40 79 b4 fb da 8b b3 e2 d7 94 bc
       0.043119203 -2.3213482e-07 -6.512524e-08 -0.018169347
0000d0 20 ba 4e b0 a9 8a 3c b0 65 87 5f 3d 44 0a bc bc
       -7.5206863e-10 -6.859105e-10 0.05457248 -0.022954114
0000e0 32 b8 83 be ee 41 06 be ba a9 35 be 81 ca 64 be
       -0.25726467 -0.13111088 -0.17740527 -0.22342874
0000f0 6e 09 85 bd f4 cc 4c bd 6e 16 17 b2 8d 7a da bd
       -0.06495939 -0.050000146 -8.794457e-09 -0.10667906
000100 ab 30 30 bc 53 73 b2 3d 8e 32 e3 3c 63 c8 2d 3e
       -0.010753791 0.087134026 0.027734067 0.16970973
000110 ac 21 b0 bd 71 3c 04 3d 68 62 c1 bd 84 ec 67 bd
       -0.086001724 0.032284204 -0.09442598 -0.056622043
000120 f4 cb a6 bb b7 64 16 3e 62 cb f6 bd 7d 15 87 3b
       -0.005090231 0.14686857 -0.12050511 0.0041224346
000130 98 df 18 be 08 7e ec 3d 92 6d 4c bd 26 44 af 3d
       -0.14929044 0.11547476 -0.049909182 0.0855792
000140 ba 98 dc 3d 3a 08 e3 bc 11 4d 68 3d 36 15 80 3d
       0.10771318 -0.027713884 0.05671412 0.06254046
000150 fb 7b 60 bd c5 03 27 3d 07 df 19 be 04 8b a9 bd
       -0.054805737 0.04077508 -0.15026484 -0.08278468
000160 03 a4 4d bd 55 9e 81 bd b5 8e 8c bc 89 5d 77 3c
       -0.050205242 -0.063290276 -0.017157892 0.015097984
000170 c8 01 7b 3d 03 40 8c 3d 47 4f 61 bd 8e 77 23 bc
       0.061280996 0.06848147 -0.055007245 -0.0099772345
000180 c1 e0 61 3c ed de 2f bc 05 e2 38 3c 79 92 8a bd
       0.013786496 -0.010734302 0.011284356 -0.06766219
000190 92 0f 00 3d 2b 99 0b 3b 32 89 80 bc 54 bc 34 3d
       0.03126485 0.0021301012 -0.01569042 0.044124916
0001a0 4b 98 b9 bc 19 90 9d bb b1 e7 38 3d 89 00 12 3d
       -0.022655627 -0.0048084375 0.045142833 0.03564504
0001b0 d5 36 3d 3e 24 76 2a bc 58 ca c9 bd 3a 26 c4 bb
       0.18477948 -0.0104041435 -0.09853047 -0.0059860023
0001c0 3b ff 47 b4 51 31 a1 b3 1b 16 d9 3c 72 52 3b b1
       -1.8626172e-07 -7.506117e-08 0.026499799 -2.7258946e-09
0001d0 42 96 b7 b0 62 a3 c6 3b 9d 60 24 3d bf 5c 2d bd
       -1.3357708e-09 0.006061957 0.0401312 -0.042324778
0001e0 a7 03 79 3d b4 43 6e be cb 43 81 3e 08 08 87 3c
       0.0607945 -0.23268014 0.25247034 0.016483322
0001f0 af 65 4b 3d a2 84 b6 b1 0d d6 5e 3d a7 a9 57 3d
       0.04965752 -5.3119757e-09 0.054403353 0.052652027
000200 fe 09 4e bd 3a c9 dd 3b 4c 82 d0 bd 26 6c e4 3d
       -0.050302498 0.006768373 -0.10181102 0.1115344
000210 0f 40 56 3d 29 18 e6 bd 3f 16 da 3d 02 3c b9 bc
       0.052307185 -0.11235077 0.10648774 -0.022611622
000220 43 60 ca bb 9c cc 70 3d 32 15 5e bd a8 28 85 bc
       -0.006176026 0.05878888 -0.054219432 -0.016254738
000230 a6 b3 38 bd fe 25 0b 3e 2b d9 c7 bd 00 36 8c 3d
       -0.0450932 0.13588712 -0.097582184 0.06846237
000240 63 fb e8 bc 1e d2 d2 3c 41 a6 87 bc 68 dc f3 bc
       -0.028440183 0.025734957 -0.016558768 -0.029768184
000250 ef bd 8f 3d 2f 2d b6 bd ed 0f 2b bd d4 7d b9 bd
       0.07018649 -0.08895337 -0.041763235 -0.09057203
000260 09 64 cc 3a 33 b6 13 3d f1 31 82 bd 54 c4 d9 bd
       0.0015593778 0.03606243 -0.06357182 -0.1063315
000270 6e 8a 04 bd 3a 63 eb 3c 7d 97 46 3d 7b bf 21 3c
       -0.03235858 0.028733838 0.048484314 0.009872313
000280 c0 fd ca 3d 5a d5 22 3d e3 44 d2 3d 35 9e de 3c
       0.0991168 0.03975425 0.10267045 0.027175048
000290 70 5d a4 3d 69 9f f3 3b 2f 6d c7 3d fc 66 a6 3c
       0.08025634 0.0074347747 0.09737622 0.020312779
0002a0 d3 c0 97 3d e6 cc f9 bd e7 ee 96 3e dc d9 2c 3e
       0.07409825 -0.121972844 0.29479143 0.16879982
0002b0 ce 64 47 be 7b 99 ae bc ec 3e 51 bd d6 af 13 34
       -0.19472048 -0.02131342 -0.051085398 1.375441e-07
0002c0 3f 3c 1b 34 b7 9a a1 3d f8 b8 c0 2f 1e 20 46 31
       1.4457417e-07 0.07890838 3.5056025e-10 2.8831049e-09
0002d0 e5 36 17 3a 19 0b 9c 3d 2e 8f 9d bd d7 aa 69 bc
       0.0005768373 0.07619304 -0.07693325 -0.014261923
0002e0 d6 ed ca 3a e6 be 10 be e7 0f 6f bd fb 81 f3 bc
       0.0015482258 -0.14135322 -0.058364775 -0.029725065
0002f0 95 23 c2 32 85 c4 fd bd b1 42 a0 bd 0f cd e7 bd
       2.2600753e-08 -0.12390999 -0.078252204 -0.11318409
000300 9a 42 84 3c f8 9d e5 3d 92 2b a7 bd e9 6d 21 bc
       0.01614504 0.11211771 -0.08162607 -0.009852865
000310 47 2f 00 3e 81 e2 93 bd 83 c0 05 3b bd de e9 3c
       0.12518035 -0.072209366 0.0020408935 0.028548593
000320 64 e1 5d bd 3d 25 62 3d 59 4b 8a bc d6 49 cc bd
       -0.054170027 0.055211294 -0.016881632 -0.099750206
000330 81 7a 41 be 20 4f eb 3d a5 b0 83 bd c4 11 ed bb
       -0.18894388 0.11489701 -0.06430177 -0.007234784
000340 a2 c6 f4 bd 26 12 d7 bd 9b a3 79 3c ba 19 b1 bd
       -0.11951949 -0.105015084 0.0152367605 -0.08647485
000350 fc 82 b5 3d fd bb 9b 3a 74 18 85 bd 08 4d 2b be
       0.08862874 0.0011881586 -0.06498805 -0.16728604
000360 f2 62 d6 bc 23 95 87 3d 15 29 82 bd 2c 0b 9a 3d
       -0.026170228 0.066202424 -0.06355492 0.07521662
000370 32 bb 82 bd 19 f6 e0 3d bd e8 b9 bb fc 7d 06 be
       -0.06383361 0.109844394 -0.0056734965 -0.13133997
000380 8c 51 f3 3d a1 f4 26 be 17 8c 0f bd d2 82 6c 3d
       0.11880788 -0.16304256 -0.03504571 0.057741947
000390 18 c4 f8 bb db 37 6e 3c 5e 45 98 3c 58 a1 c3 bd
       -0.0075917356 0.014539684 0.018587764 -0.09552258
0003a0 65 55 14 3e c7 80 98 be 20 69 10 be ea 30 4c 3e
       0.144857 -0.2978575 -0.14102602 0.19940534
0003b0 cc a1 e2 3c 9e d8 42 bc 08 4a 51 b5 44 07 43 b4
       0.027665041 -0.011892466 -7.7966297e-07 -1.8163433e-07
0003c0 44 6e ee bb 2e a7 e6 ae e3 44 05 b1 66 22 9c bd
       -0.0072763283 -1.0488886e-10 -1.9393205e-09 -0.076237485
0003d0 2d 4e a5 bd 09 e8 43 3e e1 ab e7 3d 42 9d d6 bd
       -0.080715515 0.19131483 0.1131208 -0.10479213
0003e0 7c 1d 96 3e 8f 55 00 3e e8 00 8e 3d 90 67 d2 b3
       0.2931937 0.12532638 0.069337666 -9.797725e-08
0003f0 2d 13 0d 3d 4b e7 9d bd 9c 6d 9c 3d cc 0a 30 bd
       0.034442116 -0.07710131 0.07638094 -0.042979047

embedding.embeddings.ken_20230614_denoised.poses.bias f4 [64]
000000 91 71 e3 bd 81 b8 87 bd e4 6a 09 3e 38 8e 4e bd
       -0.111056454 -0.06626988 0.13419682 -0.0504286
000010 20 e9 dd 3d c9 24 52 bd d6 2b b4 3d f0 41 63 bd
       0.10835481 -0.051304612 0.087974235 -0.055482805
000020 cd 6a 89 bc bc 48 31 be 20 c6 3c bc 0a f7 ef bd
       -0.01677456 -0.17312902 -0.011521846 -0.11717041
000030 55 4f 1c 3e 06 c6 86 3d eb de 17 be eb 55 85 bc
       0.15264638 0.06580739 -0.1483113 -0.01627632
000040 e4 a1 9d 3b a8 ad af 3c 0d c4 0d 3d 31 52 0b be
       0.0048105586 0.02144511 0.034610797 -0.13605572
000050 ef bf f3 bd ae 87 11 3d 70 83 b3 bd c0 5f 14 3e
       -0.11901843 0.035529785 -0.08765304 0.1448965
000060 01 08 d6 3d e2 46 ef 3c 92 57 44 3e 47 55 70 bc
       0.104507454 0.029208604 0.1917403 -0.014668769
000070 23 50 94 bd fd 70 0b be d1 ac 87 3d 8d 97 41 bc
       -0.07241847 -0.1361732 0.06624759 -0.011815918
000080 bf 3a dd bd 4b 1f 8c bd 4a 4d c1 bd a9 d2 65 bd
       -0.108022206 -0.06841906 -0.0943857 -0.056109104
000090 af d9 be bd 82 51 e4 bd ad 42 ec bc 30 44 4d be
       -0.093188636 -0.11148359 -0.028840387 -0.20045543
0000a0 ee 1d 16 3d cb 06 57 3d 22 56 a5 3d 7b fe df bc
       0.036649637 0.052496713 0.08073069 -0.027343025
0000b0 b9 37 53 3d fe c1 e3 3b d0 10 b9 bd 2c 04 93 3c
       0.051566813 0.006950616 -0.0903641 0.017946325
0000c0 33 18 52 3d 33 60 14 3e af 29 0b bc 32 eb 41 be
       0.05129261 0.14489822 -0.008493825 -0.18937376
0000d0 44 63 45 3d e1 e7 20 bd 53 db e9 3d a7 28 48 3d
       0.04819037 -0.039283637 0.11418786 0.048866894
0000e0 69 c3 6b bc b1 7a 05 bd 5f e9 c7 3b 26 70 4c 3d
       -0.014389851 -0.03258771 0.006100818 0.04991164
0000f0 ab 4a 41 3c ee 10 51 bd d3 11 c9 bc b3 74 7d 3d
       0.011797587 -0.051041536 -0.024544632 0.06187887

embedding.embeddings.ken_20230618_denoised.poses.weight f4 [64, 63]
000000 d4 3c 21 3d 6d c0 10 bd 33 0a b6 3d 01 80 d0 bd
       0.03936465 -0.03533976 0.08888664 -0.10180665
000010 0b c8 c8 bc f6 fb 27 3d 6a 31 8c 3c 60 9e ec b8
       -0.02450945 0.041011773 0.017113406 -0.000112828566
000020 ec 42 1b 3c 3b 5f 8e 3c c6 93 92 bd bf d4 30 3d
       0.009476405 0.017379394 -0.07157092 0.04317164
000030 05 4d b7 3d 63 2a c2 3a 77 bb 38 3d af b1 1e 3d
       0.08950237 0.0014813658 0.045100655 0.03874367
000040 9c aa 31 bb 84 14 29 3b 4c 28 3b bd 0b 09 a8 3d
       -0.0027109748 0.0025799582 -0.045692727 0.0820485
000050 43 65 d2 3b 12 80 52 bd 20 9b db 3d 48 01 4d 3c
       0.0064207627 -0.05139167 0.10722947 0.0125125125
000060 a2 a3 92 bd 65 d2 ab 3d ec 0d 04 be 36 28 08 bd
       -0.07160117 0.08389739 -0.12895936 -0.033241473
000070 28 de aa 3d ee 58 2c 37 29 71 8a bc 42 21 71 3d
       0.08343154 1.02727045e-05 -0.016899662 0.058869608
000080 a0 3d e3 3c 85 ce 27 3d 6d be d9 3c 17 b8 e4 bd
       0.027739346 0.040968437 0.02658006 -0.11167925
000090 00 e7 bf 3c 8b e9 f7 3d 9f 4b 98 bd 3a 0b 8b 3b
       0.02342558 0.12105092 -0.074362986 0.0042432817
0000a0 70 c1 91 3d bb 65 00 be a8 8d 5e 3d 0c 2d 79 b9
       0.071169734 -0.12538807 0.054334313 -0.00023763272
0000b0 db ad d0 bc 50 72 9c bc 76 05 18 3d e9 b2 ef 3c
       -0.025473526 -0.019097477 0.037114583 0.029260116
0000c0 db 03 19 3d 82 84 d8 33 9f ad de 33 04 ad 38 bd
       0.037357192 1.0082387e-07 1.0369262e-07 -0.045086876
0000d0 1f 4e 47 af 84 00 a0 2f ee f3 37 3e ae e9 a6 bc
       -1.8126699e-10 2.9104197e-10 0.17964146 -0.020375099
0000e0 2e a8 95 be dd e0 24 be f5 29 5d 3d dc 64 c8 be
       -0.29229873 -0.16101404 0.05399509 -0.3913945
0000f0 f6 a8 38 b9 19 07 3a bd 70 dc a7 2f c7 dc 2f 3c
       -0.0001761055 -0.045416925 3.0533753e-10 0.01073379
000100 8f de d3 3c 74 e8 11 ba 32 a0 8d bd 6b 68 b5 bd
       0.02586296 -0.0005565949 -0.069153205 -0.08857807
000110 71 fe e5 3d 4e 5a 9d bd 3f 0d 34 3d f5 7a a1 3d
       0.112301715 -0.0768324 0.043957945 0.0788478
000120 b9 c2 08 3c 96 9e d3 bd 33 c3 f2 39 df 26 98 3b
       0.008347207 -0.10332982 0.00046303272 0.0046433057
000130 ad 2d 18 3e 4f c8 a8 3c 6a 84 82 3d a4 2c 0f be
       0.14861174 0.020603327 0.06372912 -0.13981873
000140 e9 f5 f7 bd 12 e7 64 bb b5 03 ef bb a3 32 22 bd
       -0.121074505 -0.0034927768 -0.007294143 -0.039599072
000150 93 81 8c bc 6a 91 e5 3b ff cd 02 bd 15 15 66 bc
       -0.01715163 0.00700586 -0.031934734 -0.014043112
000160 0d d2 db bc 19 e3 0b bd 68 2e 8a 3b c5 6a 67 3d
       -0.026833558 -0.034152124 0.004216958 0.056498308
000170 8a 81 c2 bd 52 7d 63 bd f4 e9 de 3c cf 11 c0 bd
       -0.09497364 -0.055539437 0.027211167 -0.09378397
000180 1d f1 18 3d e2 d4 8f 3d 7d ed 87 bd 46 8e cd 3b
       0.03733932 0.07023026 -0.06637094 0.006273064
000190 65 8f 18 3d c0 d1 2e 3d d3 55 38 bc 37 d2 94 3d
       0.037246127 0.042680502 -0.011250931 0.07266658
0001a0 5c 2d 8a bd 38 91 e6 bc 27 3a 9b 3c 85 f7 ec bc
       -0.06746933 -0.028145418 0.018948628 -0.02892662
0001b0 d8 13 38 be 11 09 ff 3b dd 61 bd 3d f0 5f ed bc
       -0.1797632 0.007783063 0.092471816 -0.02897641
0001c0 21 4a 5b b4 26 47 b1 b4 0a 9c a7 bc bc 43 33 30
       -2.0422932e-07 -3.3020586e-07 -0.020460147 6.5216077e-10
0001d0 90 f1 68 b0 fc 13 60 bc 69 83 86 bd 74 e3 ec 3c
       -8.474439e-10 -0.01367664 -0.06568033 0.028917052
0001e0 62 95 51 bd d3 fe 81 3e 18 4f a6 be 68 5f b2 3d
       -0.051167853 0.25389728 -0.3248222 0.087096035
0001f0 9e c6 d3 bb 32 1c 35 32 3d 1f e7 bb 46 47 26 3d
       -0.006462886 1.05419975e-08 -0.0070532844 0.040595315
000200 01 63 55 bd 63 e3 f0 bd 61 82 f3 bd 16 60 11 3e
       -0.05209637 -0.117621206 -0.11890102 0.1419681
000210 24 44 6a bb eb db e1 bd 6d 81 f5 3d 37 26 db bc
       -0.0035746181 -0.11028274 0.11987577 -0.02675162
000220 ab 1c 95 bd 37 90 ef 3d 8e d7 b2 3d d8 f0 42 3d
       -0.072808586 0.11697429 0.0873252 0.047592968
000230 9b 2f 4a bd 7b 39 61 3e a5 26 3b be 3d 91 20 bd
       -0.049361806 0.21994583 -0.1827646 -0.03920101
000240 27 02 34 bd a7 81 ba 3b b2 15 4a bd 2a 28 47 bd
       -0.043947365 0.0056917253 -0.049337097 -0.048622288
000250 32 1e d6 bd b8 1b 06 3b 3e cb 6a bc ac 72 e4 3d
       -0.10454978 0.00204633 -0.014330683 0.111546844
000260 88 fe 06 3e 64 2e 3d 3d b1 59 ce 3d db 2b bc bc
       0.13183033 0.04618682 0.10075701 -0.02297013
000270 29 43 d4 bd a4 73 9c 3d 28 d4 a2 bd 4a a1 4f bd
       -0.10364372 0.07639244 -0.07950622 -0.050690927
000280 8b f3 f5 3d 65 e9 3d 3b ed 86 ef 3d 1c 92 c2 bd
       0.12009343 0.0028978225 0.11695657 -0.095005244
000290 d5 ff 99 bd e3 5a 8f 3d 55 70 72 3d bb 1f 44 3b
       -0.07519499 0.06999757 0.05918916 0.002992614
0002a0 23 e6 ce 3d 6b ec 06 be 84 0b 7d 3e b1 b5 be 3d
       0.10102489 -0.13176124 0.24711424 0.09311999
0002b0 f9 e3 53 be 93 f5 f9 bd 0d 8b 17 bd 8e c5 e0 b4
       -0.20692433 -0.12205043 -0.036997844 -4.186699e-07
0002c0 4f e3 dc b4 81 f2 9c 3d 20 c2 b2 31 10 12 9b b0
       -4.1143582e-07 0.076634414 5.2025513e-09 -1.1282868e-09
0002d0 19 79 cd 3b c2 0f 83 bc 16 34 dd bd ca db 11 bd
       0.0062705395 -0.015998725 -0.1080095 -0.035609998
0002e0 18 b0 dd 3d c2 2a 1b be 7e ec af bb 0e a1 84 bc
       0.10824603 -0.1515303 -0.0053687682 -0.016190078
0002f0 54 b1 13 32 ba 87 0d be d7 26 28 3d 30 89 f5 3b
       8.596846e-09 -0.13821307 0.041052666 0.0074931607
000300 c7 51 5e 3d 25 51 9c 3d 10 44 39 be ba fc bb bd
       0.054277208 0.076326646 -0.1809237 -0.09179063
000310 88 8b 13 3e f0 16 61 bd f5 e6 01 3d ea 84 1f 3c
       0.14408696 -0.054953516 0.0317144 0.009736279
000320 c0 bd 91 bd 48 0e 55 bd 50 c8 c7 3d 5a 64 05 be
       -0.0711627 -0.052015573 0.097550035 -0.13026562
000330 e6 7b 44 be 8b be 1a 3e d8 d0 c9 bd a3 14 3b bb
       -0.19187889 0.15111749 -0.09854287 -0.0028546236
000340 3c 3e 75 bd fb a3 c5 bb a6 8e 0c 3d cd ba 87 bd
       -0.059873804 -0.006031511 0.034315728 -0.06627426
000350 87 a7 3f bc 35 79 c3 bc 6f 7d 1d bd 97 e3 ef bd
       -0.0116976565 -0.023861507 -0.0384497 -0.11713331
000360 56 b8 de bc a6 9b 6f bd 29 fc 70 3d 82 de c1 3d
       -0.027187508 -0.058498047 0.05883423 0.09466268
000370 be a5 f9 bc e6 c8 ae bc 83 4d d1 3d 7d d1 0a be
       -0.03047454 -0.02133603 0.10219862 -0.13556476
000380 e1 10 6f 3c 9b f8 30 be e5 12 40 bd 19 0b 0e be
       0.014591427 -0.17282335 -0.04689302 -0.13871421
000390 cd ea 17 bd fe 12 95 bb 15 0d 3b 3d d4 15 05 be
       -0.037089158 -0.004549383 0.045666773 -0.12996608
0003a0 9b 92 2b 3e ee 6b 8d be 1a 10 2f be f3 ea 6d 3e
       0.16755144 -0.27621406 -0.17095986 0.23234157
0003b0 cd 43 c5 3d 19 0e 5a 3c 91 10 d8 34 b2 18 ce 34
       0.096320726 0.013309025 4.024519e-07 3.8388458e-07
0003c0 8b 99 42 3c 1d 2e a1 b0 bb 4b 05 ae a0 c3 1a be
       0.011877428 -1.1727398e-09 -3.030796e-11 -0.15113688
0003d0 89 80 d2 bd 3b 44 50 3e fe 2f 08 3e 1d 5c 72 3d
       -0.102784224 0.20338528 0.13299558 0.059169877
0003e0 dd 8f ff 3d f6 f7 96 3d ed 69 98 3d 72 8f 08 b2
       0.124786116 0.073715135 0.07442079 -7.948858e-09
0003f0 c1 7d 25 3e e6 19 62 bc 4f 5f 24 3d 65 6d e7 3d
       0.16161253 -0.01380012 0.040129956 0.11300162

embedding.embeddings.ken_20230618_denoised.poses.bias f4 [64]
000000 30 ea 79 bd 08 60 10 3d 30 10 9c 3d 72 0e b7 3c
       -0.061014354 0.035247833 0.07620275 0.022345755
000010 a7 90 ee bd 35 f8 1b be e6 ba ad 3b b4 bc f1 3c
       -0.11648684 -0.15231402 0.005301821 0.029508926
000020 17 32 ad bc 26 3f f5 bd ae 42 dd bd b2 ed fb bd
       -0.021142049 -0.11974935 -0.10803734 -0.12301196
000030 38 59 32 3e de e1 31 3d bc 05 0f be fd 1a 92 bb
       0.17416847 0.043428294 -0.13967031 -0.0044587837
000040 a2 e0 9d bd a1 6e ba 3c 03 7b fa 3d 0d b0 10 be
       -0.07708861 0.02275783 0.12230494 -0.14129658
000050 15 93 c9 3b eb 1a 92 3d 29 07 06 bd 0c 02 d6 3d
       0.0061515667 0.071340404 -0.032721672 0.10449609
000060 5e 3c a1 3d a3 d8 81 3d c5 a3 b0 3d 03 94 83 3d
       0.07872842 0.06340148 0.086249866 0.06424715
000070 b0 c4 fc bd a7 38 07 bd 8d 94 45 bd e7 31 8f bd
       -0.12342203 -0.033013012 -0.048237372 -0.0699194
000080 5e f8 1e be d1 1c b3 3d cf c7 38 be 1a 15 df 3d
       -0.15524432 0.08745731 -0.18044971 0.10892697
000090 f9 c6 16 be dc e3 10 bd 63 33 08 bd 75 a6 4f be
       -0.1472434 -0.035373554 -0.03325213 -0.20278342
0000a0 05 db 12 3e 69 f8 f6 3b eb f6 c9 bd 77 30 ad 3d
       0.14341362 0.007536937 -0.09861549 0.084565096
0000b0 46 72 f5 3d 8b c7 f3 bd bc 86 88 bd 63 35 f6 bd
       0.119846866 -0.11903294 -0.066663235 -0.120219015
0000c0 7a 5d 21 3e c0 86 e6 3d 6c d6 f7 3d 3b ec 59 be
       0.15758315 0.1125617 0.121014446 -0.21281521
0000d0 c2 ce fd 3d 34 72 ba bd e1 76 57 3d 81 f8 0d 3b
       0.123929515 -0.09103814 0.052603606 0.0021663012
0000e0 2a 53 cd 3d 6c a0 d2 bd 2f fd 6a 3d c5 fb d6 3c
       0.10025628 -0.10284504 0.05737036 0.0262431
0000f0 7e 2f 8e bd 37 fe e7 3d 01 bf 14 bd 8e 70 b0 bd
       -0.06942652 0.113277845 -0.036314968 -0.08615218

core.core.fc.0.0.weight f4 [128, 64]
000000 1e 66 c7 bd fb 14 28 bd b2 c9 d4 3c c2 46 35 bc
       -0.09736274 -0.041035634 0.025975082 -0.011064233
000010 00 5e 05 3d 51 1f 6a bd 43 16 49 bd fb 74 e4 3d
       0.03256035 -0.057158772 -0.049093496 0.11155125
000020 dd bd 46 3d 39 4a 55 bd 29 8a d6 3d 8c a1 a9 bb
       0.04852091 -0.052072737 0.10475571 -0.0051767286
000030 93 66 88 3c ce fe 88 3c c0 ed d7 bc 9c b6 35 bd
       0.016650474 0.016723063 -0.026358485 -0.044363603
000040 93 c5 a3 bb 58 a6 9f 3c a2 ef 40 bc 56 96 f4 bc
       -0.004997918 0.019488499 -0.011775883 -0.029856842
000050 c3 2c 80 3d d6 e4 30 3d a4 f5 ae bd 56 77 db 3d
       0.062585376 0.043186985 -0.08542946 0.10716121
000060 aa 33 6d 3d 20 59 1a bd 68 64 ea bb 8e 06 ba 3d
       0.0579106 -0.037682652 -0.0071530826 0.090832815
000070 28 4b 4c 3d 03 db 9d bd 67 6d a7 3c 63 bd d2 3c
       0.049876362 -0.07707789 0.02043791 0.025725072
000080 33 21 bf bd 91 df 11 3d 0d 6c 68 bd ae 10 94 3d
       -0.09332504 0.0356136 -0.05674367 0.07229744
000090 53 8c d9 3b a5 f2 8a bd 58 17 64 bd 59 2f 4d bb
       0.0066390424 -0.06784562 -0.055686325 -0.003130874
0000a0 52 df 45 bd f0 4b e6 3c 8f ac 3d bc d6 ab 21 3c
       -0.048308678 0.028112382 -0.011576786 0.009867629
0000b0 67 42 dd 3b ca af 64 bd c3 89 17 bd 6f 67 ce bd
       0.0067523005 -0.055831708 -0.036996614 -0.10078322
0000c0 b6 d9 b9 3c fe a6 71 3d ec 1e 23 3c 07 90 b2 bd
       0.02268682 0.058997147 0.009956103 -0.08718877
0000d0 a1 c3 f7 3c 2b f7 3c bd a7 32 c9 3d 12 04 04 bd
       0.03024465 -0.046134155 0.09824114 -0.032230444
0000e0 80 02 3c bd a6 44 16 bc e8 82 f3 bc 0f c9 2b bd
       -0.04590082 -0.0091716405 -0.029725507 -0.04193979
0000f0 88 8b 8a 3d 65 84 b8 bc 76 45 1e be c5 11 97 3d
       0.06764895 -0.022524068 -0.15456185 0.07376436
000100 4f 71 8f 33 5c de eb b3 3c 90 16 b4 f4 34 65 b4
       6.679567e-08 -1.0983487e-07 -1.4022311e-07 -2.1346551e-07
000110 e1 59 19 34 e1 aa a7 33 37 71 e5 32 e6 a3 e4 b0
       1.4281933e-07 7.807626e-08 2.6710593e-08 -1.6635766e-09
000120 7a 3c a5 32 12 4c ef b1 36 1a 78 34 8a 1a f3 33
       1.923603e-08 -6.9644637e-09 2.3106335e-07 1.1320397e-07
000130 46 4b 15 b4 f0 c3 a3 b3 61 fe 18 b3 11 f7 6d b3
       -1.390409e-07 -7.62592e-08 -3.5621614e-08 -5.5405568e-08
000140 8c ad 86 34 df 53 d9 33 8a 7a 7d b3 81 bc 06 34
       2.5085717e-07 1.0120106e-07 -5.90176e-08 1.25483e-07
000150 12 35 cc 32 b4 cf 57 b4 a8 94 99 33 1e b3 ce b1
       2.377286e-08 -2.0098997e-07 7.151658e-08 -6.0157523e-09
000160 97 95 32 b4 cc 6a bf b3 ee 5d ab b4 4f 0c 44 33
       -1.6631962e-07 -8.913557e-08 -3.1919575e-07 4.5646e-08
000170 fb 95 11 34 2b c2 0d 34 2b 14 43 33 a5 bd 19 34
       1.355874e-07 1.3202286e-07 4.5420318e-08 1.4318228e-07
000180 1c 10 48 34 06 61 d3 32 18 38 30 34 52 c2 22 b4
       1.8632312e-07 2.4607754e-08 1.6411684e-07 -1.5158119e-07
000190 48 38 06 34 52 8f 44 34 3e 9d b1 b3 e0 f7 ae 34
       1.2500197e-07 1.8306062e-07 -8.270807e-08 3.2590378e-07
0001a0 de 28 8f b3 14 17 1b 34 94 88 6c 33 d4 39 99 33
       -6.66639e-08 1.4443896e-07 5.507225e-08 7.1351366e-08
0001b0 08 0d 3a b4 a3 57 1d 34 e0 59 ff 31 a7 d7 cc b1
       -1.732734e-07 1.4653646e-07 7.4316944e-09 -5.9616982e-09
0001c0 42 90 4b b4 12 db 42 b4 36 94 14 b4 be 8e 51 34
       -1.8958329e-07 -1.8147355e-07 -1.3837493e-07 1.9516571e-07
0001d0 97 ff dc b3 73 f6 a2 b2 f9 b2 11 b4 fa dc f5 b1
       -1.029104e-07 -1.8971354e-08 -1.3569287e-07 -7.1555606e-09
0001e0 fc bb ed b3 cd 94 3d 34 c1 d8 7b b2 eb 6f ff 32
       -1.1070367e-07 1.765613e-07 -1.4659407e-08 2.9736801e-08
0001f0 48 6b dc b3 04 66 94 b3 ab f7 08 34 b7 83 53 33
       -1.0264063e-07 -6.9103436e-08 1.2756088e-07 4.924706e-08
000200 b8 dc 9a ad 21 e0 54 2d 84 81 eb 2d b6 f6 3d 2e
       -1.7605792e-11 1.2100571e-11 2.6773923e-11 4.3192748e-11
000210 ab 91 e5 ad 6a 60 90 ad bd c2 cb ac 78 31 de 2c
       -2.6098975e-11 -1.6413721e-11 -5.7912273e-12 6.3151116e-12
000220 46 48 e2 aa 1d 17 16 ac 92 95 3d ae 35 2c fb ad
       -4.0195814e-13 -2.1329113e-12 -4.310647e-11 -2.8555028e-11
000230 67 a0 28 2e 16 63 17 2e bb 0b ce 2d 85 a7 bc 2d
       3.8341243e-11 3.442143e-11 2.3424698e-11 2.1447519e-11
000240 fa f1 47 ae 11 0d 2e ae 20 7a e4 2c 67 18 05 ae
       -4.546228e-11 -3.9574625e-11 6.4937083e-12 -3.0262372e-11
000250 14 c1 69 ac e1 01 22 2e 69 6e d1 ad b1 e3 51 2d
       -3.3218471e-12 3.6836204e-11 -2.3809581e-11 1.1930832e-11
000260 5e 3e 33 2e 2e a9 0e 2e 7f 01 33 2e 24 e7 40 ac
       4.075528e-11 3.2437324e-11 4.0701217e-11 -2.741315e-12
000270 f2 df 1a ae 82 f0 19 ae 7e 26 97 ac 85 c8 f3 ad
       -3.521445e-11 -3.5001786e-11 -4.2959516e-12 -2.771495e-11
000280 d4 b3 2e ae 88 6b d2 ad 82 cc 26 ae c3 d9 06 2e
       -3.972274e-11 -2.392199e-11 -3.792567e-11 3.0661484e-11
000290 99 55 12 ae 0f d0 16 ae 15 f1 1f 2e f7 37 42 ae
       -3.3272583e-11 -3.4290844e-11 3.6366538e-11 -4.41602e-11
0002a0 98 30 20 2d 17 0f 12 ae b5 4d 80 ad 03 a7 29 ae
       9.105737e-12 -3.320996e-11 -1.4586424e-11 -3.8574487e-11
0002b0 2c cd 1e 2e 23 d0 f5 ad 59 54 a6 ac f9 b7 43 2d
       3.610727e-11 -2.7945707e-11 -4.7273682e-12 1.1125317e-11
0002c0 26 92 1e 2e 68 0b 21 2e f2 d4 e7 2d f2 f9 26 ae
       3.6054847e-11 3.6617293e-11 2.6356226e-11 -3.7966026e-11
0002d0 02 21 0f 2e 28 47 43 2c 0a 94 16 2e b8 bc c8 2c
       3.2543752e-11 2.7750666e-12 3.4237536e-11 5.705294e-12
0002e0 9d 6f b4 2d 77 f0 3a ae c9 90 76 2c ea 00 77 ad
       2.0513197e-11 -4.250508e-11 3.5039075e-12 -1.4040527e-11
0002f0 85 c8 0b 2e c2 72 c5 ac 8e ef 10 ae 0a 44 61 ab
       3.1783038e-11 -5.6118174e-12 -3.2954577e-11 -8.003048e-13
000300 e8 c6 ca bc 8b 09 0a 3c 7c b1 d3 bc 2d 40 60 3d
       -0.024753049 0.008425127 -0.025841467 0.054748703
000310 60 75 c0 bc 72 8e 85 3c b4 0d d4 bc 5b 01 07 3d
       -0.023493469 0.016303275 -0.02588544 0.032960277
000320 2f bb 40 bc f6 95 07 3d da 7a 46 ba 54 48 b1 3c
       -0.011763378 0.033102 -0.0007571407 0.021640934
000330 d8 47 45 bc 7e 72 bf bc 5f 05 f9 3c e0 ee 27 3d
       -0.012041055 -0.023370024 0.030398069 0.040999293
000340 25 b8 2f bd 60 65 9b bc 83 dd 00 bc 37 6c 93 3c
       -0.042900223 -0.018969238 -0.0078653125 0.017995937
000350 05 64 d0 3c a2 63 9f 3b c2 99 98 3c 68 59 c7 3c
       0.025438318 0.004864172 0.018628005 0.024334624
000360 00 06 0b bc 69 a4 83 3c 7b 27 26 3d 58 ce 2d b8
       -0.008485317 0.016069608 0.040564995 -4.1438587e-05
000370 03 48 ee 3c 61 5f 7c 3c bb 0b 9b bc 76 dc 58 bd
       0.029087072 0.0154035995 -0.018926492 -0.052944623
000380 19 d3 f8 3c 1b f6 90 bb cd 2f c3 3c 43 e5 8c 3d
       0.030374097 -0.0044238693 0.023826504 0.06879666
000390 58 1b e4 3c b8 56 c2 3c b8 ac 85 3c 46 dc fd 3c
       0.02784507 0.023722991 0.01631771 0.030988824
0003a0 5c 4f 9f bb 40 48 82 bc 9a 2c da bc 01 dd db bc
       -0.0048617553 -0.015903592 -0.026632596 -0.026838781
0003b0 83 84 ca bc 64 e7 e5 3b 3d e9 0b 3d 60 a7 84 3c
       -0.02472139 0.0070161093 0.03415798 0.016193092
0003c0 98 c7 ec bc b1 b7 ac bc c6 6c fe ba 85 08 91 3c
       -0.028903767 -0.021083685 -0.0019411079 0.017704258
0003d0 a7 75 03 3b 2c 41 a8 3b 88 98 97 3a 60 d3 23 3d
       0.002005914 0.005134722 0.0011565844 0.039996505
0003e0 49 02 e5 bb 08 df 2e 3c 9b 4d 18 3c b2 36 1c bd
       -0.006988798 0.010673292 0.009295846 -0.0381381
0003f0 ab 05 f2 3c ef 71 07 3c dd 70 98 3c ef aa 16 ba
       0.029543718 0.00826691 0.018608505 -0.0005747517

core.core.fc.0.0.bias f4 [128]
000000 ff 6b 24 3e 1f 84 74 35 b0 85 56 ae 17 b1 42 3c
       0.16056822 9.1089345e-07 -4.8776705e-11 0.011883042
000010 83 bb 94 b3 37 11 22 b1 49 9a 32 3e 78 ee 14 3e
       -6.925895e-08 -2.3583888e-09 0.17441668 0.14544094
000020 3e 28 3c bb 9f 1b 04 3e d9 c4 65 39 1b c5 b1 b9
       -0.002871051 0.12901162 0.00021912473 -0.00033906926
000030 87 a0 bc bb 42 1d 79 37 e3 b1 58 31 e2 c3 e3 3d
       -0.005756441 1.4848369e-05 3.1533254e-09 0.11121346
000040 57 de 41 3c 5a a9 a1 3c 38 b3 90 34 91 9d 54 30
       0.011832795 0.019734073 2.695249e-07 7.7349066e-10
000050 24 26 97 b9 17 7b 3a 3e 4e 8c c0 3d 50 97 46 2c
       -0.0002882938 0.18211018 0.09401761 2.8221488e-12
000060 43 2e 09 3e d0 9e 5e 38 27 5c 2a 3d 32 18 ee 2e
       0.13396554 5.307683e-05 0.04159179 1.0827285e-10
000070 84 e4 56 3d 1b 32 64 3e 02 c4 5b 3e 97 ba 16 3e
       0.052464023 0.22284739 0.2146149 0.14719616
000080 03 76 57 3e 2c 0b 1e 3e 06 b7 63 3e 77 30 01 3a
       0.21041112 0.15433949 0.22237787 0.00049281813
000090 66 81 15 ad 42 f5 23 3d 62 88 1b b3 b1 5b bc 3c
       -8.498402e-12 0.040028818 -3.621279e-08 0.02299294
0000a0 be 62 19 3e f4 8e b8 3d f6 84 8c 39 09 dc 94 34
       0.14979073 0.09011641 0.00026801944 2.7727245e-07
0000b0 45 60 d4 ae 38 a5 c7 b8 17 3d 51 28 15 d5 e2 32
       -9.657745e-11 -9.519834e-05 1.1615077e-14 2.6406761e-08
0000c0 91 3b 5c 3e 64 2d f5 3d d6 ea 16 b6 46 a2 7d 38
       0.21507098 0.11971548 -2.2488434e-06 6.047103e-05
0000d0 34 49 b3 b2 5b 96 0d 3e 88 d2 85 3d 99 5d bd bb
       -2.0871632e-08 0.13826887 0.06534296 -0.00577898
0000e0 bb 08 10 b9 db b8 6f 3c b4 e3 5c 3e 0a 90 ce 2d
       -0.00013736163 0.014631475 0.21571237 2.3483455e-11
0000f0 ee d7 86 a8 6a 4c 11 3e 9f aa 19 3c 86 cc da 3d
       -1.4970633e-14 0.14189306 0.009379058 0.10683541
000100 9d a9 7e 3e f2 ef 2b 3e 3a 42 a2 b6 1b 01 c5 3d
       0.2486939 0.1679075 -4.835686e-06 0.096193515
000110 67 09 a6 3d b8 2c 16 3e 26 6f 5b 3e 44 75 47 3e
       0.08107262 0.14665496 0.21429119 0.19478327
000120 5f ed df 35 cf 34 55 3d 24 eb a8 3d 33 a0 c4 2d
       1.6683879e-06 0.052052315 0.082479745 2.2353763e-11
000130 9b 3d 27 3b 0b 37 ca 2f 55 b6 a4 34 1b 5b 8f 3c
       0.0025518897 3.6782696e-10 3.0680044e-07 0.017499497
000140 7b 25 5a 3d 63 5e 56 34 75 15 76 b5 f5 bb 19 3e
       0.0532584 1.9964641e-07 -9.1673365e-07 0.15013106
000150 4d cd d1 35 a0 65 76 3d 1f 13 49 3e e7 8e bd b3
       1.5631464e-06 0.06015551 0.196362 -8.826992e-08
000160 7e a9 0a 3e ed 19 21 3e c7 ba f6 3c 27 74 81 3d
       0.13541219 0.15732546 0.03011836 0.063209824
000170 e1 0e a7 3b 14 d7 90 32 0d 78 44 3e 9c 56 56 3a
       0.0050982093 1.6861613e-08 0.1918642 0.0008176358
000180 bb ed 57 3e 49 e8 24 3e 71 1d 75 35 41 18 de 34
       0.2108678 0.16104235 9.1312455e-07 4.136837e-07
000190 9e 27 72 32 36 76 a5 b0 0a 3d fc 3d ed 91 72 3e
       1.4095262e-08 -1.2038928e-09 0.1231633 0.23688479
0001a0 3b 5a 41 3e 9f 58 54 3d 9c 86 25 3e 1e 15 cc b6
       0.18882076 0.05184233 0.1616463 -6.082132e-06
0001b0 7c 11 14 3e ee 96 36 3e 1f 7d f7 b5 98 5d d2 3d
       0.14459795 0.17831013 -1.8439349e-06 0.10271758
0001c0 bc 70 8e b3 a1 27 2f 37 1a fb 61 bb 39 6f c2 3d
       -6.6328965e-08 1.044004e-05 -0.0034481944 0.0949387
0001d0 9c 31 59 aa 49 d7 35 3e c5 d4 54 3e ff 93 a1 3a
       -1.9290683e-13 0.17757906 0.2078429 0.0012327431
0001e0 21 d7 15 3d 90 3b db 31 1d 48 3e 3e e5 0c 64 3e
       0.036582116 6.3805103e-09 0.18582197 0.22270544
0001f0 e5 6f 04 bc e7 7e 11 3e 41 0c a0 37 bc 65 5f 3d
       -0.008083318 0.14208566 1.9079192e-05 0.05454038

core.core.fc.1.0.weight f4 [64, 128]
000000 80 27 22 3d 3b 64 1c b3 02 a9 92 2d d5 6b bb b9
       0.03958845 -3.641274e-08 1.6673333e-11 -0.0003574776
000010 aa 55 df b3 48 70 c6 b0 a2 f7 05 bc eb 7d 65 bc
       -1.0399829e-07 -1.4438308e-09 -0.008176716 -0.014007072
000020 be fe d7 39 11 06 0f bc 1b 32 27 37 a0 b4 f5 b9
       0.00041197793 -0.008729474 9.965642e-06 -0.00046864618
000030 6c 31 79 b9 ca 53 00 38 b6 93 b0 2e 5b 92 18 bb
       -0.00023764902 3.0595613e-05 8.029792e-11 -0.0023280594
000040 14 b3 c8 ba 8b 31 c0 3a 16 8e 0c 37 b6 23 82 2d
       -0.0015312159 0.0014663202 8.377732e-06 1.4795148e-11
000050 d4 be 02 ba a8 de a6 3d ab b6 6b 3a 59 fc 31 2c
       -0.0004987542 0.08147937 0.0008991758 2.5293294e-12
000060 b6 bc 67 bb c4 f1 92 39 a6 b7 88 3a ec 4c eb ae
       -0.0035360283 0.0002802742 0.0010430708 -1.0700227e-10
000070 07 9c 9e 3a 86 77 02 3d e9 44 e8 bc 3d f9 69 bc
       0.0012100943 0.031852268 -0.028353171 -0.014280614
000080 e8 dc 9e bc 47 f9 b2 bc de 23 d2 bc 23 62 72 ba
       -0.019392446 -0.02184738 -0.025651868 -0.0009246191
000090 27 b6 a1 2d ef f0 9b 3d 1b 32 a5 b0 55 34 26 3c
       1.8384473e-11 0.07614314 -1.2019571e-09 0.010144313
0000a0 39 fb 81 ba 80 c4 b4 bb a4 5d fc 39 c0 4a 0b b1
       -0.0009916789 -0.0055165887 0.00048134953 -2.0269653e-09
0000b0 78 0b 22 af 6d 7f 12 37 5e 0b 0a a9 5c 9c 27 30
       -1.4737889e-10 8.731947e-06 -3.0652015e-14 6.0976446e-10
0000c0 01 cb f6 bc b0 f9 ae 3c a4 a8 3f b3 bc 43 18 39
       -0.030126097 0.021359295 -4.462403e-08 0.00014521083
0000d0 5c bb 81 b3 30 85 e5 3d aa fb d5 bc 74 a9 a0 39
       -6.041111e-08 0.11207044 -0.02612098 0.0003064383
0000e0 c2 69 8f 35 a0 ce eb 39 66 46 86 3c 04 3b 89 ad
       1.068511e-06 0.0004497664 0.01639099 -1.5601305e-11
0000f0 74 30 1b ab 05 60 3e bc 23 95 d5 3a 3c a4 f1 3c
       -5.5134304e-13 -0.0116195725 0.0016295057 0.029497258
000100 7e ad a6 bc 0f f7 f1 bc 2e ff c2 b4 de f7 b8 38
       -0.0203464 -0.029536752 -3.6320984e-07 8.8199726e-05
000110 57 93 7f ba 5f 3d 08 bc 40 a3 21 ba c5 ef 3e 3a
       -0.00097494334 -0.008315413 -0.0006165989 0.0007283653
000120 bc 24 89 b5 1c ca 52 3b 1f 64 5e b8 df d6 47 ab
       -1.0217987e-06 0.0032163924 -5.302217e-05 -7.0997196e-13
000130 1e 19 e3 38 10 d3 3f 30 0b 69 27 b3 7c 5e 69 bb
       0.00010828882 6.9785333e-10 -3.8978254e-08 -0.0035609296
000140 dd 38 5b bc d0 d2 f4 b4 34 ff 15 b4 20 43 51 3c
       -0.0133802565 -4.5601928e-07 -1.3969549e-07 0.0127723515
000150 06 12 f1 35 a9 45 de bb f8 6d ca bc ed a4 92 b3
       1.7961145e-06 -0.0067832065 -0.02471064 -6.8286546e-08
000160 ad c6 1a bc 87 c7 54 bc b0 4d fe 3a d6 62 73 bc
       -0.009446782 -0.012987024 0.0019401815 -0.014855107
000170 88 c0 98 3a 3d 7d 02 30 a6 31 34 bc f7 c1 2f 38
       0.0011654058 4.74717e-10 -0.010998165 4.1903895e-05
000180 65 d9 f8 bc 9c 0a 2e bc e6 00 46 33 24 cd 36 32
       -0.0303771 -0.010622647 4.6101285e-08 1.0640438e-08
000190 70 a8 9c 2f 38 0c e7 b0 59 b1 fd bc b9 5e 18 bd
       2.8495917e-10 -1.6810935e-09 -0.030968355 -0.03719971
0001a0 55 43 2c bc 68 73 75 bc 7d 99 35 3a f6 4e 21 b7
       -0.0105141 -0.014981128 0.00069274736 -9.614732e-06
0001b0 77 d5 14 3c 3b d4 27 3c ad f4 cd b5 9d 3c 61 bc
       0.009084097 0.010243471 -1.53449e-06 -0.0137473615
0001c0 54 97 fa b3 29 26 a5 37 22 40 99 38 4c bd 0c bc
       -1.16690586e-07 1.9687302e-05 7.307554e-05 -0.008590054
0001d0 44 7b 63 ac da f6 ae 3b 0d 57 06 bd 85 b6 25 38
       -3.2327066e-12 0.0053394856 -0.03279786 3.950905e-05
0001e0 70 88 0a bc 1b 63 09 32 d4 78 67 bc 53 84 61 3b
       -0.008455381 7.9969835e-09 -0.014127929 0.0034411147
0001f0 6c 33 2a 39 ea 4e a1 bc 83 16 04 37 b7 d1 d0 ba
       0.0001623162 -0.01969095 7.8730545e-06 -0.001593164
000200 43 4a 8e bb 96 77 3c 31 22 4d 39 ac 2e bd a1 bb
       -0.004342349 2.7425577e-09 -2.6332899e-12 -0.004935882
000210 5a eb e2 b2 0e 26 2a b0 df 76 9a 3b 9d 2a 2f 3c
       -2.6416888e-08 -6.189972e-10 0.0047138776 0.010691312
000220 17 4b 38 ba 54 38 0a 3c 14 5b 00 36 ac 78 44 b9
       -0.0007030232 0.008436281 1.91265e-06 -0.0001873697
000230 09 60 4d bb 40 dd 20 37 dd ea 09 2e c0 85 b1 3b
       -0.003133776 9.588257e-06 3.1358794e-11 0.0054175556
000240 be f4 ba bb d6 ba f2 bb ba 1f 38 34 14 23 0c 2d
       -0.005705445 -0.0074075265 1.7147877e-07 7.9658675e-12
000250 e0 3d 8a b8 ed cd 2a bd 88 3e 02 3b d4 3e 9f 2a
       -6.591878e-05 -0.041700292 0.0019873697 2.828767e-13
000260 a3 9c 41 3c 1c 77 35 39 af 08 43 3a 65 e7 6c 2e
       0.01181713 0.00017305877 0.00074399536 5.3865707e-11
000270 22 02 9c 3a 9a 8f 22 ba 8c f8 a5 3c e2 14 63 3c
       0.0011902491 -0.0006201208 0.020260118 0.013859959
000280 a7 b1 99 3c 74 7e 9d 3c 47 ec 78 bc 0b b4 cd bb
       0.018761469 0.019225337 -0.015193052 -0.0062775663
000290 ea 78 21 2c f6 1c 68 bb fd 5c e8 af df 7d 0b bb
       2.2946597e-12 -0.0035417653 -4.2266626e-10 -0.0021284742
0002a0 7b aa 06 3c ac 86 b6 3b 5a 89 c8 b7 cf a5 97 b1
       0.008219357 0.0055702534 -2.3905817e-05 -4.4135287e-09
0002b0 6d c1 67 ae 13 b5 82 36 66 5f da 26 15 c2 ae 2f
       -5.2695116e-11 3.8953817e-06 1.5152647e-15 3.178832e-10
0002c0 20 61 c2 3c 60 9a 02 ba f4 1a 6e b2 34 78 0e 38
       0.023727953 -0.000498211 -1.3859552e-08 3.3967386e-05
0002d0 4f 5c 37 b2 5c 29 65 bd 43 62 c6 bb c2 99 e8 b9
       -1.06729905e-08 -0.055947646 -0.006054194 -0.00044365047
0002e0 4d af 6f b6 22 0d 93 39 e2 46 b3 3b 1c f6 14 ad
       -3.5715814e-06 0.0002804781 0.0054710964 -8.467473e-12
0002f0 a9 aa 31 29 c5 83 82 3b 19 08 ba ba 29 17 38 bc
       3.944992e-14 0.0039829933 -0.0014193087 -0.011235991
000300 b0 d3 d3 3c 3b bf 94 3c 21 32 10 35 44 13 9f 3b
       0.025857776 0.018157592 5.371713e-07 0.0048545916
000310 73 33 59 3b 96 6d 1f 3c 37 96 26 3c 66 fd 64 3c
       0.0033142238 0.009730717 0.01016765 0.0139764305
000320 a9 fe f5 b3 09 73 94 3a 49 74 62 3b 25 87 7e ad
       -1.1455024e-07 0.0011325787 0.0034554175 -1.44682365e-11
000330 df fb d3 37 bf 7b 53 2f c3 54 92 b1 e4 06 80 bb
       2.5270447e-05 1.9234302e-10 -4.2587955e-09 -0.0039070714
000340 4e 3a 94 bb 6a fb fc b4 9f f4 9c b3 1a 1c eb bb
       -0.004523552 -4.7121586e-07 -7.3088124e-08 -0.007174981
000350 c9 f1 6a 36 e9 5c fc bb b1 66 94 3c 98 11 41 b3
       3.5009455e-06 -0.0077015054 0.018115373 -4.4952316e-08
000360 8d ae 07 3c 34 37 2c 3c 6a 5a 4f bc fe c8 ff bb
       0.008281362 0.010511208 -0.012655834 -0.0078059426
000370 70 50 4a bb ac 5a 0b 2f c7 44 89 3c e7 0d ce 36
       -0.0030870698 1.267419e-10 0.016756428 6.140897e-06
000380 38 81 b2 3c 47 c6 2c 3c c6 0e 37 32 da 56 f7 b0
       0.021790132 0.01054532 1.0655361e-08 -1.79963e-09
000390 88 d8 1f 2f 44 c9 27 b0 9f 1a 82 bc 98 cf 95 bc
       1.4537893e-10 -6.104026e-10 -0.015881835 -0.018287465
0003a0 9d 58 5e 3c ea 78 2b bc 67 80 72 3b 1d d8 e5 b5
       0.013570932 -0.01046584 0.0037002803 -1.7124727e-06
0003b0 b9 8a 49 bb 9d 77 f3 3b c0 41 ae b3 f0 87 18 bc
       -0.003075285 0.0074300305 -8.114466e-08 -0.009309754
0003c0 ac 40 3e b1 f6 3f 27 36 12 bb 34 b9 81 3f 91 3a
       -2.76854e-09 2.492217e-06 -0.00017235827 0.0011081548
0003d0 8c b5 51 2a 5f b1 16 3c c3 aa 8b bc fc 99 49 37
       1.8625916e-13 0.009197562 -0.017049199 1.2016386e-05
0003e0 54 8d e9 bb 7a 70 28 31 5a 5b 3f 3c ee c0 1f ba
       -0.0071274433 2.4511153e-09 0.011679495 -0.00060941174
0003f0 d9 b2 c2 b9 5c 9b a1 3b 5d 46 6a 36 9f 74 7b bb
       -0.00037135815 0.0049318504 3.4909674e-06 -0.0038369072

core.core.fc.1.0.bias f4 [64]
000000 80 14 7d 3d a8 f6 34 3d 8b a0 1e bd 3d 40 d6 bc
       0.06178713 0.044180542 -0.038727324 -0.026153678
000010 e9 69 de bb 61 16 e1 bc 3d 45 29 bd 68 c6 2b bd
       -0.006787528 -0.027476491 -0.041325796 -0.04193726
000020 06 8d a3 3d 7f b9 90 3d c1 eb 33 bd 2f d1 01 3e
       0.079858825 0.070666306 -0.043926004 0.12677453
000030 c2 a2 91 3d 7c cf 37 3d 00 b0 67 3d cc 66 7f bb
       0.07111122 0.044875607 0.05656433 -0.0038971184
000040 cb 39 22 3d 07 17 bd bc 1f df 83 3d 7d b1 07 3e
       0.039605897 -0.02308227 0.06439041 0.132513
000050 74 6b 07 bd e0 65 c2 3d 35 f3 b9 3d fd a8 22 bd
       -0.03306146 0.09492087 0.09079591 -0.03971194
000060 0b 66 4b bd 86 df e8 3c b1 0c 86 3c 52 9a 89 3d
       -0.049657863 0.028426897 0.016363474 0.067188874
000070 e5 40 44 bd 92 97 a6 bc c4 ee 2d 3e 9e d0 02 3e
       -0.04791345 -0.020335946 0.16985613 0.12774894
000080 29 fb 55 bd 0d b8 3d 3d d2 09 44 bd 75 5d ca bc
       -0.052241478 0.046318103 -0.047860928 -0.024702767
000090 17 d9 3d 3d a6 4a 08 3e 6e b1 34 bd 7a fe 4e 3d
       0.04634961 0.13309726 -0.044114523 0.050535657
0000a0 2a fa 19 3b 2f bf a1 3d 7a b5 28 bd ae a2 bf bc
       0.0023495057 0.078977935 -0.041188695 -0.023393001
0000b0 fc b5 0c 3c 7a f1 ac 3c 68 9f 83 3a d0 16 c0 3d
       0.00858831 0.021111239 0.0010042014 0.09379351
0000c0 fb 17 d9 bc 75 39 92 3d e4 e2 cc bb 8b 2a 98 3b
       -0.026500693 0.07139865 -0.0062526334 0.0046437434
0000d0 3c 55 04 3d 56 93 0d bd 05 c7 96 3d bf 2b c5 3d
       0.03230785 -0.03456434 0.07362179 0.096274845
0000e0 a3 5a ae 3c 10 6b 44 bd 0f 29 1f bb 48 2f 3c bd
       0.021283453 -0.047953665 -0.0024285947 -0.04594353
0000f0 8d 50 69 bc 8e 01 8d 3d e2 e9 38 3d f0 99 b4 3d
       -0.014240396 0.06885062 0.045144923 0.08818424
