artifacts/poses_to_location/20250819180854/best_model.pt (torch, 17909 bytes, 18 tensors)

linear.bex_20230623_denoised.location.weight f4 [2, 63]
-0.9287782 0.016412344 0.20432813 -1.148972 -1.1069628 -0.047279313 -0.6091096 0.20818135
-0.5505193 0.24271452 -0.06931824 0.14241359 -0.83070326 1.1646277 -0.2741823 0.9635966
-0.9471767 -0.4059779 -0.6108434 -0.6287383 -0.06154446 -0.55819654 0.28789398 0.24804859
-0.045913003 0.20757024 -0.4057155 -0.7555761 0.1764319 -0.09920057 0.14929916 0.1167018
-0.2604579 1.2274393 -0.18044207 -0.10101834 -0.24292953 0.05981008 0.12683392 0.5612091
-0.06357429 -0.29645973 -0.7563223 1.3618038 0.49407497 -0.5123793 2.2425694 -0.40995938
-0.6759411 -1.3212465e-05 -5.131994e-05 0.48425585 -2.578695e-07 1.0902043e-06 -0.6675452 0.45950156
0.60526544 0.76554424 0.57086414 -1.6051627 1.5906353 0.6750296 -1.7209338e-07 -0.54293436
-0.42376134 0.39386883 -0.99466175 -0.21845806 0.61593664 -1.2361362 -0.17876418 1.0520332
0.4682009 0.22242254 0.4586733 1.0960777 0.54058605 -0.017929595 1.3687831 -1.5262691
1.1542318 -1.5471758 0.11629483 0.1057265 -1.1956239 0.40403894 0.25398666 -1.2189516
-0.016582085 0.017391924 0.12546049 0.007262898 -0.066877946 1.2886982 -0.13076898 -0.053375036
1.5079892 0.11713475 -0.66766626 0.8961346 -0.5384204 -0.23097171 1.1043652 0.3868864
-0.10442548 2.1312304 -0.30160952 0.706407 2.0978298 2.2850626 -1.0117681 -1.0814753
6.55906e-06 -2.379298e-05 1.1748844 -1.144764e-06 1.401168e-06 -1.493036 0.6762748 -1.4154589
0.35205886 0.73252964 -1.7521615 0.055257633 1.2061461 -4.5352162e-06
00000000: 68c4 6dbf 2e73 863c 653b 513e 8411 93bf
00000010: f5b0 8dbf f4a7 41bd 9bee 1bbf 7e2d 553e
00000020: d5ee 0cbf 288a 783e b9f6 8dbd ded4 113e
00000030: f8a8 54bf 8512 953f 9f61 8cbe 44ae 763f
00000040: 2c7a 72bf 56dc cfbe 3c60 1cbf fef4 20bf
00000050: 0b16 7cbd f8e5 0ebf d766 933e 7300 7e3e
00000060: 460f 3cbd 4b8d 543e f1b9 cfbe 6f6d 41bf
00000070: 90aa 343e ab29 cbbd e1e1 183e 5a01 ef3d
00000080: bd5a 85be bb1c 9d3f cec5 38be b4e2 cebd
00000090: 85c2 78be 6afb 743d c0e0 013e 66ab 0f3f
000000a0: 3d33 82bd 92c9 97be 579e 41bf 964f ae3f
000000b0: 65f7 fc3e 4a2b 03bf 4286 0f40 32e6 d1be
000000c0: 7a0a 2dbf 1bab 5db7 5e40 57b8 62f0 f73e
000000d0: 5071 8ab4 2253 9235 3ee4 2abf ca43 eb3e
000000e0: adf2 1a3f b5fa 433f 2724 123f f975 cdbf
000000f0: f099 cb3f bdce 2c3f abc8 38b4 bffd 0abf
00000100: 3ff7 d8be 2da9 c93e 27a2 7ebf 78b3 5fbe
00000110: 06ae 1d3f b639 9ebf f50d 37be 06a9 863f
00000120: 07b8 ef3e bcc2 633e 3ad7 ea3e 464c 8c3f
00000130: d963 0a3f 16e1 92bc 4934 af3f c95c c3bf
00000140: debd 933f db09 c6bf fc2b ee3d 2387 d83d
00000150: 340a 99bf 31de ce3e 8a0a 823e 9b06 9cbf
00000160: 27d7 87bc 8279 8e3c b778 003e 9bfd ed3b
00000170: 4ef7 88bd 10f4 a43f 4ee8 05be c89f 5abd
00000180: ca05 c13f 58e4 ef3d 2dec 2abf 1469 653f
00000190: ebd5 09bf d983 6cbe d75b 8d3f f915 c63e
000001a0: 07dd d5bd 1466 0840 906c 9abe 17d7 343f
000001b0: d842 0640 773e 1240 9e81 81bf c86d 8abf
000001c0: e515 dc36 0997 c7b7 9d62 963f cba5 99b5
000001d0: c40f bc35 ce1b bfbf 5820 2d3f c22d b5bf
000001e0: 0f41 b43e 1087 3b3f d446 e0bf d455 623d
000001f0: ff62 9a3f 362d 98b6

linear.bex_20230623_denoised.location.bias f4 [2]
0.49154532 1.0330963
00000000: d4ab fb3e 803c 843f

linear.ken_20230614_denoised.location.weight f4 [2, 63]
0.075009115 -0.14096256 -0.0056474 -1.1065112 -0.6425533 0.014607574 -0.72721994 0.52584827
0.3641877 0.15804133 -0.29002613 0.045460347 0.33157632 0.6041446 -0.012263659 0.8161726
-1.1567308 -0.5712274 -0.15555206 -0.06765575 -0.006412662 -0.26461655 -0.43357685 0.11354263
-0.4942841 -0.013085393 -0.2241387 0.20586027 0.2134304 -0.003613115 -0.055524196 0.30482787
-0.11945803 0.3667389 -0.09031533 0.010116216 -0.3040364 0.006784856 0.07105563 0.020689126
0.20040777 0.050528545 0.96459013 -0.6286751 -0.06410113 -2.631755 1.0816529 -0.07137919
-0.73764956 2.7496275e-05 2.232855e-05 0.54005027 3.4329284e-07 1.9123704e-07 -0.94395113 0.39217088
0.41154173 -0.35748243 0.49786463 -0.86440945 -0.45960075 0.58117455 1.0527211e-06 -0.88050926
0.16024306 0.11791928 -1.3567454 -0.2358749 0.5851298 -1.1542269 -1.5958008 0.9615246
0.27115366 0.5072488 0.30438447 1.0874391 0.34168345 0.47718418 1.2421113 -1.3260735
0.2662695 -2.0269828 0.7244742 0.0271553 -1.5859988 -0.11393042 -0.079696186 -0.71538657
-0.4106771 0.086487025 0.70814276 -0.03176388 0.058349874 0.4409226 -0.26863667 -0.35894167
1.155413 0.16811088 -0.047082677 1.7057302 0.13969916 -0.011014901 1.0150448 -0.029619044
0.15138003 2.2333546 -0.7366007 1.7910272 -0.35296932 -1.3328215 -0.8830407 -1.2001201
1.5352049e-05 -4.266409e-05 1.2728679 -5.2948053e-07 2.1243578e-07 0.58037883 -0.30260792 -0.39299372
-1.0632621 0.1257853 -1.0293279 -1.4872652 1.2476547 1.0937804e-06
00000000: 619e 993d 7d58 10be d30d b9bb 29a2 8dbf
00000010: 607e 24bf 9b54 6f3c 162b 3abf fe9d 063f
00000020: cf76 ba3e 96d5 213e 4e7e 94be a134 3a3d
00000030: 5fc4 a93e 38a9 1a3f 84ed 48bc b0f0 503f
00000040: c10f 94bf f53b 12bf 0a49 1fbe 198f 8abd
00000050: 4f21 d2bb d27b 87be c9fd ddbe 0a89 e83d
00000060: ce12 fdbe 1e64 56bc 9e84 65be 09cd 523e
00000070: 808d 5a3e 03ca 6cbb 576d 63bd 6612 9c3e
00000080: 69a6 f4bd 33c5 bb3e 3ef7 b8bd 7cbe 253c
00000090: a9aa 9bbe 7f53 de3b 9d85 913d 3e7c a93c
000000a0: b237 4d3e 05f7 4e3d 61ef 763f daf0 20bf
000000b0: 7447 83bd ad6e 28c0 9a73 8a3f 412f 92bd
000000c0: 9ad6 3cbf cda7 e637 324e bb37 bc40 0a3f
000000d0: cf4d b834 d656 4d34 c8a6 71bf 9fca c83e
000000e0: 99b5 d23e f007 b7be 1de8 fe3e f049 5dbf
000000f0: ca50 ebbe dbc7 143f 394b 8d35 0e69 61bf
00000100: c216 243e aa7f f13d d5a9 adbf 3189 71be
00000110: 11cb 153f b5bd 93bf 3343 ccbf 7a26 763f
00000120: a7d4 8a3e 0fdb 013f 48d8 9b3e 3431 8b3f
00000130: 22f1 ae3e 7c51 f43e 81fd 9e3f c7bc a9bf
00000140: 7a54 883e 16ba 01c0 2477 393f cb74 de3c
00000150: 0202 cbbf 5a54 e9bd c137 a3bd 9323 37bf
00000160: 4544 d2be 1c20 b13d d848 353f d81a 02bd
00000170: 4700 6f3d 9bc0 e13e bf8a 89be 34c7 b7be
00000180: 93e4 933f 4225 2c3e c4d9 40bd 5e55 da3f
00000190: 4c0d 0f3e d877 34bc fdec 813f a3a3 f2bc
000001a0: 5e03 1b3e 48ef 0e40 dd91 3cbf 6140 e53f
000001b0: 65b8 b4be e599 aabf f50e 62bf 899d 99bf
000001c0: 46c8 8037 38f2 32b8 56ed a23f a021 0eb5
000001d0: e719 6434 b593 143f 6def 9abe 7936 c9be
000001e0: f918 88bf ddcd 003e 04c1 83bf b55e bebf
000001f0: 26b3 9f3f 02ce 9235

linear.ken_20230614_denoised.location.bias f4 [2]
0.7187221 1.2768743
00000000: 2cfe 373f 9e70 a33f

linear.ken_20230618_denoised.location.weight f4 [2, 63]
-0.4182017 -0.45030913 0.049482916 -1.5031108 -1.5272647 0.49031922 -1.0650529 -0.51866573
0.8728291 0.6025059 -0.64356035 -0.1753969 0.058141384 1.3138694 -0.15272911 0.9082263
-2.241245 -0.0641568 0.06507661 0.2724213 1.9374507e-05 -0.5172323 -0.22396575 -0.09493493
-0.97455555 0.0679468 -0.14328235 0.23503083 0.16470735 -0.018178811 -0.16785243 0.3472435
-0.26370925 0.5700198 0.018649625 -0.14314893 0.55513954 0.16336973 -0.03204323 -0.20531209
0.28044096 -0.100112185 -0.61213976 0.25004223 0.6026269 -3.0786467 1.9298047 -0.020358153
-0.6317069 -5.404042e-06 9.587982e-06 0.5806261 -6.955046e-08 -1.527748e-07 -1.0253783 0.37269437
0.4792095 -0.6070038 0.1416848 -0.735642 2.189028 0.5965606 -5.001304e-07 -1.2553049
-0.15950339 0.4578412 -1.5928813 -0.70439005 1.2915224 -1.3113673 -2.1824968 1.7090898
0.55710465 0.5528194 0.0580636 0.9749681 1.0731463 0.2642568 1.632263 -2.160873
0.7066211 -2.013545 1.0498415 0.23384146 -1.8512479 -0.23309289 -0.13322794 -0.67074865
-0.5777613 0.33833095 0.81683034 0.26292953 0.15937904 0.42512694 -0.56407934 -0.23092704
1.1554184 0.036197197 -0.10441607 1.7746156 -0.35120603 0.0058713686 0.7608865 -0.14178717
0.07603229 2.3219612 -1.9728903 2.0820405 1.064047 -1.6930784 -1.6436065 -1.3016177
-1.0032185e-05 2.186854e-05 1.2573473 4.0450323e-07 -2.9673515e-07 0.34098718 -0.49779996 -0.50309795
-1.1086869 -0.23835617 -0.8712628 -0.9750524 1.431223 2.9801477e-06
00000000: 891e d6be eb8e e6be 99ae 4a3d ef65 c0bf
00000010: 697d c3bf 1f0b fb3e a753 88bf 47c7 04bf
00000020: ba71 5f3f d43d 1a3f 5fc0 24bf 3f9b 33be
00000030: a925 6e3d df2c a83f 0565 1cbe 8581 683f
00000040: 8f70 0fc0 a464 83bd e346 853d ce7a 8b3e
00000050: 7086 a237 5669 04bf 4757 65be 3f6d c2bd
00000060: 797c 79bf b127 8b3d 9cb8 12be ecab 703e
00000070: 0ba9 283e bbeb 94bc 82e1 2bbe e6c9 b13e
00000080: e604 87be d1ec 113f 19c7 983c a295 12be
00000090: a01d 0e3f 654a 273e c33f 03bd 553d 52be
000000a0: f595 8f3e 9e07 cdbd 31b5 1cbf 8905 803e
000000b0: c245 1a3f 8c08 45c0 d703 f73f 24c6 a6bc
000000c0: 8bb7 21bf 5e54 b5b6 12dc 2037 e9a3 143f
000000d0: c55b 95b3 6b0a 24b4 993f 83bf ccd1 be3e
000000e0: f35a f53e 9a64 1bbf d215 113e 0953 3cbf
000000f0: 0919 0c40 32b8 183f b340 06b5 d5ad a0bf
00000100: db54 23be 296a ea3e 89e3 cbbf e852 34bf
00000110: 9b50 a53f e2da a7bf 07ae 0bc0 74c3 da3f
00000120: 699e 0e3f 9285 0d3f 19d4 6d3d 8297 793f
00000130: dc5c 893f ab4c 873e feed d03f be4b 0ac0
00000140: 1fe5 343f ecdd 00c0 3561 863f 2374 6f3e
00000150: b1f5 ecbf e7af 6ebe e86c 08be 2fb6 2bbf
00000160: 2ae8 13bf b739 ad3e cb1b 513f b39e 863e
00000170: 4234 233e 3daa d93e 8167 10bf 2378 6cbe
00000180: c0e4 933f 8343 143d 18d8 d5bd 9b26 e33f
00000190: 47d1 b3be 9c64 c03b 75c9 423f a830 11be
000001a0: d1b6 9b3d 039b 1440 ab87 fcbf 2740 0540
000001b0: b132 883f cbb6 d8bf b361 d2bf 699b a6bf
000001c0: e84f 28b7 5572 b737 c2f0 a03f 802a d934
000001d0: f84e 9fb4 df95 ae3e a3df febe 07cb 00bf
000001e0: 74e9 8dbf a413 74be 140b 5fbf 099d 79bf
000001f0: 5132 b73f 8cfe 4736

linear.ken_20230618_denoised.location.bias f4 [2]
0.64682615 1.4749044
00000000: 6696 253f abc9 bc3f

exp_avg f4 [2, 63]
-0.00091870455 -0.0017757367 -0.0015713982 0.0025615464 0.004897781 -0.00034844532 0.0002262094 -0.00050221453
0.002712049 -0.003916621 0.0026001553 -0.0041893823 0.0037594817 -0.003979814 0.002342543 -0.0025392065
0.0014257391 0.0017715009 -0.0018757378 0.0027432279 0.001970162 -0.0014705532 -0.0032154666 -0.0062824762
-0.0033252272 -0.0036822218 0.0049861777 -0.00010200869 2.0446838e-05 0.0054545254 0.0004965408 -0.0010714976
0.00493288 -0.0038698919 0.0014959702 0.0008562659 -7.216935e-05 -0.0011449321 -0.006775777 -0.0007827352
-0.0015149139 0.0044145314 0.0008163658 -0.0022686145 -0.0005284243 0.0011427116 -0.0015423888 0.0018823745
0.00036133002 5.5406672e-11 -7.903083e-12 -0.00036324703 1.3655526e-16 -3.6719857e-13 0.0009723112 0.0021953364
-0.0014763293 -0.00031779613 0.0010379201 0.0017124221 -0.0013027162 -0.00036133922 1.6579836e-14 -0.004418416
0.0016580541 -0.0028010781 -0.0016101091 -0.00037525894 -0.0051204273 0.0015513246 -0.00019433933 -0.003265656
-0.00070313725 0.0015330845 -0.002006129 -0.00255031 0.0026257986 0.0008175061 -0.007582735 0.0031931244
-0.0032785959 0.002798012 0.0006200058 -0.0020252243 0.0013221675 -0.0014550432 -0.005113315 0.0037194719
-0.004176154 -0.0016239139 0.002950827 -0.00043498806 0.0006278148 -0.0030220547 0.00069747254 -0.0007631206
-0.010207722 -0.0033260076 0.001047218 -0.0007823711 0.0016798747 -0.00031638844 0.000106038235 -0.007301669
-0.0018065926 -0.0033176357 -7.373841e-05 4.8126967e-05 -0.002123432 -0.002141291 0.0041980315 0.0010310939
-9.734075e-12 -9.544014e-11 -0.0010301608 1.0097316e-12 4.1870077e-13 0.004068537 0.007687186 7.801645e-05
-0.0004795929 0.0048131435 0.0014197819 -0.00011448657 -0.0010298484 -1.7437575e-12
00000000: 38d5 70ba d6bf e8ba 60f7 cdba 9edf 273b
00000010: 917d a03b 8aaf b6b9 a032 6d39 0ca7 03ba
00000020: a2bc 313b 0057 80bb 5e67 2a3b 1647 89bb
00000030: a361 763b 1969 82bb 5a85 193b d168 26bb
00000040: dedf ba3a b531 e83a 51db f5ba bac7 333b
00000050: d51d 013b 94bf c0ba 94ba 52bb 3bdd cdbb
00000060: 0eec 59bb 6e51 71bb 1763 a33b 80ed d5b8
00000070: 4085 ab37 e0bb b23b 4a2a 023a 7e71 8cba
00000080: ffa3 a13b 039e 7dbb 6e14 c43a 0877 603a
00000090: a059 97b8 8c11 96ba 5607 debb 7830 4dba
000000a0: 1390 c6ba c6a7 903b 6201 563a 09ad 14bb
000000b0: f485 0aba 0ac7 953a fb29 caba 02ba f63a
000000c0: e570 bd39 5eae 732e 5208 0bad 3172 beb9
000000d0: 0070 1d25 e4b6 ceaa b3e2 7e3a a2df 0f3b
000000e0: 6481 c1ba e09d a6b9 d20a 883a 5a73 e03a
000000f0: e7bf aaba 2172 bdb9 8056 9528 5cc8 90bb
00000100: 1053 d93a 4b92 37bb 4c0a d3ba 67be c4b9
00000110: 42c9 a7bb d155 cb3a 91c7 4bb9 9e04 56bb
00000120: be52 38ba c8f1 c83a 4279 03bb 1a23 27bb
00000130: 9715 2c3b e84d 563a 9778 f8bb bd43 513b
00000140: b6dd 56bb da5e 373b e387 223a a0b9 04bb
00000150: 944c ad3a 26b7 beba 988d a7bb 62c2 733b
00000160: 1ed8 88bb 82d9 d4ba a962 413b 1c0f e4b9
00000170: f093 243a aa0d 46bb 97d6 363a 280c 48ba
00000180: 4a3e 27bc 26f9 59bb ce42 893a 0918 4dba
00000190: 3e2f dc3a f0e0 a5b9 d860 de38 d742 efbb
000001a0: 30cb ecba b16c 59bb 02a4 9ab8 f0db 4938
000001b0: 4729 0bbb e754 0cbb a48f 893b c525 873a
000001c0: 603e 2bad 06e0 d1ae 7606 87ba 6a1b 8e2b
000001d0: 24b5 eb2a 5d51 853b cae4 fb3b c39c a338
000001e0: df71 fbb9 93b7 9d3b fa17 ba3a 8218 f0b8
000001f0: fafb 86ba 7c69 f5ab

exp_avg_sq f4 [2, 63]
0.00019055649 0.00012279062 0.0007228036 0.00023006214 9.053008e-05 0.00040732103 0.00010535739 6.5286367e-06
4.3987446e-05 0.0001081452 0.00013706654 0.0007327775 0.00013907994 0.000105205516 0.0004297832 9.578127e-05
1.2737571e-05 3.6464222e-05 0.0002307882 0.00020121747 0.0017947932 0.00018376435 0.00018596662 0.001089775
0.00016314207 0.0003696731 0.00046694494 0.0001865976 0.00017512082 0.0018113861 0.0001323839 0.00016268788
0.0010921803 0.00019849336 0.0003369993 0.00042449095 0.00018995315 0.00043013674 0.0013668309 7.968807e-05
0.0003729498 0.0004600146 6.074197e-06 1.46818675e-05 9.198952e-06 2.3512398e-06 4.423958e-06 1.9996629e-05
5.6499506e-05 3.1323744e-16 2.673918e-16 5.6504883e-05 3.0872427e-16 1.7337535e-16 7.4897353e-06 4.731426e-05
1.454485e-05 1.7521439e-05 3.969883e-05 2.0472144e-05 9.750997e-06 5.6499543e-05 1.6007292e-16 0.00014972985
0.00012737115 0.0007472719 0.00023798643 3.8341284e-05 0.00047570473 0.00022899824 4.9012947e-06 7.3531104e-05
7.588647e-05 0.00014136618 0.0007271266 0.00025181504 0.00012094786 0.00041077455 0.00035437796 3.4156168e-05
6.2419196e-05 0.00033389166 0.00010452852 0.0016655776 0.00024588 0.00011070583 0.0010143707 0.00016721408
0.00026112457 0.0004364577 0.000106478314 0.000108953776 0.0016246013 0.00022037148 0.00010740046 0.0009822008
0.00062990445 0.000300119 0.00041093386 0.00012293385 0.0003048559 0.0012338033 8.2799554e-05 0.00038966138
0.00039024572 2.9461236e-05 7.31919e-06 1.0133833e-05 1.0268227e-05 8.766525e-06 2.89559e-05 0.00013780965
8.6504596e-17 1.6555337e-16 0.00013780006 1.8794252e-16 9.667571e-18 8.766702e-05 0.00015948624 0.00012222806
3.6647012e-05 0.0001309876 7.874936e-05 1.8011557e-05 0.0001377963 3.3161607e-16
00000000: 1ed0 4739 5bc1 0039 877a 3d3a d63c 7139
00000010: f7da bd38 b48d d539 51f3 dc38 9010 db36
00000020: 297f 3838 03cc e238 85b9 0f39 de17 403a
00000030: fdd5 1139 c8a1 dc38 8654 e139 2ede c838
00000040: 73b3 5537 29f1 1838 bcff 7139 e7fd 5239
00000050: 443f eb3a deb0 4039 0900 4339 c8d6 8e3a
00000060: 1e11 2b39 afd0 c139 4ad0 f439 69a9 4339
00000070: a3a0 3739 086c ed3a 88d0 0a39 3297 2a39
00000080: 7d27 8f3a a822 5039 48af b039 368e de39
00000090: 292e 4739 fa83 e139 3c27 b33a 351e a738
000000a0: 7a88 c339 1d2e f139 f4d0 cb36 2452 7637
000000b0: 3355 1a37 fec9 1d36 8371 9436 6fbe a737
000000c0: e2f9 6c38 b091 b425 1124 9a25 a8ff 6c38
000000d0: a9f7 b125 5fe3 4725 5650 fb36 4d73 4638
000000e0: a805 7437 01fb 9237 4b82 2638 98bb ab37
000000f0: 3798 2337 ecf9 6c38 308d 3825 cd00 1d39
00000100: ef8e 0539 91e4 433a ff8b 7939 a4d0 2038
00000110: 0268 f939 3f1f 7039 cd75 a436 b634 9a38
00000120: 3d25 9f38 b23b 1439 a49c 3e3a 0b06 8439
00000130: 63a5 fd38 3a5d d739 cecb b939 e842 0f38
00000140: 0de7 8238 2e0e af39 5236 db38 834f da3a
00000150: 74e9 8039 bd2a e838 a2f4 843a 3056 2f39
00000160: 8ce7 8839 5cd4 e439 1c4d df38 1d7e e438
00000170: 93f0 d43a 8513 6739 2f3c e138 31bd 803a
00000180: 2c20 253a 4a59 9d39 9c72 d739 cee7 0039
00000190: 11d5 9f39 92b7 a13a aca4 ad38 774b cc39
000001a0: e599 cc39 8623 f737 5d97 f536 7b04 2a37
000001b0: b345 2c37 f013 1337 52e6 f237 ff80 1039
000001c0: 4d77 c724 bbde 3e25 6c7e 1039 d7ae 5825
000001d0: d055 3223 dfd9 b738 c33b 2739 582a 0039
000001e0: 6eb5 1938 b759 0939 3e26 a538 8617 9737
000001f0: 6a7d 1039 e529 bf25

exp_avg f4 [2]
-0.0036759153 -0.0104086455
00000000: a0e7 70bb 0689 2abc

exp_avg_sq f4 [2]
0.0056511937 0.013788245
00000000: a62d b93b 17e8 613c

exp_avg f4 [2, 63]
-0.0008323151 0.0003004808 -0.0008423574 0.0018058899 0.001220031 -0.001129965 0.00061829505 0.00011844384
-0.0006717105 0.00033504274 0.0017166603 -0.00024129916 0.0012758 -0.0009359931 3.9267827e-05 -0.00047789706
0.00075348077 -5.362059e-05 -0.0008682853 -0.0002952689 -0.0016957391 -0.00024325048 4.5910405e-05 -0.00080016826
3.876505e-05 -0.0005305712 0.000112999915 -0.00010591969 0.00015457817 -0.00041261673 0.00086718565 -0.00020288123
0.0006569109 9.229052e-05 -0.00038415354 0.00022072135 -0.0008584899 -2.0582971e-05 -0.0006297291 9.97835e-05
-0.00060638244 -7.632176e-05 4.630234e-05 -7.594866e-05 -8.015747e-05 0.0008430887 -0.00029968473 5.326082e-05
9.1378926e-05 1.7606402e-12 8.150315e-11 -9.189011e-05 -3.5277824e-13 1.0525318e-13 0.00034769336 2.9870935e-05
-0.0010123902 0.00047147518 0.00035965542 -0.0006141797 -0.0005175059 -9.173075e-05 -6.953689e-13 -0.0017317858
0.0008038004 -0.00107067 0.0024400027 0.0012261999 -0.0043922723 0.00045121362 0.0014724727 -0.002326374
0.00100691 0.0009886413 6.140776e-05 0.00028879818 -0.00028215154 -0.0009365025 -0.0022861476 0.0022537452
-0.00074907375 0.00026548206 -0.002282716 -0.0021401811 0.0009571306 -0.0003494279 7.945881e-05 0.00026463546
-0.00031150322 -0.0004430589 0.00034205915 -0.0008478059 -0.0004683091 0.00348412 -0.0009051098 0.0020317396
-0.00074297254 -0.0016493568 0.00019910329 -0.0047824197 -0.00021598919 -0.00034752372 0.00090549956 -0.0018228124
0.00071126723 -0.0011610157 0.0008231401 -0.0017048336 -9.749713e-05 0.0004820864 0.0022376727 0.001013913
1.7508973e-11 1.0099335e-10 -0.0010143565 2.0534627e-14 5.436606e-13 0.00038411084 0.00252827 -0.0015095392
-0.0015193488 0.007310003 -0.0043905857 0.00015707154 -0.0010126175 8.6843943e-13
00000000: b92f 5aba da89 9d39 a6d1 5cba 9cb3 ec3a
00000010: 72e9 9f3a 551b 94ba 1415 223a 0d65 f838
00000020: bb15 30ba ada8 af39 9001 e13a 4005 7db9
00000030: bf38 a73a 6f5d 75ba 82b3 2438 428e fab9
00000040: 3d85 453a ace6 60b8 a49d 63ba 52ce 9ab9
00000050: 9043 deba 0e11 7fb9 ec8f 4038 62c2 51ba
00000060: a897 2238 0816 0bba 5efa ec38 3321 deb8
00000070: 4316 2239 7b54 d8b9 d853 633a 84bc 54b9
00000080: 8b34 2c3a 188c c138 3768 c9b9 7071 6739
00000090: 480c 61ba 98a9 acb7 6814 25ba dc42 d138
000000a0: a3f5 1eba ef0e a0b8 c234 4238 a046 9fb8
000000b0: 371a a8b8 ba02 5d3a 011f 9db9 5f64 5f38
000000c0: b0a2 bf38 c0c9 f72b 323a b32e 21b5 c0b8
000000d0: b498 c6aa 5402 ed29 9d4a b639 5893 fa37
000000e0: 2eb2 84ba 5430 f739 2290 bc39 e700 21ba
000000f0: 3ca9 07ba 925f c0b8 9cba 43ab 17fd e2ba
00000100: 22b6 523a b955 8cba 74e8 1f3b 71b8 a03a
00000110: 0ded 8fbb de90 ec39 fcff c03a 1476 18bb
00000120: 4bfa 833a 4c95 813a 0ac8 8038 d669 9739
00000130: bded 93b9 9e7f 75ba 31d3 15bb 92b3 133b
00000140: 7d5d 44ba 6630 8b39 9f99 15bb 4842 0cbb
00000150: f3e7 7a3a 6b33 b7b9 20a3 a638 c5be 8a39
00000160: 4151 a3b9 5c4a e8b9 6756 b339 4a3f 5eba
00000170: 6287 f5b9 d555 643b e444 6dba ef26 053b
00000180: 0bc4 42ba 3b2f d8ba 62c6 5039 d8b5 9cbb
00000190: 287b 62b9 d833 b6b9 0c5f 6d3a 6feb eeba
000001a0: 5674 3a3a 392d 98ba ffc7 573a b974 dfba
000001b0: 6077 ccb8 8bc0 fc39 eba5 123b 46e5 843a
000001c0: b402 9a2d 3416 de2e 28f4 84ba a0f5 b828
000001d0: e006 192b 7c62 c939 55b1 253b bbdb c5ba
000001e0: e324 c7ba c088 ef3b e7de 8fbb 92b3 2439
000001f0: ceb9 84ba a871 742b

exp_avg_sq f4 [2, 63]
2.0384241e-05 1.3381952e-05 7.68786e-05 3.1505577e-05 5.4776156e-06 4.311138e-05 1.9167961e-05 3.0805032e-07
3.919555e-06 1.2449174e-05 1.835891e-05 8.008671e-05 2.0990024e-05 7.003347e-06 4.5516983e-05 1.7257675e-05
1.0123763e-06 4.8394436e-06 9.086651e-06 1.3182561e-05 0.00021558219 8.047372e-06 1.0482164e-05 0.00012457583
7.318485e-06 2.9878169e-05 6.91767e-05 1.3492468e-05 1.2362285e-05 0.0002411957 1.784994e-05 1.1160419e-05
0.0001364564 2.4985995e-05 3.0600855e-05 7.0692404e-05 1.135706e-05 2.9707868e-05 0.00019105928 7.620513e-06
3.546903e-05 6.699304e-05 1.2992182e-07 2.777767e-07 7.670706e-07 8.622914e-07 2.570599e-07 6.152161e-06
1.1803176e-05 4.0932113e-17 4.493637e-17 1.1803546e-05 5.73415e-17 6.384862e-17 6.150868e-05 1.752562e-05
4.6233246e-05 7.884078e-05 1.385027e-05 0.00011967012 4.0264e-06 1.1803439e-05 1.9246388e-18 9.81926e-05
3.1436284e-05 0.00018688069 0.00012822301 1.0368394e-05 0.00012710926 6.339309e-05 3.6526415e-06 1.534326e-05
4.880661e-05 5.0693598e-05 0.00017384876 6.9056e-05 2.0189573e-05 0.000106865366 6.935529e-05 6.9666808e-06
1.4616213e-05 5.2799383e-05 3.62921e-05 0.0004560106 4.9731356e-05 2.1090844e-05 0.00025677847 3.5189518e-05
5.3311964e-05 0.00016788408 4.7185178e-05 2.611418e-05 0.00055606966 6.407753e-05 2.313908e-05 0.00030966205
8.634636e-05 6.316586e-05 0.00016910145 7.4654556e-05 5.440857e-05 0.0004233691 3.283442e-05 6.939475e-05
0.00015825787 2.6212472e-06 1.2909924e-06 6.3188877e-06 2.749958e-07 7.576156e-07 2.079915e-05 4.468801e-05
5.2917864e-17 6.028654e-17 4.4690023e-05 8.12157e-18 6.785821e-19 6.563327e-05 7.019217e-05 0.00011448232
0.00047234452 0.0001430368 0.00021851546 3.7611849e-06 4.468193e-05 1.33748024e-17
00000000: d3fe aa37 0c83 6037 e239 a138 db24 0438
00000010: 5ccc b736 7ed2 3438 e2ca a037 1d62 a534
00000020: b984 8336 ccdc 5037 7601 9a37 3af4 a738
00000030: bc13 b037 4bfe ea36 7de9 3e38 93c4 9037
00000040: fce0 8735 8162 a236 de72 1837 ab2a 5d37
00000050: e70d 6239 3303 0737 8ddc 2f37 92a0 0239
00000060: 4f91 f536 e1a2 fa37 f512 9138 b55d 6237
00000070: 9c67 4f37 7ae9 7c39 74bc 9537 a23d 3b37
00000080: bc15 0f39 0499 d137 6b59 0038 b240 9438
00000090: 348a 3e37 2935 f937 1657 4839 b5b3 ff36
000000a0: 95c4 1438 9d7e 8c38 a380 0b34 5721 9534
000000b0: b1e8 4d35 3778 6735 0b02 8a34 a96e ce36
000000c0: 4106 4637 1cc4 3c24 803b 4f24 d807 4637
000000d0: 7238 8424 9339 9324 39fe 8038 fb03 9337
000000e0: 92ea 4138 5257 a538 755e 6837 68f7 fa38
000000f0: 831a 8736 6207 4637 6603 0e22 c0ec cd38
00000100: 74da 0338 67f5 4339 9a73 0639 eaf3 2d37
00000110: a248 0539 e8f1 8438 e71f 7536 66b5 8037
00000120: b3b5 4c38 d69f 5438 2c4b 3639 28d2 9038
00000130: c75c a937 e81c e038 d672 9138 55c3 e936
00000140: 2838 7537 e874 5d38 5838 1838 b514 ef39
00000150: a396 5038 3eec b037 39a0 8639 7598 1338
00000160: 499b 5f38 0a0a 3039 b3e8 4538 c60f db37
00000170: 34c5 113a 5d61 8638 cc1a c237 235a a239
00000180: d914 b538 ea77 8438 d350 3139 dc8f 9c38
00000190: c234 6438 a4f7 dd39 b1b7 0938 0688 9138
000001a0: 06f2 2539 afe8 2f36 2946 ad35 d506 d436
000001b0: 23a3 9334 f35e 4b35 d679 ae37 636f 3b38
000001c0: 630a 7424 e402 8b24 8c71 3b38 08d1 1523
000001d0: 3748 4821 98a4 8938 2234 9338 3a16 f038
000001e0: 02a5 f739 26fc 1539 4c21 6539 aa68 7c36
000001f0: db68 3b38 b8b8 7623

exp_avg f4 [2]
-0.0009704777 -0.010254379
00000000: a867 7eba fc01 28bc

exp_avg_sq f4 [2]
0.0011806558 0.00447299
00000000: 3cc0 9a3a 2992 923b

exp_avg f4 [2, 63]
-0.00066098326 -0.0004688906 0.001578243 0.002034133 0.0006692202 0.00058839336 0.00094330666 -0.00014321748
-0.0002043032 0.00023649728 0.00071093626 0.00090826285 -0.00029342948 -0.0006132592 0.00024867553 -0.0009850198
0.0004952981 0.0010257876 -0.00023402713 7.716502e-06 0.0011466957 -9.3669165e-05 0.0004950626 0.0009400925
0.00019709558 0.00040995175 0.001885614 -4.315228e-05 0.00016256617 0.002034261 0.0005031296 -4.0802566e-05
0.0026019854 -0.00030047318 0.00078591413 0.0015720475 -6.261922e-05 0.00043121455 0.0016387305 -0.00022069133
0.00040821568 0.0010013108 -9.849217e-05 0.0002204681 0.0002149682 0.000858111 -0.0002654466 -0.00026010745
0.0006067711 4.3167404e-11 1.3572951e-10 -0.00060874684 4.057412e-13 -3.3041243e-13 -5.4215358e-05 -2.2303368e-05
0.00036418092 -0.00020601272 -3.1283707e-07 -0.00018524082 -8.7095126e-05 -0.0006083354 2.9786367e-12 -0.0018849017
-0.00081530435 0.0039227987 0.0029517305 0.00076104444 -0.00047292945 0.0017954293 0.0013414129 -0.0016297295
0.0015018923 -0.00031773574 0.0033773186 -0.0014196939 0.0004684956 -0.000120849465 -0.0035063233 0.0020653752
0.00056990527 0.0021030146 -0.0008155642 0.0014169132 0.0008842166 0.0011598708 0.003305917 0.0017856363
0.0018478404 0.0021940046 0.0010551859 0.0005416559 0.004981965 0.0030243562 9.644433e-05 0.005775982
-0.0010506739 -0.0002700108 0.0007149192 -0.004770585 -0.00035426125 0.0021589794 0.00010634452 0.000690544
0.002396267 -0.0015986991 0.0008313444 -0.0020213241 6.9547445e-05 0.00029989448 0.0015966499 0.002319155
1.5334095e-11 3.3997175e-10 -0.0023184284 1.4130239e-13 -2.343522e-14 0.0005708536 0.0053728325 -0.0025637613
-0.0010172552 0.00644629 -0.0023905956 0.000308146 -0.0023186808 -8.675269e-12
00000000: d645 2dba 6ed5 f5b9 0cdd ce3a 174f 053b
00000010: 9b6e 2f3a 693e 1a3a 3d48 773a a62c 16b9
00000020: 393a 56b9 41fc 7739 205e 3a3a 7d18 6e3a
00000030: 70d7 99b9 21c3 20ba aa60 8239 c81b 81ba
00000040: e5d6 013a b873 863a 2e65 75b9 2076 0137
00000050: b94c 963a 4070 c4b8 17c7 013a 8a70 763a
00000060: 71ab 4e39 cbee d639 b526 f73a 68fe 34b8
00000070: 8676 2a39 3c51 053b 75e4 033a 6c23 2bb8
00000080: 1286 2a3b d488 9db9 ce05 4e3a 290d ce3a
00000090: 7052 83b8 a314 e239 acca d63a 6169 67b9
000000a0: c805 d639 6a3e 833a 958d ceb8 742d 6739
000000b0: 1669 6139 dbf2 603a a42b 8bb9 085f 88b9
000000c0: b80f 1f3a 2dda 3d2e 763c 152f 4f94 1fba
000000d0: 7869 e42a 7301 baaa 4c65 63b8 1e18 bbb7
000000e0: 89ef be39 1e05 58b9 00f4 a7b4 343d 42b9
000000f0: d7a6 b6b8 b378 1fba 599a 512c ce0e f7ba
00000100: 26ba 55ba d28a 803b d271 413b d480 473a
00000110: 84f3 f7b9 9c54 eb3a 59d2 af3a a69c d5ba
00000120: 25db c43a c595 a6b9 0156 5d3b 0615 baba
00000130: 6aa0 f539 9070 fdb8 58ca 65bb 3f5b 073b
00000140: b265 153a bbd2 093b 96cb 55ba b8b7 b93a
00000150: c6ca 673a ce06 983a 15a8 583b 030c ea3a
00000160: 3c33 f23a 4ac9 0f3b 2a4e 8a3a eafd 0d3a
00000170: c03f a33b 4734 463b 2842 ca38 7344 bd3b
00000180: c4b6 89ba 3c90 8db9 6a69 3b3a 9152 9cbb
00000190: 24bc b9b9 aa7d 0d3b 4805 df38 a005 353a
000001a0: b00a 1d3b 718b d1ba 94ee 593a 3178 04bb
000001b0: 00da 9138 283b 9d39 ae46 d13a f7fc 173b
000001c0: 50e1 862d c5e6 ba2f c6f0 17bb a417 1f2a
000001d0: f015 d3a8 56a5 153a 960e b03b c704 28bb
000001e0: 6c55 85ba 663b d33b 8aab 1cbb a88e a139
000001f0: 02f5 17bb f09d 18ad

exp_avg_sq f4 [2, 63]
1.6603353e-05 1.4821428e-05 0.00012506345 2.6966947e-05 5.119753e-06 6.7524015e-05 1.8300092e-05 4.086775e-07
5.7978195e-06 8.734951e-06 1.7921255e-05 0.00012292548 1.774684e-05 5.0216368e-06 7.279945e-05 1.704811e-05
7.4588837e-07 8.321099e-06 7.23664e-06 1.0362944e-05 0.000324221 8.105776e-06 1.081203e-05 0.00018506632
7.901696e-06 3.533025e-05 9.61678e-05 7.231683e-06 1.2606279e-05 0.00035487852 1.1460041e-05 1.2044683e-05
0.00019915584 1.8373707e-05 3.7970625e-05 9.384863e-05 7.809394e-06 3.4899585e-05 0.0002792661 4.406512e-06
4.1857893e-05 9.1680864e-05 1.0765278e-07 4.0271274e-07 9.720313e-07 1.170062e-06 2.1701852e-07 9.858009e-06
1.141878e-05 3.2954729e-18 2.5877382e-18 1.1420979e-05 1.0952698e-17 3.264161e-17 6.3590046e-06 1.37893485e-05
2.4343606e-05 5.284578e-06 1.1535817e-05 2.5064699e-05 4.9795864e-07 1.1420558e-05 1.6492678e-17 6.832175e-05
3.6866702e-05 0.00034733312 0.000102608734 1.0691129e-05 0.00020108675 6.418067e-05 3.8081687e-06 2.3050348e-05
3.9835573e-05 5.4616834e-05 0.00033671552 7.964592e-05 2.0473593e-05 0.00020853768 8.035543e-05 6.502341e-06
2.1442029e-05 4.5960285e-05 3.5071156e-05 0.0008400581 3.2619268e-05 3.018541e-05 0.0004789566 2.5131369e-05
9.101697e-05 0.0002461706 4.8452122e-05 3.5591776e-05 0.00088039844 6.409651e-05 3.3051805e-05 0.0004886406
0.00010647529 0.00010059247 0.00024143666 7.3331525e-05 9.284344e-05 0.0007200043 3.8173454e-05 0.00010649315
0.00023089381 5.0674403e-06 1.212316e-06 1.0819729e-05 3.2294503e-07 5.907782e-07 3.5527948e-05 4.7826954e-05
5.535732e-19 1.9022933e-18 4.782203e-05 4.174316e-21 5.194886e-18 1.8191682e-05 8.681263e-05 7.409786e-05
1.9748895e-05 8.781167e-05 8.9898356e-05 2.4663452e-06 4.7823738e-05 2.71201e-17
00000000: 6e47 8b37 8ca9 7837 7723 0339 1437 e237
00000010: 58ca ab36 ae9b 8d38 2683 9937 3568 db34
00000020: e48a c236 548c 1237 9a55 9637 8fe5 0039
00000030: 0cdf 9437 887f a836 e8ab 9838 8a02 8f37
00000040: 0f39 4835 d99a 0b37 44d2 f236 81dc 2d37
00000050: 35fc a939 0bfe 0737 5165 3537 5d0e 4239
00000060: 8791 0437 912f 1438 b2ad c938 afa7 f236
00000070: 8e7f 5337 fd0e ba39 8044 4037 8513 4a37
00000080: 7dd4 5039 3c21 9a37 a642 1f38 99d0 c438
00000090: 1805 0337 2561 1238 766a 9239 a6db 9336
000000a0: 9290 2f38 ca44 c038 be2e e733 6b34 d834
000000b0: be76 8235 060b 9d35 9905 6934 d463 2537
000000c0: 4993 3f37 b929 7322 fef0 3e22 bb9c 3f37
000000d0: a70a 4a23 6988 1624 6f5f d536 cd58 6737
000000e0: 7f35 cc37 2e52 b136 f589 4137 0842 d237
000000f0: 75ab 0535 ec9a 3f37 3c1e 9823 f647 8f38
00000100: 52a1 1a38 431a b639 a52f d738 0d5e 3337
00000110: d0da 5239 bc98 8638 d78f 7f36 3f5c c137
00000120: 1f15 2738 6114 6538 3189 b039 9407 a738
00000130: b5be ab37 e8aa 5a39 7e84 a838 af2e da36
00000140: 68de b337 7bc5 4038 5e19 1338 5837 5c3a
00000150: acd0 0838 ad36 fd37 771c fb39 34d1 d237
00000160: 5de0 be38 7510 8139 1239 4b38 6148 1538
00000170: 8aca 663a 8d6b 8638 1ba1 0a38 1e18 003a
00000180: 7c4b df38 2cf5 d238 292a 7d39 90c9 9938
00000190: f1b4 c238 acbe 3c3a 6f1c 2038 1355 df38
000001a0: 161c 7239 fb08 aa36 dcb6 a235 6286 3537
000001b0: 3a61 ad34 f895 1e35 d803 1538 cd99 4838
000001c0: cf62 2321 4e5d 0c22 8494 4838 82b3 9d1d
000001d0: 50a8 bf22 579a 9837 2d0f b638 fc64 9b38
000001e0: 6eaa a537 8827 b838 d087 bc38 7d83 2536
000001f0: 5996 4838 8723 fa23

exp_avg f4 [2]
-0.006134194 -0.023298584
00000000: 5901 c9bb acdc bebc

exp_avg_sq f4 [2]
0.0011424724 0.0047881105
00000000: 03bf 953a 95e5 9c3b
