artifacts/poses_to_location/20250818184828/best_model.pt (torch, 376885 bytes, 48 tensors)

embedding.embeddings.bex_20230623_denoised.poses.weight f4 [64, 63]
00000000: 84fc e716 65fb 011e 0611 4398 65f2 8c9b
00000010: 7576 4219 f625 0c9b b532 c198 6446 de16
00000020: bc70 6796 b91f ad17 81e2 0597 c5cd 0116
00000030: fea1 621a 7584 b319 94b8 3f99 69b7 bba0
00000040: ac63 9a96 1e83 9a15 3abe 4996 705c 499d
00000050: 3b03 0da0 c089 1697 74fc b714 fa71 1196
00000060: 253e 4399 d8d6 5c95 f9b5 7417 08d0 f317
00000070: 349e 501e 3194 021b f14c 2c96 8764 3a9b
00000080: c39c 2b96 1e84 4a98 3e4a f516 9aae 7a1b
00000090: c6ab fc1b ac11 d215 4dc9 6916 3011 2c1a
000000a0: 3085 f521 3ad7 661c 909d a194 f812 299c
000000b0: 3998 c69f f6b1 8e1c 50a3 349a eb0a 2297
000000c0: 7afb 349c e6e9 fa9c aa7e 8c9c 10d4 8a1b
000000d0: 7c3f 469d 5324 eb1a 5af9 ae15 7406 db19
000000e0: 85f2 3a98 6070 bb97 f175 1d96 6865 8198
000000f0: 1c0c c81c 64dc 2b1c 5b12 a99a 9d3c 309b
00000100: a47a f714 2c00 519a 3059 1798 0725 051b
00000110: b032 2618 03bc 8b1c 171a c81c d87b 4019
00000120: 407a b596 941f 0da0 62a0 d096 eba4 d995
00000130: b1a4 1398 d0ab a915 9fb3 849a 5001 371b
00000140: 6d5c 9016 f773 641a 6570 3495 e05c ba16
00000150: 7abb 8817 23ef 731d 72af 7996 9672 6197
00000160: 0a3a b497 df57 0d1a 4778 1397 449c 301b
00000170: 8ae2 2018 e20f 2098 293f 2f1f 3490 aa96
00000180: 9ab5 3018 cd15 1e96 7cc0 b799 6197 3b9c
00000190: ba51 d315 fb50 4fa1 6ee3 4418 7f20 3d9b
000001a0: b54d 641e cad9 4a96 54a5 eba1 4fcb 061a
000001b0: ce4b 9116 c8f6 7a99 174c d898 e0cd ca14
000001c0: b33f 4519 f01f 659a 39c7 bb19 bc5f be9a
000001d0: 4144 2517 9642 271a fd1a df96 9c7f 651a
000001e0: e329 f91f 8453 c797 c553 ec1f 2aea 4c96
000001f0: 4a5b 3d9d 9b61 ba1d 7e49 bb95 ee14 2597
00000200: f04f cf15 8110 9715 e5c1 8b17 ec59 2395
00000210: b498 8a94 c77f 7398 32b8 3b9b bf1d 6d16
00000220: f8cf 0f19 ba25 c414 33fb a519 6d1e 6196
00000230: 77c2 ff9d c60c 0f97 3fff eca1 f1e2 a21e
00000240: 74b6 0421 a130 05a0 7cc2 ad99 7d1c 6a9c
00000250: 6806 0c98 9188 9f97 30ce fc14 ff88 0718
00000260: 8c8d 201c 99a1 6e20 d903 8a18 04f7 3e17
00000270: e8ee 5119 cd3e 0ba0 df41 501a 69b8 0f99
00000280: deb4 331b 2c53 0619 4248 c216 12ba 7915
00000290: 8f34 a998 8474 0497 93a6 c994 15d0 4e98
000002a0: 5045 0616 7db2 8816 e90b f797 a0cd b016
000002b0: 2b96 2716 d2af e096 3b1a 4c16 7195 5997
000002c0: 4bd5 ca15 d0cd 2a15 a0ef c79d 7a04 199e
000002d0: 987f de21 3258 d217 bcc1 039a 1750 c21f
000002e0: b037 cc16 44db 4895 037a 6e21 0db3 5d19
000002f0: 98ce 6997 dc5a 9017 cf89 d319 488e e716
00000300: e2e7 6b1a 062e 1515 d97e 5097 2768 4b1e
00000310: d4ef a217 f866 071b fda1 8116 2f14 a496
00000320: 3bad 911c 2ecc 8897 d837 4e15 1041 c616
00000330: b07f c697 16d3 1c1c b71a 1f9d 8a95 161a
00000340: aeb9 839c 0d14 689b 2442 2096 0fe8 c19c
00000350: 1fbb 2418 e137 5598 4dbb 3d9b 58a7 f816
00000360: 56de 0f96 4b81 321b 1e15 1d96 ef88 0b19
00000370: 99a7 421a 9879 0b97 5057 f51e c202 4818
00000380: 07ce 881d fe4c f31a ac91 ac1a c32f e998
00000390: eee4 0d9e e703 881b 11b0 be1d 6ea8 a299
000003a0: 3f65 df18 369f 8616 7478 f596 7d7f fd95
000003b0: 5ca2 5e9d 09f5 fd17 e085 6096 8e3a 5e17
000003c0: 7409 3a18 2daa c219 469b 8398 f7d6 d021
000003d0: e0fe 03a0 6fe7 421d 22f7 c01b 1c1b e297
000003e0: 3075 4895 ef04 991a da35 4f18 f5ee 031c
000003f0: 5434 da15 7591 f617 9587 b09f b028 e921
3.7479423e-25 6.88119e-21 -2.5211754e-24 -2.33177e-22 1.0053487e-23 -1.1592794e-22 -4.994053e-24 3.5910457e-25
-1.8695604e-25 1.1187871e-24 -4.3260506e-25 1.0485466e-25 4.686656e-23 1.8561665e-23 -9.911744e-24 -3.1800403e-19
-2.4942944e-25 6.240697e-26 -1.6296676e-25 -2.6649918e-21 -1.1944233e-19 -4.864148e-25 1.8577853e-26 -1.1748971e-25
-1.0093814e-23 -4.4598128e-26 7.9070334e-25 1.5756021e-24 1.1044144e-20 1.0801231e-22 -1.3918328e-25 -1.5418042e-22
-1.3862735e-25 -2.617459e-24 3.9628738e-25 2.0735932e-22 4.180091e-22 8.4846206e-26 1.888511e-25 3.558265e-23
1.66371e-18 7.637879e-22 -1.6318993e-26 -5.5941926e-22 -8.410809e-20 9.442774e-22 -3.735505e-23 -5.2358804e-25
-5.988203e-22 -1.6604074e-21 -9.297165e-22 2.2967227e-22 -2.6237902e-21 9.725241e-23 7.067145e-26 2.2646676e-23
-2.4162378e-24 -1.2112959e-24 -1.2719575e-25 -3.3448113e-24 1.323802e-21 5.6864e-22 -6.9926417e-23 -1.4577964e-22
2.4989e-26 -4.3220326e-23 -1.956132e-24 1.1013466e-22 2.1480588e-24 9.246848e-22 1.3241634e-21 9.9511774e-24
-2.9319278e-25 -1.1953613e-19 -3.3705428e-25 -8.7905797e-26 -1.9082453e-24 6.852963e-26 -5.4884114e-23 1.5137829e-22
2.3322784e-25 4.724297e-23 -3.6439374e-26 3.0108533e-25 8.83612e-25 3.2284413e-21 -2.016942e-25 -7.284605e-25
-1.1646878e-24 2.9229098e-23 -4.7650073e-25 1.4608871e-22 2.0793888e-24 -2.0687534e-24 3.7109936e-20 -2.7555986e-25
2.2839152e-24 -1.2770017e-25 -1.89995e-23 -6.206876e-22 8.5351163e-26 -7.0241505e-19 2.5447229e-24 -1.5644214e-22
1.2086289e-20 -1.6386152e-25 -1.5967981e-18 2.7874782e-23 2.3473853e-25 -1.2974534e-23 -5.5911522e-24 2.0477991e-26
1.0197525e-23 -4.738189e-23 1.9415812e-23 -7.8736825e-23 5.3400524e-25 3.4588578e-23 -3.6044625e-25 4.7459172e-23
1.055249e-19 -1.2881156e-24 1.0008847e-19 -1.6552878e-25 -2.5061137e-21 4.933471e-21 -7.564465e-26 -5.334079e-25
8.3732753e-26 6.101445e-26 9.03161e-25 -3.2988524e-26 -1.399467e-26 -3.1471525e-24 -1.5527794e-22 1.9154094e-25
7.434926e-24 1.9805823e-26 1.7162059e-23 -1.8184956e-25 -6.769901e-21 -4.6221914e-25 -1.6059545e-18 1.7246278e-20
4.4964814e-19 -1.1281628e-19 -1.7966332e-23 -7.7460926e-22 -1.809781e-24 -1.0309608e-24 2.5526824e-26 1.7517506e-24
5.3122504e-22 2.0212852e-19 3.567605e-24 6.170409e-25 1.08532935e-23 -1.1794537e-19 4.3066602e-23 -7.430168e-24
1.4864974e-22 6.944434e-24 3.1387991e-25 5.0431933e-26 -4.3738547e-24 -4.2798564e-25 -2.0361515e-26 -2.672993e-24
1.0846305e-25 2.2084627e-25 -1.5965007e-24 2.85641e-25 1.3537537e-25 -3.630011e-25 1.6487266e-25 -7.0305103e-25
8.192367e-26 3.4493584e-26 -5.2922628e-21 -8.100678e-21 1.5077079e-18 1.3593196e-24 -2.7246662e-23 8.2294693e-20
3.2993121e-25 -4.0562648e-26 8.079902e-19 1.1461591e-23 -7.554712e-25 9.328718e-25 2.1872549e-23 3.7409855e-25
4.8784174e-23 3.0126616e-26 -6.736853e-25 1.0768269e-20 1.0529546e-24 1.1200209e-22 2.0943303e-25 -2.6508367e-25
9.640074e-22 -8.840336e-25 4.1645422e-26 3.2029685e-25 -1.2827683e-24 5.188889e-22 -2.1057286e-21 3.114007e-23
-8.71685e-22 -1.9197069e-22 -1.2945567e-25 -1.2831654e-21 2.1290975e-24 -2.7557816e-24 -1.5694234e-22 4.017217e-25
-1.1621605e-25 1.4765592e-22 -1.2689022e-25 7.213785e-24 4.0253644e-23 -4.5066795e-25 2.5976496e-20 2.5850786e-24
3.6211928e-21 1.0062683e-22 7.137288e-23 -6.0277315e-24 -7.511819e-21 2.2501834e-22 5.047463e-21 -1.6818436e-23
5.774638e-24 2.1749344e-25 -3.9657901e-25 -1.0238703e-25 -2.9465393e-21 1.6411597e-24 -1.813682e-25 7.1805975e-25
2.404471e-24 2.0127863e-23 -3.4019492e-24 1.4151529e-18 -1.1180463e-19 2.5795335e-21 3.1923441e-22 -1.4611751e-24
-4.0482123e-26 6.328729e-23 2.6781311e-24 4.365311e-22 8.813206e-26 1.5934096e-24 -7.47632e-20 1.5799464e-18

embedding.embeddings.bex_20230623_denoised.poses.bias f4 [64]
00000000: d23f 711b 2c70 a898 c29d 4916 92e7 4d99
00000010: a246 3597 3846 7c9a f72f b796 1f64 3b96
00000020: 70bb 1996 78b2 119c 2623 9116 563b 9097
00000030: b8db 0920 2ea9 a696 7cc3 d215 7935 5717
00000040: 02fe 0621 cd09 7d9b 306e c517 4350 d316
00000050: 5aae 4595 dc1e bf98 94dd 559d 261f e51b
00000060: 93db 0c16 6b10 9e16 e845 099f fe00 9417
00000070: a60e 4e19 b3dc d721 74c4 b196 efc4 2d17
00000080: b44c fd21 dddd 3397 2785 ce95 563b 941c
00000090: 980e 0617 1468 911f a689 8a9d c5a0 0097
000000a0: 25fc be99 6166 3b98 01bc 949d de0d 1097
000000b0: 6098 3396 184c ac9e b27e de17 4876 c59a
000000c0: 5280 fb16 735e 941f f7f0 971e ecf4 8c1c
000000d0: 8017 041e bf01 2f1a eca8 3c19 c20b e516
000000e0: 6876 2d98 495b a39a d64f bb97 2cfe 199b
000000f0: 00a9 4119 fd40 b719 9741 8399 41c2 be18
1.9955674e-22 -4.3540247e-24 1.628643e-25 -1.0645017e-23 -5.8573405e-25 -5.21691e-23 -2.9595515e-25 -1.5137332e-25
-1.2418386e-25 -4.820714e-22 2.3448195e-25 -9.32076e-25 1.167705e-19 -2.6925514e-25 8.5126744e-26 6.953774e-25
4.573714e-19 -2.0930836e-22 1.2758642e-24 3.413954e-25 -3.9921372e-26 -4.9403503e-24 -2.8304868e-21 3.7905e-22
1.1378395e-25 2.5536638e-25 -2.9068704e-20 9.564526e-25 1.0652909e-23 1.4627385e-18 -2.8719872e-25 5.614788e-25
1.716425e-18 -5.811805e-25 -8.3412815e-26 9.809156e-22 4.3316155e-25 6.158207e-20 -3.667062e-21 -4.156195e-25
-1.974738e-23 -2.4220872e-24 -3.9369665e-21 -4.654641e-25 -1.4507586e-25 -1.824268e-20 1.4378396e-24 -8.1668384e-23
4.0632219e-25 6.283669e-20 1.6087408e-20 9.327734e-22 6.9928815e-21 3.6190562e-23 9.753486e-24 3.7004366e-25
-2.2419506e-24 -6.75627e-23 -1.2104745e-24 -1.2737991e-22 1.00119954e-23 1.8948005e-23 -1.3571574e-23 4.9309995e-24

embedding.embeddings.ken_20230614_denoised.poses.weight f4 [64, 63]
00000000: f048 3b0f 2c58 2a15 3662 3815 2c44 8310
00000010: a049 478c 95b6 510f b306 9d13 a43d ce0f
00000020: 6355 2893 5e59 9892 129e 9716 00d1 cf91
00000030: de2d 840e 27ad 6c95 afbf 8f17 18bb ba8e
00000040: 672e 3895 060e 2a93 a2a8 8093 3b1a 5e93
00000050: 74e1 3091 364b bc10 3319 b198 25dc 740e
00000060: fb52 fb11 8044 590e d1db b20e e14f 3515
00000070: 8c02 2a0e 98c7 db90 b3f9 5991 2f82 ae8e
00000080: 6d2e 2a93 1eca 6a0d a0e9 3092 06f0 3d90
00000090: 68c7 ca0e 5177 ed8f 9e97 448f c8bb fe8d
000000a0: 0b43 2793 6196 2e10 3825 5610 4374 8a16
000000b0: 639b 168d 7611 2b0f 57e3 e996 8288 c80e
000000c0: 0c94 530d 9065 190c d36e ec0f a720 5e1a
000000d0: 9211 598e 6ad6 8c0f c431 3e98 af64 8c90
000000e0: 3d25 5391 44ef 780f 53b2 058e adcb a10f
000000f0: 1059 8715 c803 3c0f b84c 5c0d 3f79 4012
00000100: 2649 c90f 1959 1219 9afe c090 02da 8c90
00000110: 5bee 3f0f f8d9 1190 2561 880f edbb 0611
00000120: bccf 4913 13ea a990 db81 3f17 c23a 4d0e
00000130: 5492 a891 f2cc eb17 557c 9d0e 3af7 a410
00000140: 04d5 1993 0104 1e0d 43d2 3713 e9a4 9897
00000150: 32bf 0092 1054 f88b 9495 d212 ec0d cc8f
00000160: 0772 2792 920e 7713 a688 b890 93ef af0f
00000170: a348 bb14 519f c590 8b8e ff0e 568e 3810
00000180: d68b 1e15 3292 4d98 fe62 4d90 2420 a711
00000190: e5bd 7f8e 22fc bf8f df7e d198 ce52 1691
000001a0: d2eb 9e8f 04ba 5f8d 7f4c 0990 a970 cc98
000001b0: 5edb 8e90 f2ae 058e e09b fe8b 5c18 9390
000001c0: 2d1d 6f92 982d 7f0f 3360 688f f251 c10f
000001d0: b2da 1590 da43 8411 dbb7 0410 38f0 3f8e
000001e0: 1684 eb90 78ee 3293 bd4f b591 ba44 220d
000001f0: 8156 9f97 a0fb 9a8f 9e08 0716 08d1 9090
00000200: 0e7a c790 4cd3 5996 4085 d514 a065 fe11
00000210: 3ebc 450f 24cc fb8d 9fcc 0695 98f3 3e8e
00000220: a99c 9292 3a5f 0d91 f8f1 059a 9be3 458f
00000230: dadd cc12 8adc 398f 50e8 ed10 9033 1b13
00000240: b273 3f14 4074 6a8c 00e5 958f 22fd a38f
00000250: cc74 5d1a c8df 4c0f b5cb f811 b020 2f98
00000260: 5351 3511 efd9 c111 189e a996 43bf e516
00000270: b9c5 6891 468e cf8c 71f9 7d93 f39d 9f0f
00000280: 481f 430e abf3 3891 5778 fc10 5396 a60e
00000290: 0af7 2012 0ec9 8490 8f9d ab0f 2430 2a90
000002a0: 4303 d312 9cfe ab16 a050 f80e bf87 5611
000002b0: f613 8491 28d3 290e 9c64 9d8f a21a 2a18
000002c0: 742d 8211 deb6 9612 96f4 c50e c2ec 7995
000002d0: 7e2d 1518 e481 320f 90d4 5810 563d 4692
000002e0: a7b0 5410 53f6 7d0f a238 030f 24bd 8d17
000002f0: daee 2f90 27a8 3011 7ac1 5f93 e32e 3b14
00000300: b6dc 870e e27e ce13 f298 5b8b 117a be15
00000310: 5abd 1592 10c9 148e 9e0e ac10 4b55 6a90
00000320: 9a16 c80e 6982 c317 f03c 808c 53a3 3211
00000330: 7f08 9c94 e1cc 9912 bd9c 3990 65b6 2b93
00000340: df46 9291 e076 fb90 e6f1 968e 8229 b196
00000350: 6599 c313 5a60 1b93 60a3 f190 1c82 7796
00000360: b57f 8712 dbf7 471a f2f5 048f 89e8 7b0f
00000370: e216 4910 34e2 2a95 0b11 9110 7e02 460f
00000380: a574 5516 274e fb91 48ea 850d 6670 8014
00000390: 9a8a 818e 79e3 9897 4fb7 d70e 5664 eb8e
000003a0: 41c5 9c92 a32f 6a14 8bcd 5c95 a4ec 4898
000003b0: e5b8 9d0e b31f 228f 7ee3 bc0c e653 2390
000003c0: ef2a 050f 3bfe 4e18 2a2c a38f 70c2 7c91
000003d0: ea8b 8d15 8a56 e590 6ec9 f80c 0ef5 2b97
000003e0: 8498 9f8f a29d 980e 1aa2 a297 8e66 c70d
000003f0: 914a 4c17 71d7 a993 f4de c895 6ab9 5312
9.233859e-30 3.4400782e-26 3.723598e-26 5.1775425e-29 -1.5352558e-31 1.03396596e-29 3.9638978e-27 2.0336911e-29
-2.124668e-27 -9.614579e-28 2.4495122e-25 -3.2787648e-28 3.258468e-30 -4.7796414e-26 9.289546e-25 -4.6032705e-30
-3.719511e-26 -2.146393e-27 -3.2478027e-27 -2.8033272e-27 -1.3953425e-28 7.4268806e-29 -4.5778872e-24 3.0181318e-30
3.9651958e-28 2.6780297e-30 4.4092063e-30 3.6615672e-26 2.0955344e-30 -8.668779e-29 -1.7195226e-28 -4.3019674e-30
-2.1479906e-27 7.2350107e-31 -5.5823773e-28 -3.7458585e-29 4.9988866e-30 -2.3415963e-29 -9.6927465e-30 -1.5699165e-30
-2.1111418e-27 3.4431297e-29 4.223273e-29 2.2368474e-25 -4.640936e-31 8.434314e-30 -3.7786652e-25 4.943526e-30
6.51976e-31 1.1817254e-31 2.3314085e-29 4.59349e-23 -2.6755775e-30 1.3887655e-29 -2.458205e-24 -5.537539e-29
-1.665644e-28 1.2273425e-29 -1.6479376e-30 1.5954279e-29 5.466658e-26 9.269844e-30 6.788508e-31 6.0733965e-28
1.9848306e-29 7.566016e-24 -7.612292e-29 -5.555616e-29 9.462933e-30 -2.8764125e-29 1.3448054e-29 1.0628645e-28
2.5472188e-27 -6.7019395e-29 6.187933e-25 2.5296492e-30 -2.6595908e-28 1.5238255e-24 3.8823216e-30 6.506751e-29
-1.941634e-27 4.869233e-31 2.3201514e-27 -9.864399e-25 -4.0625345e-28 -9.565261e-32 1.3289737e-27 -2.0121316e-29
-5.283646e-28 3.1182967e-27 -7.2785744e-29 1.7348613e-29 1.8910825e-26 -7.7948265e-29 6.2999617e-30 3.6397253e-29
3.2018157e-26 -2.6569439e-24 -4.0505382e-29 2.6367762e-28 -3.1522608e-30 -1.8931172e-29 -5.415334e-24 -1.185843e-28
-1.5670838e-29 -6.894109e-31 -2.7077416e-29 -5.284652e-24 -5.634711e-29 -1.6477749e-30 -9.8071776e-32 -5.801881e-29
-7.5451064e-28 1.2581252e-29 -1.14570104e-29 1.9062834e-29 -2.9553545e-29 2.0867745e-28 2.6174047e-29 -2.3658229e-30
-9.2894667e-29 -2.2584333e-27 -2.8605907e-28 5.000283e-31 -1.0296971e-24 -1.5282495e-29 1.0907932e-25 -5.712005e-29
-7.8679715e-29 -1.7595794e-25 2.1560062e-26 4.0136765e-28 9.749104e-30 -1.5518214e-30 -2.7222502e-26 -2.3536594e-30
-9.252515e-28 -1.1152283e-28 -2.7699216e-23 -9.756685e-30 1.2928901e-27 -9.1636785e-30 9.383795e-29 1.9589173e-27
9.6658526e-27 -1.8061687e-31 -1.4780742e-29 -1.6170544e-29 4.5796077e-23 1.0101075e-29 3.9253045e-28 -2.2634723e-24
1.4303442e-28 3.0584343e-28 -2.7403194e-25 3.7117648e-25 -1.8362501e-28 -3.1979028e-31 -3.2056074e-27 1.573945e-29
2.4050667e-30 -1.4590127e-28 9.9581887e-29 4.1066916e-30 5.0791597e-28 -5.2374594e-29 1.6922591e-29 -3.3563675e-29
1.3316776e-27 2.778722e-25 6.121436e-30 1.6923453e-28 -2.083823e-28 2.0932526e-30 -1.5520149e-29 2.1985431e-24
2.0538396e-28 9.511411e-28 4.8799777e-30 -5.047192e-26 1.9280766e-24 8.8010936e-30 4.276224e-29 -6.2553386e-28
4.1945716e-29 1.25213034e-29 6.469706e-30 9.159657e-25 -3.469667e-29 1.3935768e-28 -2.8241948e-27 9.450334e-27
3.3492606e-30 5.2126827e-27 -4.229293e-32 7.6932976e-26 -4.7249504e-28 -1.8339217e-30 6.786456e-29 -4.621407e-29
4.932557e-30 1.26345e-24 -1.9758198e-31 1.4092052e-28 -1.5755326e-26 9.706164e-28 -3.6605564e-29 -2.1673162e-27
-2.3078416e-28 -9.91852e-29 -3.7210795e-30 -2.8622087e-25 4.937618e-27 -1.9611255e-27 -9.530946e-29 -1.9993556e-25
8.55118e-28 4.135245e-23 -6.55547e-30 1.242004e-29 3.965789e-29 -3.450967e-26 5.7218674e-29 9.762634e-30
1.724281e-25 -3.9648983e-28 8.253159e-31 1.296903e-26 -3.1934424e-30 -9.880192e-25 5.317811e-30 -5.8028593e-30
-9.893611e-28 1.18233756e-26 -4.459079e-26 -2.5968867e-24 3.8881535e-30 -7.993322e-30 2.9102903e-31 -3.2210715e-29
6.565675e-30 2.675323e-24 -1.6090052e-29 -1.993921e-28 5.717019e-26 -9.045791e-29 3.8331681e-31 -5.5562382e-25
-1.5737357e-29 3.7622688e-30 -1.0509925e-24 1.2289011e-30 6.601007e-25 -4.287404e-27 -8.1131115e-26 6.68084e-28

embedding.embeddings.ken_20230614_denoised.poses.bias f4 [64]
00000000: 86c5 d48f 6eb0 d291 d328 d392 9bfe 878e
00000010: 18bb a397 0878 af8e 7c8d 1391 dadf a917
00000020: 6eae 088f ed24 4e98 fcfd 5d91 6339 b210
00000030: 9d0b 3618 8231 7e8f d448 1193 7a6b af0e
00000040: da2a 9f90 371b 3410 2908 a28f 888b bb91
00000050: 56fd ac15 0b2e bb8e 8ccb 4e8f c57e ae8f
00000060: 8d76 198e e81a b290 1c4b 2b0d f16e c80f
00000070: 62ec 2490 73c4 4c91 9e20 0315 d52b 9b0f
00000080: cdd4 1190 9d9e b215 dc7c e28e 6062 4512
00000090: dda9 d412 00fa 7a0d d504 0411 4be1 0b16
000000a0: 4e61 e20e dbe4 f08f 00f8 7b91 6f01 4611
000000b0: 320e c70e 922d e911 61b7 0a94 a8a6 3812
000000c0: 0a97 f810 9bc3 1813 b207 8592 38cb 9212
000000d0: 12bb 5f8f 7ee9 1090 ca24 068f 5c55 4910
000000e0: e463 5710 e89a 3790 a2c5 f58f 6953 2810
000000f0: 691f 900f 31f8 8c90 f586 320e 5337 4d90
-2.0980897e-29 -3.3240891e-28 -1.3326036e-27 -3.3525246e-30 -1.0580857e-24 -4.3256417e-30 -1.1639854e-28 1.0977877e-24
-6.738912e-30 -2.6643519e-24 -1.7512091e-28 7.029704e-29 2.3528812e-24 -1.2532702e-29 -1.833748e-27 4.3244327e-30
-6.2780465e-29 3.5519706e-29 -1.5977577e-29 -2.958939e-28 6.986994e-26 -4.6143397e-30 -1.0195786e-29 -1.7206555e-29
-1.8915786e-30 -7.0250076e-29 5.2783853e-31 1.9764256e-29 -3.25254e-29 -1.6153298e-28 2.648097e-26 1.5301064e-29
-2.8760144e-29 7.2143875e-26 -5.5833537e-30 6.2283496e-28 1.34209555e-27 7.7338124e-31 1.0414453e-28 1.129942e-25
5.5807002e-30 -2.3753979e-29 -1.987683e-28 1.5619888e-28 4.9070957e-30 3.6789003e-28 -7.003385e-27 5.826558e-28
9.8051465e-29 1.9281538e-27 -8.395377e-28 9.263993e-28 -1.1030777e-29 -2.8578868e-29 -6.6137954e-30 3.970602e-29
4.2478227e-29 -3.6209722e-29 -2.423499e-29 3.3196415e-29 1.4211595e-29 -5.560266e-29 2.2005173e-30 -4.0471742e-29

embedding.embeddings.ken_20230618_denoised.poses.weight f4 [64, 63]
00000000: a7b1 5085 44cd 840e c69a 9687 b099 820c
00000010: a9c3 6c08 48a8 7589 8d2a 3e0b e567 a209
00000020: bdd1 1508 07bd 0808 8a5f 3b8a 9960 a406
00000030: f92a 2785 c420 100a 0f5a 7489 c71a 4807
00000040: f77b 120b ea37 cb84 8296 0a07 f62a 4b0d
00000050: defe f28d 23fc f80b 53aa 550d 6b13 428c
00000060: b22a 4986 b2a4 130d 5bbf fd86 83d9 6d87
00000070: c140 898e 531c 9008 0077 9987 f476 398a
00000080: 2a68 0108 4d5e 098c 26be 6c86 599c 9308
00000090: da05 868e 615f 6511 a80e 2385 c5c5 0209
000000a0: fcc5 818c 38e8 e389 0b3a 8a89 818e fb8c
000000b0: 09ae 9490 e480 4505 435b 8106 022b 7c06
000000c0: 29dd 920d 5019 7c86 1a78 6f0f 93b4 8b87
000000d0: ac27 8c91 abee 9707 18b8 9307 6eb4 280f
000000e0: f719 d691 eff5 b708 c3fd a70d 4a3a fa06
000000f0: b2aa d10b ec6d b587 22bb 8686 e36b 028b
00000100: 6554 6f09 3124 9087 89e7 9b8d 6b6b 3f89
00000110: 35e9 050d 1220 1389 e023 dd0b e09b 4205
00000120: bdd4 a305 e762 048a 5f05 f088 1a93 6f08
00000130: 946e c109 824a 0f0f 4ec0 8408 f69b 0b09
00000140: 5812 0b0f ebe4 f90e b826 818c 6a3c 2689
00000150: 49fb b608 228d 6787 b5f0 1e8a f3fc 3b09
00000160: 1ae1 8e91 6e4a 1306 c666 df86 129b b107
00000170: 3488 768d ba40 ec0e 3dcc 018e 5a5d 860e
00000180: 921c b889 84de e50e 41bc 2c0a b529 848e
00000190: 427d 1509 d408 c888 f288 b88a 5e35 1387
000001a0: d681 118a 54bb 1308 f4b5 e48f 3c40 4c90
000001b0: 9d35 4b87 dadc a686 b220 ba87 0b75 4a90
000001c0: cb60 af07 db8d 5a07 afb8 fc09 400f 5907
000001d0: a24e 4589 efd3 680b f62c 3708 01ce 8a87
000001e0: 0ae3 1387 a828 070e a8cf 9b0e 736e 0e88
000001f0: a4ad 0a07 3e63 ab0a 63ce 6b08 9816 898f
00000200: d84b 2f09 8aa1 7c88 189f c584 46a4 fa0a
00000210: 7c09 ef07 c858 678b 4a22 b386 183d 1007
00000220: 1637 290e 3cd4 1b0c f9e2 2e0e b65f bc08
00000230: 38f5 6689 d21d 8a07 2475 9a0b b04a ab8e
00000240: c643 de89 e4f3 5b87 5176 8209 6136 5387
00000250: 8d56 2f8f 60b3 1586 0ad9 4286 0dbf cd11
00000260: 1f5e ab0a b17c f310 ce74 4210 f035 fc86
00000270: 031d 3c8c 99ba b290 26d8 7f09 37a2 5787
00000280: 02b5 fa89 117c 1188 be16 ca86 4293 bd8a
00000290: da4f 3b0e 896d 8987 fdd6 0488 cf1a 9a06
000002a0: 4b35 7c0a b89a 1208 b416 3e8d 1940 c28d
000002b0: d154 4f88 0c40 d48e c045 6e08 cbf6 9d8c
000002c0: bbd2 ee08 4536 fd8f b0da cd05 fa4e 8107
000002d0: 4297 b907 f781 c80c 724b 3090 60a9 e00f
000002e0: b580 0788 9c77 4589 2847 0b08 e037 6785
000002f0: 64b1 700a fc81 2d86 fdca 3406 7649 328b
00000300: 6157 058c 9f11 e288 4d2b 170a f016 7405
00000310: 58ec a606 b550 6910 e275 8906 2d28 0009
00000320: ade8 3907 e5bc a908 3e1c 5e87 5e4b a38b
00000330: eedf 2206 ac64 4585 1a2a 5387 f089 ba06
00000340: 22d8 f508 a1cb 8987 05a2 ca87 1b3d c908
00000350: 62ee f106 2870 6d88 bba2 7985 681d 8b05
00000360: e344 d691 1490 1b86 9331 560e 7b5e 8a87
00000370: 781b 5888 bd75 4006 a443 2107 3af0 e087
00000380: b852 0308 f09a a085 543a 6188 8e5b 050e
00000390: 4a09 a307 9ab6 b908 d45c 688a d841 bb88
000003a0: ff11 070d 09fe 9f09 4e14 1911 9586 6307
000003b0: 3a2d 0207 6579 9f0d 2f93 a508 a317 6590
000003c0: 995b b187 de0c 6d10 f91d d90d c122 2e89
000003d0: f65f c605 9a1d b107 e819 5706 b533 148b
000003e0: f6bf ac88 4fb8 8b8d f9b8 440b af2e db0b
000003f0: 7337 9f8d fc1f a00d 5cd5 150a 3764 d189
-9.8127426e-36 3.2738176e-30 -2.266046e-34 2.0122169e-31 7.1248664e-34 -2.9569928e-33 3.662468e-32 3.9097783e-33
4.5084603e-34 4.114821e-34 -9.0216914e-33 6.183188e-35 -7.860195e-36 6.93951e-33 -2.9412777e-33 1.5054197e-34
2.8211838e-32 -4.777642e-36 1.0426196e-34 6.2605917e-31 -1.4975759e-30 9.59055e-32 6.5840713e-31 -1.495106e-31
-3.7835266e-35 4.5496117e-31 -9.5449194e-35 -1.7893819e-34 -3.3835463e-30 8.673344e-34 -2.3090823e-34 -8.9297986e-33
3.894197e-34 -1.0582474e-31 -4.4526366e-35 8.883998e-34 -3.3039185e-30 1.8094306e-28 -7.666915e-36 1.5741172e-33
-1.9994755e-31 -5.486664e-33 -3.3276875e-33 -3.875844e-31 -5.864385e-29 9.286569e-36 4.8658504e-35 4.742753e-35
9.051187e-31 -4.741453e-35 1.18067405e-29 -2.1020527e-34 -2.2112555e-28 2.2860231e-34 2.2226302e-34 8.317789e-30
-3.377925e-28 1.1071731e-33 1.0353261e-30 9.4125196e-35 8.0760705e-32 -2.729846e-34 -5.0680165e-35 -2.5118254e-32
2.880826e-33 -2.1687983e-34 -9.608353e-31 -2.3041296e-33 4.12645e-31 -1.770956e-33 8.518008e-32 9.150466e-36
1.5406594e-35 -6.37417e-33 -1.4445737e-33 7.2094363e-34 4.6567047e-33 7.064794e-30 7.989672e-34 1.6804849e-33
6.856762e-30 6.160368e-30 -1.98989e-31 -2.000993e-33 1.1012803e-33 -1.7419984e-34 -7.652695e-33 2.2628242e-33
-2.254238e-28 2.770231e-35 -8.403429e-35 2.6723142e-34 -7.596855e-31 5.824082e-30 -1.5998815e-30 3.3123445e-30
-4.4323256e-33 5.6667133e-30 8.3169054e-33 -3.2580675e-30 1.7994119e-33 -1.2039138e-33 -1.7770069e-32 -1.1074734e-34
-7.0059155e-33 4.4456407e-34 -2.2552622e-29 -4.028139e-29 -1.5287778e-34 -6.276677e-35 -2.8005386e-34 -3.9927642e-29
2.6387963e-34 1.6442185e-34 6.084047e-33 1.6329747e-34 -2.3749985e-33 4.4841016e-32 5.512241e-34 -2.088501e-34
-1.1125772e-34 1.665961e-30 3.8410416e-30 -4.2861403e-34 1.0432994e-34 1.6504032e-32 7.0960347e-34 -1.3517946e-29
2.110052e-33 -7.602338e-34 -4.6460582e-36 2.4135917e-32 3.5966298e-34 -4.4555773e-32 -6.73827e-35 1.085131e-34
2.0857381e-30 1.2004633e-31 2.155644e-30 1.133734e-33 -2.7800544e-33 2.078146e-34 5.9494896e-32 -4.2226676e-30
-5.350829e-33 -1.6547402e-34 3.1407626e-33 -1.5889856e-34 -8.644835e-30 -2.815557e-35 -3.66468e-35 3.2461041e-28
1.6502105e-32 9.603872e-29 3.8349737e-29 -9.487112e-35 -1.4491724e-31 -7.049612e-29 3.0796141e-33 -1.6222473e-34
-6.035553e-33 -4.378019e-34 -7.601737e-35 -1.825543e-32 2.3087977e-30 -2.0677848e-34 -3.9975023e-34 5.7967753e-35
1.2143382e-32 4.411715e-34 -5.85756e-31 -1.1971604e-30 -6.23915e-34 -5.232371e-30 7.170251e-34 -2.4338213e-31
1.4373646e-33 -2.496863e-29 1.935844e-35 1.945618e-34 2.7924608e-34 3.08931e-31 -3.4768e-29 2.2153346e-29
-4.077638e-34 -2.3769252e-33 4.1912435e-34 -1.08718304e-35 1.1588943e-32 -3.263318e-35 3.400337e-35 -3.433682e-32
-1.0272242e-31 -1.3606023e-33 7.2785295e-33 1.1477038e-35 6.2789536e-35 4.6013322e-29 5.1706886e-35 1.542633e-33
1.398623e-34 1.0215726e-33 -1.6709723e-34 -6.2898716e-32 3.063333e-35 -9.281386e-36 -1.5886248e-34 7.0168105e-35
1.4796214e-33 -2.0733151e-34 -3.0488808e-34 1.2111613e-33 9.1004396e-35 -7.145143e-34 -1.17378126e-35 1.30823e-35
-3.3805701e-28 -2.9258112e-35 2.6401406e-30 -2.0819463e-34 -6.5032425e-34 3.6197687e-35 1.2132172e-34 -3.3844967e-34
3.9518614e-34 -1.5103243e-35 -6.777704e-34 1.6437598e-30 2.4530974e-34 1.1177212e-33 -1.1187853e-32 -1.1270133e-33
4.162175e-31 3.851675e-33 1.2075829e-28 1.7117132e-34 9.793404e-35 9.828356e-31 9.965179e-34 -4.5180496e-29
-2.6685836e-34 4.674992e-29 1.3380873e-30 -2.096083e-33 1.8655081e-35 2.6649398e-34 4.045604e-35 -2.8542663e-32
-1.0397003e-33 -8.610907e-31 3.7887385e-32 8.4425973e-32 -9.8124805e-31 9.868461e-31 7.2142175e-33 -5.040916e-33

embedding.embeddings.ken_20230618_denoised.poses.bias f4 [64]
00000000: 68e0 1d06 9445 9e06 916b 2109 4d67 f186
00000010: 7c5c 3588 594a d491 8e25 2487 6ec7 6b06
00000020: 32ce 1c07 b430 970f ae31 3787 935b 8c8a
00000030: ceb6 5a8e f54d e487 6a9a 8a0e 94ae 5c87
00000040: 4652 0108 d29d 1507 7890 7411 ece3 1c0a
00000050: 8c04 bf86 6a09 0906 3882 0408 90b4 6b85
00000060: 80db fe82 3515 ed87 c821 1990 7424 e009
00000070: ab44 958d 0b2c c586 b6d6 8687 dce7 818b
00000080: a84d 4d0d 5016 570a e13f 6191 aae1 9b89
00000090: 0cfe f58d e4e3 9007 dc4a 4406 44b6 7590
000000a0: 226d 070e 700b 9c89 6893 ed87 14e9 5c0b
000000b0: 84ac f908 de72 6889 b8ad 6606 e071 3588
000000c0: 78d2 d88a 9f64 cd8c d5d3 6f8b 9a8f 058c
000000d0: 2e26 258c d8e0 968f d45e a588 98eb eb06
000000e0: 4ebe fd88 e49e ac88 5739 7606 3ea6 a708
000000f0: e6bf 098d bc7e 7810 fa1b 0d07 d708 910d
2.9693286e-35 5.953523e-35 1.9430248e-33 -9.080591e-35 -5.457642e-34 -3.3493523e-28 -1.2349025e-34 4.4345105e-35
1.1796731e-34 1.490851e-29 -1.3781989e-34 -1.3515956e-32 -2.6958592e-30 -3.4351446e-34 3.416832e-30 -1.6602264e-34
3.8916237e-34 1.1255893e-34 1.9292724e-28 7.553994e-33 -7.1852896e-35 2.5773753e-35 3.9875377e-34 -1.1082811e-35
-3.7447932e-37 -3.567226e-34 -3.0199954e-29 5.396032e-33 -9.199365e-31 -7.416788e-35 -2.0288275e-34 -5.0037856e-32
6.3263977e-31 1.035607e-32 -1.7769055e-28 -3.7527106e-33 -1.516045e-30 2.1800654e-34 3.69185e-35 -4.8458143e-29
1.669258e-30 -3.756639e-33 -3.5746434e-34 4.2545807e-32 1.5026701e-33 -2.7979994e-33 4.338582e-35 -5.4601566e-34
-2.0879213e-32 -3.164581e-31 -4.618909e-32 -1.0289161e-31 -1.2722627e-31 -1.4877749e-29 -9.95287e-34 8.874335e-35
-1.5271624e-33 -1.0389228e-33 4.6309584e-35 1.009003e-33 -4.2447374e-31 4.900701e-29 1.0615883e-34 8.938443e-31

core.core.fc.0.0.weight f4 [128, 64]
00000000: 3005 0e82 e654 a201 909a db81 c99d 1002
00000010: 458f 0182 e0c7 fe81 bd1b 1002 26b7 3182
00000020: 6411 1482 8087 1302 a842 a081 a43b cd81
00000030: 9fa6 a081 54b6 c201 3884 f881 8fe1 2a02
00000040: 3c0c 8081 8a4c e181 7940 1582 5cb8 1702
00000050: 8d7f 0302 c618 1102 050e 8001 22c3 ee81
00000060: 6fe0 0702 de5b e181 5bbf 9a81 ee74 1e02
00000070: bf72 fc01 916c 0582 869b 1082 dd1f 1c82
00000080: 3a14 1702 4d17 1182 bb43 c101 ffb3 0e02
00000090: 631a 1182 7625 3702 b11c 1182 f2e8 0f02
000000a0: e0cf c581 56c5 0e02 683d a101 64e8 0e82
000000b0: 547b 0f02 2079 fb81 5d60 1c02 fd96 d881
000000c0: b059 a381 1618 1182 351d 1182 3cd3 5482
000000d0: 988a 2a02 cef2 f501 022b 1602 64ed fb81
000000e0: 0274 df01 ccb7 af81 6234 9581 7c7c c601
000000f0: 5078 f081 4af3 0082 6cb7 0802 b462 2982
00000100: 60e2 0382 9c85 1382 ba3a f301 b351 0e02
00000110: 4557 4582 31eb 2582 2218 1182 201f 2002
00000120: e611 0102 5172 0182 2212 0e02 3056 1702
00000130: b373 d881 3e64 1c02 2b49 b681 f8ce 0a82
00000140: 069f 0a02 165e 1e02 5414 a301 17fe c381
00000150: f828 d481 ae0b 1302 870a 1002 9070 e001
00000160: 783f 0382 0a0a a181 506a e001 f7de 2d02
00000170: 51e2 2802 81e5 0182 0518 0102 7c55 2202
00000180: d1c6 e181 d83b 1b02 823c eb81 be70 1582
00000190: bd69 e181 1de2 1182 61cd 0482 a307 a081
000001a0: 5c0f 1302 4d7f 1882 3b4c a401 e13e 2282
000001b0: 3c85 0c82 b156 0902 5d19 1182 5cd1 0b82
000001c0: f8e4 1202 2083 1c02 757d 1002 a6ae 1c02
000001d0: 771e 1182 7bb2 2202 e05a 8081 70a1 1002
000001e0: f4cb e381 d25c a181 00dc 0682 1c99 0382
000001f0: f28d 0c02 36ca 0182 ebd2 ee01 2d11 1102
00000200: 2932 c681 ecd9 1082 4237 3b82 dbdf 2b82
00000210: 2c0a 8081 68e7 e101 ac14 0982 a60e 1182
00000220: 9865 1902 be11 a001 d518 2282 915d e401
00000230: 1360 de01 3ce6 e101 69d2 af01 b3f0 e101
00000240: 5af3 0502 d39c a401 869a 1882 a586 1a02
00000250: bb0a 8001 20d5 f601 8e2c 1102 efdc 0982
00000260: dcbf a381 29f4 1682 230b 0102 ec03 0102
00000270: 704a bb81 6885 0a02 cdd4 1102 a864 2182
00000280: ea40 c201 c3fb 1802 c7a7 0b02 6bf7 0002
00000290: 05d2 ce81 d580 1a02 7408 1902 b892 1d82
000002a0: 1a52 8701 9d59 f201 646a 4502 78f0 0002
000002b0: 84aa a081 a351 1c02 20d5 1d02 9ab6 cf01
000002c0: 7c98 0a02 f1d2 e101 11ec e181 1403 0882
000002d0: 4192 1682 7f0f 8081 b66e e181 de40 1102
000002e0: be66 0f02 624f 8601 b63c d901 9238 1482
000002f0: f1e5 0b82 44da 0f02 9dbe 1f82 f1e5 1882
00000300: e040 0e02 f046 c181 e769 0882 ebed 1d02
00000310: f1d1 ab81 2e42 b381 5e8f 1382 88f0 1802
00000320: 9a71 8f01 fa94 0f02 f058 1082 fb3e a101
00000330: a6ba 1c82 a2a0 0f82 1836 f981 51e1 ff01
00000340: 281f 1182 42e1 2b02 203f f781 e22a a001
00000350: 2e3a 1b82 ec1a 1082 3b16 1102 0a9f fb81
00000360: 921b 1402 eca8 1382 840d 8081 7902 b781
00000370: fb28 4902 418d 1082 8a41 1002 cbf9 0082
00000380: a073 0d02 2db4 3902 fca9 ae81 1461 1482
00000390: ac4f 0c02 2e4f 1582 8909 0882 ce28 1002
000003a0: 04e3 0c02 ab81 1002 75a7 0d82 1570 1202
000003b0: 9a63 a081 3501 eb01 c117 1102 4e9a 0c02
000003c0: e60b a081 6677 1f82 ce0f 1802 f866 1002
000003d0: d78a 0a82 098f 1282 8403 1d82 b6ee 0502
000003e0: 1be5 0282 1f13 c381 bd0f 0e02 9e10 c981
000003f0: 05b1 2702 8ae8 1b82 cd2d 1e82 4c80 1782
-1.0434001e-37 5.9631225e-38 -8.066968e-38 1.0624731e-37 -9.51854e-38 -9.359167e-38 1.058741e-37 -1.3056467e-37
-1.0878314e-37 1.0838741e-37 -5.8870365e-38 -7.5390687e-38 -5.9013807e-38 7.1525973e-38 -9.1290537e-38 1.255436e-37
-4.703733e-38 -8.2761775e-38 -1.0965294e-37 1.1146636e-37 9.660965e-38 1.0660027e-37 4.703989e-38 -8.7707394e-38
9.982643e-38 -8.278377e-38 -5.684525e-38 1.1641564e-37 9.273483e-38 -9.802454e-38 -1.0624082e-37 -1.1470214e-37
1.1099533e-37 -1.0659605e-37 7.099419e-38 1.0484169e-37 -1.066049e-37 1.3455467e-37 -1.0661152e-37 1.0572833e-37
-7.2664657e-38 1.0489145e-37 5.9230173e-38 -1.0499205e-37 1.0541374e-37 -9.2376644e-38 1.1488725e-37 -7.9562526e-38
-6.000544e-38 -1.065983e-37 -1.06613e-37 -1.5635921e-37 1.2529402e-37 9.0347194e-38 1.1032602e-37 -9.2543477e-38
8.2083726e-38 -6.4548583e-38 -5.480912e-38 7.291234e-38 -8.8334716e-38 -9.473775e-38 1.0044341e-37 -1.2444485e-37
-9.689326e-38 -1.0838198e-37 8.934837e-38 1.0455959e-37 -1.4498319e-37 -1.2189782e-37 -1.0659843e-37 1.1763876e-37
9.48256e-38 -9.51023e-38 1.0437716e-37 1.1118463e-37 -7.951189e-38 1.1489838e-37 -6.696123e-38 -1.0198036e-37
1.0184276e-37 1.1635008e-37 5.9905913e-38 -7.199629e-38 -7.793529e-38 1.0803206e-37 1.058247e-37 8.2446124e-38
-9.642575e-38 -5.9156465e-38 8.2437156e-38 1.277402e-37 1.240764e-37 -9.543288e-38 9.484316e-38 1.1926413e-37
-8.2937234e-38 1.1404776e-37 -8.641219e-38 -1.0979147e-37 -8.2803674e-38 -1.0717809e-37 -9.756769e-38 -5.8785676e-38
1.0804262e-37 -1.120373e-37 6.035347e-38 -1.1919926e-37 -1.0323812e-37 1.009005e-37 -1.0660196e-37 -1.027219e-37
1.0792097e-37 1.1498701e-37 1.0615454e-37 1.1511192e-37 -1.066166e-37 1.1953102e-37 -4.7150173e-38 1.062578e-37
-8.367929e-38 -5.927525e-38 -9.907902e-38 -9.6683e-38 1.0326312e-37 -9.535455e-38 8.7730045e-38 1.0657847e-37
-7.280569e-38 -1.064199e-37 -1.3754448e-37 -1.2627339e-37 -4.703437e-38 8.2984e-38 -1.0071103e-37 -1.0657121e-37
1.1269821e-37 5.8800176e-38 -1.1909007e-37 8.3888234e-38 8.168778e-38 8.2982317e-38 6.458677e-38 8.2997333e-38
9.841135e-38 6.046912e-38 -1.1211542e-37 1.1352774e-37 4.703517e-38 9.067195e-38 1.0665704e-37 -1.0128575e-37
-6.015205e-38 -1.109033e-37 9.480619e-38 9.478549e-38 -6.8799764e-38 1.0176924e-37 1.0713988e-37 -1.1857299e-37
7.135749e-38 1.1239448e-37 1.0260257e-37 9.47496e-38 -7.597381e-38 1.1351106e-37 1.1243091e-37 -1.1576645e-37
4.970898e-38 8.902535e-38 1.4503807e-37 9.472966e-38 -5.9019395e-38 1.1484499e-37 1.1595702e-37 7.630181e-38
1.01824e-37 8.295463e-38 -8.2990685e-38 -9.992585e-38 -1.1062232e-37 -4.704201e-38 -8.281081e-38 1.0671534e-37
1.0535466e-37 4.9337735e-38 7.9800327e-38 -1.0889558e-37 -1.0278097e-37 1.056862e-37 -1.1736178e-37 -1.1233186e-37
1.0451131e-37 -7.0998793e-38 -1.0022094e-37 1.1602817e-37 -6.311673e-38 -6.584918e-38 -1.0840999e-37 1.1236225e-37
5.2692914e-38 1.0548735e-37 -1.0604973e-37 5.923243e-38 -1.1514635e-37 -1.055208e-37 -9.1545775e-38 9.399552e-38
-1.0661859e-37 1.2627742e-37 -9.082405e-38 5.883625e-38 -1.1404298e-37 -1.0587175e-37 1.0659297e-37 -9.243105e-38
1.0881235e-37 -1.0848333e-37 -4.703917e-38 -6.722713e-38 1.4778909e-37 -1.0619987e-37 1.0598258e-37 -9.475642e-38
1.0392227e-37 1.3643361e-37 -6.416142e-38 -1.0901183e-37 1.030844e-37 -1.0969515e-37 -9.994438e-38 1.059116e-37
1.0350726e-37 1.0616662e-37 -1.0407102e-37 1.0758552e-37 -5.891764e-38 8.63271e-38 1.0659735e-37 1.0329859e-37
-5.879179e-38 -1.1715741e-37 1.1171732e-37 1.0609e-37 -1.0178484e-37 -1.0767435e-37 -1.1535547e-37 9.839803e-38
-9.616642e-38 -7.1659124e-38 1.0437029e-37 -7.3859583e-38 1.2320024e-37 -1.1454337e-37 -1.1621151e-37 -1.1130547e-37

core.core.fc.0.0.bias f4 [128]
00000000: a10c f901 8625 1982 27fa 0082 2471 e901
00000010: 4a16 0182 a14d 1002 f3ea e181 4fd3 2302
00000020: 633a f981 945d a081 d8cc 1a82 48b7 c481
00000030: e424 1b02 d1cd cc01 8a56 fb01 58fe 1f02
00000040: bd0a 0182 8097 1f82 d5ff 0082 b328 1102
00000050: 897e ec81 e649 1102 20e7 b001 646c 0382
00000060: 3bd8 0902 558a ef01 1968 2d82 9c52 0282
00000070: f687 1f82 f664 d081 0ef4 e181 448f 1402
00000080: c5a6 1602 0876 1082 32bf 0b02 05df cc01
00000090: 93a4 1d02 ea3d e901 31e9 4102 8cba e901
000000a0: df7a f801 5aed 0102 be16 1102 5e03 0102
000000b0: 5500 0102 5f1e 0202 12b7 a681 a27e 1302
000000c0: 251e 1182 fe0a c081 e593 0282 b3c8 1802
000000d0: fa31 3c82 3b97 3c82 a248 c381 7448 c181
000000e0: 58b5 1602 3a0e 1182 7bb5 e181 7278 aa81
000000f0: cbd8 0f82 554c ec01 d1ee 1d82 a065 0f82
00000100: d78b 4702 9322 1102 2a4d ed01 8a18 0e82
00000110: a681 c101 cc35 c981 a5fb 4702 706e 0a82
00000120: c2d4 e181 afc4 e181 2e45 0382 ec0c a081
00000130: 8304 0102 27ae 0882 0a3d 1082 91d3 dd01
00000140: cecf 1082 8210 8001 22eb db81 9112 1182
00000150: 5fff 1f82 b19f e081 0464 1002 62a6 e181
00000160: 64aa 2982 7e26 ab81 28a5 1402 011c 1182
00000170: d468 2e02 b8b8 c381 9cf0 2182 d2e8 1602
00000180: 7588 0802 d014 f481 f436 0c82 1bd4 0982
00000190: b03b 0d02 7c12 1402 80d7 0802 24e6 1382
000001a0: d7ce e101 8aeb 0102 34ea 4d02 c5d2 0302
000001b0: a5db 1a82 1ee6 b581 1d54 0a82 872c 1402
000001c0: 8a81 b401 240e 1102 26b2 d901 51c9 0802
000001d0: f32a ed81 d053 0782 ea0a 1982 8439 1a02
000001e0: 6210 a081 c7b2 1202 c24e aa01 50a3 0982
000001f0: 482c fc01 af89 0082 3cc9 2082 f8ca 1402
9.1486276e-38 -1.1251433e-37 -9.475745e-38 8.575303e-38 -9.48382e-38 1.0601728e-37 -8.298908e-38 1.2035991e-37
-9.1551935e-38 -5.8908996e-38 -1.137292e-37 -7.2262025e-38 1.1398189e-37 7.5233097e-38 9.2327016e-38 1.1754468e-37
-9.480505e-38 -1.1724953e-37 -9.477375e-38 1.0664598e-37 -8.687428e-38 1.0674125e-37 6.498384e-38 -9.655467e-38
1.0127225e-37 8.799323e-38 -1.2739907e-37 -9.574599e-38 -1.1720494e-37 -7.6552005e-38 -8.300215e-38 1.0914438e-37
1.106812e-37 -1.0613322e-37 1.0266978e-37 7.525778e-38 1.1581769e-37 8.5679525e-38 1.4246323e-37 8.5858364e-38
9.1277124e-38 9.54554e-38 1.0659444e-37 9.47839e-38 9.477518e-38 9.559608e-38 -6.124146e-38 1.0836196e-37
-1.0661569e-37 -7.0545434e-38 -9.593335e-38 1.1224794e-37 -1.3826401e-37 -1.385546e-37 -7.173591e-38 -7.100097e-38
1.1072303e-37 -1.0657e-37 -8.291236e-38 -6.262097e-38 -1.0568197e-37 8.680224e-38 -1.1603075e-37 -1.0535146e-37
1.4660343e-37 1.066284e-37 8.7170775e-38 -1.0439555e-37 7.108304e-38 -7.3912934e-38 1.4692429e-37 -1.0170333e-37
-8.295724e-38 -8.2934174e-38 -9.644214e-38 -5.879326e-38 9.478718e-38 -1.0041681e-37 -1.0596967e-37 8.148616e-38
-1.0639086e-37 4.704346e-38 -8.0785294e-38 -1.0658246e-37 -1.1754763e-37 -8.251375e-38 1.0608152e-37 -8.2890694e-38
-1.2465059e-37 -6.2870713e-38 1.092072e-37 -1.0660954e-37 1.2813585e-37 -7.1896745e-38 -1.1897463e-37 1.1087076e-37
1.0030863e-37 -8.966131e-38 -1.0301346e-37 -1.0126042e-37 1.0376173e-37 1.0878628e-37 1.0053547e-37 -1.0865901e-37
8.2948747e-38 9.54502e-38 1.5128234e-37 9.684848e-38 -1.1377168e-37 -6.68191e-38 -1.0162778e-37 1.0886101e-37
6.6307437e-38 1.0656976e-37 7.996884e-38 1.0049477e-37 -8.712168e-38 -9.942287e-38 -1.1243797e-37 1.1330639e-37
-5.8798226e-38 1.0777693e-37 6.256115e-38 -1.0112039e-37 9.263372e-38 -9.443468e-38 -1.1812695e-37 1.0931572e-37

core.core.fc.1.0.weight f4 [64, 128]
00000000: 7dfa 1682 ef57 1282 9182 2602 378e 0382
00000010: 927c 1002 cd9d 1702 fde5 1202 fc40 f301
00000020: 3efa 1482 af65 1d82 ce1e 1b82 1a1b 2082
00000030: b613 2082 71f2 1f82 2ac6 1982 bd57 1782
00000040: a9b8 1402 ad27 0102 6df8 0082 9d0d 1102
00000050: 1a60 1902 863b 3382 82ca 1182 5a5c 0382
00000060: 02ab 1f82 5e15 1082 bdd9 d681 fc72 e801
00000070: 5caf 0982 c21f 1182 b9b1 0f82 a951 d581
00000080: 1869 0602 3e98 1f01 638d 0882 be7e eb81
00000090: 7470 fc01 e832 f801 5d88 2382 0c4e 1a02
000000a0: eb81 1902 dbe4 0782 ab30 0b02 8bb6 e181
000000b0: 9e08 f401 5703 1502 74d8 1702 a584 0c02
000000c0: 6812 9100 f409 0d82 026e 0e82 4090 0182
000000d0: 5ed6 1082 9503 1b82 76ff 0502 f75a 1302
000000e0: d86a 1202 02ba 1702 1bb8 f301 ff5b 0402
000000f0: 07a1 1082 cfa3 1502 73ac 0d02 1826 0c02
00000100: 5891 2202 6ba6 1702 2b3e 1a02 e9ee 1e82
00000110: eee7 f881 47cc 3782 599b fe01 9cb7 1d02
00000120: e13e 0e82 180e 1782 9653 d381 1448 1f02
00000130: 1e6a 1502 c419 f981 f4c3 0d02 be35 2502
00000140: c724 2d82 1f8c e101 f3a3 e181 aff7 d501
00000150: ac04 1a02 83f8 1482 aaf6 1a02 0859 0b82
00000160: 6ef8 0c02 a9c1 0002 743a 1f02 51d7 1202
00000170: a643 2102 a5fb 0e02 7099 cd01 5d03 0b02
00000180: 9806 0102 5642 1702 3820 e901 70ac 1c02
00000190: 997d c681 bd6e 2782 3948 1882 08e7 1682
000001a0: e816 d501 d6e0 1602 770d 1d02 b8e2 0081
000001b0: 82ba 1602 6a64 1f02 eb87 0d02 ea96 0902
000001c0: ab03 0182 1359 f201 e685 f381 1de6 e801
000001d0: 2ed2 1e02 eb56 1002 27f2 1182 f7c2 1d82
000001e0: 7e3b 1002 5e39 0582 d7be 0882 bc28 2982
000001f0: 97c5 e181 5312 0102 2ecc 1602 2e48 1402
00000200: 8089 0f02 006b fa81 8bb7 1182 7b84 1e02
00000210: 520a 0102 5005 1102 6a2b 1782 90bd 1102
00000220: cca3 1c02 bf59 1282 695c 1082 de9b fe01
00000230: 31d5 d981 a0b3 0802 10e1 2f82 2a5b 0982
00000240: 1fe7 2b82 b293 1082 e3f8 0082 1ac6 1282
00000250: ce18 1182 dcd9 0082 88fa e601 8dde 0382
00000260: 6b09 1282 446e 0d82 0845 0f02 03f7 d701
00000270: 6eec 1282 307c eb01 799c 1682 b8d3 1d82
00000280: 9e21 1982 2749 1082 e594 0182 e688 e181
00000290: ddfd 1882 0ab0 1382 7061 1202 fab0 1d82
000002a0: 2184 f481 70be 1482 e3fd e581 4044 1302
000002b0: ca56 2782 ec81 1082 7771 d381 4009 0202
000002c0: 4939 1d02 7e07 2c82 d856 0a02 741e e701
000002d0: 04d7 1c02 fa08 1b02 62ba ea01 5c28 1302
000002e0: 23c0 1102 051d 1182 3829 1102 9bfe 1282
000002f0: 0260 fa81 fb64 2502 517e e901 a998 1402
00000300: a7d6 df81 52dd 1c02 bfe4 f601 925e 1802
00000310: 32d1 0682 e3a0 0e02 615a 0802 a365 1b82
00000320: 8e76 1b82 5c99 0302 804f 3482 c6ad 0382
00000330: 59ab 0f02 efc2 0102 2255 0e82 4658 e101
00000340: 64c1 1d02 bbc3 1b02 c050 0e02 2860 1f82
00000350: 4fec 1302 3fd2 0d02 a571 1302 34d3 1302
00000360: af7c ec01 f1f6 fb81 7d64 fd81 155b e081
00000370: 3226 1782 7e43 dc81 69dc 1602 9e13 1e02
00000380: 5a0a eb01 32fe 0902 1ce5 0682 d549 1b02
00000390: 648b 0b02 0a3b 1c02 ccd6 0c02 8214 f881
000003a0: fb1b 1302 2067 e181 674d 0e82 c0d0 0f02
000003b0: ccf7 0702 197e 3502 c2ce 0b02 bb9c 1c82
000003c0: 4e09 1602 f103 1002 1bb4 0f82 2259 1d82
000003d0: 924b 0582 976c ce01 5257 f381 6935 0882
000003e0: dc2d 1482 275a 1402 f724 1202 f0c9 0a02
000003f0: 68af 2e82 6db8 1682 a472 2d82 cd2e 1a02
-1.1092146e-37 -1.0751622e-37 1.2233225e-37 -9.665174e-38 1.0615199e-37 1.1139015e-37 1.0792389e-37 8.935735e-38
-1.0945139e-37 -1.156372e-37 -1.1396442e-37 -1.1762721e-37 -1.17606e-37 -1.1751052e-37 -1.1297535e-37 -1.1118908e-37
1.0926318e-37 9.48881e-38 -9.47525e-38 1.0656824e-37 1.1268245e-37 -1.3167925e-37 -1.0711034e-37 -9.650864e-38
-1.1730552e-37 -1.0585581e-37 -7.8923624e-38 8.5388335e-38 -1.0115496e-37 -1.0662032e-37 -1.0556985e-37 -7.836102e-38
9.874926e-38 2.9312916e-38 -1.0032278e-37 -8.650723e-38 9.273154e-38 9.117386e-38 -1.2014483e-37 1.1336531e-37
1.1277949e-37 -9.983912e-38 1.0226074e-37 -8.2913883e-38 8.964381e-38 1.094775e-37 1.1155847e-37 1.0323643e-37
1.332275e-38 -1.03619e-37 -1.0464083e-37 -9.518821e-38 -1.064097e-37 -1.138863e-37 9.84461e-38 1.082596e-37
1.0757049e-37 1.114711e-37 8.952828e-38 9.72423e-38 -1.0625662e-37 1.0993802e-37 1.0408534e-37 1.0296508e-37
1.1943592e-37 1.1141488e-37 1.1331974e-37 -1.1676571e-37 -9.1433615e-38 -1.3503341e-37 9.3527777e-38 1.1587232e-37
-1.0450558e-37 -1.1097773e-37 -7.76291e-38 1.170216e-37 1.0977245e-37 -9.1505126e-38 1.041528e-37 1.2137709e-37
-1.2720587e-37 8.285301e-38 -8.28872e-38 7.859925e-38 1.1315474e-37 -1.0944642e-37 1.1384922e-37 -1.0237658e-37
1.0356871e-37 9.459533e-38 1.169825e-37 1.0788179e-37 1.1847826e-37 1.0504731e-37 7.552528e-38 1.0213072e-37
9.479316e-38 1.1112765e-37 8.5636914e-38 1.1510557e-37 -7.2913937e-38 -1.2301003e-37 -1.1187923e-37 -1.1086562e-37
7.827671e-38 1.1084784e-37 1.1538403e-37 -2.367255e-38 1.1073785e-37 1.1710293e-37 1.039805e-37 1.0108481e-37
-9.478476e-38 8.9024576e-38 -8.9456237e-38 8.5553537e-38 1.1668325e-37 1.0604393e-37 -1.0722412e-37 -1.159049e-37
1.0596523e-37 -9.78776e-38 -1.004647e-37 -1.2427849e-37 -8.2935474e-38 9.482682e-38 1.1078856e-37 1.0894037e-37
1.0545441e-37 -9.1989034e-38 -1.0705592e-37 1.1646027e-37 9.480385e-38 1.0654442e-37 -1.1106187e-37 1.0707319e-37
1.1508077e-37 -1.0752142e-37 -1.060597e-37 9.352852e-38 -8.0019125e-38 1.0043252e-37 -1.2921559e-37 -1.0091333e-37
-1.2629424e-37 -1.0621836e-37 -9.475382e-38 -1.0783238e-37 -1.0660036e-37 -9.466477e-38 8.484815e-38 -9.688229e-38
-1.0729089e-37 -1.0390689e-37 1.0525792e-37 7.933297e-38 -1.0794238e-37 8.6503567e-38 -1.1065165e-37 -1.1595299e-37
-1.1250312e-37 -1.0600443e-37 -9.520154e-38 -8.2848386e-38 -1.1240052e-37 -1.0850375e-37 1.0754349e-37 -1.1585328e-37
-8.982104e-38 -1.0927976e-37 -8.4485624e-38 1.0819441e-37 -1.229413e-37 -1.0616735e-37 -7.7671973e-38 9.553546e-38
1.1550978e-37 -1.2638714e-37 1.0163562e-37 8.4899697e-38 1.1522776e-37 1.1390178e-37 8.622547e-38 1.0811437e-37
1.0708058e-37 -1.0661246e-37 1.0664747e-37 -1.0799454e-37 -9.197326e-38 1.2151265e-37 8.577194e-38 1.0917134e-37
-8.2225274e-38 1.1524586e-37 9.069436e-38 1.1194337e-37 -9.904801e-38 1.0478685e-37 1.001764e-37 -1.141677e-37
-1.1421625e-37 9.668372e-38 -1.3247127e-37 -9.67423e-38 1.0555155e-37 9.533366e-38 -1.0456944e-37 8.277861e-38
1.1590039e-37 1.1443773e-37 1.0455686e-37 -1.1709071e-37 1.0867672e-37 1.0419382e-37 1.0832469e-37 1.0860467e-37
8.687162e-38 -9.255718e-38 -9.3081716e-38 -8.24153e-38 -1.110469e-37 -8.0912083e-38 1.1083514e-37 1.1613637e-37
8.634022e-38 1.0138121e-37 -9.910516e-38 1.140879e-37 1.025211e-37 1.1478013e-37 1.0347219e-37 -9.113024e-38
1.0807884e-37 -8.2799924e-38 -1.0454726e-37 1.0565889e-37 9.989348e-38 1.3333968e-37 1.0271444e-37 -1.1506049e-37
1.102293e-37 1.058058e-37 -1.0557668e-37 -1.1560118e-37 -9.792984e-38 7.582827e-38 -8.93894e-38 -1.000703e-37
-1.0886484e-37 1.0899195e-37 1.0736994e-37 1.0196592e-37 -1.283384e-37 -1.1073187e-37 -1.2742933e-37 1.1327564e-37

core.core.fc.1.0.bias f4 [64]
00000000: 2c6c bc9e 863b 8034 a218 ad1c 1a4f 881e
00000010: 525d b09e b337 8d1a e3aa da9a fa78 f31d
00000020: af3c 3224 e4a6 0720 81d8 781a 369d db3c
00000030: 74fe 2aa4 74ed 799b db3c 1aa3 13f9 ed18
00000040: e300 229a 863b a518 1436 8523 2219 833f
00000050: 7456 109a 0f96 609c 434a ff9d c222 691a
00000060: d07c 089c c6ef 2821 12f3 2c1c eb3b 4c22
00000070: 29b9 b19c 7f06 d99a d224 372f d88a 4c3c
00000080: 7462 4b99 e75b 4a21 34fe 4e1c a297 eb1f
00000090: 1fbb 8639 b912 3c9e 8183 db1a 7699 a4ac
000000a0: 13f0 b19e 978d 9934 2f8b 30a9 ad54 7b1a
000000b0: 070e 94a3 b6b8 571a 35b9 691d 0cf8 9a9f
000000c0: 90d2 9e9e 6e05 efa4 60dc 58ab 909d ee22
000000d0: 283d faa0 b2c7 4b22 5ea4 d721 2939 2421
000000e0: f594 969e 5848 5818 d429 749c a10f b51c
000000f0: 7387 2c9a ad43 912a 27c2 329e 69c1 9d95
-1.9950013e-20 2.3885167e-07 1.1454547e-21 1.4432276e-20 -1.8673321e-20 5.840622e-23 -9.043877e-23 6.444665e-21
3.8648998e-17 1.1490164e-19 5.146009e-23 0.026808362 -3.7078404e-17 -2.0673522e-22 -8.361243e-18 6.1514565e-24
-3.350153e-23 4.2711604e-24 1.4442792e-17 1.0242045 -2.9848338e-23 -7.430933e-22 -6.7574723e-21 4.8211348e-23
-4.515994e-22 5.723795e-19 5.7224187e-22 2.7678876e-18 -1.176074e-21 -8.975959e-23 1.6656834e-10 0.012484275
-1.05147365e-23 6.8561894e-19 6.848823e-22 9.9777227e-20 0.00025697888 -9.956509e-21 9.078873e-23 -4.678198e-12
-1.8839896e-20 2.860149e-07 -3.9200573e-14 5.1973984e-23 -1.6052133e-17 4.4610166e-23 3.0933043e-21 -6.5631896e-20
-1.6815987e-20 -1.03658926e-16 -7.7044447e-13 6.4676855e-18 -4.2392117e-19 2.7617348e-18 1.4612474e-18 5.564101e-19
-1.5943475e-20 2.795387e-24 -8.078689e-22 1.1981615e-21 -3.567818e-23 2.5804134e-13 -9.463391e-21 -6.371694e-26

readout.readouts.bex_20230623_denoised.location.weight f4 [2, 64]
00000000: e474 069e 8a41 ed33 8279 8d9c b29c bf9b
00000010: e65e c29f 2e53 259b 9ad8 439c 885a 2c1f
00000020: 53f4 a323 5893 5d1f d7e7 299c 1c5b ac3c
00000030: 92fa b7a3 5686 001e f9da 86a2 744c 1998
00000040: 7712 bd1a 216a 661a a206 2724 ddeb 033f
00000050: 3e1f d09b b015 491d 1123 849d dffe f11c
00000060: c4e0 bc1b 5d0c 8f20 82e9 6a9d d8c6 0d23
00000070: 9cdc a99d e820 bd1b 20be ef2e a726 e63b
00000080: 0cc0 569a bf0f bc20 b93a 0e1e 6957 3f1f
00000090: 4088 e938 f8fe c7a0 e047 241a c21f 39ac
000000a0: 70a6 461f ad5d d633 7072 9da8 52cc 219a
000000b0: 03ba 42a4 2927 851b edfe 809b a0b4 24a1
000000c0: f412 b59e 1e76 0da5 d8dc e9ac 2583 54a3
000000d0: bf05 80a2 198e f921 c243 2d23 8038 0821
000000e0: 37d5 01a0 5b02 5f1a e1f5 9b9c 7c2d ef1b
000000f0: de8f c699 ef93 dc2b 48cb 2f9e 4832 ba97
00000100: 9990 0fa0 e06c a735 3896 a31d ff39 b41f
00000110: 2a66 3f9e b0e3 3e1c 84b5 a49a 8c67 021d
00000120: c4f6 8825 5765 5b21 24be ad9a 33c2 a03d
00000130: 6212 5223 4642 a91b 9655 0da4 761f 791a
00000140: 88d3 4599 3a2f f717 9427 6123 ca55 363f
00000150: d2d9 4099 8d1e c91c 04bc 929e 90bd 709c
00000160: 6e70 659d 886c 6f21 ac96 681d 740a 3323
00000170: 2c58 0e1d c026 349d 23ec 2730 0dd8 ec3c
00000180: 9c9a 149b c743 1b22 7b73 8e1b fa30 2621
00000190: 45b1 bc39 0a58 5e20 c279 ac1b 3d16 e4ad
000001a0: b1e4 9f9e a3c3 df35 d7dd 8baa 8281 9e1b
000001b0: 2807 7fa4 966c 911b 82d4 9f1e 44dc 869f
000001c0: eede f39f aece 7ea5 1e42 ddaa 625d c122
000001d0: 08aa 0ea0 c70c 06a1 3f62 7b21 9e20 4622
000001e0: 6b4a 869e ba3d ae99 87ec 659d fe45 0d1e
000001f0: ddf0 7a9b ad96 232a 9682 969f 8ae4 c798
-7.118073e-21 1.1048094e-07 -9.362006e-22 -3.1699561e-22 -8.231919e-20 -1.3675357e-22 -6.480004e-22 3.6497302e-20
1.777597e-17 4.692045e-20 -5.6217055e-22 0.021039538 -1.994702e-17 6.804044e-21 -3.655262e-18 -1.9813385e-24
7.81984e-23 4.7648615e-23 3.621797e-17 0.51531774 -3.4430903e-22 2.661334e-21 -3.4976367e-21 1.6013925e-21
3.1247242e-22 2.4233324e-19 -3.1090363e-21 7.685732e-18 -4.4962032e-21 3.1288692e-22 1.0902235e-10 0.0070236507
-4.4409297e-23 3.185886e-19 7.529561e-21 4.0518127e-20 0.00011135684 -3.3880635e-19 3.3972465e-23 -2.630771e-12
4.2065805e-20 9.982191e-08 -1.748013e-14 -3.3459068e-23 -4.2224602e-17 2.202831e-22 -2.1340566e-22 -5.5804417e-19
-1.917196e-20 -1.226982e-16 -6.646777e-12 -1.1520314e-17 -3.4700553e-18 1.6910509e-18 9.392697e-18 4.615337e-19
-1.0997272e-19 4.6117222e-23 -1.0320598e-21 3.9568627e-22 -2.0530828e-23 1.5673e-12 -9.3064604e-21 -1.2032661e-24
-1.2160414e-19 1.2474156e-06 4.3301063e-21 7.632891e-20 -1.0132583e-20 6.3160006e-22 -6.8122065e-23 1.725889e-21
2.3759454e-16 7.433421e-19 -7.185831e-23 0.078495406 1.13880155e-17 2.8001533e-22 -3.0646995e-17 5.1517407e-23
-1.022738e-23 1.5973923e-24 1.22056554e-17 0.71224654 -9.970156e-24 1.3308961e-21 -1.5536113e-20 -7.9654343e-22
-3.0366022e-21 8.111999e-19 3.078284e-21 9.705823e-18 1.8839127e-21 -2.3842835e-21 6.1089817e-10 0.028911615
-1.229223e-22 2.1042298e-18 2.3566557e-22 5.630781e-19 0.0003599023 1.8833261e-19 2.8533697e-22 -2.5930475e-11
-1.6929364e-20 1.6671733e-06 -2.4845292e-13 2.62226e-22 -5.5300372e-17 2.405841e-22 1.6922671e-20 -5.7115606e-20
-1.0328331e-19 -2.2101014e-16 -3.9303364e-13 5.2411628e-18 -1.2084126e-19 -4.5417877e-19 8.5172136e-19 2.6851271e-18
-1.421858e-20 -1.801611e-23 -3.043018e-21 7.478952e-21 -2.0757342e-22 1.4529584e-13 -6.374351e-20 -5.167106e-24

readout.readouts.bex_20230623_denoised.location.bias f4 [2]
00000000: 78a4 dc3e 80ea 173f
0.4309423 0.59342194
