artifacts/poses_to_location/20250820204845/best_model.pt (torch, 876149 bytes, 54 tensors)

embedding.embeddings.bex_20230623_denoised.poses.weight f4 [128, 51]
00000000: 0f6c 363d dbce 64be b933 6a3d 2332 8abe
00000010: d1ce 30be 18eb 98be ecae 2dbd 041f df3e
00000020: 1feb 9d3e a5fb ef3d e363 8e3d 13df 83bd
00000030: 34ac c53d 6fdd 623e 9298 14bd ac28 3d3f
00000040: 3244 cc3e 1ad0 26bd 6437 a8bd fd6e d83c
00000050: ffd0 acbd 4fc2 ba3e b907 573d acfe 86be
00000060: c86e 2a3d c1b6 673c 34ac 0c3f 410a 0f3e
00000070: f0b6 ce3e fd17 003f b3b6 e83d 2d3a 5cbe
00000080: 32f7 e2be eaca fbbc 155a a4be daf1 b53e
00000090: c39c 44be a8df 7c3e 2d8c 89bc f271 d9be
000000a0: 173c cbbc 780e 323d 99db ad3e 41b4 8537
000000b0: a39a 4336 c881 82b4 955f d833 3f7d 41b2
000000c0: cd8f cbb6 a54f f6b4 4554 e3bc 62b4 5bbe
000000d0: 9ab7 05bf 5d67 1e3d 87e6 953d 5d85 40be
000000e0: 173a 893e e254 19be 2b06 9abd 3457 703e
000000f0: 404c 903e cc00 b53e 1403 663e 160a 013f
00000100: 138d babd 1c54 d4be f653 b83c fbd1 0b3e
00000110: a2bf 623e 258b 14be f778 5dbd 5940 28bd
00000120: de05 3e3e 68d6 e73d dfb4 80bd 4c9d 9f3e
00000130: 1651 81be d09e 073d 0d53 33be 855d 443e
00000140: 8472 57bd 62d3 de3d 2477 113f eb95 d1be
00000150: 0032 bd3d 961c b13d 013f a43e fb4a 95be
00000160: bd1a 5fbe 55eb c73d 1bfa 1ebf 730f 5c3e
00000170: 8d78 853d e2c4 64bd 792a 1fb7 797e ce35
00000180: fe11 58b2 5259 1533 6073 deb3 6ac0 0ab6
00000190: ebfa a536 dd4a 9abb b662 923d 6453 91be
000001a0: 345d bb3e 91d8 e03d 42dd abbc a381 bebd
000001b0: 7c4c 8fbd 028c 09be 8970 d93d 6cae 2abe
000001c0: 759a 653e e8ac 51be f9c2 303f bdf0 b1be
000001d0: 43de b33d 3445 bb3e fcd6 ac3d 249a 113f
000001e0: 80d8 35bf af7b 41be 08e0 b23e 169e 783e
000001f0: e42a 113e 05fd 063d f317 9f3e ab6e 903e
00000200: c37a 69be 35fa 253d 94b8 9f3e ab52 62be
00000210: dc59 ef3e b51f 113b f4eb 04bf 3f6b a1bd
00000220: 8795 a43e dd6e d23d 2699 513e ac43 623e
00000230: 8988 4abf 37d1 11bf 37e3 09bf 047c 61be
00000240: 9bdd 4d3f 516f 1837 da10 2db6 4d71 8434
00000250: aed6 1732 2629 86b1 cb8d bbb5 932c 07b7
00000260: 893f 4cbb 01db dcbe 2de6 87bd 11f0 a3be
00000270: f144 8ebd 4413 c33e f501 a83e 2a39 1cbe
00000280: 97fb 253e a4af 0a3d a227 773e 4acc 223e
00000290: 8467 de3e 0690 afbd 0605 413e f443 d83d
000002a0: 127f abbd 04b6 803d dcc3 173e 3505 59be
000002b0: fec3 1fbd c1ee 013d 8173 b9be 7c8b b0be
000002c0: 067a 0b3e ad20 c5be a324 69bb 3bae 1abf
000002d0: 238b b1be db48 fc3e b7c1 13be ecda 7ebe
000002e0: e633 373e 8489 253d 8486 b43d d67e 853e
000002f0: 0574 af3e 34d5 debe 6229 b53d f6d5 093e
00000300: f33b 0bbd 4597 78be de3f 253f 775b a63c
00000310: ef3b 2fb7 ec8e 5d36 1615 3b34 cffc 2833
00000320: 487d b932 db54 3bb4 f829 a734 5292 eb3c
00000330: a768 4d3d fcf4 ce3e dcb2 91bd 78b1 7c3d
00000340: bad1 f13d 0f61 533e b7c9 37bd 2063 05bf
00000350: c39b 05bf 3792 cdbe b57e a8be d233 58be
00000360: 18bf e6bd 3d1b 14be 5cf3 b23e e6c8 12bf
00000370: d9df 893d 1c50 103e a8af 163f da31 663e
00000380: 7fcd 883b f88e 95bc 8d46 9d3d 8901 86bd
00000390: 879f 223e d029 7cbc d493 9dbd 2a85 943c
000003a0: 54aa f7be 2047 71be 7255 1dbc f0a8 cabd
000003b0: 2978 c03e 5733 12be 090e 2dbe 6b1f 1cbf
000003c0: 179d c3bd d3db 69be 860b c93d 7fd1 193e
000003d0: 50d4 893e f6ef efbe b5e7 23bf 1cb9 7cb7
000003e0: 5f86 d5b5 46ce 63b4 0b47 2ab3 4fca b8b3
000003f0: 750d 6c36 ea8c 98b6 3484 063c 5ed1 36be
0.044536646 -0.22344534 0.057178233 -0.26991376 -0.17266394 -0.29866862 -0.042403147 0.4357835
0.30843446 0.11717919 0.06952646 -0.064390324 0.09651986 0.22154783 -0.036278315 0.73890185
0.3989578 -0.040725805 -0.0821369 0.02642011 -0.084383 0.3647637 0.0524976 -0.26366174
0.041609555 0.014142693 0.5495026 0.13968755 0.40373945 0.50036603 0.11362972 -0.21506567
-0.4432922 -0.030736405 -0.32099977 0.3553608 -0.19200425 0.24694693 -0.016790474 -0.42469746
-0.024808927 0.04347083 0.33956602 1.5938773e-05 2.9147275e-06 -2.4308815e-07 1.007567e-07 -1.1262556e-08
-6.066612e-06 -4.587902e-07 -0.027750144 -0.2145553 -0.5223328 0.038672794 0.0731936 -0.18800874
0.26802132 -0.14973786 -0.07520708 0.23470765 0.28183174 0.3535217 0.22462112 0.50406015
-0.09108939 -0.4147042 0.022500973 0.1365432 0.22143415 -0.14506204 -0.05407044 -0.04107699
0.18556926 0.113201916 -0.062844984 0.31174695 -0.25257176 0.03311044 -0.1751215 0.191763
-0.052599445 0.10880162 0.5682242 -0.4093469 0.09238052 0.086480305 0.32079318 -0.29158768
-0.21787544 0.09761683 -0.6210038 0.21490268 0.06517134 -0.055851825 -9.4870275e-06 1.5385004e-06
-1.2576946e-08 3.4773002e-08 -1.0358667e-07 -2.0675602e-06 4.946594e-06 -0.0047086314 0.07147734 -0.28383934
0.36594546 0.10978807 -0.020979527 -0.0930207 -0.0699701 -0.13432315 0.106171675 -0.16668099
0.22422202 -0.20476115 0.69047505 -0.3475398 0.087826274 0.36576235 0.084394425 0.56875825
-0.7103348 -0.18894838 0.34936547 0.24279055 0.14176518 0.032956142 0.3107296 0.28209433
-0.22800736 0.04052182 0.3119551 -0.22101848 0.46748245 0.0022144143 -0.51922536 -0.07881784
0.3214533 0.10275052 0.20468578 0.22096127 -0.79114586 -0.5695986 -0.5386233 -0.22019964
0.8041627 9.085824e-06 -2.5788818e-06 2.4669353e-07 8.838169e-09 -3.9045913e-09 -1.3973853e-06 -8.057005e-06
-0.00311658 -0.43135837 -0.066356994 -0.32019094 -0.06946743 0.38100636 0.32813993 -0.15256181
0.16209255 0.03385891 0.24136212 0.15898243 0.4343835 -0.08572392 0.18849573 0.10559836
-0.08373846 0.06284717 0.14820808 -0.21193393 -0.039005272 0.031721834 -0.36220935 -0.34481418
0.13620767 -0.38501492 -0.0035574816 -0.60422105 -0.34676465 0.49274334 -0.14429365 -0.248882
0.17890891 0.04041435 0.08814719 0.2607333 0.34268203 -0.43522036 0.08845784 0.13460526
-0.03399272 -0.24276455 0.6455058 0.020307286 -1.0444767e-05 3.3014758e-06 1.7423403e-07 3.9345476e-08
2.1593806e-08 -1.7446602e-07 3.113671e-07 0.028756294 0.050148632 0.40421283 -0.07114193 0.061692685
0.1180758 0.20642494 -0.044870105 -0.5210438 -0.521908 -0.40150616 -0.3290917 -0.21113518
-0.11266917 -0.14463516 0.34951293 -0.57337797 0.06732149 0.1409306 0.5886178 0.22479954
0.0041748877 -0.01825665 0.07679472 -0.065432616 0.15881167 -0.015390828 -0.076942116 0.018129904
-0.48372138 -0.23562288 -0.009602891 -0.098955035 0.37591675 -0.14277397 -0.16899885 -0.6098544
-0.09551447 -0.22837763 0.09816651 0.15021323 0.26919794 -0.46862763 -0.6402543 -1.506347e-05
-1.5908844e-06 -2.1216064e-07 -3.9645823e-08 -8.6049674e-08 3.5174573e-06 -4.5463576e-06 0.008210231 -0.17853305

embedding.embeddings.bex_20230623_denoised.poses.bias f4 [128]
00000000: de9f 51bd 6343 39bd 778b 41bc a685 7ebd
00000010: 872d fb3b 277f d2bd 4dd8 cabc d931 d23c
00000020: 8098 6ebc c096 c8bd 9561 04bc 58a0 203d
00000030: b62b e0bd 3dc2 3ebc a2e6 45bd 214c a8bb
00000040: 679b 96bd 9e14 aa3d 3a11 6b3d 5ca0 f5bb
00000050: fb6a 903c 97c5 563d 3c7a e1bd 2d07 9f3d
00000060: 39b1 61bb 7bec 8bbd 9b2b c33d b541 113d
00000070: 0918 c83d 2b42 b3bd 9ec5 96bc b68f 9abd
00000080: 637a e1bd 7e85 123d 8b88 deba 824e c43d
00000090: efad 853c 5407 fabd b322 a5bd 5a40 0ebd
000000a0: 2b36 76bd 629f 203d 026d 953d 47e0 acbb
000000b0: ec50 abbc 7c51 a0bd 2fab 44bd cfea 39bd
000000c0: 8e4b 0abc 8d88 0b3e ef94 c03d 3e6b d2bd
000000d0: a998 8bbd 4cc2 a1bd c903 cd3c 30f2 60ba
000000e0: 9f03 93bc c4c0 92bd 4a54 f83c fd7d 99bd
000000f0: 75db 963d e47b ab3d 66f9 94bd ad2d 7e3d
00000100: 43ca 473c e187 df3d d4fd 33bd 40f6 cfbd
00000110: 9e7b 6ebd e345 493d 1f54 bc3c 35cc ce3d
00000120: 92e1 98bd e559 7dbb 91a7 c8bd dc55 043d
00000130: 59cd 573c e921 4b3d 545b 613d aa35 a13c
00000140: 0aa6 93bd 49af 16bc ca95 e13c dd2d 41bd
00000150: ff67 ba3c 088c a53c 1bb5 05bd bac4 e3bc
00000160: fc07 e5bc 26f3 3f3c d3fc 9d3b 6ebc 5e3d
00000170: e376 313c 2dfb 4e3d 5eee 9cbd 81b8 b43c
00000180: d1b0 a13d ec60 223c 2931 c5bc 85ef a03d
00000190: e67b 7a3d ca52 c4bd 1d0e 983c e8b1 933b
000001a0: fa15 24bd 6786 b7bd 6893 77bd 0bec 583d
000001b0: d394 a2bd 1993 a6bd 712d 923b 7906 ddbc
000001c0: 37a3 1dbd 2b81 5bbd 6537 eabc 9438 f53c
000001d0: 28e9 f43d 1839 903d a1a2 babd a106 173d
000001e0: 8483 b33c 08e3 d83d b511 653d caa8 693d
000001f0: 4453 95bd f130 47bd 3888 933c e945 053d
-0.05117785 -0.04523028 -0.011813036 -0.062139176 0.0076653394 -0.10278159 -0.024761343 0.025658535
-0.014562726 -0.09794378 -0.008079906 0.039215416 -0.10945837 -0.01164299 -0.04831565 -0.0051360284
-0.073538594 0.08304714 0.057389475 -0.007495923 0.017629137 0.05243453 -0.110096425 0.077650405
-0.0034437908 -0.068322144 0.095298015 0.035463054 0.09770209 -0.08752855 -0.018404778 -0.07546942
-0.110096715 0.03577184 -0.0016977949 0.09585287 0.01631829 -0.12208429 -0.08063259 -0.03472934
-0.060110252 0.0392145 0.07296182 -0.0052757594 -0.02091261 -0.07828042 -0.048014816 -0.045389947
-0.008440865 0.13626309 0.09403407 -0.10274361 -0.06816227 -0.07898387 0.025026219 -0.00085810106
-0.017946063 -0.071656734 0.03031363 -0.074947335 0.07366077 0.0837324 -0.072741315 0.06205528
0.012194219 0.10914589 -0.04394324 -0.1015439 -0.05822336 0.049138915 0.02298933 0.10097543
-0.07464899 -0.0038658318 -0.09797586 0.032308444 0.013171517 0.049592886 0.055018738 0.01967891
-0.07209404 -0.009197065 0.027537245 -0.04716288 0.022754667 0.020208374 -0.03264342 -0.027803767
-0.027957909 0.011715686 0.0048213988 0.05437892 0.010831567 0.05053251 -0.076626524 0.022060635
0.07895053 0.009910803 -0.024071293 0.07858185 0.061153315 -0.09586103 0.018561417 0.004507292
-0.04006002 -0.08961182 -0.060443312 0.052959483 -0.07938542 -0.081335254 0.0044609834 -0.026980625
-0.038485732 -0.05358998 -0.028590867 0.029934205 0.119585335 0.0704214 -0.0911305 0.036871556
0.021913297 0.10590178 0.05592509 0.057045735 -0.07291272 -0.04863066 0.01800929 0.032537375

embedding.embeddings.ken_20230614_denoised.poses.weight f4 [128, 52]
00000000: 8f69 3b3e 4ea9 46be 4223 b6be e14f 903e
00000010: 3f30 8d3d 36d0 adbc 061c c53e d272 3f3e
00000020: 414c 72bd 5eba 62be 010a fa3c 3b02 79bc
00000030: 6db1 093e 04e4 23bc 3f9c 943e 13cc 25be
00000040: 72ca 0e3f 7e4f 6bbe 82e9 833e b431 d93e
00000050: 7743 123e 69e2 1a3e 1b10 9ebe 0f60 0abb
00000060: 8b60 3bbf e713 493e c653 e8be ea3e 7ebe
00000070: c564 43be 24e2 33be 4a10 b23e b49b 8ebe
00000080: 2c77 b5be c1b8 003f d1d7 e23d 2dfc d83e
00000090: 2318 573e 8596 6bbe ae39 b83e e3ed b7be
000000a0: 536d 9fbd a4db 2d3f bc1e e73e 7316 f9be
000000b0: d931 3039 9a9f db36 525f 7536 8039 2735
000000c0: 3fa0 5db4 9db4 e7b3 cd83 1b35 3191 b0be
000000d0: 9c01 77bc 518a efbd 2fe0 3fbe 6f4b 72be
000000e0: 82e8 863b d823 84bd b75e c53e 2751 27bc
000000f0: f1db 1e3d 36f4 41bd f330 58bd fd00 2abe
00000100: d7cd 9ebd d3e6 ab3d 051e 4f3e 680e 9bbe
00000110: 68eb a03e 97bd 55be 29f2 843e 4438 193f
00000120: 0af6 c1bb b8da e53e b92e 31bf f9aa 8b3e
00000130: 8f3b 84bd 0121 4e3f 1d36 8d3d dbb3 dabd
00000140: dd7d 24bf c112 09be a960 16bc ae9f 24bc
00000150: 3335 ac3d 172b 053e 7771 ea3d 0068 e43e
00000160: b771 3ebd d9ff 36be 9573 a1bd a632 15be
00000170: 54b1 b43d f8fb 833e 078b 103e 1895 203c
00000180: 214c 1239 626a 79b5 62eb 7b34 10f6 0633
00000190: 24c7 4db4 8b4e d9b3 34e6 3eb7 d873 a7be
000001a0: 5a30 d43e ffb3 44be 87d3 5fbe d921 ec3d
000001b0: 38e8 15bd 2ade 063f 3a76 c83d e22d e33e
000001c0: 4d5a babe 26d0 733e bca2 dabe 6a92 f9bd
000001d0: 5440 ec3d 2ba5 fd3e 9359 0b3e 99e3 11bf
000001e0: 7005 cbbd eb74 413f b717 96be 8961 99bd
000001f0: 036d 823d 08aa 7c3e 86e7 2a3d 96e4 e03d
00000200: d7b9 903d 5d5e d43e 553f 94bf 8818 00bf
00000210: 8eda 02be 282e ec3d 00e0 a03e c55c 36bd
00000220: e087 01bf e600 01bf b681 23bf df57 ac3e
00000230: f7e6 523f cf8a 95bf 61ae acbf 555d 1cbe
00000240: ca22 5c3f 3574 783e 2eab 413f f338 4fbe
00000250: 9434 c138 4705 b836 9cec 1935 6786 1135
00000260: b673 8eb2 10ff d5b2 ebec 82b6 db6b ddbd
00000270: 5e2f 593e 8c7f 3f3e db01 ee3e d1bc a53d
00000280: edbd b8be 5577 de3e 76c8 1cbe 7ce6 8ebd
00000290: 1668 013e 2004 6e3e 9ba0 9c3e 3f04 46bb
000002a0: 042d 6bbe bd14 913d 4260 b03e 3784 9dbd
000002b0: 9e77 98be 873c e73d 2946 373e 200d 683e
000002c0: cfc4 aebe f796 dfbd 91d7 89be bf6a 113d
000002d0: 7801 21bf 2cbf b8be 1475 1e3e 7a5a 703e
000002e0: 3048 07be 1ad1 793e b163 6cbc 065b 59bd
000002f0: 9b08 59bc 6b5b 24bd 8845 ee3e bc80 c43d
00000300: 1108 d43d 8cf2 193e dfa5 11bf dc95 6b3f
00000310: 8817 24be d21a 1f3e dbc9 4bbe 3c4c 1fbd
00000320: 35ea 10b8 f9c0 5fb7 48eb adb5 25c7 e7b4
00000330: bfb7 9a33 8523 39b3 deff 13b6 fe2a 653d
00000340: 9cf5 fcbd 7c8d 3cbe d370 713e 482d b5be
00000350: 4778 ad3e 8f0b 10be 7914 d3be f638 a3be
00000360: b4a5 a8be 8283 753e 1094 ca3c 54a2 633d
00000370: 66ca 32bd ec84 5cbd ea2f 86be d06b 1d3d
00000380: 3cb2 efbb 7f9b d63d b77a 573d a4b3 903e
00000390: 3566 b73d 6b87 843e 0b76 95bd a4cf 093e
000003a0: 96a4 fd3e d1d8 453e 4885 9c3e 766c dd3e
000003b0: 5603 aa3e 93ac 48bd 49e3 febe 987a bb3e
000003c0: eedc dc3e 1f04 4a3e 418b 86be 1c00 143e
000003d0: 3422 1dbf d819 9dbe f5fa 843e 1277 023e
000003e0: a72b 94be 4904 cdbe e19f eebe 3175 c4bd
000003f0: 2a14 1638 ca73 9136 f6cb 04b6 615c 9db4
0.18301986 -0.19400522 -0.35573775 0.28185943 0.06893968 -0.021217447 0.38497943 0.18696144
-0.059154753 -0.22141406 0.030522348 -0.015198286 0.13446589 -0.010003094 0.29025456 -0.1619113
0.5577766 -0.22979543 0.2576409 0.42420733 0.14283548 0.15125431 -0.30871662 -0.0021114384
-0.7319419 0.19636498 -0.45376414 -0.24828687 -0.1908141 -0.17566735 0.34778053 -0.27853167
-0.35442483 0.5028191 0.1107632 0.42379895 0.21005301 -0.23006637 0.35981506 -0.3592368
-0.07784524 0.6791327 0.45140636 -0.4864994 0.00016803238 6.5452887e-06 3.6563329e-06 6.229602e-07
-2.0640526e-07 -1.0789629e-07 5.7933795e-07 -0.34485772 -0.015076067 -0.11696304 -0.18737863 -0.23661588
0.0041170726 -0.06452149 0.38548824 -0.010212219 0.03878397 -0.04735204 -0.052781057 -0.1660194
-0.077541046 0.083936356 0.20226295 -0.3028443 0.314296 -0.20873104 0.25966004 0.5985148
-0.0059192227 0.44893432 -0.6921192 0.2727888 -0.064566724 0.8051911 0.06895087 -0.10678836
-0.6425455 -0.1338606 -0.009178319 -0.010047836 0.084085844 0.13004719 0.11447423 0.44610596
-0.046495166 -0.17871036 -0.07883374 -0.14570102 0.08822885 0.25778174 0.14115535 0.009801172
0.00013952005 -9.2914536e-07 2.3461828e-07 3.14231e-08 -1.916456e-07 -1.0119137e-07 -1.1378481e-05 -0.3270557
0.4144314 -0.19209288 -0.21858035 0.115298934 -0.036598414 0.52682745 0.09788175 0.44370943
-0.3639702 0.23809871 -0.4270228 -0.121861294 0.11535707 0.49540076 0.13608389 -0.5698791
-0.099131465 0.7556903 -0.29314968 -0.074893065 0.063684486 0.24674237 0.041724704 0.10981099
0.07066696 0.41478243 -1.1581827 -0.5003743 -0.12778684 0.11532241 0.31420898 -0.044522066
-0.50597954 -0.50391996 -0.638698 0.3366079 0.82383674 -1.1682986 -1.3490716 -0.15269978
0.85990584 0.2426308 0.75651824 -0.20236568 9.2127506e-05 5.4842417e-06 5.7341254e-07 5.421229e-07
-1.6583595e-08 -2.4912453e-08 -3.901883e-06 -0.108115874 0.21209475 0.18700999 0.4648579 0.080926545
-0.36082402 0.43450418 -0.15310845 -0.06977555 0.12637362 0.23243761 0.30591282 -0.0030214933
-0.22966391 0.07084034 0.3444844 -0.076912336 -0.2977876 0.112908415 0.17897858 0.22661257
-0.34134528 -0.10917466 -0.26922277 0.03550219 -0.62892866 -0.36083353 0.1547435 0.23472014
-0.13211131 0.24396172 -0.014428065 -0.053065322 -0.013246681 -0.040126245 0.46537423 0.09594867
0.10353101 0.1503393 -0.56893724 0.9202554 -0.16024601 0.15537575 -0.1990122 -0.038891062
-3.4550398e-05 -1.3336766e-05 -1.295798e-06 -4.3172e-07 7.204607e-08 -4.3105974e-08 -2.2053641e-06 0.055949204
-0.12351534 -0.18413347 0.23578195 -0.3538611 0.33880827 -0.14066909 -0.41226557 -0.31879395
-0.3293892 0.23975947 0.024728805 0.05557473 -0.043650053 -0.0538377 -0.2620843 0.038432896
-0.0073149484 0.10478877 0.052607264 0.28262055 0.08955041 0.25884566 -0.072979055 0.13458115
0.49539632 0.1932099 0.30570436 0.43246812 0.3320567 -0.048992705 -0.4978278 0.3661697
0.43137306 0.19728135 -0.26278117 0.14453167 -0.61380315 -0.3068378 0.25972715 0.12740734
-0.28939554 -0.40042332 -0.46606353 -0.09592665 3.5781566e-05 4.3348164e-06 -1.9788254e-06 -2.9310743e-07

embedding.embeddings.ken_20230614_denoised.poses.bias f4 [128]
00000000: 4741 67bc 937a a4bd 1729 563d c4a7 37bd
00000010: e542 603d a16d 0fbd 2075 2c3d 2ffa 92bd
00000020: a140 083c f02b 04be 5018 70bb 584c dcbc
00000030: c68e c53d 0ed1 743c 6ec2 88bd 94e7 2e3c
00000040: 4b95 c13c 4102 703d 8f48 223d dda9 94bd
00000050: ad8b 87bd 0f8f 91bc c66b 9ebd 8914 173d
00000060: b721 a4bc 0be8 5ebb 5667 86bc 5e4d 76bc
00000070: 8dd0 e1bb 227a a2bc 282d c13d e851 2abb
00000080: 2106 91bd e30b ecbc 3924 1cbc 8ece 38bd
00000090: f1c5 b0bd 2897 41bd 5df8 2f3d 3c60 e4bd
000000a0: e1f6 bebc 8ef0 d13c 2ff4 813d 670b ecbc
000000b0: e15e bbbc 698c 563d 1ac6 00be 9923 b03d
000000c0: bb8a 22bc b0f0 f13d 7290 68bd 0752 cfbd
000000d0: 9d26 a63c 3149 833c 55e4 66bb c8ba 0f3d
000000e0: bc4e 07bc c108 4c3d 10a0 233d 957d b43c
000000f0: e367 02bb 47a4 3bbc 0b17 0abb 8a3e af3c
00000100: 8e78 883d ffa9 3bbd d424 91bc 1538 b83d
00000110: dccd f33c 137f 60bd 4489 0ebd a064 6e3d
00000120: 46d1 4b3d 17b3 d63d 8b86 c83a 4a1d 89bd
00000130: e474 af3d a019 393d 46c5 89ba 05f0 59bb
00000140: a776 3e3d 7411 263d c43c 8bbd c0f5 bbbd
00000150: 2f5e d83b fe49 64bd d16f 17bd e877 d6bd
00000160: 783e d5bd 6102 ab3a 211a 423d 973a 03bd
00000170: febb a83c 978a d83d 278e ab3d c9c8 1bbc
00000180: 625a e63d 71ce 4f3d 2fe3 a33d d62f 9abc
00000190: 9efd 71bd d96d 9abd 1a8a 11bd 742e babb
000001a0: 0bcb 7fbd 5475 ce3d fcb6 6dbd 3a10 4a3d
000001b0: 608c 973c 0671 95bd 45a0 39bc ee31 3bbd
000001c0: 64b4 ad3c 1bb3 cc39 f317 e53c 4c6d 30bc
000001d0: f7d0 8dbd 194e 72bc 66cc c73d 59fa c23b
000001e0: 1e50 27bd 845d 5bbc 48e0 84bd 750c d2bb
000001f0: b8c0 e6bd 3fd8 abbd d68b 2e3d bd12 babd
-0.014114684 -0.08031192 0.05228528 -0.04483773 0.054751296 -0.03501666 0.042103887 -0.07176625
0.00831619 -0.12907386 -0.0036635585 -0.026891872 0.096463725 0.014942421 -0.066777095 0.01067533
0.023630759 0.0585959 0.03961998 -0.07258961 -0.06618438 -0.017768411 -0.077354 0.03688482
-0.020035608 -0.003401282 -0.016406696 -0.015033094 -0.0068913163 -0.019833628 0.09432441 -0.0025988761
-0.07081247 -0.028814262 -0.0095301205 -0.04511886 -0.08631504 -0.047263294 0.042961467 -0.11151168
-0.02331108 0.0256274 0.063454024 -0.02881403 -0.02287239 0.05238 -0.1257557 0.0860054
-0.009920771 0.118134856 -0.05677838 -0.10123067 0.020282084 0.016026111 -0.0035231311 0.035090238
-0.008258518 0.049813036 0.03994757 0.022032538 -0.0019898347 -0.011452741 -0.0021070864 0.021392126
0.06663619 -0.045816418 -0.017717756 0.08995072 0.029761247 -0.054808687 -0.034798875 0.058201432
0.049760126 0.104833774 0.0015298886 -0.066950396 0.08567217 0.045190454 -0.0010511063 -0.0033254635
0.046499874 0.04054399 -0.067986995 -0.091777325 0.0066030244 -0.055734627 -0.03697187 -0.10472089
-0.104123056 0.0013046974 0.0473882 -0.032038298 0.020597454 0.10573309 0.08376723 -0.00950832
0.11247708 0.050733987 0.08002316 -0.018821638 -0.05907976 -0.07540483 -0.035532095 -0.005681807
-0.062449496 0.10080972 -0.058035836 0.04933188 0.018499553 -0.07296948 -0.011329715 -0.045701914
0.021204181 0.00039043356 0.027965521 -0.010768246 -0.069246225 -0.014789128 0.09755783 0.005950254
-0.04084789 -0.013388995 -0.06488091 -0.0064101764 -0.11267227 -0.08390855 0.042613827 -0.09085605

embedding.embeddings.ken_20230618_denoised.poses.weight f4 [128, 53]
00000000: 7c7f 0ebc 71bb 473e 139d 98be fa32 f73d
00000010: 5e4b e83e 7abc 0dbf 501b 593e 8d57 553f
00000020: c61a efbc aa32 6ebe f9bb f8be 606c 923d
00000030: 62a1 b63e d126 9bbe 6136 b13e 1d0e 133e
00000040: 0d6f 343f 2e26 01bd fc5e afbe a4d7 5a3e
00000050: 8640 b83d 8a15 023e 2798 8f3e 702c f23e
00000060: b04c 19bd eb2f 8bbd e82b 563e 34da b9be
00000070: 00ad f43d 77c5 ffbd 9a5c 8dbe a6a8 a2be
00000080: d94d fc3e e57a 423e 1701 19bf 68a5 373e
00000090: acbf 893c 9ff7 4e3e 7641 c2be f038 8dbe
000000a0: 2a2a ab3d 38d6 39bf ee6a 6fbd 4c73 a23e
000000b0: 904f 443e 6404 1837 ba37 7f37 8dc0 2bb7
000000c0: 4246 aeb4 92e5 36b3 186d 97b2 5c4e 3436
000000d0: ad16 3fbc 65a5 2bbe 9fc9 423c 8438 dabe
000000e0: 59f8 243e 4a9d 183f 950a 943c ef42 023e
000000f0: 5a39 653f 80a2 b53c 8883 f93d a18e 963d
00000100: 9f0e d03d 4546 6c3e c5d7 f13c f189 433d
00000110: 36f4 bebe e123 debd 9e58 d1be e9e3 b4be
00000120: c2fb c33e 1192 163c 8c73 98be be67 abbd
00000130: 0414 cdbe a15b c7bd d0cc 19be 54bc dfbd
00000140: 79bf d2be 27b4 7bbe 1c86 c5be 56d6 45bd
00000150: 90ca e3bc 5eb1 09bd 0732 113e d617 6fbe
00000160: d39d 15be 0f29 b53e 16b4 7b3e 1bff a13d
00000170: ab3c 943e 44f9 103e d012 cdbc 2435 f1be
00000180: 2c0c 1a3e cc98 dd3e 6818 4db8 ddc1 1637
00000190: 20ff 3bb7 ddb9 2db4 e895 1a33 61b9 ecb3
000001a0: 1a7e ccb6 4ff3 413c 660b 5cbe 63ec d93e
000001b0: 5aa1 023e 9235 4bbd 1520 c63d d3c6 8fbb
000001c0: 6437 473d 23c6 9d3e 1d58 393d 1039 233d
000001d0: 212c bf3c 2282 92bb e883 cd3e db58 adbe
000001e0: b4c3 803d 7615 d03e c06a 173f cc3e 2bbd
000001f0: 2b1d 26bd 7150 e63d a804 03bd c860 0cbe
00000200: 8826 5cbe 9887 0bbe e78f 14bc e383 6d3e
00000210: 4190 18be 4aec dabe e181 b0be 3bc8 33be
00000220: b6ea d0bd 0679 ee3b c289 e93d 60a0 e4bb
00000230: 9bcb 2bbe b6a0 23be fe4e adbe 16d4 05bf
00000240: 6a9b 54be f970 10bf 485d 873e e908 b63e
00000250: 78f2 cdbe 386c f33e 8287 293e 8f3b 9fb6
00000260: 5cd0 c737 8e08 efb6 083d 29b5 5c0d 9932
00000270: efc0 ceb3 b089 fe35 4404 cbbd fac0 dabd
00000280: a3b1 023d 6ab1 c43c 0e9f be3e fa73 b9be
00000290: fe09 9ebe c125 afbc deaa 473d a86a a13e
000002a0: 4acd 073e 2c7a a03e 62a6 37be deb1 583d
000002b0: 8039 563e 9ef6 45bf 5e89 7fbe 2141 e2be
000002c0: 88e9 2ebc e028 313f a1c9 e93d 7ce0 23be
000002d0: 54c3 75be 8c33 0fbd 1b46 1cbf 10b1 093f
000002e0: 1a3a 04bf 91f6 933c 623f 1fbf f0d0 01bf
000002f0: 7b0e f5bd da47 173d 87cb 38be 094c 423d
00000300: 831f 75be 39d3 b53e 74d0 11bf b822 cf3c
00000310: 02c3 3b3d 76d0 203e 1293 463d 55a7 7c3d
00000320: 042a 993e afd0 ccbe 76da 85be 2128 883e
00000330: a6f9 3838 54dc 4eb7 b599 e136 fcc5 8834
00000340: 9853 15b3 697f 8832 b42a 9c36 5a95 ddbd
00000350: a00a 453e fa1a 11be 7763 dd3e 1ec2 ffbe
00000360: 915e f3be fc16 b13e 18bf f23d 78e8 2a3e
00000370: fd95 183c c87c 13be a68c d73e a2a4 9a3e
00000380: 6d0f e8be 9f69 643e 59b7 0abc 4f6d 74be
00000390: b05c 9bbe 115a e83e 347a 37bd 5b44 dbbe
000003a0: 375c cc3e ed19 cdbd 420f a4bc 1461 293d
000003b0: ac42 1d3e 33fb cf3e 2380 373e fba4 b43e
000003c0: 34c8 6f3e bd67 d23e a4b2 2f3e b5bc 9c3e
000003d0: 54ff eebc 4ba4 e2bd 5355 a63d aba5 413f
000003e0: 3ed8 713e 7ab0 833e 3946 2a3e 1d71 5e3e
000003f0: ef58 e4be bed8 ed3b be43 303c d0e9 90be
-0.008697387 0.19505097 -0.29807338 0.1207027 0.4537 -0.5536572 0.21201825 0.83336717
-0.029187571 -0.23261514 -0.48580912 0.07149577 0.3567 -0.30303052 0.346118 0.14360853
0.7048195 -0.03153055 -0.34252155 0.21371323 0.08996682 0.12703529 0.2804577 0.47299528
-0.03742665 -0.06796249 0.20915186 -0.36299288 0.1194706 -0.12488835 -0.27609712 -0.31769294
0.49278143 0.18992193 -0.5976729 0.17934191 0.01681503 0.20211647 -0.37940568 -0.27582502
0.083576515 -0.72592497 -0.058451585 0.3172859 0.19170976 9.060928e-06 1.5212159e-05 -1.0237226e-05
-3.2461145e-07 -4.258397e-08 -1.7628324e-08 2.6867701e-06 -0.011663121 -0.16762312 0.0118888905 -0.42621243
0.16110362 0.59615004 0.018071452 0.12720846 0.89540637 0.022172213 0.12183291 0.07351423
0.10159039 0.2307368 0.029521832 0.047738973 -0.37295693 -0.10846687 -0.40887922 -0.35330132
0.38278013 0.009190098 -0.29775655 -0.083693966 -0.40054333 -0.09734274 -0.15019536 -0.109245926
-0.41161707 -0.24580441 -0.3857888 -0.04830011 -0.02780655 -0.033616416 0.1417924 -0.23348936
-0.14610986 0.35382888 0.24580416 0.07909986 0.28952536 0.14157587 -0.025033385 -0.47110856
0.15043706 0.43280637 -4.889854e-05 8.985834e-06 -1.12054695e-05 -1.6179497e-07 3.5992258e-08 -1.10233266e-07
-6.094354e-06 0.011837794 -0.21488723 0.4256316 0.12756863 -0.049611636 0.09674088 -0.0043877154
0.04863681 0.3081523 0.045250047 0.03984934 0.023336472 -0.0044710794 0.401397 -0.33856854
0.062873274 0.40641373 0.5914726 -0.041807935 -0.04055516 0.11245812 -0.031986862 -0.13708794
-0.21499074 -0.13625944 -0.009067512 0.23194842 -0.14898778 -0.427584 -0.3447409 -0.1755685
-0.102010176 0.0072776107 0.11403228 -0.006977126 -0.16776888 -0.15979275 -0.3384933 -0.5227674
-0.20762411 -0.5642238 0.26438355 0.35553673 -0.4022405 0.47543502 0.16555598 -4.745503e-06
2.3819674e-05 -7.123751e-06 -6.304622e-07 1.781762e-08 -9.627717e-08 1.8964547e-06 -0.09912923 -0.106813386
0.03190769 0.024010379 0.37230724 -0.36221296 -0.30866998 -0.021380307 0.048746936 0.31526685
0.13261905 0.3134321 -0.17934564 0.052904002 0.20920372 -0.7732943 -0.24954745 -0.44190314
-0.010675795 0.69202995 0.11415411 -0.16003603 -0.24000293 -0.03496127 -0.6104447 0.537858
-0.51651156 0.018061908 -0.6220609 -0.5070944 -0.119656526 0.036933757 -0.1804639 0.047435794
-0.23937802 0.35512713 -0.569587 0.02528511 0.04584027 0.15704522 0.0484801 0.061683018
0.29914868 -0.40002963 -0.26143235 0.26593116 4.410152e-05 -1.2329856e-05 6.7234164e-06 2.5476027e-07
-3.4767794e-08 1.5890423e-08 4.6541336e-06 -0.10819502 0.19242334 -0.14170447 0.43239948 -0.49952787
-0.47533086 0.34587848 0.118528545 0.16690242 0.009313104 -0.14403069 0.42099494 0.3020373
-0.4532427 0.22305916 -0.008466565 -0.23869823 -0.30344152 0.45381215 -0.044794276 -0.4282559
0.39914104 -0.100147106 -0.020026807 0.041352347 0.15357465 0.40621337 0.17919974 0.3528212
0.23416215 0.4109477 0.1715799 0.30612722 -0.029174484 -0.11066493 0.08121743 0.75643414
0.23617646 0.25720578 0.1662835 0.21722837 -0.445991 0.0072585037 0.0107583385 -0.28303385

embedding.embeddings.ken_20230618_denoised.poses.bias f4 [128]
00000000: 4361 be3c 09d8 cb3c f7ca 233d e3f9 96bb
00000010: 0dde 15bd d394 ffbd ca7c 233c 9a43 373c
00000020: 3613 2b3c 3608 f7bd 3e3b 31bd 91fc 1ebd
00000030: ddf8 893d 6c37 3e3c 7460 b3bd 6239 0d3c
00000040: c284 0e3d f07d bb3c 3dae d33d c033 9abd
00000050: eee8 d8bc 2029 493c bc30 65bd f8bc 8abc
00000060: f055 cebb 29aa 033d 9ab1 8dbd 6222 393d
00000070: 07da 8bbd 8c3a 2e3d 217c 003c b68d c9bd
00000080: db6f 9abd c58a a13d 1420 80bd ce9a 563d
00000090: 628f b1bd 1b9d 93bc 3522 96bc 31c8 ebbd
000000a0: 1122 913d 8644 6a3d 5fb9 12bd c8f2 bc3d
000000b0: 86fb 463d 8f2d 81bd ca1e b6bc f5bd a7bb
000000c0: 1105 903d 1eb6 7b3d 8cf6 4e3d e89f 82bd
000000d0: ca40 703d 159f d1bd ca0b f0bb 00e4 e53b
000000e0: 3de7 b73c e218 c039 8c71 27bb 8636 293d
000000f0: 8d59 5abd c28d f73d 463b 76bc b99d 3bbd
00000100: cd79 89bb 3d53 8abd d500 59bc eddd 2bbc
00000110: 28f5 a93b d098 ef3c 0e33 e0bd 462e b43c
00000120: 10ae 90bd 2c29 85bd f9df 19bd a937 79bd
00000130: 811e fb3d 5cf0 be3c bcae 04bd 1118 c63c
00000140: c02f a63d 7f67 d53c 161c afbd 8e97 a73d
00000150: e4f4 ed3d 2a6a 83bc c730 813c 73e3 c9bd
00000160: 89c0 59bd d13e b7bd bf17 183c 08f9 16bc
00000170: 2d33 093d a1be c13c e051 ccbb f6fb dd3c
00000180: a055 16bd 3844 8cbc 115f 60bc 44dd 9d3d
00000190: 9ef1 8d3d 03b6 61bd 19b6 183d 1a35 f43c
000001a0: 3e38 4f3a c57a 4c3d 5213 34bd ea9d 55bd
000001b0: fe7a 38bc 1675 633d 98de 83bd 51dd ccbc
000001c0: 707f 9a3c a748 7d3d d48f e2bd 46a4 943d
000001d0: bb71 783d 15d3 613d 7a48 3a3d 2716 b53c
000001e0: 9075 5f3c 0e80 71bd c418 1cbd 83da 0a3d
000001f0: b8d7 16ba 011f 24bd 65b0 ef3c 14f2 63bd
0.023239737 0.024883287 0.039988484 -0.0046074255 -0.036588717 -0.12479558 0.0099784825 0.011185551
0.010441592 -0.12062113 -0.04326939 -0.038815085 0.0673692 0.011609893 -0.08758631 0.008619638
0.034794576 0.0228872 0.10335968 -0.07529402 -0.026478257 0.012277871 -0.05595468 -0.01693581
-0.0062968656 0.0321447 -0.069186404 0.045198806 -0.06828695 0.042536303 0.007842095 -0.09841482
-0.07540866 0.07887796 -0.062561184 0.052393727 -0.08669926 -0.01801925 -0.018326858 -0.11512793
0.07086576 0.057194255 -0.035821315 0.09225994 0.048579715 -0.06307518 -0.022231478 -0.00511908
0.07032216 0.061452977 0.050528094 -0.06378156 0.058655538 -0.102354206 -0.007325624 0.007015705
0.02244913 0.00036639633 -0.0025549857 0.041311763 -0.05330806 0.12087585 -0.01502878 -0.045804713
-0.004195428 -0.06754158 -0.013244827 -0.010489923 0.0051866956 0.029247671 -0.10947238 0.021994721
-0.0706445 -0.065019935 -0.037567113 -0.060844097 0.122616775 0.023307972 -0.032393202 0.024181398
0.08114576 0.026050327 -0.08550279 0.08183204 0.11618975 -0.016041834 0.01577033 -0.098578356
-0.05316213 -0.08947528 0.009283005 -0.009214647 0.03349607 0.02365047 -0.006235346 0.027097683
-0.036702752 -0.017122373 -0.013694541 0.07708219 0.069308504 -0.05510522 0.037283037 0.029810477
0.0007904804 0.04992177 -0.043963738 -0.05215255 -0.011259792 0.055531584 -0.06438941 -0.025007876
0.018859595 0.061836865 -0.11062589 0.07257895 0.060655337 0.055132944 0.045479275 0.02210529
0.013638869 -0.058960013 -0.038109556 0.033899795 -0.00057541905 -0.04006863 0.029258916 -0.055650786

core.core.fc.0.0.weight f4 [128, 128]
00000000: 0806 78bd bd9e 77be 1107 a8bd 36bf 75bd
00000010: 21ae 973c a291 b9bc d8bc b13d 01b2 4dbd
00000020: 500c d9bc 97b5 e2bd 47d2 b93d 2151 26be
00000030: 6c85 9b3d c68d 6bbd 9627 1abe f244 43bc
00000040: 3c91 643d 8503 b3bd 41d8 b53d 8cda 003a
00000050: c8d5 14bd ab9d 153e 785c 93bd 1fdc e03d
00000060: 5842 7abd 75b9 3a3e 7d7a 74be f42d 9cbd
00000070: 1768 bbbc cd97 a7bd b354 31bd 635c 573d
00000080: f763 acbd b077 103e da4c aabd c703 8f3d
00000090: 2f57 443d 5f1b 8dbe 625a 603d b7ef 09bc
000000a0: 561e 933d 9c1c 56bd 8eec 0cbe 3413 f5bd
000000b0: eaca a1bd bb3d f2bc f08d 933d 2a7f 4ebd
000000c0: f5bc 75be b820 1a3d d1b7 b6bd ac31 99bd
000000d0: bce4 4cbe 4e66 b8bd 9bf9 473d aa55 423e
000000e0: 9087 c1bd 67b3 873e fc5b 15be a0b7 f7bb
000000f0: 4c4b b73d e076 b0bc dac4 e5bd 661e b9bd
00000100: 765e 32be 0000 f6bd 9103 683e e22b cf3c
00000110: efea 81bc 63c8 233e ac7e 113d 687c 013d
00000120: f3a2 993d 09b3 1abd f60a 393e b93c 9a3c
00000130: 89f1 e0bb 29fc be3d ffc9 a83c 7c24 cd3d
00000140: da22 ea3d 5bec 09be 224c 6e3e e132 5bbe
00000150: 674b 14be c396 86bc 6665 00be 4366 a0bd
00000160: 7cc7 a23d f33b 05be 2cd6 d43d 9166 813e
00000170: d5f3 133e 6426 753e 8c33 c2bc e943 b03c
00000180: 01ea fe3d 9236 9fbd e3dc 023d a94a a43d
00000190: 6287 2a3e a6cb b43d 0014 0b3d 4942 023e
000001a0: 57c5 663d 8940 b9bd cc67 2c3e 3244 b8bc
000001b0: b5b8 96bd e84f 36be 03ae 193e 6ef6 f7bd
000001c0: a037 26bd 66f2 9c3d acf2 57bc c27e 8ebe
000001d0: 3f85 533d 1a45 2dbe 1b2f 703d 52a3 d0bd
000001e0: 99b5 73bd cccc 493e 966f 0b3e 7105 8dbd
000001f0: a2cc b43d d487 bbbd dc26 243e 76b5 ab3d
00000200: ccdb 40be b2ac 31be c255 c13e 45e0 b63d
00000210: e34f 433e c792 33be cdc0 3fbd 6185 abbe
00000220: cb27 ac3d 9cf2 ddbd 3fd9 43bd 37d9 88be
00000230: adb9 a13e 416a 673e 2431 82be 8643 f93d
00000240: f8fd bd3e d9fd 623d abe6 37be 8daa bf3c
00000250: 8f1e 843e 2451 d53d 8b26 113e 46a1 f43d
00000260: 09c2 443e d90e 4f3e 7725 1d3e 859e 0f3e
00000270: a630 80be 66f3 ecbe b963 843d 7158 67be
00000280: 3a7f 41be 9507 ddbe 80b2 db3b e436 b2bd
00000290: a38f 1d3e 400e c3bc 67fb 0dbe ba5e 313d
000002a0: 3e78 c33d 743a 373e 274b 7bbd 3127 d5be
000002b0: 5239 043e 2e3d a13d faa1 3dbe d6b8 58bd
000002c0: aa7f f0be 85da 943e c3d5 8b3e ee7b 66be
000002d0: 927f 6e3c 8b4b 17be 1800 423e 7f8b 843d
000002e0: 5f11 b73c 42cd 53be 2eff 903e 0047 ad3e
000002f0: 5986 f5bd d57c b83d 9c18 11be 735f 853e
00000300: 7062 01be 418b 6f3b 4190 90bd 02fb 6d3d
00000310: 5556 483d 83f4 a9be af6e fd3d 7702 27bd
00000320: 5746 73be ae9e 043d d3e7 413d b979 33bd
00000330: b583 b33d 48f9 523e d7dc 553e c0f8 5fbd
00000340: 26ec 863c ee6f 803e 654e 973d f0b0 bdbe
00000350: 6c64 733e b21d 8b3e a3c0 313e 64c9 45be
00000360: daa5 a5be cc63 2b3e de96 38be a39f dcbe
00000370: ffad 63be c097 4f3e 949d dd3c 8a45 62bd
00000380: 09fb 983e d091 093d 6ba4 07be 4222 c43c
00000390: 83e7 f7bb 1e5d 4abe 9287 95bd 6cba 29be
000003a0: e763 09be 9e63 953b cd8c 1cbe 5b82 bb3e
000003b0: a201 873c 569e b4bd 672a d0bd 333a 2d3e
000003c0: e44f ddbe 048a 683c 2b5b f23d 88e0 80be
000003d0: 7c16 9ebd ed99 bc3d 557c 563e 642b 313e
000003e0: 3e42 e3bd f4ce 273e 170c 963e 4b34 23be
000003f0: 2a69 62be 32fa bcbe da80 473e 5230 353d
-0.060552627 -0.24181648 -0.08204473 -0.059996806 0.018515648 -0.022652451 0.08678597 -0.050218586
-0.026495129 -0.11069792 0.0907331 -0.16241886 0.075938076 -0.057508253 -0.15054163 -0.011918293
0.05580257 -0.08740906 0.08879138 0.00049153785 -0.03633669 0.14610927 -0.071953714 0.10979485
-0.061098427 0.18234809 -0.2387485 -0.07625952 -0.022876782 -0.081832506 -0.043293666 0.05257834
-0.08417504 0.14108157 -0.083154395 0.06983142 0.047934707 -0.27559945 0.054773696 -0.008418969
0.071835205 -0.052273378 -0.13762113 -0.11966553 -0.07900031 -0.029570451 0.07204807 -0.05041424
-0.23997863 0.03762886 -0.08921779 -0.07480177 -0.2000913 -0.09003888 0.048822027 0.18977991
-0.094496846 0.2650406 -0.1458587 -0.0075597316 0.089499086 -0.021541059 -0.11219187 -0.09039001
-0.17418846 -0.12011719 0.2265761 0.02528948 -0.015859095 0.1599441 0.035521194 0.031612784
0.07501783 -0.037768397 0.18070588 0.018827783 -0.0068647307 0.093254395 0.020604132 0.100167245
0.11432429 -0.13469069 0.2327123 -0.21406128 -0.14481889 -0.01642931 -0.1253868 -0.07832005
0.07948205 -0.1301115 0.103924125 0.25273564 0.14448483 0.23940426 -0.02370622 0.021516757
0.124469765 -0.0777408 0.031948935 0.08022053 0.16653207 0.08827905 0.03395462 0.12720598
0.05634054 -0.09045512 0.1683647 -0.022493456 -0.07359449 -0.1780392 0.15007786 -0.121075496
-0.040580392 0.07663421 -0.013180416 -0.27831084 0.051640745 -0.16920891 0.058638673 -0.10187401
-0.059499357 0.1970703 0.13616785 -0.068858035 0.08828093 -0.091567665 0.16030449 0.0838422
-0.18833846 -0.17351034 0.3776074 0.08929495 0.19073443 -0.1753646 -0.04681473 -0.33500198
0.084060274 -0.1083729 -0.047814604 -0.26728222 0.31586972 0.22599126 -0.25428116 0.12171082
0.37107825 0.05541787 -0.17959087 0.023396755 0.25804564 0.10415867 0.14174859 0.11944823
0.19214644 0.20220508 0.15346323 0.14025314 -0.25037116 -0.46279448 0.06464333 -0.22592331
-0.1889619 -0.43169847 0.0067046285 -0.08701876 0.15386824 -0.023810506 -0.13865434 0.04330323
0.09544419 0.17893392 -0.061350968 -0.41631463 0.12912491 0.07872997 -0.1851882 -0.05291065
-0.469724 0.29072967 0.27311525 -0.22508213 0.014556782 -0.14774911 0.18945348 0.06471919
0.02234715 -0.20683768 0.28319687 0.3384323 -0.119885154 0.09008185 -0.14169544 0.26049384
-0.12635207 0.0036551508 -0.07058764 0.058100708 0.048910458 -0.3319436 0.12374627 -0.040773835
-0.23757301 0.03237789 0.047340225 -0.043817256 0.087653555 0.20602906 0.20885025 -0.054680586
0.016470026 0.25085396 0.073879994 -0.37049055 0.23768777 0.27171093 0.17358641 -0.19315106
-0.32353097 0.16737288 -0.18026301 -0.43090543 -0.22234343 0.20272732 0.027052678 -0.0552421
0.29879025 0.033586323 -0.13246314 0.023942117 -0.00756544 -0.19762084 -0.073012486 -0.1657502
-0.13417016 0.0045589944 -0.15288086 0.3662289 0.01648027 -0.08819263 -0.101643376 0.16916732
-0.43225014 0.014193062 0.11833795 -0.25171304 -0.07719132 0.092090465 0.20945866 0.17301708
-0.11096619 0.1638754 0.293061 -0.15937917 -0.2211043 -0.36909634 0.19482747 0.044235535

core.core.fc.0.0.bias f4 [128]
00000000: 7a64 d83d c01b 2c3c 2966 393c 6f93 9cbc
00000010: cfd7 b83d fadc a73d 295c 2d3e c93a d03c
00000020: 3dc8 d6bb 164c 363e 9df9 1b3e 0157 02bd
00000030: 80d9 8cbd 7550 87bd 1760 84bd 619c 653e
00000040: 6e8c e6bd 72e5 b13c 4fc1 3c3e bcd4 483d
00000050: f2a9 7d3b 1860 b63d d859 413d 3aab 1b3e
00000060: 0556 1f3e 3e05 ecbd 2291 f53d f26c 1f3e
00000070: ff70 403d 36a4 093e 99ac 153e 0333 0a3e
00000080: a375 db3d 7e3f c23d 74e0 a73d 098a 003d
00000090: 6ee4 113d f125 633d 847e 0f3e 625b c93c
000000a0: 79a4 0b3e afdc a2bc dd2c 3c3c 32ba b03b
000000b0: 2720 8ebc 1afa a83c da41 0d3e ab8d 63bd
000000c0: a196 903d 2ee7 c33d 0d1e 033e d73b f03c
000000d0: 4c5f aabd b447 c23d c9ff 88bd 804d 343c
000000e0: ccb9 0abd 6520 3d3e b6fb 303d 62fb 253e
000000f0: 40f8 053e 0d32 3c3e c1b1 da3c 93ac 3b3e
00000100: f50b 9c3e 1036 013e 841c 123e 8ce4 383e
00000110: 9f88 153e 176e 283e 0282 003e 8be8 7c3e
00000120: 39e3 063e cefa c63d 1d16 fb3d 9338 ab3c
00000130: 0095 8e3d 6c23 76bd 762b 133d dac3 e23d
00000140: c9f1 38bb e5d2 eebc b21b e73d 0481 0e3e
00000150: 370b 9a3d 42c5 ec3d cf43 1f3e 5b21 c63d
00000160: 908c fb3d 6a49 543e a722 c93d c2a8 613d
00000170: 24a9 f0bb 15d7 383e d96b 543d 389a b03d
00000180: 8bab 003e 2b6b 723e fd93 303d 96f1 463d
00000190: aef3 853d 9687 06bd be75 953d 5c15 de3d
000001a0: 86fe 953d d063 513d cb39 4a3e 72cb d13d
000001b0: 7434 d83c 533f e23d b1e7 ecbc a316 75bb
000001c0: 6692 d5bd 72c5 b83d a0cd 4fbd b236 173b
000001d0: 3461 90bc 2204 163e 34c6 443d e1ff dd3d
000001e0: fbe6 813b f4e3 aabb 4324 0f3e d075 3b3e
000001f0: 17f2 a0bd 189a 913b c4b5 f3bb 4ff3 4e3d
0.105660394 0.010504663 0.011315861 -0.01911327 0.09025537 0.08196445 0.16929688 0.025418656
-0.006554632 0.17802462 0.15231939 -0.031821255 -0.06877422 -0.06607143 -0.0646364 0.22422935
-0.112572536 0.021715853 0.18433116 0.049031004 0.0038706032 0.08905047 0.047204822 0.15202036
0.15560158 -0.11524437 0.119905725 0.15568903 0.04698276 0.13441548 0.14616622 0.13496022
0.10715797 0.094847664 0.08197108 0.03138164 0.03561824 0.055456106 0.14013106 0.024579708
0.1363696 -0.01988062 0.011485306 0.00539329 -0.017349316 0.02062707 0.13794652 -0.055555027
0.0705998 0.095655784 0.12804432 0.029325409 -0.08318958 0.094863325 -0.06689412 0.011004806
-0.033868596 0.18469389 0.0432088 0.16209176 0.13082981 0.18378468 0.026696088 0.1832755
0.30477872 0.1261828 0.1426869 0.18055934 0.14602898 0.16448246 0.12549594 0.24698083
0.13172616 0.09715806 0.12260077 0.020901 0.06962013 -0.060092375 0.03593012 0.11072512
-0.0028220287 -0.029153297 0.11284579 0.13916403 0.0752167 0.115610614 0.1555321 0.09674331
0.122826695 0.2073113 0.098210625 0.05509258 -0.007344382 0.18050797 0.051860664 0.08623165
0.12565438 0.23673694 0.043109883 0.048570238 0.06540619 -0.03284415 0.07297848 0.10843918
0.07323937 0.05112058 0.19748609 0.10243882 0.0263922 0.110472344 -0.028919073 -0.0037397526
-0.10428314 0.09022035 -0.05073321 0.0023073372 -0.017624475 0.14650014 0.048040584 0.10839821
0.0039643026 -0.0052151624 0.13978676 0.1830666 -0.07858675 0.0044434182 -0.0074374396 0.050525006

core.core.fc.1.0.weight f4 [128, 128]
00000000: fecd 91bc 2486 0dbe d993 1ebe 362d 2bbe
00000010: ba82 c3bb 998b b73d c4fb 56bd ebd3 ddbd
00000020: 69bb 6b3d ab98 1cbe e40a c7be 0c0e ef3d
00000030: 4275 a1be dcd6 e0bd fb80 a73b eda0 c03d
00000040: a18a c5bd bc4e b53e faab f5bb 26ee 843e
00000050: bfe1 d53c 8bc9 3abe c90c 87bc e2e8 bebd
00000060: a099 afbe 93ee 4ebd 5e3c 78be 1681 01bd
00000070: f3e6 5e3e afae 8e3d 2153 d2bd 732c cebd
00000080: b168 38be a096 aabe bddc 863e a72b 87be
00000090: 8efe b2bd b8d3 863e 6564 c1bd b904 253d
000000a0: 0650 403e 1093 63bd 0948 6cbd 6c5f 4bbe
000000b0: 102b 573d d24b 03be 276b b83c a945 f0bd
000000c0: c3c0 a4be 1a47 193e 0af8 a1be 8b81 9ebe
000000d0: 4bdf 60be 3870 ca3d ac43 60be c032 a43c
000000e0: a5b7 0ebe d3b4 6bbd 28c0 94be 11b1 dcbd
000000f0: c807 1e3e cc97 303e b939 12be acf6 043e
00000100: 324b d23e 5133 c2bd 3e3c 59bc 23de 943e
00000110: d1a0 893e 50cc 603e 5723 15bd 4434 013d
00000120: 00e6 153e 034b 983d bcdd f03d ee2b 633e
00000130: ed21 adbe 2d87 87be 07c3 f6bd a743 2e3d
00000140: 027a bdbd 6a6e bd3e 5220 343e 71dd e83d
00000150: 2d1a e63d b90f b63e 1c75 6b3e a606 443d
00000160: c542 593e 7e1c 18bd 7179 153f 9453 aa3c
00000170: a6f7 4ebe defa 613e 240b 0cbe c64d 9ebe
00000180: d4fc af3c ff15 92be abc1 863c 3119 86be
00000190: d43d a63e 97a0 63bd 5b28 6a3e a68f efbd
000001a0: 2940 babe b4cd 2abe 4713 513e ea6d 193e
000001b0: 2473 26be 8e61 a73d 6b58 033e 2fec d03b
000001c0: d993 08be 16de dcbd 8281 efbd 3260 04be
000001d0: 7fc2 53be cedf dabd 7449 263d 8b14 3f3d
000001e0: f21e c3bd 61e4 64be 0c35 31be a1fc 033e
000001f0: 61b4 1ebc 6ab5 38be 6238 0abf bfbf 203e
00000200: c539 3cbd 55f6 f6bd cb60 23bb 22c2 d4bd
00000210: 751d 413d 4c82 b4be 056b d2bc 9fa0 91bd
00000220: 7d3a a43e 5db9 af3e 6bd5 0dbe 2ec9 0bbe
00000230: 1a31 a73e d043 31bc 545d a6bd 7ca1 3d3c
00000240: 3d06 eebd d842 0f3e da2b b73d 65d2 ccbd
00000250: d38e babe 53ad 113e e7de 273e 2942 4abd
00000260: 4b9c 393d 6e71 d83c 235a aa3e 7045 1abe
00000270: 5fdd f5bc f374 a73d 9f52 1ebe b2b0 b4be
00000280: 4663 003e d11e 99bd a44d 593c bba3 163e
00000290: 28f0 54be 192e 75be 0001 36bc 433e c33d
000002a0: 1612 41be 0fb6 e83c 5f05 083d 9b7f 8bbd
000002b0: 3757 48be ec3c 22bc f09a 24be 1b87 7d3e
000002c0: 52ca 393e e43d 50bc 631d 903e dc12 08bf
000002d0: 39b1 2e3e a801 073e 724e 1e3d 2fed 0bbd
000002e0: 09c7 c6bc d8c0 89bd 2e0c 4f3d 37ed 293e
000002f0: 46d9 babd 87de 673e 126a 42bd 981a 633e
00000300: 4239 a6bd b577 b63d bf05 0e3c 04a4 cfbe
00000310: ad4e 3abe 8709 793d 9315 6abd ab18 773e
00000320: 8b8d 9ebc 3d88 6d3d bac3 55be 6385 c93d
00000330: f739 6d3b 4add eabb 37b6 a5bd 900c 8f3e
00000340: 3dc2 d8bd d3e7 7c3d 1f7b 1e3c a971 b0be
00000350: 677e 183e 6dbc 25be 8d70 5b3d 81ae 943e
00000360: 220b 13be d59e 903b aa82 8a3e 62de c6bd
00000370: 53a1 53bd 78f8 dbbd a7f6 30be 3c41 663b
00000380: b694 b8be 3a2f 593e d55a 21be 7a8d 82bc
00000390: d3b9 03be 5346 35be f622 043e 1ee4 0c3e
000003a0: c744 3a3e 0c32 ac3e 8c4d 02bc e8cf 8ebe
000003b0: fcb1 d7bc 20c0 8dbd 561f 01bf d072 1cbe
000003c0: 75ee fe3d cce8 b23e 217d 8f3e 5653 a7bd
000003d0: 0295 f53c 809c 42bd 5123 f2bd 77ca 04be
000003e0: 0da4 22be b3c4 ce3d 904e 7cbc c5dc 23be
000003f0: 52c2 063e 7781 2c3d 43fd e1bd 772b 2c3d
-0.01779842 -0.13820702 -0.15486087 -0.16716465 -0.0059665116 0.08962173 -0.052486196 -0.10831436
0.057551775 -0.15292613 -0.38875496 0.11672601 -0.31534773 -0.10978481 0.005111811 0.09405694
-0.09645582 0.35411632 -0.007497308 0.25962943 0.02610862 -0.18240945 -0.016485589 -0.093217626
-0.34296894 -0.05052049 -0.24241778 -0.031617247 0.21767788 0.06966912 -0.10269762 -0.10067072
-0.18008687 -0.33318043 0.26340285 -0.26400492 -0.08739959 0.26333404 -0.09442977 0.040287707
0.18780527 -0.05556017 -0.057685886 -0.1986062 0.052531302 -0.12821892 0.022512032 -0.117320366
-0.32178316 0.1496853 -0.3163455 -0.30958208 -0.2196018 0.09884685 -0.21900815 0.02004373
-0.13937242 -0.057545494 -0.29052854 -0.1077596 0.15432656 0.17245406 -0.14279832 0.12984723
0.41072994 -0.09482444 -0.013258992 0.29075727 0.26880506 0.21952939 -0.036410656 0.031543985
0.1463852 0.07436182 0.117610425 0.22184727 -0.33814946 -0.26470318 -0.12048917 0.042544987
-0.09251787 0.36998302 0.17590454 0.113703616 0.112354614 0.3555887 0.22993892 0.047857903
0.21216877 -0.037136547 0.5838843 0.020791806 -0.20211658 0.22068354 -0.13676125 -0.3091871
0.021482863 -0.28532407 0.01644977 -0.26191095 0.32469046 -0.055573072 0.22866957 -0.11697321
-0.36377075 -0.16680032 0.2041751 0.14983335 -0.1625486 0.08172904 0.12826698 0.0063758115
-0.1333765 -0.10784547 -0.116946235 -0.1292732 -0.20679663 -0.106872186 0.040597394 0.04665045
-0.09527387 -0.22352745 -0.17305392 0.12889339 -0.00968656 -0.18037954 -0.53992283 0.15698145
-0.04595353 -0.12058703 -0.002492952 -0.103885904 0.047147233 -0.3525566 -0.025685797 -0.07110714
0.32075873 0.34321108 -0.13850944 -0.13650963 0.3265465 -0.01081939 -0.0812327 0.011574145
-0.116222836 0.13990343 0.08943911 -0.10001067 -0.3643709 0.14226274 0.16393624 -0.0493795
0.04531507 0.026421275 0.33271894 -0.15065551 -0.030012785 0.08176603 -0.15461205 -0.35291058
0.1253787 -0.07476581 0.01326314 0.14710896 -0.20794737 -0.23943366 -0.011108637 0.0953336
-0.18854555 0.028407125 0.033208247 -0.06811448 -0.1956452 -0.00990222 -0.16074729 0.2475857
0.18143585 -0.012710068 0.2814742 -0.5315378 0.17059793 0.13184226 0.03864903 -0.034161743
-0.02426483 -0.06726235 0.050548725 0.16594397 -0.09123473 0.22643481 -0.047464438 0.22178113
-0.0811639 0.08909551 0.008668362 -0.40554821 -0.18194075 0.0608001 -0.05714948 0.24130504
-0.019354602 0.057991255 -0.20875445 0.098398946 0.003619788 -0.007167493 -0.08091395 0.27939272
-0.10583923 0.061744522 0.009672909 -0.34461716 0.14891969 -0.1618516 0.053574134 0.29039386
-0.14359716 0.0044134655 0.27052814 -0.09710385 -0.051667523 -0.10740751 -0.1728159 0.0035134098
-0.36050957 0.21209422 -0.15757306 -0.015936602 -0.12863855 -0.17702608 0.12903962 0.13758895
0.18190299 0.33631933 -0.007953059 -0.27892995 -0.026329987 -0.069214106 -0.5043844 -0.15278172
0.12447826 0.34943235 0.28025153 -0.08170192 0.029978279 -0.04751253 -0.11823142 -0.12967859
-0.15882893 0.10096111 -0.01539959 -0.16002186 0.13160065 0.042115655 -0.11034634 0.04203364

core.core.fc.1.0.bias f4 [128]
00000000: 6269 983e fe74 e23d 7dc0 873e d65d 9dbd
00000010: d1b8 053e fa94 223d d872 80be 1253 5d3c
00000020: 062a 68be 7a35 13be 569d 873e 604d 2b3d
00000030: 1905 c3bd f1a1 353d 062b d9bc 2d23 353e
00000040: 9daf febb a59a bc3d 13f0 52be c761 fcbc
00000050: 9539 b43d 403b 9a3d b405 1cbe 3bb9 c6bd
00000060: b1e3 45bd 9ab4 09be 247f ea3d b5c6 a13d
00000070: 1945 853d d75f 13be 0ba8 b0bc 16e7 123e
00000080: c75d ca3d cca1 0a3e 6f5b 8bbe 78db 173e
00000090: 3cad c53d bcb4 2bbe d2fd b3bd d14d ef3d
000000a0: 2dbe 1fbd 1e9d 7d3e 44a5 a1be f5b7 793e
000000b0: ba77 d53e 2244 02be 9b46 8abc 6591 f43d
000000c0: 7edf 7bbd 2a93 31be 2b9a 303d be99 ba3d
000000d0: cf6a 333d c7ec c63d e8ca a33d 0e18 143e
000000e0: 55c7 36bd 5d06 fd3d 576f 123e 31fd 943d
000000f0: a62d 983e c353 20bb 8e37 76bc 1acd 25bd
00000100: e4fe 1b3e 3b75 323e eab1 983d ee8e e9bd
00000110: c46f c63d d029 243e 2c1e 543e edf8 6abe
00000120: a6cf 993e c751 003f 061f 30bd b491 023e
00000130: 22aa 173e ed25 d2bd 77b7 40bd 99f1 3f3e
00000140: d2a0 4a3e 88e6 54bd 49d7 29be 2fa4 2b3e
00000150: 17d2 5dbd 994b 923e bb0e 9abd a1ec f03c
00000160: d20f ef3d 6554 ec3d 37ef babd 466b 073e
00000170: b8dd 60bd d2e0 09be 34b4 53bd 3a07 4b3e
00000180: 2d15 493e de09 983d 4cd3 f13d c69e cb3c
00000190: c1d1 1ebe 9f9f 98be f273 8c3d 3458 063e
000001a0: 9874 c03d d307 933d def6 56be 0a71 c6bd
000001b0: 5194 0f3e 13e8 743e 7637 293e de8e d4bc
000001c0: 86ab a23e 4812 1a3e 8c21 6abd b039 b03d
000001d0: b67f 3f3e 04f1 063e c9d9 6bbe ff7c cd3d
000001e0: bc04 ca3d 230d 593e 6269 56be 1422 1e3e
000001f0: 76b6 afbc 92ff 9c3d 6363 723d 4423 193d
0.297679 0.11057471 0.26514044 -0.076839134 0.13058783 0.039692856 -0.2508762 0.013508575
-0.2267228 -0.14375868 0.26487225 0.041821837 -0.09522457 0.044343892 -0.026509773 0.176892
-0.0077723996 0.092091836 -0.20599394 -0.030808343 0.088000454 0.07530832 -0.1523655 -0.09703299
-0.048312847 -0.134478 0.114500314 0.078992285 0.0650732 -0.14392029 -0.021564504 0.14345965
0.09881168 0.13538283 -0.27218196 0.14829814 0.096521825 -0.16768163 -0.08788647 0.11684764
-0.038999725 0.24766967 -0.315714 0.2438658 0.41692907 -0.12721303 -0.01687937 0.11941794
-0.061492436 -0.17341295 0.043115776 0.09111355 0.043803032 0.097131304 0.07997686 0.14462301
-0.04462369 0.12354729 0.14300285 0.07274855 0.29722327 -0.0024463988 -0.015027894 -0.040478803
0.15233952 0.17427532 0.074558094 -0.11404215 0.09689286 0.16031575 0.20714635 -0.2294652
0.30041236 0.5012478 -0.042998336 0.12750894 0.14810994 -0.1026114 -0.047049966 0.18744506
0.1978791 -0.051977664 -0.16586031 0.1676185 -0.054155435 0.285733 -0.07522341 0.029409708
0.11672939 0.115395345 -0.09127658 0.13224515 -0.054898947 -0.13464668 -0.051685527 0.19826975
0.19636984 0.07423757 0.1180788 0.024855983 -0.15509702 -0.2980928 0.06858052 0.13119584
0.093972385 0.07179227 -0.2099261 -0.09689529 0.14021422 0.23916654 0.16525063 -0.02594703
0.31771487 0.15046036 -0.0571609 0.08604753 0.18701062 0.13177878 -0.23032297 0.10033607
0.09864184 0.21196418 -0.20938638 0.15442687 -0.021449309 0.07665934 0.059176814 0.037387148
