artifacts/poses_to_location/20250820142218/best_model.pt (torch, 17973 bytes, 18 tensors)

linear.bex_20230623_denoised.location.weight f4 [2, 63]
000000 a9 3d e7 bc 3e 4b 48 be 1a 96 86 3e df 40 75 bf
       -0.028227644 -0.19559953 0.26286393 -0.9580211
000010 48 7a 74 3f 4f 99 54 bf 13 37 da 3f f8 dc 5d bf
       0.95499086 -0.8304643 1.7048057 -0.86665297
000020 d7 cc 42 40 85 4e a7 be 86 68 2c be 92 65 ab bf
       3.0437524 -0.32677093 -0.16836748 -1.3390372
000030 94 bc cf bf 75 29 1f c0 8a 8b 54 3f 0d 3f ce bf
       -1.6229424 -2.4869053 0.8302542 -1.6112992
000040 3f 9d 35 40 0d f0 53 40 ad ce b4 3f bd 71 83 40
       2.8377225 3.3115265 1.4125572 4.107634
000050 2e d2 27 40 c7 5a 63 3e f9 3a 20 c0 bc 2b 69 bf
       2.6222034 0.22202598 -2.5035994 -0.9108236
000060 f4 9a 93 bf 9e 5e fe bf 9c 94 8f 3e b0 ac 1f c0
       -1.1531663 -1.9872625 0.28043067 -2.494915
000070 2d 6b bd 3f dd 31 6d 3f dd e4 7e 3e 98 e6 f9 3f
       1.4798332 0.9265421 0.24891992 1.9523497
000080 79 15 07 40 5a 2a 34 be ab 3f d5 bd 1c e6 43 3f
       2.1106856 -0.17594281 -0.10412534 0.76522994
000090 85 91 3e 40 0d 88 36 bf d2 8b 2d 3f ae e6 2a 3f
       2.9776318 -0.71301347 0.67791474 0.6675824
0000a0 0e bd 02 40 69 a3 19 bf f5 16 c6 bf 11 5d 5e 40
       2.042789 -0.6001497 -1.5475756 3.4744303
0000b0 b3 d4 86 3f d3 36 76 3f cb 6b 43 bf d1 39 ce 3f
       1.0533661 0.96177405 -0.76336354 1.6111394
0000c0 e3 5e 3c 40 17 21 05 bf da c9 91 3f 2d 01 15 bf
       2.9432914 -0.52003616 1.1389725 -0.5820492
0000d0 de 65 f0 3f cd fe 08 40 d5 d3 09 c0 c9 fd 59 c0
       1.8781087 2.1405518 -2.1535542 -3.4061148
0000e0 30 b3 37 40 6e 5c be 3f c9 fb 8a be dd d9 93 c0
       2.8703117 1.4871957 -0.27145222 -4.6203446
0000f0 94 50 2e c0 5b 19 0c 40 a4 95 9b c0 33 ec 1c bd
       -2.723668 2.1890476 -4.8620167 -0.038311195
000100 9e 4b f4 3d a7 3b 56 bf 74 64 78 3e 12 55 a7 3f
       0.11928485 -0.8368477 0.2425707 1.3072836
000110 75 2a 23 bf cf cd e9 be 3f b7 c7 be eb d0 dd 3e
       -0.6373666 -0.45664832 -0.39006993 0.43323454
000120 9c f2 7d 3e e8 88 43 be e1 25 69 bf 73 58 03 c0
       0.2479958 -0.19095194 -0.91073424 -2.0522735
000130 18 53 a1 3f e0 a4 94 3f 9b 11 92 bf f7 80 b0 3e
       1.2603483 1.1612816 -1.1411623 0.34473392
000140 d6 8e 9a bf 08 e7 1d 3f ed ea 3e 40 14 83 95 3e
       -1.207484 0.6168065 2.9830887 0.29201567
000150 7b ca 04 c0 52 d3 ed 3e 7e b5 bf 3f d0 a2 0c 3f
       -2.0748584 0.46450287 1.4977262 0.5493593
000160 3e d1 90 3e 58 b6 ea 3f 30 fb 48 bf aa 42 d3 3f
       0.2828464 1.8336897 -0.7850828 1.6504719
000170 ce 30 b3 bf a5 f4 95 3f 27 46 35 bf 62 41 4f be
       -1.3999269 1.1715285 -0.7081017 -0.20239785
000180 df e8 88 3f d9 7f 06 3f d9 96 97 bf 08 00 71 3e
       1.0696067 0.5253883 -1.184291 0.23535168
000190 1b b4 59 bf c4 e4 85 3e ce 09 2e 40 bd 43 0d 40
       -0.85040444 0.26151097 2.7193484 2.2072594
0001a0 b7 37 5b 40 65 9d 21 3f e0 98 bf bf c5 fe 52 c0
       3.4252756 0.6313079 -1.4968529 -3.2968
0001b0 ee d3 1f c0 33 06 6d c0 8c 49 32 40 c6 16 1b 40
       -2.4973102 -3.7035034 2.785739 2.423265
0001c0 bb 7a 82 3f a0 e0 09 40 fa 54 8c 40 b9 af 33 bf
       1.0193704 2.154335 4.385373 -0.70190006
0001d0 28 47 c5 c0 cd 7c 9a be e5 a6 34 40 a2 23 c1 40
       -6.164936 -0.3017334 2.8226864 6.0355997
0001e0 6e 16 52 40 a0 fa b3 bf a8 41 11 c1 db f4 c8 40
       3.282619 -1.406086 -9.078529 6.2798896
0001f0 f0 ee d1 3d 37 14 b1 c0
       0.10250652 -5.5337176

linear.bex_20230623_denoised.location.bias f4 [2]
000000 8a 08 a2 bd 6c 10 ad 3d
       -0.07911785 0.08450398

linear.ken_20230614_denoised.location.weight f4 [2, 63]
000000 f5 9c 84 bc 2d cd 46 be 26 a3 15 3e ee 9d 94 3d
       -0.016188124 -0.19414206 0.14613017 0.07256685
000010 30 78 40 3e 00 be c7 bd 90 85 81 bf 5e 84 c5 3d
       0.18795848 -0.097530365 -1.0118885 0.09644388
000020 45 dd dc 3c 85 17 0f bf 11 80 e5 be 2f 41 9d 3f
       0.026960978 -0.5589526 -0.4482427 1.2285517
000030 84 ec fa 3d 35 f8 23 bf fc 4b 37 c0 59 63 ce 3e
       0.12252143 -0.6405061 -2.8640127 0.4031017
000040 2b e0 cc bf fb 76 86 3f aa 8d fe be ec bf a9 3e
       -1.6005911 1.050506 -0.49717456 0.33154237
000050 f9 81 88 3e 92 07 1e 3e c6 29 7b 3f 11 fd 95 3e
       0.2666166 0.15432575 0.98110616 0.29294637
000060 1f dc c2 be b7 4a 05 3f 49 98 93 be 44 2a 00 3e
       -0.38058564 0.5206713 -0.28827122 0.12516123
000070 3a 73 96 bf 13 5f 23 3f 71 a7 1e 3f df 7e 61 be
       -1.1753914 0.63816947 0.61974245 -0.22021054
000080 0a f5 0b bf 2a c6 38 3e fd bd d2 be b6 e6 a7 bf
       -0.54670775 0.18044344 -0.41160575 -1.3117282
000090 65 4f 83 3e bb 20 a3 3f 5e f0 e6 3f 7f aa 30 bf
       0.2564651 1.2744364 1.8042104 -0.69010156
0000a0 9a 84 e4 bf aa 2a a3 bf e6 b3 47 bf 6a 50 8f 3d
       -1.7852967 -1.2747395 -0.7800888 0.0699776
0000b0 b0 64 16 bf c5 59 c1 3f 6f 33 48 40 6e 8f e3 3e
       -0.58747387 1.510552 3.1281393 0.44445366
0000c0 a7 1e bf 3f 24 19 82 3f 54 10 17 40 9c ad 79 3e
       1.4931229 1.0163922 2.3603716 0.24382633
0000d0 05 ac 22 bd c2 bd 3d 40 f0 6e 03 bf 43 f4 95 c0
       -0.03971483 2.964707 -0.5134115 -4.686067
0000e0 09 a8 15 40 d3 31 f3 bf 6a 0d 33 40 1f 33 29 c0
       2.338381 -1.899958 2.7976937 -2.6437452
0000f0 11 1f b4 40 af 9f 0b be 4a ee 77 3f 70 8f 43 bd
       5.6287923 -0.13635133 0.96847975 -0.047744215
000100 4c 8e 0d bd 2e 1a 9c be 77 5e c4 bc c1 a5 c1 be
       -0.034559533 -0.30488724 -0.023970826 -0.37821773
000110 7a 86 49 3f 5b 8c c1 3f b7 84 99 bf 17 ac dd 3e
       0.7872082 1.5120958 -1.1993626 0.43295357
000120 24 c8 ae 3f 67 71 d6 bf 14 c6 b2 3f f7 a8 59 bd
       1.3654828 -1.6753358 1.3966699 -0.053139653
000130 0b a5 98 be 9e 34 ad bf 74 45 e7 3f 70 8f 4c bf
       -0.29813418 -1.3531682 1.806807 -0.7990637
000140 cf d5 8b 3f 58 1b cf 3f a8 32 a1 3f b2 bc 61 40
       1.0924624 1.618022 1.2593584 3.527142
000150 c6 d3 b8 3f 3c 30 ba bd dd 27 8e 3f cb 64 8f 3e
       1.4439628 -0.09091231 1.1105915 0.28006586
000160 e6 04 26 40 64 5f 9e 3e 05 60 a6 bf a2 ea 43 c0
       2.594049 0.30932152 -1.2998053 -3.0611959
000170 72 02 17 40 4f 8a 7a 3f 94 2d 31 c0 f0 bc 00 c0
       2.3595243 0.9786729 -2.7684069 -2.0115318
000180 21 45 de bf de e9 49 bb c9 c2 5e be a4 b1 f6 3d
       -1.7364846 -0.0030809562 -0.21753992 0.12045601
000190 4b b3 78 bf c1 58 e2 3f de 02 97 bf 8f 38 27 bf
       -0.9714858 1.7683336 -1.179775 -0.65320677
0001a0 fa 81 48 c0 44 8f 34 bf bd 77 7e be 84 13 06 c0
       -3.1329331 -0.70531106 -0.24850364 -2.0949411
0001b0 8a 25 42 c0 ae 02 31 c0 b9 71 a0 3f f6 cd 7b c0
       -3.0335412 -2.7657886 1.2534705 -3.9344459
0001c0 39 00 e8 be ad 11 41 40 f8 cb af bf 22 6c be 3f
       -0.4531267 3.0167038 -1.3734121 1.487675
0001d0 a0 14 95 40 31 89 dd bf 04 05 af be 15 e9 89 3f
       4.6587677 -1.7307492 -0.34183514 1.0774256
0001e0 75 7f a1 bd 6b b0 e5 40 49 89 0a 41 97 20 1e c1
       -0.078856386 7.1777854 8.658517 -9.8829565
0001f0 05 79 73 c0 ba e8 50 3f
       -3.8042614 0.8160511

linear.ken_20230614_denoised.location.bias f4 [2]
000000 8b cb e5 3d 26 14 5f 3d
       0.11220463 0.054462574

linear.ken_20230618_denoised.location.weight f4 [2, 63]
000000 82 42 4a bd db 43 3d be e9 dc 2b be dc d5 96 bf
       -0.049379833 -0.18482916 -0.1678349 -1.1784015
000010 c7 02 72 be c4 7d 0e 3f 73 07 e0 3f d3 70 32 3e
       -0.23633872 0.55660653 1.7502273 0.17425852
000020 03 d7 01 40 41 60 cb be 0a ae b7 bf e0 23 76 c0
       2.0287483 -0.39721873 -1.4349988 -3.8459396
000030 5a 81 20 c0 15 3b ef 3e a3 bc a6 3f 2b ee 10 3f
       -2.507895 0.46724764 1.3026317 0.56613415
000040 1f e3 72 3f e2 dc e3 be 12 f5 09 bf 79 8a 3c 3f
       0.9487781 -0.44504458 -0.5388957 0.7364879
000050 72 a1 15 bf 0f 8b 4b bf 06 ff 05 3e 84 8b bc be
       -0.5844947 -0.7950906 0.13085565 -0.36825192
000060 76 45 10 3f 31 6b ac 3a b2 41 ac 3e 1d 11 a1 bf
       0.5635599 0.0013154504 0.33643872 -1.2583348
000070 0a 07 06 3f 29 cf 9d 3e 28 12 25 c0 61 50 07 3f
       0.5235449 0.30822113 -2.5792332 0.52857023
000080 14 5d 03 3e 04 8e ee 3f 10 75 12 40 47 9a 91 3e
       0.12828475 1.863709 2.288395 0.28438017
000090 b5 99 d8 3d d1 4f 68 bf 97 cb e7 bf ab 7a 23 c0
       0.10576192 -0.9074679 -1.8109006 -2.554362
0000a0 36 21 05 c0 4a 3d 19 bf 40 e0 c4 bf 1f ea 1a 40
       -2.080152 -0.59859145 -1.5380936 2.4205396
0000b0 ff 1b 11 40 91 8b b3 be d6 1c 8a bf 04 e7 87 3f
       2.2673337 -0.35067418 -1.079005 1.0617375
0000c0 5e 58 d8 3f 36 68 9f 3f d6 39 c4 3e aa 3d 16 c0
       1.6901968 1.2453678 0.38325375 -2.3475137
0000d0 66 f1 49 3e 6d 81 2b c0 d8 ed ef 3f a4 4f 88 c0
       0.19720992 -2.6797745 1.8744459 -4.2597218
0000e0 38 04 bb 3e 75 5d 35 40 27 6d 58 40 de 25 10 c1
       0.36526656 2.8338292 3.3816621 -9.009245
0000f0 ee 7f 9f be 72 8c 63 c0 a5 65 8f bf 9a 74 37 be
       -0.3115229 -3.555447 -1.1202894 -0.17915574
000100 c0 fa 03 3e 98 d5 eb bd f0 ae 98 bf f5 a7 c2 3f
       0.12888622 -0.11515349 -1.1928387 1.5207506
000110 cd 4a 6d 3e b2 ed 21 bf 50 1b fb 3f 8b 5a 2e 3f
       0.23173065 -0.6325332 1.961771 0.6810691
000120 ee ad f3 be c2 bb 24 c0 6b e7 03 c0 cc eb ea bd
       -0.47593635 -2.5739598 -2.0609996 -0.11470756
000130 99 5c 62 3e 35 6a b6 be 22 47 99 bf 7d 6b 07 3f
       0.22105636 -0.35627905 -1.1974833 0.5289839
000140 bf 1d 64 bf e9 1f 0d 3f a8 44 f0 be c4 8a ba bf
       -0.8910789 0.55126816 -0.4692738 -1.4573598
000150 a1 08 af bf cc 80 fb 3e a2 48 b5 3e 94 8a 84 c0
       -1.3674508 0.49121702 0.35406977 -4.1419163
000160 aa 7f 5b bf a8 6f 39 3f e3 c4 e9 bf 0c cc 04 c0
       -0.85741675 0.72436 -1.826321 -2.074954
000170 81 f8 50 c0 85 de e4 bf b7 c2 38 bf b6 35 93 bf
       -3.2651675 -1.7880408 -0.7217211 -1.1500766
000180 8a af 2a c0 0f 49 d1 3f 8d 82 fa 3f 7b ab 87 bf
       -2.666964 1.6350421 1.9571091 -1.0599207
000190 2e a9 57 bf 45 5d d6 bf 0b d3 dd bf cd db ad c0
       -0.8424252 -1.6747214 -1.733003 -5.433081
0001a0 2c 77 89 bf d6 03 29 c0 2f eb bc 40 38 cc 93 40
       -1.0739493 -2.6408591 5.903709 4.618679
0001b0 5a 92 7a 40 e2 80 a0 c0 44 4f 10 c0 b7 5b 8c 3d
       3.9151826 -5.015733 -2.254838 0.06853431
0001c0 99 24 94 bf 67 68 2e 3e 6a ac 83 c0 7f 9f 60 40
       -1.1573669 0.17032014 -4.1147966 3.5097349
0001d0 c0 d7 e6 3d 35 94 38 40 db c1 22 c0 7c 7f 97 c0
       0.1127162 2.8840458 -2.543082 -4.734312
0001e0 b6 0f 61 bf d4 2c fe 40 eb c1 09 41 38 9b 86 3f
       -0.879146 7.942972 8.609843 1.0516119
0001f0 19 08 90 40 a5 6c b1 40
       4.5009885 5.5445123

linear.ken_20230618_denoised.location.bias f4 [2]
000000 98 82 49 3c d6 96 c6 3d
       0.012299202 0.096967384

exp_avg f4 [2, 63]
000000 02 7a 8d 3d c2 02 03 3d 6a 4a 83 3b 01 c0 86 b9
       0.06908037 0.031985052 0.0040066736 -0.00025701526
000010 7c 6f 78 39 e9 53 05 ba 7b 54 19 ba 86 40 5d ba
       0.00023692654 -0.0005086051 -0.00058490754 -0.00084400957
000020 b8 e9 59 ba de c1 de ba 0c 3e 10 3b d4 17 03 ba
       -0.000831272 -0.0016995033 0.002200964 -0.0005000804
000030 50 40 2f ba ba ce e8 b8 4a dd 7c 3a 20 e5 7e b8
       -0.00066853035 -0.00011101128 0.0009646012 -6.077171e-05
000040 c6 ea 96 39 9e c9 ff b9 11 a7 9e 39 3e 55 90 38
       0.0002878515 -0.00048787607 0.00030260583 6.882333e-05
000050 f0 7d ff b9 03 3e a8 3a 5b 10 9c 3a 98 47 e6 b8
       -0.0004873122 0.0012835864 0.001190673 -0.0001098059
000060 6f 21 2e ba 53 7a 98 b9 18 31 1c 38 da 1f af 39
       -0.0006642555 -0.00029082838 3.723902e-05 0.00033402332
000070 ac 40 60 b9 3c 0d 6c b9 6e 22 e5 38 dc f8 8b ba
       -0.00021386397 -0.00022511644 0.00010925984 -0.0010679024
000080 b6 31 3a b9 4e 4c 64 ba 19 ba 1f 3a bc ad 4b 3a
       -0.00017756861 -0.000870888 0.00060930994 0.0007769724
000090 a2 94 00 ba 53 ce 97 3a 0e 45 b2 b9 72 2f 72 39
       -0.00049049605 0.0011581875 -0.00034002255 0.00023096593
0000a0 17 b8 2e b9 c6 c5 36 3a 67 f5 df 39 34 02 7a ba
       -0.00016662512 0.00069722196 0.00042716714 -0.00095370715
0000b0 be e6 0e 3a 0d 3a 8d 3a 90 5e 98 b7 98 21 c0 b9
       0.00054512534 0.0010774747 -1.8163846e-05 -0.00036646123
0000c0 78 e8 b7 b7 d8 71 38 3a 3b d3 20 b9 9e a4 ca b9
       -2.1923552e-05 0.0007036007 -0.00015337479 -0.00038651092
0000d0 7a 94 a4 b9 e9 5e fe 39 98 40 40 39 4b 89 b7 b8
       -0.0003139114 0.0004851737 0.0001833461 -8.751693e-05
0000e0 10 ae 0e b9 74 0d e3 b8 4a 4f 48 b8 10 ce a9 38
       -0.00013607019 -0.00010826709 -4.775756e-05 8.09693e-05
0000f0 ea 52 88 b8 42 58 85 39 18 97 46 39 70 99 fc bb
       -6.500429e-05 0.00025433494 0.00018939038 -0.007708721
000100 d8 be b2 ba 80 b4 32 39 24 ba d4 3a fd 89 a2 39
       -0.0013637198 0.00017042644 0.0016229791 0.00031001857
000110 b7 37 1b 3a 28 5b 80 38 10 87 3d b8 e2 10 0e 3a
       0.0005921083 6.120495e-05 -4.51869e-05 0.0005419386
000120 f4 76 1a 3a 81 ff 92 ba be be 95 39 8a fd 3b b9
       0.0005892359 -0.0011215062 0.0002856161 -0.0001792816
000130 5f bf 33 39 30 e6 d9 b8 47 cf 10 3b 0c e2 b4 b9
       0.00017142062 -0.00010390242 0.0022096203 -0.00034500693
000140 44 88 5a b9 cc c6 57 ba 8c 59 93 b9 45 0a 2a b8
       -0.00020840863 -0.0008231222 -0.00028104743 -4.0540723e-05
000150 80 c1 a6 b9 61 e0 6c ba d8 29 3f b9 3e 88 33 b9
       -0.00031806156 -0.00090361206 -0.00018230767 -0.00017121524
000160 c8 3d d5 37 81 1b b5 39 8d e8 a7 38 f8 cd f9 b8
       2.5420348e-05 0.00034543502 8.0064965e-05 -0.0001191161
000170 82 37 02 3a cf 69 8d b9 f8 99 4e 3a 3c eb 4f 39
       0.0004967378 -0.0002697245 0.00078812195 0.0001982869
000180 10 e5 82 b9 86 8d 56 ba e8 8e fb b9 df 2b 00 3a
       -0.00024966197 -0.0008184541 -0.00047980924 0.000488935
000190 3c 36 ad ba ec 9f f2 38 e5 64 88 ba c7 30 a8 b9
       -0.0013215016 0.00011569247 -0.0010406045 -0.000320798
0001a0 6e e1 3c b9 80 45 e9 36 00 a4 14 3a b4 af 9b b9
       -0.00018013056 6.952032e-06 0.000567019 -0.00029694813
0001b0 33 53 12 ba 94 19 e8 38 c0 15 58 38 40 76 c1 b6
       -0.00055818557 0.000110673864 5.151867e-05 -5.7656143e-06
0001c0 d6 68 a4 b9 24 c1 01 37 42 91 80 b8 52 8c 04 b9
       -0.00031358626 7.733968e-06 -6.130572e-05 -0.00012640774
0001d0 bd 61 f7 39 62 53 39 b9 03 35 85 b9 7e d3 17 39
       0.00047184332 -0.00017674037 -0.00025407234 0.00014479269
0001e0 a6 d9 14 38 aa f8 f0 38 05 7e b1 39 48 6b b5 b8
       3.548865e-05 0.00011490409 0.00033853963 -8.650735e-05
0001f0 a6 7f b8 b8 d7 f9 13 38
       -8.79758e-05 3.5280213e-05

exp_avg_sq f4 [2, 63]
000000 35 03 c9 3d e6 fe a0 3c 7e 45 a1 39 5f 24 0d 39
       0.09815065 0.019652795 0.0003076009 0.00013460357
000010 00 b4 a8 37 ba 7f df 37 21 63 20 37 06 7e 88 37
       2.011098e-05 2.6643149e-05 9.559823e-06 1.6271148e-05
000020 4d b6 4c 37 2d bf b2 38 db 8a bf 38 de 15 d7 36
       1.2201793e-05 8.523311e-05 9.1334536e-05 6.410045e-06
000030 cf cc 6c 37 f7 d5 c1 36 87 0f cc 37 fb 63 53 38
       1.4114382e-05 5.776757e-06 2.4325926e-05 5.0399434e-05
000040 cf ee a6 37 ec 35 cd 36 1d c4 a5 37 21 e1 6a 36
       1.9899946e-05 6.1157534e-06 1.9760855e-05 3.499976e-06
000050 89 01 9f 36 47 5a 53 38 3e 4d 09 38 4e 1d 7a 36
       4.738748e-06 5.0390398e-05 3.2735283e-05 3.726996e-06
000060 93 7c 2a 37 46 c2 af 36 5b 03 96 36 46 89 a3 36
       1.0161794e-05 5.238023e-06 4.470739e-06 4.8737593e-06
000070 2c d4 6d 36 bb c9 99 36 ec 9f fc 36 9b 92 bc 37
       3.5439252e-06 4.58324e-06 7.5288026e-06 2.2479615e-05
000080 98 79 05 37 86 18 2a 37 69 7f 29 38 a2 20 08 38
       7.9557285e-06 1.0138499e-05 4.04114e-05 3.245532e-05
000090 6e 27 3c 37 b2 8f 73 38 94 8e a0 36 00 6a 53 38
       1.1214854e-05 5.806954e-05 4.78497e-06 5.040504e-05
0000a0 b4 1c f4 36 4a a8 1c 37 d0 a7 71 36 0d 34 6f 37
       7.275108e-06 9.337507e-06 3.6009478e-06 1.4257629e-05
0000b0 bd 95 09 38 66 c3 c0 37 6f 16 00 36 76 cd c4 36
       3.28028e-05 2.2979173e-05 1.9086544e-06 5.865174e-06
0000c0 80 5f 2b 36 b1 7a 4d 37 58 08 c5 35 2c 56 82 36
       2.5536574e-06 1.22475185e-05 1.4680072e-06 3.8843336e-06
0000d0 fb 32 2a 36 24 ab e7 36 73 ce 5c 35 29 c8 1a 36
       2.5361649e-06 6.90426e-06 8.225681e-07 2.3064297e-06
0000e0 9a c1 01 36 da f1 b3 35 9b 0a d5 35 9a 2d 04 35
       1.933519e-06 1.3406927e-06 1.5872823e-06 4.924019e-07
0000f0 2a 6e 08 34 b1 c3 a8 35 5e 15 1a 35 0f ee d4 3d
       1.2706064e-07 1.2573929e-06 5.7400564e-07 0.103969686
000100 04 c6 b1 3c 3a aa ae 39 69 23 21 39 15 b0 e3 37
       0.021700867 0.00033314695 0.00015367348 2.7142503e-05
000110 50 4d cf 37 0e fd 11 37 f0 a2 de 37 fb 08 8c 37
       2.4712324e-05 8.701592e-06 2.6540336e-05 1.6693482e-05
000120 30 b9 ad 38 cc 85 dc 38 78 17 08 37 75 85 7c 37
       8.283777e-05 0.00010515339 8.111696e-06 1.5051443e-05
000130 68 a0 ba 36 d7 5c bd 37 cd 50 b9 38 be e5 b3 37
       5.5619057e-06 2.2573788e-05 8.836538e-05 2.1445445e-05
000140 75 74 00 37 83 8c 16 38 4c d2 a3 36 2c 3c c2 36
       7.656509e-06 3.589365e-05 4.8822603e-06 5.7886555e-06
000150 ca 17 91 38 e5 a4 1f 38 3f b9 a4 36 fe 24 16 37
       6.91857e-05 3.8062124e-05 4.9091464e-06 8.94931e-06
000160 c1 55 bd 36 e4 90 d3 36 3a aa 00 37 f7 b6 78 36
       5.642622e-06 6.3051575e-06 7.6690285e-06 3.706138e-06
000170 66 48 02 37 15 f2 2a 37 80 0d d3 37 63 f3 b5 36
       7.76546e-06 1.0189154e-05 2.5159447e-05 5.4225543e-06
000180 94 c0 14 37 b2 5f 57 38 53 9c 14 38 81 0c 56 37
       8.8663255e-06 5.1349118e-05 3.5431538e-05 1.2758305e-05
000190 ee 5e 9e 38 11 c0 89 36 c9 1c 87 38 1b 9b 0a 37
       7.551709e-05 4.1052776e-06 6.442663e-05 8.261554e-06
0001a0 bf ff 28 37 c6 c6 a6 36 99 24 7d 37 14 d2 47 38
       1.0073126e-05 4.970326e-06 1.5088496e-05 4.7640948e-05
0001b0 fa 2a c5 37 b3 46 d4 35 a8 d5 f6 36 5e 67 6e 36
       2.3504243e-05 1.5815807e-06 7.356244e-06 3.5524931e-06
0001c0 0f db 60 37 46 9a f3 35 44 10 85 36 33 73 12 36
       1.3402444e-05 1.814981e-06 3.9656024e-06 2.182275e-06
0001d0 86 2e d3 36 c3 df 13 36 7a 24 9f 36 eb 0c 0d 36
       6.293706e-06 2.2034953e-06 4.7428157e-06 2.1018157e-06
0001e0 8e c5 fa 35 6e 4f 23 36 15 70 74 35 e3 1b 4a 34
       1.8683947e-06 2.4335127e-06 9.1060184e-07 1.8822861e-07
0001f0 13 a5 8c 35 b4 4b 30 35
       1.0478856e-06 6.567527e-07

exp_avg f4 [2]
000000 e0 e4 d3 bb a4 37 1a 3a
       -0.006466493 0.0005882925

exp_avg_sq f4 [2]
000000 da cd 5b 3a 68 e2 68 3a
       0.0008384861 0.0008883835

exp_avg f4 [2, 63]
000000 57 e6 b9 bc 66 43 69 bc 82 9d e6 ba 36 57 2e ba
       -0.022692842 -0.01423726 -0.0017594548 -0.00066505687
000010 94 65 56 3a 64 38 71 39 fb 7d af b9 ae f4 81 ba
       0.00081785885 0.00023004558 -0.00033472464 -0.0009914839
000020 58 81 ff b9 cf 10 84 b9 cd 40 17 3a 20 a8 82 38
       -0.0004873376 -0.00025189525 0.0005769849 6.230199e-05
000030 b4 26 89 39 b2 e0 b8 39 70 ff 0f 3a d6 ec 2d 39
       0.00026159512 0.00035262626 0.000549308 0.00016586794
000040 ac df e2 b8 61 2a dc b8 d0 43 5a b8 80 9d 01 38
       -0.00010818182 -0.00010498311 -5.2038406e-05 3.090268e-05
000050 c1 e5 0a 39 e0 5b b1 36 55 11 52 b9 9a 94 89 38
       0.00013246296 5.2857067e-06 -0.00020033617 6.560348e-05
000060 26 9e 88 39 66 ff 82 39 7d e8 aa b9 08 33 54 38
       0.0002605777 0.0002498582 -0.00032598144 5.0592265e-05
000070 d0 aa 26 38 40 f5 5f 38 64 4c 4d b9 e0 01 bb b7
       3.9736566e-05 5.339575e-05 -0.00019578781 -2.229301e-05
000080 90 c1 8e 38 f6 c5 8c b9 84 2b 42 38 c0 fe ff b8
       6.8071415e-05 -0.00026850373 4.629373e-05 -0.000122067984
000090 58 37 bb 37 ae 35 e7 b8 ca 93 58 b9 80 24 37 b7
       2.2317909e-05 -0.00011024937 -0.00020654421 -1.0916148e-05
0000a0 a0 1d 12 38 34 3e a3 b9 3c f0 bd b8 a0 a5 05 b9
       3.4836703e-05 -0.00031136128 -9.0569694e-05 -0.00012745569
0000b0 04 71 38 38 b0 0e 7c b8 4c 63 aa b7 04 ee 59 b9
       4.3974273e-05 -6.009516e-05 -2.0311818e-05 -0.000207834
0000c0 a7 95 d4 b9 90 5d eb b8 8e eb 3f b8 80 a8 9e b6
       -0.0004054729 -0.000112231006 -4.5757326e-05 -4.728383e-06
0000d0 ba 30 28 39 6e 20 10 b9 84 90 8e b9 62 56 63 38
       0.0001603988 -0.00013744991 -0.00027192023 5.4201468e-05
0000e0 54 7d 36 38 57 d8 1d b8 89 87 77 38 40 0a c6 38
       4.3508902e-05 -3.76332e-05 5.9015616e-05 9.443285e-05
0000f0 86 51 8f b7 a2 94 a1 b8 68 82 12 b8 33 95 2d 3c
       -1.708489e-05 -7.704763e-05 -3.4930563e-05 0.010594654
000100 25 d3 c2 3b 82 01 45 3a c8 c3 38 b9 20 79 65 ba
       0.0059455805 0.00075151783 -0.00017620542 -0.0008753706
000110 6d 2f 0e b9 a2 81 18 b9 c4 65 1e 3a 4c f7 02 39
       -0.00013559843 -0.00014544142 0.0006042386 0.00012489891
000120 30 17 7d 37 12 e0 8a b9 14 9b 11 ba 3a dc e5 38
       1.5085374e-05 -0.00026488357 -0.00055544195 0.00010960591
000130 04 05 23 b9 68 61 a2 b7 5c cd 32 39 2c 6f 41 39
       -0.0001554676 -1.9357263e-05 0.00017051905 0.00018447329
000140 80 de 53 b6 74 3f 52 39 64 af 29 38 cf 8c d3 38
       -3.1570962e-06 0.00020050799 4.0456085e-05 0.00010087492
000150 4a 1c 64 b9 06 53 06 b9 de c8 5b b9 da 83 56 39
       -0.00021754313 -0.00012810164 -0.00020960296 0.00020457749
000160 ce d9 c4 38 25 fd 97 b8 60 0e 2b b6 78 46 00 38
       9.3865776e-05 -7.247393e-05 -2.5489353e-06 3.0583207e-05
000170 34 00 36 b9 20 c8 b1 38 f8 7f 13 39 38 e5 02 39
       -0.00017356948 8.477294e-05 0.00014066685 0.00012483157
000180 04 26 3d 3a 1d 5a dc b8 b4 0a 5b 39 a0 ad 94 36
       0.00072154426 -0.000105072024 0.00020889455 4.4309563e-06
000190 47 5c ad b9 88 f4 74 38 b0 d6 88 38 06 cd 29 39
       -0.00033065883 5.840187e-05 6.524974e-05 0.00016193473
0001a0 23 9c 42 39 c6 eb 9b b9 ff f5 8b 39 ce 89 80 39
       0.00018559447 -0.0002973957 0.00026695427 0.00024516735
0001b0 d0 ad 30 39 b4 f8 fe 37 2c 60 d1 b8 b7 07 0c 3a
       0.00016849418 3.0394971e-05 -9.98381e-05 0.0005341726
0001c0 f8 20 88 39 11 6c ee 38 a3 cb bf b8 b8 87 a7 b6
       0.00025964505 0.00011368853 -9.14552e-05 -4.9927876e-06
0001d0 78 eb 69 38 94 64 e3 37 bc 02 17 39 de 0e 8c 38
       5.5770826e-05 2.7107344e-05 0.00014401501 6.6784894e-05
0001e0 78 79 7a 36 7c 98 60 b8 d1 59 0c b9 fc ac 8a 38
       3.7323607e-06 -5.3547774e-05 -0.000133849 6.6125736e-05
0001f0 31 cc 50 b8 64 7a 20 39
       -4.9781233e-05 0.00015304383

exp_avg_sq f4 [2, 63]
000000 ff 24 4c 3d e1 32 a2 3c ab 77 aa 39 4d aa 14 38
       0.04983997 0.019799652 0.00032514086 3.5444555e-05
000010 d1 eb d9 38 8b 76 0e 37 d0 4c c2 36 ac dc d1 38
       0.000103912906 8.49146e-06 5.7905927e-06 0.00010007
000020 ad dc 21 38 ba 6f 66 36 f1 15 0e 38 4c 76 5d 37
       3.859091e-05 3.4337704e-06 3.3875873e-05 1.320017e-05
000030 0d 6f 38 36 66 93 c7 36 cc 2f 68 37 f4 9f a5 37
       2.7482777e-06 5.9478216e-06 1.3839406e-05 1.9744017e-05
000040 75 31 d6 36 fd 0d a9 35 91 fa 00 38 21 dc 16 36
       6.3834545e-06 1.2595552e-06 3.0750936e-05 2.2479874e-06
000050 bc f5 34 36 4a 9f a5 36 05 64 66 37 e6 16 86 35
       2.6965126e-06 4.935927e-06 1.3732356e-05 9.990442e-07
000060 58 5f 9a 37 cf 76 de 36 e6 0e b8 36 4f 05 a1 35
       1.8402628e-05 6.6299467e-06 5.4853617e-06 1.199698e-06
000070 dd 00 d2 35 cb b1 99 36 18 9b c2 37 c2 99 6a 36
       1.564647e-06 4.580453e-06 2.3198823e-05 3.4958216e-06
000080 a1 19 29 36 b0 b7 46 38 91 a7 30 35 df 45 cb 37
       2.519788e-06 4.737795e-05 6.580895e-07 2.4232022e-05
000090 73 95 9b 36 2f 4a a0 36 66 33 56 37 ee 36 a8 36
       4.636758e-06 4.7770077e-06 1.2767361e-05 5.013185e-06
0000a0 8a d0 9e 36 da ec d6 36 0a 77 7e 36 01 0c 2b 37
       4.733044e-06 6.40527e-06 3.791824e-06 1.0195189e-05
0000b0 2f 2a 90 36 31 ae 24 36 7c 43 82 35 dc 18 9c 36
       4.2964452e-06 2.4539297e-06 9.705395e-07 4.6520563e-06
0000c0 f6 3a f1 36 5f df cc 36 ba 1f 04 36 f3 ed 53 36
       7.1892237e-06 6.1056776e-06 1.9688e-06 3.1579955e-06
0000d0 74 d1 e8 35 4c 75 e3 35 5c ac c2 36 f9 bb d0 35
       1.7346306e-06 1.6946956e-06 5.801716e-06 1.5551915e-06
0000e0 d6 9f 08 36 03 d4 f3 34 f2 59 84 35 c9 67 ac 34
       2.0358616e-06 4.5416536e-07 9.860944e-07 3.211301e-07
0000f0 ca 5e c7 33 57 14 44 35 c3 89 08 36 4a 87 51 3d
       9.283902e-08 7.304529e-07 2.0345767e-06 0.051154412
000100 0a 92 a5 3c 4a 2e ab 39 49 de 1a 38 2e c3 dd 38
       0.020211238 0.0003265015 3.692348e-05 0.00010574456
000110 06 65 f8 36 88 16 81 36 6d 21 0e 39 a1 e1 3d 38
       7.4027366e-06 3.8471226e-06 0.00013554627 4.5271245e-05
000120 1f a9 b3 36 b3 72 42 38 d6 7a 8c 37 cd 04 09 36
       5.354304e-06 4.6360026e-05 1.67465e-05 2.0417385e-06
000130 90 5b ac 36 17 e9 85 37 73 32 e1 37 70 6d 82 36
       5.1366587e-06 1.5963376e-05 2.6845582e-05 3.887042e-06
000140 7a 5e 24 36 a1 c6 71 38 d2 ad 71 36 57 32 13 36
       2.4492897e-06 5.7643865e-05 3.6012975e-06 2.1934009e-06
000150 a9 a2 02 37 1d f5 90 37 02 d2 9a 35 01 ce 8a 37
       7.786476e-06 1.7280277e-05 1.1535014e-06 1.654681e-05
000160 2c fc 73 36 99 bf b8 35 92 03 ad 35 9e 8a 42 36
       3.6356605e-06 1.376483e-06 1.2890544e-06 2.8988939e-06
000170 6a 73 13 37 01 94 40 38 f1 6c d7 36 1d 37 8f 36
       8.788755e-06 4.5914207e-05 6.4201818e-06 4.268148e-06
000180 78 dc bf 38 f8 d4 fd 34 91 62 35 38 52 3c d0 36
       9.148655e-05 4.7279877e-07 4.324556e-05 6.2059053e-06
000190 3a 83 c4 36 dd c8 ce 37 36 99 15 37 db 5d 22 37
       5.856532e-06 2.4650648e-05 8.916764e-06 9.677805e-06
0001a0 0f 6c f2 36 6b 01 3c 36 65 ff 98 37 7f c4 0f 37
       7.2247417e-06 2.8015008e-06 1.823874e-05 8.5692145e-06
0001b0 a7 0a 9c 36 a4 55 68 35 3e 56 e0 36 f0 9f 0c 37
       4.6504024e-06 8.655136e-07 6.68576e-06 8.381889e-06
0001c0 7a e1 05 36 da 74 a1 35 5c 3e 73 36 21 f3 0e 35
       1.994979e-06 1.2029443e-06 3.624612e-06 5.325292e-07
0001d0 3d 78 bc 35 f9 2e b7 35 44 54 32 36 5e 0b ad 35
       1.4042085e-06 1.3648233e-06 2.6573116e-06 1.2892813e-06
0001e0 5b a9 41 34 69 1e 52 35 3d 9b 20 35 15 db 14 34
       1.8036137e-07 7.827535e-07 5.9830546e-07 1.3863276e-07
0001f0 3f f6 b8 34 87 49 84 36
       3.4451838e-07 3.9424663e-06

exp_avg f4 [2]
000000 15 df 14 3b a4 46 85 ba
       0.0022715975 -0.0010168147

exp_avg_sq f4 [2]
000000 69 11 04 3a a6 42 04 3a
       0.00050379947 0.0005045332

exp_avg f4 [2, 63]
000000 f6 57 19 3d 95 68 92 3c d5 c8 3b 3b 59 a0 cf ba
       0.0374374 0.017872134 0.002865364 -0.0015840634
000010 f2 39 9f b9 a1 44 84 ba 1a bf d4 37 26 18 75 b9
       -0.00030370016 -0.0010091254 2.5361358e-05 -0.00023374017
000020 60 b5 7f b9 bf ff c2 3a b4 c8 f3 b9 66 aa 30 38
       -0.00024386263 0.0014877244 -0.00046498107 4.2120366e-05
000030 28 b7 17 b9 dd 40 c5 b9 86 05 fd 39 5c 42 ec 39
       -0.00014468713 -0.00037623095 0.00048260036 0.0004506287
000040 74 71 ac 37 69 32 03 3a 5a 3e b1 39 2b 9e c0 38
       2.0556829e-05 0.0005004765 0.00033806526 9.1847345e-05
000050 da 8e 91 39 a8 30 da b9 de 10 ce b8 bc 1b e8 b8
       0.00027762988 -0.00041616452 -9.825987e-05 -0.00011067788
000060 6a bf 97 38 32 ef 40 39 ec 9a 03 ba 81 61 d2 39
       7.235895e-05 0.00018399654 -0.00050203386 0.00040126967
000070 74 c6 95 39 31 87 ef 37 a0 ca 52 b9 35 71 83 b9
       0.00028567354 2.8553974e-05 -0.00020102644 -0.00025070613
000080 1c 6c 6c 39 d2 28 e3 b8 70 f2 14 38 9f ca 19 39
       0.00022546988 -0.00010831807 3.5511737e-05 0.000146667
000090 98 67 58 b7 b0 29 b7 b9 f6 68 7f b8 ff 4e 3e 39
       -1.2898723e-05 -0.0003493554 -6.089449e-05 0.0001814924
0000a0 23 94 06 39 b7 4e 1b 39 2b 68 ec 39 82 ad ed b8
       0.00012834421 0.00014811275 0.0004509104 -0.00011333359
0000b0 3f 36 39 b9 a8 4b 8f b9 dc 26 aa 38 d0 6b 1c b8
       -0.00017663183 -0.00027331454 8.11347e-05 -3.7293707e-05
0000c0 36 f0 6e 38 7a 2d 94 b7 ee ab 20 39 46 f5 27 38
       5.6967336e-05 -1.7664152e-05 0.00015322838 4.004433e-05
0000d0 fe 29 63 39 e2 ed de 39 60 be d0 b8 6c 22 81 b8
       0.0002166405 0.00042520376 -9.953673e-05 -6.157611e-05
0000e0 e2 ff a3 39 44 36 72 36 b2 d5 94 b8 bb 07 fa 38
       0.0003128043 3.6092397e-06 -7.096994e-05 0.00011922369
0000f0 00 97 b9 36 72 0f f7 37 1e 2c bd b6 29 13 20 bc
       5.5310084e-06 2.9451887e-05 -5.637775e-06 -0.009770193
000100 b3 ab c2 bb 62 f7 e3 ba 93 31 14 3a d8 66 00 b9
       -0.0059408783 -0.0017392451 0.0005653139 -0.00012245344
000110 9a 1f a4 39 9d cb 67 b9 01 a1 cb b8 d8 e2 55 b7
       0.00031304063 -0.00022105729 -9.7097836e-05 -1.27486055e-05
000120 ce 91 b7 b9 ac 67 17 39 e2 8c 1d 38 40 e3 8f b6
       -0.00035013113 0.00014439103 3.7562924e-05 -4.2881875e-06
000130 c6 8b d4 38 80 4e 01 b9 89 97 ab b8 9c 1b ce 38
       0.000101349826 -0.00012331642 -8.182141e-05 9.827988e-05
000140 00 0c d9 35 5a 65 89 b8 e9 84 03 b9 b2 a1 b5 b8
       1.6171252e-06 -6.551547e-05 -0.00012542646 -8.660871e-05
000150 f0 dc 39 38 66 51 c1 b8 de 80 94 38 58 58 b2 b7
       4.43132e-05 -9.218119e-05 7.081193e-05 -2.1260392e-05
000160 0a 26 c0 38 28 74 50 b8 f8 b8 af b7 00 b7 8a b6
       9.162359e-05 -4.9699243e-05 -2.0947758e-05 -4.1340245e-06
000170 18 fa 0a 38 4c 93 6e 39 a8 76 c2 37 62 4e bb 39
       3.3134682e-05 0.00022752321 2.3181856e-05 0.0003572582
000180 f0 31 d0 38 88 d8 1b b8 41 a1 2b b9 d0 e3 16 37
       9.9275145e-05 -3.715654e-05 -0.00016367903 8.993738e-06
000190 58 d0 0e 3a b0 dc d2 b7 25 d6 20 38 fa 7a 22 38
       0.0005447916 -2.5136716e-05 3.834641e-05 3.873834e-05
0001a0 eb 6b ae 39 86 87 23 b8 34 31 c8 b8 6b fc 83 b8
       0.0003326827 -3.8988444e-05 -9.545908e-05 -6.293583e-05
0001b0 66 4b 88 b8 3a 8e 8c 39 c8 ca f0 38 90 f2 92 37
       -6.4990294e-05 0.00026808848 0.00011481863 1.7517508e-05
0001c0 6a 54 39 39 ea 25 9f b9 96 95 b0 38 e8 c1 46 b9
       0.00017674422 -0.0003035509 8.4201965e-05 -0.00018954987
0001d0 a6 32 95 b6 10 15 f4 b7 30 50 ab 36 5e 56 5c 38
       -4.4464423e-06 -2.9096875e-05 5.105532e-06 5.2532523e-05
0001e0 ee 93 0a b8 0e 9b bc b7 5e 7b cc b8 65 76 e8 b8
       -3.3039534e-05 -2.248355e-05 -9.750457e-05 -0.00011084675
0001f0 8c ca 79 b7 01 b0 19 b9
       -1.4888716e-05 -0.00014656784

exp_avg_sq f4 [2, 63]
000000 b9 6f 87 3d c6 fd 76 3c a3 38 08 3a 51 f3 10 39
       0.06613106 0.015075153 0.0005196428 0.00013823553
000010 69 12 8b 36 5c 5c a2 38 9e 9f e4 36 99 e8 c3 36
       4.144666e-06 7.741965e-05 6.8135114e-06 5.838531e-06
000020 bb 87 05 36 28 f9 b7 38 af 85 d9 37 e6 37 d7 35
       1.989755e-06 8.772529e-05 2.5930667e-05 1.6035017e-06
000030 c3 12 34 36 04 8d 54 37 0b 48 a4 37 9a 8f 73 37
       2.683301e-06 1.2669017e-05 1.9583871e-05 1.45173635e-05
000040 f6 a9 32 37 5f fd 7a 37 11 c1 51 38 29 39 3a 37
       1.0649199e-05 1.4960154e-05 5.000929e-05 1.1099773e-05
000050 16 6b 14 37 c1 54 74 37 0d 23 7e 36 ab a5 19 36
       8.84642e-06 1.4563267e-05 3.7869352e-06 2.2895208e-06
000060 d6 49 fd 35 d4 6e 03 36 00 5e 54 37 81 ac 22 37
       1.8871458e-06 1.9585032e-06 1.2658071e-05 9.696117e-06
000070 b9 f2 7a 37 99 01 e2 35 86 fd 04 37 8d 0d 88 36
       1.49576745e-05 1.6838777e-06 7.926841e-06 4.0546934e-06
000080 c5 a3 3d 38 8f c8 1b 36 6b 1e 85 35 d0 5e fc 35
       4.5213634e-05 2.321354e-06 9.918125e-07 1.8803057e-06
000090 76 ad f4 36 d8 26 a9 37 fa 2b 69 37 d1 58 97 36
       7.29196e-06 2.0164458e-05 1.3898121e-05 4.5104903e-06
0000a0 61 60 98 35 dd 77 9f 37 0b 8b 23 37 6e bf 3b 35
       1.1352932e-06 1.9010093e-05 9.747931e-06 6.9941495e-07
0000b0 c6 1a 32 36 97 b9 36 37 dc f4 f1 35 32 c3 56 37
       2.653965e-06 1.0891256e-05 1.8027163e-06 1.2800841e-05
0000c0 2e 55 f0 35 f8 c9 88 36 40 8e cf 37 d2 29 08 36
       1.7906184e-06 4.076628e-06 2.4742563e-05 2.0289922e-06
0000d0 40 57 fe 36 7c 1e d7 36 e5 58 c0 35 30 db 30 35
       7.579947e-06 6.411048e-06 1.4330986e-06 6.588407e-07
0000e0 79 02 d0 36 31 35 be 33 a8 93 1a 35 32 83 a5 34
       6.199171e-06 8.85724e-08 5.758434e-07 3.0829102e-07
0000f0 07 df 3b 35 7b 6d 5c 35 20 c2 03 35 2a 69 44 3d
       6.9987476e-07 8.21157e-07 4.908379e-07 0.047951855
000100 cd c9 36 3c ab e4 cc 39 48 b4 a7 38 33 39 30 37
       0.0111565115 0.00039080283 7.9967605e-05 1.0503735e-05
000110 94 14 76 38 90 62 3a 37 2f 15 da 36 3a e8 ae 35
       5.8670135e-05 1.1109412e-05 6.4993724e-06 1.3031597e-06
000120 f8 49 c5 38 54 da 16 38 4c d5 2e 35 4b 88 b1 35
       9.40747e-05 3.596612e-05 6.513044e-07 1.3227194e-06
000130 6e ab de 36 b9 f0 0e 37 e2 85 4e 37 a2 c1 01 37
       6.6360726e-06 8.519907e-06 1.2309729e-05 7.734083e-06
000140 7e 86 be 36 1f e4 80 38 79 8d 6b 37 f6 98 79 36
       5.678098e-06 6.1460065e-05 1.4040031e-05 3.7192926e-06
000150 f8 60 81 36 c5 f4 8e 36 ad 4a df 35 fd b6 ac 35
       3.8557882e-06 4.2604247e-06 1.6636528e-06 1.2868255e-06
000160 4a 76 36 36 18 c8 a5 36 1c 42 f7 36 82 41 f3 36
       2.7188967e-06 4.940677e-06 7.36887e-06 7.2495905e-06
000170 cc 9d f9 35 da 72 30 36 23 bd c2 36 33 4e 5e 38
       1.8597871e-06 2.6292896e-06 5.803669e-06 5.3001753e-05
000180 f1 50 2d 36 37 24 1c 35 f9 3b 2b 36 9e e8 f9 36
       2.5826123e-06 5.816723e-07 2.5515894e-06 7.4478585e-06
000190 63 45 dd 37 4f cc 96 37 12 4f d7 36 1c b9 df 35
       2.6377564e-05 1.7976532e-05 6.4167043e-06 1.6668669e-06
0001a0 3e bf b0 37 28 b1 60 37 4c c7 84 35 2f 2f b5 35
       2.1069889e-05 1.3392688e-05 9.892769e-07 1.3499283e-06
0001b0 fb 22 a3 36 ef f3 94 35 b6 f4 75 37 1d e5 83 35
       4.861851e-06 1.1097853e-06 1.4660114e-05 9.826941e-07
0001c0 d3 f8 05 36 a2 a4 63 37 c5 f1 10 36 9b b0 08 37
       1.996338e-06 1.3568586e-05 2.15984e-06 8.147351e-06
0001d0 a6 92 bf 36 28 d1 80 35 9e a7 ff 34 50 be 00 36
       5.7093157e-06 9.597616e-07 4.761941e-07 1.9184263e-06
0001e0 d7 08 34 34 39 41 7b 34 cc ba 61 34 f3 29 1a 35
       1.6767022e-07 2.3399924e-07 2.1022714e-07 5.7430515e-07
0001f0 e7 3c 44 35 6a e4 19 35
       7.3104314e-07 5.732933e-07

exp_avg f4 [2]
000000 17 07 5d bb 62 bd 86 3a
       -0.003372615 0.0010279829

exp_avg_sq f4 [2]
000000 e1 f0 10 3a d8 01 ce 39
       0.0005529058 0.00039292756
