artifacts/poses_to_location/20250818232546/best_model.pt (torch, 376885 bytes, 48 tensors)

embedding.embeddings.bex_20230623_denoised.poses.weight f4 [64, 63]
000000 d7 4e 7b bd 2e f5 c4 bd 81 f6 ac 3d ff 4b b9 bd
       -0.061354484 -0.09617077 0.084454544 -0.09047698
000010 10 75 a9 3d 07 6b a5 bd 5c b3 bd 3d d2 94 cf bc
       0.08274281 -0.080770545 0.09262726 -0.025339518
000020 9e 77 42 bd cf c4 cc bd 87 52 cc 3a d8 86 81 bc
       -0.047477357 -0.09998476 0.001558856 -0.015811369
000030 74 d2 34 be 12 72 a6 3a 2a fa ba 3d b6 30 79 3c
       -0.17658406 0.001269879 0.09129746 0.0152093675
000040 73 19 7f 3d ca 47 b6 bc ba df 0e 3c 6a bb f4 3d
       0.06228013 -0.022251029 0.008720333 0.11949809
000050 0f 7d 00 3e 8c 48 c2 bc 1b 2c d0 bc 79 de 08 bc
       0.12547706 -0.023716234 -0.025411656 -0.008353823
000060 02 f6 f6 3b 2d 29 2c 3c 69 54 20 bd 3f 58 a4 3c
       0.0075366506 0.010507864 -0.039143 0.02006161
000070 2c 1f df 3d 78 29 c9 3d 09 f9 bc bd e4 20 99 bd
       0.108946174 0.09822363 -0.09227187 -0.074769765
000080 1f ce f2 3a f9 7d 03 be 3e 15 a0 3c aa 3d 03 3e
       0.0018524564 -0.12841024 0.019541379 0.12816492
000090 4b ad f9 3d 64 92 89 3d b3 aa 08 3d 7f 3c 8e bd
       0.12191256 0.06717375 0.033365916 -0.069451325
0000a0 4e b0 1b be 85 3f d6 3d fc 11 f3 bd f5 16 f4 3d
       -0.15203974 0.10461334 -0.118686646 0.11918441
0000b0 9f 2f 10 be 83 82 1c be d3 3e 86 be b5 5f ba 3d
       -0.14080666 -0.15284161 -0.26219806 0.09100286
0000c0 8c 4e 82 bd 0b 8b 85 36 86 7f 5a b6 18 0e 03 be
       -0.06362638 3.9798956e-06 -3.255876e-06 -0.12798345
0000d0 e6 e7 9d b3 52 a9 ce b3 0b 83 d7 3d 72 fd 20 be
       -7.353064e-08 -9.623422e-08 0.10523041 -0.15721682
0000e0 07 dc 8c 3d 90 01 8e bd 05 f7 ed bd 69 d4 e8 3d
       0.068779044 -0.06933892 -0.11619381 0.11368639
0000f0 f1 34 5f 3d e2 70 80 3d a2 ef 28 34 c9 43 5d bc
       0.05449385 0.06271531 1.5733397e-07 -0.013504931
000100 ad 69 c9 3d 14 63 b3 bd e5 89 46 be 85 a4 37 be
       0.09834609 -0.08759132 -0.1938854 -0.17933853
000110 bb 48 25 bd 0f de 51 be 15 01 73 3e ce 00 39 be
       -0.040352564 -0.20494865 0.23730882 -0.18066713
000120 46 29 68 bd 81 e8 9f 3d 46 42 26 bd 19 4f 12 be
       -0.056679986 0.078080185 -0.040590547 -0.14287986
000130 b2 c0 58 3e 4f eb 62 bd cc 0b 0d be 24 64 02 3e
       0.21167257 -0.05540019 -0.13774031 0.12733513
000140 97 13 b4 bd 52 3d e9 bd ee 20 50 3a 0c 92 e4 bc
       -0.08792799 -0.11388649 0.0007939477 -0.027901672
000150 86 4d 34 3d b3 d5 44 3e 8a c5 19 3c 3b 85 cf 3d
       0.044019245 0.19222145 0.009385476 0.101328336
000160 32 b0 9d bc bb 4d fe bd 22 3c 0b 3c 1e 54 d3 3c
       -0.019249056 -0.1241717 0.0084982235 0.025796946
000170 2c 9f 84 bd f1 de 1e bb 23 d8 f5 3d fd 89 82 bd
       -0.06475672 -0.002424177 0.120041154 -0.063739754
000180 68 1e 4a bd 7a a9 60 bb 06 39 7a bc 23 3a cb bd
       -0.049345404 -0.0034280703 -0.0152723845 -0.09923198
000190 7d d1 b1 3c af 27 e0 3d d9 1f 50 bc ff 8e bd bd
       0.021706337 0.10945069 -0.012702906 -0.0925579
0001a0 a9 ee ec 3d 94 39 a8 be b8 d3 81 3e cd 30 cc bd
       0.11568958 -0.3285643 0.2535684 -0.099702455
0001b0 35 ec 3a be 73 82 07 3d 94 f0 4b bd 90 e4 07 bd
       -0.18254168 0.03308339 -0.04978998 -0.03317696
0001c0 97 bc 84 36 01 f2 2a b7 44 87 01 3e 64 b9 5a b4
       3.9558613e-06 -1.01891355e-05 0.12649256 -2.0370277e-07
0001d0 7a 3c 87 b3 a5 97 86 3d 35 04 80 3d 31 5b 6f 3d
       -6.297428e-08 0.06571893 0.062508024 0.058436576
0001e0 2f 49 c5 bd 99 c0 a9 bc 7f 45 82 be 28 0f 35 3e
       -0.09633099 -0.02072172 -0.25443646 0.17681563
0001f0 e6 82 21 3e a9 55 3c 35 24 18 2f bd fc cc 26 3c
       0.1577259 7.016011e-07 -0.04274763 0.010180708
000200 b4 34 69 3c 9a d4 8d bd 97 fd c5 bd 74 cd 0b 3d
       0.014233757 -0.06925316 -0.09667509 0.034131482
000210 c8 b9 bc bd 30 9f b0 3d 0e f7 18 bd 05 9f 94 bc
       -0.092151225 0.086241126 -0.037344985 -0.018142233
000220 28 11 4a 3d 88 c6 85 3c 75 28 d8 bd 15 a8 f5 3d
       0.049332768 0.016330019 -0.105545916 0.1199495
000230 20 77 a0 3d fb 89 fd 3d e4 c5 56 bd 10 d4 5b 3e
       0.07835221 0.12379833 -0.052434817 0.21467614
000240 a8 a9 1e be 92 3b 38 be e4 85 88 3d 1f 18 98 3d
       -0.15494406 -0.17991474 0.066661626 0.07426476
000250 ff cb 0b 3e 73 78 98 3d 8a 28 06 be 59 9f b4 3d
       0.13652037 0.07444849 -0.13101402 0.08819456
000260 08 1f f8 bd 89 ad c1 bd 60 91 a0 bd 58 86 77 bd
       -0.12115294 -0.09456927 -0.07840228 -0.060430855
000270 5e 84 85 bd 33 ed cb 3d 21 8c 64 3d 27 96 c2 3d
       -0.06519388 0.099573515 0.0557977 0.095012955
000280 35 ed bf 3d 2e f1 f0 bd 57 7c 43 3d ce c7 3b bd
       0.093714155 -0.117647514 0.047726 -0.045844845
000290 77 a8 df bd 6d e8 4f 3d 0e 92 42 3d 8f 56 1f 3d
       -0.10920804 0.050758768 0.04750257 0.038900908
0002a0 10 69 a1 bd 10 53 e5 3d 0a 30 a8 3d b0 2a 2c 3e
       -0.07881367 0.111974835 0.08212288 0.16813159
0002b0 1b fb af 3e a3 23 e2 bd 88 18 3a bd 96 3d e4 b7
       0.34371266 -0.110419534 -0.04543355 -2.7208396e-05
0002c0 92 21 e0 b7 e5 6e 69 3d 95 57 55 34 29 6a 59 35
       -2.6718513e-05 0.056990523 1.9869033e-07 8.099328e-07
0002d0 c3 42 73 be 12 3f 49 3d 31 a7 1d be a0 ba 7a bb
       -0.23755936 0.049132414 -0.1539581 -0.003825821
0002e0 2e 88 37 3d 73 49 30 be bd fc 93 3c 47 38 4b bd
       0.044807605 -0.17215519 0.018064851 -0.049614217
0002f0 49 7d 89 b5 98 5a a8 bd 27 96 89 bd c8 25 c0 bc
       -1.0243758e-06 -0.082204044 -0.067180924 -0.023455516
000300 b5 e1 dc 3c 48 34 8a 3d a8 ed e5 bc 5d 51 11 be
       0.026963094 0.06748253 -0.028067425 -0.14191194
000310 45 4a 7e bc 38 d6 d5 bb ff 61 4d 3d db e2 a8 3d
       -0.015520637 -0.006525781 0.050142284 0.08246394
000320 aa f7 23 be 8b fa b3 3d 75 53 d3 bb 9a bf e2 b8
       -0.16012445 0.08788022 -0.006449158 -0.00010812208
000330 32 53 bd bc d2 3d a1 3e b5 a7 7d be 92 28 6a 3d
       -0.02311096 0.31492478 -0.24771006 0.057167597
000340 15 97 f3 3d c9 04 80 3d bb b3 66 bd 25 1b 2d be
       0.11894051 0.06250913 -0.056323748 -0.16904886
000350 ca fa d8 bd 58 0e e7 bc 64 6c 1b be 63 db 8c bd
       -0.10594709 -0.028205082 -0.15178066 -0.06877782
000360 22 07 26 bd 68 47 d2 bd 23 ac d3 3c 3d 66 51 bd
       -0.040534146 -0.10267526 0.025838917 -0.051122893
000370 c1 3d 8f 3d 37 24 71 3c fc b3 b7 3c 9a b1 f6 3c
       0.069942005 0.014718107 0.02242469 0.030113984
000380 82 c3 fe 3d 81 3d ce 3c a6 3b 9b bd af cc 80 bd
       0.12439634 0.025175812 -0.075797364 -0.0628904
000390 75 b3 00 be 81 90 28 be ca 65 fd bd 59 d0 d4 3c
       -0.12568457 -0.16461374 -0.1237293 0.025978254
0003a0 45 dc 75 bd 91 75 aa bd 17 03 2b be a4 a8 97 be
       -0.06002452 -0.08323205 -0.16700397 -0.2962085
0003b0 0a 02 a0 3d 37 db dc bd 24 7b e3 37 4a 78 a6 37
       0.07812889 -0.107839994 2.711785e-05 1.9844756e-05
0003c0 12 f3 89 bb 63 14 5b b4 a9 1e f7 b4 c0 88 9e bd
       -0.0042098844 -2.0403381e-07 -4.6029643e-07 -0.07740927
0003d0 18 6f 66 3e ef 1d 32 3e 54 c6 22 be ae 84 0a 3e
       0.22503316 0.17394231 -0.15895969 0.13527176
0003e0 8a b3 ed 3d e8 13 23 be 7d 30 e7 3d b2 9f 52 35
       0.1160651 -0.15925562 0.11288545 7.8463484e-07
0003f0 41 20 d5 3d a9 63 f0 bd ac 86 0d 3e 9b 1f 71 bc
       0.104065426 -0.11737759 0.13820904 -0.014717008

embedding.embeddings.bex_20230623_denoised.poses.bias f4 [64]
000000 f1 ca f8 bd dd 89 81 bc 76 e2 b4 3c fb ef a5 bc
       -0.12148083 -0.015812809 0.022080641 -0.020256033
000010 a3 30 28 bd 90 64 e5 bd 11 b6 8d bd 8d af 7c 3d
       -0.04106201 -0.112008214 -0.06919492 0.061690856
000020 af f4 59 bd 75 35 f2 bd af 39 fb 3c 29 04 b0 3c
       -0.053211864 -0.11826602 0.030667154 0.021486359
000030 f7 fe ed bd 5a bf 91 bd e4 79 80 bd 06 58 b1 3c
       -0.11620896 -0.071165755 -0.06273249 0.021648418
000040 c4 0b 25 be a1 d5 c1 3d 05 a9 f3 3c e3 3c d8 bc
       -0.1611777 0.094645746 0.02974368 -0.02639622
000050 73 ea e3 3c 80 85 e9 3d e8 a4 f6 bd 67 5b 29 3e
       0.027821755 0.11402416 -0.12043172 0.16538773
000060 54 bb 76 3d b2 ac 39 bd 18 a2 25 3e 4e 80 af 3d
       0.060237244 -0.04533071 0.16175115 0.08569394
000070 5a 29 ca 3d 92 d0 04 be c6 55 68 bd 04 1c 0c be
       0.098711684 -0.12970188 -0.056722425 -0.13682562
000080 fa a4 0f be 4b 1b a1 3d eb bc f8 bc a5 b1 38 3e
       -0.14027777 0.07866534 -0.03036352 0.18036516
000090 01 71 9b 3d 61 bc 18 be ae 56 09 be a3 12 58 bd
       0.07589913 -0.14915611 -0.13411972 -0.05275215
0000a0 c4 d7 aa bd 4a 3b c3 3c 33 e1 e1 3d 4c 36 76 bc
       -0.08341935 0.023831982 0.110292815 -0.015027594
0000b0 3a 2c dd 3c 45 b5 0b be 5e ad 94 3a 96 c4 c8 bd
       0.026998628 -0.13643368 0.0011343171 -0.09803121
0000c0 d2 a3 d2 bc 1e 3c 10 3e 9e c2 20 3e 59 6a fd bd
       -0.025712881 0.14085433 0.1569924 -0.123738
0000d0 4a 38 1c be 29 56 e1 bd e0 3c a8 3d 91 f0 87 3d
       -0.15255848 -0.11002762 0.08214736 0.06637681
0000e0 fd fb eb bc 16 a2 e7 bd 79 cd cf 3c bf 78 a7 bd
       -0.02880668 -0.11310212 0.025366532 -0.08177327
0000f0 34 fc 03 3e 9b 1b d6 3d 28 8d b4 bd 76 8f 96 3d
       0.12889177 0.10454484 -0.08815986 0.07351582

embedding.embeddings.ken_20230614_denoised.poses.weight f4 [64, 63]
000000 a3 ba a4 3b 84 4e ab bc 25 07 9d bd da 90 34 3e
       0.0050271316 -0.020911463 -0.07667378 0.17633381
000010 c9 47 85 3e fa de e8 3c b2 47 d5 3d a4 4c 34 be
       0.2603133 0.028426636 0.104140654 -0.17607361
000020 7b 79 81 bd 6d 41 b5 bd ef f9 71 3e 66 6e a7 bd
       -0.06321999 -0.088503696 0.23630498 -0.08175354
000030 56 e0 18 3d 5a 59 29 be 89 63 03 3e 92 82 fa 3c
       0.03732332 -0.16537991 0.12830938 0.030579839
000040 b5 df a0 3e cc e6 c4 3c f7 73 79 3c 5c b5 43 3e
       0.31420675 0.024035834 0.015225402 0.19112152
000050 48 2a 9b bd cd 42 db bd 13 78 04 bd aa 8d 07 bd
       -0.07576424 -0.107061006 -0.032341074 -0.033094086
000060 ae c6 d8 bd 36 8b 66 bc 20 49 de bc 04 49 09 be
       -0.1058477 -0.014071276 -0.027134478 -0.1340676
000070 47 df 96 3c e2 bd 91 bd 25 3e 46 bd ff fc 3e bd
       0.018417014 -0.071162954 -0.04839911 -0.046627995
000080 d8 7c bd bd ea f3 e9 3c 93 e2 86 bd 72 72 82 bd
       -0.09252328 0.02855869 -0.06586184 -0.06369485
000090 67 b2 05 3e a4 9f ab bc 08 a5 f3 3b 1c 2a cc 3c
       0.13056336 -0.020950146 0.0074354447 0.024922423
0000a0 75 ce b8 bd 44 3f 9d bd cd 76 3c 3e ec d7 26 3e
       -0.090237536 -0.076780826 0.18404694 0.16293305
0000b0 f4 93 2a 3e 1b 23 af 3e b3 25 0e bf c3 82 f7 bc
       0.16658002 0.3420647 -0.55526274 -0.03021372
0000c0 24 b0 2d bd 9a 21 25 b7 ca 21 16 37 2f ad 1e 3e
       -0.04240431 -9.84259e-06 8.948564e-06 0.15495752
0000d0 8a b6 20 b3 3d 67 29 b3 c0 ed 5c 3d cd d4 f9 3d
       -3.741892e-08 -3.9442273e-08 0.053937674 0.12198792
0000e0 20 1a f6 bd 4d 54 e6 bd 11 12 3b be 2f b2 62 bc
       -0.12016702 -0.11246548 -0.1826861 -0.013836428
0000f0 99 ae 33 be 5b 14 3a 3c 56 ed 2b b4 0b bd c2 bd
       -0.17547072 0.011357392 -1.6011958e-07 -0.09508713
000100 e9 fc 0d bc 8a e8 e4 3d cb e4 13 3d 2a 1a 8c 3d
       -0.0086662555 0.11177166 0.036106866 0.06840928
000110 3c fd f0 bc 6d 25 d3 3d b6 aa cf bd 64 b7 87 3d
       -0.029417627 0.10309873 -0.101399824 0.06626776
000120 d2 6d a8 3d 7d 40 1a 3e 90 45 07 be ec 8f 07 bd
       0.082240716 0.15063663 -0.1321013 -0.03309624
000130 a8 ec dc 3c b6 b5 dc 3d ca b6 89 3b 43 6f 48 bd
       0.026968315 0.10776846 0.0042026984 -0.048934232
000140 b2 df 32 bd 05 88 1d bd 5f ca fb 3d 10 cd b9 3d
       -0.043670364 -0.038459796 0.122944586 0.09072316
000150 fb 17 c8 bd a4 27 c8 3c 4d bc ee bd fa 74 d5 bd
       -0.09770199 0.024432965 -0.11657009 -0.10422702
000160 66 c6 91 bd ca 20 ce bd ba 52 00 be 47 70 51 3d
       -0.071179196 -0.10064848 -0.12531558 0.051132467
000170 43 1f b2 3d cf 0a 70 bd 74 cd 1d bd 54 75 56 bd
       0.08697369 -0.058604058 -0.038526013 -0.052357987
000180 f9 ea 07 3d 31 d7 b4 bd 8f 4e 0f 3d a7 fa 52 bc
       0.03318307 -0.08830107 0.03498703 -0.012877143
000190 e5 d3 30 3d 4d 41 96 3c 8b a6 9b 3c 7b 38 9e 3d
       0.04317083 0.018341685 0.019000312 0.077256165
0001a0 38 f7 e4 3b 70 bb 94 3d 04 42 17 bd f5 0c 96 3e
       0.0069874786 0.07262313 -0.03692819 0.2930676
0001b0 d2 64 cf 3e 97 74 86 be d2 3f 8e 3b e3 3d 96 3d
       0.40506607 -0.26260826 0.004341104 0.07336023
0001c0 3b bd 35 b6 bb 85 84 36 05 7b da 3b 00 f1 58 b3
       -2.7081248e-06 3.949475e-06 0.006667497 -5.0510607e-08
0001d0 67 7b b5 32 9c 81 46 3a 53 bd a4 3d d7 7b 13 be
       2.112729e-08 0.0007572414 0.08043923 -0.1440271
0001e0 59 ef ac 3d 6c d9 26 3c 1a 82 f7 3d 45 56 9f bd
       0.084440894 0.010183673 0.12085362 -0.077801265
0001f0 2b 44 c4 3d 9e 95 ec 34 05 64 f6 3d 53 af 68 3d
       0.095833145 4.4067286e-07 0.12030796 0.056807827
000200 b0 27 4d bd 76 d8 97 3c 6c 98 43 be 52 36 f8 3d
       -0.050086677 0.018535834 -0.19101113 0.12119736
000210 a4 79 f0 3a 29 fe 1d be d2 ad 4b 3e 4e 31 91 bc
       0.0018346799 -0.15428986 0.19890526 -0.017723706
000220 4f 1d 9d bd fb 92 a7 3d b7 05 ba bd fd 22 09 3d
       -0.07671606 0.08182331 -0.09083121 0.033480633
000230 77 a0 55 bd be 57 b0 3d 3d 0c a2 be 5f 47 d6 3d
       -0.052154984 0.086104855 -0.31649962 0.10462832
000240 3f 9b a7 3c 4a 4b 7c 3c 9c ba 05 bd 39 c2 44 bb
       0.02045977 0.01539881 -0.032648668 -0.0030022992
000250 a2 54 e4 3d 75 e9 a2 bd ed b7 da bb 0d 2a e0 bd
       0.11148955 -0.07954685 -0.0066747577 -0.109455206
000260 6c 0c 34 bd 70 4c 99 3d 4d e3 ba bd 0e 72 eb bd
       -0.04395716 0.074852824 -0.091253854 -0.114963636
000270 35 d8 e2 bc 1a 67 9e 3c fd 44 51 3d df 47 0a 3d
       -0.027690986 0.019336272 0.051091183 0.033759948
000280 17 8f 8d 3c f3 00 8d 3d 07 43 01 3e 6f 48 0d 3d
       0.017280145 0.06884947 0.12623225 0.034492906
000290 5f 31 9e 3d 5f 9e e3 3c 4d ea 9b 3d 35 5c 46 3d
       0.077242605 0.027785478 0.07613049 0.04842778
0002a0 05 f3 9f 3e fc fe ed bb 53 12 8a 3e 78 bd 47 3c
       0.31240097 -0.0072630625 0.26967105 0.012191169
0002b0 4c 08 a1 be c4 46 45 bd a6 32 91 bd a9 34 e7 37
       -0.31451643 -0.04816319 -0.070897385 2.7561868e-05
0002c0 15 b2 9b 37 28 5a f5 3d c6 9c d3 b2 28 a6 a7 34
       1.8560366e-05 0.119800866 -2.4634925e-08 3.1227069e-07
0002d0 71 48 f6 bd ed 7e ca 3d 29 5c c2 bd d0 13 b6 3c
       -0.12025536 0.098874904 -0.094902344 0.022226244
0002e0 51 6e 8d bb 7b ad 0c be 08 48 45 be 5a 2b 91 bd
       -0.0043161293 -0.13738053 -0.19265759 -0.07088347
0002f0 37 91 90 36 9b da 97 bd 7b f2 ca bd aa 32 f6 bd
       4.3084397e-06 -0.074147426 -0.09909531 -0.12021382
000300 b2 8b 8b 3d 40 65 fb 3d e5 eb 79 bd e8 68 fe 3d
       0.06813754 0.12275171 -0.061015982 0.12422353
000310 5b a8 b0 3d f3 dd e2 bd a0 5c b0 3c d7 e6 b8 3c
       0.08625861 -0.1107749 0.021528542 0.02257101
000320 30 ba 87 bd dc 42 99 3d eb 1b f2 bc d2 82 f0 bd
       -0.06627309 0.074834555 -0.029554328 -0.11743702
000330 1d a2 47 be cf 4e 95 3e 70 69 d0 bd d9 24 12 3c
       -0.19495435 0.2916169 -0.101763606 0.008919918
000340 d4 1d 01 be d2 aa b6 bd 82 66 78 3d 9b b6 f8 bd
       -0.12609035 -0.089193 0.060644634 -0.12144204
000350 b9 27 be 3d 0f da 97 ba 51 dc 90 bd 94 84 15 be
       0.0928492 -0.0011585372 -0.07073272 -0.14601356
000360 e3 10 8e bd 4d f1 dc 3d 08 7e 8d bd 0d 41 8e 3d
       -0.06936815 0.10788212 -0.06908804 0.06946001
000370 21 23 75 bd f3 b9 f5 3d 6b 34 72 bd 37 58 29 bd
       -0.059847955 0.119983576 -0.05913202 -0.041343894
000380 ef 9f e9 3d 57 10 d1 bd 70 2e 0a bd f1 a9 a1 3d
       0.11407458 -0.10208195 -0.033735693 0.07893742
000390 fa bb 2e 3c 51 27 a0 3d 28 6f 02 bb be db 6b be
       0.010664934 0.07819999 -0.001990268 -0.23033044
0003a0 2a b1 8e 3c 62 3c 22 be 03 85 9f be 05 e2 2a 3e
       0.017418463 -0.15843347 -0.31156167 0.16687782
0003b0 e8 6c 95 3d 8c 0a e8 3c 55 00 88 b7 6f ae 88 b7
       0.07296163 0.028325342 -1.6212618e-05 -1.629369e-05
0003c0 bf 31 82 bd 1c 6d 5c 32 9b 4f 17 b4 08 8d ff bd
       -0.063571446 1.2830494e-08 -1.4091931e-07 -0.124780715
0003d0 71 22 1b be a8 4d 1d 3e 17 6a 9d 3d 43 65 de bd
       -0.15149857 0.15361655 0.07686251 -0.10859158
0003e0 e2 17 af 3d f0 f2 34 3e 18 f0 9d 3d 3e d4 2c b6
       0.08549477 0.17670798 0.0771181 -2.5753538e-06
0003f0 4f bb d3 bd c5 f9 e2 bd 87 b6 c6 3d d2 45 39 be
       -0.10338461 -0.11082796 0.09702783 -0.1809304

embedding.embeddings.ken_20230614_denoised.poses.bias f4 [64]
000000 fa 7f 7f bc fd e9 e1 bd ae 47 ff 3d c7 66 b5 bd
       -0.015594477 -0.11030958 0.12464844 -0.08857494
000010 15 8e 1a 3e 91 b0 2f bd fc db e1 3d a7 e6 19 be
       0.15093262 -0.042892996 0.11028287 -0.15029393
000020 c5 4d 1b 3d b2 56 2c be a0 33 ea 3c e6 d3 d0 bd
       0.037915964 -0.16829947 0.02858907 -0.101966664
000030 d1 af 24 3e da 66 8f 3d db 9a fe bd 5e 4d ac bc
       0.16082694 0.07002039 -0.1243188 -0.021032985
000040 a2 f9 dc 3d 1c 92 52 3c 98 2a 63 bc 00 cc ed bd
       0.10789801 0.012852218 -0.013865136 -0.116111755
000050 16 b8 0d be 05 3e 62 bd 5c d8 ba bd e2 2d 08 3d
       -0.13839754 -0.055234928 -0.091232985 0.033246882
000060 dd ce 4d 3d 6b f2 63 3d fe ac 41 bd 06 9d 82 bd
       0.05024611 0.05565111 -0.04728412 -0.06377606
000070 bc 73 a6 bd 5a c3 ef bd 96 86 13 3e 00 97 1a 3d
       -0.08127543 -0.11707182 0.14406809 0.03774166
000080 d8 15 a9 bd 81 af f5 bd 31 bc 87 bd b6 5c f8 bd
       -0.082561195 -0.11996365 -0.066276915 -0.12127058
000090 93 7e ec bd 5a a8 a8 bd e3 c4 89 bc f5 1a 22 be
       -0.115475796 -0.082352355 -0.016817516 -0.15830596
0000a0 69 fd 43 bc fd 07 b6 3d 08 d3 ca 3d 33 bc 35 bd
       -0.011962273 0.088882424 0.09903532 -0.044368934
0000b0 ab 8d 3f 3d bb 22 47 3d 46 85 0e be 08 f4 51 3d
       0.046765964 0.048617106 -0.13918027 0.051258117
0000c0 8a 3f 23 3a ab f4 e0 3d 7c fe ad bd 7e 16 0c be
       0.00062274246 0.10984167 -0.08495805 -0.13680455
0000d0 1c 85 13 3d 08 8b 5c 39 28 f3 9e 3d 83 ab 98 3c
       0.036015615 0.00021032628 0.07761222 0.01863647
0000e0 0d 2a 8d bd 12 69 53 3c ba fa c4 3b 88 00 a8 3d
       -0.06892786 0.012903469 0.0060113342 0.08203226
0000f0 52 ee 3a bc ad 77 a4 bd 8f 4a b7 bc 9f 02 76 3d
       -0.011409359 -0.08030639 -0.02237442 0.060061093

embedding.embeddings.ken_20230618_denoised.poses.weight f4 [64, 63]
000000 9a 83 b9 3a 39 6a f3 3d 09 50 e7 3c f7 f2 88 bd
       0.00141536 0.11885495 0.028236406 -0.06686967
000010 5a d6 01 3e f7 6e 0c bd 5b f4 9f 3d da c2 c0 bb
       0.12679425 -0.03428551 0.07810279 -0.005882603
000020 4d b2 c5 3d b2 cb db 3c c8 09 63 3b 0f b9 46 3d
       0.09653149 0.026830528 0.0034643281 0.04851633
000030 aa 13 87 3d b9 c1 c2 bd ef df f1 3d fb 4f a0 3d
       0.065955475 -0.09509606 0.1181029 0.07827755
000040 68 15 0b 3d 8a 43 7f 3d 4a 99 1c be 42 71 68 3e
       0.03395596 0.06232027 -0.1529285 0.22699454
000050 92 82 d1 3d 4f 6c 3c 3c f3 13 41 3e 9e cd b2 3d
       0.102299824 0.011500432 0.18855266 0.087306246
000060 e0 29 c3 3b 2a 92 cc 3d 0e 49 59 bc 4a 20 12 bd
       0.0059559196 0.09988816 -0.0132620465 -0.035675324
000070 64 62 1f 3e 70 a9 04 bd 03 c2 a2 bd 22 43 67 3d
       0.15564877 -0.03238815 -0.07947161 0.056460507
000080 19 d6 bc bc a9 19 0e 3e ef ca 13 3c ba 19 b7 bd
       -0.023051308 0.13876976 0.009020551 -0.08940454
000090 3c ce 58 3e 9c 54 13 3e 02 0b 16 bb 32 46 08 3e
       0.21172422 0.14387745 -0.0022894745 0.13308027
0000a0 8c 7f c4 3d 03 a2 c7 bd 76 00 8e 3e 56 60 f9 3b
       0.0959464 -0.09747698 0.27734727 0.007610361
0000b0 10 45 48 3e 77 f8 88 3e 02 9a a9 be 35 78 6e bd
       0.19557595 0.26752064 -0.3312531 -0.058220107
0000c0 98 78 0f be d2 78 98 b5 b3 be 3e 35 2a f1 6f 3c
       -0.14010847 -1.1360046e-06 7.105802e-07 0.0146449
0000d0 00 2d 64 32 0e 3a 1b 33 38 1d 2c 3e 08 d4 8e bd
       1.32815785e-08 3.614155e-08 0.16808021 -0.069740355
0000e0 51 af 85 be 3c 3b a9 bd 3c 0e b5 3c d9 03 22 be
       -0.26110318 -0.08263251 0.022101514 -0.1582178
0000f0 37 42 1d be 4b 44 18 3c b9 be 36 b3 24 4b 8f bd
       -0.1535729 0.009293626 -4.254864e-08 -0.06996754
000100 8d 60 a3 3d 0c 19 68 3c 74 32 9b 3c 75 0e 16 be
       0.079774 0.014166128 0.018944956 -0.14653952
000110 11 81 de 3d 52 fd e6 bd ba 40 3c bd 71 e1 3f 3d
       0.10864461 -0.11278786 -0.045960166 0.046845857
000120 de 02 27 3d d4 e6 e1 bd 3c 27 55 bd 91 52 1d bd
       0.04077422 -0.11030355 -0.05203937 -0.03840882
000130 97 ed 1f 3d 88 33 d3 3d ab 07 ac 3b 99 99 6f be
       0.039044943 0.10312563 0.0052499375 -0.23398437
000140 58 ea 17 be b0 13 0a 3e 17 bc 7f bd 55 3f 71 bd
       -0.14835489 0.13484073 -0.062435236 -0.05889829
000150 ee c3 8a bd 76 46 3a 3d 9e f4 b4 bd 99 6f 9c 3c
       -0.06775652 0.045477353 -0.088357195 0.019096183
000160 b7 2d d2 bd 6f 8b 4d bc a2 bb ef bc 18 df 04 3d
       -0.10262626 -0.012545451 -0.029264275 0.03243932
000170 a1 da fd bd 73 1f e4 bd c8 9f 92 bd 74 55 0b be
       -0.12395216 -0.11138811 -0.07159382 -0.13606817
000180 8d 41 d9 3d df 5f 06 3e ba 8d e9 bd a5 06 00 3e
       0.10608206 0.1312251 -0.11403985 0.12502535
000190 8c 35 86 3d cd b7 27 3d 71 1a dd 3d b4 af 78 3d
       0.06553182 0.04094677 0.10796059 0.06071444
0001a0 10 35 d1 bd f6 b8 d5 bd 10 98 98 bd 6e b6 c6 3d
       -0.10215199 -0.10435669 -0.074508786 0.097027645
0001b0 19 5b bf be 57 be c4 3d 7a 0e 66 bc 8b aa 13 be
       -0.3737419 0.09606617 -0.014041537 -0.14420526
0001c0 06 b5 8d b7 db 2e 7b b7 8f 50 36 bd c6 f9 8b 31
       -1.6892805e-05 -1.4971675e-05 -0.04451042 4.0738284e-09
0001d0 14 e9 d4 b3 bb 55 e4 bd 4c de 97 3d da 7b 56 bc
       -9.914416e-08 -0.11149164 0.07415447 -0.013091052
0001e0 13 0e 4c bd 4c 9f 41 3e 34 1f 57 bd 5e d7 1b 3e
       -0.04981811 0.18908423 -0.052519992 0.15218875
0001f0 d5 92 0f 3c a9 79 03 35 31 33 1f bc c9 6f 83 3d
       0.008763035 4.897834e-07 -0.009716795 0.06417806
000200 52 1e 40 bd c3 2f 0b be 1b d4 ff bd bd 27 1b 3e
       -0.046903916 -0.13592438 -0.12491628 0.15151878
000210 0e d0 61 bd f3 93 81 be fc 9f 24 3e 5c aa 0f bd
       -0.055130057 -0.2530819 0.16076654 -0.035074577
000220 0b f8 0a be 73 50 02 3e a8 eb 17 3e a2 8e b2 3d
       -0.13571183 0.12726001 0.1483599 0.08718611
000230 de b9 24 bd 99 a7 16 3e 5b 32 d6 be e2 55 a7 bd
       -0.04021632 0.14712371 -0.41835293 -0.08170678
000240 2c f1 74 bd fa 91 47 bc 47 91 3a bd f4 a2 15 bd
       -0.059800312 -0.0121808 -0.045548704 -0.036532357
000250 bb 48 00 be a7 01 ef 3b 2c 4b 36 bd e7 ee 0e 3e
       -0.12527744 0.007293898 -0.044505283 0.13958322
000260 e6 29 d8 3d 92 bc d3 3d 53 19 02 3e 0c ba b5 bc
       0.105548665 0.10338701 0.12704973 -0.02218344
000270 b7 7c 28 be c7 43 00 3e 33 8a b8 bd b3 7e f3 bc
       -0.16453825 0.12525855 -0.090107344 -0.0297235
000280 b9 ff df 3d e0 67 d1 3c ae 77 06 3e 1e 3c d5 bd
       0.10937447 0.025562227 0.13131592 -0.10411857
000290 b4 ad c9 bd 88 b7 a7 3d 78 88 96 3d c0 4a 86 ba
       -0.09847584 0.08189303 0.07350248 -0.0010245666
0002a0 19 1f a2 3e d1 f0 1d be e2 ba 96 3e ef 4e 05 bd
       0.3166435 -0.15423895 0.29439455 -0.03254598
0002b0 14 70 aa be 85 79 34 be 3f 7c 82 bd 56 88 e6 b8
       -0.33288634 -0.17624481 -0.06371354 -0.00010992649
0002c0 7e c3 d6 b8 e5 cd 0d 3e f6 01 17 b4 90 4a 42 b4
       -0.000102407284 0.13848074 -1.4063684e-07 -1.8094784e-07
0002d0 82 57 34 3c 37 b0 3a bd bc 5c 1a be b6 56 95 3d
       0.011007192 -0.045578208 -0.15074438 0.072919294
0002e0 07 b9 a2 3d cd ad f7 bd 22 74 f1 bd 4d c5 15 bd
       0.079454474 -0.12093697 -0.11789729 -0.036565114
0002f0 c9 37 a4 35 07 6b af bd 5e 8f b2 3d 24 40 5e 3c
       1.2235188e-06 -0.08565336 0.08718751 0.013565097
000300 3b d6 f6 3d 2f 7f 3b 3d 0e 7b 4a be 3e c1 eb bc
       0.1205258 0.04577559 -0.19773504 -0.028778668
000310 9a a7 6a 3e d2 90 62 bd 76 1c a5 3d 30 ad 80 bc
       0.22915497 -0.055313893 0.08062069 -0.015707582
000320 8c c2 99 bd 2b 66 8e bd 30 24 c2 3d 6b d6 2f be
       -0.0750781 -0.06953081 0.094795585 -0.17171638
000330 9a 4d b4 bd 67 f0 95 3e e3 0e fd bd a2 e4 20 bc
       -0.08803864 0.29284975 -0.12356355 -0.009820135
000340 8c f1 a0 bc f1 01 90 bc 80 e5 61 bb cf 02 ab bd
       -0.019646429 -0.01757905 -0.0034469068 -0.08350145
000350 6d e8 cd bc 80 c4 94 bd 77 54 c0 bc 93 6c b4 bd
       -0.025135243 -0.07264042 -0.023477776 -0.088097714
000360 1e 67 78 bd 12 16 5b bd ac 84 85 3d d1 0a 2e 3e
       -0.060645215 -0.053487845 0.06519446 0.16996314
000370 89 60 5c bd 70 c4 7d bc 76 0d 9d 3d b7 42 bf bd
       -0.053803 -0.015488729 0.07668583 -0.09338897
000380 52 a4 d5 bc 65 12 14 be b2 f4 53 bd 68 af 13 be
       -0.02607933 -0.14460142 -0.05174703 -0.14422381
000390 f3 6a 9d bb 31 75 7f 3c 33 64 43 3d 3c 96 af be
       -0.004804009 0.015591905 0.04770298 -0.34294307
0003a0 e1 8f 76 3e 66 68 42 be a8 5a 5a be 02 fc a3 3e
       0.24078323 -0.18985137 -0.21323645 0.32028204
0003b0 ae 5a b4 3d 7f 52 ae 3d 36 8c 74 38 69 f5 68 38
       0.08806358 0.08511829 5.8304715e-05 5.5541666e-05
0003c0 ef ec f3 bc ad 01 1f b3 82 2b 83 33 e2 25 2e bd
       -0.029776065 -3.7021596e-08 6.108077e-08 -0.042516597
0003d0 46 39 83 3c 95 be 28 3e 8c e6 9c 3d d6 b3 1d 3e
       0.016018521 0.16478951 0.07661161 0.15400633
0003e0 30 67 08 3e 31 42 f8 3d 5f 7a dc 3d 0a c2 e0 b4
       0.13320613 0.12122 0.10765528 -4.1864433e-07
0003f0 48 c2 19 3e ab d3 dc bd 75 9f bc 3d ab aa 05 3e
       0.15015519 -0.1078256 0.092101015 0.13053386

embedding.embeddings.ken_20230618_denoised.poses.bias f4 [64]
000000 ea a8 9b 3d 34 4f 58 3d 31 45 96 3d 1d 62 06 bc
       0.07600577 0.05280991 0.07337416 -0.008202103
000010 2b 27 b9 bd 9b 43 1c be 4b cf 23 bc 84 b3 6a bb
       -0.09040674 -0.15260164 -0.009998153 -0.0035812566
000020 aa b9 fd 3a e4 a6 c9 bd f6 a3 b0 bd fa 05 d6 bd
       0.00193577 -0.09846285 -0.08625023 -0.10450359
000030 65 5a 16 3e 14 65 35 3c bf a1 06 be f5 d6 77 bc
       0.1468292 0.011071462 -0.13147639 -0.015126933
000040 e9 66 82 3d 35 30 3b 3d 26 6b 13 3e 15 a8 e2 bd
       0.06367285 0.04570027 0.14396343 -0.11067215
000050 83 4d dd bc 7f ac da 3c 97 a2 b8 bc 8e c3 6d bd
       -0.0270145 0.02669358 -0.022538466 -0.058047824
000060 95 22 e8 3c 7c 0b 8d 3d 06 b9 fd bd 0b 60 cc 3c
       0.028336802 0.06886956 -0.12388806 0.02494814
000070 d6 af 06 be cb bd 15 3c 3d b0 2b bd 1b b0 52 bd
       -0.13153014 0.009139488 -0.04191612 -0.05143748
000080 d1 09 09 be aa e2 c1 3d c6 0f 21 be 6d c9 49 3d
       -0.13382651 0.09467061 -0.15728673 0.04926436
000090 62 ad 0b be c1 1b 2e ba b1 91 2d bd 5a f5 1a be
       -0.13640359 -0.0006641709 -0.04237527 -0.15132657
0000a0 bf 8f 10 3e fe 42 d5 3d 95 11 c1 bd a7 77 cb 3d
       0.14117335 0.10413168 -0.09427182 0.09934931
0000b0 3b 3c d5 3d 5e b7 bb bd ea 6d 95 bd 50 6c b3 bd
       0.10411879 -0.09165834 -0.07296355 -0.08760893
0000c0 8e c9 03 3e 72 20 b1 3d 76 81 cc 3d ef f4 11 be
       0.12869856 0.086487666 0.0998563 -0.14253591
0000d0 15 6b a5 3d e4 12 97 bd 0d 4f 98 bd 77 f0 0e bd
       0.08077065 -0.0737665 -0.07436953 -0.034897294
0000e0 4d f4 c0 3d b0 99 9d bd c0 95 6b 3d a6 21 9c 3d
       0.09421597 -0.07695329 0.05751586 0.076236054
0000f0 65 8e e0 bd e6 97 14 3e 16 03 42 bd 74 1d 0c be
       -0.109646596 0.1451107 -0.047366224 -0.1368311

core.core.fc.0.0.weight f4 [128, 64]
000000 03 ec 50 bd 58 db 11 be 25 df 53 3e bd 63 ca bb
       -0.05100633 -0.14243829 0.20690592 -0.0061764405
000010 ea 10 50 3d 4b 9a 02 be fe 9d 3e bd e3 f5 19 3e
       0.05079738 -0.1275417 -0.04653739 0.15035205
000020 4d c8 0e 3d f8 0d a1 bd 16 f7 b8 3e 83 59 1b bc
       0.03485899 -0.078639925 0.36126012 -0.0094817905
000030 2f 41 97 bd 6d 59 c9 3d 16 98 2c be c8 00 bb 3b
       -0.0738548 0.0983151 -0.16854891 0.0057068802
000040 28 36 b1 3d c7 77 4e bd d3 ce dc bd c0 bd 18 be
       0.086529076 -0.050407197 -0.10781636 -0.14916134
000050 be 6b 31 3d 9d 00 cb 3d f1 6c 4d be eb e3 02 3e
       0.04331564 0.09912226 -0.20061089 0.12782256
000060 19 10 69 3d d4 90 1b be 48 d6 a5 bd c5 f0 a5 3d
       0.056900118 -0.15191966 -0.080975115 0.08102564
000070 1f c2 2c bd 38 e0 0c be 43 31 1e bd f5 d8 0f bd
       -0.042177316 -0.13757408 -0.0386212 -0.035119016
000080 fc 65 82 bd 8c fd f5 bc 7d 40 6e be d9 64 64 3d
       -0.06367108 -0.030028127 -0.23266788 0.05576024
000090 a0 e9 8d bd 29 e3 22 be 88 28 13 3c e5 ae 4f bc
       -0.06929326 -0.15906967 0.008981831 -0.012675975
0000a0 7a 8f 84 bc cd 40 a6 bb 7e 9b 82 bd f2 42 b0 bd
       -0.016181696 -0.005073643 -0.06377314 -0.08606519
0000b0 45 90 77 3a 46 a3 07 be a9 a3 5f bb 0c 31 7e be
       0.00094438 -0.13245878 -0.0034124649 -0.24823397
0000c0 9e f5 8a bd 24 1c c8 3d d4 74 62 3c 24 17 34 be
       -0.06785129 0.097709924 0.013821799 -0.17586952
0000d0 93 66 12 bd b1 fb 28 bd 7b 7e 27 3e 2e c9 16 3e
       -0.035742354 -0.041255657 0.16356842 0.14725181
0000e0 9f 28 25 3d e3 49 87 3d a2 1f 42 be 99 f0 a0 3c
       0.040321942 0.0660589 -0.1895738 0.019645976
0000f0 fa 26 0c 3e 1e 4f 2e be 4a 13 1a be 14 b8 1c 3e
       0.13686743 -0.17022368 -0.1504642 0.15304595
000100 cf 9f f1 bd 5a 5a 42 bd b4 a9 49 bc 8b 1d 91 3d
       -0.11798059 -0.047449447 -0.012308527 0.07085713
000110 7f 98 15 3e bf 42 81 bd 38 c0 4a bd 17 57 9f 3c
       0.14608954 -0.06311559 -0.04949972 0.019450707
000120 f0 ef 3a 3d 72 5a 8c bd 38 a5 81 3e 63 ed 30 3d
       0.04563898 -0.068531886 0.25321364 0.04319514
000130 75 4a 4b be 16 3f 64 bd 92 66 d4 bd 7b a9 9f bb
       -0.19852622 -0.055724226 -0.10371126 -0.0048724986
000140 9d ab e3 bd b7 17 83 3d 8d 5e 17 3c bc 2d 84 bd
       -0.11116717 0.064010076 0.009238851 -0.06454036
000150 0e 79 49 3d b4 eb d3 3c a3 8f 41 bd 5d 3b 16 bd
       0.049187712 0.025869228 -0.047256123 -0.036677707
000160 6d 04 74 bd 9c 33 b8 bd f7 1f ec 3d e9 dd dc 3d
       -0.059574533 -0.08994219 0.11529534 0.107845135
000170 6c 17 16 3e 72 dc 3a 3d 81 82 eb bd 45 64 b1 bd
       0.14657372 0.04562039 -0.11499501 -0.08661703
000180 3a d3 ae 3d f6 a9 e0 bb df e0 4b bd e6 df 0b bd
       0.08536382 -0.0068561984 -0.049775 -0.034149073
000190 c5 2f eb 3d 3f c6 8b bd 50 1d 27 bd e4 17 19 3e
       0.11483721 -0.06824922 -0.04079944 0.1495052
0001a0 c4 c2 09 3d a0 1a 8a bd fc 64 09 3e fb b7 91 bc
       0.03363301 -0.067433596 0.13417429 -0.017787924
0001b0 97 48 f6 bd f4 25 aa bd 47 e5 30 3c 2e f9 6d 3d
       -0.12025564 -0.0830802 0.0107968515 0.058098964
0001c0 9a 8c 32 bd 45 9a ab 3c a3 b9 42 3d f6 8b db 3c
       -0.04359112 0.020947585 0.04754032 0.026800137
0001d0 0a e6 1d be df 4b eb bd ae 27 22 3e bc dd 03 3e
       -0.15419784 -0.11489081 0.15835449 0.12877554
0001e0 aa 1b 4d 3d 0e 54 96 3d 12 9a 98 bd e8 c8 b3 bd
       0.05007521 0.07340251 -0.074512616 -0.08778554
0001f0 bf 86 bb 3c 7c ff 14 be d8 77 ca 3d 37 22 bb 3d
       0.0228914 -0.14550585 0.0988614 0.09137385
000200 69 d5 8b 3e 6b ce 8e bc 8c 72 70 3d 04 d3 5c be
       0.27311257 -0.017432412 0.05870299 -0.21564871
000210 3b 8e f2 3d 71 a4 31 be 72 d5 ee 3d 5c 50 59 be
       0.118435346 -0.17347886 0.11661805 -0.21222061
000220 3b 57 d4 bc 28 21 62 3d 78 d6 5d be 24 be 92 bd
       -0.025920501 0.0552074 -0.21663845 -0.07165173
000230 a7 06 2a 3e aa f3 28 3e 43 3a 25 be f8 f6 6f 3d
       0.166041 0.164992 -0.16135506 0.058585137
000240 3f d3 78 3d 1c 14 07 bd 22 17 f5 3c 21 1e a1 ba
       0.060748335 -0.032978162 0.029918257 -0.0012292304
000250 98 16 4b bb 81 bb 87 bd 68 93 93 3d ce 05 4c bd
       -0.0030988809 -0.066275604 0.0720585 -0.049810223
000260 31 44 05 be f1 10 7e 3d b3 e6 b4 bd 98 97 80 3d
       -0.13014294 0.062027875 -0.08833065 0.06278914
000270 38 6f 9c bc d3 c3 16 3d 09 02 16 3d 9d b1 66 bd
       -0.019096002 0.036807846 0.036623035 -0.05632173
000280 8f f8 b1 bd 68 83 4a 3d db 01 04 bd 2f 29 eb bc
       -0.08689987 0.049441725 -0.032228332 -0.028706161
000290 1c 25 52 3d 71 f6 79 3c 11 83 b4 bc aa a7 d2 3c
       0.05130492 0.01525651 -0.022035154 0.025714714
0002a0 46 51 4d 3e 76 b9 91 3c 7e 1c be bd bc a0 07 3e
       0.20050535 0.01778863 -0.09282778 0.13244909
0002b0 8b df 31 bd 08 1f 4d 3d 49 76 2c 3c 1d 15 8c 3e
       -0.043426078 0.05007842 0.010526248 0.27359858
0002c0 ad 6a fb bc 1b 0a a1 3d a0 b8 5c 3c c8 16 13 3d
       -0.030690515 0.078632556 0.013471752 0.035910398
0002d0 f3 f7 18 bd e3 2c c4 bd 75 a2 3c be a3 3f ee bd
       -0.037345838 -0.09578874 -0.18421347 -0.116332315
0002e0 a8 fc 25 3e 9c 1a 2d be 44 fe 15 3e ff 07 06 3d
       0.16209662 -0.16904682 0.14647776 0.03272247
0002f0 ff f6 99 bd 37 e5 22 3e 9a db 95 3a 91 6e 8f bd
       -0.07517814 0.15907751 0.0011433244 -0.07003511
000300 e2 f4 d6 bd 96 a8 03 3e f3 58 bd be 89 f5 6c 3e
       -0.104959264 0.12857279 -0.36981925 0.23140539
000310 a8 71 e3 3b 33 79 92 3e 85 77 05 be 4f 56 82 3d
       0.006941039 0.28608093 -0.13033874 0.06364118
000320 7a 9a f8 bd 19 4a f1 3d d3 84 a1 bd 35 58 b7 3e
       -0.12138839 0.11781711 -0.07886662 0.35809484
000330 5f 83 10 be 1f e0 6c be d3 13 ba 3e c4 b2 e0 3d
       -0.14112614 -0.2313237 0.3634325 0.10971597
000340 e9 e8 54 be f9 fa ed bd 08 22 de bd 94 27 b9 3d
       -0.20791973 -0.11620135 -0.10846335 0.09040752
000350 29 22 91 3d aa b4 75 3b 12 83 d1 3d 71 1a 0f 3e
       0.07086594 0.0037491717 0.10230078 0.1397493
000360 fa 3f 9e bc 83 da d9 3d 0c 98 ea bc 19 ed fb bd
       -0.019317616 0.10637381 -0.028636955 -0.12301082
000370 ba 81 c2 3e 7a 26 8e 3d fd 80 81 bd d4 df 77 be
       0.379896 0.069409326 -0.06323431 -0.24206477
000380 c6 51 6a 3d 06 fd 3f 3d 9f d1 f1 3d e2 e6 34 3e
       0.05720689 0.04687216 0.1180756 0.176662
000390 fc c3 8f 3d 44 15 20 3d 5d 20 64 3e 23 7a 0c 3e
       0.07019803 0.03908278 0.2227797 0.13718466
0003a0 3b 95 18 3d ce 76 62 be a5 d8 2d be 2f ee 8d bd
       0.037251692 -0.22115633 -0.16977175 -0.069301955
0003b0 e7 d8 5c be 7b 52 03 3e e9 8b 60 3d aa 3f 54 3e
       -0.21567117 0.12824433 0.05482093 0.20727411
0003c0 57 2e 2c be 67 54 93 bd 42 f5 c0 3c b8 0d 96 3d
       -0.16814552 -0.07193833 0.023554448 0.073268354
0003d0 bd 6f 3b be 7b 30 bc 3d a0 4b 29 3d e9 16 96 3e
       -0.18304344 0.091889344 0.041331887 0.29314354
0003e0 44 08 74 be ea 8b 21 bc f7 86 62 3d 3d 09 5f be
       -0.23831278 -0.009860018 0.055304494 -0.21780868
0003f0 4a 57 8e 3d be 53 1f bd fd 90 23 3e d5 c7 50 bb
       0.06950243 -0.038898222 0.15973277 -0.003185739

core.core.fc.0.0.bias f4 [128]
000000 0d 27 0e 3e 3a b3 c2 3c 65 67 e9 3d 44 c6 3d bd
       0.13882084 0.023767103 0.11396674 -0.04633166
000010 60 ab 09 3d 40 b5 ef 3c 9e 2f 24 3e 7d b7 0d 3e
       0.0336107 0.029261231 0.1603379 0.13839526
000020 6c b2 83 bd 4d 5e 12 3e 1c 06 6b 3c 60 16 08 be
       -0.06430516 0.14293785 0.014344718 -0.13289785
000030 b9 2f e1 bd 6b cf b2 bd 1b 20 dd bd 48 ba 3c 3e
       -0.109954305 -0.08730968 -0.10797139 0.18430436
000040 2e 62 88 bd 8e 0c ba bd ca 56 04 3e 64 be 6f 3d
       -0.06659351 -0.09084426 0.12923732 0.05853118
000050 a5 4f 06 be df b5 32 3d ab 23 00 3e cc 76 13 3d
       -0.1311632 0.043630477 0.12513606 0.036001965
000060 4c ec 9c 3d ea d6 0a bd 0e 98 e8 3d 13 0d d4 3d
       0.076622576 -0.033896364 0.11357127 0.10354056
000070 00 6f 87 3d 37 df 51 3e 97 03 2c 3e 32 38 92 3d
       0.066129684 0.20495306 0.16798244 0.07139625
000080 95 2f 07 bd d9 83 9d 3d 6f 92 21 3d 60 82 f3 bd
       -0.033004362 0.076911636 0.03944629 -0.118901014
000090 ff df 2b 3d 55 15 19 bd 74 04 bc bd 2b a0 dc bd
       0.041961666 -0.03737386 -0.09180537 -0.10772737
0000a0 21 12 09 3e d9 f5 72 3c 5d f6 a6 3d 92 40 f3 3d
       0.13385822 0.014829122 0.08152459 0.1187755
0000b0 99 89 e2 3c 09 df 05 bc 80 04 19 3e b7 41 2b 3d
       0.027653502 -0.0081708515 0.14943123 0.041810717
0000c0 3e d8 d3 3b 2b f0 30 3e b6 db e3 3d d9 eb 45 3d
       0.006464987 0.17279117 0.11125891 0.048320625
0000d0 04 a2 11 be 3d 12 8b bc 2c 7e 61 bd 93 3d 8f bd
       -0.1422196 -0.01697647 -0.055051968 -0.06994166
0000e0 9b c5 4c bd 0d 80 07 3e 7e 58 33 3e 45 f4 91 3d
       -0.04999314 0.13232441 0.17514226 0.07126669
0000f0 48 13 f8 3d 27 42 28 3e ac 02 c7 3b 73 5a 81 bc
       0.121130526 0.16431485 0.0060733166 -0.0157902
000100 66 e6 65 3e f7 83 c2 3d 9b 05 80 3d 29 5e 18 3e
       0.22451171 0.094978265 0.06251069 0.14879669
000110 f5 0b 42 3e 8a b2 39 3e 03 21 56 3e d9 6b 38 3e
       0.18949874 0.18134513 0.2091103 0.1800989
000120 39 c2 d5 3d 66 0e 33 3e 3f 50 1f 3e 06 a0 01 be
       0.10437436 0.17485961 0.15557955 -0.126587
000130 f5 50 fd 3d cc 27 82 bb 76 cb 61 3d de 67 ab bd
       0.12368957 -0.0039720293 0.055125676 -0.083694205
000140 c6 7a a6 bd f3 9a 18 be aa d5 93 3d 92 ac f2 3c
       -0.08128886 -0.14902858 0.072184876 0.029623304
000150 3c a3 ae bc 15 96 0d bd b9 87 a7 3d f5 28 e0 bd
       -0.02131807 -0.034566958 0.08180184 -0.10945312
000160 f2 1f 1e 3e d9 e7 44 3e db 0b 59 bc 52 06 0b bd
       0.15441874 0.19229068 -0.0132474555 -0.033941574
000170 ae de 93 bc 66 ad 1f 3e 06 7d 3e 3e 3e 17 30 3d
       -0.018050518 0.1559349 0.1860238 0.042990915
000180 08 00 2b 3e d0 25 41 3e 06 d8 f9 3c 9b bd 79 bd
       0.1669923 0.1886208 0.030498516 -0.060971837
000190 11 83 a8 bc 4c bd 5b bd 60 1b 46 bb 3b 34 d9 3d
       -0.02057031 -0.053647324 -0.003022872 0.10605665
0001a0 63 54 25 3e 78 d1 55 bd 84 b9 32 3e 9c 46 79 3d
       0.16145472 -0.052201718 0.17453581 0.060858354
0001b0 20 51 9b 3d 6e b9 32 3e a3 1f 10 bd c5 83 95 3b
       0.07583833 0.17453548 -0.03518642 0.0045628273
0001c0 78 27 15 be 2a 78 e5 ba 59 04 c1 bd 9a 70 7e 3d
       -0.14565837 -0.0017507125 -0.094246574 0.062119104
0001d0 ba 65 a4 3c 58 37 18 3e 34 a1 a7 3d 50 c3 cb 3d
       0.020068038 0.14864862 0.08185044 0.09949362
0001e0 02 22 ba bd b8 63 40 3d e2 c9 41 3e 07 bb ea 3d
       -0.09088518 0.0469701 0.18924668 0.11461454
0001f0 8b 33 f1 bd 96 b8 ef 3d d6 bb 9a bd 66 57 d1 3c
       -0.11777409 0.11705129 -0.07555358 0.02555437

core.core.fc.1.0.weight f4 [64, 128]
000000 e5 6b 54 bc e8 8d 16 bc 03 a7 06 be c0 19 11 3c
       -0.012965177 -0.0091891065 -0.13149647 0.008856237
000010 44 6f 9b 3d d5 dd 11 bc a5 54 fc bd 36 d6 bd bc
       0.075895816 -0.0089029865 -0.12320832 -0.023173433
000020 47 c6 f0 3d 42 d0 a7 bd f7 8c 33 be 71 5d a2 ba
       0.117565684 -0.08194019 -0.17534243 -0.0012387467
000030 12 c4 e4 3c b0 40 8f 3b 2d a8 1b bc 70 9a a1 bd
       0.027925525 0.004371725 -0.009500545 -0.07890785
000040 7c eb 44 3d 14 28 4b 3e 1e ed 9f bd 78 80 e3 bc
       0.048076138 0.19839507 -0.078088984 -0.02777122
000050 cb d7 ed 3d 9f b6 d0 3e e6 ee 17 be 11 56 2c 3e
       0.11613425 0.4076433 -0.14837226 0.16829707
000060 28 8e 41 bd 31 5b 5a be 5f 5a bb bd 78 82 23 be
       -0.04725471 -0.2132385 -0.09148096 -0.15967739
000070 66 00 1c be f8 9b d5 bc 21 76 41 be 02 cf 7c bd
       -0.15234527 -0.026075348 -0.18892719 -0.061720856
000080 ce e1 7c be e8 29 2a be 9e 40 ae be 52 f9 33 bd
       -0.24695513 -0.16617548 -0.34033674 -0.043938942
000090 20 d1 4a be 1e 6d 5f 3e 87 e3 54 3d dd 6a 04 3e
       -0.19806337 0.21818969 0.0519748 0.1293139
0000a0 f0 06 ad bc ec 7f 6c be e1 d2 31 bd 47 57 e0 bd
       -0.021121472 -0.23095673 -0.043414 -0.10954147
0000b0 c3 a5 8b be c6 60 c2 ba c4 c3 b5 3d ff aa 74 3d
       -0.27274904 -0.0014829866 0.0887523 0.059733387
0000c0 ac 5e f8 bd 2b c8 74 bd 3d ff 30 3d 35 63 3c 3d
       -0.12127432 -0.059761208 0.043212164 0.04599305
0000d0 96 df a5 3d 5c 52 e2 3e f1 aa a7 3d ad e8 2a 3e
       0.08099286 0.4420346 0.08186901 0.16690321
0000e0 ee 36 29 3e 92 66 07 be 4a 9a 98 bd cf ec 6e 3d
       0.1652486 -0.13222721 -0.07451303 0.058331307
0000f0 84 9b 83 bd 9f 06 14 bd b7 5a 92 3e b4 0c 01 3f
       -0.064261466 -0.036139127 0.28584835 0.5041001
000100 e7 9b 93 bd 25 dd c7 bd 17 d9 aa 3d ce 0d 0f 3d
       -0.072074704 -0.09758977 0.08342188 0.034925275
000110 56 aa 43 3c 2d be 9a 3d db ee 19 be 26 08 ac bd
       0.011942467 0.075558044 -0.15032522 -0.08399992
000120 f6 d9 f9 3c b1 0b bc 3d de 8e d8 3c 98 31 a5 3d
       0.03049944 0.091819175 0.026435312 0.080661
000130 a1 90 d6 bd 06 c7 45 be 4d b9 9e 3d fc bb 7a bd
       -0.104768045 -0.19314203 0.07750187 -0.061214432
000140 e4 6e b6 bd 33 ca 10 3e 8d 10 9b bd 50 4f b5 3e
       -0.089078695 0.14139633 -0.07571516 0.35412073
000150 09 27 dc 3b 27 e5 b6 3d 2b d2 ef bd 2c 15 60 bd
       0.0067185205 0.08930426 -0.11710008 -0.05470769
000160 d0 73 71 bd 39 83 00 be 3a 22 ae 3d d0 97 22 3d
       -0.058948338 -0.12550057 0.08502622 0.03969556
000170 15 30 47 3e 49 dc d7 bd fe 3e 1a be cd b1 f2 bd
       0.19451936 -0.10540063 -0.15063092 -0.11850319
000180 dc ea 7d bd e1 b0 ae bb 5b 6d 40 be 28 58 85 3d
       -0.061991557 -0.005331144 -0.18791716 0.06510955
000190 f6 be ec 3d 32 08 6d 3e 6b 2f fe bd 7c 39 5d bd
       0.115598604 0.23147658 -0.12411388 -0.0540099
0001a0 a1 9a 2b be cd f7 f3 3c 85 d4 51 be 5e c2 3b bd
       -0.16758205 0.029781247 -0.20491226 -0.04583966
0001b0 19 24 09 3e d0 3f 86 3d a9 5e 6b 3e 80 64 38 bb
       0.13392676 0.0655514 0.22985329 -0.0028136075
0001c0 73 6c 2e bc 0a 46 d4 3d 69 0f fa 3d 8f ec 84 be
       -0.0106459735 0.103649214 0.122099705 -0.2596173
0001d0 d8 b3 81 bd 08 1b ee bd 0e 5b c5 bd 5d 32 32 be
       -0.063331306 -0.116262496 -0.09636508 -0.17402025
0001e0 2b 55 fb 3d 39 08 d5 bd fe 38 89 be 78 b9 76 3d
       0.12272104 -0.10401959 -0.26801294 0.06023547
0001f0 37 69 3a 3e 5f 06 a2 be 5b 9e b0 bc 83 a5 2c be
       0.18204199 -0.31645486 -0.021559885 -0.16860013
000200 1d f5 35 3b 14 33 da bd f3 84 33 3c e1 30 7b bd
       0.0027764507 -0.10654274 0.0109569905 -0.06132591
000210 60 aa 07 be 37 85 cf bb b2 90 cd 3d e8 10 c6 3c
       -0.13248587 -0.006333019 0.10037364 0.024177983
000220 ad aa a7 bd 67 2b 10 3d 1e 6a f3 3c 14 dd c9 bb
       -0.08186851 0.03519764 0.029713687 -0.006160388
000230 fa 76 b2 3c 54 95 43 bb c7 50 16 3d ce 9d 62 3d
       0.021785248 -0.0029843645 0.03669813 0.055326276
000240 b1 df 1e be c0 16 0a be 3a 3c ca 3d cf 39 9c 3c
       -0.15515019 -0.13485241 0.098747686 0.019070534
000250 08 1a cf bd 68 9c 21 be 00 13 a2 bc 95 ed 20 be
       -0.10112387 -0.1578232 -0.01978445 -0.1571563
000260 72 46 da 3c 78 00 22 bc 81 4e ae 3d c0 c8 a1 bd
       0.026644919 -0.009887807 0.08511067 -0.07899618
000270 ea 84 cb 3d 59 50 16 bd 65 ac 1c 3d b4 ec 5e 3c
       0.09937461 -0.03669772 0.038250346 0.013606239
000280 c0 cc 0a be 25 6a 50 3c 03 b4 e8 bc d6 53 1b be
       -0.13554668 0.012720619 -0.028406149 -0.151687
000290 d3 e0 89 bb 47 c1 b6 bd e5 91 cc bd 13 90 5f bd
       -0.0042077093 -0.089235835 -0.09988765 -0.05458076
0002a0 8d 4c 12 bd af 98 5f 3c e9 94 f6 3d b9 b4 0b bc
       -0.035717536 0.013647242 0.12040121 -0.008526974
0002b0 b8 2e 82 3d bb fd fb 3c f5 ca 7a bd a6 f5 db 3c
       0.06356567 0.030760637 -0.06122871 0.026850533
0002c0 b4 f7 a5 bd b1 62 95 bc 55 89 b9 3d 50 b4 30 bd
       -0.08103886 -0.018235536 0.09059397 -0.04314071
0002d0 a3 c9 41 bd 3f 28 03 be cb c2 18 bc 39 72 46 bd
       -0.047311436 -0.12808321 -0.009323786 -0.048448775
0002e0 df 11 5b bd a5 e6 8b 3d b7 3c 3d bb ad 67 9b bd
       -0.05348384 0.06831101 -0.00288753 -0.07588134
0002f0 32 30 4d bd 0a 47 a0 3d 56 13 1d bc db 70 14 bd
       -0.05009479 0.078260496 -0.00958713 -0.03624044
000300 70 55 c5 bc c2 c5 d6 3c 3a b5 f5 bd 26 2d a3 bc
       -0.024088591 0.026217345 -0.11997457 -0.01991899
000310 c4 9e a1 bc ac 39 73 3d 37 34 10 3d 0d 84 a7 3c
       -0.019729026 0.059381172 0.035206046 0.020448709
000320 11 28 90 3c 5e 15 92 3d a7 db 0b bd c6 47 e3 bd
       0.01759723 0.07132982 -0.034145024 -0.11097674
000330 fd 74 ec bc e9 58 85 3d 75 01 f1 bd 9b 0f 36 3c
       -0.028864378 0.06511099 -0.11767856 0.011112119
000340 80 46 b0 3b 55 15 1a bd 0e a6 19 3e ad fd c4 bd
       0.005379498 -0.037618 0.15004751 -0.09618697
000350 b3 43 bb bb 72 e5 eb bd f0 10 00 3d b2 a5 74 bd
       -0.0057148575 -0.115183726 0.031266153 -0.059728332
000360 84 6e b7 bc ed 1f 9d bc 5a ba f7 3b f8 71 1f be
       -0.022391565 -0.019180262 0.0075600566 -0.1557082
000370 28 c3 be bd 97 b9 07 3e ff 90 7d 3d b5 1a c2 3c
       -0.09314567 0.1325439 0.061905857 0.023694376
000380 11 58 24 bd 54 79 90 3d 31 79 90 bc 7d 2c 81 bd
       -0.04012305 0.070543915 -0.017635914 -0.063073136
000390 31 93 91 bd f8 8d a3 bd 91 9b e1 bb a9 3f b3 3d
       -0.07108153 -0.07986063 -0.006885 0.087523766
0003a0 e1 55 7e 3d f2 21 d4 3c 6a 8f c0 3d c2 41 8d bd
       0.06209362 0.025895093 0.09402354 -0.06897308
0003b0 04 b8 1f 3c 6a b6 03 bd 2f 06 c5 bd 99 5e 11 bd
       0.009748463 -0.032156385 -0.0962032 -0.035490606
0003c0 4a 52 26 bd ff 58 d8 3c 73 20 ae bd 2e 3d f1 3c
       -0.04060582 0.026409624 -0.08502283 0.029448118
0003d0 c6 1c 4c 3d 27 a2 87 bd e2 df 8b 3d d6 f3 4f bd
       0.049832128 -0.06622725 0.06829812 -0.05076965
0003e0 40 7f c2 bd 60 09 2a bc b9 55 30 bc 53 27 69 bd
       -0.09496927 -0.010378212 -0.010762625 -0.056922268
0003f0 aa 71 05 bc 59 84 05 3d b5 05 d2 bd 83 a1 f4 3b
       -0.008144775 0.03259692 -0.10254995 0.0074655428

core.core.fc.1.0.bias f4 [64]
000000 83 53 18 3d 13 45 a4 3d 4d dd bd bc 13 e9 a9 bd
       0.037189018 0.08020987 -0.023176813 -0.082964085
000010 d0 f5 4e 3c 42 28 3f bd a5 83 4c bc e9 51 04 3d
       0.012631848 -0.046669252 -0.012482558 0.032304678
000020 da 6b b0 39 54 fb a9 3d e6 0f bd bd 02 b6 d0 3d
       0.00033649692 0.0829989 -0.09231548 0.10190965
000030 51 6b 4f bd 00 4d e7 bb 09 b8 ef 3c 33 00 17 bd
       -0.050639454 -0.0070587397 0.02926256 -0.036865424
000040 eb 80 f3 3c bf 2e 62 bd 93 e5 93 3d 46 7d e4 3d
       0.029724559 -0.05522036 0.07221522 0.111567065
000050 f8 82 a9 3b e1 ba 13 bd 7f 95 8a 3c a8 ac 5d bd
       0.0051730834 -0.036066893 0.016916988 -0.054119736
000060 4d 25 04 bd 9e 9c 06 3d f9 b4 8e 3d ab 5c 95 3d
       -0.032262135 0.032864206 0.069681115 0.07293066
000070 e2 01 cf bd d2 c9 b6 bd 65 92 16 3e bd de 90 3d
       -0.10107781 -0.08925213 0.14704283 0.07073734
000080 93 ce e3 bd 5e 57 57 bb 5f f5 ef 3a af 48 a5 bc
       -0.11123385 -0.0032858471 0.0018307379 -0.02017626
000090 16 b1 cf 3d 66 36 ca 3c 48 a0 7a bc b8 cb a7 3d
       0.10141198 0.024684142 -0.015297003 0.08193153
0000a0 58 06 e1 bd 10 a7 7f 3d 15 c1 c6 bd 16 27 98 bd
       -0.10987538 0.062415183 -0.09704796 -0.0742933
0000b0 e3 5a 20 bd e1 ec 5b 3d c7 9c 1a bd d4 34 11 3e
       -0.039149176 0.053692702 -0.03774717 0.14180309
0000c0 6f 95 98 3c 9e 4a 93 3d 7d 98 d0 bd b0 38 d1 bb
       0.018625943 0.071919665 -0.10185335 -0.0063849315
0000d0 b6 c9 a3 bc d7 a8 ac bd 34 a2 ae 3d 59 c9 c1 3d
       -0.019993644 -0.08430641 0.085270315 0.09462232
0000e0 1c d9 f8 bb 2b 4d be bd 2a 0a c0 bb 60 2c f0 bd
       -0.007594241 -0.09292062 -0.0058605867 -0.11727214
0000f0 a1 da 58 bc b1 73 19 3d 42 cc e3 bb 6c 6f 88 bc
       -0.013235719 0.037463848 -0.0069518397 -0.016654693

readout.readouts.bex_20230623_denoised.location.weight f4 [2, 64]
000000 58 6e 2c 3e 33 eb bc bc b0 4c 15 be 45 65 0b be
       0.16838968 -0.02306137 -0.14580035 -0.1361285
000010 b5 12 5b bd 03 ee aa 3c 29 35 95 bd b8 92 c6 bd
       -0.053484637 0.020865446 -0.0728553 -0.09695953
000020 e1 6c 47 be 86 b5 bf 3d 3d d7 96 bd 79 c4 a8 3c
       -0.19475128 0.09360795 -0.07365272 0.020601498
000030 77 0b b0 3d 25 07 1d 3d 61 c6 07 3c e8 d3 95 3c
       0.08595937 0.03833689 0.008287043 0.018289521
000040 c2 46 9c 3d c7 8b b6 bd db 4e 24 be db 4e 1e 3e
       0.076306835 -0.08913379 -0.16045706 0.15459768
000050 e2 f2 06 be f2 13 04 3e 0b 8b 22 3e 20 17 cd bd
       -0.1317859 0.12898234 0.15873353 -0.10014176
000060 e2 80 9f bd 6a a8 e9 bd cd 34 b0 bd 40 bb fc 3d
       -0.07788254 -0.114090756 -0.08603821 0.123404026
000070 39 7c f2 bc 61 4c 48 be 5d d2 c2 b9 7a f9 87 3d
       -0.02960025 -0.19560386 -0.00037159296 0.06639381
000080 75 d3 aa bd 42 0c 81 3d 64 a0 19 be b6 f4 9c bd
       -0.083411135 0.06301166 -0.1500259 -0.076638624
000090 cb 30 c4 3d 27 e0 3a 3e 8e 03 99 bd 21 d8 ff 3d
       0.09579619 0.1824957 -0.07471381 0.12492395
0000a0 24 07 76 bc 5e 8d 26 3d 9e 53 1f be 5c ff f2 bc
       -0.015016351 0.040662162 -0.15559241 -0.02966278
0000b0 58 6a ea 3d b3 82 06 3d 2c 98 8a bc 89 2d 57 bd
       0.11446065 0.03283949 -0.016918264 -0.05253366
0000c0 c4 5e 80 3d 3b 3b 05 3e 7f 87 b8 3d c2 ad 5c be
       0.06268075 0.13010876 0.09010219 -0.21550658
0000d0 5e 69 17 3e f9 db 1d be cd b1 31 be a1 c1 1d 3e
       0.14786288 -0.15415944 -0.17352982 0.15405895
0000e0 e7 b5 b0 3d 20 37 f5 bd 9d bb d7 bd 70 4c 14 be
       0.08628445 -0.11973405 -0.10533831 -0.14482284
0000f0 72 44 8a bc 4a 03 89 bd ef 3e 91 3d ee 08 81 bd
       -0.01687834 -0.066900805 0.07092082 -0.06300531
000100 5f 7c d6 bd eb 37 20 3d df 42 ec 3b 99 b3 3a 3d
       -0.10472941 0.039115828 0.00721012 0.045581434
000110 4d 45 b8 3d b9 46 bd bd 27 ae 2b 3d 86 d9 a1 bd
       0.08997593 -0.09242005 0.04191413 -0.079028174
000120 9c 74 33 3e 78 34 07 bd e1 f3 e0 bd 34 ce 8b 3d
       0.17524952 -0.033009022 -0.10984016 0.068264395
000130 c3 24 c2 3d 76 c4 b9 bb ae e6 30 3e e0 30 81 bd
       0.09479668 -0.005669172 0.17275497 -0.0630815
000140 c2 99 11 3d 4b 8a c3 bd e3 5b dd 3c fd 7c dc 3d
       0.035547026 -0.09547862 0.027021354 0.10766027
000150 d7 d2 3d 3c fc 57 ac bd d7 96 e9 bc 26 05 db bd
       0.011585913 -0.08415219 -0.028514309 -0.10694341
000160 47 d6 12 be 61 7d d3 bd 9f 51 b1 3c 1b a1 30 3e
       -0.14339553 -0.103266485 0.021645365 0.17248957
000170 b4 c4 5b bd df 02 1c 3d 8e 1b c1 3d 9b 57 10 3e
       -0.053654388 0.038088676 0.09429084 0.14095919
000180 10 cc d6 bd d8 99 9b bd 36 92 63 bd 3c ec d6 3c
       -0.104881406 -0.07597703 -0.05555936 0.026235692
000190 cb 41 2d 3e 1a ef a8 bc 57 3d 07 be 73 df df bd
       0.1691963 -0.020621825 -0.13206993 -0.109312914
0001a0 eb 83 a7 bc 84 5c 4c bb cd 4b b1 3d 58 73 ff bd
       -0.020448646 -0.0031183073 0.08657036 -0.12473172
0001b0 29 29 09 3e 87 f4 a8 3d 10 69 1d be a6 4d 2d 3e
       0.13394608 0.08249765 -0.1537211 0.16924152
0001c0 7a 95 29 be b5 36 12 3e 9b 1b 25 be 1c cb 02 bd
       -0.16560927 0.14278682 -0.16123812 -0.03193198
0001d0 6b 38 43 3d 9d 1b cd bd 62 f8 ef 3d c1 b2 75 bd
       0.047661226 -0.100150324 0.11717297 -0.059984926
0001e0 87 6e 53 bd 49 b1 dc bd 17 39 e5 3b 96 33 6a bd
       -0.05161908 -0.10776002 0.006995331 -0.057178102
0001f0 36 a7 dc 3d d2 0a 15 3e 53 19 c0 3d 0a 57 31 bd
       0.107740805 0.14554909 0.0937983 -0.043295898

readout.readouts.bex_20230623_denoised.location.bias f4 [2]
000000 8d 6e 9c bc b1 8c fb 3d
       -0.019095683 0.12282694
