artifacts/poses_to_location/20250818233103/best_model.pt (torch, 383797 bytes, 48 tensors)

embedding.embeddings.bex_20230623_denoised.poses.weight f4 [64, 66]
-0.0101522915 -0.08840925 0.07841776 -0.06862131 0.08242935 -0.079887725 0.07380971 -0.030814324
-0.019191798 0.02657972 0.03929338 0.006105828 -0.10104424 0.088846594 0.0836355 0.10167668
-0.012708055 0.013078294 0.0556343 0.119130835 0.12741497 0.014623961 0.003338411 0.01734268
-0.03150211 0.036550943 -0.018355409 0.075474076 0.12301818 0.097316384 -0.024268938 -0.067851976
0.0032133595 -0.052106805 0.041826524 0.117990024 0.10227239 0.06462667 0.032823026 -0.057508983
-0.106298745 0.1167696 0.0004476413 0.11437962 -0.08626647 -0.12095441 -0.11092273 0.0312844
-0.07895929 -0.14287095 0.10387151 -0.1080911 -0.05529029 0.07063638 -0.017326592 -0.05606323
0.10090806 -0.0643887 0.010774203 0.08090823 0.06556484 0.10086367 0.0973764 0.06680796
-0.05937463 -0.11217734 -0.09132386 -0.097630166 -0.07611638 -0.12029504 0.067202486 -0.093057334
-0.03666409 0.071109094 -0.052052077 0.02908404 0.019672668 -0.006137969 -0.058297098 -0.112396
-0.0023277025 -0.0681759 -0.032367907 -0.055269875 0.04917696 0.082359955 -0.054488465 0.026584012
-0.054386295 -0.0983186 0.008141296 0.071219176 -0.06831066 0.05773663 0.10793991 -0.045192525
-0.04826575 -0.0039876946 -0.09339931 -0.09845899 -0.009343224 0.11429736 -0.07437103 -0.09110683
0.08495836 -0.023385793 0.106058806 -0.08817679 0.0121752685 -0.10468993 -0.048442647 -0.048733804
0.052299585 0.12200913 0.058337852 -0.078391 -0.03229554 0.10659 0.021688506 0.14380658
-0.08665695 -0.06098929 -0.10554957 0.02112015 0.11245368 -0.09422541 0.028503077 -0.032899287
-0.016714998 0.01439875 -0.06619356 -0.0010645804 -0.06938011 0.04564472 -0.086092174 -0.042920988
0.08093208 -0.0044313855 -0.09115265 0.012792747 0.109147415 -0.012271739 0.11597311 0.10275222
-0.100526646 -0.0995776 0.074586086 0.109831266 0.092245616 0.024225714 -0.013965242 0.03368912
-0.10531565 -0.12700635 -0.07062511 -0.042520583 -0.091060676 0.100043744 0.08688817 -0.061549447
0.082319 -0.07074801 0.017301388 -0.0066088126 -0.06300255 0.024345273 -0.020371806 0.04098446
-0.055569932 -0.032847486 0.03424173 0.028865144 -0.05053086 0.046582833 -0.034855492 -0.07162189
-0.022953184 0.04656698 0.0679576 -0.10276198 -0.1387371 0.044591103 0.017312035 -0.097342595
0.018002182 -0.10115232 -0.13718879 -0.065613836 0.075331934 -0.035054784 -0.046843473 0.04433196
0.086098045 0.034939904 0.044773713 -0.17364481 -0.03427137 0.06715575 -0.026087841 -0.00047053306
-0.117840804 0.005924241 0.011297624 0.01061767 0.035218414 0.109260075 -0.11208464 0.102166034
0.07695955 0.07161823 0.00053684745 -0.11973334 -0.06635949 -0.053792022 -0.09721028 -0.056152593
-0.026235834 -0.10866442 0.022840902 -0.108331114 0.060877837 0.017798055 0.072910406 0.050108578
0.08540185 0.06605353 -0.09868967 -0.07810909 -0.11555857 -0.10754509 -0.11778186 0.09316735
0.041390125 -0.051145818 0.0040603564 -0.030635215 -0.11687679 -0.086329184 -0.007548288 -0.06694584
-0.09984718 0.06373755 -0.09074217 -0.09346009 0.14252992 0.10310168 -0.111009024 0.09034394
0.017276453 -0.07291902 0.00694314 0.097523555 0.035392694 -0.069831446 0.09483933 -0.09175022
00000000: cc55 26bc e90f b5bd 7e99 a03d 5489 8cbd
00000010: b8d0 a83d 2d9c a3bd 8c29 973d 526e fcbc
00000020: 1e38 9dbc b7bd d93c 18f2 203d 6613 c83b
00000030: 48f0 cebd 34f5 b53d 1749 ab3d dd3b d03d
00000040: 7235 50bc 5746 563c cbe0 633d defa f33d
00000050: 1279 023e 5799 6f3c 3ec9 5a3b 3c12 8e3c
00000060: 5b08 01bd 71b6 153d 155e 96bc 2792 9a3d
00000070: f5f0 fb3d d04d c73d a7cf c6bc faf5 8abd
00000080: 3a97 523b f26d 55bd 4a52 2b3d c1a4 f13d
00000090: 3074 d13d fd5a 843d 7071 063d 8a8e 6bbd
000000a0: 28b3 d9bd e624 ef3d 66b1 ea39 dd3f ea3d
000000b0: 7aac b0bd f2b6 f7bd 752b e3bd 1224 003d
000000c0: 69b5 a1bd c34c 12be 96ba d43d de5e ddbd
000000d0: 1278 62bd cea9 903d 7ff0 8dbc 8fa2 65bd
000000e0: e3a8 ce3d 39de 83bd 4886 303c 37b3 a53d
000000f0: dc46 863d 9d91 ce3d 476d c73d 9dd2 883d
00000100: d032 73bd 3cbd e5bd 0108 bbbd 53f2 c7bd
00000110: e8e2 9bbd 3f5d f6bd 75a1 893d d894 bebd
00000120: 162d 16bd a5a1 913d 8f34 55bd a741 ee3c
00000130: 9328 a13c 0421 c9bb f0c8 6ebd e02f e6bd
00000140: 5e8c 18bb ce9f 8bbd 3694 04bd aa62 62bd
00000150: c86d 493d 56ac a83d 4c2f 5fbd b7c6 d93c
00000160: 2ac4 5ebd 435b c9bd 1263 053c 5cdb 913d
00000170: 76e6 8bbd 3f7d 6c3d 990f dd3d cc1b 39bd
00000180: 4fb2 45bd 35ab 82bb 2348 bfbd dea4 c9bd
00000190: 5214 19bc bc14 ea3d d74f 98bd 3896 babd
000001a0: a6fe ad3d 9093 bfbc 5c35 d93d 0896 b4bd
000001b0: c77a 473c ad67 d6bd cc6b 46bd 199d 47bd
000001c0: 1738 563d ecdf f93d acf3 6e3d 768b a0bd
000001d0: 5448 04bd dc4b da3d 18ac b13c 0842 133e
000001e0: 3379 b1bd e8cf 79bd 5f2a d8bd 2a04 ad3c
000001f0: 1d4e e63d 40f9 c0bd 497f e93c 67c1 06bd
00000200: e4ed 88bc bce8 6b3c 7d90 87bd 6489 8bba
00000210: 2917 8ebd f5f5 3a3d 1851 b0bd ebcd 2fbd
00000220: b8bf a53d 2835 91bb 3eae babd ab98 513c
00000230: ae88 df3d 670f 49bc 4f83 ed3d c26f d23d
00000240: eae0 cdbd 57ef cbbd 97c0 983d 37ef e03d
00000250: 45eb bc3d 0175 c63c 78ce 64bc 9afd 093d
00000260: bbaf d7bd f40d 02be e6a3 90bd 102a 2ebd
00000270: 057e babd bce3 cc3d 6df2 b13d 461b 7cbd
00000280: dd96 a83d 55e4 90bd a4bb 8d3c bd8e d8bb
00000290: 7b07 81bd bd6f c73c c6e2 a6bc 52df 273d
000002a0: 4c9d 63bd 168b 06bd 0e41 0c3d 9876 ec3c
000002b0: 72f9 4ebd a4cd 3e3d a2c4 0ebd 7fae 92bd
000002c0: 5108 bcbc 05bd 3e3d 5b2d 8b3d df74 d2bd
000002d0: 1911 0ebe 29a5 363d f8d1 8d3c 8e5b c7bd
000002e0: 5079 933c f328 cfbd 387b 0cbe 8c60 86bd
000002f0: a147 9a3d 9b95 0fbd f1de 3fbd 6e95 353d
00000300: 2c54 b03d 251d 0f3d a464 373d f2cf 31be
00000310: 2360 0cbd f488 893d 2bb6 d5bc e1b1 f6b9
00000320: 8556 f1bd 2320 c23b ab19 393c bcf5 2d3c
00000330: 2f41 103d bfc3 df3d a28c e5bd 6d3c d13d
00000340: f89c 9d3d 94ac 923d 39bb 0c3a c136 f5bd
00000350: 7ce7 87bd 0655 5cbd 2f16 c7bd 4300 66bd
00000360: 88ec d6bc 748b debd d81c bb3c b4dc ddbd
00000370: 0a5b 793d 3acd 913c 0d52 953d a73e 4d3d
00000380: 2ae7 ae3d 1347 873d cf1d cabd a9f7 9fbd
00000390: f9a9 ecbd 9a40 dcbd 9e37 f1bd 86ce be3d
000003a0: b188 293d 477e 51bd bd0c 853b b4f6 fabc
000003b0: 195d efbd 5bcd b0bd a157 f7bb e71a 89bd
000003c0: ae7c ccbd d588 823d 08d7 b9bd 0168 bfbd
000003d0: 5df3 113e f926 d33d b358 e3bd 3e06 b93d
000003e0: 5987 8d3c 9156 95bd 4883 e33b 6eba c73d
000003f0: eef7 103d ca03 8fbd 1f3b c23d 8ae7 bbbd

embedding.embeddings.bex_20230623_denoised.poses.bias f4 [64]
-0.100191765 -0.038392738 0.0021485284 -0.06304638 -0.0014888506 -0.09936936 -0.028531622 0.014614228
-0.022111671 -0.10422553 -6.964794e-05 0.028001154 -0.09585162 -0.027871514 -0.05091169 0.008682023
-0.11974738 0.1085724 0.048700176 -0.010905996 0.01333975 0.09279142 -0.1027011 0.11658408
0.04546444 -0.019231336 0.12149591 0.06124598 0.11528011 -0.11850815 -0.03204084 -0.08160069
-0.12184887 0.044947293 -0.012769607 0.10196081 0.043329466 -0.16864714 -0.10837164 -0.04066602
-0.08074496 0.05385015 0.08309487 -0.045294672 0.018437212 -0.12547524 -0.039790165 -0.08691506
-0.03160994 0.113014475 0.15943554 -0.09526414 -0.13585305 -0.09898209 0.04134569 -0.0022473214
-0.032726023 -0.09844119 0.03093178 -0.09229177 0.07869397 0.08176054 -0.07163944 0.056287523
00000000: 5731 cdbd b441 1dbd 53ce 0c3b 761e 81bd
00000010: 8925 c3ba 2a82 cbbd 26bb e9bc 8470 6f3c
00000020: 8923 b5bc 3274 d5bd f40f 92b8 ad62 e53c
00000030: db4d c4bd cd52 e4bc c788 50bd 0b3f 0e3c
00000040: 1d3e f5bd 355b de3d d679 473d 10af 32bc
00000050: f78e 5a3c 6e09 be3d f454 d2bd a2c3 ee3d
00000060: ec38 3a3d 098b 9dbc d9d2 f83d 11dd 7a3d
00000070: fa17 ec3d 67b4 f2bd 413d 03bd 431e a7bd
00000080: e68b f9bd a71a 383d 9d37 51bc d4d0 d03d
00000090: 3d7a 313d d6b1 2cbe f3f1 ddbd 6a91 26bd
000000a0: 9d5d a5bd fa91 5c3d a52d aa3d e886 39bd
000000b0: a309 973c 957c 00be 03fb 22bd 8600 b2bd
000000c0: 6d79 01bd 2274 e73d 1243 233e d819 c3bd
000000d0: 101d 0bbe 1fb7 cabd 195a 293d cc47 13bb
000000e0: b90b 06bd 899b c9bd a564 fd3c 7803 bdbd
000000f0: 4e2a a13d 1272 a73d b3b7 92bd bf8d 663d

embedding.embeddings.ken_20230614_denoised.poses.weight f4 [64, 66]
0.03559579 -0.07701129 -0.08318269 0.04543501 -0.0010998491 0.028936565 0.093990445 -0.031829055
-0.06748055 -0.08108564 0.10589633 -0.05823057 -0.031381063 -0.10104306 0.1294308 -0.0016045849
0.11929117 -0.06523815 0.0907752 0.08835894 -0.046587728 -0.061859336 -0.11690213 0.0048880875
-0.07918571 0.0057437094 -0.01632985 -0.116870925 0.041737963 -0.046498127 -0.08072478 0.005974715
-0.083441414 -0.0109487055 -0.06693285 -0.035792112 -0.00042652976 -0.035761043 0.034276936 -0.003255447
-0.06994081 -0.04203567 -0.06476741 0.1079533 -0.011669699 0.025298648 -0.12373788 0.003481493
-0.0017807788 0.027059829 0.08742033 0.111830495 -0.041647654 -0.09423786 -0.110961765 -0.052955635
0.09642147 -0.06172268 -0.020244604 -0.0012200611 0.14653458 -0.01295921 0.036620233 -0.12831193
-0.062480163 0.08431095 -0.059282802 -0.057721682 -0.010885769 0.06332443 -0.031094445 0.06848069
0.09191848 0.064738676 -0.104396634 -0.014069648 0.067175426 0.12549381 0.008069044 -0.063989915
-0.074700564 -0.0034771708 0.077238664 0.11580929 -0.035825502 0.0040618028 -0.067141764 -0.017904585
-0.06894313 -0.08524166 -0.035898708 0.051421054 0.099596396 0.04321595 -0.027399609 -0.032975968
0.09981824 -0.102509074 0.05543777 -0.06892289 0.02454619 0.033838183 0.10665862 0.06934628
0.040791083 0.0149227185 -0.032160528 0.114904106 -0.08531584 0.0037196535 -0.04790488 0.01034552
-0.089848615 -0.03969249 0.028378408 -0.044007827 0.043804996 -0.069453016 0.028642721 -0.032052368
0.093822114 0.06700207 0.08980629 9.283483e-05 0.1251159 0.052296102 0.09125105 0.03618999
-0.044043493 0.08491233 -0.14027762 0.051814478 0.050947107 -0.041616544 0.077537134 -0.05357881
-0.10589503 0.04532252 -0.13160875 -0.058900837 -0.100260794 -0.00030365185 -0.07548105 0.06369005
0.12187454 -0.026498416 -0.05919741 0.066765554 0.06401976 -0.08867548 0.060051344 -0.12689388
-0.07777649 0.053043287 -0.118998155 -0.12648436 0.05468994 -0.01753242 0.05654013 0.03203712
-0.054235924 0.055301048 -0.03908328 -0.010936384 0.050409995 0.066166125 0.02271135 0.019380251
0.028218986 0.09076803 0.01427822 -0.09638124 -0.09196233 -0.037400637 -0.006820187 0.09936314
-0.10204494 -0.0049410383 0.02273185 -0.08762407 -0.13913281 0.055721294 -0.118050076 0.09367161
-0.049658053 0.096259646 -0.011250294 -0.11758257 0.013073523 -0.086109504 -0.10337706 -0.11646494
-0.057135433 0.10181363 -0.027484719 0.16371961 -0.051635746 0.037917953 0.069193386 0.022879742
-0.04906135 0.11460618 -0.031184485 -0.08180729 -0.09689788 0.038879015 -0.057208348 -0.0802422
-0.07253431 -0.08078307 0.0117782 -0.110703714 0.07183169 -0.0642927 -0.08020344 -0.12081874
-0.06904149 0.112254776 -0.07157717 -0.009984949 -0.053290088 0.08364476 -0.041361373 0.004926059
0.11111753 0.11122795 -0.014793444 0.07997536 0.013695622 0.09285712 0.0008871128 0.012202923
-0.09288927 0.08332748 -0.07452296 -0.13008744 0.006050749 0.03137609 -0.016704962 0.0500226
0.11025704 0.10971923 0.04937891 -0.098627836 -0.08988209 0.08771186 -0.010977838 -0.13760358
-0.078426 -0.03631107 0.1440438 0.033850484 -0.07037627 -0.09839515 0.07054435 -0.07488964
00000000: e4cc 113d 18b8 9dbd b05b aabd 101a 3a3d
00000010: d028 90ba 600c ed3c 107e c03d 2f5f 02bd
00000020: 3e33 8abd 3a10 a6bd 2de0 d83d 2e83 6ebd
00000030: 6e89 00bd aaef cebd 8289 043e ef50 d2ba
00000040: ee4e f43d 949b 85bd 59e8 b93d 88f5 b43d
00000050: c6d2 3ebd 3760 7dbd 626a efbd 402c a03b
00000060: 1e2c a2bd ba35 bc3b 2dc6 85bc 065a efbd
00000070: 6df5 2a3d d274 3ebd 0953 a5bd 8bc7 c33b
00000080: 55e3 aabd 3362 33bc 1714 89bd c09a 12bd
00000090: db9f dfb9 2c7a 12bd f965 0c3d 5659 55bb
000000a0: 213d 8fbd 982d 2cbd c7a4 84bd 9f16 dd3d
000000b0: 4432 3fbc 1c3f cf3c 496a fdbd c329 643b
000000c0: 0569 e9ba 93ac dd3c 6e09 b33d 6307 e53d
000000d0: bb96 2abd c7ff c0bd ec3f e3bd 02e8 58bd
000000e0: 9f78 c53d ecd0 7cbd 03d8 a5bc 75ea 9fba
000000f0: 290d 163e de52 54bc 19ff 153d 3464 03be
00000100: 33eb 7fbd 38ab ac3d 86d2 72bd 926d 6cbd
00000110: 395a 32bc 3db0 813d c7b9 febc 9b3f 8c3d
00000120: c23f bc3d b695 843d e7cd d5bd 6284 66bc
00000130: 4593 893d 7381 003e 0634 043c 250d 83bd
00000140: 9cfc 98bd 3fe1 63bb 4e2f 9e3d 6c2d ed3d
00000150: c3bd 12bd df18 853b 9f81 89bd a3ac 92bc
00000160: 0e32 8dbd 2e93 aebd 860a 13bd e29e 523d
00000170: 32f9 cb3d 3503 313d 2575 e0bc cf11 07bd
00000180: 816d cc3d 47f0 d1bd b712 633d 7227 8dbd
00000190: 1715 c93c e899 0a3d d66f da3d 6c05 8e3d
000001a0: 8d14 273d 6b7e 743c c2ba 03bd d852 eb3d
000001b0: 12ba aebd 6ec5 733b e837 44bd 4280 293c
000001c0: 8d02 b8bd 9894 22bd d679 e83c 8d41 34bd
000001d0: de6c 333d 623d 8ebd 24a4 ea3c 5849 03bd
000001e0: cf25 c03d 6238 893d 5cec b73d 52b0 c238
000001f0: 621e 003e 7034 563d d5e1 ba3d f43b 143d
00000200: f366 34bd 84e6 ad3d f0a4 0fbe 6b3b 543d
00000210: eaad 503d 1c76 2abd cacb 9e3d 7475 5bbd
00000220: 7edf d8bd 1ba4 393d 72c4 06be 0142 71bd
00000230: 8855 cdbd 7633 9fb9 cf95 9abd ee6f 823d
00000240: 5c99 f93d 3513 d9bc fc78 72bd 61bc 883d
00000250: cb1c 833d 7d9b b5bd 66f8 753d 78f0 01be
00000260: 4849 9fbd eb43 593d 4eb5 f3bd 1e85 01be
00000270: 8f02 603d 26a0 8fbc a096 673d 5b39 033d
00000280: 7d26 5ebd 5a83 623d ca15 20bd 852e 33bc
00000290: b67a 4e3d 1b82 873d 270d ba3c 55c3 9e3c
000002a0: 812b e73c 97e4 b93d 32ef 693c 8763 c5bd
000002b0: bf56 bcbd 6931 19bd e07b dfbb e77e cb3d
000002c0: f0fc d0bd 6fe8 a1bb 2538 ba3c 4074 b3bd
000002d0: d578 0ebe 033c 643d 3dc4 f1bd e7d6 bf3d
000002e0: 3e66 4bbd c723 c53d 2753 38bc 21cf f0bd
000002f0: 5432 563c 2e5a b0bd 5ab7 d3bd 2c85 eebd
00000300: d806 6abd aa83 d03d a227 e1bc 1da6 273e
00000310: 0180 53bd db4f 1b3d 43b5 8d3d 4c6e bb3c
00000320: 8ef4 48bd a5b6 ea3d 9b76 ffbc 958a a7bd
00000330: 6572 c6bd 9a3f 1f3d 4d53 6abd 0656 a4bd
00000340: de8c 94bd 9871 a5bd 5af9 403c a1b8 e2bd
00000350: 7e1c 933d e4ab 83bd b341 a4bd d16f f7bd
00000360: a065 8dbd d5e5 e53d 0d97 92bd e997 23bc
00000370: b546 5abd f24d ab3d 8b6a 29bd c76a a13b
00000380: 9691 e33d 7bcb e33d 3460 72bc 1fca a33d
00000390: 9a63 603c e02b be3d 228d 683a c5ee 473c
000003a0: bb3c bebd 99a7 aa3d 7e9f 98bd a435 05be
000003b0: 5d45 c63b 3784 003d d8d8 88bc 7fe4 4c3d
000003c0: 71ce e13d 7ab4 e03d 8a41 4a3d 64fd c9bd
000003d0: 1a14 b8bd 47a2 b33d 64dc 33bc f4e7 0cbe
000003e0: d09d a0bd ebba 14bd 3880 133e cea6 0a3d
000003f0: 6f21 90bd 6583 c9bd 8e79 903d bd5f 99bd

embedding.embeddings.ken_20230614_denoised.poses.bias f4 [64]
-0.061072458 -0.10368351 0.09974697 -0.025748486 0.13336615 0.00080138433 0.0806343 -0.13052821
0.006967737 -0.12500721 0.04425468 -0.08280229 0.13611345 0.025382387 -0.06099041 0.031845834
0.07746108 0.035296895 -0.015920043 -0.08908731 -0.088049 -0.038930688 -0.06767409 0.06657174
0.010067741 0.0468927 -0.017218908 -0.048173163 -0.08646188 -0.065375574 0.1058297 0.0065188133
-0.042187363 -0.10309494 -0.040971197 -0.093923606 -0.083754696 -0.028309878 0.026375724 -0.12088373
-0.041969143 0.050512586 0.08354361 -0.099819794 0.017565966 0.09033272 -0.09061743 0.11520857
-0.06893341 0.073009595 -0.08176756 -0.07767461 0.014419335 0.062027693 0.056193944 0.036370758
-0.061813172 0.034836236 0.019794676 0.025925998 -0.010651801 -0.073706344 -0.020309402 0.06933326
00000000: 1d27 7abd 0558 d4bd 2448 cc3d 7dee d2bc
00000010: 2391 083e fe13 523a 9923 a53d 30a9 05be
00000020: 9d51 e43b e401 00be 6544 353d 3f94 a9bd
00000030: 5361 0b3e b9ee cf3c 15d1 79bd c770 023d
00000040: eaa3 9e3d 7a93 103d c06a 82bc 6873 b6bd
00000050: 0953 b4bd c975 1fbd b798 8abd c456 883d
00000060: 2bf3 243c 8f12 403d ab0e 8dbc 3951 45bd
00000070: ed12 b1bd a1e3 85bd 3ebd d83d c59b d53b
00000080: a8cc 2cbd 7123 d3bd 6ad1 27bd 055b c0bd
00000090: 9587 abbd 1eea e7bc e711 d83c e491 f7bd
000000a0: d6e7 2bbd 49e6 4e3d ea18 ab3d 526e ccbd
000000b0: 80e6 8f3c 5c00 b93d a295 b9bd 79f2 eb3d
000000c0: f62c 8dbd 0e86 953d c075 a7bd de13 9fbd
000000d0: 133f 6c3c c010 7e3d 9f2b 663d 81f9 143d
000000e0: cf2f 7dbd 71b0 0e3d 7228 a23c c262 d43c
000000f0: e484 2ebc 5af3 96bd e75f a6bc 99fe 8d3d

embedding.embeddings.ken_20230618_denoised.poses.weight f4 [64, 66]
-0.10174438 0.042133242 -0.0049815984 -0.115111366 0.005127332 -0.05389291 0.09669519 0.0469893
0.11560606 0.007665998 -0.112802885 0.00039559448 -0.06114469 -0.118162245 0.08670801 -0.021787565
0.012929096 0.036441088 -0.0051510483 0.07917979 0.10838623 0.12596926 0.078160144 0.10060267
0.04875863 0.10604386 0.002190742 0.013488763 0.121865734 -0.032446552 -0.07738912 0.07206108
-0.022376338 0.12863886 0.017471842 -0.07927718 0.16360666 0.11653318 0.019807283 0.10029911
0.1049039 -0.07876032 0.13016155 0.09825417 0.2386065 0.09409066 -0.009739875 0.014693803
-0.06695953 -0.053150404 0.101327725 -0.054514695 -0.091488786 -0.22538404 0.08334023 -0.15559685
-0.16007096 0.037275307 0.11394327 -0.0076574874 0.03554594 -0.10399582 -0.011550965 -0.19711503
0.12502065 0.004201764 0.09911137 -0.06941498 0.07554394 -0.0726939 -0.095045224 -0.010002927
-0.013845126 -0.09077215 -0.07891932 -0.027893068 -0.07750268 0.08803815 -0.014358966 -0.061867464
-0.13014612 0.12838659 -0.116591945 -0.081365734 -0.053852435 0.019277839 -0.104768045 0.047765736
-0.13119794 -0.004079247 -0.06601578 0.0127902785 -0.12477065 -0.08789565 -0.1196147 -0.12456609
0.11098848 0.09694335 -0.09437441 0.12353895 0.049603797 0.035084475 0.0553459 0.02227439
-0.096381806 -0.056752384 -0.13010316 0.101408094 0.012179293 0.007971656 -0.06852041 -0.1602852
0.052256413 0.04944902 -0.08948319 -0.022903066 -0.12641746 -0.067098714 0.045310427 0.053400647
0.00013939074 0.09029109 0.086933486 0.033860788 -0.039227035 -0.10072434 -0.04428442 0.106599316
-0.07950235 -0.0039168843 0.024464292 0.10781109 -0.033434212 -0.088441335 0.04499709 -0.008870953
-0.104792245 0.097591594 0.11881542 0.03512186 -0.05936348 0.0048515247 -0.0815136 -0.10325957
-0.051390793 -0.0108889965 -0.05439785 0.018037314 -0.11998728 0.01570163 0.013857418 0.12773395
0.0845255 0.13972552 0.12155498 -0.020295927 -0.068896525 0.122843124 -0.05755962 0.004693902
0.07822653 0.064958714 0.035297506 -0.07110199 -0.09575504 0.08464635 0.051007286 0.007879225
0.112903975 -0.032848865 0.1052345 -0.054275244 -0.043488633 -0.09702423 0.0153462095 -0.07877145
0.046933915 0.029623915 -0.014905072 -0.028923381 -0.021874705 -0.12278276 -0.15141155 0.10988535
0.06963602 0.010082254 -0.023490109 -0.06059636 0.07535403 0.0089110285 0.014081378 0.085223354
0.0696089 -0.050733425 -0.07136525 0.055032358 0.01180992 0.11857394 0.018703198 -0.05147642
-0.010261693 -0.054132342 0.022603458 -0.102724 0.011197025 -0.04378156 -0.05034585 0.018697316
0.051308535 0.014823383 0.020618076 -0.036762387 -0.017744865 -0.014573215 -0.068548664 -0.03748712
-0.1283718 -0.021153834 0.0911555 0.021075215 -0.05711697 -0.029310577 0.014117982 -0.057899654
-0.056636825 0.017757626 -0.07511155 -0.123632476 0.05006967 0.035919443 0.054453254 -0.0669895
0.068966344 0.06514147 0.07770321 -0.049948018 -0.063645795 0.071002506 0.03454784 -0.11166664
-0.07552871 0.10514668 0.030801687 -0.014768167 0.015485459 0.049219094 -0.017713238 0.10580583
-0.10601574 -0.07913014 0.059066877 0.23561615 0.06437645 -0.10869411 0.079703264 0.06037258
00000000: 5c5f d0bd e893 2c3d ad3c a3bb 82bf ebbd
00000010: 2e03 a83b d0be 5cbd 2108 c63d da77 403d
00000020: dfc2 ec3d 0d33 fb3b 3305 e7bd cb67 cf39
00000030: db72 7abd 0cff f1bd f893 b13d d67b b2bc
00000040: 8fd4 533c 4043 153d 20ca a8bb 0429 a23d
00000050: 9af9 dd3d 16fe 003e 6d12 a03d c608 ce3d
00000060: 21b7 473d 862d d93d 8d92 0f3b f9ff 5c3c
00000070: be94 f93d ade6 04bd 307e 9ebd c294 933d
00000080: 954e b7bc e8b9 033e 1c21 8f3c 135c a2bd
00000090: 8188 273e f3a8 ee3d e242 a23c 9f69 cd3d
000000a0: dbd7 d63d 174d a1bd 1249 053e 7b39 c93d
000000b0: 4355 743e 9bb2 c03d ff93 1fbc 47be 703c
000000c0: 1422 89bd 3db4 59bd e984 cf3d cd4a 5fbd
000000d0: 795e bbbd 13cb 66be 48ae aa3d c854 1fbe
000000e0: a4e9 23be fead 183d 175b e93d a9eb fabb
000000f0: 9f98 113d c3fb d4bd 4240 3dbc 86d8 49be
00000100: 6a05 003e f3ae 893b e7fa ca3d 7129 8ebd
00000110: c8b6 9a3d 8ae0 94bd 12a7 c2bd 51e3 23bc
00000120: abd6 62bc c0e6 b9bd 74a0 a1bd 0180 e4bc
00000130: bab9 9ebd 584d b43d de41 6bbc bd68 7dbd
00000140: 0645 05be c677 033e c2c7 eebd 14a3 a6bd
00000150: 5f94 5cbd 8fec 9d3c a190 d6bd 01a6 433d
00000160: c158 06be 34ab 85bb 4833 87bd 518e 513c
00000170: c187 ffbd a202 b4bd 8df8 f4bd 821c ffbd
00000180: ee4d e33d 3c8a c63d 5f47 c1bd fd01 fd3d
00000190: 5a2d 4b3d bdb4 0f3d 62b2 623d c878 b63c
000001a0: d363 c5bd 3075 68bd c339 05be 0caf cf3d
000001b0: a88b 473c 8c9b 023c 6e54 8cbd ce21 24be
000001c0: d20a 563d 0e8b 4a3d f642 b7bd 369f bbbc
000001d0: 9473 01be 0d6b 89bd 6d97 393d a3ba 5a3d
000001e0: 6b29 1239 89ea b83d 2f0a b23d 9cb1 0a3d
000001f0: 87ac 20bd 9048 cebd 9463 35bd be50 da3d
00000200: 21d2 a2bd 3559 80bb 5769 c83c 10cc dc3d
00000210: 50f2 08bd bb20 b5bd de4e 383d 7957 11bc
00000220: 519d d6bd 1ade c73d 8055 f33d f1db 0f3d
00000230: 1f27 73bd 8af9 9e3b 9af0 a6bd c179 d3bd
00000240: 277f 52bd c367 32bc 48d0 5ebd fdc2 933c
00000250: e4bb f5bd b4a0 803c 390a 633c b0cc 023e
00000260: b51b ad3d 3514 0f3e d1f1 f83d a543 a6bc
00000270: 9f19 8dbd 2d95 fb3d a3c3 6bbd 4ecf 993b
00000280: 3b35 a03d 1309 853d 1e94 103d ec9d 91bd
00000290: 381b c4bd 115b ad3d 04ed 503d dd17 013c
000002a0: 333a e73d 888c 06bd 2f85 d73d b84f 5ebd
000002b0: 2321 32bd a4b4 c6bd ab6e 7b3c ed52 a1bd
000002c0: c73d 403d daad f23c 6734 74bc baf0 ecbc
000002d0: 9532 b3bc 8775 fbbd a10b 1bbe 920b e13d
000002e0: 549d 8e3d 0a30 253c 546e c0bc e433 78bd
000002f0: 3753 9a3d 90ff 113c 94b5 663c 9589 ae3d
00000300: 1c8f 8e3d dacd 4fbd f227 92bd 9c69 613d
00000310: 657e 413c e5d6 f23d 7337 993c f0d8 52bd
00000320: a920 28bc e0b9 5dbd e32a b93c f660 d2bd
00000330: ba73 373c 4b54 33bd 7337 4ebd 1d2b 993c
00000340: e628 523d c6dd 723c 3de7 a83c 2894 16bd
00000350: ae5d 91bc 7ec4 6ebc 3e63 8cbd 188c 19bd
00000360: e673 03be ce4a adbc bcaf ba3d eea5 ac3c
00000370: 7cf3 69bd bc1c f0bc 1c4f 673c 3028 6dbd
00000380: 04fc 67bd 7178 913c 16d4 99bd 0633 fdbd
00000390: db15 4d3d 4420 133d 600a 5f3d ca31 89bd
000003a0: 3a3e 8d3d e468 853d dc22 9f3d 4b96 4cbd
000003b0: ba58 82bd c369 913d 0982 0d3d 7bb1 e4bd
000003c0: ccae 9abd 2457 d73d d253 fc3c 2ff6 71bc
000003d0: b9b6 7d3c f699 493d 5a1b 91bc bab0 d83d
000003e0: c81e d9bd fc0e a2bd 1cf0 713d 5c45 713e
000003f0: cdd7 833d 049b debd 773b a33d 3d49 773d

embedding.embeddings.ken_20230618_denoised.poses.bias f4 [64]
0.02731813 0.044210106 0.047606327 -0.0094656255 -0.04738275 -0.13845713 -0.04759896 0.028980814
0.021338979 -0.102364905 -0.073434606 -0.07832078 0.116299845 0.026813522 -0.118616775 0.004984746
0.014319669 0.043189365 0.17628922 -0.091182016 -0.0062563224 -0.022811618 -0.020844018 -0.043297816
0.008334902 0.0233938 -0.10328333 0.04619286 -0.115444094 0.01630585 -0.011249864 -0.063805796
-0.086834826 0.06928571 -0.13800055 0.041519884 -0.08153372 0.034004632 -0.03188753 -0.11014986
0.12255801 0.058887936 -0.06126997 0.06784088 0.065491945 -0.07382551 -0.04477831 -0.05963054
0.12713 0.07865419 0.056673076 -0.11903623 0.115250215 -0.10025284 -0.061294086 -0.013447039
0.078267016 -0.06823967 0.02694561 0.06524186 -0.09210865 0.13888513 -0.028676212 -0.09697061
00000000: 45ca df3c a815 353d dafe 423d b615 1bbc
00000010: 6a14 42bd b5c7 0dbe 21f7 42bd 2c69 ed3c
00000020: 15cf ae3c b1a4 d1bd e264 96bd a566 a0bd
00000030: 9d2e ee3d 08a8 db3c 5aed f2bd 1557 a33b
00000040: 0c9d 6a3c 55e7 303d 2985 343e a3bd babd
00000050: d601 cdbb 6edf babc 13c1 aabc 0d59 31bd
00000060: 1d8f 083c 5ba4 bf3c 3686 d3bd b934 3d3d
00000070: f46d ecbd d993 853c 5951 38bc 9dac 82bd
00000080: 75d6 b1bd abe5 8d3d 0450 0dbe c110 2a3d
00000090: 27fb a6bd 7148 0b3d 809c 02bd 4096 e1bd
000000a0: b2ff fa3d 7a34 713d 38f6 7abd 29f0 8a3d
000000b0: a420 863d d431 97bd 7669 37bd 273f 74bd
000000c0: 5e2e 023e 7315 a13d 0722 683d 44c9 f3bd
000000d0: 4e08 ec3d 5c51 cdbd 820f 7bbd f850 5cbc
000000e0: 754a a03d 3dc1 8bbd 0abd dc3c 869d 853d
000000f0: 76a3 bcbd e737 0e3e 60ea eabc 8798 c6bd

core.core.fc.0.0.weight f4 [128, 64]
-0.01883455 -0.072222926 0.13040273 0.03693786 -0.059742793 -0.06456143 -0.025028868 0.102307655
0.015465405 -0.026127925 0.14128494 0.06340727 -0.14985307 0.07713876 -0.06547982 0.04958624
0.14405411 -0.08002163 0.04278894 0.021170072 -0.086353734 0.10146534 -0.13476786 0.090907656
0.019176638 -0.03655426 -0.101304375 0.035988495 -0.0644048 -0.09638011 -0.0567674 -0.027898852
-0.046104647 -0.08134761 -0.037950568 0.06858799 -0.051460937 -0.095679194 0.050039724 -0.0034052804
0.09718505 0.020353531 -0.13726021 -0.11074219 0.1076734 -0.0023385033 -0.025067562 -0.005082446
-0.07274283 0.08510075 0.012196081 -0.03738383 -0.078984216 0.04579077 0.07494756 0.116936885
0.052223235 0.054603983 -0.13684909 0.08868162 0.13719037 -0.023944004 -0.0041648443 0.016544243
-0.15134443 -0.0149608385 0.02907964 0.06382054 0.07798982 -0.08569589 0.005137834 -0.026065933
0.015059488 -0.11370434 0.14131114 -0.005979648 -0.07444669 0.0041697994 -0.06784133 -0.065286756
-0.09988532 -0.025569547 0.16830622 -0.10296908 -0.08443956 -0.020367952 -0.0584054 -0.08746755
-0.074510604 -0.005901955 0.04544691 0.072641924 0.060089834 0.047406025 -0.08248467 -0.08316503
0.10161244 -0.0016879748 -0.035042673 -0.06480352 0.106779136 0.027584707 -0.052358765 0.057708345
0.07597259 0.031593643 0.08277511 0.019339863 0.046121884 -0.07757164 0.031082338 0.004961594
0.015122433 0.040010117 -0.0075899637 0.05465107 -0.037353035 -0.093299925 0.19299415 0.030907974
0.04968046 0.042961176 -0.09176227 -0.05995577 0.038265202 -0.03420466 0.12156662 -0.0031134277
0.22240433 -0.0051337634 -0.07505122 -0.17724545 0.09440787 -0.10493935 -0.003908958 0.0010751715
-0.003949403 0.14501585 -0.10569759 0.0031375205 0.09796991 0.04471673 -0.14943638 0.19354506
-0.070529245 -0.066184066 -0.08227752 -0.031392705 0.1998747 -0.11984773 0.06691529 -0.041343775
-0.059922192 -0.004689107 -0.07104966 0.01872164 0.06536817 -0.08432187 0.04043395 -0.063290186
-0.06891304 0.13826105 -0.05597354 0.012702037 0.13223583 0.0026248072 -0.019357609 0.14372036
0.15337767 -0.1262002 -0.13629673 0.06770537 -0.14955541 -0.035939705 -0.026511328 0.050087877
-0.07045112 0.029133346 -0.11474862 0.016632264 0.014115752 -0.12716454 -0.12163822 -0.014631708
0.09917143 -0.09346006 0.11477119 0.019378817 -0.029453969 0.019879086 -0.08348981 0.07575422
-0.06843945 0.019984983 -0.019085767 0.022015499 0.09024595 -0.10204006 0.023708472 -0.038084943
-0.14132829 -0.08819876 -0.012852587 0.119005226 0.007207138 0.038909078 0.06768364 -0.115376845
-0.10007203 0.06990295 -0.046372652 -0.15333417 0.047777344 -0.00135899 -0.00013512927 0.10427119
-0.0261432 0.025969239 -0.15624644 -0.06257419 0.05439092 -0.01971015 -0.017300121 -0.08021895
-0.019784754 0.14026135 -0.12826909 -0.0071322476 -0.01332023 0.00579971 0.02630041 -0.009215614
-0.058902998 -0.011811639 -0.060951013 0.03827213 -0.09852501 0.0026054592 -0.013773972 -0.085450776
-0.10426232 0.04266684 0.0115489485 0.0134802265 0.002806516 -0.005120263 0.096091814 0.035557143
-0.094279595 -0.14176677 -0.027282625 -0.14814015 -0.03944018 -0.044500943 -0.0055876435 0.013385832
00000000: ea4a 9abc 9de9 93bd 4b88 053e 274c 173d
00000010: dcb4 74bd c838 84bd 5709 cdbc ad86 d13d
00000020: 9c62 7d3c 3b0a d6bc 00ad 103e acdb 813d
00000030: 1573 19be edfa 9d3d 491a 86bd f11a 4b3d
00000040: ec82 133e 61e2 a3bd 7543 2f3d dc6c ad3c
00000050: 3ada b0bd 0fcd cf3d 9600 0abe cb2d ba3d
00000060: 5318 9d3c ebb9 15bd ab78 cfbd ac68 133d
00000070: aae6 83bd ef62 c5bd ef84 68bd 228c e4bc
00000080: 3ad8 3cbd 9399 a6bd 0e72 1bbd dc77 8c3d
00000090: b4c8 52bd 74f3 c3bd 74f6 4c3d 202b 5fbb
000000a0: f508 c73d 73bc a63c f18d 0cbe cdcc e2bd
000000b0: df83 dc3d 9341 19bb 7d5a cdbc a68a a6bb
000000c0: 31fa 94bd 4d49 ae3d 12d2 473c c91f 19bd
000000d0: 7ac2 a1bd 1a8f 3b3d 1b7e 993d 9b7c ef3d
000000e0: 08e8 553d 6da8 5f3d 2b22 0cbe b69e b53d
000000f0: a27b 0c3e 3726 c4bc 3f79 88bb cb87 873c
00000100: 09fa 1abe 4e1e 75bc 6d38 ee3c 58b4 823d
00000110: 20b9 9f3d 5481 afbd 475b a83b 3988 d5bc
00000120: 12bc 763c d2dd e8bd deb3 103e ecf0 c3bb
00000130: 8277 98bd d0a2 883b 65f0 8abd 10b5 85bd
00000140: ad90 ccbd 3a77 d1bc 7758 2c3e 74e1 d2bd
00000150: a6ee acbd b1da a6bc 803a 6fbd 3022 b3bd
00000160: 0499 98bd 3065 c1bb 8a26 3a3d 4ac5 943d
00000170: c220 763d d22c 423d b9ed a8bd 6d52 aabd
00000180: 2f1a d03d 093f ddba e888 0fbd b5b7 84bd
00000190: 05af da3d 53f9 e13c 2576 56bd 965f 6c3d
000001a0: 8497 9b3d 5668 013d ff85 a93d a26e 9e3c
000001b0: 4dea 3c3d e1dd 9ebd 63a0 fe3c de94 a23b
000001c0: 15c4 773c a6e1 233d 3bb5 f8bb cdd9 5f3d
000001d0: 7fff 18bd 0814 bfbd 42a0 453e b832 fd3c
000001e0: bd7d 4b3d 0ff8 2f3d dbed bbbd 2e94 75bd
000001f0: f9bb 1c3d 301a 0cbd ecf7 f83d a60a 4cbb
00000200: f6bd 633e 2139 a8bb 74b4 99bd d57f 35be
00000210: ea58 c13d 71ea d6bd b716 80bb c5ec 8c3a
00000220: fe69 81bb 097f 143e fa77 d8bd dc9e 4d3b
00000230: 73a4 c83d e428 373d da05 19be ad30 463e
00000240: a371 90bd 838b 87bd 1e81 a8bd a395 00bd
00000250: f4ab 4c3e ba72 f5bd e20a 893d 1758 29bd
00000260: f970 75bd 15a7 99bb 7c82 91bd 205e 993c
00000270: bfdf 853d f2b0 acbd 129e 253d 499e 81bd
00000280: 4822 8dbd 4e94 0d3e 8344 65bd 341c 503c
00000290: d468 073e f504 2c3b d993 9ebc 6e2b 133e
000002a0: 090f 1d3e a03a 01be 5f91 0bbe 1da9 8a3d
000002b0: 0e25 19be 8335 13bd 492e d9bc f228 4d3d
000002c0: ad48 90bd 0ea9 ee3c 5301 ebbd 6340 883c
000002d0: c145 673c 6c37 02be 761d f9bd d5b9 6fbc
000002e0: 641a cb3d fd67 bfbd 280d eb3d 53c0 9e3c
000002f0: 7349 f1bc 77d9 a23c b5fc aabd 0725 9b3d
00000300: fb29 8cbd 8cb7 a33c c159 9cbc d959 b43c
00000310: ded2 b83d 61fa d0bd 4538 c23c f5fe 1bbd
00000320: 5db8 10be 8da1 b4bd a893 52bc 03b9 f33d
00000330: db29 ec3b 205f 1f3d b89d 8a3d b24a ecbd
00000340: 91f2 ccbd 4729 8f3d 40f1 3dbd a203 1dbe
00000350: 2db2 433d 2320 b2ba 7db1 0db9 228c d53d
00000360: 442a d6bc 71bd d43c 11ff 1fbe e626 80bd
00000370: 03c9 5e3d 2e77 a1bc fcb8 8dbc d549 a4bd
00000380: a313 a2bc aca0 0f3e f958 03be a1b5 e9bb
00000390: 183d 5abc 7e0b be3b f573 d73c 16fd 16bc
000003a0: 4544 71bd 9b85 41bc c5a7 79bd 3dc3 1c3d
000003b0: 7bc7 c9bd 5ac0 2a3b 3aac 61bc d100 afbd
000003c0: 7c87 d5bd 6dc3 2e3d cd37 3d3c 2bdc 5c3c
000003d0: 86ed 373b e1c7 a7bb c9cb c43d 5ea4 113d
000003e0: a915 c1bd 4f2b 11be d07f dfbc 0db2 17be
000003f0: 078c 21bd 9f46 36bd 8d18 b7bb 4050 5b3c

core.core.fc.0.0.bias f4 [128]
0.09281219 0.04553542 0.08486026 -0.03851531 0.071289554 0.020671979 0.115416 0.1083171
-0.05170285 0.10379435 0.0035264355 -0.08725384 -0.1389468 -0.058353104 -0.053329542 0.14080492
-0.06601579 -0.07041697 0.09222842 0.024804287 -0.118286625 0.00901715 0.114752755 0.028762287
0.0061709657 -0.07201483 0.096502386 0.08212578 0.021724798 0.100126594 0.11477873 0.029586215
-0.017666543 0.02680416 -0.0068726917 -0.12106092 0.010534885 -0.076722965 -0.07803943 -0.10105217
0.09267666 -0.019028477 0.069822 0.09658387 -0.008875063 -0.008345048 0.13049823 0.013220219
-0.003902926 0.13989578 0.082606964 -0.015848309 -0.11979659 -0.04237218 -0.078609675 -0.066936225
-0.088191 0.09925055 0.097560644 0.07255803 0.08545702 0.13371389 0.053743534 -0.050004408
0.15801686 -0.0050338297 0.06113813 0.10659483 0.13892204 0.13200094 0.1399083 0.12799358
0.07787992 0.13232522 0.11025227 -0.08438639 0.08208497 -0.032672405 0.0735067 -0.079275176
-0.06432848 -0.10141912 0.0724678 0.036796108 0.025153005 -0.045298535 0.0382167 -0.08609259
0.09417724 0.14084044 -0.043043148 -0.03499142 -0.025029885 0.09150021 0.12791552 0.037157554
0.09859906 0.13418354 0.034890655 -0.04116483 -0.026903106 -0.014868373 -0.049641557 0.06105215
0.11768857 -0.028401822 0.14425048 0.0355158 0.019680094 0.11858816 -0.033712808 0.011445128
-0.13094825 0.0017840752 -0.098759435 0.03627036 -0.021277156 0.107344836 0.044437576 0.04461758
-0.08172836 0.027071703 0.1392613 0.026276454 -0.11072806 0.062666446 -0.07307384 0.0344291
00000000: 5114 be3d 5983 3a3d 37cb ad3d 3bc2 1dbd
00000010: 4200 923d 4858 a93c 395f ec3d 5bd5 dd3d
00000020: 5ec6 53bd 2292 d43d c51b 673b 24b2 b2bd
00000030: 1248 0ebe aa03 6fbd 1470 5abd 2a2f 103e
00000040: 4933 87bd c636 90bd 41e2 bc3d 5c32 cb3c
00000050: 4240 f2bd abbc 133c 7e03 eb3d e39e eb3c
00000060: d035 ca3b 837c 93bd 0ba3 c53d 9031 a83d
00000070: 34f8 b13c 2c0f cd3d 1c11 eb3d ca5e f23c
00000080: 6db9 90bc 6694 db3c 5134 e1bb caee f7bd
00000090: 839a 2c3c ee20 9dbd 23d3 9fbd 71f4 cebd
000000a0: 43cd bd3d 9ce1 9bbc d6fe 8e3d c4cd c53d
000000b0: b668 11bc abb9 08bc 54a1 053e 9e99 583c
000000c0: 3cc8 7fbb d740 0f3e d72d a93d 50d4 81bc
000000d0: ea57 f5bd 738e 2dbd 1cfe a0bd dc15 89bd
000000e0: 7c9d b4bd df43 cb3d e0cd c73d 4e99 943d
000000f0: 1704 af3d 4bec 083e 2e22 5c3d 6cd1 4cbd
00000100: 2ccf 213e d3f2 a4bb fa6b 7a3d 644e da3d
00000110: 9441 0e3e 412b 073e 1f44 0f3e c010 033e
00000120: 827f 9f3d 4380 073e f1cb e13d c6d2 acbd
00000130: 2a1c a83d 80d3 05bd ae8a 963d 065b a2bd
00000140: a6be 83bd d4b4 cfbd ff69 943d 84b7 163d
00000150: ad0d ce3c f58a 39bd 1d89 1c3d 5051 b0bd
00000160: ffdf c03d 7a38 103e 034e 30bd 2a53 0fbd
00000170: 790b cdbc 7664 bb3d 49fc 023e 8532 183d
00000180: 4eee c93d 6967 093e 81e9 0e3d 749c 28bd
00000190: e763 dcbc 7a9a 73bc f254 4bbd d211 7a3d
000001a0: b406 f13d f0aa e8bc 66b6 133e 0479 113d
000001b0: 2638 a13c 59de f23d 7116 0abd 5984 3b3c
000001c0: 4c17 06be a1d7 e93a 6342 cabd 3b90 143d
000001d0: 6e4d aebc 9cd7 db3d 2d04 363d ecc0 363d
000001e0: 3361 a7bd 7ac5 dd3c 849a 0e3e b841 d73c
000001f0: 65c5 e2bd 4457 803d bda7 95bd 8705 0d3d

core.core.fc.1.0.weight f4 [64, 128]
0.020570016 0.03994292 -0.07498008 -0.09043096 -0.00923388 0.051855486 0.026380401 0.08348276
0.029572519 0.057831988 -0.0569661 0.006034793 -0.106719844 -0.090678036 0.0049710837 0.05758983
-0.01729807 0.023807343 -0.016242364 -0.027396241 -0.017007437 0.09594495 0.04226397 0.025535975
-0.052489787 0.03930804 0.1264107 -0.20578766 -0.038299963 -0.00988906 0.027083661 0.059120663
-0.034503184 0.011628893 0.062446367 -0.14034602 -0.08064055 0.055099763 0.039392933 0.013212856
0.023230918 -0.111517966 0.1414382 -0.11870204 -0.124525174 -0.037590306 0.13125455 0.09653851
-0.04736089 -0.016748663 0.08653367 0.098998815 0.012449829 0.02727372 0.02744349 0.017373359
-0.05764047 0.007885826 -0.044671692 -0.08733333 0.037247125 0.11529213 -0.07089958 0.066669226
0.018869756 -0.078263156 0.07674605 0.06553329 0.019195192 0.14135398 -0.08020053 -0.07807937
-0.009104031 0.08218404 0.09385634 0.086121894 0.036968198 -0.03932188 -0.0034195567 -0.09588409
-0.049293973 0.13982117 -0.011695835 -0.026833829 -0.09296317 -0.008562389 0.0502961 -0.020057179
0.02464129 -0.03782078 -0.028920684 0.066372745 0.033700444 0.081117705 -0.10017892 -0.0012764652
0.10515595 -0.018216068 -0.08865978 -0.030516697 0.06780614 0.018722072 -0.04499057 -0.036282398
-0.071878016 0.01355833 -0.010517682 -0.11176087 0.033719935 0.07047702 -0.03636659 0.11088433
-0.06906885 0.099489234 0.0660957 -0.07312002 -0.046642 0.026588596 0.067108445 -0.03213421
-0.038410984 0.094312504 -0.060439367 0.07055976 -0.08863243 -0.02707739 -0.038941707 -0.017159987
-0.05161614 -0.07188225 0.0005413185 -0.00012968533 -0.018501328 0.023179045 0.046465095 -0.033891916
-0.011727185 0.023820866 0.03345148 0.07727933 0.055060644 0.05640857 0.12627418 0.033889078
-0.10988726 -0.060804594 0.10542775 0.035107482 -0.072394006 -0.060987346 -0.05955149 -0.10814465
-0.04628086 0.07972925 0.0833265 -0.13262466 0.013988353 -0.04288252 0.020355493 -0.036769997
0.012469403 0.021347817 -0.027582407 -0.11340003 -0.0018464942 -0.03233154 -0.019058812 -0.0021915212
-0.10908271 -0.033778712 0.082289286 -0.019587092 0.024127118 0.03888985 -0.04006538 0.06910359
0.010804957 -0.032159746 0.09976012 -0.08783972 -0.023861324 0.008621425 0.053528335 0.065903075
0.0046763676 0.071849555 -0.006824031 -0.06385827 -0.052293316 0.08440835 0.04232324 0.068614356
-0.05251784 -0.037765965 -0.06556131 -0.016104512 -0.028540622 0.06486923 -0.032225408 -0.032336455
-0.034353193 0.060203128 -0.036222104 -0.039122447 -0.025356863 0.08199577 -0.047835782 0.04237966
0.048408914 0.05804019 -0.032594223 0.0023375826 -0.01801771 -0.033585705 0.026634492 0.03660634
-0.105820544 -0.030022813 0.035322055 -0.094395764 -0.0119803045 0.11758754 0.046247967 0.041337363
-0.04947717 0.065501794 -0.10070822 -0.026778072 -0.038024176 -0.01643978 -0.037358627 0.08206175
0.025963891 0.1025621 0.028479299 -0.082801834 0.016091812 -0.092513554 -0.040281765 0.039924238
0.007351955 0.088961855 -0.055871647 -0.0070073423 0.055968232 -0.050183337 0.101314135 -0.07882618
-0.036992334 0.017346695 -0.07192693 0.03401779 0.049799785 -0.028064325 -0.07412051 -0.018101674
00000000: 7382 a83c 309b 233d 288f 99bd de33 b9bd
00000010: b349 17bc 6b66 543d b61b d83c 02f9 aa3d
00000020: 1142 f23c 3ce1 6c3d 4955 69bd 83bf c53b
00000030: ef8f dabd 68b5 b9bd 79e4 a23b 50e3 6b3d
00000040: afb4 8dbc 9e07 c33c b50e 85bc 156e e0bc
00000050: 2e53 8bbc c97e c43d fc1c 2d3d d230 d13c
00000060: 88ff 56bd 7801 213d ce71 013e 00ba 52be
00000070: 6ce0 1cbd b905 22bc 8ede dd3c 8228 723d
00000080: 3653 0dbd 1d87 3e3c c3c7 7f3d deb6 0fbe
00000090: df26 a5bd 4ab0 613d 7c5a 213d bc7a 583c
000000a0: c44e be3c 8863 e4bd 2dd5 103e 0e1a f3bd
000000b0: 0e07 ffbd 4bf8 19bd 9867 063e fbb5 c53d
000000c0: 7efd 41bd 7e34 89bc 9138 b13d e4bf ca3d
000000d0: 5efa 4b3c 236d df3c 2cd1 e03c 9352 8e3c
000000e0: 6a18 6cbd 8d33 013c aaf9 36bd d1db b2bd
000000f0: 7190 183d 481e ec3d cd33 91bd e089 883d
00000100: bf94 9a3c 6f48 a0bd 082d 9d3d 5136 863d
00000110: 3c3f 9d3c 19bf 103e 2d40 a4bd 14e8 9fbd
00000120: 1329 15bc 1b50 a83d c137 c03d ad60 b03d
00000130: f76b 173d fb0f 21bd a41a 60bb e15e c4bd
00000140: 7ae8 49bd 482d 0f3e e39f 3fbc 9ed2 dbbc
00000150: 7963 bebd 4349 0cbc 4903 4e3d f44e a4bc
00000160: 88dc c93c f6e9 1abd 12eb ecbc 6fee 873d
00000170: 7a09 0a3d 0a21 a63d 9b2a cdbd 114f a7ba
00000180: 015c d73d dd39 95bc 4293 b5bd 27fe f9bc
00000190: f2dd 8a3d 085f 993c 0848 38bd da9c 14bd
000001a0: c834 93bd c223 5e3c 5b52 2cbc e2e2 e4bd
000001b0: ea1d 0a3d 4256 903d 22f5 14bd 5317 e33d
000001c0: f873 8dbd 03c1 cb3d 2f5d 873d f3bf 95bd
000001d0: af0b 3fbd 54d0 d93c 2770 893d 299f 03bd
000001e0: d654 1dbd ea26 c13d 458f 77bd a381 903d
000001f0: eb84 b5bd 67d1 ddbc 5781 1fbd 1a93 8cbc
00000200: 726b 53bd 0037 93bd 45e7 0d3a 24fc 07b9
00000210: 1990 97bc fbe1 bd3c 2f52 3e3d 40d2 0abd
00000220: 6123 40bc fa23 c33c 6b04 093d a044 9e3d
00000230: 4587 613d ac0c 673d 054e 013e 46cf 0a3d
00000240: 920c e1bd 3d0e 79bd 81ea d73d ddcc 0f3d
00000250: 4f43 94bd decd 79bd 43ec 73bd f17a ddbd
00000260: 0091 3dbd 1749 a33d 16a7 aa3d c2ce 07be
00000270: 682f 653c 95a5 2fbd 90c0 a63c 239c 16bd
00000280: 784c 4c3c 9ee1 ae3c 80f4 e1bc 463e e8bd
00000290: 1006 f2ba 146e 04bd 3a21 9cbc a09f 0fbb
000002a0: c266 dfbd 8c5b 0abd 4987 a83d 1c75 a0bc
000002b0: 3ca6 c53c f74a 1f3d 991b 24bd 2f86 8d3d
000002c0: 4607 313c f0b9 03bd 094f cc3d 50e5 b3bd
000002d0: d378 c3bc e140 0d3c 8740 5b3d 31f8 863d
000002e0: 373c 993b dc25 933d 1f9c dfbb 20c8 82bd
000002f0: 8431 56bd 49de ac3d 225b 2d3d af85 8c3d
00000300: f21c 57bd 7cb0 1abd 0245 86bd 9ced 83bc
00000310: 06ce e9bc 29da 843d cafe 03bd 3b73 04bd
00000320: efb5 0cbd 8e97 763d a15d 14bd dc3e 20bd
00000330: 32b9 cfbc 66ed a73d 74ef 43bd 4b96 2d3d
00000340: 6d48 463d 8dbb 6d3d 8581 05bd 2132 193b
00000350: e099 93bc 2a91 09bd 9430 da3c 88f0 153d
00000360: 71b8 d8bd 67f2 f5bc dcad 103d 9152 c1bd
00000370: 0a49 44bc bcd1 f03d 826e 3d3d 5e51 293d
00000380: 93a8 4abd ce25 863d 1c40 cebd b05d dbbc
00000390: 3dbf 1bbd b8ac 86bc 5c05 19bd fe0f a83d
000003a0: 3ab2 d43c 140c d23d 6b4d e93c 0294 a9bd
000003b0: fad2 833c bf77 bdbd 7efe 24bd 9987 233d
000003c0: abe8 f03b a231 b63d abd9 64bd d99d e5bb
000003d0: f23e 653d 0b8d 4dbd c97d cf3d 9f6f a1bd
000003e0: 4685 17bd a81a 8e3c 6d4e 93bd 3d56 0b3d
000003f0: dcfa 4b3d 28e7 e5bc 7ecc 97bd f649 94bc

core.core.fc.1.0.bias f4 [64]
0.054736096 0.071748115 -0.013240923 -0.06893313 0.0064749066 -0.04895033 0.0015224748 0.041502744
-0.0072818706 0.04061102 -0.07852488 0.06175165 -0.07271624 -0.015393672 0.015233782 -0.02850698
0.024987642 -0.037711583 0.050637685 0.071489766 0.010017279 -0.06970443 -0.008851106 -0.027894406
-0.031416222 0.046248663 0.058842465 0.046888698 -0.07020281 -0.07576998 0.10573291 0.032337733
-0.11317675 -0.005813984 -0.001709904 -0.010724225 0.09432037 0.04031243 -0.015893122 0.08716217
-0.096374996 0.043119945 -0.09505111 -0.03085118 -0.051166497 0.051220857 -0.009097078 0.06952342
0.007517745 0.053750176 -0.0937086 -0.0091734035 -0.018382633 -0.065705925 0.05342656 0.09487155
-0.018807443 -0.09183941 0.042198993 -0.108572826 -0.024058104 0.009860502 0.006350382 -0.033058945
00000000: f532 603d adf0 923d 75f0 58bc d02c 8dbd
00000010: 742b d43b 2480 48bd c78d c73a c8fe 293d
00000020: c29c eebb be57 263d a7d1 a0bd 4cef 7c3d
00000030: 41ec 94bd bd35 7cbc 1d97 793c 7887 e9bc
00000040: e2b2 cc3c 7677 1abd 7669 4f3d 3a69 923d
00000050: 831f 243c 32c1 8ebd 3b04 11bc cf82 e4bc
00000060: 4cae 00bd 3d6f 3d3d cc04 713d 5d0e 403d
00000070: 7ec6 8fbd 4b2d 9bbd 7f8a d83d 9274 043d
00000080: 36c9 e7bd 3c83 bebb dc1e e0ba a9b4 2fbc
00000090: 0a2b c13d a61e 253d 4b32 82bc 1482 b23d
000000a0: 4160 c5bd 8a9e 303d 28aa c2bd 9dbb fcbc
000000b0: f693 51bd f6cc 513d e90b 15bc 4b62 8e3d
000000c0: 6a57 f63b 2529 5c3d 4bea bfbd 0b4c 16bc
000000d0: 2d97 96bc d490 86bd cfd5 5a3d 044c c23d
000000e0: 1112 9abc 4d16 bcbd dad8 2c3d 6e5b debd
000000f0: 8015 c5bc f18d 213c de16 d03b d168 07bd

readout.readouts.bex_20230623_denoised.location.weight f4 [2, 64]
0.0017315736 -0.016250089 -0.117873214 -0.10401552 -0.066114224 0.008901442 -0.091367364 -0.07825851
-0.10133449 0.09267186 -0.06303393 0.009510096 0.1033268 0.029148597 0.0023156914 0.030927246
0.023870505 -0.06688595 -0.08583701 0.13373357 -0.11311031 0.055700436 0.110292174 -0.0904701
-0.07127358 -0.09366436 -0.073951274 0.11229579 -0.026658583 -0.11507566 -0.038072113 0.049171124
-0.06863631 0.06796214 -0.13407962 0.0027138737 0.08979128 0.14217082 -0.058642488 0.12071516
-0.029527714 -0.017570011 -0.14964679 -0.01822139 0.10840512 0.03183896 -0.00248618 -0.0711425
0.044378668 0.12851508 0.09597241 -0.13710323 0.15064886 -0.14256436 -0.15535484 0.15972793
0.12322458 -0.10473966 -0.07547502 -0.13055675 -0.028805302 -0.098797545 0.06216687 -0.052385133
-0.049955126 -0.05587671 0.03658664 0.041627593 0.032008793 -0.06704726 -0.008667251 -0.0471629
0.12566517 -0.10688462 -0.09565931 -0.012707141 0.05716498 0.00042028233 0.14489503 -0.054632943
0.06326179 -0.07759988 -0.010949244 0.07720202 0.011238129 -0.07358343 -0.10221509 -0.090644345
-0.1255921 -0.08227209 0.04780976 0.13358465 -0.026961338 -0.021221373 -0.00068591424 0.10834116
-0.08715468 -0.09568028 -0.035770085 0.10125872 0.13860714 -0.022380156 -0.10851319 -0.13428175
-0.004906945 -0.07478232 0.13366343 -0.10511803 0.105137594 0.0778761 -0.1266246 0.097615264
-0.13329692 0.13899493 -0.14363003 -0.07897651 0.04682953 -0.08675252 0.07761767 -0.08038224
-0.044835083 -0.09110212 0.012237844 -0.040722717 0.07031768 0.11048175 0.11140074 -0.034858942
00000000: f8f5 e23a e81e 85bc 8367 f1bd 1706 d5bd
00000010: e566 87bd 5bd7 113c d01e bbbd ff45 a0bd
00000020: 7588 cfbd beca bd3d ef17 81bd 3cd0 1b3c
00000030: 009d d33d 0ac9 ee3c dbc2 173b 235b fd3c
00000040: 148c c33c 80fb 88bd 50cb afbd 74f1 083e
00000050: 61a6 e7bd 2426 643d dde0 e13d 6348 b9bd
00000060: e2f7 91bd 1ad3 bfbd c473 97bd 56fb e53d
00000070: 1a63 dabc caac ebbd 81f1 1bbd a967 493d
00000080: 3291 8cbd bc2f 8b3d 2b4c 09be 3fdb 313b
00000090: 7ee4 b73d 3a95 113e 1b33 70bd 8339 f73d
000000a0: 1be4 f1bc fcee 8fbc 023d 19be 0645 95bc
000000b0: 8103 de3d 9269 023d 2eef 22bb 29b3 91bd
000000c0: 68c6 353d 7599 033e 2f8d c43d ca64 0cbe
000000d0: b243 1a3e 64fc 11be 5715 1fbe b88f 233e
000000e0: 2b5d fc3d bf81 d6bd a692 9abd abb0 05be
000000f0: 19f9 ebbc 5e56 cabd b0a2 7e3d cb91 56bd
00000100: bf9d 4cbd fade 64bd dfdb 153d b281 2a3d
00000110: a71b 033d 1350 89bd 1601 0ebc e32d 41bd
00000120: 5fae 003e 53e6 dabd 07e9 c3bd 9d31 50bc
00000130: d325 6a3d 5759 dc39 5d5f 143e cbc6 5fbd
00000140: 668f 813d b0ec 9ebd 7564 33bc 181c 9e3d
00000150: 2120 383c e9b2 96bd 2556 d1bd bea3 b9bd
00000160: 379b 00be 457e a8bd 2bd4 433d 6aca 083e
00000170: 06de dcbc 72d8 adbc edce 33ba f8e1 dd3d
00000180: 277e b2bd 06f4 c3bd a783 12bd bb60 cf3d
00000190: 08ef 0d3e 9756 b7bc 2a3c debd 2881 09be
000001a0: 70ca a0bb 7927 99bd 11df 083e 1f48 d7bd
000001b0: 6152 d73d 817d 9f3d e1a9 01be 83ea c73d
000001c0: fd7e 08be b054 0e3e c013 13be 70be a1bd
000001d0: 52d0 3f3d 4eab b1bd 03f6 9e3d 729f a4bd
000001e0: fea4 37bd c093 babd 3d81 483c ddcc 26bd
000001f0: b702 903d 4144 e23d 1226 e43d 40c8 0ebd

readout.readouts.bex_20230623_denoised.location.bias f4 [2]
-0.026249778 0.11193082
00000000: c609 d7bc fc3b e53d

readout.readouts.ken_20230614_denoised.location.weight f4 [2, 64]
0.0758054 0.07799125 -0.012593946 -0.13671991 0.13512239 -0.13696036 -0.092250146 -0.07690932
0.11069542 -0.05549891 -0.053991638 -0.0141092995 -0.15202257 0.02299277 0.1024273 -0.10843564
-0.11958137 0.004669239 0.04456857 -0.081450544 0.07244476 -0.1314402 -0.08101517 0.04875919
-0.1310773 0.08739431 0.015954407 0.101520576 -0.19118637 -0.052715193 -0.009116223 -0.049021672
-0.13461271 0.11696554 -0.058696274 -0.0056198468 0.05797391 0.060022894 -0.07932817 -0.050873205
0.07224602 0.12762234 -0.019068612 -0.037108876 0.12633221 0.024679389 0.06341232 0.10338561
-0.104835026 -0.069442004 -0.1357479 -0.047918055 -0.12516916 0.11772164 0.108158745 0.115613125
-0.09420492 -0.057775427 0.12924062 -0.058405146 0.039589208 0.10401009 -0.017529365 0.12231393
-0.0030243194 0.03057855 -0.12868933 -0.13838503 0.017276933 -0.058418985 0.015356353 -0.05616836
-0.041530665 -0.01526681 0.058241606 0.07864786 -0.06404073 -0.12241163 0.1157088 0.031944737
-0.059682332 -0.047410883 0.07127263 0.12935852 0.019770851 -0.0034828973 0.045582693 -0.14073685
-0.08796652 -0.13588461 0.14279424 0.11578824 0.05599145 -0.056129806 0.09621598 0.11455712
-0.053673334 0.13439777 -0.11410371 0.0310183 0.035283297 -0.11492123 -0.062485423 0.12546642
-0.12689076 0.07129846 -0.09740894 0.02553569 -0.027443873 0.084956005 -0.091720566 0.029865297
0.005106895 -0.050755672 -0.063161016 0.108467996 -0.07664298 -0.017789857 0.115930095 0.026922578
0.11504938 -0.13068748 -0.10530039 -0.10823621 0.0058681616 0.14621024 -0.07797644 0.044894665
00000000: dd3f 9b3d e0b9 9f3d d756 4ebc 4e00 0cbe
00000010: 865d 0a3e 563f 0cbe a5ed bcbd a282 9dbd
00000020: 48b4 e23d d352 63bd 5626 5dbd b12a 67bc
00000030: ceab 1bbe 555b bc3c 67c5 d13d 8113 debd
00000040: 14e7 f4bd 6a00 993b 888d 363d 8bcf a6bd
00000050: eb5d 943d 4398 06be 48eb a5bd b7b7 473d
00000060: 2139 06be cafb b23d d1b2 823c 05ea cf3d
00000070: 5cc6 43be e3eb 57bd 365c 15bc f3ca 48bd
00000080: ead7 09be a18b ef3d 816b 70bd b126 b8bb
00000090: 0d76 6d3d 91da 753d cf76 a2bd 6c60 50bd
000000a0: b9f5 933d 6eaf 023e c735 9cbc 7aff 17bd
000000b0: 3b5d 013e 6e2c ca3c 52de 813d d6bb d33d
000000c0: bfb3 d6bd 9c37 8ebd 7f01 0bbe b945 44bd
000000d0: 582c 00be 0b18 f13d 5582 dd3d 93c6 ec3d
000000e0: 82ee c0bd eda5 6cbd a757 043e 3c3a 6fbd
000000f0: 4b28 223d 3e03 d53d be99 8fbc ba7f fa3d
00000100: a933 46bb de7f fa3c 23c7 03be ceb4 0dbe
00000110: 5b88 8d3c bf48 6fbd 3699 7b3c cb10 66bd
00000120: 0f1c 2abd a421 7abc c08e 6e3d 2112 a13d
00000130: c927 83bd f3b2 fabd bcf8 ec3d 7cd8 023d
00000140: 7675 74bd ea31 42bd 62f7 913d 8f76 043e
00000150: 7bf6 a13c 5241 64bb ebb4 3a3d 521d 10be
00000160: ca27 b4bd 5625 0bbe a738 123e 6322 ed3d
00000170: 4a57 653d 5ee8 65bd e20c c53d ec9c ea3d
00000180: 92d8 5bbd 929f 093e 35af e9bd 171a fe3c
00000190: 3885 103d d25b ebbd b7f0 7fbd 457a 003e
000001a0: a7ef 01be ed04 923d 577e c7bd 3930 d13c
000001b0: f9d1 e0bc 6afd ad3d fed7 bbbd 11a8 f43c
000001c0: be57 a73b 2ee5 4fbd 905a 81bd 7824 de3d
000001d0: fff6 9cbd 09bc 91bc c26c ed3d bd8c dc3c
000001e0: 029f eb3d f0d2 05be bba7 d7bd f2aa ddbd
000001f0: b549 c03b 23b8 153e 1db2 9fbd 78e3 373d

readout.readouts.ken_20230614_denoised.location.bias f4 [2]
0.056362104 -0.08907377
00000000: f3db 663d 4f6c b6bd
